train_weight_sr9/model_epoch_9.pth (torch_old, 918795 bytes, 22 tensors)

weight f4 [64, 3, 3, 3]
000000 6e e7 14 3e 95 fc 7f be 4c db 2f 3e ed 9c 2b be
       0.14541408 -0.24998696 0.17173499 -0.16759081
000010 cd 8b c0 be 95 23 25 3e 29 79 6e bc e8 61 1a 3e
       -0.3760666 0.16126855 -0.014555254 0.15076411
000020 43 da 2a 3e 4e 8f 64 3c c2 31 a2 bb 4a ef 4d bc
       0.16684823 0.013950182 -0.0049497792 -0.012569258
000030 7a 4d 3b 3d 49 59 84 3d 2e fa 27 be a7 ac 56 3a
       0.045728184 0.06462342 -0.1640403 0.00081891794
000040 41 43 91 3e 72 5d 54 be 51 9b ad 3c 1e 3a ce 3d
       0.28371623 -0.20738772 0.021192225 0.10069679
000050 1b ab b7 bd 5a 12 75 bd 38 5a 57 be 84 51 09 3f
       -0.08968183 -0.059831955 -0.2103051 0.5364001
000060 89 b7 cf 3c 5a 10 6f 3d 1b 09 ca be d1 3a 02 3d
       0.025356071 0.058365203 -0.39460072 0.031794373
000070 70 36 3a be 45 d8 b0 3d 12 d2 9e 3e fe b0 97 bd
       -0.18184829 0.08635 0.31019646 -0.074068055
000080 af 36 aa be 93 5c ff 3d da 4f 05 3e d6 a1 bc bd
       -0.33244845 0.12468829 0.13018742 -0.09210555
000090 33 82 4f be e1 86 b7 3c 58 ef bd 3e b7 8b c8 bd
       -0.20264511 0.022403182 0.37096667 -0.097922735
0000a0 ce 27 90 be 97 8d c7 bd ce 94 fe bd cf ee f9 3e
       -0.2815537 -0.09743803 -0.12430726 0.4881501
0000b0 b6 13 91 bd f1 65 45 3d bd 6f 29 bd d1 70 34 bc
       -0.07083838 0.048192922 -0.041366328 -0.011013226
0000c0 eb c1 ec 3e 8c 6f ee be bb d1 79 3d 14 ac 33 be
       0.46241698 -0.4656948 0.06099103 -0.17546111
0000d0 cb fc 51 3c 4a 04 c9 3d 44 2c 8a 3e 04 fc fe 3d
       0.012816618 0.09815271 0.26986897 0.12450412
0000e0 95 ab a1 3d b1 f1 5e 3d 7c 62 05 bd 57 9a 11 3e
       0.07894055 0.054429714 -0.032564625 0.14219032
0000f0 df af 77 3e 7e b1 13 3d fe 4e f8 bd 20 ae e8 bd
       0.24188183 0.03605794 -0.121244416 -0.11361337
000100 35 c3 b9 be ce 32 de 3d f5 f3 0a be e9 aa 8f 3e
       -0.36281744 0.10849534 -0.13569625 0.28060082
000110 68 12 eb 3c 50 f3 ad 3e c7 27 2d be 11 b7 9d bc
       0.0286953 0.33974695 -0.16909705 -0.019252332
000120 66 2f d4 3d 05 15 da 3d 29 e9 c5 bb cb a7 9c 3d
       0.10360603 0.106485404 -0.0060397577 0.076491915
000130 22 36 13 be 22 bc 76 be 88 72 f5 3d c6 af ad ba
       -0.14376119 -0.24095204 0.11984736 -0.0013251237
000140 5d 76 92 3d d2 dd 1a be ec 92 94 3e 68 ac 74 be
       0.07151482 -0.1512368 0.29018342 -0.23893893
000150 d2 f1 42 3e fd 0c a2 bd ff ca e7 3d 23 bd b5 bd
       0.1903756 -0.079126336 0.11318015 -0.088739656
000160 96 ce 2f bd fc 3c c1 bb 91 c8 22 3e 77 5c 1a be
       -0.042921625 -0.0058971625 0.15896823 -0.15074335
000170 b3 fe 36 3e cf 0f bc bd 7e 4c a4 be e8 ae ae 3d
       0.17870598 -0.09182703 -0.3208961 0.085294545
000180 aa 4b c9 3d 2e 3d 66 3e 07 a6 31 be dd a3 3d 3e
       0.09828885 0.22484276 -0.1734849 0.1851954
000190 7b c7 fd be 21 64 74 3d 2b ee 3a be 8a 9e 9d 3d
       -0.49566254 0.059665803 -0.18254916 0.076962546
0001a0 7f ed 9b 3e 38 0d c0 bd fc de d4 3d 33 6d 86 3c
       0.30454633 -0.09377521 0.103940934 0.016409492
0001b0 8a d0 46 3d 3b be 17 3e 85 96 34 be ef 25 6a be
       0.048538722 0.14818661 -0.17635544 -0.22866033
0001c0 1d 80 b7 3e 50 73 27 be d9 b0 5f bd e6 ae 98 bd
       0.3583993 -0.16352582 -0.054612014 -0.07455234
0001d0 f9 ff 13 3e 1c 5b 25 bc b8 98 86 be b0 3e 49 3e
       0.14453115 -0.010092523 -0.2628839 0.1965282
0001e0 e2 1c 0f 3e a2 63 88 3e d8 1c a5 be b5 99 3c 3b
       0.13975862 0.26638514 -0.3224857 0.002877814
0001f0 0d fb 1f be ca 02 17 3e b0 84 60 bd db 53 88 bc
       -0.15623112 0.14747158 -0.05481404 -0.016641548
000200 1a a7 01 3e c6 6c c3 bd f1 b6 2f 3e ae 45 83 be
       0.126614 -0.09542231 0.1715963 -0.256391
000210 f1 35 1c 3e d8 16 6f be 70 44 5c 3e 2b 81 62 be
       0.15254952 -0.23348558 0.21510482 -0.22119586
000220 d5 c8 50 3e 28 e5 15 3e 79 74 34 bd 29 81 2c be
       0.20389111 0.14638197 -0.04405639 -0.16846146
000230 73 40 7d bc 5e 71 11 3e 4e 26 59 3e d5 3f 89 3d
       -0.01545726 0.14203402 0.21206018 0.06701628
000240 66 ef 1f bd 16 be d7 bc 6c 63 3a 3e be 61 4d 3e
       -0.039046668 -0.026335757 0.18201989 0.20056817
000250 8c be 2d be 14 30 b7 be 2a 32 89 bd a7 08 ce be
       -0.16967219 -0.35778868 -0.06699021 -0.40240976
000260 fa 71 cc bd 56 d5 1a 3e e7 f7 73 be 1e 50 ce bd
       -0.09982677 0.15120444 -0.23825036 -0.10073875
000270 8a 47 35 3d 10 02 1b 3e 9f 57 5c 3e 46 3c 84 3c
       0.044257678 0.15137506 0.215178 0.016142022
000280 66 c9 14 3e 7f ea 04 3e c0 72 3e bd af ca bd 3d
       0.14529952 0.12980078 -0.046496153 0.092671745
000290 11 73 51 bc 16 ab 21 3d 96 93 d4 bc f5 5d 19 3e
       -0.012783782 0.0394698 -0.02594928 0.14977248
0002a0 f0 14 18 bd 00 db 95 3e cb 09 fb 3c e0 8e f7 39
       -0.037129343 0.29268646 0.030644318 0.0004721796
0002b0 c9 37 1c be fd cc a5 bc 7a e2 9e bd 02 6b ba bd
       -0.15255655 -0.020239348 -0.07758041 -0.09102441
0002c0 df 90 05 3e 14 6d 19 3d 4b 53 84 3e eb 06 4c 3d
       0.13043545 0.03745754 0.25844797 0.049811285
0002d0 5f 3e 12 be 05 db 7b 3e d3 53 c7 bc 1f e6 68 3e
       -0.14281605 0.24595268 -0.024331963 0.22744034
0002e0 5d 8a 7a be 90 0b ed bd 68 38 07 3d c3 4f 21 3e
       -0.24466844 -0.11574471 0.033012778 0.15753083
0002f0 39 51 7d be 02 e0 b7 be f2 50 87 3c e1 0c 36 3d
       -0.24738015 -0.35913092 0.01651809 0.044445876
000300 2f 92 26 be a8 93 f8 3e c2 57 5e bd ae 35 82 3e
       -0.16266702 0.48550153 -0.05428291 0.2543158
000310 f6 7f fe be 54 49 8b 3e 68 15 08 3c e4 4d a9 bd
       -0.49707 0.27204382 0.008305885 -0.082668096
000320 c6 39 0f bc 5d cc 61 3d 00 a4 a7 3d 99 cd 00 3d
       -0.008741802 0.055126537 0.081855774 0.031446073
000330 21 80 45 bd 3c 78 0c 3e 42 d8 39 be f1 42 57 3e
       -0.048217896 0.13717741 -0.18148902 0.2102163
000340 4c 93 76 3a 4f 45 21 3b b2 4f 41 bd a5 2b 5f be
       0.0009406104 0.0024607962 -0.047195144 -0.21793993
000350 12 1d c2 38 02 e3 d1 bd 6b 5f 53 3e 13 08 38 bd
       9.256056e-05 -0.102483764 0.20641868 -0.044929575
000360 b3 08 5b bd 43 fe 56 bc 41 ec 81 bf 92 05 b6 3c
       -0.053475093 -0.013122144 -1.0150224 0.022219453
000370 f3 5b 02 3f 05 c5 92 be 67 af 13 be 9a 7f 93 bd
       0.50921553 -0.2866594 -0.1442238 -0.072020724
000380 7d 9a 39 be e8 c1 0d 3e fa 24 b9 bb ec 8b 8d bf
       -0.18125339 0.138435 -0.00565016 -1.1058326
000390 c5 1b 67 be 70 a2 c8 3d 24 71 dc be 76 e1 1e 3e
       -0.22569187 0.097966075 -0.4305507 0.15515694
0003a0 c2 68 f0 bd 20 ea 13 bf 68 71 f4 bd d2 36 cd 3d
       -0.11738731 -0.5777912 -0.11935693 0.10020222
0003b0 c4 dc 66 bf 10 7b aa 3d fe 8a 67 be 7d c0 30 bf
       -0.9018061 0.083242536 -0.22611615 -0.69043714
0003c0 60 bc d2 3c 5e 29 b6 3d d7 13 1c bf 99 22 b5 3d
       0.02572459 0.08894609 -0.60967773 0.088444896
0003d0 55 37 1e be c1 1f 9a 3b 6d 05 8a 3e 64 5d 9a 3a
       -0.15450795 0.0047034924 0.26957265 0.00117771
0003e0 f8 ae d3 3d 82 62 d7 bd 64 44 a7 3d 42 c7 f3 bb
       0.10336107 -0.10516836 0.08167341 -0.007439525
0003f0 44 cd d9 3c 0f f7 c7 3c 6b 99 19 bc ff ed 23 be
       0.026587136 0.024409799 -0.009374957 -0.16008757

bias f4 [64]
000000 a4 70 b6 b8 6d 0a 32 bb b7 96 f8 bd 53 72 49 bc
       -8.699417e-05 -0.0027166859 -0.121381216 -0.012295323
000010 b5 53 02 3d 03 6d 2c be c0 74 d6 be a9 73 34 bc
       0.03181811 -0.1683846 -0.41885948 -0.011013904
000020 5d ce 15 3d be ec 68 3d 90 23 2e be 24 ad 0e 3e
       0.036573756 0.0568664 -0.17005754 0.13933235
000030 8f d8 4e bc 39 12 8a 3e c7 17 d1 be c7 77 2f bd
       -0.012624874 0.26967028 -0.40838453 -0.042838838
000040 0b 15 98 3c 98 a8 03 bc 7b 43 cb 3c c3 d5 86 3e
       0.018564722 -0.008035801 0.02481245 0.26334962
000050 e4 6d 2c bc 82 4e cd bc ef 15 8c 3d b6 b5 46 3d
       -0.010524247 -0.02506185 0.06840121 0.048513137
000060 da 4e cd 3c 35 7d ad 3d a5 d9 70 be 1c 89 42 3d
       0.025062013 0.08471147 -0.23520525 0.04749404
000070 62 cb e0 3d 7a 6c f1 3d d7 86 23 3c fe 41 6c be
       0.10976292 0.117882684 0.009980879 -0.23072049
000080 9b 37 d6 be c7 dd 74 3c 8a 03 87 be a6 cd e8 3d
       -0.418393 0.014945454 -0.26369888 0.11367349
000090 97 ed 87 3e 87 61 ed ba 04 f5 2d be 48 52 5d be
       0.26548454 -0.001811073 -0.16987997 -0.21613419
0000a0 5a 12 1e 3e 0d c4 c7 bd 52 41 1a 3d 2f 7d fd 3c
       0.15436688 -0.097541906 0.03765995 0.030943481
0000b0 24 c0 d3 bb ee f2 31 3e 08 43 82 3c 1b f8 ca 3c
       -0.006462114 0.17377827 0.015901104 0.024776509
0000c0 8a 17 eb ba f1 b2 83 bb a3 51 23 bc 2c 52 98 bc
       -0.0017936092 -0.004019134 -0.009968194 -0.01859387
0000d0 53 a7 12 3d 63 7e ac bc 4b dc 1b 3d 29 28 09 3e
       0.035804104 -0.02105636 0.038051885 0.13394226
0000e0 5c 50 96 bc 7d f9 91 3e ac c1 06 bf 9a 36 97 3d
       -0.018348865 0.28510657 -0.5263927 0.07383461
0000f0 1c 26 54 be e7 fd 9e bb 80 87 36 3e e7 11 76 be
       -0.20717663 -0.004852045 0.17825127 -0.24030267

weight f4 [64, 64, 3, 3]
000000 f7 ce 87 3e 13 f8 de bd 0c 91 fb 3d 10 c5 9d 3c
       0.2652509 -0.1088716 0.12283525 0.019259006
000010 09 9b 1c bf 2a 5d 4b 3d 32 55 56 3d a0 f8 51 3c
       -0.61174065 0.049649395 0.052327342 0.0128156245
000020 c3 42 c5 bd 96 b1 42 3d ff 5e 88 bc 33 70 76 3c
       -0.096318744 0.04753264 -0.01664686 0.015041399
000030 52 af 62 3d 1b bb b4 3d 4c 60 f9 3d b7 44 d0 3b
       0.05534298 0.0882475 0.1217657 0.0063558477
000040 f8 7f 82 3d fa 54 d5 3b 84 bd 6d ba 93 4f 23 bc
       0.06372064 0.006510374 -0.00090690725 -0.009967702
000050 92 f8 09 bd b8 df b6 bc 58 8b db 3d da 42 84 3d
       -0.03368432 -0.022323474 0.10719937 0.064580634
000060 54 81 9b bd 0e 06 d7 3b 1d 1e 9d bc a7 59 8d 3d
       -0.07593027 0.006562001 -0.019179398 0.069018655
000070 39 8a e6 bd 67 d8 93 bd ec eb 5a bd c9 80 13 3d
       -0.11256833 -0.0721901 -0.05344765 0.03601149
000080 da 69 26 3d 20 40 e8 bd 42 5f 00 3d 4c 86 17 be
       0.04062829 -0.11340356 0.031340845 -0.14797324
000090 1b 2a 37 bd df b4 e0 bd 39 85 55 bd ab 8d b2 3d
       -0.04471789 -0.109719984 -0.052129004 0.08718427
0000a0 15 be ae 3d df 14 e1 bd de 46 a6 bd c6 c8 21 3d
       0.08532349 -0.10990309 -0.081189856 0.039498113
0000b0 80 a2 4d 3c c5 ec b1 bd bd ce e9 3c b5 91 84 bd
       0.01255095 -0.08687738 0.028540963 -0.06473104
0000c0 83 57 e8 bd 74 70 8c bd 2f f4 96 bd 3d ad ab bd
       -0.113448165 -0.06857386 -0.07370793 -0.08382652
0000d0 eb bd 94 bd 10 ba 26 bd f9 cd 1a bd e2 4c 3b bc
       -0.072627865 -0.040704787 -0.037794087 -0.0114319045
0000e0 82 00 2c 3d 38 ae bd bc 75 57 38 3d af 25 15 bd
       0.04199267 -0.023154363 0.04500528 -0.03641289
0000f0 19 6c f8 bb da 92 78 3d 04 c9 6a bd 72 ce 3c bc
       -0.0075812456 0.060686924 -0.05732061 -0.01152383
000100 53 36 46 3e 1c e5 eb 3d bb 44 24 3e 42 2c bf bd
       0.1935666 0.115183085 0.16041844 -0.093346134
000110 de 50 45 3d 70 3e e3 3c 81 61 3a 3e 77 68 7d 3d
       0.048172824 0.027739733 0.18201257 0.061867204
000120 6f 88 bc be 1f ce 38 3d 04 49 c5 bd b8 bf 87 be
       -0.3682284 0.045118447 -0.09633067 -0.26513457
000130 05 68 36 be 90 0f b4 bd ea 5a 84 bf 5e bb 88 bc
       -0.17813118 -0.08792031 -1.0340245 -0.016690906
000140 bc 0b 89 be 47 7e 6d 3d 8a d0 d7 bd 5d 86 ad 3d
       -0.26766765 0.057981756 -0.105378225 0.084728934
000150 87 94 bd bd 3c 5c 9f 3a 8c 3a bb 3d 8e 33 2f 3d
       -0.09256845 0.0012158225 0.09142026 0.042773776
000160 6c 9e 90 bd 30 fc 9e bd 25 06 b2 bd 7a 01 d1 3b
       -0.070614666 -0.07762945 -0.08692578 0.00637835
000170 9c 73 1a 3d 0a 51 97 39 49 1b ac bd 53 25 a8 bd
       0.03770791 0.00028861343 -0.08403642 -0.08210244
000180 02 69 20 3e 34 48 41 be f2 89 77 be e4 07 e3 3d
       0.15665057 -0.188752 -0.24173716 0.110854894
000190 c4 07 53 3d 6b 00 c7 3c be ad b6 3d 35 d1 93 3c
       0.051521078 0.024292191 0.089198574 0.018044094
0001a0 8a 6e 86 3d d8 e8 e2 bc e6 2b c7 3b 5d 66 8a 3d
       0.065640524 -0.02769892 0.006078231 0.067578055
0001b0 23 c1 c4 3d 31 e3 64 bd df eb 8f 3d 1b 10 9e 3d
       0.096071504 -0.05588073 0.07027411 0.077179156
0001c0 1d de 52 3c b7 cc 4e 3e bd bb 23 3e ee 45 a8 bd
       0.012870339 0.2019528 0.15989585 -0.08216463
0001d0 71 87 d9 3c ed 52 4f bd 0c 54 d4 bd 02 9c 91 bc
       0.026553841 -0.050616194 -0.10367593 -0.017774586
0001e0 6c d4 9c bc 3b 32 a5 bd fb c3 4f bb 59 bd d0 bd
       -0.01914426 -0.08066221 -0.0031702507 -0.10192365
0001f0 e6 a1 ca 3d 54 7c 93 bd 0d 53 44 3d 88 6b a5 3d
       0.09894161 -0.07201448 0.047930766 0.080771506
000200 fc d1 85 3d 0f 7b dc 3d 50 ee 81 bc c5 c4 d3 3d
       0.06534192 0.10765659 -0.015860707 0.10340265
000210 3f 6b 2d 3d df 05 33 3c 22 fc e2 3d 98 83 47 bd
       0.042338606 0.010926693 0.11083247 -0.048709482
000220 d0 b8 41 3b 75 d0 32 3d 32 cd 48 3d 9b b3 36 3e
       0.002955962 0.04365583 0.049023814 0.17841952
000230 11 8f 1f be a8 f2 2f bc 39 1b 15 3e 4e c8 ce bc
       -0.15581919 -0.010739006 0.14561166 -0.025241997
000240 d4 8d c6 3c c6 5c c8 bd 44 da 50 3b 81 48 48 3d
       0.02423755 -0.0978332 0.0031868378 0.04889727
000250 b8 45 b2 bd 6b 17 b1 3c 53 65 0d bc 68 27 0f 3c
       -0.08704704 0.021617612 -0.008630115 0.0087374225
000260 0f a1 53 3c 7b ac 6d 3d 36 cb 27 3d db e5 16 3e
       0.012916817 0.05802582 0.04096528 0.1473612
000270 74 8f d8 bd cc 19 bc 3c 6c 3c c4 39 a6 34 3f bc
       -0.105742365 0.02296152 0.0003742905 -0.011670267
000280 dd 8d bf 3d f7 84 35 3d 3a 28 4a bd 66 60 68 3d
       0.0935323 0.04431626 -0.04935477 0.056732558
000290 7b 9f 43 3d 06 71 ae bd 5b 3f 39 be 8e 8d 25 3e
       0.047759514 -0.08517651 -0.18090574 0.1616728
0002a0 fd 07 c4 bd 1a d5 11 be ba 09 bf 3c 56 ce 53 bc
       -0.09571836 -0.14241448 0.023320068 -0.012927612
0002b0 38 c6 6c 3e 81 39 13 bc fb 2c 27 3b 7f f0 4d 3e
       0.2312249 -0.008985878 0.0025508988 0.20111273
0002c0 a0 3e 07 3d e1 7b f5 3d df c0 88 3d 8d b0 83 be
       0.03301871 0.11986519 0.06677412 -0.25720635
0002d0 1c e2 86 bd 9a b1 b6 3e 41 a8 56 3c 8d 8b 14 3e
       -0.06586096 0.35682374 0.013101638 0.1450636
0002e0 56 c3 0d bd 7e 0c 35 3d e0 3f 21 3d f0 87 95 3d
       -0.034610115 0.044201367 0.039367557 0.07301319
0002f0 df fc e2 3d 19 4a 92 bd 37 ab 79 bd 60 29 18 3c
       0.110833876 -0.07143039 -0.0609543 0.009287208
000300 9d c5 30 3c a3 e0 10 bd 80 01 77 bc 7a 53 11 3e
       0.010789302 -0.03537048 -0.015076041 0.14192
000310 47 1d 9a bc 9a 06 a0 bd 42 f0 e3 3b fd 98 b3 bd
       -0.018812789 -0.07813759 0.006956131 -0.087694146
000320 00 a9 d0 bc 7d ba 23 ba 09 0b 86 3e 4e 64 48 3e
       -0.02547121 -0.00062457455 0.26180294 0.19569513
000330 11 22 ee bb 52 99 17 3d dc 8e d0 bc 44 e9 d8 bc
       -0.0072672446 0.037011452 -0.025458746 -0.026478417
000340 a7 b5 33 be 7a 04 52 3d 68 f5 bc 3d a1 14 07 3d
       -0.17549764 0.0512738 0.09226495 0.032978658
000350 6b 51 c8 bc e2 71 50 be a0 60 1c be 5c 6e 22 be
       -0.024452886 -0.20355943 -0.15271235 -0.15862411
000360 9a 4a e5 bd 5a 47 a0 bc aa 99 5e 3c 4c 21 51 bd
       -0.1119587 -0.019565273 0.013586441 -0.051057145
000370 fa d1 d6 3a 8d 0e 16 3d 5c 06 f6 3d 30 88 1a bc
       0.0016389482 0.03663497 0.12012932 -0.009431884
000380 8c bc be 3c 7d bc 98 3d 3d 3c 98 3e 9b 49 1d 3e
       0.023283266 0.07457826 0.29733458 0.1536011
000390 b8 b5 79 3d 3f 8c 60 bc d7 a3 03 3d 98 8b e6 3c
       0.060964316 -0.013705312 0.03213867 0.028142735
0003a0 9e 65 71 3c ec 2e 62 bc 8e 07 29 bb b2 4c 07 3c
       0.0147337 -0.013805132 -0.0025791856 0.008258032
0003b0 c0 5f ed bb c2 85 8c 3d 9c 7d e0 bd e7 6b e1 bd
       -0.0072440803 0.0686145 -0.10961458 -0.11006909
0003c0 bc f1 64 3d 07 2a 60 bd cc 28 c4 3c 4a 29 cd bc
       0.0558946 -0.05472758 0.023945235 -0.025044102
0003d0 46 ec 1b bc 4e f0 9d bd 2a 2b bc bd 99 90 3a 3e
       -0.009516781 -0.0771185 -0.091879204 0.18219222
0003e0 22 b8 1a be 28 52 3e bd 45 b1 b7 3c fc 85 03 be
       -0.15109304 -0.04646507 0.022423396 -0.1284408
0003f0 4b 38 a5 3c 2b d4 ce bc 84 2c c6 bd b2 0e 6a bd
       0.020168444 -0.025247654 -0.096764594 -0.05714292

bias f4 [64]
000000 21 b9 46 3e 0d a6 9f 3d c0 68 2c bd 98 5d 14 39
       0.19406559 0.077953435 -0.042092085 0.00014149246
000010 95 9a 5b bd 69 8c 8e 3d 91 ad 23 bc 51 bf 6a bd
       -0.053614218 0.06960375 -0.009990112 -0.05731136
000020 7c b2 a9 bd a7 d0 77 39 eb 43 2b 3e 58 b3 eb 3d
       -0.08285996 0.00023633485 0.16725127 0.115088165
000030 3f 88 bb 38 c4 3b 7b bd a2 3b 1d be 1b 10 b2 bd
       8.942233e-05 -0.061336294 -0.1535478 -0.08694478
000040 35 53 bc bc c3 fd da 3b 9b 1c c4 bd b6 a4 25 bd
       -0.022988895 0.006683083 -0.095757686 -0.040440284
000050 7f b7 2d bd 07 da 32 bd 95 90 ca bc e7 0b da bb
       -0.042411324 -0.04366496 -0.024727145 -0.006654251
000060 f1 73 06 3e db c8 d5 3c 8b 7f a6 bd e2 6a 9c bd
       0.13130166 0.026096752 -0.08129796 -0.07637574
000070 cb 21 c2 bc 17 2b 99 be 00 84 03 bd 66 21 50 bd
       -0.023697754 -0.29915687 -0.032108307 -0.0508131
000080 a6 60 d7 bd b9 74 78 bc 61 6e 8c 3c ef 05 30 bc
       -0.10516481 -0.015164548 0.017142477 -0.010743602
000090 6d 01 6f 3d 3b ca 80 bd e3 34 9a 3d 05 22 e7 bd
       0.05835097 -0.062885724 0.075296186 -0.112857856
0000a0 aa 42 1b bd 38 ed 8d bc 40 18 10 bd 61 ef ba 3b
       -0.037905373 -0.017325029 -0.035179377 0.0057048057
0000b0 29 f1 5b 3c c9 2e a1 3d 74 94 67 bc 62 76 43 3c
       0.013424196 0.07870252 -0.014134515 0.01193008
0000c0 d5 09 90 bc 9d 18 5c bd 6c 2d df bb 1b bb 5d bd
       -0.017582813 -0.05373441 -0.0068108346 -0.054133516
0000d0 82 d8 89 bc a6 4f c2 3c ae 71 ae 3d 64 83 83 3d
       -0.016826872 0.02371962 0.085177764 0.06421545
0000e0 d0 a5 01 be 3a 52 b5 bc ad bc 7d bd 63 da 31 3b
       -0.12660909 -0.022133935 -0.061947513 0.0027138225
0000f0 10 f6 f1 3d c7 84 6b bd f9 71 46 3d a0 ba ab bd
       0.11814511 -0.057499673 0.048448537 -0.08385205

weight f4 [64, 64, 3, 3]
000000 5a d0 a0 be fe be df bd c2 fd 3c bc f4 85 6d be
       -0.3140896 -0.10925101 -0.01153511 -0.2319563
000010 86 03 5f bd 51 5f a1 3d 47 7c 6c be 85 83 87 be
       -0.05444672 0.07879508 -0.23094283 -0.2646753
000020 6c 6a 87 3d 95 c3 d1 bd 2f ce 61 3d 74 27 a2 3c
       0.06612095 -0.102423824 0.055128273 0.019794203
000030 ab 89 1d bd ae b2 22 bb 45 55 47 bc 08 17 d5 bc
       -0.03846137 -0.002482574 -0.012166326 -0.026011959
000040 ed 2d 32 3d 89 95 8e 3c 90 4d 8a bd 72 b8 bb bd
       0.04350083 0.017405288 -0.06753075 -0.091660395
000050 94 47 b2 bc 38 06 0e be 26 2c 49 bd 6f 50 79 bd
       -0.021762647 -0.1386956 -0.04911437 -0.060867723
000060 2a b6 9c bd 3c 36 ce 3d 2c 6f 60 3d f2 2a 55 be
       -0.076519325 0.10068938 0.05479352 -0.20817164
000070 db f8 b8 3d 6e 4a 8f 3c ca 34 31 be a8 a2 20 3e
       0.090318404 0.017491546 -0.17305294 0.15687048
000080 58 15 4e 3d 7c 04 6d be b8 58 20 3d eb 0c 11 3c
       0.050313324 -0.23146242 0.03914711 0.008853178
000090 b8 af 1a 3d 9d 71 08 3d 29 4a 26 be 13 25 6f 3c
       0.037765235 0.033311475 -0.16239227 0.0145962415
0000a0 c0 f5 8f bd cc 2d a5 bd fd 2a 3c bd db 1c 1a 3d
       -0.07029295 -0.08065376 -0.045939434 0.037625175
0000b0 42 96 c6 bb f9 29 ce 3d b9 5a bc bd 9a 2f a0 bc
       -0.0060603926 0.100665994 -0.091969915 -0.019553948
0000c0 0b a6 01 3d 19 1f 2d bd a4 25 55 3c 38 a7 47 bc
       0.03165249 -0.042265985 0.0130094625 -0.012185864
0000d0 e1 41 c3 3d a8 d0 a0 3d c9 8d c4 3d 2b 8d 83 3e
       0.0953405 0.07852298 0.09597356 0.2569364
0000e0 52 71 67 bd c7 53 c0 bd 46 0f 2b 3e d0 af 18 3e
       -0.056504555 -0.09390979 0.16705045 0.14910817
0000f0 fe 93 89 bd 5b f3 13 3e 52 6d 3f bd 40 d0 9c bc
       -0.067176804 0.14448301 -0.046735115 -0.01914227
000100 d6 41 6d 3c 65 e4 4e bc 68 f8 d0 bd 3a 6d 0c bd
       0.014481029 -0.012627696 -0.1020363 -0.034283854
000110 94 12 31 be 0e 20 b4 bd 13 6e 8c 3c fa 9b 69 bd
       -0.17292243 -0.087951764 0.017142331 -0.057033516
000120 6e be 93 bc a0 37 1f bd 81 ae d4 bc 23 3c 07 be
       -0.01803514 -0.038871408 -0.025962116 -0.13206534
000130 ba 3c 70 be bc 33 2b be 24 6a a7 bd 87 52 82 be
       -0.23460665 -0.16718954 -0.081745416 -0.25453588
000140 ad 6e cb bd 1c 4b d2 bd 49 74 69 3d 55 fd e1 3d
       -0.09933219 -0.10268232 0.056995664 0.110346474
000150 0e 32 fa bc 8b a9 5d bd e8 19 a9 bb 5e 44 0a bd
       -0.030541446 -0.054116767 -0.005160559 -0.033756606
000160 d5 46 48 be 46 a6 6c ba f3 14 24 3c df e2 58 bc
       -0.1955827 -0.0009027462 0.01001476 -0.013237684
000170 82 f8 1a 3d 5c 37 9e bd 46 32 7a 3e 2d 77 e2 3c
       0.03783465 -0.07725403 0.2443324 0.027644718
000180 2f ae 09 bd 21 97 5f 3d e2 70 33 bd 57 fd 0a be
       -0.03361338 0.054587487 -0.043808825 -0.13573204
000190 ae 44 ff 3d 49 be 57 3d 46 15 f0 bd 57 3a 29 3e
       0.124642715 0.052671704 -0.117228076 0.16526161
0001a0 5f 6b 0f 3d 06 9c 8a bd 63 06 6e bd 4d 88 85 3a
       0.035014506 -0.0676804 -0.05811156 0.0010187716
0001b0 26 e7 d5 bc 97 06 96 3c 3f be 59 38 c0 3b 82 bd
       -0.026111197 0.01831369 5.1914012e-05 -0.06359053
0001c0 75 15 bc 3c 74 77 6d be 71 34 4e bd 96 ca 07 bd
       0.02295945 -0.23190099 -0.05034298 -0.033152185
0001d0 cc 28 93 bd 89 3d 0b be 26 c0 44 bc 5c b5 16 3d
       -0.07185516 -0.13597693 -0.012008702 0.03679405
0001e0 27 2b da bd 34 a2 0f bd ab 0d ec 3d f0 b4 c0 bd
       -0.10652762 -0.0350668 0.115260445 -0.09409511
0001f0 7d b5 35 3e ad 68 52 3e 81 52 b1 bd 78 0a bb be
       0.17745014 0.20547743 -0.086583145 -0.36531425
000200 7a b2 31 3e ca c8 8c bd 7e b5 a5 bc 5d 16 67 be
       0.1735324 -0.06874235 -0.020228144 -0.22567125
000210 76 67 95 3d a3 30 e5 bc fa 56 53 bd f0 98 f7 bd
       0.07295124 -0.027977293 -0.05159662 -0.120897174
000220 6b dd 4e bd 07 a2 0c bd 3c f3 b8 bc 58 54 a5 bd
       -0.05050413 -0.03433421 -0.02257692 -0.08072728
000230 61 e0 36 3d 1b 4a 26 be 34 5e ef bd 46 ab c6 bd
       0.04464758 -0.16239206 -0.1168789 -0.097006366
000240 db be d4 bc 47 09 80 be 1d d6 13 bd 0e 64 70 bd
       -0.025969913 -0.25007078 -0.036092866 -0.05868917
000250 52 e6 b6 3b 3a be 63 bc e6 b1 8e bd 2d 14 f9 bc
       0.0055816555 -0.013900334 -0.06967525 -0.030405128
000260 c2 84 cc 3c ca 34 cf 3c c7 64 9c be 35 a9 92 3e
       0.024965648 0.025293726 -0.30545637 0.2864472
000270 9e 3f 50 bd ba 71 b5 3e dc f7 9b 3d 99 92 ba 3c
       -0.05084192 0.3543833 0.07615635 0.022774981
000280 9d 2c 98 3e 2c 16 7d 3b 87 65 b6 bd f5 52 9e 3d
       0.29721537 0.0038617952 -0.089060836 0.077306665
000290 7f 0d d9 3b 36 37 eb bd cd 5e 80 bd 27 e5 b3 3d
       0.0066239233 -0.1148514 -0.06268082 0.08783942
0002a0 91 32 4c 39 db 51 1b be ea a4 74 bc 7c 47 94 bd
       0.00019473794 -0.15167944 -0.014931897 -0.07240197
0002b0 b1 b0 f0 3b 3f 74 d1 bc 08 2d b0 bc 6d b2 d8 bb
       0.007345282 -0.025568126 -0.021505848 -0.006613067
0002c0 17 fc 0a 3d d6 a5 b9 bd 87 41 51 bd 89 8a c5 bb
       0.033931818 -0.09064834 -0.051087882 -0.0060284776
0002d0 9e ff aa bd 51 38 0b 3e 6d c1 d8 bd 9c c3 86 bd
       -0.08349536 0.13595702 -0.10583768 -0.06580278
0002e0 3e 36 3e 3e e7 7b f2 3b 63 a5 48 3c d3 bd a4 3c
       0.18575379 0.007400024 0.0122464625 0.020110046
0002f0 3a 15 8c bd 5a 36 38 bd 2f 65 89 3d 70 ac f3 3c
       -0.06839986 -0.04497371 0.06708752 0.02974531
000300 a6 26 4a bd 38 0a d3 3c f5 e7 8f bd 6c ca df bd
       -0.049353264 0.025761709 -0.07026664 -0.10927281
000310 ac 82 2d bc 53 af 3e bd db 9e 88 bd 86 81 14 3e
       -0.010590237 -0.04655392 -0.06670924 0.14502534
000320 4e 65 93 3d c9 b2 c4 bd a1 16 19 3b e4 cf 82 bd
       0.07197057 -0.09604413 0.0023359435 -0.06387308
000330 80 b6 ba bc ad 32 c7 bc 9c 2c 0b 3c df 8b 9b bd
       -0.0227921 -0.024316156 0.008494522 -0.07595038
000340 eb 37 03 be 3e b6 aa 3c f1 a8 8a bd 5a 21 fe 3d
       -0.128143 0.020838853 -0.06770504 0.12408705
000350 91 29 4e 3d 26 c6 be bd c6 cb e2 bd c5 3f a4 bd
       0.05033261 -0.093151376 -0.11074023 -0.080199756
000360 f3 28 70 bd df da 2c be 6d 2b 83 bd ae 8f a7 bd
       -0.058632802 -0.16880368 -0.06404767 -0.081817016
000370 54 b3 c7 bd 12 51 a8 bb a7 35 83 3c 3f ce 9b bc
       -0.09751001 -0.0051366175 0.016016794 -0.019019244
000380 55 ff b4 bb e2 9d 06 be 22 a9 d7 3d 43 e4 ac bd
       -0.005523602 -0.13146165 0.105303064 -0.08441975
000390 ad 85 06 be c5 45 75 bd 2b c8 64 b9 a1 a9 3f be
       -0.13136931 -0.05988099 -0.00021818343 -0.18717052
0003a0 54 f7 04 be 88 3c 0b 3d 9e 1f 23 be c4 64 54 3d
       -0.12984973 0.033993274 -0.1593003 0.05185391
0003b0 d6 98 c4 bc 5f 9e 19 bf 37 a4 f3 bd e1 f9 87 3d
       -0.02399866 -0.6000728 -0.11896556 0.066394575
0003c0 a4 67 b8 bc b4 bf f3 bd a2 85 66 bb 63 7e be bd
       -0.022510357 -0.11901799 -0.0035174866 -0.0930145
0003d0 7e 00 3a be 9d 06 08 3e 3c 2d ff bd 20 35 1b 3d
       -0.1816425 0.13283773 -0.124598 0.03789246
0003e0 f4 d2 de 3c 39 cc 4e bd 1b ec 9c bc 1a ee f1 bd
       0.0272002 -0.05048773 -0.019155553 -0.118129924
0003f0 f0 85 85 3d d5 e9 27 3e 73 41 a5 bd f8 47 8c bd
       0.06519687 0.16397794 -0.08069124 -0.068496644

bias f4 [64]
000000 e5 ef 49 3e 5d f9 27 3e 20 6b 97 bd 71 cb 80 bd
       0.19720419 0.16403718 -0.07393479 -0.06288803
000010 8c 2e 20 bd c0 c5 9f bc ea 81 2a bb 97 59 2a bd
       -0.03910689 -0.019503474 -0.0026017376 -0.041589346
000020 07 4d 82 bc be ff fc 3c 63 ab c7 3c f2 53 4b bd
       -0.01590587 0.030883666 0.024373716 -0.049640603
000030 03 a2 7d bc 4e 53 62 bd 65 e8 09 be 62 6e e0 bc
       -0.015480521 -0.055255227 -0.13467558 -0.027396385
000040 c0 74 e4 bc bf e2 ab 3c 59 ec 18 bd f8 f4 d2 bc
       -0.027887702 0.020982144 -0.037334774 -0.025751576
000050 17 17 33 bd f6 a6 a1 bd d1 f2 32 bd d0 cf 6b bb
       -0.043723192 -0.078931734 -0.0436886 -0.003598202
000060 79 c7 76 bd f6 d0 a7 3c 5d 8c da bc 1b 35 09 3d
       -0.060248826 0.020485383 -0.026678259 0.03349791
000070 13 f5 81 3c 5b f6 f6 bd 4e 41 cc 3b fc f3 98 bd
       0.01586393 -0.12058707 0.006233371 -0.07468411
000080 a5 80 0b bd e7 16 bd bc cc b1 e8 ba c6 4d a6 3c
       -0.03405823 -0.02308221 -0.0017753183 0.020300757
000090 02 6e c1 3d 5d 47 33 bd 14 61 3a bd e3 59 97 bd
       0.094448105 -0.04376923 -0.045502737 -0.073901914
0000a0 ad 96 35 3b 24 75 bf bd 70 11 b7 bc fa 0c d9 bc
       0.0027708218 -0.09348515 -0.022347182 -0.026495446
0000b0 e8 e4 21 bd cc 42 fb bc f3 cd b7 bc a2 de a7 bd
       -0.039524943 -0.0306715 -0.022437071 -0.08196761
0000c0 55 f6 23 be c9 4c 37 bd 6b f9 c5 3c 7f 1a 83 bd
       -0.16011937 -0.044750962 0.024166783 -0.06401538
0000d0 09 ad 34 bd 22 3d 30 bb dd 5b 50 3e e7 b2 0e bc
       -0.04411033 -0.0026891907 0.20347543 -0.008709646
0000e0 f7 75 e6 bc 63 a2 47 bc db fa c7 bd 5f 71 34 be
       -0.028132422 -0.012184712 -0.09764644 -0.17621373
0000f0 fb 67 8e bc c3 92 b0 bc 95 b5 fc 3d 3f 09 89 bc
       -0.017383566 -0.021554356 0.123393215 -0.016728042

weight f4 [64, 64, 3, 3]
000000 6d 32 51 bb d9 49 58 3c 73 a2 cd bd 37 27 59 3d
       -0.0031920925 0.0132012 -0.1004075 0.053015914
000010 79 93 18 be 80 8f d3 3a 0b dd 88 bd ee 68 9a bd
       -0.14900006 0.0016140789 -0.066827856 -0.07539545
000020 ca 32 1d bd 70 65 e8 bc 9d 73 a1 3b 3b 76 1e bc
       -0.038378514 -0.028368682 0.0049271123 -0.009671743
000030 41 3a 54 3d 13 42 e1 3d 55 94 80 3d 36 69 6f bd
       0.051813368 0.10998931 0.06278292 -0.058449946
000040 76 9c 04 3d 4a 8c b0 3d 37 13 fe bb d4 b4 0d bd
       0.032375775 0.08620508 -0.0077537554 -0.03459628
000050 34 e5 47 3d 19 fb b8 3c bd a3 a7 bd 44 4a e0 3b
       0.04880257 0.02258067 -0.081855275 0.0068447907
000060 88 af bb bc b5 0f a6 bd b5 ba be bd 2d fe 53 bd
       -0.022910848 -0.08108465 -0.09312955 -0.051756073
000070 01 c2 26 3d 50 06 12 bc 16 b3 83 bd 79 66 a1 bc
       0.04071236 -0.008912638 -0.06430642 -0.019702183
000080 3b ec 85 bc 71 35 83 3c 7a 77 e7 bb 96 8a 00 3d
       -0.016347995 0.016016694 -0.0070638033 0.031382166
000090 1e 20 32 3c fe 51 81 bd 76 25 9d bc 5e 15 80 bd
       0.010871915 -0.06314467 -0.019182902 -0.062540755
0000a0 ed ae a5 bd 1c af bc bc f9 71 21 bd c4 39 b2 3d
       -0.08090005 -0.023032717 -0.039415333 0.08702424
0000b0 92 1e b6 bd cf b4 f7 3a 0e 0e 30 3d a5 c6 87 3d
       -0.088925496 0.001889849 0.042982154 0.06629685
0000c0 7d bb 83 ba c4 1c 0f bc f9 59 bc bb ce 18 06 3d
       -0.0010050383 -0.008734886 -0.0057480303 0.0327385
0000d0 4e a1 b0 3c 6d 87 81 bd 79 2c 31 bd 8e b0 4f 3d
       0.021561291 -0.063246585 -0.043255303 0.050705485
0000e0 f0 63 ec bc ff f3 76 bd 6a 6c 64 3d e8 07 12 3a
       -0.028856248 -0.060291287 0.055767454 0.0005570636
0000f0 c0 35 dd bd b0 46 46 be 1f 2a f2 3c 10 6f 5f 3a
       -0.108012676 -0.19362903 0.0295611 0.00085233245
000100 82 88 48 3d 86 a6 79 bc 85 23 7f bd 12 1d 93 3c
       0.04895831 -0.015237456 -0.062289733 0.017958198
000110 bc 04 63 3b 81 eb 87 bd 87 7c 72 3d 2c 4e 17 bb
       0.0034640273 -0.06636716 0.05920079 -0.0023087366
000120 eb e2 05 bd d3 99 5c ba f8 54 ca bd 52 70 cd bd
       -0.03268711 -0.00084152556 -0.09879488 -0.10031189
000130 7b 1b ac 3d 04 b2 ad 3c 8c 18 15 bd d4 13 1a 3c
       0.08403679 0.021203049 -0.036400363 0.009404141
000140 c0 30 9b 3c fc 86 06 bd a4 2a a8 3c 68 87 d7 bd
       0.018944144 -0.032843575 0.020528145 -0.105238736
000150 b3 ed f3 3d 00 b9 0d bc 88 49 44 bc 5c a1 85 bd
       0.11910572 -0.0086500645 -0.011980422 -0.065249175
000160 b2 8c 30 3d 3f 56 9b bc dc 9b d8 bc 25 94 4f bc
       0.043102928 -0.018962024 -0.026441507 -0.012669598
000170 4d ac a8 bd be 84 25 3c e8 fd e0 bc 58 6b 5b bd
       -0.08235989 0.010102449 -0.027464822 -0.053569168
000180 f2 e6 83 bd 87 ff 5f 3c 21 4c 50 bd 87 c3 7a bd
       -0.06440534 0.013671762 -0.050853852 -0.061221626
000190 d4 23 e5 bc 89 4b 13 bd c5 df 2f 3c 3a c3 ef 3c
       -0.027971186 -0.035960708 0.010734503 0.029267896
0001a0 f7 f5 8c bd 42 fc f8 3d 8a bb 48 3d d7 a3 28 bc
       -0.068828516 0.12157489 0.049006976 -0.010292969
0001b0 10 20 c9 3d 20 06 1e be 1c d5 7a bd 2a ca 5d 3d
       0.098205686 -0.15432024 -0.061238393 0.054147877
0001c0 f8 96 1f 3d 9e 8a 8d 3d c0 bd c7 bd 41 db 0e bd
       0.038962334 0.06911205 -0.09752989 -0.034877066
0001d0 75 85 1a b9 7e e4 dc bc 79 3c e8 bd c1 4b 15 3c
       -0.00014736301 -0.026964422 -0.11339659 0.009112299
0001e0 45 2b 65 bc 69 ba 0c bd 46 39 54 3d 09 5c 25 be
       -0.013987367 -0.034357462 0.051812433 -0.1614839
0001f0 61 42 f3 3c ab 23 7f 3d 0d e0 e2 bd eb 4d 2d bd
       0.029694738 0.062289875 -0.110778905 -0.042310636
000200 97 d3 79 3d 6a 11 94 bd df 09 06 3e 11 f6 c1 bc
       0.060992803 -0.07229884 0.13089703 -0.023676904
000210 ce 0f 42 bb 61 86 e9 3c 63 6a b5 3c fa ba 91 3c
       -0.002961147 0.02850646 0.022145456 0.017789353
000220 c5 ab 29 3d 3b db 6e 3d 7b f1 49 bd e8 f7 99 bd
       0.041423578 0.058314543 -0.04930256 -0.075179875
000230 45 6c 29 3d 02 2a e0 3d 3a af 54 bd b8 17 bd 3d
       0.04136302 0.10945512 -0.05192492 0.092330396
000240 46 e4 c4 bd 99 0c 11 bd 4f c8 a7 bc c3 de 6e 3d
       -0.09613852 -0.035412405 -0.020481257 0.05831791
000250 c3 d0 0d bd 27 1e 01 3d cc b5 ea 3c 03 7c f3 3d
       -0.03462292 0.031522896 0.02865114 0.11888888
000260 8f 07 a6 bc cf 9d 99 3d ab 7f 0a 3d e9 d2 01 3d
       -0.020267276 0.07500803 0.03381316 0.03169528
000270 8f ec 8f bd 4e a3 81 bd a6 b6 e6 3c e2 fc 92 bd
       -0.07027542 -0.06329976 0.028163265 -0.0717714
000280 8b 9a b3 bd 82 77 e7 3a 2c 96 49 bb 13 30 5c bd
       -0.08769711 0.0017659517 -0.0030759675 -0.053756785
000290 0b 0d 92 bd bc 61 8c 3c 3a bd 01 bd 55 41 10 bd
       -0.07131394 0.017136447 -0.0316746 -0.035218555
0002a0 ae 94 51 bb 3e e5 b8 bd a5 b9 a6 bc b7 8a 10 3d
       -0.003197949 -0.090280995 -0.020352194 0.03528854
0002b0 85 34 c0 bc 18 9a 14 3c b1 7e d9 3d a3 b9 48 3c
       -0.023462543 0.009069942 0.106198676 0.0122512905
0002c0 3c 61 f8 3c 90 1f 89 bc 3f c2 97 3d 2f db 40 bd
       0.030319802 -0.016738683 0.074100964 -0.04708403
0002d0 c4 82 b6 3c 96 79 94 bd f8 f5 98 3c 1a 26 ae 3d
       0.02227915 -0.07249753 0.018671975 0.08503361
0002e0 2b 58 b4 3d e8 6f 31 3d d1 2b 54 bd cd 95 f8 bc
       0.08805879 0.043319613 -0.0517996 -0.030344868
0002f0 20 7a 21 3c 7f 2b 51 3d 14 61 3a bc c9 37 d7 bb
       0.009855777 0.05106687 -0.011375684 -0.0065679294
000300 08 5c 21 be b3 5a 27 3d 33 86 9c 3c 9e 55 3f bc
       -0.15757763 0.040857982 0.01910696 -0.011678128
000310 f0 31 6f 3c 90 30 e7 bd c0 f8 e6 3d f6 74 97 3d
       0.014599308 -0.112885594 0.11277914 0.073953554
000320 bb 6b 86 bd 5a 2e d8 3b 0c 0d 4b bc 5b f2 31 bd
       -0.06563517 0.0065973224 -0.012393247 -0.04344402
000330 cb 15 8c bd dc 9e b6 3d 76 ea c3 bd b6 2c 8a bd
       -0.06840094 0.08917019 -0.09566204 -0.06746809
000340 f9 aa 9d bc bb 5d 64 3d 45 96 7d bc 12 ab e5 bc
       -0.019246565 0.05575345 -0.015477722 -0.028035674
000350 ce 66 51 3d e2 b3 0c 3d 8e d9 94 3c cc cf 32 bd
       0.051123433 0.034351237 0.018170144 -0.0436552
000360 7b a8 c1 bd 52 6a a1 bd 0d ee c3 3d a1 3c 5e 3d
       -0.09455963 -0.07881607 0.09566889 0.05425704
000370 a5 f9 0c bd dc 1a 5a bd 83 cb 12 bd af ca 00 3d
       -0.034417767 -0.05324827 -0.035838615 0.031443294
000380 27 8a c3 bd 30 48 59 bd d8 00 3d bd 6f 0b 41 bd
       -0.09547835 -0.05304736 -0.046143383 -0.047130045
000390 63 a0 26 3d db 40 be bd 89 11 05 3d c5 4d b6 bd
       0.0406803 -0.09289714 0.032487426 -0.08901552
0003a0 3b 6e c3 bd 1d eb b6 bd 64 43 31 3b 41 b3 84 3b
       -0.09542509 -0.08931563 0.0027048225 0.004049689
0003b0 19 94 6e bc 0d fb cb bc 42 1b 83 bd c5 fe 7f 3d
       -0.014561676 -0.024899984 -0.064016834 0.062498827
0003c0 17 ab c1 bb 29 e7 db 3c 25 39 ad bd 72 01 21 bc
       -0.005910288 0.026843624 -0.08458165 -0.009827005
0003d0 c9 b7 0b 3d 3c 29 5f bc 25 8e b0 3c d9 2f 6b bd
       0.034110818 -0.013620671 0.021552155 -0.057418678
0003e0 f8 d6 bd 3c 61 69 55 bd c3 dd 69 bd 4c b3 31 bd
       0.023173794 -0.05210245 -0.057096254 -0.04338388
0003f0 8d 14 19 3e b4 2a 00 bd d4 6f 38 bc d9 86 a7 3d
       0.14949246 -0.031290725 -0.011257131 0.08180017

bias f4 [64]
000000 76 60 63 bd 20 9f 17 3d f2 25 48 bd f5 04 01 bb
       -0.055511914 0.037016988 -0.048864312 -0.0019686793
000010 7a d5 5b be 68 99 a8 bc 71 2b b2 3c 7b e3 7b be
       -0.21468154 -0.020580962 0.02174923 -0.24598496
000020 2c 3b 1d bd ef 81 76 bc 9c 93 00 be a8 b3 68 bd
       -0.03838651 -0.015045627 -0.12556309 -0.05681196
000030 47 11 61 3d bc 7a c2 bc 6b 80 3b be 73 82 26 3d
       0.054948118 -0.023740165 -0.18310706 0.04065175
000040 05 bd fe 3d 60 0b 84 ba 4d e3 3c 3b 21 43 04 3c
       0.12438396 -0.0010074191 0.0028822005 0.008072645
000050 10 d7 9f bd a0 4f d2 bb 49 ae 17 bd d1 fa 50 bd
       -0.07804692 -0.0064181834 -0.037031446 -0.051020447
000060 b6 59 e6 bc 4e dd 26 3d 60 35 87 3d 29 43 dc 3c
       -0.02811895 0.040738396 0.06601977 0.026887493
000070 1e 6f a0 3b 82 db 2b 3b 1f a3 47 bd 55 f3 52 bd
       0.0048960587 0.0026223366 -0.04873955 -0.05150159
000080 31 8e 68 bd c4 24 a7 39 cc a9 09 bc cb 62 50 3d
       -0.05677623 0.00031880115 -0.008402299 0.050875466
000090 54 02 62 bd 2a 65 cd 38 f6 c2 02 bd 69 1e 60 bd
       -0.055178 9.794005e-05 -0.03192421 -0.0547165
0000a0 cb 6b ee bc 09 c3 3c bc f3 18 32 3d db 42 fe 3d
       -0.029104134 -0.011521109 0.043480825 0.124150954
0000b0 61 54 5f 3e c3 bf 30 3e 8b 8c ac 3c 2f 94 6c bc
       0.21809532 0.17260651 0.02106311 -0.014439627
0000c0 84 9f 43 bd 4e 89 76 bd be 54 86 bd 1b d3 90 bd
       -0.047759548 -0.060189538 -0.06559132 -0.07071515
0000d0 18 1d 07 3d 26 29 d2 3d 80 39 87 bd 7b 95 2b 3e
       0.03298673 0.10261755 -0.06602764 0.16756241
0000e0 f6 14 89 bd be c7 cd 3d 02 84 70 bd 0e e3 a3 bd
       -0.06693451 0.100478634 -0.058719642 -0.080022916
0000f0 89 a5 bf bc 34 77 0a bd 7f 44 77 3d c9 73 00 be
       -0.023394363 -0.033805087 0.060368057 -0.12544169

weight f4 [64, 64, 3, 3]
000000 f6 b5 62 bb 92 ca a8 3b 4a ed b6 bd 90 43 3e bc
       -0.003459332 0.0051511014 -0.08931978 -0.011612788
000010 13 74 4b bc af 22 8a 3c f3 0a 50 bd 61 34 91 bd
       -0.012417811 0.016862242 -0.050791692 -0.070900686
000020 24 2e 14 3a 49 54 6b 3c b4 f9 bb bd 67 b7 9c 3d
       0.00056526274 0.014363357 -0.091784865 0.07652169
000030 59 ad 40 3d 86 95 8d bd 05 83 5c bd be fa ca 3c
       0.047040317 -0.06913285 -0.053835887 0.024777766
000040 fd aa 81 3c ba 2f bc 3c 8f ca 19 bb 33 e4 60 3c
       0.015828604 0.022971977 -0.0023466682 0.013726282
000050 8d 55 d0 bb 06 45 76 bd df 82 1b 3d 39 fc fa 3c
       -0.0063578547 -0.06012442 0.037966605 0.030637847
000060 7a 8a ef 3c f0 0f 24 bd 01 d6 9f bb b7 df 96 bd
       0.029240835 -0.04005426 -0.004877806 -0.07366889
000070 e8 bf a9 3d 66 f3 4c 3c b0 ff 25 be 0b e9 ae 3c
       0.08288556 0.012509203 -0.16210818 0.021351358
000080 5b 7b a9 bc 3b 57 fa 3d 2c 21 18 bd 4d 09 98 bd
       -0.020688703 0.12223669 -0.03714101 -0.07423649
000090 8e 4e d0 3d d9 95 a4 bd ed 2a d2 3c d1 aa 04 bd
       0.10171233 -0.08036394 0.025655234 -0.032389466
0000a0 45 ad 0a bd 53 e5 a6 ba 56 b6 a8 3d 47 c4 4f bc
       -0.03385665 -0.0012733139 0.08237903 -0.0126810735
0000b0 42 55 7e 3d 47 78 b5 bd ff 8a 2c be ca 81 f8 bc
       0.062093027 -0.08860832 -0.16849898 -0.030335326
0000c0 ea 2d 9d 3d 84 7b 14 3e 43 9e 3e 3d a5 bf 20 3d
       0.07674773 0.14500242 0.04653765 0.039245266
0000d0 4d 95 47 3d ad 26 1a bd 75 e7 d0 bd 53 d2 0c 3d
       0.04872637 -0.03763454 -0.10200397 0.03438027
0000e0 f9 9e 63 bd 6b f9 99 3d 25 0f 48 bd bd 4a 4d be
       -0.05557153 0.07518276 -0.048842568 -0.20048042
0000f0 93 d9 d6 bb 2f e0 89 3d b2 2b 56 3d 16 ed 2a bd
       -0.0065566986 0.06732213 0.052287765 -0.04173001
000100 c1 7e 01 be ec fb 0c bd 84 15 51 b9 d9 29 bb bb
       -0.12646009 -0.03441994 -0.00019939808 -0.0057117757
000110 6a 36 2b 3d ed 5e ad bd 37 44 bf 3c bd 62 98 bb
       0.04179994 -0.08465371 0.023347957 -0.0046504424
000120 7e e3 98 3c 10 36 9a bd 6b 51 39 3c 5f 63 5e 3e
       0.018663164 -0.07529843 0.011310915 0.21717595
000130 d3 98 b3 bd 67 03 32 be 6a 71 ea bd 5a 5b 00 3e
       -0.08769383 -0.1738411 -0.11447413 0.12534848
000140 4a 6e d8 3c db 37 1a bd 0a 05 58 3d eb b2 5e 3d
       0.026419777 -0.037650924 0.05273918 0.05436985
000150 f3 94 d2 bd 24 ca ff bc 4f a9 c3 3c c7 78 4a 3d
       -0.10282316 -0.031224318 0.023884444 0.04943159
000160 4a 99 8b bd 99 b9 6e bc bb bf 01 3e e7 c3 25 3e
       -0.06816347 -0.014570617 0.12670796 0.16188012
000170 ce 5e ce 3d 24 e2 0c 3e 84 d2 4e 3e f7 ce c3 bd
       0.10076676 0.13758141 0.20197493 -0.0956096
000180 a7 82 44 bd d0 fb 0c be 3f 4b 7e 3b ca 13 61 3d
       -0.047976162 -0.13767934 0.0038802174 0.054950513
000190 ef 97 7d 3d 04 be 0b bd e8 97 70 3c f6 0f 04 3c
       0.061912473 -0.03411676 0.014684655 0.008060446
0001a0 76 9b 1f 3c 77 0c 17 be 5e 74 8a bd 33 56 bd 3b
       0.009741655 -0.14750849 -0.067604765 0.005778098
0001b0 a5 87 8c bd f0 3f d7 3c 79 d1 4c 3a 60 df 32 bd
       -0.0686181 0.026275605 0.0007813196 -0.04367006
0001c0 10 d9 a3 3d d2 a3 ec 3c 90 29 72 3d 08 4c 15 3d
       0.08000386 0.02888671 0.05912167 0.036449462
0001d0 d1 51 72 3d 33 52 d1 bc e8 f0 9b 3c 17 c5 a2 3d
       0.059160057 -0.025551891 0.019035771 0.07947748
0001e0 c2 35 82 bd fd 96 9d 3c f6 6a f9 bb f3 1f cc 3c
       -0.0635791 0.019237036 -0.0076116277 0.024917578
0001f0 9c 1c c1 bc bf e2 15 be de f5 2e bb 95 e3 2c 3d
       -0.023573212 -0.14637278 -0.0026696841 0.042209227
000200 c6 53 b2 bd a6 05 c4 bc e6 84 10 bd 7a c3 01 bd
       -0.08707385 -0.023928475 -0.03528299 -0.03168056
000210 76 cf e0 bd b6 c9 41 bd 40 7e f4 bc 8c 1d 1a bc
       -0.1097707 -0.047311507 -0.029845357 -0.009406459
000220 a9 3c 8f 3d 92 c3 ab 38 26 7c 05 3d 36 66 ba 3d
       0.06993992 8.190343e-05 0.0325891 0.091015264
000230 7a dd 45 bd 0d d1 26 3c fc 88 72 bd e7 e7 ad bc
       -0.04830692 0.0101816775 -0.05921267 -0.021228744
000240 82 3c 6f bb 6d 1a f3 bc d9 e6 0a 3d bb a6 52 bd
       -0.0036504571 -0.029675687 0.03391156 -0.051428538
000250 79 7e 46 3d 2d 38 b6 bc 32 52 5d bc 91 73 f2 bc
       0.048460457 -0.022243584 -0.013508366 -0.029596122
000260 36 8f 1d 3d 23 46 d0 bd f8 43 59 3a 5c 54 93 bd
       0.038466655 -0.101696275 0.0008288021 -0.07193825
000270 1c cb 24 3d eb d1 94 bd b1 e6 0c bd 12 c8 8c 3c
       0.040232763 -0.07266601 -0.034399692 0.017185245
000280 20 eb e0 bd f0 c8 e9 bd 3a 54 2c bd ec 8d 81 bd
       -0.109823465 -0.11415279 -0.042072512 -0.063258976
000290 f7 c9 b7 bd 42 8f f2 bd 37 0a 36 bc b3 64 57 bd
       -0.089740686 -0.118437305 -0.011110834 -0.05258627
0002a0 b1 f4 6e bd 61 44 d8 bd bc 54 3b bc 0c 83 1f bd
       -0.058338825 -0.10559917 -0.0114337765 -0.038943335
0002b0 da d7 de 3c f4 a0 b0 bc 7a ba 8c bd 63 46 e6 bd
       0.027202535 -0.021561123 -0.06871505 -0.11243894
0002c0 0f c4 fa bd 70 a8 c6 3c f0 0b 97 bc aa 57 90 3d
       -0.122444265 0.02425024 -0.01843831 0.070479706
0002d0 23 e2 99 bc 8f 94 34 be 02 26 9e 3b 3c c6 dd 3c
       -0.018784588 -0.17634796 0.004826308 0.027072065
0002e0 54 0a 6e 3b 32 d6 a3 bd 66 b9 99 bd 8d 47 e6 bd
       0.0036322074 -0.07999839 -0.07506065 -0.11244116
0002f0 f6 54 f3 bc a1 4a 82 3c 72 56 15 be 73 df 69 bd
       -0.029703598 0.015904726 -0.14583758 -0.057097863
000300 92 07 0a bd a9 90 b0 3c fc 9b 2e bc 87 bf 86 3d
       -0.033698626 0.021553354 -0.010657307 0.065795
000310 d1 0b bd bc 93 43 db 3b 54 d7 0b bd 75 33 25 bd
       -0.023076924 0.006691405 -0.0341409 -0.040332276
000320 09 05 87 bc 7a 4b 9e 3c 8a 25 7a 3d 33 56 22 3d
       -0.016481893 0.0193231 0.061070956 0.039632987
000330 83 84 8e bd df 74 b0 bc fe bf 9a bd ee 5d 68 bd
       -0.06958868 -0.021540103 -0.07556151 -0.056730203
000340 a2 38 09 be a5 5a 2e 3d 62 d5 32 bd 6c 7d 3c bd
       -0.1340051 0.042566914 -0.04366053 -0.04601805
000350 db 41 60 bd a5 16 32 bd af 7c 7e be bc e1 01 bc
       -0.054750305 -0.043478627 -0.2485225 -0.007927354
000360 09 87 4b bd 93 4f 2f ba 24 d9 b3 3d 69 38 bc 3d
       -0.049689326 -0.00066875777 0.08781651 0.09190447
000370 84 a1 f6 bc c6 35 ee 3d 3e dc 35 3b d8 b7 25 3d
       -0.030106314 0.1163135 0.0027749683 0.04045853
000380 d1 0a 07 bd 74 42 a3 bd 8a d1 a9 bd ca da d1 3c
       -0.0329693 -0.07971659 -0.082919195 0.025617022
000390 35 b1 3c bc 0d fa 65 bd 28 ef 07 be 7f 83 55 bd
       -0.011516859 -0.05614667 -0.13274825 -0.052127358
0003a0 31 d2 f9 bc be 71 a1 bd a5 fe ee 3b 3b 88 bb 3d
       -0.030495735 -0.07883023 0.0072935396 0.09156843
0003b0 1e 74 27 bd bd 50 c7 3c 5d ec e7 bd 31 62 60 3d
       -0.040882222 0.024330491 -0.113243796 0.054781143
0003c0 67 8b 73 3d e7 1b b1 3a 25 6f 24 bd f0 e1 c6 bd
       0.059459116 0.0013512344 -0.04014506 -0.09711063
0003d0 b6 f8 bd bc fe b0 9d 3c 5d 5a 4b 3d 10 e4 d5 bd
       -0.023189884 0.019249436 0.049646724 -0.1044389
0003e0 81 6f ba bc 74 63 07 bc 77 f2 01 be 8e cd 8e 3c
       -0.022758247 -0.008263458 -0.12690149 0.017432
0003f0 fd d2 15 3e 66 79 2e 3d 1a 4e ad bd ad dc 38 bd
       0.14631267 0.042596243 -0.08462162 -0.045132328

bias f4 [64]
000000 76 c0 57 bc a5 aa fd 3b eb 30 f9 bc cd 66 b4 bc
       -0.013168445 0.0077412897 -0.030418834 -0.022021675
000010 5e fb c4 bd bd d4 26 bd ec 31 0a be 5c e7 30 3c
       -0.09618257 -0.040730227 -0.13495606 0.010797348
000020 85 eb 1a bd 5b 81 da 3a 71 14 28 3d 84 16 19 bd
       -0.037822265 0.0016670631 0.04103512 -0.03737499
000030 1f 66 d4 bb f9 c5 82 bd b7 f4 7a bd 92 f3 5a bc
       -0.0064819003 -0.063854165 -0.061268535 -0.013363736
000040 16 32 90 ba bc 8e 08 3d 32 cd 43 3c bc f0 0f bd
       -0.0011001255 0.033339247 0.011950778 -0.03514169
000050 4d d4 1a be 36 16 9f bd 51 05 b0 bd e9 de b5 bc
       -0.15120049 -0.07767908 -0.08594764 -0.022201018
000060 5f 57 f7 bc a0 16 9d 3d 38 33 43 bd 8e c2 a3 bc
       -0.030193029 0.07670331 -0.047656268 -0.019990232
000070 c2 8e be bc e3 f0 3e bc 79 9f 81 3c ea 56 b9 bc
       -0.023261432 -0.011654112 0.015823113 -0.022624452
000080 ef 41 62 bd 35 dd 2f bd 75 28 22 be 6f bd 4f 3e
       -0.05523866 -0.04293557 -0.15835746 0.20287107
000090 74 85 1c bd 5d f6 85 bc 79 b0 3b bd b9 51 64 bd
       -0.03821321 -0.016352827 -0.045822594 -0.055742
0000a0 71 21 9c 3c fd 5f 04 bc 3e fe 63 bd e2 23 d9 3d
       0.019058915 -0.008079526 -0.055662386 0.10602547
0000b0 26 8a 22 bd d0 d3 9f bd 82 b8 b9 3d cc 03 ad bb
       -0.03968253 -0.07804072 0.09068395 -0.0052799936
0000c0 56 25 01 bd 2a 2b a3 3c d7 f4 68 3d 82 22 1a bd
       -0.031529747 0.019918043 0.056874122 -0.037630565
0000d0 1b 22 78 3e 2d 1b 46 bd 02 97 05 3c 3f 88 4b bd
       0.2423176 -0.04836576 0.008153679 -0.04969048
0000e0 c3 fb cf bb 7c 5d d1 3b 34 e8 f9 3b b2 4f 25 bd
       -0.006347151 0.006389318 0.0076265577 -0.040359206
0000f0 ac e9 85 bc d6 30 8e bd 94 9b af 3b ab 6a 2a 3d
       -0.016346775 -0.069429085 0.0053591225 0.041605633
