train_weight_sr9/model_epoch_11.pth (torch_old, 918795 bytes, 22 tensors)

weight f4 [64, 3, 3, 3]
0	0x3e1c4473	0.15260486
1	0xbe7a00c9	-0.24414362
2	0x3e2a9045	0.16656597
3	0xbe250f66	-0.16119155
4	0xbec491c8	-0.38392472
5	0x3e2e2426	0.17005977
6	0xbc7773d9	-0.015103304
7	0x3e170186	0.14746675
8	0x3e1fbd44	0.15599543
9	0x3c048f12	0.008090751
10	0xbaf88525	-0.0018960579
11	0xbc86740f	-0.016412763
12	0x3d49ccb3	0.049267482
13	0x3d83ce16	0.06435792
14	0xbe1ec185	-0.1550351
15	0xbc1ee72c	-0.00969867
16	0x3e924e8c	0.28575552
17	0xbe51ec1b	-0.20500223
18	0x3c554584	0.013017062
19	0x3dcaf182	0.09909345
20	0xbdc9b049	-0.09848077
21	0xbd5ee64b	-0.054418843
22	0xbe5aacae	-0.21354935
23	0x3f0bc7b5	0.54601604
24	0x3cdd132a	0.026986677
25	0x3d82c565	0.06385306
26	0xbec755bf	-0.38932607
27	0x3cd18230	0.025574774
28	0xbe3e72c9	-0.18598475
29	0x3dbe41e0	0.092899084
30	0x3e9cfb6b	0.30660567
31	0xbdabfa39	-0.083973356
32	0xbea54de5	-0.3228599
33	0x3de93c02	0.11388399
34	0x3e0a96c8	0.13534081
35	0xbdb3632a	-0.087591484
36	0xbe4a37a2	-0.19747785
37	0x3caf6cfb	0.02141427
38	0x3ebb0bf8	0.3653257
39	0xbdb95341	-0.090490825
40	0xbe935df4	-0.28782618
41	0xbdcbdb68	-0.09953958
42	0xbdf9ad28	-0.1219123
43	0x3efcb3ba	0.4935587
44	0xbda93581	-0.08262158
45	0x3d3ebc55	0.046566326
46	0xbd168935	-0.036751945
47	0xbc1bdd0a	-0.009513149
48	0x3eedfd64	0.46482384
49	0xbeeeffa6	-0.4667942
50	0x3d78888f	0.060677107
51	0xbe32abe4	-0.17448384
52	0x3cb73478	0.022363886
53	0x3dbb44fd	0.09144018
54	0x3e88958c	0.26676595
55	0x3df71ac0	0.12065649
56	0x3d96a358	0.07355374
57	0x3d5f0735	0.054450233
58	0xbd0570e1	-0.032578353
59	0x3e103696	0.14083323
60	0x3e7582cd	0.23975678
61	0x3d10ba67	0.035334017
62	0xbdf92125	-0.12164525
63	0xbdecbdb0	-0.115596175
64	0xbeba2b36	-0.36361092
65	0x3dda910e	0.10672198
66	0xbe0b07dd	-0.13577218
67	0x3e904333	0.2817627
68	0x3cf18d06	0.02948619
69	0x3eac2bb0	0.3362708
70	0xbe2da339	-0.16956796
71	0xbc914e98	-0.017737672
72	0x3dcd8dd2	0.10036816
73	0x3dd7768e	0.105206594
74	0xbc15b60f	-0.009137644
75	0x3d9c73e8	0.07639295
76	0xbe1209f2	-0.14261606
77	0xbe75125b	-0.23932783
78	0x3decff68	0.115721524
79	0xbae385ac	-0.0017358563
80	0x3d947a49	0.072498865
81	0xbe1b884a	-0.15188709
82	0x3e9433ef	0.28945872
83	0xbe76806d	-0.24072428
84	0x3e428fb8	0.19000137
85	0xbd9ab9ee	-0.075549945
86	0x3ddbb68c	0.107281774
87	0xbdb17da9	-0.08666546
88	0xbd26f2cb	-0.04075889
89	0xbbe898ae	-0.007098279
90	0x3e2405d4	0.16017848
91	0xbe1867f2	-0.14883402
92	0x3e3d7c4e	0.1850445
93	0xbdc9f0ea	-0.09860404
94	0xbea4470b	-0.3208545
95	0x3db903a3	0.09033897
96	0x3db786a2	0.08961226
97	0x3e67c6be	0.22634408
98	0xbe2e3b94	-0.17014915
99	0x3e4b431d	0.1984982
100	0xbf013788	-0.5047536
101	0x3d64b36d	0.055835176
102	0xbe425b36	-0.18980107
103	0x3d922943	0.07136776
104	0x3ea1bb29	0.31588104
105	0xbdb51d33	-0.0884346
106	0x3ddfc574	0.10926333
107	0x3bde5f5a	0.006786269
108	0x3d341a79	0.04397056
109	0x3e112e1a	0.14177743
110	0xbe2ad28d	-0.16681881
111	0xbe6067ad	-0.21914549
112	0x3ebc3468	0.36758733
113	0xbe27ef1a	-0.16399804
114	0xbd372c37	-0.0447199
115	0xbdbf1950	-0.09331
116	0x3e0e1391	0.13874651
117	0xbc3126f0	-0.010812506
118	0xbe86b377	-0.26308796
119	0x3e4e1c73	0.2012804
120	0x3e10bcfd	0.14134593
121	0x3e8dd230	0.27699423
122	0xbea7d81b	-0.32782063
123	0x3ba54cd8	0.005044561
124	0xbe2ac783	-0.1667767
125	0x3e24d388	0.16096318
126	0xbd2fe6d2	-0.042944737
127	0xbc97dc91	-0.018537791
128	0x3df408e5	0.11915759
129	0xbdcc4111	-0.09973348
130	0x3e3c8c30	0.18412852
131	0xbe841041	-0.2579365
132	0x3e1aec07	0.151291
133	0xbe7336f4	-0.23751432
134	0x3e59a06c	0.21252602
135	0xbe5bad7c	-0.21452898
136	0x3e4f3966	0.2023674
137	0x3e07107e	0.13189885
138	0xbd5a1a01	-0.053247456
139	0xbe31f035	-0.17376788
140	0xbce9bbe9	-0.028531985
141	0x3e081f61	0.1329322
142	0x3e566f6b	0.2094094
143	0x3d78714b	0.06065492
144	0xbd0069de	-0.031350963
145	0xbcc6caca	-0.02426662
146	0x3e405336	0.18781742
147	0x3e5d26a1	0.21596767
148	0xbe2ea29e	-0.17054221
149	0xbeb4b283	-0.35292444
150	0xbd82237b	-0.063544236
151	0xbed52508	-0.41629815
152	0xbdbc35d4	-0.091899544
153	0x3e147039	0.14495935
154	0xbe6a2157	-0.2286428
155	0xbdcefcc5	-0.10106806
156	0x3d25a921	0.040444497
157	0x3e2f46e9	0.17116894
158	0x3e66cd1b	0.22539179
159	0x3c3b5e5e	0.011436073
160	0x3e1ddc33	0.1541603
161	0x3e0c5ad7	0.13706528
162	0xbd2b6ed9	-0.04185376
163	0x3db01e3b	0.08599516
164	0xbcbbf78d	-0.02294519
165	0x3d17e209	0.0370808
166	0xbcd15c5f	-0.025556741
167	0x3e0c4095	0.13696511
168	0xbcfc3e85	-0.03079153
169	0x3ea08b37	0.31356212
170	0x3cc388d6	0.02386896
171	0x3c156304	0.009117845
172	0xbe1b7384	-0.15180784
173	0xbca3e615	-0.020007173
174	0xbda8b549	-0.082377024
175	0xbdb7a15a	-0.08966322
176	0x3e008d86	0.12553987
177	0x3d036305	0.032076854
178	0x3e8d56b9	0.27605227
179	0x3d367747	0.044547345
180	0xbe05afb2	-0.13055304
181	0x3e7c37cd	0.24630661
182	0xbc9e3f53	-0.019317305
183	0x3e5cb547	0.21553527
184	0xbe7991ea	-0.24372068
185	0xbdd8474b	-0.10560473
186	0x3c0a838d	0.008454216
187	0x3e2f6f5e	0.17132327
188	0xbe792905	-0.24332054
189	0xbebbfa5f	-0.36714455
190	0x3c7c0cb5	0.015383889
191	0x3d326886	0.043556713
192	0xbe29fb2a	-0.16599718
193	0x3f0107e2	0.50402653
194	0xbd6488f0	-0.055794656
195	0x3e82fbef	0.25582835
196	0xbefb92d2	-0.49135453
197	0x3e85192c	0.25995767
198	0x3bf0a261	0.007343576
199	0xbdadba07	-0.084827475
200	0xbc0ba8af	-0.008524104
201	0x3d5136a1	0.05107749
202	0x3dab847c	0.08374879
203	0x3cffbc62	0.031217758
204	0xbd543c6e	-0.051815443
205	0x3e0ff02c	0.14056462
206	0xbe34fe6e	-0.17675182
207	0x3e5302c4	0.20606524
208	0x3b0d4b76	0.002155987
209	0x3bb21697	0.005434822
210	0xbd3ba014	-0.04580696
211	0xbe67fa42	-0.2265406
212	0x3b18ffa0	0.0023345724
213	0xbdd4dc62	-0.10393597
214	0x3e518225	0.20459802
215	0xbd2579c5	-0.04039933
216	0xbd41f223	-0.04735006
217	0xbcb262ef	-0.02177569
218	0xbf786e1c	-0.97043014
219	0x3c770ef1	0.015079246
220	0x3f02c8c9	0.51087624
221	0xbe80be7b	-0.25145325
222	0xbe0e3b99	-0.13889922
223	0xbd9292dc	-0.071569175
224	0xbe01157c	-0.12605852
225	0x3e0f7f53	0.14013414
226	0xbc02a036	-0.007972768
227	0xbf976fc3	-1.1830982
228	0xbe656ee5	-0.22405584
229	0x3dcad34e	0.099035844
230	0xbed9a165	-0.42505947
231	0x3e184406	0.14869699
232	0xbdf2a040	-0.118469715
233	0xbf199ed3	-0.6000797
234	0xbdf798e8	-0.120897114
235	0x3dbc8b1a	0.09206219
236	0xbf80a393	-1.0049919
237	0x3daa6b62	0.08321263
238	0xbe60e6a9	-0.2196299
239	0xbf422455	-0.7583669
240	0x3c929e94	0.017897882
241	0x3dc19884	0.09452918
242	0xbf353ffd	-0.70800763
243	0x3da5b242	0.080906406
244	0xbe1b69de	-0.15177104
245	0x3bc45f07	0.0059927735
246	0x3e89084d	0.26764145
247	0xba14c207	-0.0005674664
248	0x3dd0741c	0.10178396
249	0xbdda517b	-0.106600724
250	0x3da85286	0.08218865
251	0xbc3585c5	-0.011079256
252	0x3caa7141	0.020805957
253	0x3ca6faa7	0.020383192
254	0xbc069f0a	-0.008216629
255	0xbe26916c	-0.16266412

bias f4 [64]
0	0x3a082d8e	0.00051947765
1	0xbb74d87d	-0.0037360482
2	0xbdecdbaa	-0.11565335
3	0xbc2f28a7	-0.010690845
4	0x3d009aad	0.03139751
5	0xbe2531fa	-0.16132346
6	0xbeda0c44	-0.42587483
7	0xbc27ef5e	-0.010249941
8	0x3d123a83	0.035700332
9	0x3d662f63	0.056197535
10	0xbe28900c	-0.164612
11	0x3e0e851a	0.13917962
12	0xbc33f92c	-0.0109847
13	0x3e8cc9f0	0.27497816
14	0xbed48468	-0.41507268
15	0xbd315516	-0.043294035
16	0x3ca139e4	0.019680925
17	0xbbfc590a	-0.007701044
18	0x3cc87be3	0.024473136
19	0x3e84d0ef	0.25940654
20	0xbc2e158d	-0.010625255
21	0xbce8b38f	-0.028405933
22	0x3d854e72	0.06509103
23	0x3d4e0f9e	0.050307862
24	0x3cc4904d	0.02399459
25	0x3dad97ab	0.08476194
26	0xbe72f376	-0.23725685
27	0x3d3dfcd1	0.046383683
28	0x3ddf172d	0.10893092
29	0x3dee1100	0.11624336
30	0x3c744363	0.014908644
31	0xbe708cb3	-0.23491172
32	0xbedaf6f3	-0.42766532
33	0x3c9da35c	0.019242935
34	0xbe7a82e0	-0.24463987
35	0x3de601ff	0.112308495
36	0x3e87b312	0.26503807
37	0xbaa3814c	-0.0012474447
38	0xbe2df504	-0.16987997
39	0xbe5e2068	-0.2169205
40	0x3e1ff7e4	0.15621907
41	0xbdad8a45	-0.084736384
42	0x3d1e90f1	0.038712446
43	0x3d01b0d5	0.03166278
44	0xbbe2781f	-0.006911292
45	0x3e2ad120	0.16681337
46	0x3c665100	0.014057398
47	0x3cb70ba7	0.022344423
48	0xb9dd2bac	-0.00042184943
49	0xbb6fa3e2	-0.0036566188
50	0xbc2fdf0b	-0.01073433
51	0xbcb6d046	-0.02231611
52	0x3d18ae5c	0.037275657
53	0xbce7c7b1	-0.028293462
54	0x3d0bbfca	0.03411845
55	0x3e073fed	0.1320798
56	0xbc8a293a	-0.016865361
57	0x3e94cd1c	0.29062736
58	0xbf0761eb	-0.52883786
59	0x3da511cf	0.08060037
60	0xbe54261c	-0.20717663
61	0xbb6a47e0	-0.0035748407
62	0x3e34a008	0.17639172
63	0xbe816bac	-0.2527746

weight f4 [64, 64, 3, 3]
0	0x3e85fbc1	0.26168635
1	0xbdf02d58	-0.11727399
2	0x3e09f050	0.13470578
3	0x3c76533f	0.015034496
4	0xbf2170dd	-0.6306284
5	0x3d259b22	0.04043115
6	0x3d51b966	0.0512022
7	0x3bf5ce34	0.007501388
8	0xbda0820d	-0.07837305
9	0x3d48b78c	0.04900317
10	0xbc2d2471	-0.01056777
11	0x3c58469f	0.013200431
12	0x3d5d32c7	0.054003503
13	0x3da71a67	0.08159333
14	0x3df34822	0.118789926
15	0x3abb79e0	0.0014303289
16	0x3d7f7488	0.062366992
17	0x3b87fa42	0.004149706
18	0xbacf2fa3	-0.0015807044
19	0xbc80add6	-0.015707891
20	0xbd0c7570	-0.034291685
21	0xbcbff32e	-0.023431387
22	0x3dda4b2b	0.106588684
23	0x3d87941b	0.06620046
24	0xbda1d433	-0.07901802
25	0x3ab82694	0.0014049583
26	0xbcbde235	-0.023179153
27	0x3d81ff78	0.06347555
28	0xbdd7155c	-0.10502121
29	0xbd7661a6	-0.06015172
30	0xbd59323a	-0.053026415
31	0x3d292acb	0.041300576
32	0x3cd62836	0.026142221
33	0xbdf1e11c	-0.11810514
34	0x3ce9f3d8	0.028558657
35	0xbe05119e	-0.12995002
36	0xbd4660e8	-0.04843226
37	0xbde02789	-0.10945041
38	0xbd53be1c	-0.051694974
39	0x3daf2a87	0.08553033
40	0x3dc003ba	0.09375711
41	0xbdd2e3af	-0.102973334
42	0xbda0e8c0	-0.078568935
43	0x3d426693	0.047461104
44	0x39db8a6d	0.0004187407
45	0xbd99b3a5	-0.075049676
46	0x3d138f58	0.036025375
47	0xbd62dcdf	-0.05538642
48	0xbdd3cdad	-0.10341964
49	0xbd7f530f	-0.06233507
50	0xbd6da253	-0.058016133
51	0xbd941348	-0.0723024
52	0xbd95e4df	-0.07319044
53	0xbd7cf32d	-0.061755348
54	0xbd1fdd4e	-0.039029412
55	0x3b3ea0d4	0.002908756
56	0x3d0ee249	0.03488377
57	0xbd32459b	-0.043523412
58	0x3d077ad7	0.033076134
59	0xbd27571a	-0.04085455
60	0xbb8a7a74	-0.0042260233
61	0x3d97516f	0.07388579
62	0xbd7316b9	-0.059347842
63	0xbcc354b3	-0.023844099
64	0x3e5ae4d7	0.21376358
65	0x3df480fd	0.11938665
66	0x3e1d8ad4	0.1538499
67	0xbdb2cc5c	-0.08730385
68	0x3da4587c	0.080246896
69	0x3d535302	0.051592834
70	0x3e602156	0.21887717
71	0x3db04fbe	0.086089596
72	0xbec426dc	-0.38310897
73	0x3ca4dde3	0.020125335
74	0xbda15ad6	-0.07878654
75	0xbe8ef82f	-0.27923724
76	0xbe55fc2c	-0.20896977
77	0xbda0ad05	-0.07845501
78	0xbf896001	-1.0732423
79	0xbd0d7118	-0.034531683
80	0xbe8d6a61	-0.27620223
81	0x3d59b5cf	0.0531519
82	0xbddd9e4c	-0.10821208
83	0x3daa0c07	0.08303075
84	0xbdcc1cc7	-0.09966426
85	0xbb359964	-0.0027709836
86	0x3dba714c	0.09103641
87	0x3cfadc5c	0.030622654
88	0xbd99de94	-0.075131565
89	0xbd9cd3ca	-0.07657583
90	0xbdef5237	-0.11685603
91	0xbb2829ce	-0.0025659683
92	0x3cff672c	0.031177126
93	0x3c02a112	0.0079729725
94	0xbd9873dd	-0.07443974
95	0xbd8a082e	-0.067398414
96	0x3e07a2a8	0.13245642
97	0xbe553d53	-0.20824175
98	0xbe7421b7	-0.23840986
99	0x3de1877a	0.11012168
100	0x3d7b1738	0.06130144
101	0x3d0d3d63	0.03448237
102	0x3dba9db0	0.09112108
103	0x3cf172d4	0.0294737
104	0x3da61517	0.08109491
105	0xbd063fd2	-0.032775708
106	0xb8eb5738	-0.00011221919
107	0x3d9768d4	0.07393041
108	0x3defe1f1	0.11713017
109	0xbd3934f7	-0.045216527
110	0x3da45728	0.08024436
111	0x3dccf60c	0.10007867
112	0x3c435567	0.011922217
113	0x3e491139	0.19635476
114	0x3e39b555	0.18135579
115	0xbd8278b8	-0.063706815
116	0x3cc67339	0.024224864
117	0xbd55ff04	-0.052245155
118	0xbdd2e554	-0.10297647
119	0xbc798ddd	-0.015231577
120	0xbcbab7c4	-0.022792704
121	0xbda088be	-0.078385815
122	0xbabc266b	-0.0014354711
123	0xbddb1390	-0.106970906
124	0x3dcad80d	0.0990449
125	0xbd8e307b	-0.06942841
126	0x3d339669	0.043844614
127	0x3dad4ab9	0.08461518
128	0x3d5433d8	0.051807255
129	0x3dc0fc81	0.09423161
130	0xbc89167f	-0.01673436
131	0x3deb2d3d	0.11483238
132	0x3d086329	0.03329769
133	0x3bef5864	0.007304238
134	0x3de13fda	0.10998507
135	0xbd345ae1	-0.04403198
136	0x3ad08ec6	0.001591169
137	0x3cf897cc	0.03034582
138	0x3d209e92	0.039213724
139	0x3e3eac6c	0.18620461
140	0xbe123810	-0.14279199
141	0xbcabc59f	-0.020968257
142	0x3e0a7505	0.13521202
143	0xbd05bbbf	-0.03264975
144	0x3d06189c	0.032738313
145	0xbdc097d7	-0.09403961
146	0xbb96420a	-0.004585509
147	0x3d4ed484	0.05049564
148	0xbdc5bd14	-0.096552044
149	0x3b557b7c	0.0032574823
150	0xbcca8d98	-0.02472572
151	0x3a138f5c	0.0005628967
152	0x3be80d36	0.007081653
153	0x3d70dc29	0.05880371
154	0x3cf4527b	0.029824486
155	0x3e1cc7f4	0.15310651
156	0xbde9ae85	-0.1141024
157	0x3cb494aa	0.022043545
158	0x3b47e748	0.0030502845
159	0xbc3ce1be	-0.0115284305
160	0x3dba93b1	0.09110201
161	0x3c5d838c	0.013520133
162	0xbd6c4c96	-0.057690226
163	0x3d61e36d	0.05514853
164	0x3d2fda34	0.042932704
165	0xbdd77821	-0.1052096
166	0xbe43d741	-0.19125082
167	0x3e399736	0.18124089
168	0xbde2cbac	-0.110740036
169	0xbe19fc76	-0.15037712
170	0x3d02013d	0.031739462
171	0xbc9aa6af	-0.018878309
172	0x3e69387a	0.2277545
173	0xbc5ec2bb	-0.013596232
174	0xbbbf3d77	-0.0058361846
175	0x3e489fbb	0.19592182
176	0x3cefbe5e	0.029265579
177	0x3deef9d9	0.116687484
178	0x3d7d197f	0.061791893
179	0xbe83901a	-0.25695878
180	0xbd8197fa	-0.06327815
181	0x3eb0955d	0.34488955
182	0x3ab4b4d1	0.0013786798
183	0x3e09ddee	0.13463566
184	0xbd4ccf02	-0.050002106
185	0x3d013d2b	0.031552475
186	0x3d393ec4	0.045225874
187	0x3db23954	0.08702341
188	0x3e0d03a0	0.13770914
189	0xbda25696	-0.07926671
190	0xbda9ba4b	-0.08287486
191	0x3c65929a	0.014012003
192	0xbc26e43e	-0.010186253
193	0xbd8f84eb	-0.07007774
194	0x3c15ec05	0.00915051
195	0x3e0a8d6c	0.1353051
196	0xbd89b843	-0.06724598
197	0xbd9be3a9	-0.07611782
198	0x3c536d09	0.012904414
199	0xbda79d2f	-0.08184277
200	0xbcd3f326	-0.025872778
201	0xbb085ae4	-0.0020806128
202	0x3e88f459	0.26748922
203	0x3e3e4d13	0.18584089
204	0xbc24ef7a	-0.010066861
205	0x3d41bf7f	0.047301766
206	0xbcbde551	-0.023180636
207	0xbcbcfdcb	-0.023070237
208	0xbe3d46ff	-0.18484114
209	0x3d45e5ac	0.048314735
210	0x3db658ea	0.08903678
211	0x3d039f65	0.032134432
212	0xbcde337a	-0.027124155
213	0xbe5ba773	-0.21450596
214	0xbe247517	-0.16060291
215	0xbe227e30	-0.15868449
216	0xbde2078f	-0.11036598
217	0xbcef56c2	-0.029216174
218	0x3cad97e3	0.02119059
219	0xbd3d4fc5	-0.046218652
220	0xb989877b	-0.00026231617
221	0x3d1f9f2d	0.03897016
222	0x3e048279	0.12940396
223	0xbc30c826	-0.010789907
224	0x3cd45cf5	0.025923232
225	0x3d9a7b15	0.07543007
226	0x3ea34dd8	0.31895328
227	0x3e27397f	0.16330527
228	0x3d7474c2	0.05968166
229	0xbc8177ae	-0.015804138
230	0x3cfd7e30	0.03094396
231	0x3c46b623	0.012128386
232	0x3bc7a6a4	0.006092863
233	0xbcadd7af	-0.02122101
234	0xbc584840	-0.0132008195
235	0x3c756db4	0.014979769
236	0xbc842315	-0.01613001
237	0x3d396a02	0.045267113
238	0xbdcef501	-0.101053245
239	0xbdd4ef1f	-0.10397171
240	0x3d022cd6	0.03178104
241	0xbd4f6480	-0.050632954
242	0x3c918079	0.017761456
243	0xbcd612f5	-0.026132086
244	0x3b87b109	0.0041409773
245	0xbd772c1a	-0.060344793
246	0xbd9e61c6	-0.077334926
247	0x3e4dab8c	0.20084971
248	0xbe04d853	-0.12973146
249	0xbd368ed2	-0.044569798
250	0x3d184136	0.037171565
251	0xbdb6cfc2	-0.089263454
252	0x3c5b83db	0.013398136
253	0xbd0f9852	-0.035057373
254	0xbdcb1c4f	-0.09917509
255	0xbd4251d0	-0.047441304

bias f4 [64]
0	0x3e4c9881	0.1998005
1	0x3da8a293	0.082341336
2	0xbd2c68c0	-0.042092085
3	0xba9e13ab	-0.0012060305
4	0xbd5e4ed7	-0.054274406
5	0x3d9aaeb7	0.075528555
6	0xbbccc4a8	-0.006249029
7	0xbd78ff4f	-0.060790356
8	0xbdb08686	-0.08619408
9	0x3b89fb62	0.0042108754
10	0x3e31040e	0.17286703
11	0x3df24a2b	0.11830553
12	0x38bb883f	8.942233e-05
13	0xbd7b3bc4	-0.061336294
14	0xbe1fe452	-0.15614441
15	0xbdb5fb71	-0.08885849
16	0xbcae8793	-0.021304881
17	0x3c554bce	0.0130185615
18	0xbdb6464b	-0.08900126
19	0xbd25a4b6	-0.040440284
20	0xbd1a7ab3	-0.03771467
21	0xbd119def	-0.035551008
22	0xbccb58c6	-0.024822604
23	0x3bc43495	0.0059877136
24	0x3e03953f	0.12849902
25	0x3cd3d81d	0.025859887
26	0xbdb1c8e3	-0.08680894
27	0xbda467c9	-0.08027608
28	0xbcbe1379	-0.023202645
29	0xbe9d3179	-0.30701807
30	0xbcee34ad	-0.029077852
31	0xbd5461ab	-0.051850956
32	0xbde07e86	-0.109616324
33	0xbcb23dfc	-0.021758072
34	0x3cf7d7c1	0.030254247
35	0xbc3005ef	-0.010743602
36	0x3d8a80e7	0.067628674
37	0xbd73c730	-0.059516132
38	0x3d9d82cb	0.076909624
39	0xbdd75c38	-0.10515636
40	0xbce6c6bf	-0.028170941
41	0xbadd19b4	-0.0016868622
42	0xbcd447e8	-0.025913194
43	0x3c00aea9	0.007854142
44	0x3c5bf129	0.013424196
45	0x3da57d88	0.08080584
46	0xbc55e18e	-0.013054265
47	0x3c437662	0.01193008
48	0xbc71e598	-0.014764212
49	0xbd386bc8	-0.045024663
50	0x39e2077d	0.00043111658
51	0xbd5cbc71	-0.05389065
52	0xbc89d882	-0.016826872
53	0x3ce0ced6	0.027442377
54	0x3db7056a	0.089365795
55	0x3d8e1826	0.069382
56	0xbe06b1e2	-0.13153794
57	0xbcb5523a	-0.022133935
58	0xbd8407fb	-0.06446835
59	0x3b31da63	0.0027138225
60	0x3dfad207	0.12247091
61	0xbd6b84c7	-0.057499673
62	0x3d4d09b0	0.050058067
63	0xbdaaf69b	-0.083478175

weight f4 [64, 64, 3, 3]
0	0xbea28370	-0.31740904
1	0xbdcae386	-0.09906678
2	0xbc73b3f1	-0.014874444
3	0xbe71c070	-0.23608565
4	0xbd3c44d3	-0.045964073
5	0x3d90d58f	0.07071983
6	0xbe6c5e33	-0.23082809
7	0xbe83f2af	-0.2577109
8	0x3d8843a4	0.066535264
9	0xbdd20bf3	-0.102561854
10	0x3d2ed652	0.04268486
11	0x3cca8e38	0.024726018
12	0xbd190d4a	-0.03736619
13	0xbad5e4a4	-0.001631875
14	0x39e15c9f	0.00042984352
15	0xbcd51708	-0.026011959
16	0x3d302eab	0.043013256
17	0x3c557e57	0.01303061
18	0xbd946464	-0.072457105
19	0xbdbf174b	-0.09330615
20	0xbcbd48ac	-0.023105942
21	0xbe0e81ad	-0.13916655
22	0xbd69a06f	-0.057037767
23	0xbd6fe10e	-0.05856424
24	0xbd9c7091	-0.07638658
25	0x3de33925	0.11094884
26	0x3d54867e	0.051886074
27	0xbe5c0cd1	-0.21489264
28	0x3d8f2201	0.069889076
29	0x3c2561aa	0.010094086
30	0xbe3225e6	-0.1739727
31	0x3e2396a4	0.15975434
32	0x3d65beaa	0.056090035
33	0xbe6c9eef	-0.23107503
34	0x3d09c4e7	0.033635046
35	0xbc07555f	-0.0082601
36	0x3d15f0df	0.036606666
37	0x3ceacbba	0.028661598
38	0xbe2b0a7e	-0.16703221
39	0x3c4545eb	0.0120405955
40	0xbda3eab5	-0.08003751
41	0xbd981dd3	-0.074275635
42	0xbd3b694d	-0.04575472
43	0x3d88ec25	0.06685666
44	0xbb83dc00	-0.004024029
45	0x3dce29f9	0.100665994
46	0xbda55f40	-0.08074808
47	0x3b7be31e	0.0038434933
48	0x3d021746	0.031760477
49	0xbd57040e	-0.0524941
50	0x3cb3b603	0.021937376
51	0xbc47a738	-0.012185864
52	0x3dee74ff	0.11643409
53	0x3dfefd76	0.124506876
54	0x3dc48dc9	0.09597356
55	0x3e55aed1	0.20867468
56	0xbd9a3aa1	-0.07530714
57	0xbdc053c7	-0.09390979
58	0x3e2f1c14	0.17100555
59	0x3e1b8ff5	0.15191634
60	0xbd8993fe	-0.067176804
61	0x3e355104	0.17706686
62	0xbd961964	-0.073290616
63	0xbca0df87	-0.019637836
64	0x3c364521	0.01112488
65	0xbd34634c	-0.04404001
66	0xbdd12481	-0.10212041
67	0xbd40a497	-0.047031965
68	0xbe5ea4e2	-0.21742585
69	0xbdb401d6	-0.08789413
70	0x3c1b9c1c	0.009497669
71	0xbda31752	-0.07963432
72	0xbc93be6e	-0.01803514
73	0x3ccfd6ca	0.025370974
74	0xbc938ace	-0.018010523
75	0xbe06f086	-0.1317769
76	0xbe727d5f	-0.23680638
77	0xbe33fc91	-0.17576815
78	0xbda76a24	-0.081745416
79	0xbe92426d	-0.28566304
80	0xbe0324f9	-0.12807073
81	0xbddad120	-0.10684419
82	0x3d63388d	0.055473853
83	0x3de48ff2	0.11160268
84	0xbd0a9d6d	-0.03384154
85	0xbd586f53	-0.052840542
86	0xbc1deb2b	-0.009638588
87	0xbd08c5c4	-0.03339173
88	0xbe3c2b12	-0.18375805
89	0xbc233173	-0.00996052
90	0x3c2414f3	0.01001476
91	0x3d95a0ba	0.07306047
92	0x3d2bad03	0.041913044
93	0xbdac7427	-0.08420592
94	0x3e867b3e	0.262659
95	0x3d524aae	0.05134075
96	0xbd09ae2f	-0.03361338
97	0x3d86029e	0.06543468
98	0xbd04d744	-0.032431856
99	0xbe0bcf0a	-0.13653198
100	0x3deafba2	0.114737764
101	0x3d667483	0.056263458
102	0xbdf8efa8	-0.12155086
103	0x3e2c29e2	0.16812852
104	0x3d026788	0.031837016
105	0xbd8a9585	-0.067668
106	0xbd891f4f	-0.06695425
107	0x3cbe3e68	0.023223117
108	0xbcd916d3	-0.026500141
109	0x3d046e40	0.032331705
110	0x3c68da87	0.014212257
111	0xbd82204a	-0.06353815
112	0x3cf0d104	0.029396541
113	0xbe82c8d9	-0.2554386
114	0xbd4e152d	-0.050313164
115	0xbcbcbb6b	-0.023038587
116	0xbdf42d27	-0.119226746
117	0xbe13aa9f	-0.14420556
118	0xbc2ef615	-0.010678788
119	0x3d051ff2	0.03250117
120	0xbde77287	-0.11301141
121	0xbd1cb9b4	-0.038263038
122	0x3de287f3	0.110610865
123	0xbdbf3e78	-0.09338087
124	0x3e355622	0.17708638
125	0x3e475c1d	0.19468732
126	0xbdb15281	-0.086583145
127	0xbec55aaf	-0.3854575
128	0x3e48d5d4	0.19612819
129	0xbd8d80f0	-0.069093585
130	0xbd4f365a	-0.050588943
131	0xbe4c928d	-0.1997778
132	0x3d956776	0.07295124
133	0xbd48bd5f	-0.049008723
134	0xbd6236a3	-0.055227887
135	0xbdf9620c	-0.12176904
136	0xbd47a4ae	-0.048741035
137	0xbd33a53c	-0.04385875
138	0xbcbb99e7	-0.022900535
139	0xbdb828b9	-0.08992142
140	0x3d5a051f	0.05322754
141	0xbe26461e	-0.16237685
142	0xbdde0dc8	-0.10842472
143	0xbdeb0b34	-0.11476746
144	0xbcda47e7	-0.026645614
145	0xbe6db7b7	-0.23214613
146	0xbc805963	-0.015667623
147	0xbd7cdfd0	-0.06173688
148	0x3bb1942d	0.0054192753
149	0xbbee2c52	-0.007268467
150	0xbd8ea125	-0.0696433
151	0xbcc01fdd	-0.023452694
152	0x3d4ad99d	0.04952394
153	0x3ccfd9b1	0.025372358
154	0xbe9f82a3	-0.31154355
155	0x3e92fc83	0.28708276
156	0xbd553174	-0.052049115
157	0x3e95d808	0.2926638
158	0x3d7d1b58	0.061793655
159	0x3cba9299	0.022774981
160	0x3ea263af	0.31716678
161	0xbc1cabd1	-0.009562449
162	0xbdb9827b	-0.0905809
163	0x3d50e3f8	0.050998658
164	0x3b5ee135	0.0034008746
165	0xbdef5423	-0.1168597
166	0xbd7421f2	-0.059602685
167	0x3dbed8d1	0.09318698
168	0x39be1c5c	0.00036260753
169	0xbe138a12	-0.14408138
170	0x3a6c7d09	0.0009021317
171	0xbda2b318	-0.07944316
172	0x3c4a7ee1	0.012359352
173	0xbce983f3	-0.028505301
174	0xbce16f55	-0.027518908
175	0x3ad03f76	0.0015888053
176	0x3cebc440	0.028780103
177	0xbdb8151c	-0.08988401
178	0xbd2d97a0	-0.04238093
179	0xbc86258c	-0.016375326
180	0xbdac0ec2	-0.08401252
181	0x3e1a1dde	0.15050456
182	0xbdbc200c	-0.091858
183	0xbd8ee0bc	-0.069764584
184	0x3e248f8d	0.16070385
185	0x3c59a5fc	0.013284203
186	0x3c48b341	0.012249769
187	0x3cb2157e	0.021738764
188	0xbd88ee6f	-0.066861026
189	0xbd36890d	-0.044564296
190	0x3d980119	0.07422084
191	0x3d90ea95	0.07075993
192	0xbd4a2473	-0.049351167
193	0x3d92a3c0	0.07160139
194	0xbd9304c3	-0.071786426
195	0xbddfca6c	-0.10927281
196	0x3c1ddd40	0.00963527
197	0xbdceed2f	-0.10103833
198	0xbd91b9ba	-0.07115503
199	0x3e085c76	0.13316521
200	0x3d941717	0.072309665
201	0xbdc713b0	-0.09720552
202	0x3b57c5e6	0.0032924353
203	0xbda720e7	-0.081605725
204	0xbcb569e6	-0.022145223
205	0xbcfa93c7	-0.030588044
206	0xbb302c16	-0.0026881746
207	0xbd9dbbca	-0.077018335
208	0xbe09bc79	-0.13450803
209	0x3c9be3c1	0.0190295
210	0xbd8e08cd	-0.06935272
211	0x3e06e99c	0.13175052
212	0x3d4b89c5	0.049691934
213	0xbdbe9f22	-0.09307696
214	0xbdf47953	-0.11937203
215	0xbda70d91	-0.081568845
216	0xbd7824d3	-0.060581993
217	0xbe23a4b7	-0.15980802
218	0xbd49ba48	-0.049249917
219	0xbdaec2d4	-0.08533254
220	0xbd99cfe5	-0.07510356
221	0x3b3c536c	0.0028736247
222	0x3c8335a7	0.016016794
223	0xbc4ee7bb	-0.012628491
224	0xba2d0c4d	-0.0006601259
225	0xbe09a15d	-0.13440461
226	0x3ddb3d54	0.10705057
227	0xbde37ae8	-0.11107427
228	0xbe0a10cd	-0.13482971
229	0xbd6156b4	-0.055014327
230	0xbc75d093	-0.015003341
231	0xbe3f81fa	-0.18701926
232	0xbe01f521	-0.12691166
233	0x3d37bbef	0.04485696
234	0xbe231f9e	-0.1593003
235	0x3d1c15d3	0.03810675
236	0xbccc0e9a	-0.024909306
237	0xbf19a780	-0.6002121
238	0xbdfad163	-0.122469686
239	0x3d62bd6b	0.055356424
240	0xbcb867a4	-0.022510357
241	0xbe1f1155	-0.15533955
242	0xbc87aece	-0.016562846
243	0xbdbe7c1b	-0.09301015
244	0xbe3ec7a3	-0.18630843
245	0x3e29f0e7	0.16595803
246	0xbdff18fa	-0.12455936
247	0x3d09e24f	0.03366309
248	0x3d752c8e	0.059856944
249	0xbd4ecc39	-0.05048773
250	0xbc6dc25e	-0.014511673
251	0xbdd4dc13	-0.10393538
252	0x3d868b50	0.065695405
253	0x3e0e6403	0.13905339
254	0xbd8ddc20	-0.06926751
255	0xbd8c629e	-0.06854747

bias f4 [64]
0	0x3e55dcb8	0.20884979
1	0x3e2a984a	0.16659656
2	0xbd976b20	-0.07393479
3	0xbd80cb71	-0.06288803
4	0xbd202e8c	-0.03910689
5	0xbc9fc5c0	-0.019503474
6	0xbb2a81ea	-0.0026017376
7	0xbd2a5997	-0.041589346
8	0xbc7da6df	-0.01548168
9	0x3cf19027	0.029487683
10	0x3ce277b1	0.027644964
11	0xbd4b53f2	-0.049640603
12	0xbc7da203	-0.015480521
13	0xbd62534e	-0.055255227
14	0xbe10d429	-0.14143433
15	0xbcc23e56	-0.023711365
16	0xbce67e36	-0.028136354
17	0x3cad1fdf	0.021133361
18	0xbd18ec59	-0.037334774
19	0xbcd2f4f8	-0.025751576
20	0xbd331717	-0.043723192
21	0xbdad5090	-0.08462632
22	0xbd32f2d1	-0.0436886
23	0xbb6bcfd0	-0.003598202
24	0xbd76c779	-0.060248826
25	0x3cade6ef	0.021228282
26	0xbcda8c5d	-0.026678259
27	0x3d08411d	0.033265222
28	0x3c944e5e	0.018103775
29	0xbdfe0985	-0.124041595
30	0x3b8e792e	0.004347942
31	0xbda5e711	-0.08100713
32	0xbd0b80a5	-0.03405823
33	0xbcbd16e7	-0.02308221
34	0xbae8b1cc	-0.0017753183
35	0x3ca282b3	0.019837713
36	0x3dcccb2a	0.09999688
37	0xbd2147e2	-0.039375193
38	0xbd3be3e6	-0.045871638
39	0xbda335b8	-0.079692304
40	0x3b3596ad	0.0027708218
41	0xbdc36a78	-0.09541792
42	0xbcb71170	-0.022347182
43	0xbcd90cfa	-0.026495446
44	0xbd21e4e8	-0.039524943
45	0xbcfb42cc	-0.0306715
46	0xbc9c0c9b	-0.01904898
47	0xbdabebec	-0.08394608
48	0xbe2ba446	-0.16761884
49	0xbd374cc9	-0.044750962
50	0x3cbcc565	0.023043344
51	0xbd831a7f	-0.06401538
52	0xbd34ad09	-0.04411033
53	0xbb303d22	-0.0026891907
54	0x3e52ca0a	0.20584884
55	0xbc0eb2e7	-0.008709646
56	0xbce8713d	-0.028374309
57	0xbbf82ebf	-0.007573932
58	0xbdc7fadb	-0.09764644
59	0xbe34715f	-0.17621373
60	0xbc8e67fb	-0.017383566
61	0xbcb092c3	-0.021554356
62	0x3dfffdc8	0.12499577
63	0xbc89093f	-0.016728042

weight f4 [64, 64, 3, 3]
0	0xbb51326d	-0.0031920925
1	0x3c5849d9	0.0132012
2	0xbdcda273	-0.1004075
3	0x3d592737	0.053015914
4	0xbe189379	-0.14900006
5	0x3ad38f80	0.0016140789
6	0xbd88dd0b	-0.066827856
7	0xbd9a68ee	-0.07539545
8	0xbd1d32ca	-0.038378514
9	0xbce86570	-0.028368682
10	0x3ba1739d	0.0049271123
11	0xbc1e763b	-0.009671743
12	0x3d543a41	0.051813368
13	0x3de14213	0.10998931
14	0x3d809455	0.06278292
15	0xbd6f6936	-0.058449946
16	0x3d049c76	0.032375775
17	0x3db08c4a	0.08620508
18	0xbbfe1337	-0.0077537554
19	0xbd0db4d4	-0.03459628
20	0x3d47e534	0.04880257
21	0x3cb8fb19	0.02258067
22	0xbda7a3bd	-0.081855275
23	0x3be04a44	0.0068447907
24	0xbcbbaf88	-0.022910848
25	0xbda60fb5	-0.08108465
26	0xbdbebab5	-0.09312955
27	0xbd53fe2d	-0.051756073
28	0x3d26c201	0.04071236
29	0xbc120650	-0.008912638
30	0xbd83b316	-0.06430642
31	0xbca16679	-0.019702183
32	0xbc85ec3b	-0.016347995
33	0x3c833571	0.016016694
34	0xbbe7777a	-0.0070638033
35	0x3d008a96	0.031382166
36	0x3c32201e	0.010871915
37	0xbd8151fe	-0.06314467
38	0xbc9d2576	-0.019182902
39	0xbd80155e	-0.062540755
40	0xbda5aeed	-0.08090005
41	0xbcbcaf1c	-0.023032717
42	0xbd2171f9	-0.039415333
43	0x3db239c4	0.08702424
44	0xbdb61e92	-0.088925496
45	0x3af7b4cf	0.001889849
46	0x3d300e0e	0.042982154
47	0x3d87c6a5	0.06629685
48	0xba83bb7d	-0.0010050383
49	0xbc0f1cc4	-0.008734886
50	0xbbbc59f9	-0.0057480303
51	0x3d0618ce	0.0327385
52	0x3cb0a14e	0.021561291
53	0xbd81876d	-0.063246585
54	0xbd312c79	-0.043255303
55	0x3d4fb08e	0.050705485
56	0xbcec63f0	-0.028856248
57	0xbd76f3ff	-0.060291287
58	0x3d646c6a	0.055767454
59	0x3a1207e8	0.0005570636
60	0xbddd35c0	-0.108012676
61	0xbe4646b0	-0.19362903
62	0x3cf22a1f	0.0295611
63	0x3a5f6f10	0.00085233245
64	0x3d488882	0.04895831
65	0xbc79a686	-0.015237456
66	0xbd7f2385	-0.062289733
67	0x3c931d12	0.017958198
68	0x3b6304bc	0.0034640273
69	0xbd87eb81	-0.06636716
70	0x3d727c87	0.05920079
71	0xbb174e2c	-0.0023087366
72	0xbd05e2eb	-0.03268711
73	0xba5c99d3	-0.00084152556
74	0xbdca54f8	-0.09879488
75	0xbdcd7052	-0.10031189
76	0x3dac1b7b	0.08403679
77	0x3cadb204	0.021203049
78	0xbd15188c	-0.036400363
79	0x3c1a13d4	0.009404141
80	0x3c9b30c0	0.018944144
81	0xbd0686fc	-0.032843575
82	0x3ca82aa4	0.020528145
83	0xbdd78768	-0.105238736
84	0x3df3edb3	0.11910572
85	0xbc0db900	-0.0086500645
86	0xbc444988	-0.011980422
87	0xbd85a15c	-0.065249175
88	0x3d308cb2	0.043102928
89	0xbc9b563f	-0.018962024
90	0xbcd89bdc	-0.026441507
91	0xbc4f9425	-0.012669598
92	0xbda8ac4d	-0.08235989
93	0x3c2584be	0.010102449
94	0xbce0fde8	-0.027464822
95	0xbd5b6b58	-0.053569168
96	0xbd83e6f2	-0.06440534
97	0x3c5fff87	0.013671762
98	0xbd504c21	-0.050853852
99	0xbd7ac387	-0.061221626
100	0xbce523d4	-0.027971186
101	0xbd134b89	-0.035960708
102	0x3c2fdfc5	0.010734503
103	0x3cefc33a	0.029267896
104	0xbd8cf5f7	-0.068828516
105	0x3df8fc42	0.12157489
106	0x3d48bb8a	0.049006976
107	0xbc28a3d7	-0.010292969
108	0x3dc92010	0.098205686
109	0xbe1e0620	-0.15432024
110	0xbd7ad51c	-0.061238393
111	0x3d5dca2a	0.054147877
112	0x3d1f96f8	0.038962334
113	0x3d8d8a9e	0.06911205
114	0xbdc7bdc0	-0.09752989
115	0xbd0edb41	-0.034877066
116	0xb91a8575	-0.00014736301
117	0xbcdce47e	-0.026964422
118	0xbde83c79	-0.11339659
119	0x3c154bc1	0.009112299
120	0xbc652b45	-0.013987367
121	0xbd0cba69	-0.034357462
122	0x3d543946	0.051812433
123	0xbe255c09	-0.1614839
124	0x3cf34261	0.029694738
125	0x3d7f23ab	0.062289875
126	0xbde2e00d	-0.110778905
127	0xbd2d4deb	-0.042310636
128	0x3d79d397	0.060992803
129	0xbd94116a	-0.07229884
130	0x3e0609df	0.13089703
131	0xbcc1f611	-0.023676904
132	0xbb420fce	-0.002961147
133	0x3ce98661	0.02850646
134	0x3cb56a63	0.022145456
135	0x3c91bafa	0.017789353
136	0x3d29abc5	0.041423578
137	0x3d6edb3b	0.058314543
138	0xbd49f17b	-0.04930256
139	0xbd99f7e8	-0.075179875
140	0x3d296c45	0.04136302
141	0x3de02a02	0.10945512
142	0xbd54af3a	-0.05192492
143	0x3dbd17b8	0.092330396
144	0xbdc4e446	-0.09613852
145	0xbd110c99	-0.035412405
146	0xbca7c84f	-0.020481257
147	0x3d6edec3	0.05831791
148	0xbd0dd0c3	-0.03462292
149	0x3d011e27	0.031522896
150	0x3ceab5cc	0.02865114
151	0x3df37c03	0.11888888
152	0xbca6078f	-0.020267276
153	0x3d999dcf	0.07500803
154	0x3d0a7fab	0.03381316
155	0x3d01d2e9	0.03169528
156	0xbd8fec8f	-0.07027542
157	0xbd81a34e	-0.06329976
158	0x3ce6b6a6	0.028163265
159	0xbd92fce2	-0.0717714
160	0xbdb39a8b	-0.08769711
161	0x3ae77782	0.0017659517
162	0xbb49962c	-0.0030759675
163	0xbd5c3013	-0.053756785
164	0xbd920d0b	-0.07131394
165	0x3c8c61bc	0.017136447
166	0xbd01bd3a	-0.0316746
167	0xbd104155	-0.035218555
168	0xbb5194ae	-0.003197949
169	0xbdb8e53e	-0.090280995
170	0xbca6b9a5	-0.020352194
171	0x3d108ab7	0.03528854
172	0xbcc03485	-0.023462543
173	0x3c149a18	0.009069942
174	0x3dd97eb1	0.106198676
175	0x3c48b9a3	0.0122512905
176	0x3cf8613c	0.030319802
177	0xbc891f90	-0.016738683
178	0x3d97c23f	0.074100964
179	0xbd40db2f	-0.04708403
180	0x3cb682c4	0.02227915
181	0xbd947996	-0.07249753
182	0x3c98f5f8	0.018671975
183	0x3dae261a	0.08503361
184	0x3db4582b	0.08805879
185	0x3d316fe8	0.043319613
186	0xbd542bd1	-0.0517996
187	0xbcf895cd	-0.030344868
188	0x3c217a20	0.009855777
189	0x3d512b7f	0.05106687
190	0xbc3a6114	-0.011375684
191	0xbbd737c9	-0.0065679294
192	0xbe215c08	-0.15757763
193	0x3d275ab3	0.040857982
194	0x3c9c8633	0.01910696
195	0xbc3f559e	-0.011678128
196	0x3c6f31f0	0.014599308
197	0xbde73090	-0.112885594
198	0x3de6f8c0	0.11277914
199	0x3d9774f6	0.073953554
200	0xbd866bbb	-0.06563517
201	0x3bd82e5a	0.0065973224
202	0xbc4b0d0c	-0.012393247
203	0xbd31f25b	-0.04344402
204	0xbd8c15cb	-0.06840094
205	0x3db69edc	0.08917019
206	0xbdc3ea76	-0.09566204
207	0xbd8a2cb6	-0.06746809
208	0xbc9daaf9	-0.019246565
209	0x3d645dbb	0.05575345
210	0xbc7d9645	-0.015477722
211	0xbce5ab12	-0.028035674
212	0x3d5166ce	0.051123433
213	0x3d0cb3e2	0.034351237
214	0x3c94d98e	0.018170144
215	0xbd32cfcc	-0.0436552
216	0xbdc1a87b	-0.09455963
217	0xbda16a52	-0.07881607
218	0x3dc3ee0d	0.09566889
219	0x3d5e3ca1	0.05425704
220	0xbd0cf9a5	-0.034417767
221	0xbd5a1adc	-0.05324827
222	0xbd12cb83	-0.035838615
223	0x3d00caaf	0.031443294
224	0xbdc38a27	-0.09547835
225	0xbd594830	-0.05304736
226	0xbd3d00d8	-0.046143383
227	0xbd410b6f	-0.047130045
228	0x3d26a063	0.0406803
229	0xbdbe40db	-0.09289714
230	0x3d051189	0.032487426
231	0xbdb64dc5	-0.08901552
232	0xbdc36e3b	-0.09542509
233	0xbdb6eb1d	-0.08931563
234	0x3b314364	0.0027048225
235	0x3b84b341	0.004049689
236	0xbc6e9419	-0.014561676
237	0xbccbfb0d	-0.024899984
238	0xbd831b42	-0.064016834
239	0x3d7ffec5	0.062498827
240	0xbbc1ab17	-0.005910288
241	0x3cdbe729	0.026843624
242	0xbdad3925	-0.08458165
243	0xbc210172	-0.009827005
244	0x3d0bb7c9	0.034110818
245	0xbc5f293c	-0.013620671
246	0x3cb08e25	0.021552155
247	0xbd6b2fd9	-0.057418678
248	0x3cbdd6f8	0.023173794
249	0xbd556961	-0.05210245
250	0xbd69ddc3	-0.057096254
251	0xbd31b34c	-0.04338388
252	0x3e19148d	0.14949246
253	0xbd002ab4	-0.031290725
254	0xbc386fd4	-0.011257131
255	0x3da786d9	0.08180017

bias f4 [64]
0	0xbd636076	-0.055511914
1	0x3d1df80f	0.038566645
2	0xbd4825f2	-0.048864312
3	0x3af1b8f1	0.0018441958
4	0xbe63cdd4	-0.22246486
5	0xbca89968	-0.020580962
6	0x3cb22b71	0.02174923
7	0xbe831921	-0.2560511
8	0xbd384994	-0.044992045
9	0xbc84cf6a	-0.016212184
10	0xbdfd55c6	-0.123698756
11	0xbd68b3a8	-0.05681196
12	0x3d54f1e8	0.051988512
13	0xbcc5e4eb	-0.024157008
14	0xbe4361e9	-0.19080319
15	0x3d4960c5	0.049164552
16	0x3ded4fe1	0.11587501
17	0xba840b60	-0.0010074191
18	0x3c425af9	0.01186251
19	0x3c044321	0.008072645
20	0xbd8f33ae	-0.06992279
21	0xbbd24fa0	-0.0064181834
22	0xbd177f7c	-0.036986813
23	0xbd50fad1	-0.051020447
24	0xbc980ef2	-0.018561814
25	0x3d140d77	0.036145654
26	0x3d8a3acb	0.06749495
27	0x3d0bcf4f	0.03413325
28	0x3a3ab2e4	0.00071219937
29	0x3bd9d3b7	0.006647553
30	0xbd5891cc	-0.052873418
31	0xbd52f355	-0.05150159
32	0xbd66a382	-0.056308277
33	0x39a724c4	0.00031880115
34	0xbb8c76d1	-0.004286625
35	0x3d5e1d40	0.054227114
36	0xbd620254	-0.055178
37	0x3b3fcfc0	0.0029268116
38	0xbd02c2f6	-0.03192421
39	0xbd601e69	-0.0547165
40	0xbd074066	-0.0330204
41	0xbc3cc309	-0.011521109
42	0x3d39b6fe	0.04534053
43	0x3e07c50f	0.13258766
44	0x3e6d0605	0.23146828
45	0x3e3728c5	0.17886646
46	0x3cac8c8b	0.02106311
47	0xbc89c177	-0.016815884
48	0xbd3f7657	-0.046743717
49	0xbd76894e	-0.060189538
50	0xbd9012c0	-0.07034826
51	0xbd90d31b	-0.07071515
52	0x3cd55d06	0.026045334
53	0x3ddc89df	0.10768484
54	0xbd873980	-0.06602764
55	0x3e2f16ab	0.17098491
56	0xbd8ab1f9	-0.06772227
57	0x3dd13a04	0.10216144
58	0xbd708402	-0.058719642
59	0xbdb0806c	-0.086182445
60	0xbcc780cb	-0.024353405
61	0xbd0a7734	-0.033805087
62	0x3d9e9979	0.07744116
63	0xbe08cef1	-0.13360192

weight f4 [64, 64, 3, 3]
0	0xbb62b5f6	-0.003459332
1	0x3ba8ca92	0.0051511014
2	0xbdb6ed4a	-0.08931978
3	0xbc3e4390	-0.011612788
4	0xbc4b7413	-0.012417811
5	0x3c8a22af	0.016862242
6	0xbd500af3	-0.050791692
7	0xbd913461	-0.070900686
8	0x3a142e24	0.00056526274
9	0x3c6b5449	0.014363357
10	0xbdbbf9b4	-0.091784865
11	0x3d9cb767	0.07652169
12	0x3d40ad59	0.047040317
13	0xbd8d9586	-0.06913285
14	0xbd5c8305	-0.053835887
15	0x3ccafabe	0.024777766
16	0x3c81aafd	0.015828604
17	0x3cbc2fba	0.022971977
18	0xbb19ca8f	-0.0023466682
19	0x3c60e433	0.013726282
20	0xbbd0558d	-0.0063578547
21	0xbd764506	-0.06012442
22	0x3d1b82df	0.037966605
23	0x3cfafc39	0.030637847
24	0x3cef8a7a	0.029240835
25	0xbd240ff0	-0.04005426
26	0xbb9fd601	-0.004877806
27	0xbd96dfb7	-0.07366889
28	0x3da9bfe8	0.08288556
29	0x3c4cf366	0.012509203
30	0xbe25ffb0	-0.16210818
31	0x3caee90b	0.021351358
32	0xbca97b5b	-0.020688703
33	0x3dfa573b	0.12223669
34	0xbd18212c	-0.03714101
35	0xbd98094d	-0.07423649
36	0x3dd04e8e	0.10171233
37	0xbda495d9	-0.08036394
38	0x3cd22aed	0.025655234
39	0xbd04aad1	-0.032389466
40	0xbd0aad45	-0.03385665
41	0xbaa6e553	-0.0012733139
42	0x3da8b656	0.08237903
43	0xbc4fc447	-0.0126810735
44	0x3d7e5542	0.062093027
45	0xbdb57847	-0.08860832
46	0xbe2c8aff	-0.16849898
47	0xbcf881ca	-0.030335326
48	0x3d9d2dea	0.07674773
49	0x3e147b84	0.14500242
50	0x3d3e9e43	0.04653765
51	0x3d20bfa5	0.039245266
52	0x3d47954d	0.04872637
53	0xbd1a26ad	-0.03763454
54	0xbdd0e775	-0.10200397
55	0x3d0cd253	0.03438027
56	0xbd639ef9	-0.05557153
57	0x3d99f96b	0.07518276
58	0xbd480f25	-0.048842568
59	0xbe4d4abd	-0.20048042
60	0xbbd6d993	-0.0065566986
61	0x3d89e02f	0.06732213
62	0x3d562bb2	0.052287765
63	0xbd2aed16	-0.04173001
64	0xbe017ec1	-0.12646009
65	0xbd0cfbec	-0.03441994
66	0xb9511584	-0.00019939808
67	0xbbbb29d9	-0.0057117757
68	0x3d2b366a	0.04179994
69	0xbdad5eed	-0.08465371
70	0x3cbf4437	0.023347957
71	0xbb9862bd	-0.0046504424
72	0x3c98e37e	0.018663164
73	0xbd9a3610	-0.07529843
74	0x3c39516b	0.011310915
75	0x3e5e635f	0.21717595
76	0xbdb398d3	-0.08769383
77	0xbe320367	-0.1738411
78	0xbdea716a	-0.11447413
79	0x3e005b5a	0.12534848
80	0x3cd86e4a	0.026419777
81	0xbd1a37db	-0.037650924
82	0x3d58050a	0.05273918
83	0x3d5eb2eb	0.05436985
84	0xbdd294f3	-0.10282316
85	0xbcffca24	-0.031224318
86	0x3cc3a94f	0.023884444
87	0x3d4a78c7	0.04943159
88	0xbd8b994a	-0.06816347
89	0xbc6eb999	-0.014570617
90	0x3e01bfbb	0.12670796
91	0x3e25c3e7	0.16188012
92	0x3dce5ece	0.10076676
93	0x3e0ce224	0.13758141
94	0x3e4ed284	0.20197493
95	0xbdc3cef7	-0.0956096
96	0xbd4482a7	-0.047976162
97	0xbe0cfbd0	-0.13767934
98	0x3b7e4b3f	0.0038802174
99	0x3d6113ca	0.054950513
100	0x3d7d97ef	0.061912473
101	0xbd0bbe04	-0.03411676
102	0x3c7097e8	0.014684655
103	0x3c040ff6	0.008060446
104	0x3c1f9b76	0.009741655
105	0xbe170c77	-0.14750849
106	0xbd8a745e	-0.067604765
107	0x3bbd5633	0.005778098
108	0xbd8c87a5	-0.0686181
109	0x3cd73ff0	0.026275605
110	0x3a4cd179	0.0007813196
111	0xbd32df60	-0.04367006
112	0x3da3d910	0.08000386
113	0x3ceca3d2	0.02888671
114	0x3d722990	0.05912167
115	0x3d154c08	0.036449462
116	0x3d7251d1	0.059160057
117	0xbcd15233	-0.025551891
118	0x3c9bf0e8	0.019035771
119	0x3da2c517	0.07947748
120	0xbd8235c2	-0.0635791
121	0x3c9d96fd	0.019237036
122	0xbbf96af6	-0.0076116277
123	0x3ccc1ff3	0.024917578
124	0xbcc11c9c	-0.023573212
125	0xbe15e2bf	-0.14637278
126	0xbb2ef5de	-0.0026696841
127	0x3d2ce395	0.042209227
128	0xbdb253c6	-0.08707385
129	0xbcc405a6	-0.023928475
130	0xbd1084e6	-0.03528299
131	0xbd01c37a	-0.03168056
132	0xbde0cf76	-0.1097707
133	0xbd41c9b6	-0.047311507
134	0xbcf47e40	-0.029845357
135	0xbc1a1d8c	-0.009406459
136	0x3d8f3ca9	0.06993992
137	0x38abc392	8.190343e-05
138	0x3d057c26	0.0325891
139	0x3dba6636	0.091015264
140	0xbd45dd7a	-0.04830692
141	0x3c26d10d	0.0101816775
142	0xbd7288fc	-0.05921267
143	0xbcade7e7	-0.021228744
144	0xbb6f3c82	-0.0036504571
145	0xbcf31a6d	-0.029675687
146	0x3d0ae6d9	0.03391156
147	0xbd52a6bb	-0.051428538
148	0x3d467e79	0.048460457
149	0xbcb6382d	-0.022243584
150	0xbc5d5232	-0.013508366
151	0xbcf27391	-0.029596122
152	0x3d1d8f36	0.038466655
153	0xbdd04623	-0.101696275
154	0x3a5943f8	0.0008288021
155	0xbd93545c	-0.07193825
156	0x3d24cb1c	0.040232763
157	0xbd94d1eb	-0.07266601
158	0xbd0ce6b1	-0.034399692
159	0x3c8cc812	0.017185245
160	0xbde0eb20	-0.109823465
161	0xbde9c8f0	-0.11415279
162	0xbd2c543a	-0.042072512
163	0xbd818dec	-0.063258976
164	0xbdb7c9f7	-0.089740686
165	0xbdf28f42	-0.118437305
166	0xbc360a37	-0.011110834
167	0xbd5764b3	-0.05258627
168	0xbd6ef4b1	-0.058338825
169	0xbdd84461	-0.10559917
170	0xbc3b54bc	-0.0114337765
171	0xbd1f830c	-0.038943335
172	0x3cded7da	0.027202535
173	0xbcb0a0f4	-0.021561123
174	0xbd8cba7a	-0.06871505
175	0xbde64663	-0.11243894
176	0xbdfac40f	-0.122444265
177	0x3cc6a870	0.02425024
178	0xbc970bf0	-0.01843831
179	0x3d9057aa	0.070479706
180	0xbc99e223	-0.018784588
181	0xbe34948f	-0.17634796
182	0x3b9e2602	0.004826308
183	0x3cddc63c	0.027072065
184	0x3b6e0a54	0.0036322074
185	0xbda3d632	-0.07999839
186	0xbd99b966	-0.07506065
187	0xbde6478d	-0.11244116
188	0xbcf354f6	-0.029703598
189	0x3c824aa1	0.015904726
190	0xbe155672	-0.14583758
191	0xbd69df73	-0.057097863
192	0xbd0a0792	-0.033698626
193	0x3cb090a9	0.021553354
194	0xbc2e9bfc	-0.010657307
195	0x3d86bf87	0.065795
196	0xbcbd0bd1	-0.023076924
197	0x3bdb4393	0.006691405
198	0xbd0bd754	-0.0341409
199	0xbd253375	-0.040332276
200	0xbc870509	-0.016481893
201	0x3c9e4b7a	0.0193231
202	0x3d7a258a	0.061070956
203	0x3d225633	0.039632987
204	0xbd8e8483	-0.06958868
205	0xbcb074df	-0.021540103
206	0xbd9abffe	-0.07556151
207	0xbd685dee	-0.056730203
208	0xbe0938a2	-0.1340051
209	0x3d2e5aa5	0.042566914
210	0xbd32d562	-0.04366053
211	0xbd3c7d6c	-0.04601805
212	0xbd6041db	-0.054750305
213	0xbd3216a5	-0.043478627
214	0xbe7e7caf	-0.2485225
215	0xbc01e1bc	-0.007927354
216	0xbd4b8709	-0.049689326
217	0xba2f4f93	-0.00066875777
218	0x3db3d924	0.08781651
219	0x3dbc3869	0.09190447
220	0xbcf6a184	-0.030106314
221	0x3dee35c6	0.1163135
222	0x3b35dc3e	0.0027749683
223	0x3d25b7d8	0.04045853
224	0xbd070ad1	-0.0329693
225	0xbda34274	-0.07971659
226	0xbda9d18a	-0.082919195
227	0x3cd1daca	0.025617022
228	0xbc3cb135	-0.011516859
229	0xbd65fa0d	-0.05614667
230	0xbe07ef28	-0.13274825
231	0xbd55837f	-0.052127358
232	0xbcf9d231	-0.030495735
233	0xbda171be	-0.07883023
234	0x3beefea5	0.0072935396
235	0x3dbb883b	0.09156843
236	0xbd27741e	-0.040882222
237	0x3cc750bd	0.024330491
238	0xbde7ec5d	-0.113243796
239	0x3d606231	0.054781143
240	0x3d738b67	0.059459116
241	0x3ab11be7	0.0013512344
242	0xbd246f25	-0.04014506
243	0xbdc6e1f0	-0.09711063
244	0xbcbdf8b6	-0.023189884
245	0x3c9db0fe	0.019249436
246	0x3d4b5a5d	0.049646724
247	0xbdd5e410	-0.1044389
248	0xbcba6f81	-0.022758247
249	0xbc076374	-0.008263458
250	0xbe01f277	-0.12690149
251	0x3c8ecd8e	0.017432
252	0x3e15d2fd	0.14631267
253	0x3d2e7966	0.042596243
254	0xbdad4e1a	-0.08462162
255	0xbd38dcad	-0.045132328

bias f4 [64]
0	0xbc57c076	-0.013168445
1	0x3bfdaaa5	0.0077412897
2	0xbcfbe84e	-0.03075042
3	0xbccfd187	-0.025368465
4	0xbdcf603e	-0.101257786
5	0xbd2b1fe8	-0.041778475
6	0xbe0de5bf	-0.13857172
7	0x3c30e75c	0.010797348
8	0xbd1aeb85	-0.037822265
9	0x3ada815b	0.0016670631
10	0x3d2ddf19	0.04244909
11	0xbd14606c	-0.036224768
12	0xbbba00da	-0.005676371
13	0xbd82c5f9	-0.063854165
14	0xbd7af4b7	-0.061268535
15	0xbc026626	-0.007958924
16	0xba903216	-0.0011001255
17	0x3d215ba4	0.039394036
18	0x3c12188f	0.008916988
19	0xbd0ff0bc	-0.03514169
20	0xbe206654	-0.15664035
21	0xbdafc457	-0.08582371
22	0xbdad391e	-0.0845816
23	0xbcb5dee9	-0.022201018
24	0xbd087005	-0.033309955
25	0x3da2247f	0.07917117
26	0xbd4b27a6	-0.04959836
27	0xbc8224b1	-0.015886636
28	0xbcbe8ec2	-0.023261432
29	0xbc3ef0e3	-0.011654112
30	0x3ca7096c	0.020390235
31	0xbcb956ea	-0.022624452
32	0xbd6241ef	-0.05523866
33	0xbd2fdd35	-0.04293557
34	0xbe1dd001	-0.15411378
35	0x3e57f687	0.21090136
36	0xbd1c8574	-0.03821321
37	0xbc85f65d	-0.016352827
38	0xbd3bb079	-0.045822594
39	0xbd6451b9	-0.055742
40	0x3c9c2171	0.019058915
41	0xbc045ffd	-0.008079526
42	0xbd63fe3e	-0.055662386
43	0x3dedf095	0.11618153
44	0xbd2ad765	-0.041709322
45	0xbd9fd3d0	-0.07804072
46	0x3dbd8e39	0.092556424
47	0xbbad03cc	-0.0052799936
48	0xbd012556	-0.031529747
49	0x3ca32b2a	0.019918043
50	0x3d856020	0.06512475
51	0xbd1a2282	-0.037630565
52	0x3e815c25	0.25265613
53	0xbd461b2d	-0.04836576
54	0x3c149c6e	0.009070499
55	0xbd4b883f	-0.04969048
56	0xbb819bd2	-0.003955343
57	0x3bd15d7c	0.006389318
58	0x3bf9e834	0.0076265577
59	0xbd254fb2	-0.040359206
60	0xbc85e9ac	-0.016346775
61	0xbd8e30d6	-0.069429085
62	0x3baf9b94	0.0053591225
63	0x3d35548b	0.04427008

weight f4 [64, 64, 3, 3]
0	0x3c30f2f8	0.010800116
1	0xbb131813	-0.002244477
2	0xbaf48a36	-0.0018656913
3	0xbda67980	-0.08128643
4	0xbd4a28fa	-0.049355485
5	0xbc4436de	-0.011975972
6	0x3caffb6f	0.021482198
7	0x3bb31b67	0.005465913
8	0xbcbc7997	-0.023007197
9	0xbd061e4f	-0.03274375
10	0xbcc8e38a	-0.024522562
11	0xbcb928ee	-0.022602525
12	0x3d091f59	0.03347716
13	0xbbd72344	-0.0065654833
14	0xbd7ac049	-0.061218534
15	0x3d870574	0.06592837
16	0xbc23185c	-0.009954538
17	0xbc5b1a05	-0.013372903
18	0x3dab3a6f	0.08360755
19	0xbd95d9f8	-0.07316965
20	0x3d8f33e7	0.069923215
21	0xbcb7ab22	-0.02242047
22	0xbcbb6aef	-0.022878138
23	0xbc5297c3	-0.012853566
24	0xbd3aef33	-0.045638274
25	0x3dab86da	0.0837533
26	0x3d0f6433	0.035007667
27	0x3dc90f8f	0.09817421
28	0xbd3aa6ae	-0.045569114
29	0x3d08b954	0.033379868
30	0xbcc836bc	-0.024440162
31	0xbd8dd46c	-0.06925282
32	0xbde9124a	-0.113804415
33	0xbd3aa200	-0.04556465
34	0xbcc97a1a	-0.024594355
35	0x3e0266ed	0.12734576
36	0xbb232b1b	-0.002489752
37	0xbcb21ca6	-0.021742176
38	0xbc468ff3	-0.012119281
39	0x3c89e174	0.016831137
40	0xbcce747a	-0.025202025
41	0x3c6ff68d	0.014646185
42	0xbd58c067	-0.052917864
43	0xbcc552f0	-0.0240874
44	0xbb87fa3d	-0.004149704
45	0xbc72c248	-0.014816828
46	0x3bb7087b	0.0055857277
47	0x3d950544	0.07276395
48	0x3d12742a	0.035755314
49	0x3abcd573	0.0014406875
50	0xbd6a4db8	-0.057203025
51	0x3aacf8c6	0.0013196699
52	0x3cec70d8	0.028862402
53	0xbc8ef416	-0.017450374
54	0xbd443723	-0.047904145
55	0xbd8e4173	-0.06946077
56	0x3ccfbab1	0.025357576
57	0x3d0c814f	0.034303006
58	0xbcf33afa	-0.029691208
59	0xbdc5c3b1	-0.09656466
60	0x3d722898	0.059120744
61	0xbc451339	-0.012028509
62	0xbdd2e61a	-0.10297795
63	0xbcb374a2	-0.0219062
64	0x3cf00b70	0.029302329
65	0x3c4f8193	0.01266517
66	0x3c58fb93	0.013243574
67	0x3d10903b	0.0352938
68	0x3d3399f8	0.043848008
69	0x3afffaf6	0.0019529748
70	0xbd42191a	-0.04738722
71	0xbd9ca977	-0.0764951
72	0xbc9c18e5	-0.01905484
73	0x3ca9b278	0.020714983
74	0x3d3c46a6	0.045965813
75	0x3ceeb14d	0.029137278
76	0xbcf6faab	-0.030148825
77	0xbd1de827	-0.038551476
78	0x3d4cb634	0.04997845
79	0x3ca2aa6f	0.01985666
80	0xbcb87959	-0.0225188
81	0x3c2e2a91	0.010630266
82	0xbd7c4828	-0.06159225
83	0xbdcdae82	-0.1004305
84	0x3dd5009d	0.104005076
85	0xbd08eddf	-0.033429977
86	0x3d845e81	0.06463338
87	0x3e3241da	0.17407933
88	0xbdbbd676	-0.091717646
89	0xbd9b5b6e	-0.07585798
90	0xb9aa6fcc	-0.00032508222
91	0xbdb7eb04	-0.089803725
92	0xbd6a240a	-0.057163276
93	0x3d974d8f	0.0738784
94	0xbca15545	-0.01969398
95	0xbd9726f1	-0.07380474
96	0xbcdc0a48	-0.026860371
97	0x3d6dd9c1	0.058068994
98	0xbd0344df	-0.032048102
99	0xbb54938d	-0.003243658
100	0xbc8dff22	-0.01733357
101	0x3d822839	0.06355328
102	0xbd1f9855	-0.038963635
103	0xbd245b88	-0.040126354
104	0xbc514f7b	-0.012775297
105	0xbdc05b39	-0.09392399
106	0xbdb44c1f	-0.088035814
107	0xbd49def1	-0.04928488
108	0x3df8851f	0.12134766
109	0x3d897f0a	0.06713684
110	0xbd1be155	-0.03805669
111	0x3cf7a137	0.03022824
112	0xbde25c5d	-0.11052773
113	0xbc3d1889	-0.011541494
114	0x3ce45cf1	0.02787635
115	0x3c21014b	0.009826968
116	0x3d7543c2	0.059879072
117	0xbc8a1a12	-0.016858134
118	0x3d607048	0.05479458
119	0xbdf1f783	-0.11814787
120	0xba04bd55	-0.0005063613
121	0xbcff8d7b	-0.031195393
122	0xbdeb1e43	-0.11480381
123	0xbd5a5124	-0.053300038
124	0xbd504977	-0.05085131
125	0x3d961731	0.07328642
126	0xbc7a21e2	-0.015266867
127	0xbbfda912	-0.007741102
128	0xbdd28fca	-0.10281332
129	0xbc55bbef	-0.013045295
130	0x3e048cd7	0.12944351
131	0xbd942c5c	-0.072350234
132	0xbd81bfad	-0.063353874
133	0xbd5c82c7	-0.053835656
134	0xbdc5db29	-0.09660942
135	0xbc9809d0	-0.018559366
136	0x3cd8da10	0.026471168
137	0xbc2addd9	-0.010428869
138	0x3c8058b0	0.01566729
139	0x3d0ec608	0.034856826
140	0x3d93302a	0.07186921
141	0x3d978654	0.07398668
142	0xbd4d8455	-0.05017503
143	0xbd92ba4d	-0.0716444
144	0xbc11accd	-0.008891297
145	0x3c424a55	0.011858542
146	0x3dcd8cbc	0.100366086
147	0xbe256d94	-0.16155082
148	0x3c649614	0.013951797
149	0xbab4246d	-0.0013743766
150	0xbd926cd6	-0.07149665
151	0xbcd24e27	-0.025672032
152	0x3c4be829	0.012445488
153	0x3d05e23c	0.032686457
154	0xbddb5b16	-0.10710733
155	0x3d086f80	0.03330946
156	0xbcfd88d1	-0.030949028
157	0x3cb6d040	0.022316098
158	0xbcf60903	-0.030033594
159	0xbca4b067	-0.020103646
160	0xbd77cadc	-0.060496196
161	0xbdae4257	-0.08508747
162	0xbc43c2f0	-0.011948332
163	0xbc2ddd71	-0.010611878
164	0xbd6dccc2	-0.0580566
165	0xbd488df7	-0.048963513
166	0xbda2af03	-0.07943537
167	0xbdec9ce2	-0.115533605
168	0x3d25d6f3	0.040488195
169	0x3c9581dd	0.0182504
170	0xbde6223b	-0.11236998
171	0x3d5c97ea	0.053855814
172	0xba21bf8a	-0.0006170204
173	0xbd9f1527	-0.07767706
174	0x3cd04128	0.025421694
175	0x3d649edf	0.055815574
176	0xbd5102b6	-0.051027976
177	0xbd8dcf6e	-0.0692433
178	0x3a4a6713	0.0007721048
179	0xbc3a2880	-0.011362195
180	0xbb1f2333	-0.0024282455
181	0x3d25392b	0.040337723
182	0xbd8f7bde	-0.07006048
183	0xbd593ad7	-0.05303463
184	0xbd486ecf	-0.0489338
185	0xbd5f5abf	-0.0545299
186	0x3cf6bf2b	0.030120453
187	0x3ca48226	0.02008159
188	0x3cd02fc2	0.025413398
189	0xbd4e8c57	-0.050426807
190	0x3da1dba9	0.07903225
191	0xbb6c17f6	-0.0036025024
192	0xbbcdafb3	-0.0062770485
193	0xbc0a9092	-0.00845732
194	0xbc2cd214	-0.010548133
195	0xbd9ce7a1	-0.07661367
196	0xbcb8ac58	-0.022543117
197	0x3b8bfda1	0.0042721783
198	0x3cc751fe	0.02433109
199	0xbdb7c93b	-0.089739285
200	0xbd972a8e	-0.073811635
201	0x3c656725	0.014001642
202	0x3be34a05	0.006936314
203	0x3c88b4d1	0.016687782
204	0xbda4efb5	-0.08053533
205	0x3d80108c	0.06253156
206	0xbda588d3	-0.08082738
207	0xbdfa2492	-0.122140065
208	0xbd8ffb08	-0.07030302
209	0x3d4ae900	0.049538612
210	0x3da4d82c	0.08049044
211	0xbdaa49a1	-0.08314825
212	0xbdfb70eb	-0.12277397
213	0x3d9bf13c	0.07614371
214	0x3c420b3f	0.011843502
215	0x3d094078	0.033508748
216	0xbd9c0181	-0.07617474
217	0x3c80cbcb	0.015722176
218	0xbdcf9edc	-0.10137722
219	0x3cb60b3a	0.02222215
220	0xbd0acd9f	-0.0338875
221	0x3cd270aa	0.025688488
222	0x3d7fea38	0.062479228
223	0x3d327e4b	0.043577474
224	0xbd577a7d	-0.05260705
225	0x3cd1e7b4	0.02562318
226	0xbdaaadff	-0.08333968
227	0x3e35a690	0.1773932
228	0xbcb4eef9	-0.022086607
229	0x3c21e4f1	0.009881244
230	0xbd1048b1	-0.035225574
231	0xbce002b1	-0.027345033
232	0xbd2470de	-0.0401467
233	0xbd464f78	-0.04841563
234	0x3c892b06	0.016744148
235	0x3d34edc8	0.04417208
236	0xbda6d2e2	-0.081456915
237	0x3c908b40	0.017644525
238	0xbd679966	-0.056542777
239	0xbb65c36e	-0.0035059112
240	0xbc49a183	-0.012306574
241	0xbd9ef99e	-0.077624545
242	0x3d52b9f2	0.051446863
243	0x3d590d1a	0.05299101
244	0x3d2bcccf	0.041943368
245	0xbd174e44	-0.036939874
246	0xbd7e9444	-0.062153116
247	0xbdde84ca	-0.10865171
248	0xbc0c0d7b	-0.008548136
249	0xbd231f8f	-0.03982502
250	0xbd629d78	-0.055325955
251	0x3d321c95	0.04348429
252	0x3d84586f	0.0646218
253	0x3ca463f4	0.020067193
254	0xbc1a768f	-0.009427681
255	0xbc109503	-0.00882459
