train_weight_sr8/model_epoch_19.pth (torch_old, 667646 bytes, 10 tensors)

weight f4 [12, 3, 13, 13]
00000000: ce3c c13c c14c edbc aeeb a93d 8377 2cbc
00000010: d6c5 2bbd 4a31 8ebd 6619 453d 18c4 13bd
00000020: f07f 1cbe d611 aa3d fcbe 3dbd b60c b43c
00000030: da22 9ebc 6969 233d 5311 13bd 5f8b 6ebc
00000040: 5d09 3ebd ec5f 733d 631b 573c 5a57 523d
00000050: 7498 e8bd 281e 243c 4f25 19bd 4537 46ba
00000060: dfde 153d 99fd eaba a041 febc 2b43 58bd
00000070: 6ce5 a73d 0960 0e3d d18f 51bd 4ed9 c6bd
00000080: 0fea 2e3d 4ade cfbd d13f 0dbb 31d4 723d
00000090: eafb a53c e023 a2bb 139a c93a 9315 573d
000000a0: b043 a1bd f81f 67bc d7c2 083d e555 6f3d
000000b0: 4714 3b3d 3d7e 8a3c 85d6 14be 7280 873c
000000c0: 5d42 acbd c0d0 983c d008 c53d a14c 85bd
000000d0: 262b b2bd a2db b03c 0bb7 91bd 20b6 75bd
000000e0: 3850 ddbd 298a b3bb 3476 eabb 4d43 31be
000000f0: 1929 2a3c 6211 1d3d 41cf 97bc 60d7 3e3d
00000100: 8aff 3f3d 70ae 523d 60cf 3d3d cb0f 0a3e
00000110: aa89 e13c c373 e4bc bd11 6c3d eb22 ed3c
00000120: 5800 00bc f8fe afbd 7559 fdbd 82e1 c8bd
00000130: 12dc e1bd 22f8 eabd 81fd 3bbd 1dc2 f23c
00000140: 613a e2bd dad3 9cbc 1133 c1bc 9bdb 303d
00000150: b331 5c3e e6f5 17bb 6877 9c3d 0bd2 be3d
00000160: 18f9 2f3e 6943 9c3d 7a12 3a3d de3c 513d
00000170: 4592 7abd da08 01be d861 0bbe e2f7 abbe
00000180: 24cf 84be 0b92 e2bd 2073 3dbd 0fc9 6d3c
00000190: 6c41 94bc b075 9a3d c851 2ebb 224e 8e3d
000001a0: 80dd 6fbb fa93 633c 4f4d 803c adde d2bc
000001b0: b878 2d3d af7e dabc cfa1 94bc 5d75 7b3d
000001c0: 2af3 e7bd 997b e6bc 21a1 7dbe 40bf 9cbd
000001d0: 3bdd 50be 3298 8c3d fc0d aebd 1b67 413d
000001e0: 3911 16bd 14f5 27be c233 e53c 97ac 1cbd
000001f0: f4db 43bd bbca da3b d1bf 73bb 67f8 debb
00000200: a127 83bd bc07 a4bc e97d a1bd 2841 3abd
00000210: 9288 b2bd d237 263d 6411 bbbd 8120 d43b
00000220: dbdc 19be 0013 91bc 39ec 07be 9e75 6d3c
00000230: 13dc 1fbc 0201 2d3b 995d a8bd fda4 0b3d
00000240: 506e 0b3d 9fdf bdbd 1f7c 40be f24d b7bd
00000250: 0053 8a3d aa03 123d 638e c83c ed1e 10be
00000260: 2de9 9abc d58d 11bd 6117 0ebc b792 babd
00000270: c365 59bd f3ed 1e3c 7416 10be 6538 dabd
00000280: 5f9a f53c ef09 9fbc 3504 edbd 6920 5e3b
00000290: 98a6 a5bd 3911 bdbc ed17 173c 7158 edbd
000002a0: b4f3 dc3b 510e 02bd bcd1 b0bb 2706 2cbd
000002b0: a844 e13a 3c92 cf3c b29e 833d 5cae 0ebd
000002c0: f717 103d 2ae7 4a3b ff79 19bd c7fe cbbd
000002d0: bcca 133d 089a 973c 3254 333d 600e 94bd
000002e0: d8fd db3d 1e8a 95bc 52c9 423d c00d adbd
000002f0: e768 16bd 9517 08bd 7f39 933d bfb8 8a3c
00000300: 20f5 1d3c 0562 a7bd bc11 a3bc e515 72bd
00000310: bd78 fc3d a96b 96bd fc76 14be b1e6 4cbd
00000320: 0629 ae3d 17f0 d8bc ad3d a23c 1ee7 b03c
00000330: 8b10 25bd 7109 7fbd 84be 0c3d 0655 e7bc
00000340: 9cc7 b63c c1a0 333d 50f7 ed3d 909b 9b3d
00000350: e6ad 5b3d 5bc9 1b3c ce6b 753d ec06 2e3d
00000360: 3488 1c3b ee98 0a3d 3fc4 ebbd 0a7d 05be
00000370: 9f3d 4c3d 7e20 7b3d 3b20 b4bd 00aa b8bd
00000380: d6a0 41bd c907 513c fa60 8a3c 995a 74bd
00000390: 123c bbbc f125 4bbd 6799 60bb 3d35 00be
000003a0: 1ad5 863d cb34 2a3d 6cf6 72bd 7729 aa3d
000003b0: 5d8b e2bb 9170 243d 14cd 92bd f501 eebc
000003c0: cb1e 8e3c 714f cfbd 3f3c d9bd 573d 31bd
000003d0: f624 11be a8f6 e6bd f8c0 57bd 2625 94bc
000003e0: b615 9abd ee48 1bbc 9208 7d3d 93c5 783d
000003f0: de98 1ebd 82d5 423c d491 7cbd a38b ab3d
0.023588564 -0.028967263 0.082969055 -0.010526541 -0.041936718 -0.06942995 0.048119925 -0.03607568
-0.1528318 0.08304183 -0.046324715 0.021978717 -0.019303728 0.03989545 -0.035905194 -0.014559596
-0.04639565 0.05941765 0.013129088 0.051352836 -0.11357203 0.010016955 -0.037389096 -0.00075613364
0.0365895 -0.0017928361 -0.031037152 -0.05279843 0.081980556 0.034759555 -0.051162545 -0.09709416
0.042703684 -0.1014982 -0.002155293 0.059284393 0.020261724 -0.0049481243 0.0015381001 0.05251081
-0.078742385 -0.014106743 0.03338894 0.058431525 0.045673635 0.016905898 -0.14534958 0.01654074
-0.08411095 0.018654227 0.096208215 -0.065087564 -0.08699636 0.021589104 -0.07114991 -0.05998814
-0.10806316 -0.0054791165 -0.007155204 -0.1731083 0.010385775 0.038346656 -0.018531444 0.046592116
0.04687456 0.051435888 0.046340346 0.13482587 0.027531464 -0.02788723 0.057634104 0.028947314
-0.007812582 -0.08593553 -0.12370578 -0.09808637 -0.11028303 -0.11473109 -0.045896057 0.029633576
-0.11046291 -0.019143987 -0.02358392 0.043178182 0.21503334 -0.0023187338 0.076399624 0.09317406
0.17184865 0.07630045 0.045427777 0.051083438 -0.06117465 -0.12601033 -0.13611543 -0.33587557
-0.25939286 -0.11063012 -0.04625237 0.014513268 -0.018097602 0.07541978 -0.0026599038 0.069484964
-0.003660053 0.013890261 0.015661864 -0.025740946 0.042351454 -0.026671736 -0.018143563 0.061391223
-0.11325677 -0.028135108 -0.24768497 -0.076536655 -0.20396893 0.068649665 -0.08498761 0.04721747
-0.03663752 -0.16402084 0.027978782 -0.038250532 -0.047817186 0.0066769994 -0.003719319 -0.006804514
-0.06404043 -0.02002322 -0.078853436 -0.045472294 -0.08717455 0.04058058 -0.091341764 0.0064736013
-0.15025656 -0.017709255 -0.13273706 0.014493374 -0.00975706 0.0026398306 -0.08220977 0.034092892
0.03404075 -0.09271168 -0.18797348 -0.08950414 0.06754112 0.035648026 0.024481958 -0.14074297
-0.018910015 -0.035535652 -0.008672566 -0.09110015 -0.053075563 0.009700286 -0.14071065 -0.10655288
0.029980836 -0.019413916 -0.11573068 0.003389383 -0.08088416 -0.023079501 0.009222013 -0.115891345
0.006742919 -0.031751934 -0.005396096 -0.041998055 0.0017186599 0.025338285 0.06426753 -0.03483425
0.035179105 0.0030960538 -0.03746986 -0.09960704 0.036082014 0.018506065 0.043781467 -0.07229304
0.10741776 -0.018254336 0.047555275 -0.08449888 -0.036721136 -0.033225615 0.07188701 0.016933797
0.009640962 -0.081729926 -0.019905917 -0.05910291 0.123277165 -0.07344753 -0.14498514 -0.050024692
0.08503918 -0.026481671 0.0198048 0.02159458 -0.04029898 -0.062264863 0.034361377 -0.028238785
0.022311978 0.04385448 0.11619437 0.075980306 0.05363264 0.009508456 0.059917264 0.04248707
0.0023884894 0.03383725 -0.1151204 -0.1303598 0.049863454 0.061310284 -0.0879521 -0.090168
-0.047272526 0.012758204 0.016891945 -0.059656713 -0.022855792 -0.04959673 -0.0034271122 -0.12520309
0.06583615 0.041554254 -0.059317037 0.0830869 -0.006913586 0.040146414 -0.07168022 -0.029053668
0.017348668 -0.10122574 -0.10607194 -0.04327139 -0.14174256 -0.11277515 -0.052674264 -0.01808412
-0.07523672 -0.009477837 0.06177575 0.060735296 -0.038720004 0.011891725 -0.06166251 0.08376243

weight f4 [64, 12, 7, 7]
00000000: 3e2c 243e dd81 9cbd 32af 9abd 3017 f8ba
00000010: 0d38 a4bb f7a3 6b3d d549 babd 6840 55ba
00000020: 59fc 423d e251 c43d 959d be3d 0b58 173e
00000030: 6f4f b43d e8d0 193e 3ebe a13c 07d5 02be
00000040: a64f 52bd 5c37 f0bd 2e75 35be e90b 2abe
00000050: 1f3a 4bbe d82e 86be c444 05be e5bd 88bb
00000060: a2c3 ab3e 299e 833e aee2 f6bd b1d8 163e
00000070: 9c4c 803d f5e9 073d 3c2a 823d 6bfe 413d
00000080: c54f 20bc 97ba 9a3c a743 a9bd 81e8 eebd
00000090: b5c3 6dbe f27b 10be 6c0d 303e 6e9c 29be
000000a0: 6e5f 903e 131d 2fbe 3fd8 92bd fa2c 19be
000000b0: 75db c5bd 5602 0e3e b7c2 60be 0447 87bb
000000c0: b9ee 30be 7481 25bd 28ca c9ba 441e aabd
000000d0: b6f1 343e c773 38bc 3bd7 16bc d2d3 e1bc
000000e0: a3b8 333c c05e debb 6fdd 063e f52c 2b3d
000000f0: 32cc 84be b452 35bd 9572 023e 0bde babc
00000100: 9b95 b5bb b1bf d83d 4592 a5be 2d6c 7f3b
00000110: 501a 953e 99c9 e3bc 9a00 623d e3d6 f8bc
00000120: 30e0 b0bc 3154 d4bd 1817 8e3d cdf8 f23d
00000130: 5209 32be 22bf 20bd 11b5 71bb f5d7 673e
00000140: b6bd b6be 20a8 7f3e 4dc7 5dbc c8e7 463c
00000150: 0141 c83b efd7 f43d 0798 c1bd 6165 89bd
00000160: 413b f63d 37ee 84be cc37 0c3e 4b17 93bc
00000170: d534 343d 18f3 91bd 133c 013e 7e09 66be
00000180: e418 623e aa24 8ebd 56e6 85bb c601 04bd
00000190: d075 fc3c ab9e 763d e840 133d befd 603d
000001a0: d034 4fbb 3f51 a33d 97f9 02be 117e f6bd
000001b0: da58 9fbc 886e 873d 1c0c 203d ca01 0d3d
000001c0: 1631 82bc a545 1fbe 827b 25be 7ade 0d3c
000001d0: b79f 043d a364 b23d 3a9c c0bc 8e15 f6bc
000001e0: 84e5 65bd 1571 85bd 5a57 183d 6e99 46bc
000001f0: 9672 b53c e794 f2bd a7bf 12be 176a 0abe
00000200: 532e a7bd b7ba 9e3d 4f97 473d 55ef f93d
00000210: 89f1 f43c dd00 c1bd f597 0abe c045 7bbe
00000220: 9f40 1f3d 6de6 653d 5957 c43d 64b7 a4bc
00000230: 67af 60bd 7faa 1c3c fd6e 5dbe 4a7d 313e
00000240: 2fd9 da3c 76a5 ed3d 1c6e e53b 23e7 bbbd
00000250: 8b37 713c 8b7f be3d e82a 5bbd 078b a23c
00000260: 0f43 02be ffa6 6bbd ef73 a83c 00be b7bc
00000270: 7e10 2abd c228 2b3e 708f 893b 5b7e 74bd
00000280: 3af8 b6bd 1531 87bd d317 8c3c 81d0 4b3b
00000290: c6b9 223e b4d0 20be ee09 aabc 62b8 0d3d
000002a0: fcf8 9a3d 3c78 d63d 4d17 aabd 5b58 53bd
000002b0: aa15 62bd 9a3d 63bd 7adb 31be c24d 583c
000002c0: 4cd9 223d 7e52 bfbd de3d ac3c 4915 e1bd
000002d0: a1d7 9ebd e820 59bd 2f57 3bbe 9f76 c0bd
000002e0: 4c98 433d f577 c9bc 289d 93bd 73c0 1abe
000002f0: daba 2fbd 9846 14be 635d 1abd 26a8 8ebd
00000300: 929e da3d 75f5 13be 771b 213b c187 b03d
00000310: 0504 b1bd a909 2d3a 186a a53d 8acc 913d
00000320: af6e 2fbe 879a 743d 155d 86bc 9437 b23d
00000330: fc18 0bbd d654 7639 f38f 31be c964 c03c
00000340: a856 813e 5f77 a1bc accf c03d 4ceb f03b
00000350: 4aed a0bc 9eff 72bd 53ee 733e 1c00 f13d
00000360: 2970 94be 6754 99bd 7712 e5bc d521 2b3d
00000370: 9c6c d73b 6af9 323c 0a1f 9ebe 2833 d03c
00000380: 9783 f23c 6835 96bc 3f33 babd 16d1 723d
00000390: 3574 24be 4b13 1e3e 550b 4c3e 7d09 7f3c
000003a0: c9f0 db3c 13a9 8f3d df68 50bd 7828 023e
000003b0: 96d7 97bc b6a3 3bbe 7bcb 08bd a21d 253d
000003c0: b065 2fbd 3d37 75bd 7770 923d d910 0abe
000003d0: 584a 133e 9140 3a3d 142d 26bd 4665 8cbb
000003e0: 2b51 aabd 4fd3 3fbc 216b 5bbd f26e 253d
000003f0: 1e8e be3d 767b b0bd e06b b0bd 8740 c2bd
0.16032502 -0.07641957 -0.07552947 -0.0018927809 -0.0050115646 0.057529416 -0.090961136 -0.00081349025
0.04760394 0.095859304 0.093074 0.1477968 0.08804213 0.15021098 0.019744035 -0.12776576
-0.05134549 -0.11729309 -0.17720482 -0.16606106 -0.1984639 -0.26207614 -0.13014513 -0.004173028
0.33547693 0.25706604 -0.120549545 0.14731099 0.06264612 0.033182103 0.06355712 0.047361773
-0.009784644 0.018887801 -0.08264857 -0.1166544 -0.23219188 -0.14109781 0.1719262 -0.1656358
0.28197807 -0.17100935 -0.07170152 -0.14958563 -0.09660999 0.13868079 -0.21949278 -0.004128339
-0.17278565 -0.04040666 -0.001539533 -0.08306554 0.1767033 -0.011258072 -0.009206588 -0.027566824
0.010969314 -0.0067861974 0.13170408 0.04179092 -0.2593704 -0.044268325 0.12739022 -0.022810956
-0.005541516 0.10583437 -0.32338157 0.003897439 0.29121637 -0.02780609 0.055176355 -0.030375903
-0.021591276 -0.10367621 0.069379985 0.11863861 -0.17386368 -0.03924478 -0.0036881606 0.22640975
-0.35691613 0.24966478 -0.013536287 0.012140222 0.0061112647 0.119552486 -0.09452825 -0.067087896
0.120230205 -0.25962994 0.1369316 -0.017955443 0.043995697 -0.071264446 0.12620573 -0.22464558
0.22079808 -0.06940587 -0.004086296 -0.032228254 0.030817896 0.06020991 0.03595057 0.054929487
-0.0031617172 0.07974481 -0.12790523 -0.12035764 -0.019451547 0.06612879 0.03907405 0.034425534
-0.015892547 -0.15553911 -0.16160396 0.008659 0.03237888 0.08710601 -0.023511995 -0.030039575
-0.056127086 -0.06515709 0.03719268 -0.012121541 0.022149365 -0.11844807 -0.14330922 -0.13517033
-0.081631325 0.07750457 0.048728283 0.12203852 0.02990033 -0.09423993 -0.1353453 -0.24538326
0.038879987 0.056127954 0.09586973 -0.020106979 -0.054854777 0.009562134 -0.2162437 0.1733295
0.02671489 0.11603825 0.0070016515 -0.09174945 0.014722715 0.09301671 -0.053507715 0.019841684
-0.12720893 -0.057532307 0.020563094 -0.022429466 -0.041519634 0.16714767 0.0041980073 -0.059690814
-0.08934064 -0.066011585 0.017101204 0.003109962 0.1589118 -0.15704614 -0.020756688 0.03459967
0.07567021 0.10472152 -0.083052255 -0.051597934 -0.05519644 -0.05547867 -0.1736888 0.013202133
0.03975801 -0.09341906 0.021025594 -0.10990388 -0.07755972 -0.053009897 -0.18294977 -0.09397625
0.047752663 -0.024593333 -0.072077096 -0.15112476 -0.042902805 -0.14480054 -0.037686717 -0.069656655
0.10674776 -0.14449103 0.002458302 0.08619643 -0.08643345 0.0006600866 0.080768764 0.07119091
-0.17132066 0.05971768 -0.016401807 0.08702007 -0.033959374 0.00023491992 -0.17340069 0.023485558
0.25261426 -0.01971024 0.0941461 0.0073522683 -0.019644398 -0.059325807 0.23821382 0.11767599
-0.2899182 -0.074868016 -0.027962906 0.04178031 0.0065742265 0.010923723 -0.30883056 0.025415018
0.029603763 -0.018336013 -0.09091806 0.05928143 -0.16059954 0.15437047 0.19926198 0.015566227
0.026848214 0.0701467 -0.050881263 0.1271075 -0.018535417 -0.1832417 -0.03339718 0.040311463
-0.042821586 -0.059867132 0.07150357 -0.1348299 0.14383829 0.04547173 -0.040570334 -0.0042845337
-0.08316263 -0.011708095 -0.053568963 0.04038901 0.093044505 -0.08617298 -0.086143255 -0.09484964

weight f4 [64, 64, 3, 3]
00000000: d4f6 aabe ba2e 3d3e d59f 223e 18f4 ffbc
00000010: 2a23 ee3d 87bf 4bbc 934a 353d 60d8 823d
00000020: 8986 063e 258c 3d3d 5b80 1a3d 0220 953d
00000030: 42c3 0d3c cd46 a73d ad1d 853a 2f72 c43d
00000040: 300f 4cbd 919b cfbd 35a5 b5bc 1a46 42bd
00000050: 0165 bdbd 20bb b03b 8228 833e a34b 0dbd
00000060: e8e1 78be 688a 1cbe 8cd4 1cbd 3de6 f43d
00000070: 0793 843d 9f36 83bd 4445 a1bc e62a 373c
00000080: e6ca 563d 4f64 33bc 6c3a d1bc a28e 493d
00000090: e65b 76bd d513 173c 2b21 87bd 7eac c83d
000000a0: dfe2 38bc cb02 28bd f341 043b c5d9 29bd
000000b0: 0d0f 30bd 6f49 c6bd 8680 86bc 6bf3 a4bc
000000c0: 5f16 433e 1763 703d 40a3 cbbc a718 493d
000000d0: 50f9 073c 98bc 7ebd b4e9 573c a3a5 103d
000000e0: 2a6a 8cbd 8e02 c7bc b03f 033d 5f97 9fbc
000000f0: 978e bb3d 5f40 933c 4c58 ccbd b4b1 7bbd
00000100: 309a 1eba 6f4e a43c 7df6 a2bc e144 b93c
00000110: cc49 543d cd1a 9cbd 0600 673d 6f87 14bd
00000120: dbd1 8abd 9ba2 9fbd 9c68 b138 45c1 b5be
00000130: 9830 54be c143 b73c c42d 88bd 67ec 6fbb
00000140: 2911 cebc bea7 b9bc 718b 86bd 7909 4cbe
00000150: 40aa 56bd e606 9fbd 7d18 4fbe 59b8 e1bd
00000160: b5b6 a8bc e311 0abe 0967 01bd 7acd 213d
00000170: fa3e 0b3d 3d05 25bd f77c e8ba 7dc8 f8bd
00000180: fb0a 243d c376 2a3e a5b5 e4bc b2e0 e73b
00000190: ffb2 d33c 6fa7 0c3d fb6c 31bd f774 a33c
000001a0: eb3b ac3d 9d3c a13d f002 13bd e106 873d
000001b0: 0382 80bc 1f06 bd3d b159 ecbd 0181 02bd
000001c0: 1edd b73c 3deb 9fbe 7652 74bc 8170 5abd
000001d0: 01d0 32be fa6c fabd f149 0fbd 2fe2 02be
000001e0: c1b2 143e 0038 edbd 8973 abbd 489a 2eba
000001f0: 6574 86be edc2 dfbc defe 093e 855b 50bd
00000200: 6734 68be 0f7d 233d a506 c3be 6af0 5abe
00000210: 6b38 67be 0637 90bd 9867 7bbe 98b2 d1bb
00000220: 2dd6 0b3e e753 503d 08f4 cd3d f2da 1a3c
00000230: e395 6ebd 19b5 c0ba a843 3fbc 26a7 84ba
00000240: 557a 07bd 4fe7 1cbe df30 b83b 0901 c5be
00000250: a0a9 72bd fd1e a0bc b91f fbbd f236 013e
00000260: dde3 3abd 8bd9 043c 0099 9bbd eaeb cbbb
00000270: a50d 96bc e943 abbc 3d1d 553d 40c8 6e3d
00000280: dad8 873c fb54 a2bd 04f1 c1bd 20a5 5bbd
00000290: fd06 9ebd 70c2 4a39 0b60 8bbc 5719 09bd
000002a0: 2f0a b3bd fa53 01bd 5303 353d da24 1abd
000002b0: 9db9 c8bd 0bcf 95be ed55 dabd 9a01 103e
000002c0: 6040 94be e3ce 3cbe af7c 513e eca6 94be
000002d0: 3a20 d03c 56f0 843c ea9e 49bd c7c5 643d
000002e0: 20e3 3ebc ec23 a5bb 9755 83bd 2c06 3c3d
000002f0: 7452 a13a 1755 01be ec56 a4bd 47d5 d2bd
00000300: 1675 0bbe 096b 60bd 8871 78be 4ec6 99bd
00000310: 8ad0 e73d e934 2dbc 8f61 2bbd 6bce 25bd
00000320: 8433 f2bc 4e36 f83c 5114 1f3d 7bbb 4b3d
00000330: 6943 73bd 2401 db3b 3b87 c83d d7e4 1b3e
00000340: ca08 153e aa9f 0cbe a44c e43c 3af1 a4bd
00000350: c7ec 253d c587 c63b 420f 853c 4124 1b3b
00000360: 727e 8d3d 3e79 8c3d 252c 1f3d 218e 9cbd
00000370: 2109 0abe bd8c 2b3d 908e 8a3b 086e d4bd
00000380: 39d1 2c3d f164 07be 6537 6d3d bc18 89bd
00000390: 853e 983d 5f8d f13d a45c c8bd 3f66 ce3c
000003a0: a04c 38bc fa37 f7bc 4741 11be 32a5 a4bd
000003b0: 8bad dabc 5352 0bbe b024 a2bd 6301 1fbd
000003c0: 879f 3ebe b571 b0bd b802 963d 4c54 b6bb
000003d0: f8a2 193d 98c7 5538 68ce da3d a647 383d
000003e0: 4706 d93d 3a3f 67bc d335 e53c 1d74 ad3d
000003f0: d727 d6bd 370d 50bd 061a b93a 7f55 dbbd
-0.3339144 0.18474856 0.15881284 -0.031244323 0.11627801 -0.0124358 0.044260573 0.063889265
0.13137259 0.04627623 0.037720066 0.07281496 0.00865251 0.08167801 0.0010155939 0.09592091
-0.04981917 -0.10137094 -0.022173503 -0.047430135 -0.092477806 0.005393401 0.25616843 -0.03449596
-0.24304926 -0.15287173 -0.038288638 0.11957977 0.06473356 -0.064069025 -0.019686349 0.011179661
0.052439593 -0.010949208 -0.025540553 0.04920829 -0.060146235 0.009221037 -0.06598123 0.09798525
-0.011284559 -0.04101829 0.002018091 -0.041467447 -0.042983104 -0.09681975 -0.016418707 -0.020135602
0.19051503 0.05868825 -0.024858117 0.049095776 0.008299187 -0.062191576 0.013178278 0.035314213
-0.06856187 -0.02429321 0.03204316 -0.019481359 0.09158056 0.01797503 -0.09977779 -0.061448768
-0.00060501974 0.020056931 -0.019892925 0.022615852 0.05182819 -0.07622299 0.056396507 -0.036261972
-0.06778308 -0.077946864 8.459503e-05 -0.35499015 -0.20721662 0.022371175 -0.06649354 -0.0036609413
-0.025154667 -0.022662994 -0.06569565 -0.19925489 -0.052408457 -0.07764988 -0.20224185 -0.1102149
-0.020594934 -0.13483386 -0.031592403 0.0395026 0.033995606 -0.0402882 -0.0017737438 -0.12147615
0.040049534 0.16646867 -0.027918646 0.0070763463 0.025842188 0.034339365 -0.043316822 0.019953234
0.08409866 0.07872889 -0.035891473 0.06593109 -0.015686994 0.09229683 -0.11540545 -0.03186131
0.022444304 -0.3123416 -0.014912238 -0.05332995 -0.1746216 -0.12227817 -0.034982625 -0.12781595
0.14521314 -0.11582947 -0.08371646 -0.0006660563 -0.26260677 -0.027314628 0.1347613 -0.05086853
-0.2267624 0.039914187 -0.38091007 -0.21380773 -0.22580115 -0.07041745 -0.24551237 -0.006399464
0.1365592 0.050861266 0.10056311 0.009451615 -0.058248412 -0.0014702409 -0.011673845 -0.0010120615
-0.03307565 -0.15322612 0.0056210603 -0.38477352 -0.0592438 -0.019546026 -0.1226191 0.12618616
-0.045627464 0.008108507 -0.07597542 -0.0062231915 -0.018317053 -0.020906406 0.052029837 0.058296442
0.016582895 -0.07926365 -0.09469798 -0.053624272 -0.07716177 0.00019336655 -0.01701357 -0.03347143
-0.08742177 -0.031574227 0.044192623 -0.0376328 -0.09801028 -0.29259524 -0.1066092 0.14063111
-0.28955364 -0.18438296 0.2045772 -0.290336 0.025405992 0.016227882 -0.049223818 0.055852678
-0.0116508305 -0.0050396826 -0.06412809 0.045904323 0.0012307898 -0.12630115 -0.080243915 -0.10294586
-0.13618883 -0.054789577 -0.24262059 -0.07508527 0.113190725 -0.010571697 -0.041841086 -0.04048006
-0.02956558 0.030299332 0.038837735 0.049739342 -0.05939046 0.0066834856 0.09791418 0.15224014
0.14554134 -0.13732782 0.027868576 -0.08053823 0.04050901 0.0060586655 0.016242627 0.0023672732
0.06908883 0.068590626 0.03886046 -0.076442964 -0.13480045 0.041882265 0.0042284206 -0.10372549
0.042191718 -0.132221 0.057914156 -0.06694171 0.074338 0.117945425 -0.09783295 0.02519524
-0.011248738 -0.030178059 -0.14185058 -0.08039321 -0.02669408 -0.13605623 -0.07917154 -0.03881968
-0.18615542 -0.08615438 0.07324737 -0.005564248 0.037508935 5.0969044e-05 0.106839 0.044990204
0.105969004 -0.0141141955 0.027979767 0.084694125 -0.104568176 -0.050793853 0.0014122135 -0.107096665

bias f4 [64]
00000000: 2734 0abc cfac 933c f7c7 f6bc 12df 7abd
00000010: 9df5 0d3e 30db ab3a 3153 3bbd 5bd5 023e
00000020: 3d54 fa3d 3add 153e 0ced f63c e1b7 263c
00000030: 288d 2e3c e29f bb3b 129a 0cbc 665b c0bc
00000040: 3205 b6bc d381 14bc 5a87 74bd ed4e 6bbd
00000050: da5b c13d 11b7 3dbc a391 f83b 4e0a 66bd
00000060: ce77 12bd 6dc7 2cbc 20d5 b03d ed82 1a3d
00000070: f567 713e 59b0 cabc 404a 873b d29d 5cbc
00000080: 039c 0e3d 0c63 173e 3036 5bbd bb7a 02bd
00000090: 3fee d13c 33f0 083e e860 8fbd ae7e 9bbc
000000a0: 7aab 143e 5647 63bc c4b8 b23e 6935 4abf
000000b0: 8754 d23a f7df ae3d 3260 4a3b 77cd b03c
000000c0: b8f0 1c38 9497 4dbd 164b 0f3d 1581 d63c
000000d0: 7767 a9bc b22d e83c 6f93 70b9 e4ec b03d
000000e0: 1ebe 2f3d c76c 96bd 6126 483d 4843 df3c
000000f0: 9af5 9f3d be7d 4b3c c425 e2bb 8ade f0bc
-0.008435286 0.018026737 -0.030124648 -0.061247893 0.13863225 0.0013111588 -0.045733634 0.12776701
0.122230984 0.14635172 0.03014233 0.010175676 0.010653771 0.0057258466 -0.008581655 -0.023481082
-0.022219274 -0.009064156 -0.059699394 -0.057448316 0.094413474 -0.011579291 0.0075857206 -0.05616217
-0.035758786 -0.010545594 0.086344 0.037722517 0.23574813 -0.024742292 0.0041287243 -0.013465362
0.034816753 0.14783877 -0.053518474 -0.031855326 0.0256263 0.13372879 -0.07000905 -0.018981304
0.14518538 -0.013871988 0.3490659 -0.7898775 0.001604692 0.08538812 0.003088009 0.021582348
3.7417485e-05 -0.050193384 0.034983717 0.026184598 -0.020679219 0.028342102 -0.00022943107 0.08638933
0.04290592 -0.073449664 0.048864726 0.027253762 0.07810517 0.012420116 -0.0069014747 -0.02940299

weight f4 [64, 64, 3, 3]
00000000: 8a4c 41bb 7e26 803d c7c1 5ebd cb09 9dbd
00000010: 966e 4abe 39b6 f93c e570 9bbb b43f e9bd
00000020: f0f1 a73b 4083 f33a a6f9 28bc 1eda dd3b
00000030: 2291 863c 5bfe dcbc 4ba1 61bd 3a6b 893c
00000040: 87ea 41bd 1c30 333c b1e9 593d 68c3 803c
00000050: 970f e63d 5f61 1c3c 6112 7c3d 2cf7 acbd
00000060: 4a4d 52bd 4c76 80bd 0118 6cbc f64f 9e3d
00000070: ad45 c13a 4cca ee3c 4e5a dcbb 22b9 b4bc
00000080: 1c3e 573d e2d4 9cbd 7f67 cebc 8ebd 4abd
00000090: f037 2b3c b916 eb3c e7ca 88bc 4236 9abd
000000a0: 3932 a3bd e0be 7ebd 5192 90bc b9ea f5bb
000000b0: 83f6 91bc d331 f5bd 62c9 983d 1643 f53c
000000c0: 66e9 3e3d f43e 80bc 5db6 e93c 027a a8bd
000000d0: c4e7 4fbd 448e c73c 5bcc 9bbd 1f44 4a3c
000000e0: aa7c 9f3c 3eda 4c3c 89db d13c 60d4 7abc
000000f0: 48b2 cc3c 7685 3cbd 8fac 073c de99 5f3d
00000100: 7a95 9bba 3995 2cbc 5a28 a23c 770c bebc
00000110: 9396 a63d a0a7 8d3c 49cc b8bd 23b7 1abe
00000120: b3bc 92bd 4958 513c 24f0 263d 6fc9 c9ba
00000130: 6393 23bd 3a91 8b3d d72b ddbb d9df 8bbd
00000140: 870d b2bc 2427 77bd 8edf eebc bd5f 72bd
00000150: 2918 3d3e e9bd 723c 0603 bd3c 37fa ebbb
00000160: d346 823d 05b1 2abd 0e01 85bb 7b18 99bd
00000170: 1882 47bc 972c e73c 9a4c 013e 32c7 3b3d
00000180: 6459 22bd 7586 61bd 9f84 47bb 23e2 0b3d
00000190: 9543 8abd 85fb 213d 145b b23d ecfa 9c3c
000001a0: 3f82 de3b 1736 7ebc 59eb 6a3d 4506 0ebd
000001b0: 268b 67bd afbc 4abc 8d97 37bd 6d57 b1bd
000001c0: 40cf 7fbd 7837 08bd 4b65 8cbb 1908 ccbd
000001d0: 8480 94bd fb38 4dbd e644 e73c b759 283d
000001e0: 9acb 83bd 6933 e8bd c8d0 53bd 9766 033d
000001f0: 3145 423c aca3 2fbd 3e00 0c3c be88 21bd
00000200: 8ac6 d2ba 6565 07be 0b96 343c 9f72 2e3c
00000210: 9a62 d0bd 6008 0e3c 8998 ab3d 3865 2fbc
00000220: 1b2e c6bd e13b 9abd f10a cc3c e27d 8ebd
00000230: dfa6 f3bc 4c41 cfbc b2f6 c5bd 74af 9f3d
00000240: c413 083d b1d9 78bd 1793 9e3c 2122 9fbd
00000250: 5946 0bbb 43e9 8fbd 2b16 52bd a483 e0bc
00000260: f9c0 dd39 3935 d4bc 8b39 b1bc d9bd 7e3d
00000270: f27b 123d f739 3d3c 5d1a 8bbc 5789 573d
00000280: 089f f2bb fdd5 64bd e584 f7bb e656 b9bb
00000290: a629 fcbd 17b2 d13b a172 d2bc 9194 64bd
000002a0: f03f bd3c a076 cdbc 0f49 6fbc f6d6 cb3c
000002b0: aceb 1abd 2018 4a3c c441 023d 3b70 4e3d
000002c0: 17d4 a3b9 d2bb 2a3d f260 f6bd f408 7ebc
000002d0: 06b2 ba3c b6ed c13c 1558 a8bd e6f4 853d
000002e0: 0850 03be 65a0 11bc e2f5 e53d 1566 293b
000002f0: 27ce 8cbd 2abf 34bc ab31 a5bc 2f25 16bd
00000300: bdd9 17bc a970 c3bc ffe6 00bd ba6e c43d
00000310: 9ff8 95bd 3166 7abc 9186 793d f603 c73b
00000320: cd73 e5bc 76fa de3c 0053 2c3b 963f c7ba
00000330: ef66 bdbc a983 bfbc fd7c bb3c 300b 8fbd
00000340: 8119 9b3d eb4b b83d 14c3 3abc 9688 88bb
00000350: 07a2 813d 22d3 86bd 7133 8ebd 02ac e6bc
00000360: 97ae 40bd 733c 9fbd 67be 493d 3c3f fc3b
00000370: c585 3bbd cd2b b7bd 00d2 4ebd 2ad0 e9bc
00000380: 2e27 13bd 8af8 95bd 2301 bd3d a4dd d5bc
00000390: 0537 f53c 8fbe 983d 0d2e 9abc 922d 4abd
000003a0: c586 07bd 1492 29bd 97cf 3f3c 484d debc
000003b0: a4a6 cabc 020e 883c 8457 86bd d4f0 82bd
000003c0: a1f7 2dbd 8ae3 85bd 56f2 f9bc 0e93 7bbd
000003d0: 7918 ecbd 6269 abbd 00b3 b2bd 1395 4ebe
000003e0: 90a6 c5bd 27bb 5bbc 3ec7 19be 4c57 38be
000003f0: 03b0 803c 62e2 243d 3eea 12be b42b 79bc
-0.0029495084 0.06257342 -0.05438402 -0.076678835 -0.19768748 0.030482398 -0.0047436827 -0.113891035
0.0051252767 0.0018578544 -0.010313427 0.0067703864 0.016426627 -0.026976755 -0.05508546 0.016774762
-0.047342803 0.010936763 0.05320138 0.015718177 0.11233442 0.009544699 0.061540965 -0.08445582
-0.05134324 -0.06272563 -0.01441002 0.07730095 0.0014745496 0.029149197 -0.0067246323 -0.022060934
0.052549466 -0.07657792 -0.025195835 -0.04949718 0.010450348 0.028697358 -0.016698314 -0.0752988
-0.079685636 -0.06219375 -0.017647894 -0.0075047878 -0.017817741 -0.11972394 0.07460286 0.029939216
0.046609305 -0.015655018 0.02852934 -0.08226396 -0.05075814 0.02435983 -0.07607337 0.012345343
0.019468624 0.012503205 0.025617378 -0.015309423 0.024987355 -0.046025716 0.008280887 0.0545901
-0.0011870109 -0.010533624 0.019794632 -0.023199303 0.081341885 0.017291844 -0.09023339 -0.15108924
-0.07164898 0.0127773965 0.04075636 -0.0015395115 -0.03993548 0.06814809 -0.006749611 -0.06829805
-0.021734966 -0.06034006 -0.029159334 -0.059173334 0.18466248 0.014815786 0.02307273 -0.007201459
0.06361165 -0.041672725 -0.0040589636 -0.074753724 -0.012177013 0.028219504 0.12626877 0.045844264
-0.03963603 -0.05505987 -0.0030444039 0.034151208 -0.067511715 0.03954651 0.08708778 0.019162618
0.006790429 -0.015515826 0.05735335 -0.034673948 -0.056529187 -0.012374087 -0.044822264 -0.08659253
-0.06245351 -0.033256024 -0.004284536 -0.09962482 -0.07251075 -0.05010317 0.028231096 0.041101184
-0.06435318 -0.11337931 -0.05171278 0.03208026 0.011857317 -0.0428807 0.00854498 -0.039437048
-0.0016080898 -0.13222273 0.011022101 0.010647445 -0.10175057 0.008668989 0.08378703 -0.010705285
-0.09676763 -0.07530952 0.024907561 -0.06957604 -0.029742656 -0.02529969 -0.09666194 0.07797137
0.033221975 -0.06075448 0.019357247 -0.077701814 -0.0021251647 -0.07026913 -0.051290672 -0.027406521
0.0004229618 -0.025904285 -0.021633884 0.06219277 0.035762735 0.011549464 -0.016980344 0.05262121
-0.007404212 -0.055868138 -0.007553684 -0.005656111 -0.12312631 0.006399404 -0.025689425 -0.055805746
0.023101777 -0.025080979 -0.014604821 0.024882775 -0.03782241 0.012334853 0.031801 0.0504
-0.00031247802 0.041683026 -0.120302096 -0.015505064 0.022789966 0.02367292 -0.08219925 0.06540851
-0.12823498 -0.008888339 0.11228539 0.00258482 -0.06875258 -0.011031905 -0.020165285 -0.036656555
-0.009268221 -0.023857431 -0.031470295 0.09591432 -0.07322811 -0.015283153 0.06091935 0.00607347
-0.02800932 0.027219038 0.002629459 -0.0015201445 -0.023120372 -0.02337821 0.022886747 -0.06984556
0.07573224 0.08998855 -0.011399049 -0.004166673 0.063297324 -0.06583239 -0.069434054 -0.028158192
-0.0470415 -0.07775202 0.049253847 0.007697968 -0.04578187 -0.08943901 -0.05049324 -0.028541643
-0.035926037 -0.07322796 0.092287324 -0.026106663 0.029933462 0.07458221 -0.018820787 -0.049359865
-0.03308751 -0.041399077 0.011707208 -0.02713646 -0.024737664 0.016608242 -0.06559661 -0.063935906
-0.042472485 -0.0653754 -0.030511063 -0.06141954 -0.11528105 -0.083697096 -0.08725548 -0.20174055
-0.0965091 -0.01341132 -0.15017411 -0.18002051 0.015708929 0.040254958 -0.14347169 -0.015208174

bias f4 [64]
00000000: e4fa 4e3d 60fa b33d fdb4 dfbc 697a 97bc
00000010: 59e3 b33d d92f 64bd 0e67 3abc 64a4 e3bc
00000020: 1220 2cbb 704f df3c 5712 1a3d d304 b0bc
00000030: c318 19bc bf36 52bd ea8b af3d 4765 dbbd
00000040: d44d 53bd 2b19 8cbc 81f0 d4bc 247f 39bd
00000050: 4e39 a73d 5b63 8abd df0a bebc 9758 1fbc
00000060: e4e8 17bd 1a52 973d 99d6 9ebd 3317 553d
00000070: 11ce 74bd 116d d9bb 36be b93b 9d6d 393d
00000080: ee91 8e3b aff0 0fbb bb43 763c d467 6f3b
00000090: 67fc f4bc 6279 013c fe08 00be 5fe3 04bc
000000a0: 871f ca3c 7bc6 93bc cc6c 483e 0a8a 5abe
000000b0: 5d88 a6bc f26b 75bd f58c 53bd 5e34 103d
000000c0: c292 863d 2146 c13d 05d1 f7bc 70f9 f2bc
000000d0: 9b6b 533d 2d9f c33e a838 233e 226d 373d
000000e0: a35d 8a3d 3e00 293d f576 f3bc 3fbe 8b3d
000000f0: 8c86 9abd a809 bd3d f5b2 80bd 61d2 963d
0.050532237 0.087879896 -0.027307982 -0.018490987 0.087835975 -0.055709694 -0.011377109 -0.027788348
-0.0026264233 0.027259558 0.037615146 -0.021486675 -0.009344283 -0.05132174 0.08571608 -0.107126765
-0.051587895 -0.017101845 -0.025993587 -0.045287266 0.08165227 -0.06757232 -0.023198543 -0.009725711
-0.037087336 0.073887065 -0.07755775 0.052024078 -0.059766833 -0.006635316 0.005668427 0.04527055
0.0043508923 -0.0021963527 0.015030797 0.0036530392 -0.029905511 0.007902475 -0.1250343 -0.00811085
0.024673237 -0.018038979 0.19572753 -0.2134172 -0.020328695 -0.059917398 -0.0516481 0.03520619
0.065709606 0.09437204 -0.030251035 -0.029659957 0.051616292 0.3820738 0.15939581 0.04478181
0.06756141 0.041259997 -0.02971981 0.06823396 -0.07545194 0.092303574 -0.06284133 0.07364345

weight f4 [64, 64, 3, 3]
00000000: 126a f8bc 7a40 c23b ffee 5cbd eb88 363d
00000010: a55d c2bd ca97 81bd 892e f8bd 9fdc b53c
00000020: fe44 c63c 2b1a 3f3d 3b59 02bd f9c9 353d
00000030: 7e48 a83a 7b42 a3bc bdca 4abd dc6f 8bbc
00000040: f9e6 293d 216b b4bd c509 debd 21e7 5b3c
00000050: f3e4 ad3d 9c51 cabc f5de 03bc a509 54bb
00000060: eb57 ebbc 539e 943c 3c3b 88bd b575 183c
00000070: 4038 41bd b58d 913c dd3c 6fbd 3eb1 9abc
00000080: d7ae 633d dea6 763d e95c 81bd cab0 15bd
00000090: 3ce3 463a e060 c83b eab7 0e3d ab92 10bc
000000a0: 549f 0e3d 0a3f 3cbc 9f92 ad3c ae12 273d
000000b0: bc24 603c b3fd da3c 5ed3 753c 6341 3ebd
000000c0: 1918 96bb 02e8 cd3a 8784 79bb 3146 83bd
000000d0: d428 24bd 69d8 bfbd bd19 e8bc 0bf4 ff3c
000000e0: 066a e4bc dce7 dbbd 3169 83bd 912b c03d
000000f0: a798 883d 7090 a3bb c6b9 02bd 1033 e53c
00000100: 4a54 b0bd 0bf3 4e3d f712 203d 93ae 8d3c
00000110: 27a9 9fbc 4a50 b8bc a465 2fba 1288 71bd
00000120: dfef 16bd dd20 00be e7e5 2abe 3a99 08be
00000130: 9fc0 00bd d821 ddbd 1908 34bd 7c24 c43b
00000140: 472c 5bbc bcbb 303d d0c5 053d 7e1a e7bc
00000150: d2a2 b1bc 636f d3bc 1892 babc fce7 bebd
00000160: 65e8 033d 5482 99bd da1a c83c 1143 f0bc
00000170: d5f4 92bd 459b db3c 20c0 21be 6f95 afbd
00000180: 6da4 90bd e13e d23c 2346 5f3b 4cd0 063c
00000190: 3588 7a38 9a71 dabd 2d19 edbc f675 f23a
000001a0: a8d1 69bd 9488 71bb 12ea a63c a1a5 77bc
000001b0: abaf 72bd 5046 9abc e478 6e3d fe66 9dbd
000001c0: 726c ccbd 01a4 86bd fc99 1fbc 1f65 1ebd
000001d0: 3572 d2bc 2bbd 80bb c15b 853d 9454 98bc
000001e0: 3797 5bbd d7d0 533d fa16 fbbc 669e b73b
000001f0: f126 87bc d73b 18bd 562d cabd c5eb 83bc
00000200: f7ef 8b3d 8878 6a3d cbe0 babd bfb1 073d
00000210: 8feb 82bd 78fd 63bd 55f8 72bd 57db fdbc
00000220: bc7c 3d3d acf1 993d 0297 9fbb 7f01 4f3c
00000230: 50df 94bc 6ac5 99bd 929c 0a3e a23a 00be
00000240: fbe2 5c3d bdf2 b2bd 9232 883d 7f44 ee3c
00000250: 67a9 37bd d1f3 79bc 8a7c 2fbd 8a42 acbc
00000260: 7f44 cbbc 9ae1 e5bc 354a a2bd e184 97bd
00000270: bcb7 edbd 09a3 91bd 0725 c43c 5b4e 833d
00000280: 7783 d93d 1ff6 4a3c ee05 ccbc da4d 173d
00000290: b5b2 8fbd 4230 ba3d 85c2 3e3c ab4a 0f3d
000002a0: 8720 e73d b9d5 47bc 8ec3 5e3d 6ef2 f5bc
000002b0: b3bf 423d a192 39be 6292 36bd a246 b4bd
000002c0: 11fb 573c 3d66 a33d 3af1 9bbc 3176 b53c
000002d0: cf7f babc 09f8 7fbc b478 bdbc 88c0 08bd
000002e0: 903e b13b 04cd 2ebd cfb0 bd3d d9d0 28bd
000002f0: cbcb c73c 1455 533d 6efd 7dbc 8b2b 21bd
00000300: e9d9 5abd c751 6a3c 5e3d c53d aacd 7fbd
00000310: d51b 863d db61 083e 3c93 fa3c 83fd 9b3c
00000320: b07a 0a3d 98ea 11bd 772b debc dcac 72bd
00000330: 56d0 973d 4385 373d ada3 da3c 8718 dabd
00000340: 9af2 3a3d f8d7 13be cc7b 113e df18 90bc
00000350: 2255 a1bc 046e ba3d 824f 143e a8db 223d
00000360: e6d2 113c 0ab7 803b 1448 7abd 5937 273d
00000370: 255b 5dbd 3f6f 1cbd e915 be3c a953 373d
00000380: e4b3 a4bd 77c4 1abd bc8d cabd 8c6e 7d3d
00000390: 461b 8e3c 4dfa b2bc 593f afbc 34ba 753d
000003a0: 024f 673d 0381 46bd 468a 28bd 9f31 8d3c
000003b0: 3c9b 52bd 93db 24bd d452 10bd cff9 ee3a
000003c0: f414 ac3c 39ad 63bd 5692 8c3d da40 5fbc
000003d0: a87c 5e3c 697f 80bc 631d bcbc 10bf 9ebc
000003e0: 01e5 30bd 1a3d 383d 24cb 33be a8f3 83bd
000003f0: 316a 273d 7034 72bd 7868 4cbd 8994 b3bd
-0.030324016 0.0059280964 -0.053938862 0.04456417 -0.094905175 -0.063277796 -0.12118251 0.022199927
0.02420282 0.046655815 -0.031823378 0.04438207 0.0012838987 -0.019929161 -0.049509753 -0.017021112
0.04148004 -0.08809496 -0.10841707 0.013421805 0.08490934 -0.024697118 -0.008048763 -0.0032354381
-0.028728446 0.018141901 -0.06651923 0.009305407 -0.047172785 0.017767766 -0.058407653 -0.018883344
0.055586662 0.06021773 -0.06316549 -0.036545552 0.0007586961 0.006115064 0.034843363 -0.008824031
0.034819916 -0.011489639 0.021188078 0.0407893 0.013680633 0.026732301 0.015004007 -0.046449076
-0.0045805094 0.0015709403 -0.0038073377 -0.06409872 -0.040078 -0.09367449 -0.028332585 0.031244298
-0.027882587 -0.10737583 -0.06416548 0.0938331 0.06669741 -0.0049915835 -0.03191545 0.02797845
-0.08609827 0.050524753 0.039080586 0.017295158 -0.019489838 -0.022499222 -0.0006690866 -0.058967657
-0.036849853 -0.12512536 -0.16689263 -0.13339701 -0.031433698 -0.10797471 -0.043953035 0.0059857946
-0.013377256 0.043147787 0.03265935 -0.028210875 -0.021684084 -0.02580995 -0.022774741 -0.09321591
0.03220405 -0.07495561 0.024426866 -0.029328855 -0.07175604 0.026807437 -0.15795946 -0.08573424
-0.07062612 0.025664749 0.0034068904 0.008228373 5.9731497e-05 -0.10666199 -0.028942669 0.001849829
-0.05708471 -0.0036855089 0.020375285 -0.015115173 -0.05924956 -0.018832356 0.05822076 -0.0768566
-0.09981622 -0.0657425 -0.009741303 -0.038670655 -0.025689224 -0.0039288006 0.06511641 -0.018595017
-0.053611007 0.051712837 -0.030650605 0.0056035994 -0.01649806 -0.037166443 -0.098719284 -0.016103635
0.06832879 0.057243854 -0.09124907 0.033128496 -0.063925855 -0.05566165 -0.05931886 -0.030988378
0.046261534 0.075167984 -0.0048702965 0.012634634 -0.01817289 -0.07508357 0.1353629 -0.12522367
0.053927403 -0.08737705 0.066502705 0.029085396 -0.04483929 -0.015255884 -0.04284338 -0.021027822
-0.024812935 -0.028061677 -0.0792431 -0.073983915 -0.1160731 -0.071111746 0.023943437 0.064114295
0.10620778 0.012387781 -0.024905171 0.03693948 -0.070165075 0.09091236 0.011643057 0.03498332
0.11285501 -0.012196952 0.054385714 -0.030022826 0.0475461 -0.1812234 -0.044573195 -0.08802535
0.0131824175 0.07978485 -0.019035924 0.022151085 -0.022766022 -0.015623101 -0.023128845 -0.033386737
0.0054090694 -0.042675987 0.09262239 -0.041214798 0.024389168 0.05159481 -0.015502317 -0.039348166
-0.05343047 0.014301724 0.096308455 -0.062451996 0.06548277 0.13318579 0.030587785 0.019041782
0.03380841 -0.035624117 -0.027120335 -0.059246883 0.07412784 0.044804823 0.026689375 -0.106492095
0.04564152 -0.14437854 0.14207381 -0.017589984 -0.019693915 0.09103015 0.14483455 0.03976026
0.00890038 0.00392807 -0.061103895 0.040824268 -0.054042 -0.03819203 0.023203807 0.04475752
-0.08042124 -0.03778502 -0.09890315 0.061873004 0.01734699 -0.021847868 -0.021392511 0.05999203
0.056471832 -0.04846288 -0.041147493 0.017235575 -0.051417574 -0.040248465 -0.03523524 0.0018232408
0.021006085 -0.05558512 0.06863849 -0.013626302 0.013579525 -0.015685754 -0.022963231 -0.019378215
-0.043187145 0.044980146 -0.17557961 -0.06442958 0.040872756 -0.05913204 -0.049904317 -0.08768565

bias f4 [64]
00000000: 5c3a 44bd 30b5 31bc af3b 89bd 32eb d8bc
00000010: 90a5 92bd 0fd2 06be 318c 503c 3659 f53b
00000020: f66d 6d3c 032c 2fbd a409 8ebc e8d6 05bd
00000030: 4ed5 2cbd 149d e23d 306c 7cbc c190 0d3d
00000040: dd28 82bd 4225 67bd 92e2 bbbb a778 e8bc
00000050: 01bf 25bc 79ea f2bd 58ff 21bd 1ea4 503d
00000060: f071 95bb 7702 ed3c a09f 90bd e0c2 063d
00000070: 8cd0 18bd 78d9 fabc 4c41 2f3b f81e 303d
00000080: 0466 67bc 5b6a 82bc cc07 74bd 03b4 85bd
00000090: 16f7 93bd cb8b 253c 6026 9d3b d4b1 82bc
000000a0: 8563 8fbc 0e2f ba3d 6464 ea3d 500a f3bc
000000b0: 1045 0d3a 2193 c53c 7aca 75bd c9cd ddbc
000000c0: cb94 5dbd f519 bfbb 5345 5fbd b94f 903b
000000d0: 3386 95bc 9f0c 5cbd 7b0a efbd f9f7 173b
000000e0: ee0b 06bd b584 11be 509c 5bbd 9ad4 25bd
000000f0: d125 3abd a11e b8bc c7e0 22bd 0ab0 0e3b
-0.04790722 -0.010846421 -0.06700837 -0.026479337 -0.07160485 -0.13166068 0.012728737 0.0074874414
0.014491549 -0.042766582 -0.017338581 -0.032675654 -0.04219561 0.110651165 -0.015406653 0.034561876
-0.0635545 -0.056432016 -0.0057337964 -0.028377844 -0.01011634 -0.11861128 -0.039550155 0.050937764
-0.0045607015 0.02893184 -0.07061696 0.03290069 -0.03730826 -0.030621275 0.00267418 0.042998284
-0.0141234435 -0.015919855 -0.05957775 -0.06528475 -0.07224862 0.01010413 0.0047958344 -0.015953936
-0.01750351 0.09091006 0.11444929 -0.029668003 0.0005389014 0.024118008 -0.06000755 -0.027075665
-0.05409698 -0.0058319517 -0.054509472 0.004404035 -0.018252468 -0.053722974 -0.11671921 0.0023188575
-0.03272622 -0.1421078 -0.053615868 -0.040485956 -0.04544622 -0.022475543 -0.039765146 0.0021772408

weight f4 [12, 64, 3, 3]
00000000: 3375 2fbd bb19 c2bb a08d c83c 9cf0 8a3c
00000010: cd55 973c d223 23bc bce2 94bb 55ab 61bc
00000020: 951e 683c a87c 1bbd 3772 983d 0231 de3b
00000030: 6fac 71bd b1c8 b03c d6f3 a73c 08cb f73b
00000040: 7c26 b83a b0c3 0fbd 0362 34bd 1acd e03c
00000050: 8711 f6bd d605 1c3d 1300 b63d a2b6 a8bd
00000060: 1ade 0e3d 6a74 5e3d 4a74 2b3d 5b00 b3bb
00000070: 09de 803d 62ba 6ebd 602d 8e3c 9ea9 a9bd
00000080: 9e1f 9b3e eb55 dabb c3d9 563c 4d98 e0bd
00000090: d28f a73d 329a 193c 23c5 50bd dce4 5e3d
000000a0: 3dd0 553d 64d7 a0bd b759 c7ba bfa6 e0bc
000000b0: b707 99bc 24fd e0bb e076 3ebb 4b98 7eba
000000c0: b6c8 8d39 d14d ae3d 70d7 e639 935c 0e3c
000000d0: 9288 16bd d669 4f3a c901 c13c fe3c 34bd
000000e0: 6c71 db3b ee8e 473d ecfe 5cbd c313 f73c
000000f0: 3563 773d 4daf 283b 99be 4c3c 790d 083d
00000100: 1982 423a 3bdd 1f3b 84cf 68bc 48e3 ea3d
00000110: d1b0 6dbc e247 093d 54a6 50bd 9b4f a63c
00000120: 6858 44bd 91d0 4abc 3cef b1bc d36b 013e
00000130: b845 a33b 8983 e8bc d0c5 033e d54b c5bd
00000140: d286 ffbc ca4e 743c 9b0e 72bd 4aa0 433c
00000150: ef64 17bd 382f 7a3d 23d5 08bd 1324 883c
00000160: 8e5a 9d3c e733 f93c ca1f 893d 6e63 02bc
00000170: 470f 2ebd 7658 0ebc 9964 9abc 7452 4abc
00000180: 34ee fd3c 9ef1 143c 5116 dbbc 7be0 be3c
00000190: 1b6e 303a 882d e33c cd86 d9bc 8ed9 303c
000001a0: 0ed1 edbc 5e3d 36bd 5fb0 513d bb5b b1bd
000001b0: 15b2 16bc 1a9a 4fbd 2c62 27bd 5b53 993c
000001c0: 067c f33b 912d e33c 5563 2f3c bb47 673d
000001d0: 8af7 0ebd cca9 d13c f6b2 133d 70ba 11bb
000001e0: ab91 fe3c 39be c83d 7681 d0bc 2989 5f3c
000001f0: bca8 c6bb ea21 99bd d4b1 55bd 2c8e 753c
00000200: b6ea 033d a22c a03b a18e 363c b0d9 9a3d
00000210: 1c40 ecbc c61c 6abc edef 283b def3 503b
00000220: aeb0 36bc 436c d13b f52d cd3d ad0b b6bb
00000230: c0d9 d3bc 4944 f2bc 347f e63c 7fac 07bb
00000240: 09db 5ebc 5b47 5b3c f60d 653a 96d1 653c
00000250: 5112 b53c 4ce7 a0bc fc28 9d3c 5afc af3c
00000260: 0412 d4bc 78a7 a5b9 09e1 57bb 5113 59bc
00000270: 1b93 7ebb 1bdf b1bd 1699 4fbc 8ac9 e63b
00000280: f225 fa3c d7f6 f53c 39a1 263d 022d 2f3d
00000290: 3b53 0c3c d3be 82bd 3cfd ed3b fa12 66bd
000002a0: 3a3c b4bd 1782 7cbb f2b2 083b 7401 a7bd
000002b0: 6f22 05bd fb97 a4bb 3d73 8e3d 5780 f13d
000002c0: 6aa1 3bbd cf3e 493d fe79 3c3c 55dc 52bc
000002d0: 7136 8ebd a423 0d3d 4bd1 fb3c 719e 26bc
000002e0: 8777 cbbc 5902 543a b468 2dbc e8de bf3c
000002f0: d659 ba3b ee92 3cbc e03c 603c 01e5 e8ba
00000300: cf7b 0f3d 3774 0dbc 3a82 553c b9ff d63a
00000310: 3f34 92bc ca52 df3a 13e7 a63c fd6e e3bb
00000320: d19d 95bd 5426 563d 0dfd 843d 8b2e dc3c
00000330: c929 a4bb 0627 5c3d a0b8 c4bd 9dbe 40bd
00000340: 76f3 3dbd d5c2 2e3c 9605 2abd 60a2 3e3b
00000350: 3a65 083d 4a2f ca3c 10bb fc3c acc0 903d
00000360: dd4a 483d 5048 d1bd cc69 00bd 4559 023d
00000370: 0098 063e 05d7 5fbe 3e0e e53b b59f ff3c
00000380: 5e3f c1bd 32bd 743c 3fdb cfbc efa5 18bc
00000390: 330a fa3c 09b4 20bc fd3e 7b3d 5d72 0cbd
000003a0: 25b0 283b ed9b 3dbc 8376 c5bc 29db fe3c
000003b0: cef1 0c3b de75 1abc 5aa0 2cba 89fd 043d
000003c0: a837 4bbd b33a f43c 4c89 40bc 7306 83bd
000003d0: c523 9b3d 0b1c a7bc f936 0abc 15e4 dd3d
000003e0: a9a6 37bc 6a86 4abd 4249 9e3c fdf2 11bd
000003f0: 84e7 0ebd d23e 543d 126c 893d 1c87 ecbc
-0.04283638 -0.0059234775 0.024481595 0.016960435 0.01847353 -0.009957271 -0.0045436304 -0.013773759
0.014167448 -0.03796068 0.0744366 0.0067807445 -0.059002336 0.021580072 0.020502012 0.007562045
0.0014049555 -0.03509873 -0.044038784 0.02744155 -0.12015062 0.038091503 0.08886733 -0.082379594
0.03487978 0.05431024 0.04185895 -0.005462689 0.0629235 -0.058283217 0.01735562 -0.08284305
0.3029756 -0.0066630743 0.013113442 -0.10966549 0.081817284 0.009375142 -0.050969254 0.054417476
0.052200545 -0.078535825 -0.0015209232 -0.02742326 -0.018680437 -0.006866114 -0.0029062554 -0.00097120245
0.00027043157 0.08510936 0.00044029532 0.008689064 -0.036751337 0.0007912194 0.023560422 -0.04400348
0.0066968706 0.048720293 -0.05395405 0.03016079 0.060397346 0.0025739253 0.012496614 0.033215974
0.0007419899 0.0024393338 -0.014209632 0.11469132 -0.014507488 0.03351582 -0.050939873 0.02030163
-0.047935873 -0.012378828 -0.021720521 0.12638788 0.0049826764 -0.028383033 0.12868428 -0.096336044
-0.031192217 0.014911363 -0.05909596 0.011940071 -0.036961492 0.061080188 -0.033406388 0.016618764
0.019208219 0.030420257 0.066955164 -0.007958276 -0.04249504 -0.008688083 -0.018846797 -0.01234876
0.030997373 0.009090809 -0.02674404 0.0233004 0.0006730274 0.027731672 -0.026553536 0.010794057
-0.02903035 -0.044492118 0.05119359 -0.08660074 -0.0091977315 -0.050684072 -0.04086511 0.018716505
0.007430556 0.027731689 0.010704835 0.056464892 -0.03490404 0.02559366 0.036059342 -0.002223637
0.03107532 0.09801907 -0.025452357 0.013643541 -0.006062595 -0.07477172 -0.052171543 0.01498751
0.03220626 0.004888133 0.011142404 0.07561052 -0.028839163 -0.014289087 0.0025777773 0.0031883637
-0.011150522 0.0063910796 0.10018531 -0.005555591 -0.025860667 -0.029573577 0.028136827 -0.002070218
-0.013602027 0.013383712 0.0008737737 0.01402702 0.02210346 -0.019641541 0.019184582 0.021482635
-0.025887497 -0.00031596026 -0.0032940528 -0.013249234 -0.0038845006 -0.08685132 -0.012670776 0.0070430683
0.030535672 0.030024929 0.040681098 0.042767532 0.008564766 -0.06384053 0.007262854 -0.05617044
-0.0880055 -0.0038529688 0.0020858613 -0.08154574 -0.03250354 -0.0050230003 0.06955574 0.11792057
-0.045808233 0.049132165 0.011503695 -0.012869914 -0.069439776 0.034457818 0.030739447 -0.010169611
-0.024837269 0.0008087508 -0.010584045 0.02342172 0.005686979 -0.01150964 0.013686389 -0.0017768444
0.035030182 -0.008633665 0.013031537 0.0016403116 -0.017847179 0.0017038223 0.020373857 -0.006940721
-0.07305492 0.052282646 0.06493578 0.026877662 -0.005009864 0.053748153 -0.09605527 -0.047056783
-0.04637476 0.010666569 -0.041509233 0.0029088482 0.033299662 0.024680752 0.030850917 0.07067999
0.04889952 -0.10218871 -0.031350896 0.031823415 0.13143921 -0.21859367 0.006990223 0.031204084
-0.094359145 0.014937686 -0.0253731 -0.009316905 0.030522441 -0.009808549 0.061339367 -0.034288753
0.0025739756 -0.01157282 -0.024104362 0.031110363 0.0021506432 -0.009427516 -0.00065851735 0.032468352
-0.049613625 0.029813146 -0.011751484 -0.063977145 0.07575182 -0.020399114 -0.008435958 0.10834519
-0.0112091685 -0.049444593 0.019322041 -0.035632122 -0.03488876 0.051817723 0.06710066 -0.028873019

bias f4 [12]
00000000: 8f59 883b 3bc6 a33c be50 133c ed86 6c3c
00000010: 0220 443c bcdf d33c d9f2 523c c286 eb3b
00000020: 3059 613c c09a 4b3c b6eb 943c e136 b03b
0.004161067 0.019991985 0.008991418 0.014436466 0.011970522 0.02586352 0.012875282 0.0071876952
0.013754174 0.012427032 0.018178802 0.005377636
