train_weight_sr2/model_epoch_4.pth (torch_old, 667646 bytes, 10 tensors)

weight f4 [12, 3, 13, 13]
000000 c4 7d 04 3d 0f 4c dc bd f6 7a 33 3c 64 1c f0 bc
       0.032346502 -0.107566945 0.010954609 -0.029310413
000010 7f 0e 5e bd 58 bd b2 bd fe f8 da 3c b0 61 36 3c
       -0.054213043 -0.08727521 0.026730057 0.011131689
000020 b5 51 46 be ee d6 8d 3d ce 8b 01 bd 45 50 7c bd
       -0.19367106 0.0692576 -0.03162747 -0.06159999
000030 f1 51 0c be 10 22 99 3c 3f ab 05 be 87 6a bc bd
       -0.13703133 0.018693 -0.13053606 -0.09200006
000040 7b 5e ad bd 09 45 a7 3d 16 c1 22 3b f9 a1 66 3c
       -0.08465286 0.08167464 0.0024834326 0.014076703
000050 c8 d9 15 be 23 ad ff bd 7f 1d b9 bd 42 71 29 bd
       -0.14633858 -0.12484195 -0.09038829 -0.041367777
000060 02 4a 9a bd 36 22 b3 bd a3 3e 9a bd 3a 62 e9 bd
       -0.07533647 -0.087467596 -0.07531478 -0.11395688
000070 8e 1d a4 3b 54 c9 84 3b d1 4c 48 bd 68 34 bf bd
       0.005008406 0.0040523205 -0.048901383 -0.093361676
000080 6e c9 8d 3c de 90 af bd c5 e0 ef bd b8 a3 ff 3c
       0.017307963 -0.08572553 -0.11712793 0.031205997
000090 7a a0 c3 3c 03 1d 96 bd 13 5d 0c bb 3b 57 8c bc
       0.023880232 -0.07329752 -0.0021417781 -0.017131438
0000a0 45 4c 0d be e6 9b 09 be 8e b5 83 bd a5 87 af bc
       -0.13798626 -0.13438377 -0.06431113 -0.021426985
0000b0 23 4c 18 3d d6 fa 94 bd 6d e1 49 be a3 c3 15 be
       0.037181985 -0.07274406 -0.197149 -0.1462541
0000c0 78 67 22 be 71 ab b5 bb 43 ab f5 bc b8 f9 04 be
       -0.15859783 -0.005544119 -0.02998889 -0.12985885
0000d0 ce 37 9b bd 6c 8c 91 3d 43 e9 d0 bd ef 05 14 be
       -0.07579003 0.071068615 -0.10200741 -0.14455388
0000e0 3b 02 1e be 1d 11 33 3d ad f5 9f bd 53 48 45 bd
       -0.15430538 0.043717492 -0.07810531 -0.048164677
0000f0 cb e5 99 bd 0d a6 d4 bc 00 ba 9f bd 32 10 ad bd
       -0.07514533 -0.025958085 -0.077991486 -0.08450355
000100 05 ff 01 3c aa ad a8 bc e1 dd a2 3b 3d 27 56 3d
       0.007934337 -0.020590622 0.0049702977 0.052283514
000110 ee f7 55 bd c9 09 a2 bd 0f c5 d2 3c 5e 4a d6 bd
       -0.052238397 -0.079120226 0.02572873 -0.10463403
000120 0d 90 ac 3c f5 81 1f be ee 0d 3b bd 40 91 b8 3c
       0.021064783 -0.15576918 -0.04566758 0.022530198
000130 74 6a c3 bd 79 3c 05 be fa 63 a4 39 cb 2d fc 3d
       -0.09541789 -0.1301135 0.00031355006 0.12313422
000140 2a 9f ca bd 14 35 19 bd a1 a0 8b bd 18 64 79 3b
       -0.098936394 -0.037404135 -0.06817747 0.0038054045
000150 b6 bd 68 bc 7f 82 a4 bd db 92 c9 bd 05 8b d9 3a
       -0.014205387 -0.08032703 -0.098424636 0.0016597217
000160 83 9b 12 3e f5 3e 58 bc 54 12 6b bd 7d 67 03 bd
       0.14317136 -0.013198604 -0.057390526 -0.032081116
000170 f7 e4 38 bc 79 15 8b 3c cb ea 2e 3d bb 35 1f be
       -0.011285058 0.016978012 0.042704385 -0.1554784
000180 06 0c b5 bd 7f d1 44 bc aa 14 99 bd f9 bb e2 bd
       -0.08840184 -0.012012838 -0.074746445 -0.11071009
000190 8e 8b c7 bd 5f e9 b7 bb d9 d7 fb bd 9e b3 35 bd
       -0.09743415 -0.005612537 -0.12297029 -0.04436075
0001a0 7f 51 be bd cc 1e 00 3c e6 ca 09 3c 88 41 67 bd
       -0.09292888 0.007819843 0.008410191 -0.05645898
0001b0 07 4f a4 bb d5 d3 b2 bd 6e 5b a8 bc 81 ad 6e 3d
       -0.0050143036 -0.0873181 -0.02055141 0.058270935
0001c0 70 e3 15 be b4 75 e3 3c 75 e6 34 be 66 ef ec bc
       -0.14637542 0.027766086 -0.17666037 -0.028922748
0001d0 df 5b 69 bd 94 ec a2 3d 10 80 9d bd cd d3 d9 3c
       -0.05697238 0.0795528 -0.076904416 0.026590252
0001e0 9a de 8e bd 05 e5 63 be d5 8e 10 bd 30 1b 8f bd
       -0.06976052 -0.22255333 -0.035292465 -0.069876075
0001f0 0a 23 16 be 60 18 bb bd 1a c8 54 bd 47 0e 8c bc
       -0.14661804 -0.091355085 -0.051948644 -0.017096652
000200 47 c4 af bd 36 55 09 bc 7a 9c c0 bd 2d ea 61 bd
       -0.08582359 -0.008382132 -0.094048455 -0.055154968
000210 7c 6b 99 bd 8b 2d 24 3d d1 c7 b8 bd ae af fa bb
       -0.07491204 0.040082496 -0.09022487 -0.007650337
000220 bd a7 fd bd b0 fc ef bc 13 7b 29 be 97 76 d3 bc
       -0.12385509 -0.029295295 -0.16550855 -0.025813384
000230 e6 1e e5 bc 29 6c fe b8 73 f0 93 bc 0b 0c da bc
       -0.027968835 -0.0001213181 -0.018058991 -0.02661707
000240 68 58 9c ba e8 6e 2b bd c3 7b 11 be ef 4c 6f bd
       -0.0011928203 -0.041853815 -0.14207368 -0.05842298
000250 38 0f 78 3d c1 35 06 3d e1 46 dc 3b 07 7f 07 be
       0.06056139 0.032766107 0.0067223166 -0.13232051
000260 0b 21 8c bc eb ec d3 bc e9 ba 42 3c 6a 4e b3 bc
       -0.0171056 -0.025869807 0.011885383 -0.021887977
000270 e4 f0 ad bd 3f 99 06 bc f0 26 c9 bd 9f 9b a5 bd
       -0.08493212 -0.008215248 -0.0982188 -0.08086323
000280 e2 66 3f 3d 7f 35 85 bd a0 5d 0a be 21 e8 4c bc
       0.046728976 -0.06504344 -0.13512278 -0.012506516
000290 56 e3 99 bd c3 b7 a7 3b d9 59 4d 3c f9 0b 83 bd
       -0.07514064 0.0051183417 0.012533628 -0.06398768
0002a0 89 88 28 3d 97 76 a7 bc 1d 8f 49 bd c8 30 66 bd
       0.041145835 -0.02044229 -0.04920875 -0.056198865
0002b0 e9 07 da bb 3a 42 ed bc 64 c9 21 3d 86 2f b1 bd
       -0.006653775 -0.028962243 0.0394987 -0.086516425
0002c0 04 a5 0a 3b 05 ff 7d bd 08 5f 20 bd 6d 0c bb bc
       0.0021155486 -0.062010784 -0.03915313 -0.022833074
0002d0 03 4b fc 3c 97 89 21 bd f9 19 15 3d 76 eb e5 bd
       0.030797487 -0.039437857 0.036401723 -0.11226551
0002e0 fc 26 b5 3d aa c6 8c bd 08 b1 b8 bb d8 76 f9 bd
       0.08845326 -0.0687383 -0.005636338 -0.12180871
0002f0 f7 c0 a8 bd 55 b1 04 be 04 2c ef bc dd bc bb 3c
       -0.0823993 -0.12958272 -0.029195793 0.022917205
000300 ab 5f 9b 3d 12 7a c1 bd e3 5e 0b bd 0c 4e 96 bd
       0.075866066 -0.09447111 -0.034026038 -0.07339105
000310 c0 d4 dc 3d a3 5a ed bd 57 17 2f be 19 ee e5 bd
       0.10782766 -0.11589553 -0.17098747 -0.11227054
000320 dd 08 b2 3c ca 3b 8c bd c5 dd d4 bc 51 2c 43 bd
       0.021732742 -0.06847341 -0.025984654 -0.047649685
000330 c7 48 0a bd e5 62 6e bc 22 6d 74 3c 31 70 01 bb
       -0.033760812 -0.0145499455 0.014918597 -0.001975071
000340 e9 f7 68 3c 5f fd 75 3c fd 2f d5 3c 3b 5c 6e 3d
       0.014219263 0.015014022 0.02602386 0.058193427
000350 6e 90 2d bd b7 88 a8 bd 60 56 83 bd cf 37 c7 bc
       -0.042374067 -0.08229201 -0.06412959 -0.024318604
000360 a3 5d 50 bd 7b 3b 7d 3d 1f 01 cc bd 25 cb 2f be
       -0.05087055 0.061824303 -0.09961151 -0.17167337
000370 fe 1b 50 3d 46 e2 e3 3d 29 db 40 bd c8 04 f9 bd
       0.050807945 0.111271426 -0.047084007 -0.12159115
000380 9e ae a2 bd 0d 76 6c bd 7f ec b5 bc c6 05 1d be
       -0.07943462 -0.05772977 -0.022207497 -0.15334234
000390 4e bc 23 3d 2c e3 52 bc ce 9a b3 3d 89 b3 d1 bd
       0.039974503 -0.012871545 0.08769761 -0.10239322
0003a0 47 86 15 3d 7a 5c 6e 3d 8b d3 bd bd 4f 79 88 3d
       0.03650501 0.05819366 -0.09268864 0.06663763
0003b0 fc f3 82 bd 13 12 4a 3d 26 d1 9b bd 26 95 81 bc
       -0.063941926 0.049333643 -0.07608251 -0.01581819
0003c0 00 0c d8 bc a7 07 ad bb 1e d4 25 bd ad 4d 00 3e
       -0.02637291 -0.0052804532 -0.040485494 0.12529631
0003d0 5a 2c ab 3c 26 6e a9 bd 83 4a 3b bd 24 c2 a9 bd
       0.020895172 -0.08272962 -0.045725357 -0.082889825
0003e0 20 cc be bd 0e b7 af bd 77 1d 71 3d e9 14 e8 3c
       -0.093162775 -0.08579837 0.05886599 0.028330283
0003f0 be 23 97 3c c3 8c ad bd aa 25 da bc b8 5a 93 3d
       0.01844966 -0.08474114 -0.026629288 0.071950376

weight f4 [64, 12, 7, 7]
000000 f4 3a a7 3d c7 5b 65 bd 54 19 7f bc 96 e2 ee 3b
       0.08165541 -0.05599573 -0.015570004 0.0072901947
000010 db 0f 31 bd d1 ae d8 38 bb 14 df bd 27 0e 82 3d
       -0.04322801 0.00010332245 -0.10892626 0.063503556
000020 41 a4 4f bc 9e 46 50 b9 17 34 83 3b bf d6 74 3d
       -0.0126734385 -0.00019862733 0.0040040123 0.05977511
000030 a3 0d 9e bc 74 06 cc 3c 10 c0 59 3d e4 11 53 bd
       -0.019293612 0.02490542 0.05316168 -0.051530734
000040 0a 91 15 bc 5d 39 ba bd e3 ad f1 bd 12 5b bf 3c
       -0.009128818 -0.090929724 -0.118007444 0.023358855
000050 b6 eb 71 bc 47 64 2c bd dd af 01 bd f3 c1 1e bd
       -0.0147656705 -0.04208782 -0.031661857 -0.038759183
000060 9e 85 63 3d bc 12 51 bd ba d4 22 3c 32 d3 1c be
       0.05554735 -0.051043257 0.009938413 -0.1531494
000070 3a b5 ab 3c dd 79 d6 bc 62 e1 01 3d 55 a7 33 bd
       0.020960439 -0.026181156 0.031709082 -0.043860752
000080 57 0a 9a bd af a5 c9 3c e0 d7 82 bd 81 35 0e 3e
       -0.075215034 0.024615137 -0.06388831 0.13887598
000090 07 ff 87 bd a1 21 83 3c f3 3b 14 bd 4a ae df bd
       -0.066404395 0.016007246 -0.036189985 -0.10921915
0000a0 45 c9 1f be a7 9c cc bd c7 85 85 bc 4c 24 28 be
       -0.15604122 -0.099908166 -0.016299142 -0.16420096
0000b0 52 d5 d2 bb 7a ed 11 bd 17 7f 95 3c fe 17 08 be
       -0.006434121 -0.035626866 0.018249078 -0.13290402
0000c0 77 ba 07 be 1c 5c c2 bb 9c b3 79 3d e2 45 8b bd
       -0.13254724 -0.0059313904 0.060962304 -0.068004385
0000d0 5f ad 20 3d 6d 51 20 3c 84 f8 90 bd 29 6c 2e bb
       0.03922784 0.009785038 -0.070786506 -0.0026614761
0000e0 50 df ee 3c b2 71 c0 bb 88 8d b8 3d fa b8 fd bd
       0.029159218 -0.0058729285 0.0901137 -0.12388797
0000f0 27 79 46 3c 11 50 66 bc 55 82 17 3d 4a 72 a0 bd
       0.012113846 -0.014057175 0.03698953 -0.07834299
000100 b0 e5 64 3c c6 e8 91 3c 8a 6e e5 3b b9 d4 b7 3d
       0.013970777 0.01781119 0.0070017027 0.089761205
000110 8d 7e 2a bc 52 5a 0e 3e 05 00 94 bc ca 0e 4c 3d
       -0.010406149 0.13901642 -0.018066416 0.04981879
000120 fa 93 54 3d 01 4c e1 bd d4 3c 12 3e fb a0 8a bd
       0.051898934 -0.11000825 0.14281017 -0.06768986
000130 60 9a 25 be a3 f0 01 bd a4 46 c0 3c 1a 11 3d 3c
       -0.1617217 -0.03172363 0.023471184 0.011539722
000140 41 a5 cc bd f0 71 98 3d 6f 35 3f be 0d 6b 50 bc
       -0.09992457 0.07443607 -0.18672727 -0.012720835
000150 d0 b4 2d bd df 13 94 3d 31 d4 3c bd 48 85 df 3c
       -0.042408764 0.072303526 -0.0461008 0.027285233
000160 17 da 02 3d 2f 41 53 be b0 e2 f0 3d ab 4f 6f 3c
       0.031946268 -0.20630334 0.11761987 0.014606397
000170 e2 85 14 bd 97 10 f5 3d 84 57 e1 bd ff cd 0b 3e
       -0.036260493 0.11966055 -0.110030204 0.136528
000180 be 86 05 be f8 fb f9 bc 4d 5a 3f 3b 9a df 88 3b
       -0.13039681 -0.030515656 0.002919811 0.004177046
000190 cf 5c 9e 3c 33 e3 e8 3c ff ac 5e 3d 3d 8e 14 3d
       0.019331364 0.02842865 0.0543642 0.03626846
0001a0 2e be 9a bc 15 3b 26 3d 1f 99 c7 bd b5 97 50 be
       -0.018889513 0.04058369 -0.097460024 -0.20370372
0001b0 ae 84 75 bd aa e3 8b 3d 6b 08 b5 bb 89 0f 94 3c
       -0.059940986 0.06830533 -0.005524685 0.018073814
0001c0 ca c2 f9 3c dd b1 20 bd 05 43 94 bd cb 9f 90 bd
       0.03048839 -0.039232124 -0.072393455 -0.07061728
0001d0 96 2d 8a 3c fc 48 43 bd 89 b2 a2 bc be 51 ac bc
       0.01686744 -0.047677025 -0.019860523 -0.021035071
0001e0 c8 eb 79 bd 0a de bc bd 44 91 fe 3b aa 8d 5e bc
       -0.061015874 -0.09222038 0.007768782 -0.01358358
0001f0 81 45 80 bc 28 eb 77 bd 69 e8 06 be 70 0b dd bd
       -0.015658142 -0.060526997 -0.13174595 -0.10793197
000200 4c 5d 18 bd f6 81 3b 3d 70 6c 08 bb ad ce e8 3d
       -0.03719835 0.045778237 -0.0020816587 0.11367545
000210 b6 f5 9e 3d 48 2e dd bd 42 13 cb bd f9 0b 11 be
       0.077617094 -0.10799843 -0.099157825 -0.14164723
000220 9b 4c 6d 3d 85 24 fb bb 4a 53 e4 3d b2 19 c6 bc
       0.057934385 -0.0076642656 0.11148699 -0.024182174
000230 ea 45 17 be 61 2c 65 3c 32 44 85 be 28 d9 19 3e
       -0.14772764 0.013987632 -0.2602859 0.15024245
000240 e0 e0 9e 3c 14 06 a2 3d fb 36 b3 bc d8 c6 92 bd
       0.019394338 0.079113156 -0.021876803 -0.07166833
000250 50 44 5c 3d 9b cf 21 3e a0 10 0a 3c e6 2e 36 bd
       0.053776085 0.15801851 0.008426815 -0.04447832
000260 fe c6 ed bd 60 d1 38 3c 42 db 8d ba 4f 9b 35 3c
       -0.116102204 0.011280388 -0.001082279 0.011084392
000270 20 04 a5 3b ff d2 9a bc 05 47 da 3c 54 db ea bc
       0.005035892 -0.018899439 0.026645193 -0.028669037
000280 bd 5e 9b bd 55 fc 00 be 61 ed b9 3b fd 88 3c 3d
       -0.07586429 -0.12596257 0.0056740497 0.04602908
000290 42 0b bc bb cd 24 a2 bd c6 8c 79 3c 13 94 73 3d
       -0.0057386467 -0.079171754 0.015231317 0.059467386
0002a0 4a 41 b4 3c b1 7c d3 3d 8f d4 71 bc 7f ce c7 bc
       0.022003789 0.103265174 -0.014760151 -0.024390457
0002b0 17 ca da bd 93 a7 4b bd 16 a6 ef bd bc a7 90 3c
       -0.10683077 -0.049720358 -0.117016 0.017658107
0002c0 4d bd 8c 3d b8 ee 1d 3c d9 09 6c 3d c5 74 13 bd
       0.06872044 0.0096394345 0.05762658 -0.036000032
0002d0 dc 0d 67 bd 7e 66 69 bd 0b 81 34 be e1 7a a4 bd
       -0.0564097 -0.05698251 -0.17627351 -0.0803125
0002e0 57 56 f5 3d 42 9e a8 3a a7 f7 50 bb 4e 8e 37 bc
       0.11979359 0.0012864547 -0.0031885894 -0.011203362
0002f0 ae a9 66 3d 1b 83 f0 bd 68 da a4 bb d6 91 0d 3c
       0.056314163 -0.117437564 -0.005030919 0.008640727
000300 00 d2 7f 3d d6 ef 2b be fd 6d 3c 3d 4f 76 06 3e
       0.06245613 -0.16790709 0.04600333 0.13131069
000310 2f 5e 6e bd ea 21 51 3c a2 28 05 3e 54 f0 69 bc
       -0.05819529 0.012764433 0.13003781 -0.01427849
000320 2f fe 53 be 79 d4 87 3d 62 0b 1a 3d 65 41 79 3d
       -0.20702432 0.06632323 0.03760851 0.06085338
000330 17 f3 8b bd be 73 1c bd e3 07 30 3d 32 3a 56 3c
       -0.06833475 -0.038196318 0.04297627 0.013075398
000340 40 e2 c8 3d d9 a7 e2 bc 70 37 62 3d d8 35 09 3d
       0.09808779 -0.027667927 0.05522865 0.033498615
000350 c7 8e 47 3c 36 88 cd bd 1c c7 90 3d 13 18 88 bd
       0.012180037 -0.10035746 0.07069227 -0.06645217
000360 1d ea 80 be fa 67 98 bc e8 04 9f 3a 2a 20 f5 bd
       -0.25178614 -0.018604267 0.00121322 -0.119690254
000370 4a 3f ef 3d 26 f6 1c be d3 9b 15 be ce 74 7c bd
       0.11681993 -0.15328273 -0.14610223 -0.06163483
000380 0c 64 2f bb 87 4e ca ba 83 db a0 3c 67 0a 60 3b
       -0.0026762513 -0.001543478 0.019635921 0.0034185888
000390 3d 9a 9a 3d 6b 2a c5 3d d6 1c 99 3b b5 47 3c 3d
       0.0754895 0.09627231 0.004672627 0.045966823
0003a0 4e c3 9b 3c 2a fe 69 3d 39 c5 53 3d 22 3f 87 bd
       0.019014027 0.057127155 0.051701758 -0.066038385
0003b0 7a c7 14 bd 10 ee 1f be 7f 9a 60 bd 3f 0b 24 3d
       -0.03632305 -0.15618157 -0.05483484 0.040049788
0003c0 5f ec 75 bd 56 16 0e 3c 35 8a 8c 3d 3a 4f 33 bd
       -0.060039874 0.0086723175 0.068622984 -0.04377673
0003d0 e0 f2 8d 3d 13 51 34 3d 3e 02 1c bc 3b 19 8d 3c
       0.0693109 0.04402263 -0.009522019 0.017223945
0003e0 4f 05 fe bc 20 4d 51 bc ee 06 18 be 9f b9 a7 3c
       -0.03100839 -0.012774736 -0.14846393 0.020474253
0003f0 47 2b 07 bb b0 63 93 bd a2 b5 37 bd b8 ad 6e bd
       -0.002062516 -0.07196748 -0.044850953 -0.05827114

weight f4 [64, 64, 3, 3]
000000 1d 0c bc bd 9b c0 32 bd a7 0c b3 3e d7 55 69 bc
       -0.09181998 -0.043640714 0.3497059 -0.014241657
000010 c0 d6 08 be 0c f0 be bc a4 eb 7a 3d e7 bf 58 be
       -0.1336317 -0.023307823 0.06125988 -0.21166955
000020 04 64 7f 3d fd 51 30 bc 85 12 06 3c 4f 2f d0 3d
       0.06235124 -0.010761735 0.008183126 0.101652734
000030 68 1d 00 bc 6d 3f 25 3c 79 d4 d6 3c fa 76 b5 3d
       -0.007819511 0.010085923 0.026224362 0.088605836
000040 b4 78 03 bd e7 60 ac bd e5 17 80 3d 3f 07 87 bc
       -0.032097533 -0.0841692 0.062545575 -0.016482947
000050 cf 9d 5f bd 7d f2 61 3e ec 62 da 3e bb 32 f7 bc
       -0.054593857 0.22065158 0.42653596 -0.030175557
000060 f2 05 fb bc ca 88 7e bc 3f 09 12 be 6b 86 c4 3d
       -0.030642483 -0.015535543 -0.1426134 0.09595951
000070 a2 a3 9f 3c 3b 79 90 bd 90 80 43 bc f5 ec d6 bc
       0.019487206 -0.07054373 -0.011932507 -0.026236037
000080 cb af 04 3d 66 41 45 bc b0 ee ac bc 22 ab 4e 3d
       0.03239421 -0.012039518 -0.021109909 0.050456174
000090 1b ef 81 bd 3f 2f 77 3b 2d 27 87 bd ba 06 c6 3d
       -0.06344434 0.003771737 -0.06599269 0.09669252
0000a0 c1 dd 3a bc 33 cd 12 bd cd 70 d6 3a 04 a7 1f bd
       -0.011405409 -0.035840224 0.0016360522 -0.038977638
0000b0 ad 39 2f bd e6 23 16 be 82 ba b8 bc 33 08 01 bc
       -0.042779613 -0.14662132 -0.022549871 -0.00787549
0000c0 5e 26 03 3e e5 19 7b 3c 58 67 53 3c 57 ff bb bc
       0.12807605 0.015325998 0.012903057 -0.022948904
0000d0 70 50 fd bc 37 da 22 bd 00 38 b4 bb 76 f8 b9 3b
       -0.030922145 -0.039758887 -0.00549984 0.005675371
0000e0 d3 b3 85 bd 62 88 39 bd 27 43 23 bb 6d 39 60 bc
       -0.065284394 -0.04529608 -0.0024911852 -0.013685566
0000f0 bc 8f 8d 3d 55 70 a3 bc cb 6d bb bd a3 63 9d bd
       0.06912181 -0.019951025 -0.09151801 -0.0768502
000100 be 66 a5 bc 04 38 8d 3c 60 cc c3 bc b7 23 84 3d
       -0.020190593 0.017238624 -0.023901165 0.064521246
000110 47 90 a5 3d da f3 a6 bd 05 ff 56 3d a1 71 85 bc
       0.08084159 -0.0815198 0.0524893 -0.016289534
000120 4e f1 52 bd 71 a1 56 bc e2 54 22 3d 3b 5f 80 3e
       -0.051499657 -0.013100014 0.03963173 0.25072655
000130 42 c9 45 3d a7 97 bf 3d 1d c5 12 3e 41 85 18 be
       0.048287638 0.09355097 0.14333005 -0.14894582
000140 fc fc fd bd 76 27 d4 3a 6d ba 43 bd bc 94 32 be
       -0.124017686 0.0016186077 -0.04778521 -0.1743955
000150 fd 47 f2 bc 35 58 68 bd 5f 6f 38 be 94 02 b2 bd
       -0.029575342 -0.056724746 -0.18011235 -0.08691898
000160 c4 16 bd 39 3f c8 e1 bd da f5 08 be 73 25 a6 bc
       0.0003606585 -0.11024522 -0.13375035 -0.020281529
000170 b1 8e cc 3d 3a 49 a2 bd f6 02 fb 3c d3 4b 30 bd
       0.09988154 -0.07924123 0.03064106 -0.04304106
000180 ee 5d 00 3c 51 3a 00 be 5d 43 0b 3d 00 d9 35 bd
       0.007834895 -0.12522246 0.03399979 -0.0443964
000190 57 65 6b bd 70 24 f6 bc 20 dc ac bd 52 0c 9b bc
       -0.057469692 -0.030046672 -0.08440423 -0.018926773
0001a0 8e f9 f7 3c 8d ce 56 3d d0 0a 56 bd 82 2a 0c 3b
       0.030270364 0.052443076 -0.052256405 0.0021387641
0001b0 00 4f 1a 3d 46 f8 c4 3d f8 68 63 bd 60 65 0d 3d
       0.037672997 0.09617667 -0.055520028 0.034520507
0001c0 ff fc 25 3d 59 30 93 be 8f 38 5b 3d 79 de ba bc
       0.04052448 -0.28747824 0.053520735 -0.022811161
0001d0 8c ee 31 be 7d f2 c4 bd 85 8a 0f 3e 2a 4f 37 be
       -0.17376155 -0.096165635 0.14017685 -0.17901292
0001e0 41 6d 75 3c 29 4b 0d 3d a1 6a 83 bd e4 07 00 bd
       0.014979661 0.034495506 -0.06416822 -0.031257525
0001f0 e0 8f c4 bc b5 5f 05 be 2f 44 11 bd a7 aa 7d be
       -0.023994386 -0.1302479 -0.035465416 -0.2477213
000200 03 ac f2 bd 51 23 cc bd f8 c6 c8 be ba 73 da bd
       -0.11849215 -0.099676736 -0.392143 -0.10666604
000210 cd d7 1a be 6a 6b 01 be 52 c6 eb bd 95 6f 4a bd
       -0.15121384 -0.12638631 -0.11512436 -0.04942282
000220 c7 09 00 3d 07 9a 95 3d e7 1b 95 3b df 30 8e bd
       0.031259324 0.07304769 0.0045504454 -0.06942915
000230 f7 5d 09 bd 96 4b aa 3c 34 98 01 be 08 a7 80 3b
       -0.033536877 0.020787995 -0.12655717 0.0039261617
000240 71 0f ad 3c 04 73 a9 bd d2 66 98 3d a1 34 97 bd
       0.021125527 -0.082738906 0.074414864 -0.07383085
000250 b0 e1 e5 bd a3 41 7a 3e 36 df 93 bd b6 b6 ab bd
       -0.11224687 0.24439101 -0.072203085 -0.08384459
000260 8e eb cb 3d 8d 12 8a bc 9d 67 58 bd d1 1e c5 bb
       0.09957038 -0.016854549 -0.05283319 -0.0060156365
000270 db 34 36 bd 89 de a6 3b 97 e0 62 3d 47 e3 00 3d
       -0.044484 0.005092446 0.055389967 0.03146675
000280 ac 2b 2c 3d 8f af a4 bd b2 23 c4 bd b5 ff 5d bd
       0.042033836 -0.08041298 -0.09577121 -0.05419894
000290 54 07 95 bd 2b 2c d6 3b 75 af a1 bc cb 53 12 bd
       -0.07276788 0.006536027 -0.019736985 -0.035724442
0002a0 06 39 b5 bd fc 8e 13 bd 9b 6e 32 3d 41 98 66 be
       -0.08848767 -0.036025032 0.043562513 -0.22519018
0002b0 91 7a 3d be ea 75 55 be 51 74 9c be 31 1b 41 be
       -0.18503787 -0.20845762 -0.30557492 -0.18858029
0002c0 08 9e 70 be d5 26 b0 be d1 c6 ac bd ba 0a b7 bd
       -0.23497784 -0.34404626 -0.08436359 -0.08937593
0002d0 f7 3f 82 bd bb 0f a1 bc 9d a4 3b bd 70 18 85 bd
       -0.063598566 -0.019660821 -0.045811284 -0.06498802
0002e0 1d b4 f9 bc df 37 02 3d 89 57 22 be 9f fb bb 3d
       -0.030481393 0.031791564 -0.15853705 0.09178852
0002f0 cd 42 7b bc d5 89 41 bd a1 05 20 3e 2d 3a 70 bd
       -0.015335751 -0.047250587 0.15627147 -0.05864923
000300 ae c8 e5 bc 65 af 91 3d 27 9e 94 bd 08 6b 9b bd
       -0.028049793 0.07113532 -0.07256728 -0.07588774
000310 39 60 04 3e c0 d3 bc 3c 82 40 2d bd 3f 51 23 bd
       0.12927331 0.023050189 -0.042297848 -0.039872404
000320 cc 7a f2 bc 43 67 f3 3c 81 80 18 3d f5 65 5a 3d
       -0.02959957 0.029712325 0.037231926 0.05331989
000330 9f 46 82 bd 21 d4 13 3c 63 b0 cf 3d 43 b3 a2 3d
       -0.06361126 0.009022743 0.10141065 0.07944348
000340 b2 98 89 bd f2 7c cb bd a4 0a 96 3a 29 b5 56 bc
       -0.067185774 -0.09935941 0.0011447263 -0.013104715
000350 0b 8e 1a 3d cb 89 0b 3d 5d 9f f9 3d 73 ee ed 3c
       0.03773312 0.034066956 0.12188599 0.029044366
000360 27 14 be 3d 36 03 ca 3d cc 48 6a be 10 7a 09 3c
       0.092811875 0.09863894 -0.22879332 0.008390918
000370 dd 40 3d be 27 7e 42 be 60 97 0e 3e 32 0d 01 bc
       -0.18481775 -0.18993436 0.13924932 -0.007876681
000380 38 43 25 be f4 a8 5c 3b 87 0b 9d ba 6e 03 44 bd
       -0.16138923 0.003367004 -0.0011981585 -0.047854833
000390 f8 1a 46 3c 28 f4 81 3d c5 0e 93 bd 66 9a d8 3d
       0.012091391 0.06345397 -0.071805514 0.10576324
0003a0 78 3b 51 bc ef 2b 34 bc c5 bb d9 bc 7b 13 53 bd
       -0.012770526 -0.010996803 -0.026578793 -0.05153225
0003b0 b7 12 a8 3b 79 ac f7 bc 8b dc 04 bd c5 e5 44 bc
       0.005129184 -0.030233609 -0.03243689 -0.012017672
0003c0 3e 69 8d bd 30 ef ec bc 5f a0 d4 3d 42 eb 75 bc
       -0.06904839 -0.028922647 0.10382151 -0.015009703
0003d0 18 99 83 3d 85 16 08 3c f4 c4 a0 3d 2e 37 99 3d
       0.06425685 0.00830615 0.07850066 0.07481228
0003e0 a8 c5 00 3e 64 f3 22 bd c9 62 36 3d 80 1e c5 3d
       0.125754 -0.039782897 0.044527803 0.09624958
0003f0 f6 22 97 bd 1b ca ce bc 81 31 9e 3c 09 01 a1 bd
       -0.07379715 -0.025242856 0.019310715 -0.078615256

bias f4 [64]
000000 a7 c4 6c bc 62 9d 1a be c4 54 40 3c 54 22 5a bd
       -0.014451182 -0.150991 0.01173896 -0.053255394
000010 76 24 ce bc aa 67 fd b9 f1 24 86 3b 59 e3 db 3d
       -0.02516387 -0.00048333156 0.004093759 0.107367225
000020 63 62 bc 3d 86 7a 3c bd 70 85 c8 3d de 90 36 bd
       0.09198453 -0.046015285 0.09791076 -0.04457175
000030 46 db 05 3c 09 b7 d4 ba 2c a0 33 bc f9 ab 10 3c
       0.008169955 -0.0016228865 -0.010963481 0.008830064
000040 1b 24 6d bc 75 d9 9c 3b b7 65 20 bc 5f 0f 39 bd
       -0.01447394 0.004786665 -0.009789876 -0.045180675
000050 db 3b a7 bc df 40 04 3b 05 0a 77 3d c3 f4 1a 3d
       -0.020414283 0.0020180268 0.06031229 0.03783108
000060 13 f6 90 3a ff 33 a2 3d ef 35 66 3d c7 9f 2d bc
       0.0011059664 0.07920074 0.05620378 -0.010597176
000070 a2 23 c9 3d d4 0c b2 bc cf eb ad bb ae 56 23 3d
       0.098212495 -0.021734633 -0.0053076516 0.039877586
000080 78 4a 4e bd 6a ad 57 3d 56 06 a2 3c 26 49 7a bd
       -0.050363988 0.052655615 0.019778412 -0.061104916
000090 92 f2 e8 3c f1 9e 2f 3c d1 6f 08 3c e6 a1 6b bd
       0.028435979 0.010719047 0.00832744 -0.057527445
0000a0 f6 49 9b 3b 3f 61 ee bc 60 7c 29 3e 32 49 bb bb
       0.0047390414 -0.029099105 0.16551352 -0.0057155127
0000b0 0a 94 94 3b d0 48 19 3d fe 89 c7 3b 24 68 d2 bc
       0.004534249 0.037422955 0.006089448 -0.025684424
0000c0 82 27 31 3a 74 62 01 bd 9e 4d 2b 39 86 a2 84 bb
       0.0006757901 -0.031588033 0.00016336745 -0.0040476946
0000d0 05 86 7e 3d 54 07 a5 bd 83 fa f7 3c 66 93 12 bc
       0.06213953 -0.08058038 0.03027082 -0.008946275
0000e0 74 38 16 3c e5 fc 2f bd 4f b1 6a 3d fa 76 85 3d
       0.009168733 -0.04296579 0.057298 0.065168336
0000f0 cc 3c 12 3a 98 02 4b 3d 74 ce 39 bc ef ec 82 be
       0.00055785174 0.04956302 -0.011340726 -0.2557139

weight f4 [64, 64, 3, 3]
000000 c7 17 36 3d 9f d8 4c 3d d6 f1 f4 bc 7d 9b cc bd
       0.04445627 0.050011273 -0.029900473 -0.099905945
000010 2c a2 1b be e2 d4 e6 3d c1 4e 48 bb fe 68 d7 bd
       -0.15198582 0.11271073 -0.003056452 -0.105180725
000020 5f c7 23 3c 3c 5b d6 3c 23 08 89 3b 0b a8 52 3c
       0.009996264 0.02616655 0.004181878 0.012857447
000030 2e 45 c9 bb ec 94 ad bc 2e 31 8a bd a4 cf 4e 3d
       -0.00614228 -0.021189176 -0.067476615 0.05049099
000040 23 d4 15 bd 7f 36 04 3d db 92 2d 3d a1 d1 b1 3a
       -0.036579262 0.032278534 0.04237638 0.0013566503
000050 f1 72 e3 3d 89 a6 f1 bb 17 f7 3a 3d 09 e0 a5 bd
       0.11105908 -0.007374589 0.0456458 -0.08099372
000060 ce 25 83 bd 0b d3 9d bd 34 09 fe bc e0 6c 9e 3d
       -0.06403695 -0.07706269 -0.031010248 0.0773561
000070 d5 4f 27 3b 9f 81 fc 3c 50 23 5c bc d8 93 f5 bc
       0.0025529761 0.030823527 -0.0134361535 -0.029977724
000080 a2 ee 2f 3d ac ff 9c bd 01 23 cb bc e7 58 4a bd
       0.042952187 -0.07665953 -0.024796965 -0.04940119
000090 98 f6 14 3d 0e 68 08 3d 75 3c 1e 3b 96 3c 5e bd
       0.036367983 0.03330236 0.0024144922 -0.054256998
0000a0 12 29 44 bd 5e 87 c9 bc d8 fb 91 bb 4d f8 2f bc
       -0.04789073 -0.02460068 -0.004455071 -0.010740352
0000b0 2c 64 8c bc 9b b3 da bd 76 b7 85 3d c8 be 43 3d
       -0.01713761 -0.10678788 0.06529133 0.047789365
0000c0 19 d1 da 3d 3b 84 ce bc f9 82 74 3d 13 39 8d bd
       0.106844135 -0.025209537 0.059695218 -0.06895652
0000d0 95 d7 15 bd d0 6a 27 3d 20 a8 9d bd 67 25 14 3c
       -0.03658255 0.04087335 -0.07698083 0.009042121
0000e0 b8 32 9e 3c 0b ce 1b 3c 55 bd a7 3c 56 73 91 bc
       0.019311294 0.009509574 0.020476023 -0.017755192
0000f0 11 72 b4 3c 86 8d 52 bd e9 f2 d7 3b be d9 35 3d
       0.022027047 -0.0514045 0.0065902364 0.04439711
000100 1a 65 20 bd 74 fb 1d bd d8 95 11 bc 2d 9c ee bc
       -0.039158918 -0.038569883 -0.008885823 -0.029127205
000110 de 8b 80 3d 03 cc e8 3c f7 c1 a6 bd 16 43 1d be
       0.062766775 0.028417593 -0.081424646 -0.15357623
000120 da f6 94 bd f9 ad 1f bc 84 5c 31 3d 4d 1e 94 3c
       -0.07273646 -0.009746068 0.04330112 0.018080855
000130 61 8e 61 bd c9 dd 5c 3d b6 a5 f7 b9 55 d9 59 bd
       -0.055067424 0.05392245 -0.00047234976 -0.05318578
000140 8a fc 0b bc 26 69 a3 bd 81 70 5a bd 85 70 c5 bd
       -0.008544097 -0.0797904 -0.05332995 -0.09640602
000150 1b cb 22 3e 6c bc 7a bc 9c 7b c6 bb 79 3c 4f 3d
       0.15897791 -0.015303712 -0.006057216 0.05059478
000160 52 05 a8 3d 38 6a c4 bc 17 82 95 bc a3 9b 10 be
       0.0820414 -0.02397643 -0.018250508 -0.1412187
000170 c2 b4 10 bd 40 a6 0f 3d af f8 ff 3d d1 20 34 3d
       -0.035328634 0.035070658 0.124986045 0.04397661
000180 61 8d ec bc 5b c7 4c bd 2e 2d 6f 3b 01 1b 0c 3d
       -0.028876008 -0.049994808 0.0036495435 0.03420544
000190 65 38 8a bd 17 00 21 3d cf 41 af 3d 04 ac 94 3c
       -0.06749038 0.039306726 0.08557474 0.01814843
0001a0 97 db 0f 3c 08 31 80 bc d1 ca 6a 3d ec cb 0d bd
       0.008780382 -0.01564838 0.057322327 -0.034618303
0001b0 d1 66 5b bd 07 ae 04 3b 0a 56 1f bd ec ba 9e bd
       -0.05356485 0.002024533 -0.038900413 -0.07750496
0001c0 6b a2 5e bd 07 0e b8 bc 1e 01 e2 bc 23 88 f5 bd
       -0.054354113 -0.022467626 -0.027588423 -0.11988857
0001d0 c2 8e c6 bd 8d 3f 5d bd 52 37 0d 3d 17 82 66 3d
       -0.09695198 -0.054015685 0.034476586 0.056276407
0001e0 4e 12 9c bd c2 de ed bd 1f 0d 10 bd 25 49 a9 3c
       -0.07620679 -0.11614753 -0.035168763 0.02066476
0001f0 22 17 2b bc 5d b9 5c bd 3c 7f 26 3d e0 ef ca bc
       -0.010442527 -0.053887714 0.040648684 -0.024772584
000200 cf 63 ac ba 46 b2 fe bd a9 31 4b 3b 1b ec 9d 3c
       -0.0013152304 -0.12436347 0.0031004942 0.019277623
000210 ef 03 aa bd 7c ac 87 3c 36 be bb 3d ba f4 03 bc
       -0.083015315 0.01656174 0.09167139 -0.008053953
000220 3e 65 d3 bd 36 5a 79 bd 47 c5 65 3a 24 66 a6 bd
       -0.10322045 -0.060877047 0.00087650534 -0.081249505
000230 0e 09 e7 bc ff a3 d5 bc ee c1 c9 bd 5a d8 a8 3d
       -0.02820256 -0.026079176 -0.09851442 0.08244391
000240 e4 e9 67 3c 99 6e d0 bd 7f d5 79 bc e0 57 47 bd
       0.014154885 -0.10177345 -0.015248655 -0.04866779
000250 84 c4 c3 bb db 1e 89 bd be f4 ff bc 11 79 40 bc
       -0.005974354 -0.06695338 -0.031244632 -0.0117476145
000260 23 60 a1 3c e3 69 d0 bc 5c f0 92 bc 4d 38 85 3d
       0.019699162 -0.025441116 -0.017936878 0.06504879
000270 ff 58 ed 3c 5d 94 d9 bb b7 58 2f bd 4f 22 97 3d
       0.0289731 -0.0066400007 -0.042809214 0.07379591
000280 4f 60 4a 3c 13 7f 1f bd 98 11 b5 bb 94 fc 11 bd
       0.012352063 -0.038939547 -0.005525779 -0.035641268
000290 bf d5 fa bd e5 7e c4 3a 92 71 11 bc ef 2f 57 bd
       -0.122478 0.0014991431 -0.008877175 -0.052535947
0002a0 7c 35 46 3d 3a 35 bd 3a d3 63 99 3b 1d 9a 68 3d
       0.04839085 0.0014435418 0.0046810894 0.0567876
0002b0 af ab 0c bb a6 bc c5 3b 0e 62 28 3d 3e 5c 89 3d
       -0.0021464636 0.0060344515 0.041109137 0.06707047
0002c0 31 a1 e4 ba ad e5 01 3d 7d c4 f4 bd 08 38 c2 bc
       -0.0017443058 0.031713177 -0.1195154 -0.023708358
0002d0 d8 17 13 3d f7 c3 9d 3d 45 99 1d bd 46 8e 80 3d
       0.03591141 0.07703393 -0.038476247 0.062771365
0002e0 5e 6e b7 bd 16 e4 cd 3c 50 bc d4 3d 0b 19 94 3b
       -0.08956598 0.025133174 0.1038748 0.004519587
0002f0 79 ef 77 bd a1 f5 9c 3c c3 45 29 3c 70 a1 ae 3c
       -0.060531113 0.019160094 0.010331574 0.021317214
000300 0d 1a 36 3d b8 59 dd 3c b2 a5 87 b9 16 58 be 3d
       0.044458438 0.02702032 -0.0002587266 0.09294145
000310 86 d5 92 bd 23 7e 44 3b 52 45 b1 ba 99 ae e0 bc
       -0.071696326 0.002998241 -0.0013524687 -0.027427005
000320 a5 b7 8d bd 34 6b cb bc f5 b8 e3 bc ab 88 10 bc
       -0.06919793 -0.024831392 -0.027798155 -0.008821647
000330 7e 35 fb bc 4e 5f 56 3b 60 4f 22 3d 2e 53 80 bd
       -0.030665156 0.0032710615 0.03962648 -0.06265865
000340 76 bc 99 3d 64 32 bc 3d e7 97 20 3c cb 95 fd bb
       0.07506649 0.09189299 0.009801841 -0.007738804
000350 20 b8 5b 3d c5 84 89 bd 6d 39 8d bd 42 68 e8 bc
       0.053642392 -0.06714777 -0.06895719 -0.028370026
000360 c7 2d b9 bc be 7b 9a bd 63 4c a6 3c 1d ca 48 3b
       -0.022604836 -0.07543133 0.020300096 0.0030638047
000370 fb fd 5a bd 01 51 bd bd fe 82 27 bd 02 44 df bc
       -0.05346487 -0.09243966 -0.04089641 -0.027254108
000380 69 7a 08 bd 42 75 9c bd df e4 d4 3d e6 6d 3f bd
       -0.033319864 -0.07639553 0.10395216 -0.046735667
000390 dd d5 60 3b 80 7f 88 3d 2e ec 5f bd 59 b1 28 bd
       0.003430716 0.06664944 -0.054668598 -0.041184757
0003a0 27 19 07 bd 5d be 2a bd 2f 2e 8d 3c 56 7d 5a bd
       -0.03298297 -0.04168545 0.017233936 -0.053342186
0003b0 7d 9b c5 bb 4e 67 5d 3c e6 a7 bd bc 43 07 1e bd
       -0.0060304985 0.013513399 -0.02315135 -0.038581144
0003c0 c8 8a 27 bc dc e1 de bc a1 7f a8 bb 67 2a 1b 3b
       -0.010225959 -0.027207308 -0.0051421677 0.0023676397
0003d0 37 fb ca bd 53 34 8f bd a8 d3 b9 bd e9 55 60 be
       -0.09911197 -0.06992402 -0.09073573 -0.21907772
0003e0 61 a6 d5 bd 64 14 9e 3c 92 01 13 be 6c c5 39 be
       -0.10432125 0.019296832 -0.14356068 -0.18141717
0003f0 60 31 ed bc a0 06 33 3d f3 81 f7 bd 1c 2d 35 bd
       -0.028954208 0.04370749 -0.12085333 -0.044232473

bias f4 [64]
000000 ae 64 58 3b e5 7c b0 3d 15 0e a1 bd 49 22 65 bc
       0.0033018994 0.08617572 -0.07864014 -0.013985225
000010 6b 54 cb 3d b7 71 61 3e 30 3c 94 3a 63 23 66 bc
       0.09928211 0.22016035 0.0011309441 -0.014046523
000020 cc 8a 99 3d 2e b2 14 bd dc 56 e7 3b a1 f6 74 bc
       0.074971765 -0.036302738 0.007059915 -0.014951379
000030 eb 7a 81 bd 29 66 7b bd 49 e2 6c bc ff d3 5d be
       -0.06322273 -0.061376724 -0.014458247 -0.21662901
000040 4f 8c a2 bc 2d e9 d8 ba 5a fa b2 3c f5 2e 1e bd
       -0.019842295 -0.0016548984 0.021847893 -0.038619
000050 52 67 40 3d 71 05 9b bd 80 4f 77 3e c7 5d 5f bc
       0.046973534 -0.07569397 0.2415142 -0.013633198
000060 93 ad 72 bc 83 2d 2f 3d 22 e6 87 bd 4f a0 4f 3d
       -0.014811891 0.042768013 -0.06635691 0.05068999
000070 b0 a1 82 bd a7 ad 9e bc 83 e7 bc bc 34 9a d1 3b
       -0.06378496 -0.019369913 -0.023059612 0.0063965563
000080 0a bf 4f bc 7f aa d5 bc 67 b6 6e 3d 29 41 13 bb
       -0.012679825 -0.026082275 0.05827942 -0.0022469258
000090 7d cd e6 bc b8 02 f6 bc 75 86 11 3d 5a 25 8f 3d
       -0.028174156 -0.030030593 0.03552862 0.06989546
0000a0 47 70 53 bd 7d 86 93 bc 14 56 18 3e 6c eb 8c 3d
       -0.051620748 -0.018008465 0.14876586 0.06880841
0000b0 e1 c5 87 bb d0 8c ea bc 13 c1 48 bd b1 43 85 3d
       -0.004143462 -0.028631598 -0.049012255 0.06507052
0000c0 2e 28 79 3c 2c d2 d4 3d f8 2f 73 3d 5d 27 71 bd
       0.0152073335 0.103916496 0.05937192 -0.05887543
0000d0 6c 24 f8 3c 8f 71 1b 3d 08 0e 92 3c 20 11 fe bc
       0.030290805 0.037950095 0.017828956 -0.031014025
0000e0 b5 66 c3 bd 57 0d 1f bd c5 8d cc bc 47 0a 69 3d
       -0.09541074 -0.03883108 -0.024969945 0.056894567
0000f0 3d 16 a1 bd d7 ac a7 bc ff 0f 4a bd 00 e2 1a 3d
       -0.0786557 -0.020468159 -0.04933166 0.037813187

weight f4 [64, 64, 3, 3]
000000 08 74 b7 bc 6b 9e 0a 3c 86 66 50 bd 90 f0 7e 3d
       -0.022394195 0.008460621 -0.050879024 0.062241137
000010 57 24 b8 bd f4 54 7a bd ee d0 e9 bd b9 de b5 3c
       -0.08991306 -0.061116174 -0.11416803 0.022200929
000020 24 f9 c9 3c e1 90 3f 3d eb 66 99 bc e8 43 1d 3d
       0.024654932 0.046769027 -0.018725833 0.03839484
000030 db 64 cc bb 36 cf 6d bc ed f7 39 bd 53 a6 a4 bc
       -0.006237609 -0.014514735 -0.045402456 -0.02009884
000040 d8 1b 3b 3d 98 63 d3 bd 51 e5 db bd 46 c6 0e 3c
       0.04568085 -0.103217304 -0.10737098 0.008714264
000050 25 64 9d 3d 1d 80 b8 bc b2 54 8f bc 3a 53 15 ba
       0.07685117 -0.022522027 -0.01749644 -0.00056963007
000060 80 40 ed bc 9c ec a2 3c 9c 15 71 bd 9b 85 0e 3c
       -0.02896142 0.019888215 -0.0588585 0.008698846
000070 c4 a4 41 bd 8a 5c 90 3c 32 58 74 bd ac 00 a2 bc
       -0.047276273 0.017622251 -0.059654422 -0.019775711
000080 14 04 60 3d 3c 87 74 3d c3 0e 83 bd 17 83 19 bd
       0.05469139 0.059699282 -0.063993 -0.037478533
000090 5c 9f 21 3c 61 f5 c2 3c 38 59 2c 3d 8a 4e 7b bb
       0.009864654 0.023798646 0.042077273 -0.0038346373
0000a0 68 75 19 3d 5b 50 60 ba d1 83 da 3c a7 81 22 3d
       0.037465483 -0.0008556896 0.026674183 0.039674427
0000b0 59 4a 19 3c 1c 80 15 3d 77 25 bd 3c 12 4d 45 bd
       0.009356105 0.036499128 0.023089154 -0.048169203
0000c0 9f 64 fe bb 00 3e ae 3a a4 1c a7 bb 79 41 86 bd
       -0.00776346 0.0013293624 -0.00509985 -0.06555457
0000d0 3c 84 1e bd 54 b3 ca bd 2f 1e eb bc 67 ea fa 3c
       -0.038700327 -0.098974854 -0.028700916 0.03062935
0000e0 f2 76 ea bc 65 e7 db bd 08 68 83 bd 97 37 c0 3d
       -0.02862117 -0.107374944 -0.06416327 0.09385603
0000f0 44 98 88 3d 40 a2 a3 bb c9 bb 02 bd d4 f5 98 3c
       0.06669667 -0.004993707 -0.031917367 0.018671907
000100 cb 68 ad bd 14 2e 7a 3d 31 b5 08 3d 30 32 0d 3c
       -0.08467253 0.0610791 0.033375923 0.008617923
000110 4e ba 98 bc 8f 18 f8 bc 8e bb bf bb 08 10 85 bd
       -0.018643524 -0.030285148 -0.0058512157 -0.06497198
000120 43 3b 17 bd 7e 79 00 be a9 7d 30 be fc 5f 0b be
       -0.03692175 -0.12546346 -0.17235436 -0.13610834
000130 81 c1 2e bd f0 f9 fe bd 95 fa 5b bd bf 92 83 bb
       -0.04266501 -0.124500155 -0.05370577 -0.004015296
000140 90 e3 16 bc 86 83 58 3d 4d 8c 21 3d fc f6 df bc
       -0.009209529 0.052859806 0.039440442 -0.027339451
000150 5c 94 9b bc 29 8c d5 bc 35 61 6c bc 82 5b 9f bd
       -0.018991642 -0.02606781 -0.014427473 -0.077811256
000160 29 78 6b 3d 30 0b 88 bd 62 2d 02 3d 5e 3a 2a bc
       0.05748764 -0.06642759 0.03178156 -0.010389892
000170 3d be 81 bd 54 e1 40 3d b0 98 1d be 69 b8 ad bd
       -0.06335113 0.04708989 -0.15390277 -0.08482439
000180 d9 a6 8f bd b9 6e d6 3c d0 d1 ff 3b fe d8 06 3c
       -0.070142455 0.026175844 0.007806994 0.008230446
000190 a6 31 fd 38 1a 6b da bd c3 12 ed bc 46 0e f8 3a
       0.00012073228 -0.10664959 -0.02893961 0.0018925152
0001a0 b7 df 69 bd d0 32 70 bb fc 72 a7 3c 19 9c 77 bc
       -0.057098117 -0.003665138 0.020440571 -0.0151129
0001b0 cc ad 5d bd c5 d5 33 bc 5b 22 9d 3d f5 7e 79 bd
       -0.054120824 -0.01097626 0.076725684 -0.06091209
0001c0 d3 43 a1 bd 24 dc 1c bd bb 6f 47 3c 78 64 8c bc
       -0.078742646 -0.03829588 0.012172635 -0.017137751
0001d0 e7 06 c9 ba 42 49 d0 ba 95 c0 85 3d a1 d3 9d bc
       -0.001533714 -0.0015890973 0.06530873 -0.019265952
0001e0 4b 2f 47 bd c4 b6 68 3d 42 11 d1 bc 3f 83 a5 3c
       -0.048629086 0.056814924 -0.025520924 0.020204185
0001f0 2f 86 8c bb 1a 12 03 bd b9 8d d1 bd 8a de 33 bc
       -0.004288457 -0.031999685 -0.102321096 -0.01097835
000200 ab e6 94 3d dc d5 79 3d cf ba b5 bd c1 95 11 3d
       0.07270559 0.060994968 -0.088735215 0.035543207
000210 a1 eb 80 bd 65 41 4b bd ce 79 4a bd 7d 9d 19 bd
       -0.06294943 -0.049622912 -0.04943257 -0.03750371
000220 6a af 6f 3d 7b fe 8c 3d 6b 9f ca 3b 4a 5b 9f 3c
       0.058516897 0.06884476 0.006183555 0.01945271
000230 ec e9 a3 bc e7 5a 97 bd 75 21 14 3e fe 1a 0b be
       -0.020009004 -0.07390385 0.14465888 -0.13584515
000240 da 25 62 3d 76 17 b0 bd 23 d9 8a 3d 49 2a f2 3c
       0.05521188 -0.08598225 0.06779697 0.029561179
000250 89 3b 37 bd cb 91 5d bc 23 39 34 bd 19 d6 ad bc
       -0.04473451 -0.013523529 -0.043999802 -0.021220254
000260 1a 19 bd bc 9f f2 e6 bc c7 4d a3 bd d6 cf 98 bd
       -0.023083258 -0.028191863 -0.07973819 -0.074615166
000270 96 02 ed bd d5 b6 90 bd fb d5 c3 3c a5 2e 84 3d
       -0.11572759 -0.070661224 0.023905745 0.06454209
000280 65 ac da 3d 5d aa 4c 3c 73 10 99 bc f4 08 36 3d
       0.10677413 0.01249179 -0.018684601 0.044442132
000290 0d c5 84 bd 3a 01 d4 3d 2e 36 b8 3c 6e d7 32 3d
       -0.06482897 0.103517964 0.022486772 0.04366248
0002a0 1f 21 02 3e 46 84 e1 39 a8 cd 8d 3d 50 a6 0c bd
       0.12707947 0.00043013896 0.069239914 -0.034338295
0002b0 27 6b 2f 3d 8f 67 3c be 5d f9 27 bd f4 7c c4 bd
       0.042826798 -0.1839888 -0.041009296 -0.095941454
0002c0 95 c5 96 3c ac ac a9 3d ef 89 7b bc 77 27 dd 3c
       0.018404761 0.08284888 -0.01535271 0.026996357
0002d0 ad f0 2a bd ad a3 88 bc c1 46 7b bc 89 68 09 bd
       -0.041733433 -0.01667961 -0.015336693 -0.033546958
0002e0 4b a6 92 3c cc 91 45 bd c9 e7 d7 3d a9 ab 0c bd
       0.01790156 -0.048234746 0.105422564 -0.034343395
0002f0 a1 4b 45 3d 0b dc 55 3d 4c 77 94 bc 35 47 32 bd
       0.04816783 0.052211802 -0.018123291 -0.04352494
000300 ff 6c 2e bd 50 2c 3a 3c c2 3a c3 3d 04 59 7d bd
       -0.042584416 0.011363104 0.095326915 -0.06185247
000310 63 4a 8c 3d bb 01 09 3e 26 ef d1 3c 55 89 a2 3c
       0.06850126 0.13379566 0.02562673 0.019840876
000320 b7 a2 00 3d 00 c5 1f bd b6 96 fb bc c6 9a 74 bd
       0.031405177 -0.039006233 -0.030711513 -0.059717916
000330 32 4c 91 3d 86 76 1a 3d 29 00 ae 3c 34 93 d7 bd
       0.07094611 0.03771069 0.02124031 -0.10526124
000340 e7 85 3e 3d de 92 13 be b9 fb 11 3e fb 14 90 bc
       0.046514418 -0.14411494 0.14256181 -0.01758813
000350 c5 54 a1 bc 48 7e ba 3d 08 51 14 3e 9e db 22 3d
       -0.019693742 0.091061175 0.14484036 0.039760225
000360 1d f4 fb 3b 62 d5 2c ba aa 72 74 bd e3 a1 3b 3d
       0.0076890127 -0.0006593076 -0.059679665 0.045808684
000370 5c 2e 2f bd 8e ca 2f bd e3 d9 04 3d ef b9 01 3d
       -0.04276882 -0.04291778 0.032434355 0.03167146
000380 a2 73 91 bd 07 c9 3b bd df 76 b6 bd 07 6d 74 3d
       -0.07102133 -0.04584601 -0.089093916 0.05967429
000390 ea 46 d8 bb 9d 51 d5 bc 42 cd 62 bc 2c e1 7c 3d
       -0.0066002505 -0.026039893 -0.013842883 0.061738178
0003a0 3b 46 a2 3d a5 22 2d bd c6 0f f3 bc fe f2 f9 3c
       0.07923552 -0.042269368 -0.029670607 0.030511376
0003b0 2a 0f 35 bd df 6e 03 bd 74 c5 2d bd 78 23 9b 3c
       -0.044203915 -0.032088157 -0.042424634 0.018937811
0003c0 fa 7e b7 3c a4 c6 45 bd b9 3c 88 3d 3a c6 ff bc
       0.022399414 -0.04828514 0.06652207 -0.031222451
0003d0 99 7c bd 3c 6c 91 ab bc 47 62 ce bc 12 a2 30 bc
       0.023130702 -0.020943366 -0.025193347 -0.010780828
0003e0 ae e2 3a bd f0 97 5c 3d ff ae 20 be 6e d1 8b bd
       -0.045626335 0.053855836 -0.15691756 -0.06827055
0003f0 ef fa 1d 3d 76 b2 20 bd 38 9d 0a bd 71 1e a7 bd
       0.038569387 -0.039232694 -0.03384134 -0.08160103

bias f4 [64]
000000 7b 7a 1a bd f8 9f de 3c 2b fc 2c bc 61 13 40 bd
       -0.037714463 0.027175888 -0.010558168 -0.04689348
000010 91 29 5a bd cf 4d 6e bd 4d 01 7d 3c fc 18 90 3b
       -0.053262297 -0.058179673 0.015442205 0.0043975096
000020 2e c2 ad bb 39 94 e8 bc e9 28 4c bc 1c 56 95 bb
       -0.005302689 -0.02839099 -0.012460926 -0.004557384
000030 d4 d1 89 3c 50 f9 0b bd 72 d6 0e bd b6 cb 71 3d
       0.016823687 -0.03417331 -0.03487248 0.059032165
000040 e5 14 aa bd f6 d5 19 3d 97 40 9a ba a0 89 d2 bb
       -0.083047666 0.037557565 -0.0011768517 -0.0064250976
000050 83 75 49 3c e3 16 56 bc 7f ba c4 bc 0f 73 0e bd
       0.012296083 -0.01306698 -0.02401471 -0.034777697
000060 fc 3f 8c 3b 92 d1 48 3d 02 79 af bd 6b e7 76 3c
       0.0042800885 0.049027987 -0.08568002 0.015069823
000070 08 a8 5c bd 0b 1f 32 bd ab 5e d3 bc 5d 83 8a 3d
       -0.053871185 -0.043486636 -0.025801977 0.06763337
000080 89 d6 b8 3d 69 58 81 bc e0 78 17 bd 84 cb 4b bd
       0.09025294 -0.015789228 -0.03698051 -0.049754634
000090 88 ad 70 bd 21 b6 55 3c 30 96 a8 bb ae af 98 bc
       -0.058759242 0.013043911 -0.005144857 -0.018638458
0000a0 3c fa 98 3a ea 53 8b 3d 0e ad 08 bd 53 d0 e0 bb
       0.0011671255 0.06803115 -0.033368163 -0.0068607717
0000b0 a1 2a 7c bc e5 8c c3 3c 42 b6 7b bd 2a cc a0 bc
       -0.015391023 0.023870895 -0.06145311 -0.019628603
0000c0 28 5c 65 bd 35 0b 0d 3d 41 fc 88 bd a6 f9 ff 3b
       -0.05599609 0.034434516 -0.066887386 0.007811743
0000d0 48 1c 8f 3c 76 bd 6c bd f2 0b 5a bc df 57 25 bd
       0.01746954 -0.05779787 -0.013308512 -0.040367004
0000e0 eb ec ca bc 5f 27 fe bc 8a 52 91 bd ee 50 84 bd
       -0.024771174 -0.031024633 -0.07095821 -0.064607486
0000f0 b3 33 38 bd 72 6e 01 bd e1 dd 4f bd d2 91 e2 3b
       -0.04497118 -0.03159947 -0.05074871 0.006914356

weight f4 [12, 64, 3, 3]
000000 27 c2 4b 3d 2c 60 5d 3c f6 7f 78 bc 22 ab 13 3d
       0.049745705 0.013511699 -0.015167227 0.036051877
000010 98 3d 8e 3c 54 b9 52 3c 88 7c 8f 3d 4d 52 63 bd
       0.017363355 0.0128615685 0.07006174 -0.05549841
000020 3a c0 7d 3d 6f 52 01 bd c1 c2 bf 3d ff 04 3d bc
       0.0619509 -0.031572755 0.09363318 -0.011536836
000030 c8 32 59 bd 86 ed c2 bc 69 09 ed 3c 9b 45 e4 3c
       -0.053026944 -0.0237949 0.028935151 0.027865222
000040 00 a1 a6 bc 34 f3 95 bc de 7e 69 3c c8 03 4b bc
       -0.020340443 -0.018304445 0.014251439 -0.012391038
000050 3e e7 65 bb c6 63 4c bc e9 52 ac 3d f2 2a 4c bd
       -0.0035080458 -0.01247496 0.08414251 -0.049845643
000060 9b 4e 6c 3b 5c 91 30 bc 0d c2 a3 3b 26 0d f8 3d
       0.0036057595 -0.010776844 0.004997498 0.12111883
000070 da 2c c6 bd fd e9 1b 3d c4 44 61 bd e6 33 85 3d
       -0.096765235 0.038064945 -0.05499722 0.065040395
000080 c4 80 5b 3e 03 60 eb bc 8a f0 06 bd ba db c7 bd
       0.21435839 -0.028732305 -0.03294424 -0.097587064
000090 64 3b a7 3d 12 b3 91 3d 50 7e f8 bc 17 88 4a 3d
       0.08165625 0.07114233 -0.030333668 0.04944619
0000a0 97 77 7a bd 9b 57 be bd 5c 3d c6 3c 87 f0 5d bc
       -0.061149206 -0.09294053 0.02419918 -0.013546116
0000b0 9a f9 7b bd 2e cb 77 3c 7c bc b2 bc f8 f4 d9 39
       -0.061517335 0.015124125 -0.021818392 0.0004157198
0000c0 79 37 c7 bb f0 e2 aa 3d cd 35 22 bc 70 5f 8a bc
       -0.006079611 0.08344066 -0.009900522 -0.016891211
0000d0 25 9b 07 bd 6a 7c 10 3c 27 36 95 bb 57 13 15 3c
       -0.03310694 0.008818725 -0.0045535746 0.009098849
0000e0 bb 6a 07 3d d7 57 bc bb 45 8c 0e be e1 dc 55 bd
       0.03306077 -0.005747776 -0.13920696 -0.0522126
0000f0 16 02 1a 3d bd d6 15 be 7e 31 8b bd c3 06 74 bb
       0.037599646 -0.14632697 -0.06796549 -0.0037235476
000100 e6 3c 20 3e 53 22 41 3d f1 cc af 3c 0d 58 f0 bc
       0.15648231 0.047151875 0.021460028 -0.02933886
000110 36 56 11 3d 04 ab b2 bd d2 5e b6 bd 1d 26 ad bd
       0.035482608 -0.08724025 -0.08904804 -0.08454535
000120 07 fc 63 bd 2a e2 66 bd 28 d3 2b bd 83 98 86 3d
       -0.055660274 -0.05636803 -0.04194942 0.06572058
000130 44 2b 43 3c 51 15 02 bd 82 57 ee 3d ef 95 cc bc
       0.011912171 -0.03175861 0.116377845 -0.024973838
000140 bc 1e 0e 3d de 04 6d 3c fc da 56 bd 3c 0e 18 bd
       0.03469728 0.014466492 -0.052454934 -0.03712295
000150 8c 44 85 3b 4e e9 4e 3d b0 cc 86 bd 26 31 6d 3d
       0.0040670093 0.050515465 -0.0658201 0.0579082
000160 14 92 74 3d cc 80 2b 3d c0 89 db 3d 11 63 3d bc
       0.059709623 0.041870877 0.10719633 -0.011559264
000170 79 ff d4 bd 02 4d 08 bc 85 d7 7d bd 08 57 83 3c
       -0.1040029 -0.008319141 -0.061973114 0.01603271
000180 3c c3 50 3d 25 02 97 3c 97 e1 08 bd 34 81 e4 3c
       0.05096744 0.01843364 -0.033418264 0.02789364
000190 70 0b e2 bc 3e 10 1f bd a3 47 32 3d e7 2c a8 bd
       -0.027593344 -0.03883385 0.04352535 -0.082116894
0001a0 49 67 00 3e 02 0e 9b bc b8 28 4e bb 8e 0c ce bc
       0.125394 -0.018927578 -0.0031457376 -0.02515247
0001b0 fc e7 d6 38 f5 43 52 bd da ad 3b bd df 87 86 3c
       0.00010247526 -0.05133434 -0.045820095 0.01642221
0001c0 68 6a 4b 3c 95 00 33 3d 58 c6 a1 3b 1d 79 60 3d
       0.012415506 0.043701727 0.0049369745 0.054803003
0001d0 03 4c 23 bd af 03 f6 3c b7 12 06 bb bc 5d 4d bb
       -0.039867412 0.030031053 -0.0020457932 -0.0031336388
0001e0 9f 96 de 3c 22 3a 85 3d e0 5b 12 bd c7 9e 79 3c
       0.027171431 0.065052286 -0.03573215 0.015235609
0001f0 24 83 ef bb f3 72 89 bd 24 f4 cf bd 3a 10 cc 3c
       -0.0073093344 -0.06711378 -0.10153988 0.024910081
000200 af 97 2e 3d 99 f2 39 bd 2b 90 c3 bc 19 64 00 3e
       0.042625125 -0.045397375 -0.023872456 0.12538184
000210 d8 a1 da bb bb a7 0b 3d 12 16 77 3d 6a fb c4 3b
       -0.0066721253 0.034095507 0.060323782 0.006011416
000220 6b 9b 40 bd de 62 ac bc c3 f1 ba 3d a2 5e 50 bc
       -0.047023218 -0.021043237 0.09128144 -0.012717875
000230 96 15 d3 bc cf 88 17 bd dc 21 ff 3b c5 67 50 3c
       -0.025767129 -0.036995705 0.007786019 0.012720053
000240 a6 4d 27 bd ad 5b 10 bd 5b c6 73 bd 1e 46 86 3d
       -0.040845536 -0.03524368 -0.05951534 0.065563425
000250 dd 9f 09 3e 3e cb e3 3c 63 fa d2 bc b4 69 74 3d
       0.13439889 0.027806874 -0.02575416 0.05967112
000260 8a 89 dd bd 60 22 e1 3d 13 16 ed 3d 86 b3 93 bd
       -0.10817249 0.10992885 0.11576476 -0.07211976
000270 1d f0 b5 3d db 04 8b 3d 28 9a bc bd 93 2e 85 3d
       0.088836886 0.067880355 -0.092090905 0.06503024
000280 9e 26 44 3e 41 f4 83 be db c5 ba bd a6 96 c7 3d
       0.19155356 -0.25772288 -0.09119769 0.09745531
000290 3b 55 b3 3c 62 66 90 3c 9b 83 85 3d 55 8c ea bc
       0.021891227 0.017626945 0.065192424 -0.028631369
0002a0 25 d4 3c be 10 cc 65 3d 3a ca 74 3c d7 2c 59 bd
       -0.18440302 0.056102812 0.014940793 -0.05302128
0002b0 da 71 8d bd ed e1 e8 3b 57 78 0a 3d 3a a5 81 3d
       -0.06906481 0.0071070106 0.03380617 0.063303426
0002c0 49 c6 9c bc f1 29 43 3d aa ad 87 3c 30 6e 4a bc
       -0.019137518 0.04764742 0.016562302 -0.012355372
0002d0 51 d2 e9 bc 90 1a 1b 3d 80 fe d9 ba 74 16 d2 3b
       -0.02854267 0.03786713 -0.0016631633 0.006411368
0002e0 e6 0e 50 bd ca b2 98 3c aa 0b d2 3a 2a 23 d6 3c
       -0.05079546 0.01863994 0.0016025205 0.026139814
0002f0 e0 fb 72 ba 1e cf b1 3c 2e 77 d3 bc 73 5d e7 3c
       -0.00092690997 0.021705206 -0.025813665 0.028242802
000300 5e 9a 1a 3c c2 a8 34 bc ee c5 11 bc ea df ab 3c
       0.009436218 -0.011026563 -0.008897288 0.020980794
000310 bf 4a 90 bc a1 8e 2d bb 22 0b 5d bc de 89 c4 bc
       -0.017613767 -0.0026482719 -0.013491424 -0.023991521
000320 14 dc 4a bb e4 c6 43 bc 7f 6e 00 bb 98 f8 5a bc
       -0.003095393 -0.011949275 -0.001959711 -0.013364933
000330 de 01 15 3d 29 eb 24 3d d2 5b e2 b9 c0 62 83 3b
       0.036378734 0.04026333 -0.0004317449 0.0040095747
000340 50 de 05 3b 0e dd ab 3d 19 05 ab bd e2 7d b4 3d
       0.0020426698 0.08391772 -0.08350582 0.08813073
000350 01 f8 98 bd 03 7c 70 bd 1e 72 84 3d 44 5c a3 3c
       -0.07469178 -0.058712017 0.064670786 0.019941457
000360 08 bb 26 bc c9 66 6c 3c af b1 f7 bc bb c8 b3 3d
       -0.010176428 0.014428803 -0.030236093 0.08778521
000370 bf e9 54 3d e4 8a e0 bd fe 90 31 39 d0 87 51 3c
       0.05198073 -0.10963991 0.00016934049 0.012788728
000380 87 88 28 bd 50 cc 03 3c 70 86 76 bd c1 bb e1 bc
       -0.041145828 0.008044317 -0.060186803 -0.027555348
000390 66 02 09 3d 1f a4 2e 3d 56 94 ef 3d 4d 4f 90 bc
       0.033449553 0.042636987 0.11698215 -0.017615939
0003a0 bb fc a3 bc 98 76 07 bd 9e 30 e1 3b fc 5b 00 bd
       -0.020017972 -0.033072084 0.0068722507 -0.031337723
0003b0 5d 1e 69 bd ed 20 c2 bc f6 00 6c bc 14 46 b9 bb
       -0.056913722 -0.02369734 -0.014404526 -0.005654106
0003c0 98 f6 8a bc a6 06 21 3d 01 f5 06 3d f0 81 87 bd
       -0.016963288 0.03931298 0.032948498 -0.066165805
0003d0 27 f5 98 3d d3 b3 72 3a dc c7 0d bd 54 1a eb 3d
       0.07468634 0.0009258363 -0.03461443 0.11479631
0003e0 ee eb e6 3c da 36 5d bd 07 42 e8 bc 38 3d 60 bd
       0.028188672 -0.05400739 -0.028351797 -0.054745883
0003f0 b6 db 0e bd 5d d3 a2 bc 93 ae ab 3b 0f a6 99 3c
       -0.0348775 -0.019876176 0.0052393167 0.01875594

bias f4 [12]
000000 4d 93 85 3b 64 b3 32 3b b4 f2 a1 3a a3 1d b4 39
       0.0040763975 0.002726757 0.0012355656 0.00034354356
000010 45 f8 1c 3b 6b 2a 09 ba cb f0 a7 bb 3b 8c c9 3b
       0.002395169 -0.0005232456 -0.0051251403 0.00615075
000020 b6 00 1f 3c cd e7 31 b9 a4 c4 26 3c c6 f3 4f bc
       0.009704759 -0.00016966388 0.010178719 -0.012692397
