train_weight_sr2/model_epoch_8.pth (torch_old, 667646 bytes, 10 tensors)

weight f4 [12, 3, 13, 13]
0.045918215 -0.103874445 0.0105181895 -0.030200142 -0.049488403 -0.08368758 0.03577503 0.026326893
-0.1841185 0.08477261 -0.03380185 -0.061576657 -0.13129996 0.02291204 -0.12873934 -0.089827664
-0.08437015 0.0842855 0.002696933 0.019323196 -0.14156769 -0.12526053 -0.08111941 -0.038720544
-0.072828464 -0.08248192 -0.073030226 -0.111883715 0.00519141 0.004634208 -0.0489995 -0.09470138
0.01704635 -0.087535195 -0.12407129 0.022686489 0.019338965 -0.072740495 -0.0020401415 -0.016018542
-0.13419603 -0.13460113 -0.06641653 -0.0237145 0.032659803 -0.07923394 -0.2046758 -0.16508332
-0.18807615 -0.017782807 -0.029740965 -0.12778161 -0.074437484 0.08004649 -0.09718162 -0.14012392
-0.15163492 0.042805973 -0.08230339 -0.04920969 -0.10225212 -0.051386718 -0.1068692 -0.083525345
0.010613498 -0.01649571 0.010686751 0.07177889 -0.036444858 -0.07602364 0.025600236 -0.10941179
0.015435328 -0.18775627 -0.05238622 0.019247362 -0.09136753 -0.12849589 0.002853831 0.13187194
-0.08011279 -0.018957607 -0.066074505 0.003561709 -0.019450963 -0.103491545 -0.15346031 -0.023530988
0.1398858 0.0027827374 -0.05416112 -0.024105953 -0.0032562262 0.023264864 0.049157634 -0.14888337
-0.081048094 -0.0060915994 -0.08191064 -0.14728345 -0.1295002 -0.0093249595 -0.122498296 -0.044596728
-0.085891075 0.0072501227 0.012828197 -0.050673664 7.901201e-05 -0.08245356 -0.018580824 0.051902436
-0.1759452 0.015929487 -0.17962755 -0.029526776 -0.056759298 0.08384518 -0.078674264 0.03141757
-0.065253705 -0.2189937 -0.031584468 -0.06847397 -0.15136933 -0.1215515 -0.062198676 -0.022547923
-0.08693544 -0.00851948 -0.08969496 -0.05492962 -0.070785634 0.04285763 -0.08861519 -0.007462049
-0.12704054 -0.03733266 -0.19310999 -0.045056216 -0.031549763 -0.00083672005 -0.018365698 -0.023427187
-0.0004938316 -0.038441066 -0.13977902 -0.056521427 0.058853813 0.027297152 0.00017012059 -0.14976293
-0.03451154 -0.028067183 0.011627418 -0.022290254 -0.085903704 -0.0047993977 -0.08978122 -0.07634037
0.04907418 -0.06513926 -0.14325611 -0.020078884 -0.09343923 -0.004744999 0.009869136 -0.06488832
0.038233332 -0.004416262 -0.0448357 -0.055985633 -0.008598775 -0.024319492 0.045229577 -0.07933645
0.010330457 -0.055131465 -0.017009515 -0.022606794 0.03037916 -0.034185167 0.040230837 -0.11174495
0.089771986 -0.06912368 -0.0029433384 -0.119368434 -0.07932775 -0.13258502 -0.030408243 0.04122216
0.080475 -0.09220834 -0.029189607 -0.07195896 0.10919283 -0.115600765 -0.17082274 -0.111985706
0.022629274 -0.06938633 -0.033901513 -0.050553065 -0.02360362 -0.017147042 0.015237657 -0.0013564876
0.014819442 0.018567538 0.025227875 0.056709304 -0.043430366 -0.083210275 -0.068740375 -0.03665377
-0.061679002 0.05666294 -0.10610945 -0.16996486 0.052787587 0.112018414 -0.04291906 -0.118607506
-0.0774947 -0.057606302 -0.023366373 -0.15987155 0.039060555 -0.0060403426 0.10223212 -0.12627181
0.036565743 0.058984444 -0.089137405 0.06977068 -0.046135403 0.06331543 -0.075810544 -0.018899433
-0.033826936 -0.006220046 -0.03614273 0.14782684 0.01609867 -0.082004935 -0.04522032 -0.07810654
-0.08523907 -0.0674348 0.07614375 0.028414957 0.014266404 -0.09258306 -0.035368387 0.06598391
00000000: bd14 3c3d 20bc d4bd 7c54 2c3c 4a66 f7bc
00000010: 5ab4 4abd 6564 abbd d688 123d 7fab d73c
00000020: 8f89 3cbe 439d ad3d cf73 0abd ce37 7cbd
00000030: 7f73 06be 08b2 bb3c 3fd4 03be 91f7 b7bd
00000040: 42ca acbd e09d ac3d 07bf 303b ae4b 9e3c
00000050: 1ff7 10be 4c44 00be ef21 a6bd 6f99 1ebd
00000060: 1727 95bd 48ec a8bd df90 95bd 4a23 e5bd
00000070: b41c aa3b 8eda 973b b3b3 48bd ccf2 c1bd
00000080: c9a4 8b3c a745 b3bd 1719 febd 04d9 b93c
00000090: c06c 9e3c f8f8 94bd e5b3 05bb 5139 83bc
000000a0: af6a 09be e1d4 09be 6405 88bd e944 c2bc
000000b0: 49c6 053d 6745 a2bd 8896 51be 9a0b 29be
000000c0: 0997 40be 40ad 91bc 53a3 f3bc 2fd9 02be
000000d0: ae72 98bd 6aef a33d 2807 c7bd a57c 0fbe
000000e0: 2f46 1bbe 5155 2f3d ae8e a8bd 1a90 49bd
000000f0: 8f69 d1bd e17a 52bd 3dde dabd 560f abbd
00000100: 3de4 2d3c 0322 87bc 7c17 2f3c d000 933d
00000110: 3447 15bd 48b2 9bbd 96b7 d13c 4a13 e0bd
00000120: 75e4 7c3c 2e43 40be ef92 56bd a5ac 9d3c
00000130: e61e bbbd 6d94 03be 5707 3b3b 7009 073e
00000140: 2d12 a4bd fc4c 9bbc 1252 87bd 906b 693b
00000150: a057 9fbc 60f3 d3bd b324 1dbe 0fc4 c0bc
00000160: 393e 0f3e 965e 363b 0dd8 5dbd d979 c5bc
00000170: 6966 55bb f595 be3c 8459 493d e274 18be
00000180: 8bfc a5bd 0a9c c7bb c4c0 a7bd 79d1 16be
00000190: b39b 04be b7c7 18bc 63e0 fabd 0fab 36bd
000001a0: a9e7 afbd 7092 ed3b 5c2d 523c 308f 4fbd
000001b0: 40b3 a538 69dd a8bd d036 98bc a697 543d
000001c0: fa2a 34be 8e7e 823c 49f0 37be 23e2 f1bc
000001d0: 707c 68bd 06b7 ab3d f91f a1bd b6af 003d
000001e0: bca3 85bd e23f 60be b75e 01bd 153c 8cbd
000001f0: 9000 1bbe feef f8bd 0ac4 7ebd 6cb6 b8bc
00000200: 350b b2bd 4a95 0bbc feb1 b7bd e2fd 60bd
00000210: 0ff8 90bd 7b8b 2f3d e17b b5bd 3484 f4bb
00000220: ea16 02be 22ea 18bd a0be 45be de8c 38bd
00000230: 533a 01bd 5557 5bba a973 96bc 5fea bfbc
00000240: 7a74 01ba 6174 1dbd 3b22 0fbe 0383 67bd
00000250: b210 713d 479e df3c 6662 3239 745b 19be
00000260: f95b 0dbd 26ed e5bc ed80 3e3c 0d9a b6bc
00000270: 48ee afbd 4444 9dbb 37df b7bd 5758 9cbd
00000280: 0202 493d bb67 85bd bbb1 12be 797c a4bc
00000290: 115d bfbd f07b 9bbb 28b2 213c 2be4 84bd
000002a0: 8e9a 1c3d 4ab6 90bb a4a5 37bd 3151 65bd
000002b0: e0e1 0cbc ac39 c7bc a642 393d 267b a2bd
000002c0: 1441 293c 88d1 61bd 8a57 8bbc e231 b9bc
000002d0: b7dd f83c bf05 0cbd 17c9 243d 89da e4bd
000002e0: 60da b73d b790 8dbd 06e5 40bb 7077 f4bd
000002f0: 9676 a2bd 5ec4 07be b51a f9bc 91d8 283d
00000300: 14d0 a43d bad7 bcbd 0b1f efbc 385f 93bd
00000310: 7ea0 df3d 18c0 ecbd 28ec 2ebe c358 e5bd
00000320: 0761 b93c 6c1a 8ebd 50dc 0abd bb10 4fbd
00000330: 615c c1bc f477 8cbc 5ea7 793c 2ccc b1ba
00000340: 3fcd 723c f31a 983c b0aa ce3c 0448 683d
00000350: 0ae4 31bd 266a aabd c1c7 8cbd 4322 16bd
00000360: 1fa3 7cbd 6617 683d e94f d9bd 450b 2ebe
00000370: cc37 583d e969 e53d e5cb 2fbd 7ee8 f2bd
00000380: 8bb5 9ebd 96f4 6bbd d66a bfbc 5eb5 23be
00000390: f6fd 1f3d 11ee c5bb 135f d13d 664d 01be
000003a0: f6c5 153d ac99 713d ac8d b6bd eee3 8e3d
000003b0: 7af8 3cbd 85ab 813d 8f42 9bbd fcd2 9abc
000003c0: 1d8e 0abd 87d1 cbbb 660a 14bd eb5f 173e
000003d0: 5ce1 833c 34f2 a7bd f138 39bd 52f6 9fbd
000003e0: d291 aebd 421b 8abd 41f1 9b3d 7cc6 e83c
000003f0: a3bd 693c 309c bdbd 71de 10bd 9222 873d

weight f4 [64, 12, 7, 7]
0.11027973 -0.09271601 -0.016107924 0.007242042 -0.04417162 -0.00069809967 -0.109147385 0.09020564
-0.041295882 7.35331e-05 0.0041888426 0.059412573 -0.01966857 0.024581159 0.073748976 -0.06865189
-0.008859369 -0.09093711 -0.118391134 0.023605248 -0.015992818 -0.033345703 -0.0351656 -0.038966034
0.055524614 -0.052720964 0.012599335 -0.1525296 0.037594177 -0.025050692 0.030827023 -0.04422716
-0.074613936 0.023824468 -0.05752014 0.14795692 -0.07228178 0.015944446 -0.036134478 -0.11360177
-0.1561456 -0.10011818 -0.031049341 -0.16776378 -0.006270593 -0.03608958 0.018911123 -0.13317697
-0.13251002 -0.024737645 0.07247675 -0.05798326 0.03318203 0.022347301 -0.09321782 -0.02275769
0.025486631 0.010838607 0.09014447 -0.123816274 0.018674567 0.004272176 0.03076345 -0.04277844
-0.0037833657 0.02387295 0.005887845 0.084196426 -0.057313323 0.13253891 -0.027315335 0.0011394031
0.093709975 -0.10394866 0.13757704 -0.099905446 -0.09400515 -0.02654457 -0.0056323223 0.01293767
-0.07242089 0.06683359 -0.20584889 0.067622356 -0.02266142 0.070056506 0.0028010977 -0.004065603
0.010267892 -0.23761478 0.15118116 0.01544686 -0.075046845 0.13674411 -0.1456908 0.15052687
-0.1753054 -0.011812442 0.0012384573 0.005659054 0.008925626 0.030032318 0.056934692 0.035182487
-0.018938351 0.035715215 -0.09633149 -0.21341038 -0.06077015 0.0762502 -0.004884417 0.01802276
0.031481303 -0.0391257 -0.071932614 -0.067039944 0.02537854 -0.045030244 -0.019879013 -0.023974175
-0.05975972 -0.13843651 0.018183796 0.0003425641 -0.012020784 -0.060587913 -0.13251673 -0.10714503
-0.083272554 0.04789188 0.010883943 0.11816058 0.07737318 -0.11024904 -0.09940467 -0.16916941
0.058581036 -0.0001474791 0.116809875 -0.024276169 -0.1484815 0.017258253 -0.27414757 0.15635487
0.021629626 0.082924195 -0.022079151 -0.071721286 0.053702656 0.15781741 0.008408071 -0.0446965
-0.11613387 0.011304851 -0.0013007366 0.011010051 0.004840932 -0.018997794 0.026489366 -0.028700838
-0.07605376 -0.12600413 0.00560237 0.045844268 -0.005814788 -0.0791889 0.015199325 0.059458036
0.02192393 0.10323005 -0.014810973 -0.02437608 -0.106875785 -0.049768563 -0.11705709 0.017569639
0.06867992 0.00960069 0.05765369 -0.0362129 -0.056421895 -0.056945525 -0.17627023 -0.080286406
0.119780965 0.0012319058 -0.0032392577 -0.011236833 0.05626366 -0.11745663 -0.004880797 0.008626317
0.062194075 -0.1679535 0.04596548 0.13122225 -0.039771076 0.0010958749 0.102925904 -0.0018623034
-0.18810144 0.04270297 0.013188878 0.045343492 -0.04884434 -0.0898009 0.086041026 0.004883894
0.13704547 -0.004135366 0.053620275 0.015936615 0.07965598 -0.1628525 0.070855506 -0.085132286
-0.1477279 -0.005387624 0.05606312 -0.18628973 0.19219288 -0.16648999 -0.17638606 0.022821981
-0.033781506 -0.0021598535 0.03138735 -0.00031658905 0.0675075 0.111688465 0.002875433 0.04379304
-0.020360893 0.07600771 0.07722125 -0.101529 0.011768059 -0.11507727 -0.079990394 0.08061011
-0.07241585 -0.017904041 0.011447686 0.036058787 0.05894488 0.025325885 -0.018127697 0.007947291
-0.039558854 -0.03357789 -0.16329637 0.0037652187 -0.010227304 -0.074148424 -0.049505234 -0.06421826
00000000: 57da e13d e4e1 bdbd c4f4 83bc a74e ed3b
00000010: 4ded 34bd ad00 37ba aa88 dfbd bcbd b83d
00000020: df25 29bd c835 9a38 8f42 893b 995a 733d
00000030: fb1f a1bc 6d5e c93c b409 973d 5d99 8cbd
00000040: e326 11bc 3c3d babd 0d77 f2bd cb5f c13c
00000050: 5f03 83bc 8195 08bd ce09 10bd d99a 1fbd
00000060: c76d 633d f0f1 57bd 716d 4e3c b830 1cbe
00000070: 5afc 193d 1c37 cdbc f488 fc3c 8a27 35bd
00000080: 31cf 98bd 882b c33c 3d9a 6bbd 0582 173e
00000090: 7808 94bd ed9d 823c bf01 14bd 0ba8 e8bd
000000a0: a2e4 1fbe c30a cdbd 305b febc 45ca 2bbe
000000b0: 8c79 cdbb abd2 13bd 80eb 9a3c 8b5f 08be
000000c0: b5b0 07be 9aa6 cabc b16e 943d db7f 6dbd
000000d0: e1e9 073d b011 b73c fce8 bebd 566e babc
000000e0: 57c9 d03c 6a94 313c aa9d b83d 6393 fdbd
000000f0: 68fb 983c 9cfd 8b3b a103 fc3c 7238 2fbd
00000100: 58f2 77bb 3491 c33c d3ee c03b 2d6f ac3d
00000110: 60c1 6abd 48b8 073e 69c4 dfbc 0658 953a
00000120: 04eb bf3d 09e3 d4bd ffe0 0c3e 3a9b ccbd
00000130: c685 c0bd 0074 d9bc 588f b8bb 85f8 533c
00000140: 6751 94bd 0de0 883d 0dca 52be 977d 8a3d
00000150: 71a4 b9bc c979 8f3d 9f92 373b c038 85bb
00000160: a93a 283c 4a51 73be 3ccf 1a3e d414 7d3c
00000170: 29b2 99bd a606 0c3e f82f 15be b723 1a3e
00000180: 4283 33be f988 41bc bb53 a23a 966f b93b
00000190: ca3c 123c 5606 f63c 5a34 693d 831b 103d
000001a0: 9a24 9bbc 1e4a 123d 7249 c5bd 4088 5abe
000001b0: 1fea 78bd 1129 9c3d 760d a0bb 78a4 933c
000001c0: 8af2 003d 4542 20bd 6851 93bd 3d4c 89bd
000001d0: a8e6 cf3c a271 38bd 50d9 a2bc 7d65 c4bc
000001e0: 9cc6 74bd 4dc2 0dbe 2ff6 943c 2d9a b339
000001f0: d3f2 44bc 082b 78bd 77b2 07be da6e dbbd
00000200: cd8a aabd 472a 443d 9152 323c 2dfe f13d
00000210: d475 9e3d 40ca e1bd ad94 cbbd bf3a 2dbe
00000220: abf2 6f3d 9fa4 1ab9 043a ef3d d1de c6bc
00000230: 890b 18be 2e61 8d3c 125d 8cbe 7e1b 203e
00000240: 9d30 b13c 29d4 a93d 56df b4bc 9ce2 92bd
00000250: 51f7 5b3d e39a 213e 01c2 093c ad13 37bd
00000260: 98d7 edbd fb37 393c 7a7d aaba 8063 343c
00000270: aea0 9e3b 43a1 9bbc 3a00 d93c 051e ebbc
00000280: 13c2 9bbd 3a07 01be 1694 b73b 33c7 3b3d
00000290: fa89 bebb ca2d a2bd 9706 793c 458a 733d
000002a0: d099 b33c 476a d33d b9a9 72bc 58b0 c7bc
000002b0: b1e1 dabd 1fda 4bbd a1bb efbd 34ee 8f3c
000002c0: 0fa8 8c3d 364c 1d3c 4726 6c3d fa53 14bd
000002d0: a51a 67bd b63f 69bd 2f80 34be 336d a4bd
000002e0: b94f f53d e677 a13a ba49 54bb b21a 38bc
000002f0: b974 663d 1a8d f0bd 18ef 9fbb 6555 0d3c
00000300: 37bf 7e3d 01fc 2bbe 4d46 3c3d 205f 063e
00000310: ffe6 22bd 76a3 8f3a d1ca d23d 8818 f4ba
00000320: aa9d 40be 4fe9 2e3d 2a16 583c 19ba 393d
00000330: 0111 48bd 89e9 b7bd 4736 b03d 1309 a03b
00000340: a655 0c3e f781 87bb efa0 5b3d 818d 823c
00000350: ad22 a33d cec2 26be b11c 913d d659 aebd
00000360: fc45 17be aa8a b0bb 71a2 653d bcc2 3ebe
00000370: 36ce 443e 5a7c 2abe 8c9e 34be 2af5 ba3c
00000380: 7a5e 0abd 548c 0dbb 0690 003d ddfb a5b9
00000390: 5f41 8a3d ecbc e43d c371 3c3b 5560 333d
000003a0: e3cb a6bc eea9 9b3d 2d26 9e3d 70ee cfbd
000003b0: d1ce 403c a2ad ebbd 01d2 a3bd ea16 a53d
000003c0: c34e 94bd 7fab 92bc 138f 3b3c 61b2 133d
000003d0: 3070 713d 3b78 cf3c 8980 94bc 5b35 023c
000003e0: 7708 22bd f888 09bd 2a37 27be e3c1 763b
000003f0: 6c90 27bc 21db 97bd 00c6 4abd dd84 83bd

weight f4 [64, 64, 3, 3]
-0.11875747 -0.03473713 0.39216965 -0.058082808 -0.12204497 0.0128148645 0.023144638 -0.20611008
0.08409473 -0.010762907 0.008182824 0.10165312 -0.007818884 0.010089116 0.02622562 0.08861181
-0.032094114 -0.08416563 -0.040553216 -0.06363792 -0.046986554 0.11945206 0.41738632 0.01989846
-0.043609124 0.016978757 -0.1288695 0.090457976 -0.018997231 -0.07193632 -0.011919129 -0.055885453
0.036890052 -0.012584917 -0.029481955 0.048754156 -0.063440606 0.0037655453 -0.06599021 0.096701115
-0.011407882 -0.035839647 0.0016430601 -0.03897567 -0.04277754 -0.1574661 -0.037724942 -0.01676127
0.106922746 -9.854805e-07 0.0036620002 -0.03474437 -0.038474664 -0.040203243 -0.005500039 0.0056730197
-0.06528418 -0.045294467 -0.002493351 -0.013684363 0.0691215 -0.019953072 -0.09151796 -0.08097749
-0.028291158 0.012386617 -0.029476909 0.06386269 0.07780516 -0.0880991 0.048602417 -0.019348139
-0.07065263 -0.016117075 0.038044028 0.23190562 0.08106083 0.18657073 0.16164552 -0.112667866
-0.0076058228 0.0016931802 -0.047596116 -0.1745307 -0.029556831 -0.05673081 -0.18013272 -0.086905226
0.00013918302 -0.11024093 -0.18653728 -0.019572074 0.03813728 -0.10615679 0.046123523 -0.048316102
-0.011743441 -0.105663426 0.064284146 -0.044392154 -0.057469323 -0.030046146 -0.08439612 -0.018922966
0.030273624 0.05245013 -0.05225273 0.0021441774 0.011631504 0.09876633 -0.035335362 0.0061114514
0.0461909 -0.26532853 0.027253147 -0.017732019 -0.17619236 -0.030359248 0.14005013 -0.1396768
0.07257117 0.07486252 -0.028506463 -0.026555736 0.012641226 -0.08335834 -0.035469543 -0.24772643
-0.11848569 -0.09967231 -0.39214718 -0.106668465 -0.1512039 -0.12638803 -0.11512029 -0.04942235
0.031257916 0.07304813 0.0045528715 -0.06943053 -0.033550642 0.020790115 -0.12655756 0.0039096544
0.020627 -0.08348434 0.07216396 -0.20880046 -0.22108766 0.23433167 -0.23155384 -0.13773814
0.08123314 -0.04970556 -0.05468739 -0.0069239554 -0.07875696 0.003784525 0.054813776 -0.0011154973
0.037303265 -0.08104021 -0.09576891 -0.054189883 -0.07276535 0.0065405155 -0.019758217 -0.0357142
-0.08847619 -0.036018375 0.04356738 -0.25162426 -0.34132117 -0.23964384 -0.24958768 -0.48892567
-0.30240658 -0.26307288 -0.118622 -0.10925603 -0.06360175 -0.019678408 -0.046621446 -0.06532409
-0.030612627 0.031930514 -0.15887357 0.09117854 -0.016375935 -0.04705313 0.1392046 -0.0578664
-0.028221132 0.036656033 -0.07075389 -0.07548235 0.08695387 0.02871707 -0.04226723 -0.039914943
-0.029620282 0.029727077 0.036794487 0.0533537 -0.06354473 0.00853976 0.1011193 0.09681305
-0.040132284 -0.09438611 0.013329499 -0.0014783911 0.028504994 0.039654136 0.12163485 0.02785676
0.06566197 -0.0013320027 -0.27615204 -0.011942931 -0.30305418 -0.24712068 0.16390531 -0.03583095
-0.23777714 -0.07640558 -0.070697926 -0.048547927 0.009801013 -0.010507137 -0.07178201 0.10538497
-0.05258472 -0.011215458 -0.026585447 -0.051538233 0.0051315376 -0.030231787 -0.032438237 -0.0120132975
-0.06904553 -0.028923625 0.103825316 -0.045471553 0.062002838 0.008049563 0.045202114 0.07236977
0.12549022 -0.07280197 0.042255957 0.09304411 -0.07379442 -0.025243998 0.01931369 -0.07861206
00000000: 1e37 f3bd 8548 0ebd 76ca c83e 3de8 6dbd
00000010: b7f2 f9bd 70f5 513c d399 bd3c 850e 53be
00000020: dc39 ac3d e756 30bc 4011 063c 832f d03d
00000030: c71a 00bc d24c 253c 1dd7 d63c 1c7a b53d
00000040: 1e75 03bd 085f acbd 211b 26bd 9954 82bd
00000050: f974 40bd 48a3 f43d a9b3 d53e 1802 a33c
00000060: 7b9f 32bd 0917 8b3c 5ef6 03be 0842 b93d
00000070: 15a0 9bbc 5953 93bd 7348 43bc 25e8 64bd
00000080: 061a 173d f830 4ebc 2484 f1bc 70b2 473d
00000090: 26ed 81bd 5ec7 763b e025 87bd 3c0b c63d
000000a0: 20e8 3abc 98cc 12bd f35b d73a f4a4 1fbd
000000b0: 8037 2fbd cb3e 21be 7885 1abd ee4e 89bc
000000c0: 50fa da3d da44 84b5 2bfe 6f3b 1d50 0ebd
000000d0: 9c97 1dbd 28ac 24bd ac39 b4bb bde4 b93b
000000e0: b6b3 85bd b186 39bd 7d67 23bb 6134 60bc
000000f0: 938f 8d3d a074 a3bc c56d bbbd 87d7 a5bd
00000100: dcc2 e7bc 3df1 4a3c 8f79 f1bc 71ca 823d
00000110: 5058 9f3d 4d6d b4bd 5413 473d fd7f 9ebc
00000120: 53b2 90bd f507 84bc 0ed4 1b3d ab78 6d3e
00000130: 3803 a63d 660c 3f3e 6786 253e 69be e6bd
00000140: 443a f9bb b3ed dd3a 25f4 42bd 2db8 32be
00000150: 2b21 f2bc 915e 68bd b674 38be 5efb b1bd
00000160: a8f1 1139 ffc5 e1bd a103 3fbe 9d55 a0bc
00000170: d635 1c3d bb68 d9bd 05ec 3c3d 1be7 45bd
00000180: 9067 40bc 1166 d8bd 68a7 833d 8cd4 35bd
00000190: f464 6bbd 5623 f6bc dfd7 acbd 5604 9bbc
000001a0: 6400 f83c f3d5 563d f506 56bd 5485 0c3b
000001b0: 1092 3e3c 0046 ca3d d0bb 10bd 9242 c83b
000001c0: ab32 3d3d 24d9 87be fe41 df3c bd42 91bc
000001d0: c56b 34be f5b3 f8bc 4d69 0f3e 6f07 0fbe
000001e0: 32a0 943d 8551 993d 6386 e9bc 6a8b d9bc
000001f0: 251d 4f3c c7b7 aabd 8348 11bd ffab 7dbe
00000200: a0a8 f2bd ff20 ccbd 84c7 c8be ff74 dabd
00000210: 32d5 1abe dd6b 01be 30c4 ebbd 176f 4abd
00000220: 4d08 003d 429a 953d 4130 953b 9831 8ebd
00000230: 666c 09bd 0850 aa3c 4e98 01be 8f1c 803b
00000240: f4f9 a83c d6f9 aabd b3ca 933d cacf 55be
00000250: ce64 62be a4f4 6f3e 731c 6dbe 3a0b 0dbe
00000260: 8f5d a63d 0f98 4bbd e2ff 5fbd 59e2 e2bb
00000270: 544b a1bd cb05 783b 6984 603d e135 92ba
00000280: 4fcb 183d 69f8 a5bd 7e22 c4bd 36f6 5dbd
00000290: 0006 95bd d251 d63b fcdb a1bc 0e49 12bd
000002a0: 0133 b5bd 0188 13bd b673 323d e5d4 80be
000002b0: a6c1 aebe 3265 75be ea93 7fbe 7754 fabe
000002c0: 09d5 9abe 7db1 86be 17f0 f2bd a0c1 dfbd
000002d0: a241 82bd 9d34 a1bc 21f6 3ebd a3c8 85bd
000002e0: 55c7 fabc 92c9 023d c1af 22be d0bb ba3d
000002f0: d326 86bc c8ba 40bd a78b 0e3e 5105 6dbd
00000300: 0130 e7bc a324 163d 6ae7 90bd 7e96 9abd
00000310: df14 b23d 1040 eb3c 6720 2dbd da7d 23bd
00000320: 3ca6 f2bc 3386 f33c d1b5 163d 6989 5a3d
00000330: bd23 82bd 59ea 0b3c a317 cf3d ec45 c63d
00000340: c061 24bd 814d c1bd f963 5a3c 93c6 c1ba
00000350: 4e83 e93c 606c 223d b11b f93d dc33 e43c
00000360: c879 863d 9896 aeba cd63 8dbe 49ac 43bc
00000370: eb29 9bbe 340d 7dbe cbd6 273e 79c3 12bd
00000380: da7b 73be 877a 9cbd 13ca 90bd 31da 46bd
00000390: 6e94 203c 2026 2cbc 7202 93bd 13d4 d73d
000003a0: 1363 57bd 0ac1 37bc b9c9 d9bc c119 53bd
000003b0: 7526 a83b a7a8 f7bc f5dd 04bd 6cd3 44bc
000003c0: be67 8dbd 3df1 ecbc 5ea2 d43d 6140 3abd
000003d0: b0f6 7d3d 50e2 033c da25 393d 9a36 943d
000003e0: 8280 003e 3319 95bd 9514 2d3d e98d be3d
000003f0: 8721 97bd 80cc cebc be37 9e3c 5cff a0bd

bias f4 [64]
-0.0021673487 -0.107578404 0.021383803 -0.054019026 -0.029823262 -0.0042980853 -0.008867739 0.10462985
0.08200265 -0.041873243 0.07884441 -0.052381918 0.0012536761 0.0008076639 -0.015794897 -0.019682206
-0.029228715 0.0041382345 -0.021041615 -0.043757893 -0.04466537 0.002205373 0.04207418 0.03311078
-0.00035903673 0.06282983 0.070155516 -0.025871795 0.102653906 -0.021734633 -0.0044511165 0.028075673
-0.14720644 0.031663638 0.0072840755 -0.04232728 0.015186127 0.073188335 -0.0012893492 -0.024249904
0.009795701 -0.019868622 0.14909828 -0.0060191066 0.003256467 0.049690656 -0.0013809939 -0.05543968
0.002099429 -0.02162786 -0.0043785563 0.0021744843 0.06515234 -0.08058038 0.06663374 -0.032752737
-0.00578332 -0.05636086 0.057804417 0.0817887 0.0020827246 0.07301012 -0.011760149 -0.5906305
00000000: 140a 0ebb 1152 dcbd 162d af3c 0e43 5dbd
00000010: ea4f f4bc f4d6 8cbb fe49 11bc 2d48 d63d
00000020: 01f1 a73d 4783 2bbd 2e79 a13d 6c8e 56bd
00000030: 6452 a43a 68b9 533a 4d64 81bc 943c a1bc
00000040: 0f71 efbc 079a 873b 775f acbc 7a3b 33bd
00000050: 09f3 36bd 0588 103b fa55 2c3d 2b9f 073d
00000060: 183d bcb9 edac 803d b2ad 8f3d 16f1 d3bc
00000070: 363c d23d d40c b2bc acda 91bb f4fe e53c
00000080: 49bd 16be bbb1 013d 41af ee3b 5f5f 2dbd
00000090: 3ccf 783c c4e3 953d 61ff a8ba bca7 c6bc
000000a0: 267e 203c 85c3 a2bc 38ad 183e ed3b c5bb
000000b0: 736a 553b 6e88 4b3d 7702 b5ba b814 63bd
000000c0: 9396 093b e92c b1bc fe79 8fbb cb81 0e3b
000000d0: 976e 853d 5407 a5bd 4577 883d bc27 06bd
000000e0: 0182 bdbb a5da 66bd 53c4 6c3d d580 a73d
000000f0: 527e 083b 5486 953d a4ad 40bc 8f33 17bf

weight f4 [64, 64, 3, 3]
0.04445627 0.050011273 -0.029900473 -0.099905945 -0.15198582 0.11271073 -0.003056452 -0.105180725
0.009996264 0.02616655 0.004181878 0.012857447 -0.00614228 -0.021189176 -0.067476615 0.05049099
-0.036579262 0.032278534 0.04237638 0.0013566503 0.11105908 -0.007374589 0.0456458 -0.08099372
-0.06403695 -0.07706269 -0.031010248 0.0773561 0.0025529761 0.030823527 -0.0134361535 -0.029977724
0.042952187 -0.07665953 -0.024796965 -0.04940119 0.036367983 0.03330236 0.0024144922 -0.054256998
-0.04789073 -0.02460068 -0.004455071 -0.010740352 -0.01713761 -0.10678788 0.06529133 0.047789365
0.106844135 -0.025209537 0.059695218 -0.06895652 -0.03658255 0.04087335 -0.07698083 0.009042121
0.019311294 0.009509574 0.020476023 -0.017755192 0.022027047 -0.0514045 0.0065902364 0.04439711
-0.039158918 -0.038569883 -0.008885823 -0.029127205 0.062766775 0.028417593 -0.081424646 -0.15357623
-0.07273646 -0.009746068 0.04330112 0.018080855 -0.055067424 0.05392245 -0.00047234976 -0.05318578
-0.008544097 -0.0797904 -0.05332995 -0.09640602 0.15897791 -0.015303712 -0.006057216 0.05059478
0.0820414 -0.02397643 -0.018250508 -0.1412187 -0.035328634 0.035070658 0.124986045 0.04397661
-0.028876008 -0.049994808 0.0036495435 0.03420544 -0.06749038 0.039306726 0.08557474 0.01814843
0.008780382 -0.01564838 0.057322327 -0.034618303 -0.05356485 0.002024533 -0.038900413 -0.07750496
-0.054354113 -0.022467626 -0.027588423 -0.11988857 -0.09695198 -0.054015685 0.034476586 0.056276407
-0.07620679 -0.11614753 -0.035168763 0.02066476 -0.010442527 -0.053887714 0.040648684 -0.024772584
-0.0013152304 -0.12436347 0.0031004942 0.019277623 -0.083015315 0.01656174 0.09167139 -0.008053953
-0.10322045 -0.060877047 0.00087650534 -0.081249505 -0.02820256 -0.026079176 -0.09851442 0.08244391
0.014154885 -0.10177345 -0.015248655 -0.04866779 -0.005974354 -0.06695338 -0.031244632 -0.0117476145
0.019699162 -0.025441116 -0.017936878 0.06504879 0.0289731 -0.0066400007 -0.042809214 0.07379591
0.012352063 -0.038939547 -0.005525779 -0.035641268 -0.122478 0.0014991431 -0.008877175 -0.052535947
0.04839085 0.0014435418 0.0046810894 0.0567876 -0.0021464636 0.0060344515 0.041109137 0.06707047
-0.0017443058 0.031713177 -0.1195154 -0.023708358 0.03591141 0.07703393 -0.038476247 0.062771365
-0.08956598 0.025133174 0.1038748 0.004519587 -0.060531113 0.019160094 0.010331574 0.021317214
0.044458438 0.02702032 -0.0002587266 0.09294145 -0.071696326 0.002998241 -0.0013524687 -0.027427005
-0.06919793 -0.024831392 -0.027798155 -0.008821647 -0.030665156 0.0032710615 0.03962648 -0.06265865
0.07506649 0.09189299 0.009801841 -0.007738804 0.053642392 -0.06714777 -0.06895719 -0.028370026
-0.022604836 -0.07543133 0.020300096 0.0030638047 -0.05346487 -0.09243966 -0.04089641 -0.027254108
-0.033319864 -0.07639553 0.10395216 -0.046735667 0.003430716 0.06664944 -0.054668598 -0.041184757
-0.03298297 -0.04168545 0.017233936 -0.053342186 -0.0060304985 0.013513399 -0.02315135 -0.038581144
-0.010225959 -0.027207308 -0.0051421677 0.0023676397 -0.09911197 -0.06992402 -0.09073573 -0.21907772
-0.10432125 0.019296832 -0.14356068 -0.18141717 -0.028954208 0.04370749 -0.12085333 -0.044232473
00000000: c717 363d 9fd8 4c3d d6f1 f4bc 7d9b ccbd
00000010: 2ca2 1bbe e2d4 e63d c14e 48bb fe68 d7bd
00000020: 5fc7 233c 3c5b d63c 2308 893b 0ba8 523c
00000030: 2e45 c9bb ec94 adbc 2e31 8abd a4cf 4e3d
00000040: 23d4 15bd 7f36 043d db92 2d3d a1d1 b13a
00000050: f172 e33d 89a6 f1bb 17f7 3a3d 09e0 a5bd
00000060: ce25 83bd 0bd3 9dbd 3409 febc e06c 9e3d
00000070: d54f 273b 9f81 fc3c 5023 5cbc d893 f5bc
00000080: a2ee 2f3d acff 9cbd 0123 cbbc e758 4abd
00000090: 98f6 143d 0e68 083d 753c 1e3b 963c 5ebd
000000a0: 1229 44bd 5e87 c9bc d8fb 91bb 4df8 2fbc
000000b0: 2c64 8cbc 9bb3 dabd 76b7 853d c8be 433d
000000c0: 19d1 da3d 3b84 cebc f982 743d 1339 8dbd
000000d0: 95d7 15bd d06a 273d 20a8 9dbd 6725 143c
000000e0: b832 9e3c 0bce 1b3c 55bd a73c 5673 91bc
000000f0: 1172 b43c 868d 52bd e9f2 d73b bed9 353d
00000100: 1a65 20bd 74fb 1dbd d895 11bc 2d9c eebc
00000110: de8b 803d 03cc e83c f7c1 a6bd 1643 1dbe
00000120: daf6 94bd f9ad 1fbc 845c 313d 4d1e 943c
00000130: 618e 61bd c9dd 5c3d b6a5 f7b9 55d9 59bd
00000140: 8afc 0bbc 2669 a3bd 8170 5abd 8570 c5bd
00000150: 1bcb 223e 6cbc 7abc 9c7b c6bb 793c 4f3d
00000160: 5205 a83d 386a c4bc 1782 95bc a39b 10be
00000170: c2b4 10bd 40a6 0f3d aff8 ff3d d120 343d
00000180: 618d ecbc 5bc7 4cbd 2e2d 6f3b 011b 0c3d
00000190: 6538 8abd 1700 213d cf41 af3d 04ac 943c
000001a0: 97db 0f3c 0831 80bc d1ca 6a3d eccb 0dbd
000001b0: d166 5bbd 07ae 043b 0a56 1fbd ecba 9ebd
000001c0: 6ba2 5ebd 070e b8bc 1e01 e2bc 2388 f5bd
000001d0: c28e c6bd 8d3f 5dbd 5237 0d3d 1782 663d
000001e0: 4e12 9cbd c2de edbd 1f0d 10bd 2549 a93c
000001f0: 2217 2bbc 5db9 5cbd 3c7f 263d e0ef cabc
00000200: cf63 acba 46b2 febd a931 4b3b 1bec 9d3c
00000210: ef03 aabd 7cac 873c 36be bb3d baf4 03bc
00000220: 3e65 d3bd 365a 79bd 47c5 653a 2466 a6bd
00000230: 0e09 e7bc ffa3 d5bc eec1 c9bd 5ad8 a83d
00000240: e4e9 673c 996e d0bd 7fd5 79bc e057 47bd
00000250: 84c4 c3bb db1e 89bd bef4 ffbc 1179 40bc
00000260: 2360 a13c e369 d0bc 5cf0 92bc 4d38 853d
00000270: ff58 ed3c 5d94 d9bb b758 2fbd 4f22 973d
00000280: 4f60 4a3c 137f 1fbd 9811 b5bb 94fc 11bd
00000290: bfd5 fabd e57e c43a 9271 11bc ef2f 57bd
000002a0: 7c35 463d 3a35 bd3a d363 993b 1d9a 683d
000002b0: afab 0cbb a6bc c53b 0e62 283d 3e5c 893d
000002c0: 31a1 e4ba ade5 013d 7dc4 f4bd 0838 c2bc
000002d0: d817 133d f7c3 9d3d 4599 1dbd 468e 803d
000002e0: 5e6e b7bd 16e4 cd3c 50bc d43d 0b19 943b
000002f0: 79ef 77bd a1f5 9c3c c345 293c 70a1 ae3c
00000300: 0d1a 363d b859 dd3c b2a5 87b9 1658 be3d
00000310: 86d5 92bd 237e 443b 5245 b1ba 99ae e0bc
00000320: a5b7 8dbd 346b cbbc f5b8 e3bc ab88 10bc
00000330: 7e35 fbbc 4e5f 563b 604f 223d 2e53 80bd
00000340: 76bc 993d 6432 bc3d e797 203c cb95 fdbb
00000350: 20b8 5b3d c584 89bd 6d39 8dbd 4268 e8bc
00000360: c72d b9bc be7b 9abd 634c a63c 1dca 483b
00000370: fbfd 5abd 0151 bdbd fe82 27bd 0244 dfbc
00000380: 697a 08bd 4275 9cbd dfe4 d43d e66d 3fbd
00000390: ddd5 603b 807f 883d 2eec 5fbd 59b1 28bd
000003a0: 2719 07bd 5dbe 2abd 2f2e 8d3c 567d 5abd
000003b0: 7d9b c5bb 4e67 5d3c e6a7 bdbc 4307 1ebd
000003c0: c88a 27bc dce1 debc a17f a8bb 672a 1b3b
000003d0: 37fb cabd 5334 8fbd a8d3 b9bd e955 60be
000003e0: 61a6 d5bd 6414 9e3c 9201 13be 6cc5 39be
000003f0: 6031 edbc a006 333d f381 f7bd 1c2d 35bd

bias f4 [64]
0.0033018994 0.08751857 -0.07864014 -0.013985225 0.123136066 0.23527206 0.0011309441 0.0124212075
0.06619417 -0.036302738 0.018671399 -0.014951379 -0.06322273 -0.061454415 -0.025537085 -0.24822338
-0.02099238 -0.0016548984 0.035458013 -0.038619 0.06960839 -0.07569397 0.32803646 -0.013633198
0.009240025 0.030919883 -0.06635691 0.057740957 -0.06378496 -0.019369913 -0.010351157 0.016463397
-0.012679825 -0.030021071 0.10321025 -0.0022469258 -0.028174156 -0.030030593 0.03187392 0.058399923
-0.05302726 -0.018008465 0.117107585 0.068649024 -0.008312283 -0.034029234 -0.049012255 0.046603717
0.017568056 0.077843316 0.015490192 -0.06329425 0.07149069 0.00016131235 -0.05124873 -0.031014025
-0.08866878 -0.009289478 -0.04166014 0.07543947 -0.0786557 -0.018695567 -0.04933166 0.07013244
00000000: ae64 583b f03c b33d 150e a1bd 4922 65bc
00000010: c32e fc3d 29eb 703e 303c 943a 5282 4b3c
00000020: cf90 873d 2eb2 14bd c3f4 983c a1f6 74bc
00000030: eb7a 81bd a0b7 7bbd 2633 d1bc 452e 7ebe
00000040: 36f8 abbc 2de9 d8ba 6c3c 113d f52e 1ebd
00000050: d88e 8e3d 7105 9bbd 65f4 a73e c75d 5fbc
00000060: 7963 173c b24b fd3c 22e6 87bd c881 6c3d
00000070: b0a1 82bd a7ad 9ebc e697 29bc 3fde 863c
00000080: 0abf 4fbc c0ee f5bc e55f d33d 2941 13bb
00000090: 7dcd e6bc b802 f6bc 3a8e 023d c234 6f3d
000000a0: 1d33 59bd 7d86 93bc 1ad6 ef3d dc97 8c3d
000000b0: 3e30 08bc 3d62 0bbd 13c1 48bd 8ae3 3e3d
000000c0: e2ea 8f3c 516c 9f3d 93ca 7d3c 6aa0 81bd
000000d0: b669 923d f425 2939 30ea 51bd 2011 febc
000000e0: fa97 b5bd e532 18bc d3a3 2abd 0280 9a3d
000000f0: 3d16 a1bd 7227 99bc ff0f 4abd 99a1 8f3d

weight f4 [64, 64, 3, 3]
-0.022394195 0.008460621 -0.050879024 0.062241137 -0.08991306 -0.061116174 -0.11416803 0.022200929
0.024654932 0.046769027 -0.018725833 0.03839484 -0.006237609 -0.014514735 -0.045402456 -0.02009884
0.04568085 -0.103217304 -0.10737098 0.008714264 0.07685117 -0.022522027 -0.01749644 -0.00056963007
-0.02896142 0.019888215 -0.0588585 0.008698846 -0.047276273 0.017622251 -0.059654422 -0.019775711
0.05469139 0.059699282 -0.063993 -0.037478533 0.009864654 0.023798646 0.042077273 -0.0038346373
0.037465483 -0.0008556896 0.026674183 0.039674427 0.009356105 0.036499128 0.023089154 -0.048169203
-0.00776346 0.0013293624 -0.00509985 -0.06555457 -0.038700327 -0.098974854 -0.028700916 0.03062935
-0.02862117 -0.107374944 -0.06416327 0.09385603 0.06669667 -0.004993707 -0.031917367 0.018671907
-0.08467253 0.0610791 0.033375923 0.008617923 -0.018643524 -0.030285148 -0.0058512157 -0.06497198
-0.03692175 -0.12546346 -0.17235436 -0.13610834 -0.04266501 -0.124500155 -0.05370577 -0.004015296
-0.009209529 0.052859806 0.039440442 -0.027339451 -0.018991642 -0.02606781 -0.014427473 -0.077811256
0.05748764 -0.06642759 0.03178156 -0.010389892 -0.06335113 0.04708989 -0.15390277 -0.08482439
-0.070142455 0.026175844 0.007806994 0.008230446 0.00012073228 -0.10664959 -0.02893961 0.0018925152
-0.057098117 -0.003665138 0.020440571 -0.0151129 -0.054120824 -0.01097626 0.076725684 -0.06091209
-0.078742646 -0.03829588 0.012172635 -0.017137751 -0.001533714 -0.0015890973 0.06530873 -0.019265952
-0.048629086 0.056814924 -0.025520924 0.020204185 -0.004288457 -0.031999685 -0.102321096 -0.01097835
0.07270559 0.060994968 -0.088735215 0.035543207 -0.06294943 -0.049622912 -0.04943257 -0.03750371
0.058516897 0.06884476 0.006183555 0.01945271 -0.020009004 -0.07390385 0.14465888 -0.13584515
0.05521188 -0.08598225 0.06779697 0.029561179 -0.04473451 -0.013523529 -0.043999802 -0.021220254
-0.023083258 -0.028191863 -0.07973819 -0.074615166 -0.11572759 -0.070661224 0.023905745 0.06454209
0.10677413 0.01249179 -0.018684601 0.044442132 -0.06482897 0.103517964 0.022486772 0.04366248
0.12707947 0.00043013896 0.069239914 -0.034338295 0.042826798 -0.1839888 -0.041009296 -0.095941454
0.018404761 0.08284888 -0.01535271 0.026996357 -0.041733433 -0.01667961 -0.015336693 -0.033546958
0.01790156 -0.048234746 0.105422564 -0.034343395 0.04816783 0.052211802 -0.018123291 -0.04352494
-0.042584416 0.011363104 0.095326915 -0.06185247 0.06850126 0.13379566 0.02562673 0.019840876
0.031405177 -0.039006233 -0.030711513 -0.059717916 0.07094611 0.03771069 0.02124031 -0.10526124
0.046514418 -0.14411494 0.14256181 -0.01758813 -0.019693742 0.091061175 0.14484036 0.039760225
0.0076890127 -0.0006593076 -0.059679665 0.045808684 -0.04276882 -0.04291778 0.032434355 0.03167146
-0.07102133 -0.04584601 -0.089093916 0.05967429 -0.0066002505 -0.026039893 -0.013842883 0.061738178
0.07923552 -0.042269368 -0.029670607 0.030511376 -0.044203915 -0.032088157 -0.042424634 0.018937811
0.022399414 -0.04828514 0.06652207 -0.031222451 0.023130702 -0.020943366 -0.025193347 -0.010780828
-0.045626335 0.053855836 -0.15691756 -0.06827055 0.038569387 -0.039232694 -0.03384134 -0.08160103
00000000: 0874 b7bc 6b9e 0a3c 8666 50bd 90f0 7e3d
00000010: 5724 b8bd f454 7abd eed0 e9bd b9de b53c
00000020: 24f9 c93c e190 3f3d eb66 99bc e843 1d3d
00000030: db64 ccbb 36cf 6dbc edf7 39bd 53a6 a4bc
00000040: d81b 3b3d 9863 d3bd 51e5 dbbd 46c6 0e3c
00000050: 2564 9d3d 1d80 b8bc b254 8fbc 3a53 15ba
00000060: 8040 edbc 9cec a23c 9c15 71bd 9b85 0e3c
00000070: c4a4 41bd 8a5c 903c 3258 74bd ac00 a2bc
00000080: 1404 603d 3c87 743d c30e 83bd 1783 19bd
00000090: 5c9f 213c 61f5 c23c 3859 2c3d 8a4e 7bbb
000000a0: 6875 193d 5b50 60ba d183 da3c a781 223d
000000b0: 594a 193c 1c80 153d 7725 bd3c 124d 45bd
000000c0: 9f64 febb 003e ae3a a41c a7bb 7941 86bd
000000d0: 3c84 1ebd 54b3 cabd 2f1e ebbc 67ea fa3c
000000e0: f276 eabc 65e7 dbbd 0868 83bd 9737 c03d
000000f0: 4498 883d 40a2 a3bb c9bb 02bd d4f5 983c
00000100: cb68 adbd 142e 7a3d 31b5 083d 3032 0d3c
00000110: 4eba 98bc 8f18 f8bc 8ebb bfbb 0810 85bd
00000120: 433b 17bd 7e79 00be a97d 30be fc5f 0bbe
00000130: 81c1 2ebd f0f9 febd 95fa 5bbd bf92 83bb
00000140: 90e3 16bc 8683 583d 4d8c 213d fcf6 dfbc
00000150: 5c94 9bbc 298c d5bc 3561 6cbc 825b 9fbd
00000160: 2978 6b3d 300b 88bd 622d 023d 5e3a 2abc
00000170: 3dbe 81bd 54e1 403d b098 1dbe 69b8 adbd
00000180: d9a6 8fbd b96e d63c d0d1 ff3b fed8 063c
00000190: a631 fd38 1a6b dabd c312 edbc 460e f83a
000001a0: b7df 69bd d032 70bb fc72 a73c 199c 77bc
000001b0: ccad 5dbd c5d5 33bc 5b22 9d3d f57e 79bd
000001c0: d343 a1bd 24dc 1cbd bb6f 473c 7864 8cbc
000001d0: e706 c9ba 4249 d0ba 95c0 853d a1d3 9dbc
000001e0: 4b2f 47bd c4b6 683d 4211 d1bc 3f83 a53c
000001f0: 2f86 8cbb 1a12 03bd b98d d1bd 8ade 33bc
00000200: abe6 943d dcd5 793d cfba b5bd c195 113d
00000210: a1eb 80bd 6541 4bbd ce79 4abd 7d9d 19bd
00000220: 6aaf 6f3d 7bfe 8c3d 6b9f ca3b 4a5b 9f3c
00000230: ece9 a3bc e75a 97bd 7521 143e fe1a 0bbe
00000240: da25 623d 7617 b0bd 23d9 8a3d 492a f23c
00000250: 893b 37bd cb91 5dbc 2339 34bd 19d6 adbc
00000260: 1a19 bdbc 9ff2 e6bc c74d a3bd d6cf 98bd
00000270: 9602 edbd d5b6 90bd fbd5 c33c a52e 843d
00000280: 65ac da3d 5daa 4c3c 7310 99bc f408 363d
00000290: 0dc5 84bd 3a01 d43d 2e36 b83c 6ed7 323d
000002a0: 1f21 023e 4684 e139 a8cd 8d3d 50a6 0cbd
000002b0: 276b 2f3d 8f67 3cbe 5df9 27bd f47c c4bd
000002c0: 95c5 963c acac a93d ef89 7bbc 7727 dd3c
000002d0: adf0 2abd ada3 88bc c146 7bbc 8968 09bd
000002e0: 4ba6 923c cc91 45bd c9e7 d73d a9ab 0cbd
000002f0: a14b 453d 0bdc 553d 4c77 94bc 3547 32bd
00000300: ff6c 2ebd 502c 3a3c c23a c33d 0459 7dbd
00000310: 634a 8c3d bb01 093e 26ef d13c 5589 a23c
00000320: b7a2 003d 00c5 1fbd b696 fbbc c69a 74bd
00000330: 324c 913d 8676 1a3d 2900 ae3c 3493 d7bd
00000340: e785 3e3d de92 13be b9fb 113e fb14 90bc
00000350: c554 a1bc 487e ba3d 0851 143e 9edb 223d
00000360: 1df4 fb3b 62d5 2cba aa72 74bd e3a1 3b3d
00000370: 5c2e 2fbd 8eca 2fbd e3d9 043d efb9 013d
00000380: a273 91bd 07c9 3bbd df76 b6bd 076d 743d
00000390: ea46 d8bb 9d51 d5bc 42cd 62bc 2ce1 7c3d
000003a0: 3b46 a23d a522 2dbd c60f f3bc fef2 f93c
000003b0: 2a0f 35bd df6e 03bd 74c5 2dbd 7823 9b3c
000003c0: fa7e b73c a4c6 45bd b93c 883d 3ac6 ffbc
000003d0: 997c bd3c 6c91 abbc 4762 cebc 12a2 30bc
000003e0: aee2 3abd f097 5c3d ffae 20be 6ed1 8bbd
000003f0: effa 1d3d 76b2 20bd 389d 0abd 711e a7bd

bias f4 [64]
-0.037714463 0.029554531 -0.022915306 -0.049107596 -0.04942024 -0.0978361 0.011860142 0.0043975096
0.017842295 -0.02839099 -0.012460926 -0.0057063336 0.02860738 -0.03417331 -0.03487248 0.039489284
-0.083047666 0.037557565 -0.008364516 -0.011125084 0.0071975063 -0.08781743 -0.02401471 -0.034777697
0.00040450317 0.046057332 -0.08568002 0.0068015084 -0.053871185 -0.04928095 -0.016895538 0.05968481
-5.657059e-07 -0.015789228 -0.049605634 -0.049754634 -0.06644232 0.013043911 -0.0063562645 -0.024378598
0.0011671255 0.054254677 -0.033368163 -0.0068607717 -0.022246424 0.023870895 -0.06937427 -0.019628603
-0.06470562 0.026290683 -0.066887386 0.007811743 -0.0031013202 -0.05779787 -0.017733112 -0.11085758
-0.024771174 -0.026004517 -0.07095821 -0.064607486 -0.04497118 -0.033525314 -0.05074871 0.006914356
00000000: 7b7a 1abd 581c f23c e1b8 bbbc 0c25 49bd
00000010: e16c 4abd 4b5e c8bd 0b51 423c fc18 903b
00000020: 012a 923c 3994 e8bc e928 4cbc 32fc babb
00000030: 065a ea3c 50f9 0bbd 72d6 0ebd 84bf 213d
00000040: e514 aabd f6d5 193d 530b 09bc fc45 36bc
00000050: 0fd9 eb3b a0d9 b3bd 7fba c4bc 0f73 0ebd
00000060: 7f13 d439 9da6 3c3d 0279 afbd 30df de3b
00000070: 08a8 5cbd d2da 49bd 8368 8abc 0f78 743d
00000080: 03db 17b5 6958 81bc 472f 4bbd 84cb 4bbd
00000090: e912 88bd 21b6 553c 3648 d0bb a0b5 c7bc
000000a0: 3cfa 983a 273a 5e3d 0ead 08bd 53d0 e0bb
000000b0: 223e b6bc e58c c33c 1914 8ebd 2acc a0bc
000000c0: 6184 84bd 8f5f d73c 41fc 88bd a6f9 ff3b
000000d0: 853f 4bbb 76bd 6cbd 0845 91bc 4d09 e3bd
000000e0: ebec cabc 6d07 d5bc 8a52 91bd ee50 84bd
000000f0: b333 38bd d751 09bd e1dd 4fbd d291 e23b

weight f4 [12, 64, 3, 3]
0.07840983 0.040160686 0.0010467657 0.018915866 0.040973466 0.0062825484 0.040029902 -0.058229893
0.0715431 -0.018929595 0.11181838 -0.022900507 -0.061610658 -0.041895423 0.028584603 0.023263548
-0.021639934 -0.003888322 0.013321808 -0.0049365633 -0.013478503 -0.015600796 0.07362901 -0.033368804
-0.0025853128 -0.007001092 0.007925791 0.049141042 -0.10199305 0.014456891 0.0052875313 0.024784144
0.1877134 -0.041845255 -0.053286638 -0.09130123 0.09788957 0.07863362 -0.035563745 0.03640803
-0.07134418 -0.101773724 0.031536516 0.0040285434 -0.050128903 0.008929083 -0.023133058 -0.0010221244
0.0028014279 0.05971264 -0.006436091 -0.012889599 -0.011837316 0.008274638 -0.025295561 0.02208497
0.031001741 0.0302529 -0.07971603 -0.077815056 -0.040427405 -0.15695827 -0.028884059 0.017230874
0.16513951 0.052720536 0.027437685 -0.019291116 0.06106763 -0.10484883 -0.10609639 -0.0971075
-0.066874534 -0.07444043 -0.03739278 0.069503255 0.018785 -0.033832274 0.1251083 -0.030558882
0.04364819 -0.008892773 -0.05656267 -0.014415734 -0.004945435 0.050559506 -0.05640612 0.03906844
0.053385593 0.061124984 0.08940182 -0.013105008 -0.106715865 -0.00039970918 -0.06576283 0.02786242
0.044074472 0.029783191 -0.011750061 0.027627604 -0.029206812 -0.038899004 0.053023536 -0.032394905
0.10178236 -0.025716702 0.010780182 -0.036926974 0.0009554824 -0.04713635 -0.042609613 0.014866245
0.015399842 0.041849777 0.0042323275 0.053299446 -0.03806431 0.035381187 0.007761548 -0.006914608
0.03412047 0.06043814 -0.037368417 0.004337438 -0.012698055 -0.076902576 -0.07031982 -0.016922932
0.033676807 -0.09454174 -0.01651189 0.047325112 0.022827702 0.04582581 0.050965864 0.015471826
-0.05219617 -0.0060281768 0.084371105 -0.005501561 -0.031435642 -0.038766965 0.004083381 0.016745694
-0.047128413 -0.009096801 -0.05923219 0.0615218 0.14976525 0.0036926714 -0.036410194 0.03594189
-0.085711874 0.11994096 0.15692453 -0.0852346 0.09431598 0.07350395 -0.15662025 0.032628447
0.22614358 -0.34011114 -0.110466234 0.09703362 0.019216444 0.0031194335 0.11647195 -0.035986662
-0.14696744 0.021307733 -0.008114362 -0.061515406 -0.057102025 0.005340163 0.03002113 0.075126916
-0.023205768 0.039126486 0.015286606 -0.017271895 -0.019817607 0.02143096 0.015446794 0.00011784788
-0.05748754 0.03234186 0.013018615 0.023994448 -0.016344298 0.03009156 -0.04406818 0.0044031264
-0.0051128403 -0.0203496 0.010343124 0.01581127 -0.014847061 -0.0013728344 -0.012182054 -0.021010142
-0.00074457633 -0.011959642 0.0035964134 -0.021186901 0.02510934 0.027650332 0.0015407406 -0.018657016
-0.08805738 0.098554455 -0.08311652 0.06559834 -0.05539262 -0.056616377 0.007808843 0.00047279443
-0.0042972094 0.005468012 -0.031538054 0.103449784 0.058531556 -0.10071329 -0.00215118 0.0060676457
-0.036948834 0.012680548 -0.052715648 -0.03143974 0.03320095 0.041580193 0.11123836 -0.010294669
-0.029496286 -0.032953404 -0.0016626702 -0.032358166 -0.027703589 -0.017470732 -0.020656403 -0.010005695
-0.0009485145 0.05127719 0.00014144888 -0.05901302 0.07909363 -0.0049115773 -0.03878201 0.115393355
0.020051356 -0.04635793 -0.03844883 -0.04999181 -0.056531593 -0.011229699 0.0005886263 0.031318177
00000000: 5595 a03d 887f 243d a133 893a 72f5 9a3c
00000010: cbd3 273d d6dd cd3b 65f6 233d 7882 6ebd
00000020: 3085 923d 3d12 9bbc 0901 e53d d899 bbbc
00000030: 755b 7cbd 899a 2bbd 422a ea3c 3293 be3c
00000040: 3b46 b1bc 38d3 7ebb b643 5a3c e5c2 a1bb
00000050: f0d4 5cbc 7b9a 7fbc ceca 963d baad 08bd
00000060: 5a6e 29bb 6b69 e5bb 2ddb 013c 1e48 493d
00000070: bbe1 d0bd 99dc 6c3c 0743 ad3b 1e08 cb3c
00000080: f137 403e ee65 2bbd 1743 5abd 24fc babd
00000090: 547a c83d aa0a a13d 4aab 11bd 9620 153d
000000a0: e61c 92bd be6e d0bd 6f2c 013d df01 843b
000000b0: f753 4dbd 4a4b 123c 8a81 bdbc cef8 85ba
000000c0: 2998 373b 3e95 743d d8e5 d2bb e62e 53bc
000000d0: 4df1 41bc 5992 073c a338 cfbc 8aeb b43c
000000e0: 5df7 fd3c eed4 f73c 2842 a3bd 805d 9fbd
000000f0: 3597 25bd abb9 20be 439e ecbc c327 8d3c
00000100: 551a 293e 7df1 573d ffc4 e03c 6708 9ebc
00000110: 0d22 7a3d fcba d6bd 1049 d9bd 4ce0 c6bd
00000120: 84f5 88bd 3974 98bd 2c29 19bd b957 8e3d
00000130: 00e3 993c b693 0abd 641c 003e 9f56 fabc
00000140: 72c8 323d feb2 11bc 42ae 67bd f92f 6cbc
00000150: 510d a2bb 7c17 4f3d 1b0a 67bd 3b06 203d
00000160: daaa 5a3d 315e 7a3d 4d18 b73d 63b6 56bc
00000170: d98d dabd 0f90 d1b9 aaae 86bd bb3f e43c
00000180: 6f87 343d e1fb f33c 5483 40bc 4953 e23c
00000190: 2043 efbc 9054 1fbd 352f 593d 85b0 04bd
000001a0: 4573 d03d d5ab d2bc 5c9f 303c bd40 17bd
000001b0: 5779 7a3a 0c12 41bd 6b87 2ebd 8d91 733c
000001c0: 9e4f 7c3c ac6a 2b3d 56af 8a3b 8550 5a3d
000001d0: 52e9 1bbd ddeb 103d 9554 fe3b f093 e2bb
000001e0: e8c1 0b3d fc8d 773d a00f 19bd 1121 8e3b
000001f0: 810b 50bc 197f 9dbd d603 90bd f6a1 8abc
00000200: b1f0 093d 1a9f c1bd f143 87bc fad7 413d
00000210: 2901 bb3c d8b3 3b3d 95c1 503d 8b7d 7d3c
00000220: a7cb 55bd 0388 c5bb c2ca ac3d 7046 b4bb
00000230: a9c2 00bd 1cca 1ebd e2cd 853b 442e 893c
00000240: b909 41bd c00a 15bc 749d 72bd 48fe 7b3d
00000250: 105c 193e bf00 723b db22 15bd ce37 133d
00000260: b589 afbd 9ba3 f53d d3b0 203e 7a8f aebd
00000270: bd28 c13d 3d89 963d 0f61 20be 68a5 053d
00000280: 2f92 673e 0c23 aebe 1f3c e2bd 90b9 c63d
00000290: ce6b 9d3c 696f 4c3b d988 ee3d c066 13bd
000002a0: a27e 16be 8e8d ae3c 1af2 04bc 94f7 7bbd
000002b0: d0e3 69bd 89fc ae3b dfee f53c 24dc 993d
000002c0: 061a bebc 1843 203d ac74 7a3c ca7d 8dbc
000002d0: 8958 a2bc fb8f af3c 8d14 7d3c 1925 f738
000002e0: 0e78 6bbd e678 043d 074c 553c 0190 c43c
000002f0: 7ae4 85bc 9382 f63c d680 34bd 1a48 903b
00000300: 9d89 a7bb 34b4 a6bc 3576 293c a386 813c
00000310: 1641 73bc aef0 b3ba 3d97 47bc 761d acbc
00000320: ac2f 43ba 60f2 43bc ceb1 6b3b 2790 adbc
00000330: 1ab2 cd3c f382 e23c adf2 c93a 99d6 98bc
00000340: 6d57 b4bd ebd6 c93d fe38 aabd 6c58 863d
00000350: 5fe3 62bd 93e6 67bd 53e1 ff3b 65e1 f739
00000360: 9bcf 8cbb 022d b33b 0c2e 01bd 7bdd d33d
00000370: c9be 6f3d c542 cebd d0fa 0cbb 1ad3 c63b
00000380: a957 17bd 13c2 4f3c 5dec 57bd f5c6 00bd
00000390: b8fd 073d fe4f 2a3d f0d0 e33d f9aa 28bc
000003a0: 32a2 f1bc 26fa 06bd f4ed d9ba ff89 04bd
000003b0: a3f2 e2bc c81e 8fbc 9e37 a9bc edee 23bc
000003c0: bba5 78ba 0808 523d e551 1439 a3b7 71bd
000003d0: d7fb a13d 4cf1 a0bb e3d9 1ebd 5a53 ec3d
000003e0: be42 a43c d0e1 3dbd 857c 1dbd 36c4 4cbd
000003f0: ac8d 67bd c5fc 37bc 0b4e 1a3a 7d47 003d

bias f4 [12]
0.0026451268 0.003925236 -0.0016087465 0.0027624986 0.0031808722 0.001462167 -0.0034541108 0.004594124
0.00634418 -0.002975061 0.015665961 -0.015043726
00000000: dd59 2d3b 449f 803b 93dc d2ba 090b 353b
00000010: 2e76 503b 2fa6 bf3a 5d5e 62bb 4e8a 963b
00000020: d7e2 cf3b 3ef9 42bb e755 803c f679 76bc
