train_weight_sr2/model_epoch_7.pth (torch_old, 667646 bytes, 10 tensors)

weight f4 [12, 3, 13, 13]
000000 f5 18 27 3d 30 39 d7 bd 94 eb 31 3c 36 6f f4 bc
       0.040795285 -0.105089545 0.010859389 -0.029838186
000010 4c df 51 bd b3 c2 ad bd f7 51 0c 3d c4 ef ce 3c
       -0.051238343 -0.084844016 0.034257855 0.025260814
000020 75 bd 3b be f2 c8 aa 3d b0 20 11 bd 14 09 7e bd
       -0.18333991 0.083391085 -0.035431564 -0.062020376
000030 55 06 08 be 0c 74 ae 3c 08 85 04 be 1d 63 b9 bd
       -0.13283665 0.02129557 -0.12941372 -0.090521075
000040 a5 fc ac bd ae a3 aa 3d b6 d3 25 3b df db 93 3c
       -0.084466256 0.08332001 0.0025303192 0.018049179
000050 b4 2c 11 be b8 7b fc bd 3d 82 a6 bd 71 d7 28 bd
       -0.14177209 -0.12328285 -0.0813031 -0.041221086
000060 35 7f 96 bd 73 c4 aa bd 3e da 96 bd c1 cf e5 bd
       -0.073484816 -0.08338251 -0.07365845 -0.112212665
000070 6b 79 ac 3b ea 34 90 3b bc 26 49 bd 6c cf c0 bd
       0.0052634976 0.004400839 -0.049109206 -0.094145626
000080 80 00 93 3c a4 ff af bd 2b cd f5 bd 34 6b f0 3c
       0.017944574 -0.085936815 -0.12002023 0.029347993
000090 85 83 92 3c 93 7f 95 bd ec 2a de ba 71 2c 95 bc
       0.017884979 -0.072997235 -0.0016950048 -0.018209668
0000a0 bc 15 0a be 0d 04 09 be 95 ba 86 bd ee 1d c4 bc
       -0.13484854 -0.13380452 -0.065785564 -0.023940053
0000b0 3b c7 09 3d fd 7c 9d bd 78 78 50 be 05 94 22 be
       0.033637267 -0.07689855 -0.20358455 -0.15876777
0000c0 b6 15 34 be 02 7a 8f bc 00 f5 f4 bc a7 1a 03 be
       -0.17586407 -0.017514233 -0.029901981 -0.12803136
0000d0 07 81 9b bd 9c 3f a9 3d 06 07 c7 bd 64 27 10 be
       -0.075929694 0.08264086 -0.097181365 -0.14077526
0000e0 8a c6 1b be 7d d6 31 3d 5e 1e a3 bd 5c 5f 41 bd
       -0.15212455 0.043417443 -0.079647765 -0.047210082
0000f0 7d 11 b3 bd 19 6d 0b bd 23 e0 d2 bd a5 fd ab bd
       -0.0874357 -0.03403959 -0.10296657 -0.08397988
000100 92 2e 26 3c 1b fc 9d bc ef f0 83 3c 26 47 8d 3d
       0.010142939 -0.019285252 0.016106097 0.06898336
000110 2e a8 24 bd 74 50 9d bd cf 64 d2 3c 41 f0 db bd
       -0.04019945 -0.07681361 0.025682835 -0.10739184
000120 9c 70 98 3c c2 89 2f be 39 ec 13 bd 2f 21 bc 3c
       0.018608384 -0.17142394 -0.03611395 0.022965042
000130 4e 23 bc bd c6 b7 03 be ff 41 63 3a 23 e6 0d 3e
       -0.09186421 -0.12863073 0.0008669197 0.13857321
000140 47 e0 a5 bd 14 a7 bd bc 1f 27 89 bd 2f 65 54 3b
       -0.08099418 -0.023150958 -0.06696915 0.0032408943
000150 64 c5 9b bc d8 32 d0 bd e5 1e 12 be 99 97 4d bc
       -0.019015022 -0.10165948 -0.14269598 -0.012548351
000160 b7 b4 0e 3e 6d 91 a6 b9 1e ab 5f bd 24 11 e0 bc
       0.13936125 -0.00031770338 -0.05460655 -0.027351923
000170 8f be 4d ba 73 a8 c4 3c 90 ec 45 3d 72 68 19 be
       -0.0007848525 0.024006104 0.048321307 -0.14981249
000180 d7 76 a8 bd 63 f0 cc bb e7 6a a5 bd c2 cd 0b be
       -0.08225792 -0.0062542423 -0.08077031 -0.13652709
000190 c1 85 ea bd bf 93 26 bc 6f 0b fb bd 45 7d 36 bd
       -0.11451293 -0.010167061 -0.1225804 -0.04455306
0001a0 e8 22 b6 bd 92 28 f1 3b ba cf 3c 3c 86 83 52 bd
       -0.088933766 0.0073595727 0.011524135 -0.05139496
0001b0 54 30 0c ba 45 ec aa bd f6 67 95 bc a9 f4 59 3d
       -0.00053477776 -0.08345846 -0.018238049 0.05321184
0001c0 e0 a4 28 be 63 93 df 3c 44 77 38 be 00 7d f1 bc
       -0.16469145 0.02729196 -0.18014246 -0.02947855
0001d0 5f ae 68 bd 0b 31 a7 3d 8e 4c a0 bd 15 44 f6 3c
       -0.05680692 0.08163651 -0.07827102 0.03006176
0001e0 ed 3f 86 bd fd 7e 60 be 16 50 02 bd af 41 8a bd
       -0.065551616 -0.21923442 -0.031814657 -0.067508094
0001f0 ec 70 19 be 6a 1c df bd 93 cf 46 bd df 8a b5 bc
       -0.14984483 -0.108940914 -0.048537802 -0.022160945
000200 e7 d5 b1 bd 4f cd 0b bc 68 74 ba bd a1 14 5e bd
       -0.08683377 -0.008532836 -0.09104234 -0.054218892
000210 b0 61 92 bd 0c 32 30 3d 81 66 b6 bd ad 94 eb bb
       -0.07147539 0.04301648 -0.0890627 -0.0071893544
000220 92 be 00 be 62 aa 10 bd 11 3f 3a be eb 4c 01 bd
       -0.12572697 -0.03531874 -0.1818812 -0.031567495
000230 af 2a 01 bd 47 1e 57 ba 64 56 96 bc 8b c7 c5 bc
       -0.031534847 -0.0008206111 -0.018351741 -0.024143001
000240 33 86 09 bb 21 d3 2f bd 8c e0 11 be e7 b4 6e bd
       -0.002098453 -0.042925958 -0.14245814 -0.05827799
000250 4a d9 6e 3d 72 c4 f1 3c 5c e4 0e 3b e7 43 10 be
       0.05831269 0.029512618 0.0021803593 -0.14088403
000260 34 c9 c2 bc 4a bd e6 bc 12 56 3e 3c bf 51 b6 bc
       -0.023777582 -0.028166432 0.0116172 -0.022255776
000270 ed 3f ba bd aa 69 36 bc 53 ad ca bd a8 3d ad bd
       -0.09094224 -0.011133591 -0.0989634 -0.084590256
000280 f9 1f 2e 3d 03 82 8b bd 45 0b 11 be 63 8a 92 bc
       0.04251096 -0.06811907 -0.14164455 -0.017888254
000290 d1 52 a9 bd 43 db cc 3b f2 01 21 3c 06 b0 84 bd
       -0.08267749 0.006251724 0.009827124 -0.06478886
0002a0 25 fd 1d 3d 4b e7 2b bc ca dd 3d bd 52 16 65 bd
       0.038571496 -0.010492156 -0.046354093 -0.05592949
0002b0 5e 8d 02 bc ff b0 d7 bc ea 46 31 3d 40 a0 a5 bd
       -0.007968275 -0.026329516 0.04328052 -0.08087206
0002c0 9f 4b 2a 3c 30 34 53 bd 65 95 92 bc a5 7b ce bc
       0.010394006 -0.05156344 -0.017893502 -0.025205443
0002d0 27 ec f5 3c 4e 96 11 bd fb 59 1e 3d 05 09 e5 bd
       0.030019833 -0.035543732 0.03866003 -0.11183361
0002e0 e9 35 b7 3d 87 7d 8d bd 5b 3a 85 bb 5e b7 f6 bd
       0.089458294 -0.06908708 -0.0040657944 -0.12046693
0002f0 54 4c a5 bd 20 b2 05 be 89 41 cb bc 13 00 2a 3d
       -0.08071199 -0.1305623 -0.024811523 0.041503977
000300 48 21 9d 3d b9 7d be bd ba 56 f9 bc c6 24 94 bd
       0.076723635 -0.093013234 -0.030436862 -0.072335765
000310 4d b6 df 3d 43 af ec bd a3 fa 2e be 1b f7 e5 bd
       0.10923443 -0.11556866 -0.17087798 -0.11228772
000320 d4 6d b4 3c 14 f3 8d bd 8b 9d f4 bc 4a 78 31 bd
       0.022025026 -0.06931129 -0.029860279 -0.043327607
000330 76 ef 98 bc 9f 25 a4 bc 29 0e 73 3c b6 43 c4 ba
       -0.018668871 -0.02003747 0.014834919 -0.0014973793
000340 9c 12 46 3c 48 72 97 3c 39 28 d6 3c 80 83 6a 3d
       0.012089398 0.01848711 0.026142227 0.057254314
000350 a6 a9 33 bd 59 6b ab bd 0d f0 8b bd f5 6b 1a bd
       -0.04386296 -0.08370084 -0.068328954 -0.037700612
000360 45 f9 79 bd 0b ff 6e 3d 9b fc dd bd 00 92 2e be
       -0.061028738 0.058348697 -0.10839196 -0.17047882
000370 be b6 56 3d d9 7e e2 3d b9 c6 27 bd aa ca f3 bd
       0.05242037 0.110593505 -0.040961 -0.119038895
000380 03 15 a0 bd 99 1f 6e bd 2a f4 c0 bc 38 b4 22 be
       -0.07816508 -0.058135603 -0.023553926 -0.1588906
000390 17 c2 1b 3d 7f e2 1a bb e3 d5 da 3d fa d7 ff bd
       0.038026895 -0.0023633537 0.10685327 -0.12492366
0003a0 ad 8a 14 3d 76 f5 70 3d fd d8 ba bd 1d 1d 98 3d
       0.036265064 0.05882784 -0.091234185 0.07427428
0003b0 48 e6 4a bd c9 90 73 3d 01 07 9d bd 1e c4 9b bc
       -0.04953602 0.05946425 -0.076673515 -0.019014414
0003c0 40 48 09 bd 43 6a dc bb 31 da 03 bd 4b 04 1c 3e
       -0.03351617 -0.0067265346 -0.032190505 0.15236013
0003d0 56 84 9a 3c 2e ea a7 bd 81 51 39 bd 65 3f a3 bd
       0.01886193 -0.08198963 -0.045243744 -0.07971076
0003e0 88 17 a4 bd da 93 8e bd 1e 02 93 3d 91 66 de 3c
       -0.08012301 -0.06961794 0.07178138 0.027148517
0003f0 cf 2b 5a 3c 47 32 bf bd 60 2c 16 bd 1c 90 87 3d
       0.013316109 -0.093357615 -0.036663413 0.066192836

weight f4 [64, 12, 7, 7]
000000 e1 dd e6 3d 33 9c b7 bd a4 8e 83 bc b0 9a ed 3b
       0.11272789 -0.089653395 -0.016059227 0.007251106
000010 08 c3 33 bd 94 6d b7 b9 d8 7a df bd 6b bf bd 3d
       -0.04388717 -0.00034986122 -0.109121025 0.09265026
000020 30 71 2d bd 39 c8 56 38 70 b3 86 3b db 3c 74 3d
       -0.042344272 5.1208048e-05 0.004110746 0.05962835
000030 ed c7 a0 bc 55 23 ca 3c b9 03 a4 3d a7 74 90 bd
       -0.019626582 0.02467505 0.080085225 -0.070535
000040 a0 c9 10 bc 97 3e ba bd 26 c5 f1 bd 7c 39 bf 3c
       -0.008837134 -0.09093969 -0.11805181 0.02334284
000050 38 fa 81 bc ba e2 de bc 57 31 20 bd 12 f5 1e bd
       -0.015866384 -0.027207721 -0.039109554 -0.038807936
000060 9b 75 63 3d 07 10 55 bd f0 d7 40 3c 77 87 1c be
       0.05553208 -0.052017238 0.0117702335 -0.1528605
000070 f4 e8 28 3d 43 82 e1 bc 98 a8 00 3d 21 ff 34 bd
       0.041237786 -0.027527934 0.031410784 -0.044188622
000080 5d 67 99 bd e3 5f c4 3c c9 f0 75 bd e1 07 1a 3e
       -0.07490418 0.023971504 -0.060044084 0.15042068
000090 5a 01 94 bd 4b a1 82 3c e4 0a 14 bd d6 f8 e5 bd
       -0.0722682 0.015946051 -0.0361432 -0.11229102
0000a0 3c dd 1f be 9e 16 cd bd 31 24 c4 bc a2 5d 2b be
       -0.15611738 -0.100140795 -0.023943039 -0.16734937
0000b0 2e 72 d4 bb 1a bb 13 bd b6 c1 9a 3c 92 55 08 be
       -0.006483338 -0.036067106 0.018891197 -0.13313892
0000c0 c8 d5 07 be 75 f6 b3 bc 7d fc 9e 3d e4 0d 75 bd
       -0.13265145 -0.021968106 0.07763002 -0.0598277
0000d0 f2 d7 fc 3c 46 57 a6 3c 2c 40 bf bd 57 99 b1 bc
       0.03086469 0.020305287 -0.09338412 -0.021679563
0000e0 a5 03 e9 3c 64 fd 2e 3c 5b 25 b8 3d b5 9e fd bd
       0.02844412 0.01068053 0.089915 -0.123837866
0000f0 98 63 5d 3c 1b 60 c9 ba f8 26 16 3d 28 ac 4d bd
       0.0135125145 -0.0015363725 0.036658257 -0.05021301
000100 22 53 98 b9 f9 42 b7 3c b7 94 f1 3b a5 71 b3 3d
       -0.00029053638 0.022370802 0.0073724645 0.0876191
000110 ed 02 3d bd 29 57 0d 3e 14 91 e5 bc 4c 95 18 3c
       -0.04614537 0.1380278 -0.02802328 0.009312939
000120 a8 18 b7 3d dc 76 df bd b4 56 0e 3e 10 1b be bd
       0.0894025 -0.109113425 0.13900262 -0.092825055
000130 7b f1 eb bd b2 8c 03 bd 5f b0 fa 3a e1 e7 42 3c
       -0.11520668 -0.0321166 0.0019126049 0.011896105
000140 79 0e a9 bd e3 84 94 3d b4 e1 52 be f6 3c 5f 3d
       -0.082547136 0.07251909 -0.20593911 0.054501496
000150 48 d2 d0 bc 7d 9f 9c 3d c6 a6 dc bb 14 df 13 3b
       -0.025490895 0.076476075 -0.006733748 0.0022563385
000160 b5 0e 45 3c 80 03 70 be b8 ac 18 3e 1b 6f 7e 3c
       0.012027432 -0.23438835 0.14909637 0.015529419
000170 9b e7 87 bd 44 d2 0c 3e ca f2 13 be e2 a5 14 3e
       -0.06635972 0.13752085 -0.14448085 0.14516404
000180 a2 34 2b be 39 af 3f bc 2f 0d a2 3a 49 ce b9 3b
       -0.16719297 -0.011699491 0.0012363548 0.005670343
000190 ec c8 11 3c ea 2c fe 3c 63 eb 67 3d 62 03 12 3d
       0.008898001 0.031027276 0.056620967 0.035647757
0001a0 10 2b 9b bc 4d 4a 12 3d d8 29 c5 bd 7e 83 5a be
       -0.018941432 0.03571539 -0.09627122 -0.21339223
0001b0 ac 29 71 bd ad 9c 98 3d 2f 18 9c bb 1c ba 93 3c
       -0.058877632 0.074517585 -0.004763625 0.01803308
0001c0 0a c0 fa 3c b2 e9 1f bd 53 dd 96 bd d0 f3 87 bd
       0.03060915 -0.03904123 -0.07366433 -0.066383004
0001d0 72 01 b6 3c 9e ad 38 bd f7 d2 a2 bc ba 68 c4 bc
       0.022217486 -0.04508745 -0.019875987 -0.023975719
0001e0 2d a6 74 bd 37 a6 07 be 54 00 9b 3c ad 96 8a bb
       -0.05972879 -0.13247 0.018921055 -0.0042293877
0001f0 59 d3 44 bc da 20 78 bd b3 af 07 be 18 6c db bd
       -0.01201328 -0.060578205 -0.13250618 -0.107139766
000200 fb 8f 97 bd 3f 1b 4a 3d 84 fc f0 3b de 0e f2 3d
       -0.07400509 0.04934239 0.007354321 0.11819242
000210 a7 88 9e 3d ba c5 e1 bd 31 90 cb bd d1 c1 28 be
       0.07740908 -0.110240415 -0.09939612 -0.16480185
000220 18 e9 71 3d 90 9a 80 ba 69 3a ef 3d fd cf c6 bc
       0.059060186 -0.0009811688 0.11681063 -0.024269098
000230 d3 fc 17 be be e2 83 3c b8 f8 8c be f5 27 1f 3e
       -0.14842539 0.01609933 -0.27533507 0.15542586
000240 ca 05 b2 3c e0 de a9 3d 5d a2 b4 bc 81 de 92 bd
       0.021731276 0.08294463 -0.022050077 -0.071713455
000250 b7 00 5c 3d 95 ad 21 3e ba ca 09 3c dc e6 36 bd
       0.05371162 0.15788873 0.00841015 -0.04465376
000260 15 d5 ed bd a6 0d 39 3c 61 87 a9 ba d7 71 34 3c
       -0.11612908 0.011294758 -0.0012934023 0.01101347
000270 b0 99 9f 3b 99 8e 9b bc 4a 4a d9 3c e1 17 eb bc
       0.004870616 -0.018988894 0.026524682 -0.02869791
000280 d7 b5 9b bd d4 04 01 be 78 fc b7 3b 67 dd 3b 3d
       -0.076030426 -0.12599498 0.0056148134 0.045865443
000290 a8 f7 bd bb 85 28 a2 bd 1e 11 79 3c ce 92 73 3d
       -0.005797345 -0.07917885 0.015201835 0.059466176
0002a0 23 c2 b3 3c 2e 6d d3 3d 10 61 72 bc a0 16 c8 bc
       0.021943158 0.10323559 -0.014793649 -0.024424851
0002b0 5b df da bd c5 d6 4b bd 5e ba ef bd 48 1d 90 3c
       -0.10687133 -0.049765367 -0.117054686 0.017592087
0002c0 e3 ab 8c 3d d2 67 1d 3c c1 0e 6c 3d 73 28 14 bd
       0.06868722 0.009607272 0.057631258 -0.036171388
0002d0 d7 1c 67 bd 2f 59 69 bd b1 81 34 be 3d 88 a4 bd
       -0.05642399 -0.056969818 -0.17627598 -0.08033798
0002e0 b5 56 f5 3d fa b7 a4 3a 52 29 53 bb 23 08 38 bc
       0.11979429 0.0012567036 -0.0032220674 -0.011232409
0002f0 74 76 66 3d bc 8b f0 bd 69 41 a3 bb 2b 18 0d 3c
       0.05626531 -0.11745402 -0.0049821627 0.008611719
000300 85 d6 7e 3d 9c fc 2b be 9e 45 3c 3d 87 61 06 3e
       0.0622163 -0.16795582 0.04596483 0.13123141
000310 b8 40 2e bd 1e 77 92 3a 23 b2 db 3d 5d 8e 21 bb
       -0.04254219 0.0011174416 0.10727336 -0.0024651506
000320 e6 9b 44 be 24 5c 57 3d 72 83 9e 3c 00 af 42 3d
       -0.19200096 0.052578107 0.019349787 0.047530174
000330 74 6e 61 bd 27 f2 a7 bd 92 db a1 3d 27 07 99 3b
       -0.055036977 -0.08200484 0.07903208 0.004670042
000340 e7 77 0d 3e 26 0a e1 bb 43 c3 62 3d 7f a8 9d 3c
       0.1381527 -0.006867665 0.055361997 0.019245384
000350 72 6e 91 3d c5 c0 20 be 64 1e 93 3d 9d 59 9a bd
       0.07101144 -0.15698536 0.07183531 -0.075366236
000360 ff 21 25 be c1 7a e5 bb b5 8e 44 3d 52 f4 36 be
       -0.1612625 -0.007003159 0.04798766 -0.17866638
000370 9d 8c 39 3e c1 dc 27 be e6 26 2d be ac 21 3c 3b
       0.18120046 -0.16392805 -0.1690937 0.0028706593
000380 58 ef fa bc 5c ee db bb 0e 13 03 3d 14 37 98 ba
       -0.030631706 -0.0067117643 0.032000594 -0.0011613094
000390 70 c1 92 3d ce b0 e0 3d 1b 87 98 ba 50 6e 2d 3d
       0.071658015 0.10971223 -0.0011636944 0.04234153
0003a0 f7 3a 85 bc 0a 3f 96 3d f0 55 91 3d a2 ab bf bd
       -0.016263468 0.073362425 0.070964694 -0.09358908
0003b0 c3 43 a3 bb 62 eb fb bd 58 97 a2 bd c3 bf 9e 3d
       -0.004982443 -0.12300755 -0.07939023 0.077514194
0003c0 3a f1 8f bd 06 8e 83 bc 90 c2 c0 3c 5f c8 48 3c
       -0.07028432 -0.016058933 0.023530275 0.012254803
0003d0 af ba 7d 3d 0d a4 e0 3c 3c 48 8c bc 6d 45 18 3c
       0.061945613 0.027421976 -0.017124288 0.009293896
0003e0 45 92 1d bd fc 94 fe bc 37 c3 21 be 14 6c 70 3c
       -0.03846957 -0.0310769 -0.15797125 0.014674205
0003f0 c3 63 1a bc cc eb 97 bd e7 c3 48 bd fe 0f 82 bd
       -0.009423199 -0.074180216 -0.049014952 -0.063507065

weight f4 [64, 64, 3, 3]
000000 d5 62 c8 bd 6c a8 1e bd 0c d1 c7 3e 2c 82 3d bd
       -0.09784476 -0.03873484 0.39026678 -0.04626672
000010 2a 19 03 be d3 f7 27 3c d8 2a 17 3d 89 45 5a be
       -0.12802568 0.010251957 0.036906093 -0.21315588
000020 5f f3 ad 3d 47 54 30 bc 6a 17 06 3c f6 2f d0 3d
       0.08493685 -0.010762281 0.008184293 0.10165398
000030 6d 17 00 bc e4 52 25 3c 5f d9 d6 3c 62 7a b5 3d
       -0.007818085 0.010090563 0.026226697 0.08861233
000040 64 73 03 bd 6f 5e ac bd 6a dc 2e bd 03 4c 8d bd
       -0.032092467 -0.08416449 -0.042690672 -0.06899264
000050 ea 34 39 bd ed 21 17 3e b5 e4 da 3e c8 6f 92 3c
       -0.04521648 0.14759035 0.42752615 0.017875567
000060 5e d9 22 bd e0 a3 82 3c ee de 06 be b6 8b b9 3d
       -0.03975808 0.015947282 -0.13170978 0.09059851
000070 49 db 6c bc f8 0f 93 bd 69 8b 3a bc ba f9 59 bd
       -0.0144565785 -0.0718078 -0.011385777 -0.053216673
000080 99 cb 18 3d 19 61 4b bc 47 fe dd bc 30 d8 42 3d
       0.03730354 -0.012413287 -0.027098788 0.047569454
000090 dd ec 81 bd 96 fe 76 3b cc 25 87 bd 66 0a c6 3d
       -0.06344006 0.0037688366 -0.06599006 0.09669952
0000a0 30 e1 3a bc 25 cc 12 bd 20 8b d7 3a e3 a1 1f bd
       -0.011406228 -0.03583922 0.0016444661 -0.038972747
0000b0 42 37 2f bd 49 e2 16 be f6 e2 10 bd 66 9f 86 bc
       -0.042777307 -0.14734758 -0.035372697 -0.016433429
0000c0 0a a0 f1 3d 9b 0d 66 ba 87 51 ff 3a 4f c8 e7 bc
       0.11798103 -0.0008775831 0.0019479253 -0.028293757
0000d0 e1 15 17 bd 3b b6 2d bd f4 36 b4 bb cc f2 b9 3b
       -0.0368861 -0.042410117 -0.005499715 0.0056746956
0000e0 2f b3 85 bd 4f 86 39 bd e0 51 23 bb 04 32 60 bc
       -0.06528317 -0.045294102 -0.0024920627 -0.0136838
0000f0 16 90 8d 3d d6 71 a3 bc 5d 6d bb bd 8a 94 a5 bd
       0.06912248 -0.019951742 -0.09151719 -0.08084972
000100 f6 e2 e3 bc cd aa 4d 3c 31 1a ef bc 4f 32 86 3d
       -0.027818184 0.012552929 -0.029187294 0.06552564
000110 68 1d a0 3d 5d 2d b4 bd b2 60 4a 3d 09 78 96 bc
       0.07818109 -0.08797715 0.049408622 -0.018367784
000120 6d ae 90 bd 80 0c 7f bc c0 38 1d 3d 48 78 68 3e
       -0.07064519 -0.015566945 0.0383842 0.22702134
000130 46 ef 99 3d 70 30 2b 3e 0d 22 43 3e df dd f0 bd
       0.07516341 0.16717696 0.19055958 -0.117610686
000140 ad b5 a4 bc 77 bf 03 3b a2 e6 42 bd 7f a5 32 be
       -0.020106161 0.0020103136 -0.04758323 -0.17445944
000150 7d 20 f2 bc 03 52 68 bd 87 73 38 be 3b fb b1 bd
       -0.029556507 -0.056718837 -0.1801282 -0.086904965
000160 90 18 1d 39 08 c6 e1 bd 41 cb 3b be 8a 0f b9 bc
       0.00014981837 -0.110240996 -0.18339254 -0.022590417
000170 40 1d 4e 3d bd 23 d0 bd 7b 23 08 3d 64 74 24 bd
       0.050320864 -0.101630665 0.03323696 -0.04015006
000180 68 86 87 bc f8 e7 fb bd cc e1 68 3d bf d3 35 bd
       -0.016543582 -0.12300104 0.05685596 -0.04439139
000190 d5 62 6b bd 11 22 f6 bc 9a d8 ac bd d0 00 9b bc
       -0.0574673 -0.030045541 -0.08439751 -0.018921286
0001a0 22 01 f8 3c d7 d6 56 3d 1a 05 56 bd 19 93 0c 3b
       0.030273978 0.05245098 -0.05225096 0.0021449982
0001b0 6e e1 88 3c 55 b2 cb 3d 0e 65 0a bd 31 dc 38 3c
       0.016709056 0.099461235 -0.03378778 0.0112829665
0001c0 be 7a 3b 3d a9 76 86 be 84 6a 00 3d cb f2 9b bc
       0.045771353 -0.26262406 0.03135158 -0.019036671
0001d0 11 83 2e be 48 97 09 bd b7 0b 1b 3e 02 fa 11 be
       -0.17042185 -0.03359154 0.15141188 -0.14255527
0001e0 cd 83 87 3d c3 42 ba 3d 12 e8 0c bd f3 d3 07 bd
       0.06616936 0.09094765 -0.034401007 -0.033161115
0001f0 f2 03 0b bc ed 3e b6 bd 49 43 11 bd 28 aa 7d be
       -0.008484827 -0.08898721 -0.03546456 -0.2477194
000200 aa a6 f2 bd e5 1f cc bd ea c6 c8 be b5 71 da bd
       -0.11848195 -0.09967021 -0.3921426 -0.10666219
000210 68 d4 1a be 2c 6a 01 be bb c1 eb bd ea 6d 4a bd
       -0.15120089 -0.12638158 -0.115115605 -0.04942123
000220 c0 09 00 3d 9e 9a 95 3d 58 2f 95 3b be 30 8e bd
       0.0312593 0.073048815 0.004552763 -0.069428906
000230 c9 5c 09 bd 6a 52 aa 3c e1 97 01 be 20 ba 80 3b
       -0.033535752 0.020791251 -0.12655593 0.003928438
000240 29 78 a8 3c 2b 2d ab bd a4 ce 93 3d ae d3 45 be
       0.02056511 -0.083582245 0.07217148 -0.1931903
000250 65 9c 58 be f4 a3 72 3e 90 a4 6a be a5 ff 0e be
       -0.2115341 0.23695356 -0.22914338 -0.13964708
000260 dc f5 af 3d 8c 5c 4b bd 8b 7b 5f bd 71 7c e0 bb
       0.08591816 -0.049648806 -0.05456118 -0.006850772
000270 01 35 a1 bd 66 68 85 3b 68 d6 60 3d c1 eb 93 ba
       -0.07871438 0.004071283 0.054891974 -0.001128547
000280 22 56 1d 3d c2 cf a5 bd 14 22 c4 bd e6 f6 5d bd
       0.03841222 -0.08096267 -0.095768124 -0.05419054
000290 e5 00 95 bd e4 50 d6 3b a1 d8 a1 bc fb 44 12 bd
       -0.07275561 0.0065404046 -0.019756617 -0.035710316
0002a0 c6 33 b5 bd 4c 86 13 bd e3 75 32 3d 6a c4 81 be
       -0.088477656 -0.036016747 0.043569457 -0.25345165
0002b0 ec 24 94 be f1 d2 70 be e7 df 85 be 17 22 cf be
       -0.2893442 -0.23517968 -0.26147386 -0.40455696
0002c0 de e8 96 be a9 05 91 be 87 b8 eb bd 57 53 dc bd
       -0.2947454 -0.2832463 -0.11509805 -0.10758083
0002d0 6f 41 82 bd 00 1c a1 bc d0 ee 3e bd f7 d0 85 bd
       -0.06360137 -0.019666672 -0.046614468 -0.065339975
0002e0 de 3c fb bc 42 52 02 3d 65 ae 22 be 48 c0 ba 3d
       -0.030668672 0.03181673 -0.15886839 0.09118706
0002f0 96 e3 85 bc fe 58 40 bd cf 41 10 3e 0e 11 6d bd
       -0.016343873 -0.04695987 0.14087604 -0.057877593
000300 1d 06 e5 bc 44 b8 20 3d bd d5 90 bd 3d 10 9a bd
       -0.027957017 0.03923823 -0.07072017 -0.075226285
000310 7b 01 bb 3d ed 2c e8 3c e4 1d 2d bd 06 68 23 bd
       0.09131142 0.028341735 -0.042264834 -0.039894126
000320 98 a1 f2 bc 9d 8a f3 3c 50 dc 16 3d dc 8d 5a 3d
       -0.02961807 0.029729182 0.0368312 0.053357944
000330 cd 22 82 bd ef 6c 0c 3c 2b 15 cf 3d 1c 02 c7 3d
       -0.06354294 0.008570894 0.10111459 0.09717199
000340 b7 3e 23 bd 4c 61 c0 bd 48 e8 5f 3c 18 a7 3d ba
       -0.03985473 -0.09393558 0.01366622 -0.0007234677
000350 c1 d2 ee 3c b7 55 26 3d 4e 09 fe 3d b7 d0 e3 3c
       0.02915323 0.040609088 0.124041185 0.027809484
000360 aa b5 8d 3d 08 d5 05 bb 32 fd 8a be 66 52 07 bc
       0.06919415 -0.0020421166 -0.27146298 -0.008259391
000370 e9 47 98 be c2 b0 77 be b6 ac 25 3e ea 24 45 bd
       -0.29742363 -0.24188522 0.16179165 -0.048130907
000380 6d 71 6d be 0d 16 7d bd 09 0e 0a bd 51 db 46 bd
       -0.231878 -0.061788607 -0.03370479 -0.048549
000390 97 8d 20 3c 26 f9 12 bc 98 03 93 bd a7 d1 d7 3d
       0.009799383 -0.008970534 -0.0717842 0.10538035
0003a0 c5 b1 5c bd 5e cc 37 bc fd b4 d9 bc e7 16 53 bd
       -0.05388047 -0.0112181585 -0.02657556 -0.051535513
0003b0 70 28 a8 3b 16 ab f7 bc ce dd 04 bd 22 d3 44 bc
       0.0051317737 -0.030232947 -0.032438092 -0.012013229
0003c0 c8 67 8d bd e7 ee ec bc 43 a2 d4 3d 0c bd 39 bd
       -0.0690456 -0.028922511 0.103825115 -0.045346305
0003d0 02 cb 7e 3d 0d 39 04 3c 9d 95 39 3d d3 f9 94 3d
       0.062205322 0.008070243 0.045308698 0.07274213
0003e0 7b a8 00 3e 9b 0f 95 bd eb 2e 2e 3d 75 00 c0 3d
       0.1256427 -0.07278367 0.042525213 0.09375087
0003f0 19 21 97 bd b0 c9 ce bc 8e 3a 9e 3c df fe a0 bd
       -0.0737936 -0.025242656 0.01931503 -0.07861113

bias f4 [64]
000000 93 89 57 bb 66 c9 fb bd 97 12 d8 3c 0e 43 5d bd
       -0.0032888397 -0.12294273 0.026376052 -0.054019026
000010 8f 30 f1 bc ab 70 30 bb a6 a7 28 bc e0 75 e0 3d
       -0.0294421 -0.0026922624 -0.010293877 0.10959983
000020 71 0f a8 3d a0 7c 36 bd 36 b2 a5 3d 15 0e 48 bd
       0.0820607 -0.044552445 0.08090632 -0.048841555
000030 e3 52 d0 3a 1a 28 1f 3a be 38 a0 bc c5 b4 37 bc
       0.0015893843 0.0006071344 -0.019558307 -0.011212532
000040 5a 1e c0 bc a7 af a4 3b ca b3 91 bc 7f 71 1a bd
       -0.023451973 0.005025822 -0.017785925 -0.037705895
000050 ec e5 37 bd f9 2d 1f 3b b3 8f 26 3d a4 84 0b 3d
       -0.044897005 0.0024288876 0.040664386 0.034062043
000060 c2 20 dd 39 ea ee 7d 3d 0b 35 90 3d 7e 35 c2 bc
       0.0004217681 0.061995424 0.07041367 -0.023707148
000070 55 81 cf 3d d4 0c b2 bc 36 38 98 bb 95 fe e5 3c
       0.1013209 -0.021734633 -0.0046453727 0.028075496
000080 f8 35 08 be 05 16 20 3d 5a 06 b4 3b e7 c1 47 bd
       -0.13301837 0.0390835 0.005493921 -0.048768904
000090 98 f4 88 3c e1 8e 3d 3d d6 37 28 3b 11 33 1d bd
       0.016718194 0.046278838 0.0025668046 -0.03837878
0000a0 66 53 15 3c e0 43 c3 bc 14 a9 1c 3e 85 d3 9d bb
       0.009114122 -0.023836076 0.15298873 -0.004816475
0000b0 d0 d2 a8 3b 94 8e 3f 3d 9d 41 08 bb ca fe 56 bd
       0.005152084 0.046766832 -0.0020791062 -0.05248908
0000c0 36 2c fb 3a de dd 9e bc e4 d8 85 bb e1 32 75 3a
       0.0019162956 -0.019392904 -0.0040846933 0.000935359
0000d0 a7 41 7f 3d 54 07 a5 bd f5 f7 75 3d a5 4b 0d bd
       0.06231847 -0.08058038 0.060050923 -0.03449597
0000e0 32 bf ac 3a 3a 64 5e bd fb ea 6f 3d 84 e3 a0 3d
       0.0013179539 -0.054294802 0.058573704 0.07855895
0000f0 b7 13 0c 3b d0 c6 7f 3d 86 96 4e bc 7b 52 08 bf
       0.0021374056 0.06244546 -0.01260913 -0.53250855

weight f4 [64, 64, 3, 3]
000000 c7 17 36 3d 9f d8 4c 3d d6 f1 f4 bc 7d 9b cc bd
       0.04445627 0.050011273 -0.029900473 -0.099905945
000010 2c a2 1b be e2 d4 e6 3d c1 4e 48 bb fe 68 d7 bd
       -0.15198582 0.11271073 -0.003056452 -0.105180725
000020 5f c7 23 3c 3c 5b d6 3c 23 08 89 3b 0b a8 52 3c
       0.009996264 0.02616655 0.004181878 0.012857447
000030 2e 45 c9 bb ec 94 ad bc 2e 31 8a bd a4 cf 4e 3d
       -0.00614228 -0.021189176 -0.067476615 0.05049099
000040 23 d4 15 bd 7f 36 04 3d db 92 2d 3d a1 d1 b1 3a
       -0.036579262 0.032278534 0.04237638 0.0013566503
000050 f1 72 e3 3d 89 a6 f1 bb 17 f7 3a 3d 09 e0 a5 bd
       0.11105908 -0.007374589 0.0456458 -0.08099372
000060 ce 25 83 bd 0b d3 9d bd 34 09 fe bc e0 6c 9e 3d
       -0.06403695 -0.07706269 -0.031010248 0.0773561
000070 d5 4f 27 3b 9f 81 fc 3c 50 23 5c bc d8 93 f5 bc
       0.0025529761 0.030823527 -0.0134361535 -0.029977724
000080 a2 ee 2f 3d ac ff 9c bd 01 23 cb bc e7 58 4a bd
       0.042952187 -0.07665953 -0.024796965 -0.04940119
000090 98 f6 14 3d 0e 68 08 3d 75 3c 1e 3b 96 3c 5e bd
       0.036367983 0.03330236 0.0024144922 -0.054256998
0000a0 12 29 44 bd 5e 87 c9 bc d8 fb 91 bb 4d f8 2f bc
       -0.04789073 -0.02460068 -0.004455071 -0.010740352
0000b0 2c 64 8c bc 9b b3 da bd 76 b7 85 3d c8 be 43 3d
       -0.01713761 -0.10678788 0.06529133 0.047789365
0000c0 19 d1 da 3d 3b 84 ce bc f9 82 74 3d 13 39 8d bd
       0.106844135 -0.025209537 0.059695218 -0.06895652
0000d0 95 d7 15 bd d0 6a 27 3d 20 a8 9d bd 67 25 14 3c
       -0.03658255 0.04087335 -0.07698083 0.009042121
0000e0 b8 32 9e 3c 0b ce 1b 3c 55 bd a7 3c 56 73 91 bc
       0.019311294 0.009509574 0.020476023 -0.017755192
0000f0 11 72 b4 3c 86 8d 52 bd e9 f2 d7 3b be d9 35 3d
       0.022027047 -0.0514045 0.0065902364 0.04439711
000100 1a 65 20 bd 74 fb 1d bd d8 95 11 bc 2d 9c ee bc
       -0.039158918 -0.038569883 -0.008885823 -0.029127205
000110 de 8b 80 3d 03 cc e8 3c f7 c1 a6 bd 16 43 1d be
       0.062766775 0.028417593 -0.081424646 -0.15357623
000120 da f6 94 bd f9 ad 1f bc 84 5c 31 3d 4d 1e 94 3c
       -0.07273646 -0.009746068 0.04330112 0.018080855
000130 61 8e 61 bd c9 dd 5c 3d b6 a5 f7 b9 55 d9 59 bd
       -0.055067424 0.05392245 -0.00047234976 -0.05318578
000140 8a fc 0b bc 26 69 a3 bd 81 70 5a bd 85 70 c5 bd
       -0.008544097 -0.0797904 -0.05332995 -0.09640602
000150 1b cb 22 3e 6c bc 7a bc 9c 7b c6 bb 79 3c 4f 3d
       0.15897791 -0.015303712 -0.006057216 0.05059478
000160 52 05 a8 3d 38 6a c4 bc 17 82 95 bc a3 9b 10 be
       0.0820414 -0.02397643 -0.018250508 -0.1412187
000170 c2 b4 10 bd 40 a6 0f 3d af f8 ff 3d d1 20 34 3d
       -0.035328634 0.035070658 0.124986045 0.04397661
000180 61 8d ec bc 5b c7 4c bd 2e 2d 6f 3b 01 1b 0c 3d
       -0.028876008 -0.049994808 0.0036495435 0.03420544
000190 65 38 8a bd 17 00 21 3d cf 41 af 3d 04 ac 94 3c
       -0.06749038 0.039306726 0.08557474 0.01814843
0001a0 97 db 0f 3c 08 31 80 bc d1 ca 6a 3d ec cb 0d bd
       0.008780382 -0.01564838 0.057322327 -0.034618303
0001b0 d1 66 5b bd 07 ae 04 3b 0a 56 1f bd ec ba 9e bd
       -0.05356485 0.002024533 -0.038900413 -0.07750496
0001c0 6b a2 5e bd 07 0e b8 bc 1e 01 e2 bc 23 88 f5 bd
       -0.054354113 -0.022467626 -0.027588423 -0.11988857
0001d0 c2 8e c6 bd 8d 3f 5d bd 52 37 0d 3d 17 82 66 3d
       -0.09695198 -0.054015685 0.034476586 0.056276407
0001e0 4e 12 9c bd c2 de ed bd 1f 0d 10 bd 25 49 a9 3c
       -0.07620679 -0.11614753 -0.035168763 0.02066476
0001f0 22 17 2b bc 5d b9 5c bd 3c 7f 26 3d e0 ef ca bc
       -0.010442527 -0.053887714 0.040648684 -0.024772584
000200 cf 63 ac ba 46 b2 fe bd a9 31 4b 3b 1b ec 9d 3c
       -0.0013152304 -0.12436347 0.0031004942 0.019277623
000210 ef 03 aa bd 7c ac 87 3c 36 be bb 3d ba f4 03 bc
       -0.083015315 0.01656174 0.09167139 -0.008053953
000220 3e 65 d3 bd 36 5a 79 bd 47 c5 65 3a 24 66 a6 bd
       -0.10322045 -0.060877047 0.00087650534 -0.081249505
000230 0e 09 e7 bc ff a3 d5 bc ee c1 c9 bd 5a d8 a8 3d
       -0.02820256 -0.026079176 -0.09851442 0.08244391
000240 e4 e9 67 3c 99 6e d0 bd 7f d5 79 bc e0 57 47 bd
       0.014154885 -0.10177345 -0.015248655 -0.04866779
000250 84 c4 c3 bb db 1e 89 bd be f4 ff bc 11 79 40 bc
       -0.005974354 -0.06695338 -0.031244632 -0.0117476145
000260 23 60 a1 3c e3 69 d0 bc 5c f0 92 bc 4d 38 85 3d
       0.019699162 -0.025441116 -0.017936878 0.06504879
000270 ff 58 ed 3c 5d 94 d9 bb b7 58 2f bd 4f 22 97 3d
       0.0289731 -0.0066400007 -0.042809214 0.07379591
000280 4f 60 4a 3c 13 7f 1f bd 98 11 b5 bb 94 fc 11 bd
       0.012352063 -0.038939547 -0.005525779 -0.035641268
000290 bf d5 fa bd e5 7e c4 3a 92 71 11 bc ef 2f 57 bd
       -0.122478 0.0014991431 -0.008877175 -0.052535947
0002a0 7c 35 46 3d 3a 35 bd 3a d3 63 99 3b 1d 9a 68 3d
       0.04839085 0.0014435418 0.0046810894 0.0567876
0002b0 af ab 0c bb a6 bc c5 3b 0e 62 28 3d 3e 5c 89 3d
       -0.0021464636 0.0060344515 0.041109137 0.06707047
0002c0 31 a1 e4 ba ad e5 01 3d 7d c4 f4 bd 08 38 c2 bc
       -0.0017443058 0.031713177 -0.1195154 -0.023708358
0002d0 d8 17 13 3d f7 c3 9d 3d 45 99 1d bd 46 8e 80 3d
       0.03591141 0.07703393 -0.038476247 0.062771365
0002e0 5e 6e b7 bd 16 e4 cd 3c 50 bc d4 3d 0b 19 94 3b
       -0.08956598 0.025133174 0.1038748 0.004519587
0002f0 79 ef 77 bd a1 f5 9c 3c c3 45 29 3c 70 a1 ae 3c
       -0.060531113 0.019160094 0.010331574 0.021317214
000300 0d 1a 36 3d b8 59 dd 3c b2 a5 87 b9 16 58 be 3d
       0.044458438 0.02702032 -0.0002587266 0.09294145
000310 86 d5 92 bd 23 7e 44 3b 52 45 b1 ba 99 ae e0 bc
       -0.071696326 0.002998241 -0.0013524687 -0.027427005
000320 a5 b7 8d bd 34 6b cb bc f5 b8 e3 bc ab 88 10 bc
       -0.06919793 -0.024831392 -0.027798155 -0.008821647
000330 7e 35 fb bc 4e 5f 56 3b 60 4f 22 3d 2e 53 80 bd
       -0.030665156 0.0032710615 0.03962648 -0.06265865
000340 76 bc 99 3d 64 32 bc 3d e7 97 20 3c cb 95 fd bb
       0.07506649 0.09189299 0.009801841 -0.007738804
000350 20 b8 5b 3d c5 84 89 bd 6d 39 8d bd 42 68 e8 bc
       0.053642392 -0.06714777 -0.06895719 -0.028370026
000360 c7 2d b9 bc be 7b 9a bd 63 4c a6 3c 1d ca 48 3b
       -0.022604836 -0.07543133 0.020300096 0.0030638047
000370 fb fd 5a bd 01 51 bd bd fe 82 27 bd 02 44 df bc
       -0.05346487 -0.09243966 -0.04089641 -0.027254108
000380 69 7a 08 bd 42 75 9c bd df e4 d4 3d e6 6d 3f bd
       -0.033319864 -0.07639553 0.10395216 -0.046735667
000390 dd d5 60 3b 80 7f 88 3d 2e ec 5f bd 59 b1 28 bd
       0.003430716 0.06664944 -0.054668598 -0.041184757
0003a0 27 19 07 bd 5d be 2a bd 2f 2e 8d 3c 56 7d 5a bd
       -0.03298297 -0.04168545 0.017233936 -0.053342186
0003b0 7d 9b c5 bb 4e 67 5d 3c e6 a7 bd bc 43 07 1e bd
       -0.0060304985 0.013513399 -0.02315135 -0.038581144
0003c0 c8 8a 27 bc dc e1 de bc a1 7f a8 bb 67 2a 1b 3b
       -0.010225959 -0.027207308 -0.0051421677 0.0023676397
0003d0 37 fb ca bd 53 34 8f bd a8 d3 b9 bd e9 55 60 be
       -0.09911197 -0.06992402 -0.09073573 -0.21907772
0003e0 61 a6 d5 bd 64 14 9e 3c 92 01 13 be 6c c5 39 be
       -0.10432125 0.019296832 -0.14356068 -0.18141717
0003f0 60 31 ed bc a0 06 33 3d f3 81 f7 bd 1c 2d 35 bd
       -0.028954208 0.04370749 -0.12085333 -0.044232473

bias f4 [64]
000000 ae 64 58 3b 81 67 b1 3d 15 0e a1 bd 49 22 65 bc
       0.0033018994 0.0866232 -0.07864014 -0.013985225
000010 d3 49 f9 3d 1e de 6d 3e 30 3c 94 3a 98 cf 00 3c
       0.12172284 0.23229262 0.0011309441 0.007861994
000020 ff c6 90 3d 2e b2 14 bd af fe 7d 3c a1 f6 74 bc
       0.070692055 -0.036302738 0.015502616 -0.014951379
000030 eb 7a 81 bd a0 b7 7b bd 39 2f b3 bc 95 40 80 be
       -0.06322273 -0.061454415 -0.021873103 -0.25049272
000040 4f 8c a2 bc 2d e9 d8 ba dd 76 10 3d f5 2e 1e bd
       -0.019842295 -0.0016548984 0.035269607 -0.038619
000050 8d bc 86 3d 71 05 9b bd 9d 25 a3 3e c7 5d 5f bc
       0.06578932 -0.07569397 0.31864634 -0.013633198
000060 ad 39 36 3c ba bc 06 3d 22 e6 87 bd 5c ba 67 3d
       0.011122149 0.032894827 -0.06635691 0.05657421
000070 b0 a1 82 bd a7 ad 9e bc 27 3c 55 bc ad 48 aa 3c
       -0.06378496 -0.019369913 -0.01301483 0.020786608
000080 0a bf 4f bc 7f aa d5 bc 13 d3 c7 3d 29 41 13 bb
       -0.012679825 -0.026082275 0.09757056 -0.0022469258
000090 7d cd e6 bc b8 02 f6 bc 97 6a 06 3d a6 c0 78 3d
       -0.028174156 -0.030030593 0.032816496 0.0607306
0000a0 1d 33 59 bd 7d 86 93 bc 9d 9c fb 3d a5 05 8b 3d
       -0.05302726 -0.018008465 0.12285731 0.06788186
0000b0 3e 30 08 bc 3d 62 0b bd 13 c1 48 bd da 11 5a 3d
       -0.008312283 -0.034029234 -0.049012255 0.05323968
0000c0 33 3d 82 3c 55 bd a0 3d 3a 2d a7 3c 5d 27 71 bd
       0.015898323 0.07848612 0.020407308 -0.05887543
0000d0 4f 3a 93 3d 91 5c 8b 3b 55 e1 32 bd 20 11 fe bc
       0.07188856 0.004252978 -0.043671925 -0.031014025
0000e0 f1 9a b9 bd a8 f3 63 bc d3 a3 2a bd ef c7 a4 3d
       -0.09062756 -0.013913073 -0.04166014 0.08045947
0000f0 3d 16 a1 bd 29 29 a1 bc ff 0f 4a bd c3 0a 86 3d
       -0.0786557 -0.019672947 -0.04933166 0.065450214

weight f4 [64, 64, 3, 3]
000000 08 74 b7 bc 6b 9e 0a 3c 86 66 50 bd 90 f0 7e 3d
       -0.022394195 0.008460621 -0.050879024 0.062241137
000010 57 24 b8 bd f4 54 7a bd ee d0 e9 bd b9 de b5 3c
       -0.08991306 -0.061116174 -0.11416803 0.022200929
000020 24 f9 c9 3c e1 90 3f 3d eb 66 99 bc e8 43 1d 3d
       0.024654932 0.046769027 -0.018725833 0.03839484
000030 db 64 cc bb 36 cf 6d bc ed f7 39 bd 53 a6 a4 bc
       -0.006237609 -0.014514735 -0.045402456 -0.02009884
000040 d8 1b 3b 3d 98 63 d3 bd 51 e5 db bd 46 c6 0e 3c
       0.04568085 -0.103217304 -0.10737098 0.008714264
000050 25 64 9d 3d 1d 80 b8 bc b2 54 8f bc 3a 53 15 ba
       0.07685117 -0.022522027 -0.01749644 -0.00056963007
000060 80 40 ed bc 9c ec a2 3c 9c 15 71 bd 9b 85 0e 3c
       -0.02896142 0.019888215 -0.0588585 0.008698846
000070 c4 a4 41 bd 8a 5c 90 3c 32 58 74 bd ac 00 a2 bc
       -0.047276273 0.017622251 -0.059654422 -0.019775711
000080 14 04 60 3d 3c 87 74 3d c3 0e 83 bd 17 83 19 bd
       0.05469139 0.059699282 -0.063993 -0.037478533
000090 5c 9f 21 3c 61 f5 c2 3c 38 59 2c 3d 8a 4e 7b bb
       0.009864654 0.023798646 0.042077273 -0.0038346373
0000a0 68 75 19 3d 5b 50 60 ba d1 83 da 3c a7 81 22 3d
       0.037465483 -0.0008556896 0.026674183 0.039674427
0000b0 59 4a 19 3c 1c 80 15 3d 77 25 bd 3c 12 4d 45 bd
       0.009356105 0.036499128 0.023089154 -0.048169203
0000c0 9f 64 fe bb 00 3e ae 3a a4 1c a7 bb 79 41 86 bd
       -0.00776346 0.0013293624 -0.00509985 -0.06555457
0000d0 3c 84 1e bd 54 b3 ca bd 2f 1e eb bc 67 ea fa 3c
       -0.038700327 -0.098974854 -0.028700916 0.03062935
0000e0 f2 76 ea bc 65 e7 db bd 08 68 83 bd 97 37 c0 3d
       -0.02862117 -0.107374944 -0.06416327 0.09385603
0000f0 44 98 88 3d 40 a2 a3 bb c9 bb 02 bd d4 f5 98 3c
       0.06669667 -0.004993707 -0.031917367 0.018671907
000100 cb 68 ad bd 14 2e 7a 3d 31 b5 08 3d 30 32 0d 3c
       -0.08467253 0.0610791 0.033375923 0.008617923
000110 4e ba 98 bc 8f 18 f8 bc 8e bb bf bb 08 10 85 bd
       -0.018643524 -0.030285148 -0.0058512157 -0.06497198
000120 43 3b 17 bd 7e 79 00 be a9 7d 30 be fc 5f 0b be
       -0.03692175 -0.12546346 -0.17235436 -0.13610834
000130 81 c1 2e bd f0 f9 fe bd 95 fa 5b bd bf 92 83 bb
       -0.04266501 -0.124500155 -0.05370577 -0.004015296
000140 90 e3 16 bc 86 83 58 3d 4d 8c 21 3d fc f6 df bc
       -0.009209529 0.052859806 0.039440442 -0.027339451
000150 5c 94 9b bc 29 8c d5 bc 35 61 6c bc 82 5b 9f bd
       -0.018991642 -0.02606781 -0.014427473 -0.077811256
000160 29 78 6b 3d 30 0b 88 bd 62 2d 02 3d 5e 3a 2a bc
       0.05748764 -0.06642759 0.03178156 -0.010389892
000170 3d be 81 bd 54 e1 40 3d b0 98 1d be 69 b8 ad bd
       -0.06335113 0.04708989 -0.15390277 -0.08482439
000180 d9 a6 8f bd b9 6e d6 3c d0 d1 ff 3b fe d8 06 3c
       -0.070142455 0.026175844 0.007806994 0.008230446
000190 a6 31 fd 38 1a 6b da bd c3 12 ed bc 46 0e f8 3a
       0.00012073228 -0.10664959 -0.02893961 0.0018925152
0001a0 b7 df 69 bd d0 32 70 bb fc 72 a7 3c 19 9c 77 bc
       -0.057098117 -0.003665138 0.020440571 -0.0151129
0001b0 cc ad 5d bd c5 d5 33 bc 5b 22 9d 3d f5 7e 79 bd
       -0.054120824 -0.01097626 0.076725684 -0.06091209
0001c0 d3 43 a1 bd 24 dc 1c bd bb 6f 47 3c 78 64 8c bc
       -0.078742646 -0.03829588 0.012172635 -0.017137751
0001d0 e7 06 c9 ba 42 49 d0 ba 95 c0 85 3d a1 d3 9d bc
       -0.001533714 -0.0015890973 0.06530873 -0.019265952
0001e0 4b 2f 47 bd c4 b6 68 3d 42 11 d1 bc 3f 83 a5 3c
       -0.048629086 0.056814924 -0.025520924 0.020204185
0001f0 2f 86 8c bb 1a 12 03 bd b9 8d d1 bd 8a de 33 bc
       -0.004288457 -0.031999685 -0.102321096 -0.01097835
000200 ab e6 94 3d dc d5 79 3d cf ba b5 bd c1 95 11 3d
       0.07270559 0.060994968 -0.088735215 0.035543207
000210 a1 eb 80 bd 65 41 4b bd ce 79 4a bd 7d 9d 19 bd
       -0.06294943 -0.049622912 -0.04943257 -0.03750371
000220 6a af 6f 3d 7b fe 8c 3d 6b 9f ca 3b 4a 5b 9f 3c
       0.058516897 0.06884476 0.006183555 0.01945271
000230 ec e9 a3 bc e7 5a 97 bd 75 21 14 3e fe 1a 0b be
       -0.020009004 -0.07390385 0.14465888 -0.13584515
000240 da 25 62 3d 76 17 b0 bd 23 d9 8a 3d 49 2a f2 3c
       0.05521188 -0.08598225 0.06779697 0.029561179
000250 89 3b 37 bd cb 91 5d bc 23 39 34 bd 19 d6 ad bc
       -0.04473451 -0.013523529 -0.043999802 -0.021220254
000260 1a 19 bd bc 9f f2 e6 bc c7 4d a3 bd d6 cf 98 bd
       -0.023083258 -0.028191863 -0.07973819 -0.074615166
000270 96 02 ed bd d5 b6 90 bd fb d5 c3 3c a5 2e 84 3d
       -0.11572759 -0.070661224 0.023905745 0.06454209
000280 65 ac da 3d 5d aa 4c 3c 73 10 99 bc f4 08 36 3d
       0.10677413 0.01249179 -0.018684601 0.044442132
000290 0d c5 84 bd 3a 01 d4 3d 2e 36 b8 3c 6e d7 32 3d
       -0.06482897 0.103517964 0.022486772 0.04366248
0002a0 1f 21 02 3e 46 84 e1 39 a8 cd 8d 3d 50 a6 0c bd
       0.12707947 0.00043013896 0.069239914 -0.034338295
0002b0 27 6b 2f 3d 8f 67 3c be 5d f9 27 bd f4 7c c4 bd
       0.042826798 -0.1839888 -0.041009296 -0.095941454
0002c0 95 c5 96 3c ac ac a9 3d ef 89 7b bc 77 27 dd 3c
       0.018404761 0.08284888 -0.01535271 0.026996357
0002d0 ad f0 2a bd ad a3 88 bc c1 46 7b bc 89 68 09 bd
       -0.041733433 -0.01667961 -0.015336693 -0.033546958
0002e0 4b a6 92 3c cc 91 45 bd c9 e7 d7 3d a9 ab 0c bd
       0.01790156 -0.048234746 0.105422564 -0.034343395
0002f0 a1 4b 45 3d 0b dc 55 3d 4c 77 94 bc 35 47 32 bd
       0.04816783 0.052211802 -0.018123291 -0.04352494
000300 ff 6c 2e bd 50 2c 3a 3c c2 3a c3 3d 04 59 7d bd
       -0.042584416 0.011363104 0.095326915 -0.06185247
000310 63 4a 8c 3d bb 01 09 3e 26 ef d1 3c 55 89 a2 3c
       0.06850126 0.13379566 0.02562673 0.019840876
000320 b7 a2 00 3d 00 c5 1f bd b6 96 fb bc c6 9a 74 bd
       0.031405177 -0.039006233 -0.030711513 -0.059717916
000330 32 4c 91 3d 86 76 1a 3d 29 00 ae 3c 34 93 d7 bd
       0.07094611 0.03771069 0.02124031 -0.10526124
000340 e7 85 3e 3d de 92 13 be b9 fb 11 3e fb 14 90 bc
       0.046514418 -0.14411494 0.14256181 -0.01758813
000350 c5 54 a1 bc 48 7e ba 3d 08 51 14 3e 9e db 22 3d
       -0.019693742 0.091061175 0.14484036 0.039760225
000360 1d f4 fb 3b 62 d5 2c ba aa 72 74 bd e3 a1 3b 3d
       0.0076890127 -0.0006593076 -0.059679665 0.045808684
000370 5c 2e 2f bd 8e ca 2f bd e3 d9 04 3d ef b9 01 3d
       -0.04276882 -0.04291778 0.032434355 0.03167146
000380 a2 73 91 bd 07 c9 3b bd df 76 b6 bd 07 6d 74 3d
       -0.07102133 -0.04584601 -0.089093916 0.05967429
000390 ea 46 d8 bb 9d 51 d5 bc 42 cd 62 bc 2c e1 7c 3d
       -0.0066002505 -0.026039893 -0.013842883 0.061738178
0003a0 3b 46 a2 3d a5 22 2d bd c6 0f f3 bc fe f2 f9 3c
       0.07923552 -0.042269368 -0.029670607 0.030511376
0003b0 2a 0f 35 bd df 6e 03 bd 74 c5 2d bd 78 23 9b 3c
       -0.044203915 -0.032088157 -0.042424634 0.018937811
0003c0 fa 7e b7 3c a4 c6 45 bd b9 3c 88 3d 3a c6 ff bc
       0.022399414 -0.04828514 0.06652207 -0.031222451
0003d0 99 7c bd 3c 6c 91 ab bc 47 62 ce bc 12 a2 30 bc
       0.023130702 -0.020943366 -0.025193347 -0.010780828
0003e0 ae e2 3a bd f0 97 5c 3d ff ae 20 be 6e d1 8b bd
       -0.045626335 0.053855836 -0.15691756 -0.06827055
0003f0 ef fa 1d 3d 76 b2 20 bd 38 9d 0a bd 71 1e a7 bd
       0.038569387 -0.039232694 -0.03384134 -0.08160103

bias f4 [64]
000000 7b 7a 1a bd b2 84 01 3d 08 13 97 bc 09 fb 4b bd
       -0.037714463 0.03162069 -0.018441692 -0.049799953
000010 91 29 5a bd 82 8d b8 bd 0b 51 42 3c fc 18 90 3b
       -0.053262297 -0.090113655 0.011860142 0.0043975096
000020 bc 4e a5 3c 39 94 e8 bc e9 28 4c bc 64 8a 56 bb
       0.020179145 -0.02839099 -0.012460926 -0.0032736296
000030 b9 6a d6 3c 50 f9 0b bd 72 d6 0e bd 11 ac 35 3d
       0.026173936 -0.03417331 -0.03487248 0.04435355
000040 e5 14 aa bd f6 d5 19 3d c2 bc d2 bb fc 45 36 bc
       -0.083047666 0.037557565 -0.006431193 -0.011125084
000050 07 b7 6b 3c 91 66 ac bd 7f ba c4 bc 0f 73 0e bd
       0.014386899 -0.084180005 -0.02401471 -0.034777697
000060 7f 13 d4 39 ad 6e 3c 3d 02 79 af bd 0e 28 08 3c
       0.00040450317 0.046003986 -0.08568002 0.008310331
000070 08 a8 5c bd d2 da 49 bd 2a 11 9d bc 5d c0 76 3d
       -0.053871185 -0.04928095 -0.019173224 0.060242046
000080 31 45 ba 3c 69 58 81 bc 47 2f 4b bd 84 cb 4b bd
       0.022738071 -0.015789228 -0.049605634 -0.049754634
000090 e9 12 88 bd 21 b6 55 3c 36 48 d0 bb a0 b5 c7 bc
       -0.06644232 0.013043911 -0.0063562645 -0.024378598
0000a0 3c fa 98 3a fe 47 60 3d 0e ad 08 bd 53 d0 e0 bb
       0.0011671255 0.054756157 -0.033368163 -0.0068607717
0000b0 22 3e b6 bc e5 8c c3 3c 19 14 8e bd 2a cc a0 bc
       -0.022246424 0.023870895 -0.06937427 -0.019628603
0000c0 61 84 84 bd fe 90 c2 3c 41 fc 88 bd a6 f9 ff 3b
       -0.06470562 0.023750778 -0.066887386 0.007811743
0000d0 9e 6b 99 3b 76 bd 6c bd 08 45 91 bc b0 ed c7 bd
       0.0046820184 -0.05779787 -0.017733112 -0.09762132
0000e0 eb ec ca bc fe e1 ae bc 8a 52 91 bd ee 50 84 bd
       -0.024771174 -0.021347996 -0.07095821 -0.064607486
0000f0 b3 33 38 bd 72 6e 01 bd e1 dd 4f bd d2 91 e2 3b
       -0.04497118 -0.03159947 -0.05074871 0.006914356

weight f4 [12, 64, 3, 3]
000000 32 3b 9a 3d 23 11 24 3d aa 7d cd ba 13 5f a8 3c
       0.07530822 0.040055405 -0.001567771 0.020553147
000010 1d 76 21 3d 75 c2 0b 3b 6e 68 49 3d 6d 7f 69 bd
       0.039419282 0.0021325622 0.049171858 -0.05700629
000020 7f 57 8c 3d 30 6f a3 bc 9c 89 e5 3d f4 f9 ae bc
       0.06852626 -0.01995048 0.112078875 -0.021359421
000030 7d 6e 73 bd 61 4b 29 bd ce 3b fd 3c 78 07 ba 3c
       -0.05943154 -0.041331653 0.030912306 0.02270864
000040 dc 21 a2 bc 77 92 9a bb 1d 09 14 3c 4b c8 d1 bb
       -0.019791536 -0.004717167 0.009035376 -0.0064020506
000050 98 03 5c bc 32 75 6b bc a9 bb 9a 3d 82 c8 20 bd
       -0.013428591 -0.014371203 0.075553246 -0.03925372
000060 f4 f4 95 bb f8 d9 08 bc 5b 8c d7 3b 3f 0d 80 3d
       -0.00457632 -0.008352749 0.006578011 0.062525265
000070 1e 86 cc bd c6 2a 61 3c 52 85 a2 bb 9a 16 b5 3c
       -0.09986518 0.013743108 -0.0049597407 0.022105504
000080 3d 37 4e 3e dd 3e 38 bd 00 a6 19 bd 04 ea d3 bd
       0.20138259 -0.044981826 -0.037511826 -0.10347369
000090 e1 e6 c5 3d a5 45 a0 3d bf 9a 14 bd 4e df 1e 3d
       0.09663177 0.07825784 -0.03628039 0.03878718
0000a0 8c 80 8a bd 26 31 cb bd 2a a4 f6 3c a5 9b 00 3b
       -0.067627996 -0.09921484 0.030107576 0.0019624021
0000b0 6b 02 57 bd d3 52 49 3c d8 0d de bc 7d 01 0c 3a
       -0.05249254 0.012287813 -0.02710621 0.0005340798
0000c0 c8 8e cf 3a 63 ae 80 3d ae 50 14 bc 86 af 5d bc
       0.0015835399 0.062832616 -0.009052439 -0.013530618
0000d0 43 16 87 bc 4c 6b 0e 3c 8b aa a3 bc bf 89 93 3c
       -0.016490107 0.008692574 -0.019978782 0.018010018
0000e0 ac 98 09 3d 12 c6 f3 3c 0f 2b b9 bd 30 ee 90 bd
       0.033592865 0.029757533 -0.09041416 -0.07076681
0000f0 0f 6f 4a 3c e3 09 15 be 35 fc 54 bd b8 ee 84 3c
       0.01235558 -0.14554553 -0.051998336 0.016227111
000100 f4 f4 2a 3e 1c 56 56 3d 3c d8 d5 3c 70 e1 bb bc
       0.16695005 0.052328214 0.026104085 -0.022934645
000110 ce 78 68 3d df a0 d2 bd d9 7b d4 bd f6 d0 c9 bd
       0.056755833 -0.1028459 -0.103751846 -0.09854309
000120 92 5c 86 bd 18 8f 91 bd e4 e2 17 bd ab 9d 8e 3d
       -0.06560625 -0.07107371 -0.037081614 0.069636665
000130 48 7b 94 3c 94 16 06 bd f0 78 00 3e 14 ad e5 bc
       0.018125191 -0.032736376 0.12546134 -0.028036632
000140 49 b3 32 3d f8 20 50 bb 20 c4 5c bd 3c 15 83 bc
       0.04362801 -0.0031757932 -0.053897977 -0.016001336
000150 fd 82 3a 3a 50 56 47 3d 26 72 69 bd d6 6b 33 3d
       0.00071148557 0.0486663 -0.056993626 0.043804012
000160 b5 5c 74 3d 41 2c 71 3d aa 6b b8 3d 3b 0d 54 bc
       0.059658725 0.058880094 0.0900491 -0.0129426075
000170 db ee dd bd ad 03 e0 ba 18 f2 87 bd 42 21 d6 3c
       -0.10836574 -0.0017090939 -0.066379726 0.026138905
000180 eb d5 36 3d e3 f8 d8 3c 77 8c 62 bc 96 2d e2 3c
       0.0446376 0.026485866 -0.013827435 0.027609628
000190 d2 a7 ef bc 2b 60 1f bd ed e8 3f 3d 42 3f 0d bd
       -0.029254828 -0.038910072 0.046852995 -0.034484155
0001a0 d1 89 d9 3d 57 22 e3 bc 36 4e 04 3c 32 9d 07 bd
       0.106219895 -0.027726335 0.008075288 -0.033108898
0001b0 5e 52 27 3a 51 e6 43 bd 9f 93 2f bd c5 59 79 3c
       0.0006382818 -0.04782707 -0.04286539 0.015219157
0001c0 80 5d 76 3c 91 fb 2d 3d 96 d9 89 3b 50 aa 5c 3d
       0.015036941 0.04247624 0.0042068465 0.05387336
0001d0 70 25 1c bd d6 87 07 3d 62 27 bf 3b f8 45 d8 bb
       -0.03812164 0.033088528 0.005833552 -0.006600138
0001e0 43 45 07 3d a0 21 76 3d a1 82 1d bd 14 16 b9 3b
       0.033025037 0.06009066 -0.038454656 0.005648384
0001f0 b9 c9 6b bc 3b 37 9f bd 91 91 9a bd 2b 2e 99 bc
       -0.014391356 -0.07774206 -0.07547296 -0.018698772
000200 03 82 15 3d 66 9d b8 bd 3a 60 8d bc 4b 0e 54 3d
       0.036500942 -0.09014396 -0.017257798 0.051771443
000210 7b b8 91 3c d1 5a 4c 3d 9b 08 59 3d 89 83 8d 3c
       0.017788162 0.049891297 0.052986722 0.017274635
000220 5f 39 45 bd 19 bf e0 bb 84 31 ae 3d b9 83 00 bc
       -0.048150416 -0.006858718 0.08505538 -0.007843905
000230 a4 bf f8 bc 54 fc 1e bd 70 fa e9 3a da e8 93 3c
       -0.030364819 -0.038814858 0.0017851125 0.018055368
000240 29 f4 4f bd 29 f9 73 bc 59 14 82 bd a2 2e 86 3d
       -0.05076996 -0.014890947 -0.06351537 0.06551863
000250 c7 4f 19 3e 9c b9 d1 3b 06 65 25 bd 1a d8 1e 3d
       0.14971839 0.0064003 -0.040379547 0.03878031
000260 19 91 b4 bd 5a 1b f0 3d ec 24 1d 3e 88 35 a8 bd
       -0.08816738 0.11723967 0.15346116 -0.08213335
000270 68 aa c3 3d 03 7e 8f 3d b2 f0 13 be b7 5f 14 3d
       0.09553987 0.07006457 -0.14447287 0.036224093
000280 bf 81 5e 3e 67 dc b1 be f9 b8 ee bd de da cb 3d
       0.21729182 -0.34738466 -0.116563745 0.09953855
000290 b0 07 a0 3c f3 a1 49 3b 1c 84 d2 3d a1 0b 1c bd
       0.019534916 0.0030766695 0.10279104 -0.038097028
0002a0 40 31 1d be d8 cf cf 3c f6 3c 71 bb f4 b0 73 bd
       -0.15350819 0.025367662 -0.0036810017 -0.059494928
0002b0 f5 2a 72 bd 2b 19 b2 3b f6 6c fd 3c df b2 96 3d
       -0.059123 0.005435129 0.030935746 0.07358336
0002c0 a5 ff be bc ee 12 27 3d 5d 55 84 3c fa 73 8d bc
       -0.02331526 0.040789537 0.016153986 -0.017267216
0002d0 5e 3b b2 bc c4 7a b0 3c c8 4b 85 3c c3 4b 26 bb
       -0.021756824 0.021542914 0.016271487 -0.0025374747
0002e0 74 c2 6f bd ca 20 03 3d 63 f1 2d 3c 2f c6 d2 3c
       -0.058535054 0.032013692 0.010616633 0.025729267
0002f0 09 67 8f bc 3f 4a 05 3d 3a a7 43 bd 2d 48 fc 3b
       -0.017505186 0.03254151 -0.0477669 0.0076990337
000300 fa 9d ab bb 70 6d 66 bc f1 48 42 3c 59 e7 93 3c
       -0.005237338 -0.014064178 0.011858211 0.018054651
000310 62 08 87 bc 73 c2 5d bb 2a c5 52 bc 89 16 b1 bc
       -0.01648349 -0.0033837825 -0.01286439 -0.02161719
000320 b9 3f 6d ba 52 70 56 bc de b0 6f 3a 97 51 99 bc
       -0.0009050328 -0.013088303 0.0009143482 -0.018715663
000330 2f 59 e5 3c 4b 16 ff 3c ab 1b 90 3a 8d 6d ea bc
       0.027996628 0.03113856 0.0010994574 -0.028616691
000340 f3 84 b6 bd c2 10 c9 3d 4a 1c af bd b6 7c 93 3d
       -0.08912077 0.098176494 -0.085503176 0.07201521
000350 0c 2b 85 bd e6 7d 81 bd e8 0c b0 3c 3e 3f 84 3b
       -0.06502351 -0.06322841 0.02149053 0.0040358594
000360 ab 72 a2 bb 8c 38 e3 3b 0e ba ff bc 73 6c cf 3d
       -0.004957517 0.006934231 -0.031216647 0.10128107
000370 ca f5 6e 3d 9f 8b d2 bd e1 ae b1 ba de 75 fc 3b
       0.05833987 -0.10280537 -0.0013556146 0.0077044806
000380 60 18 19 bd 2d c0 38 3c 8b fd 60 bd f2 cc 01 bd
       -0.03737676 0.011276287 -0.054929297 -0.03168959
000390 51 6d 0d 3d 9d eb 28 3d c4 f7 eb 3d e6 f2 4b bc
       0.03452808 0.041240323 0.11521867 -0.012448048
0003a0 de a2 fb bc 6e 2f 01 bd 94 ca 9d 3a 3e ee 08 bd
       -0.03071731 -0.031539373 0.0012038522 -0.03343033
0003b0 41 da 00 bd e3 2c 89 bc a0 c0 99 bc 31 36 08 bc
       -0.031458143 -0.016745036 -0.018768609 -0.0083137015
0003c0 df d0 90 bb d9 8e 4f 3d 2f 79 be 3b 7e 37 76 bd
       -0.0044194306 0.05067334 0.005812786 -0.060111515
0003d0 3b ec a4 3d 37 6e 80 bb 72 0a 16 bd 49 a2 ee 3d
       0.0805287 -0.0039193886 -0.036631055 0.11652047
0003e0 09 c2 b0 3c c6 b9 46 bd d0 eb 19 bd bd bb 55 bd
       0.021576898 -0.04851701 -0.037578404 -0.052180994
0003f0 83 4f 53 bd ce 23 40 bc e9 54 39 3b 76 a2 f2 3c
       -0.0515895 -0.0117272865 0.002827937 0.029618483

bias f4 [12]
000000 1c e6 57 3b 30 ce 4b 3b e9 50 92 ba 5f f0 29 3b
       0.0032943552 0.003109824 -0.0011163029 0.0025930626
000010 de bd 77 3b 39 3a b1 3a 40 4f 85 bb c1 ef ad 3b
       0.0037802379 0.001352138 -0.004068285 0.005308122
000020 67 82 e5 3b 20 ff 30 bb d2 d5 73 3c f8 cc 7e bc
       0.0070040706 -0.0027007535 0.014882522 -0.015551798
