train_weight_sr2/model_epoch_17.pth (torch_old, 667646 bytes, 10 tensors)

weight f4 [12, 3, 13, 13]
0	0x3d4ecc90	0.050488055
1	0xbdca74e4	-0.09885576
2	0x3c19d496	0.009389063
3	0xbcf2267b	-0.029559365
4	0xbd0c454c	-0.034245774
5	0xbd929c80	-0.07158756
6	0x3d4d83e2	0.0501746
7	0x3d280688	0.041021854
8	0xbe3136d3	-0.1730607
9	0x3dbf24fb	0.09333225
10	0xbcf79bc3	-0.03022564
11	0xbd8123df	-0.0630567
12	0xbe0059cc	-0.12534255
13	0x3cc599b7	0.024121149
14	0xbe00ecac	-0.12590283
15	0xbdb0780a	-0.08616646
16	0xbdab9e2d	-0.08379779
17	0x3dbe6d47	0.09298187
18	0x3c079360	0.008274883
19	0x3d0816a6	0.033224724
20	0xbe057bda	-0.13035527
21	0xbdedcdcf	-0.116115205
22	0xbd80afe0	-0.062835455
23	0xbd094cf7	-0.033520665
24	0xbd92f362	-0.07175328
25	0xbd9ff3f7	-0.078102045
26	0xbd8f8204	-0.070072204
27	0xbde2a225	-0.11066083
28	0x3bb6db3e	0.005580335
29	0x3bd3abb8	0.0064596795
30	0xbd3cfa18	-0.046136945
31	0xbdbfe716	-0.09370248
32	0x3ca96100	0.020676136
33	0xbda8f905	-0.08250622
34	0xbdf65108	-0.12027174
35	0x3cafc669	0.021456914
36	0x3c9d0c74	0.019170977
37	0xbd9291ea	-0.07156737
38	0xbb2827f5	-0.0025658582
39	0xbc5d249b	-0.013497497
40	0xbe09d18d	-0.13458844
41	0xbe0d5b53	-0.13804369
42	0xbd8e63e8	-0.06952649
43	0xbcc57e4d	-0.024108076
44	0x3cfd8d45	0.030951152
45	0xbda41aee	-0.08012949
46	0xbe4d512d	-0.20050497
47	0xbe27a607	-0.16371928
48	0xbe4690ab	-0.19391124
49	0xbcb9e9f9	-0.022694575
50	0xbce307c1	-0.027713658
51	0xbdfef9ba	-0.12449975
52	0xbd99ad26	-0.075037286
53	0x3d981f31	0.07427824
54	0xbdc80fdf	-0.09768652
55	0xbe0ee763	-0.13955455
56	0xbe1b2cbe	-0.15153787
57	0x3d278403	0.04089738
58	0xbda724dd	-0.08161328
59	0xbd40c81e	-0.047065847
60	0xbdebea99	-0.11519355
61	0xbd6ca11d	-0.057770837
62	0xbe047d9d	-0.12938543
63	0xbd9e8746	-0.07740645
64	0x3c90cc00	0.0176754
65	0xbc755aa2	-0.014975222
66	0x3b2c6448	0.002630489
67	0x3da81793	0.082076214
68	0xbccf6215	-0.025315324
69	0xbd9a6f48	-0.075407565
70	0x3cc76c10	0.02434352
71	0xbddfe2d0	-0.10931933
72	0x3c4f7ace	0.012663556
73	0xbe4e3b8a	-0.201399
74	0xbd1e8d9c	-0.038709268
75	0x3bafce26	0.005365151
76	0xbdb10b76	-0.08644764
77	0xbdfbee96	-0.12301366
78	0x3b2c2588	0.0026267488
79	0x3df366fb	0.11884876
80	0xbd94642d	-0.072456695
81	0xbbdf32df	-0.006811484
82	0xbd8aaaeb	-0.06770881
83	0x3a1ba4cb	0.0005937337
84	0xbcac1cbd	-0.021009797
85	0xbde5f341	-0.112280376
86	0xbe2db3a6	-0.16963062
87	0x3be1ccc8	0.006890867
88	0x3e1ed26f	0.15509962
89	0x3ca22b58	0.019796059
90	0xbd42fcf3	-0.047604512
91	0xbc93e1c0	-0.018051982
92	0xbbae4197	-0.0053178775
93	0x3cbda086	0.023147833
94	0x3d4de63a	0.05026839
95	0xbe16fd61	-0.14745094
96	0xbda03bd3	-0.078239106
97	0x39b2ac43	0.0003407915
98	0xbda09052	-0.07840027
99	0xbe226499	-0.15858687
100	0xbe0a7909	-0.13522734
101	0xbc9bd441	-0.019022109
102	0xbdfd7b8d	-0.12377081
103	0xbd3963bf	-0.04526114
104	0xbda12855	-0.07869021
105	0x3c3e5bc5	0.011618559
106	0x3c7ad670	0.015309915
107	0xbd4ae517	-0.049534883
108	0x3a91e909	0.0011132072
109	0xbda51a9a	-0.080617145
110	0xbc6496d0	-0.013951972
111	0x3d59e7a4	0.053199425
112	0xbe42750f	-0.18989967
113	0x3cac6fdb	0.02104943
114	0xbe3754c4	-0.1790343
115	0xbcf7da1b	-0.030255368
116	0xbd6ba18d	-0.057527114
117	0x3db839e8	0.0899542
118	0xbd9b513c	-0.075838536
119	0x3d0db21a	0.03459368
120	0xbd83b5de	-0.06431173
121	0xbe5f5ad2	-0.21811989
122	0xbcf5edb8	-0.03002058
123	0xbd85c620	-0.0653193
124	0xbe1a06ea	-0.150417
125	0xbe10937b	-0.1411876
126	0xbd8e8da9	-0.06960613
127	0xbcb796ef	-0.022410838
128	0xbdb2a694	-0.087231785
129	0xbc0654ac	-0.008198898
130	0xbdac1887	-0.08403116
131	0xbd5dc14b	-0.054139417
132	0xbd8dd0f7	-0.069246225
133	0x3d302da3	0.043012273
134	0xbdb326a7	-0.08747607
135	0xbbe9ba4f	-0.0071328054
136	0xbe0116af	-0.1260631
137	0xbd1d3ba1	-0.038386945
138	0xbe56a0b6	-0.20959744
139	0xbd65eced	-0.056134153
140	0xbcffed47	-0.031241072
141	0xba699615	-0.00089106086
142	0xbc9470ae	-0.018120136
143	0xbc729141	-0.014805139
144	0x3bec0bbb	0.007203547
145	0xbcdff9e3	-0.027340835
146	0xbe085db8	-0.13317001
147	0xbd5298a7	-0.051415112
148	0x3d7f54a6	0.062336586
149	0x3cdc612c	0.026901804
150	0xbad25b30	-0.0016048905
151	0xbe258c83	-0.16166882
152	0xbd11c000	-0.035583496
153	0xbce2a68b	-0.027667305
154	0x3c40acc4	0.011759941
155	0xbcb6d735	-0.022319416
156	0xbd82cec5	-0.063870944
157	0x3c538543	0.01291019
158	0xbd89f141	-0.06735469
159	0xbd69547c	-0.056965336
160	0x3d817ef5	0.06323043
161	0xbd6c8160	-0.05774057
162	0xbe129f70	-0.14318633
163	0xbcacc78c	-0.021091245
164	0xbddbec7e	-0.10738467
165	0xbb6d5b6f	-0.0036217829
166	0x3c217929	0.009855547
167	0xbd85807e	-0.065186486
168	0x3d1587b9	0.03650639
169	0x3c5d0bde	0.013491599
170	0xbd0cb494	-0.0343519
171	0xbd5935ef	-0.05302995
172	0xbbd5ccfa	-0.0065246793
173	0xbc0b5fba	-0.00850671
174	0x3d75ac3a	0.0599787
175	0xbd82f48d	-0.063943006
176	0x3cc62981	0.024189712
177	0xbd309971	-0.043115083
178	0x3c308067	0.010772801
179	0xbcad373a	-0.021144498
180	0x3cdedc8c	0.027204774
181	0xbcea38be	-0.02859151
182	0x3d341542	0.043965586
183	0xbde04a04	-0.10951617
184	0x3dbcf0e7	0.09225636
185	0xbd8b1dda	-0.06792803
186	0x3bafc1dd	0.0053636865
187	0xbde1bec1	-0.110227115
188	0xbd84af81	-0.06478787
189	0xbe00b799	-0.12570037
190	0xbcf0b84d	-0.029384756
191	0x3d8168be	0.06318806
192	0x3dac5289	0.0841418
193	0xbdbd30af	-0.09237801
194	0xbcc465b8	-0.023974285
195	0xbd8d09c4	-0.06886628
196	0x3de44664	0.111462384
197	0xbde8f122	-0.113741174
198	0xbe2d9a7d	-0.16953464
199	0xbdde4b4a	-0.10854204
200	0x3ce5bce1	0.028044166
201	0xbd809d33	-0.06279983
202	0xbd0c276d	-0.034217287
203	0xbd66689b	-0.056252103
204	0xbca7a7f2	-0.020465825
205	0xbc9ec9b1	-0.019383283
206	0x3c8136b8	0.015773162
207	0xba334338	-0.00068383245
208	0x3cb179d8	0.021664545
209	0x3cabdf14	0.020980395
210	0x3cb28968	0.021794036
211	0x3d5cb986	0.053887866
212	0xbd2ddbe5	-0.042446036
213	0xbda565b3	-0.08076038
214	0xbd831d94	-0.06402126
215	0xbcf3bf19	-0.029754208
216	0xbd75b5a7	-0.05998769
217	0x3d79a450	0.060947716
218	0xbde47a65	-0.111561574
219	0xbe2bb83f	-0.16769503
220	0x3d604b54	0.05475934
221	0x3de80d47	0.113306575
222	0xbd38190d	-0.044945765
223	0xbdf0a6b0	-0.11750543
224	0xbd9d4362	-0.07678868
225	0xbd69d151	-0.057084385
226	0xbcb935ec	-0.02260872
227	0xbe20b63c	-0.15694517
228	0x3d2ecd13	0.042676043
229	0xbcb66852	-0.02226654
230	0x3dcecff7	0.1009826
231	0xbe10f53a	-0.14156047
232	0x3d256485	0.040379066
233	0x3d807914	0.06273094
234	0xbdae3d5f	-0.08507799
235	0x3d894b3b	0.06703802
236	0xbd035017	-0.0320588
237	0x3d9b7e54	0.075924546
238	0xbd99649e	-0.07489894
239	0xbc96000a	-0.018310566
240	0xbcf8b4f6	-0.030359726
241	0xbc0c8fbb	-0.00857919
242	0xbd608d31	-0.05482215
243	0x3e26a7ed	0.16274996
244	0x3b857510	0.004072793
245	0xbda4dfb7	-0.08050483
246	0xbd2e0dca	-0.04249362
247	0xbd9344de	-0.0719087
248	0xbdb9d6c4	-0.090741664
249	0xbd5bb1d3	-0.053636383
250	0x3db9e48f	0.09076797
251	0x3ce70f48	0.028205529
252	0x3c4af70d	0.012388003
253	0xbdb9d1be	-0.09073208
254	0xbd1d4a7d	-0.038401116
255	0x3d3a579c	0.045493707

weight f4 [64, 12, 7, 7]
0	0x3e0642e5	0.13111456
1	0xbda23591	-0.07920373
2	0xbc84ceab	-0.016211828
3	0x3bec652d	0.0072142095
4	0xbd35cc8b	-0.04438452
5	0xbad837de	-0.0016496142
6	0xbde01a6f	-0.10942542
7	0x3dabfe3e	0.08398102
8	0xbcc41f6c	-0.023940764
9	0x3783a749	1.5694315e-05
10	0x3b8d2716	0.004307638
11	0x3d71dc81	0.05904818
12	0xbca2a750	-0.019855171
13	0x3cc66fce	0.024223235
14	0x3d6cbd7b	0.05779789
15	0xbd4501cc	-0.048097417
16	0xbc11d6fd	-0.008901355
17	0xbdba3bf8	-0.090934694
18	0xbdf31ec3	-0.11871102
19	0x3cc4a3fa	0.024003971
20	0xbc866a79	-0.016408192
21	0xbd0fa8b4	-0.035072997
22	0xbc4438fb	-0.011976476
23	0xbd23a5ac	-0.03995292
24	0x3d633d85	0.05547859
25	0xbd5c226c	-0.053743765
26	0x3c76dbd7	0.015067062
27	0xbe1c246f	-0.15248273
28	0x3d531c18	0.051540464
29	0xbc101227	-0.00879339
30	0x3cf239ed	0.029568637
31	0xbd3552a6	-0.044268273
32	0xbd98a246	-0.07452826
33	0x3cbd59db	0.023114135
34	0xbd351b62	-0.044215567
35	0x3e223598	0.15840757
36	0xbd75b6ad	-0.059988666
37	0x3c81e84a	0.015857834
38	0xbd13ef72	-0.036117025
39	0xbdea904d	-0.114533044
40	0xbe1fe2c2	-0.15613845
41	0xbdcd8c2d	-0.10036502
42	0xbccaa8ef	-0.024738757
43	0xbe2d5007	-0.1692506
44	0xbbd70f5d	-0.0065631107
45	0xbd13b228	-0.036058575
46	0x3c9bd69e	0.019023236
47	0xbe087a86	-0.13327989
48	0xbe0786dd	-0.1323504
49	0xbc8ee070	-0.017441005
50	0x3d33d6b2	0.04390592
51	0xbd54b29e	-0.051928155
52	0x3d5c6c6d	0.05381434
53	0x3c96845a	0.018373657
54	0xbd8b9d09	-0.068170615
55	0xbcd90620	-0.026492178
56	0x3c89a879	0.016803967
57	0xba4b6212	-0.0007758449
58	0x3ddd63ba	0.10810037
59	0xbe07572a	-0.13216844
60	0x3d18da36	0.037317477
61	0x3d06c916	0.032906614
62	0x3c1c56ad	0.0095421495
63	0xbcc1185d	-0.023571188
64	0xbc14b0bb	-0.009075339
65	0x3cb47935	0.022030452
66	0xbbed8458	-0.0072484426
67	0x3d64000a	0.0556641
68	0xbda7b7ca	-0.08189352
69	0x3e01cf11	0.12676646
70	0xbc7cffee	-0.015441878
71	0xbcb7a680	-0.02241826
72	0x3deea3f4	0.11652365
73	0xbda17673	-0.078839205
74	0x3e0e9503	0.13924031
75	0xbe02d1ae	-0.12775299
76	0x3c3392b3	0.010960269
77	0xbc032132	-0.00800352
78	0xbce52e69	-0.027976232
79	0x3bacb8b1	0.0052710404
80	0xbc8dd330	-0.017312616
81	0x3ce1eb04	0.027577884
82	0xbe5da8f1	-0.21646477
83	0x3d75da3e	0.060022585
84	0xbca5966d	-0.02021333
85	0x3d64f7ff	0.05590057
86	0x3d058375	0.03259607
87	0xbcab1a8f	-0.020886688
88	0x3a8d46ca	0.0010778543
89	0xbe7e92cb	-0.24860685
90	0x3df29a3e	0.118458256
91	0x3cd2a3d0	0.025712878
92	0xbdd2a10a	-0.10284622
93	0x3e020f18	0.1270107
94	0xbe0711bc	-0.13190359
95	0x3e3a5f28	0.18200362
96	0xbe6d3849	-0.23166002
97	0x3b0cc819	0.0021481572
98	0xbaed5e7c	-0.0018109824
99	0x3bddca52	0.006768503
100	0x3abae470	0.0014258754
101	0x3cfc6fc8	0.03081502
102	0x3d5e3618	0.054250807
103	0x3d0c41e4	0.034242526
104	0xbc9b4195	-0.01895217
105	0x3cf5c2e8	0.030000165
106	0xbdc4b25d	-0.096043326
107	0xbe66427e	-0.22486302
108	0xbd74aaf5	-0.05973335
109	0x3da35e58	0.07976979
110	0xbbb17583	-0.00541562
111	0x3c937f39	0.018005
112	0x3d1a6509	0.03769401
113	0xbd2045f5	-0.039129216
114	0xbda1ec7b	-0.07906433
115	0xbd3c8e23	-0.04603399
116	0x3d0b8962	0.034066565
117	0xbd3879c1	-0.04503799
118	0xbca2e640	-0.019885182
119	0xbcec389b	-0.028835585
120	0xbd742994	-0.059609964
121	0xbe292c71	-0.1652086
122	0x3cccd99f	0.025006114
123	0x3c9cb203	0.019127851
124	0xbc452bd8	-0.012034379
125	0xbd783866	-0.06060066
126	0xbe07f072	-0.13275316
127	0xbddb754f	-0.10715734
128	0xbdf2af56	-0.11849849
129	0x3d4635b9	0.048391078
130	0x3cbfd837	0.023418529
131	0x3df1e9f2	0.118122
132	0x3d9e6029	0.07733185
133	0xbde5a345	-0.11212782
134	0xbdcb8eba	-0.09939332
135	0xbe3797d8	-0.17929018
136	0x3d492616	0.049108587
137	0xbb33d76e	-0.0027441639
138	0x3deeb9a3	0.11656501
139	0xbcc6dab3	-0.024274206
140	0xbe1867f4	-0.14883405
141	0x3cb38d2f	0.021917908
142	0xbe8b459a	-0.2720154
143	0x3e08c710	0.13357186
144	0x3c99baec	0.01876589
145	0x3da64312	0.081182614
146	0xbcb53c32	-0.02212343
147	0xbd92f1a2	-0.07174994
148	0x3d5bcc00	0.053661346
149	0x3e2176a6	0.15767917
150	0x3c0a0c44	0.008425776
151	0xbd379bce	-0.04482632
152	0xbdeddce6	-0.11614399
153	0x3c3a0d03	0.011355641
154	0xbaab9f02	-0.0013093653
155	0x3c348f1e	0.01102045
156	0x3b9aded0	0.0047262684
157	0xbc9ba657	-0.019000215
158	0x3cd84fd4	0.026405253
159	0xbceb05f5	-0.028689364
160	0xbd9be81d	-0.076126315
161	0xbe01058d	-0.12599774
162	0x3bb797f5	0.0056028315
163	0x3d3b71f3	0.045762967
164	0xbbbf6e41	-0.0058420007
165	0xbda2381f	-0.079208605
166	0x3c7904c6	0.015198892
167	0x3d737da6	0.059446
168	0x3cb35f0f	0.021895913
169	0x3dd36c01	0.103233345
170	0xbc73a803	-0.0148716
171	0xbcc76478	-0.0243399
172	0xbddae1bb	-0.10687586
173	0xbd4be4e8	-0.04977885
174	0xbdefb940	-0.117052555
175	0x3c8f6eef	0.017508952
176	0x3d8c9943	0.0686517
177	0x3c1d0559	0.0095837945
178	0x3d6c22e2	0.057650454
179	0xbd149b0f	-0.036280688
180	0xbd671ae2	-0.05642212
181	0xbd692c12	-0.056926794
182	0xbe3483fc	-0.17628473
183	0xbda42f93	-0.080168866
184	0x3df54635	0.119762816
185	0x3a9aa4be	0.0011798365
186	0xbb55f865	-0.0032649275
187	0xbc384772	-0.011247503
188	0x3d666a79	0.056253884
189	0xbdf095a1	-0.117472894
190	0xbb9822a3	-0.004642801
191	0x3c0c1ec0	0.008552253
192	0x3d7ea606	0.06217005
193	0xbe2bf9fc	-0.1679458
194	0x3d3c22d3	0.04593165
195	0x3e065eed	0.13122149
196	0xbd138f66	-0.036025427
197	0x3b1071d4	0.0022040503
198	0x3d8dbdbf	0.06920957
199	0x3c54db07	0.012991673
200	0xbe2ff2b1	-0.17182423
201	0xbc09115c	-0.008365955
202	0x3c1a3c2c	0.00941376
203	0x3d17624e	0.036958985
204	0xbc4f0ed5	-0.012637814
205	0xbde94ee5	-0.11392001
206	0x3ddbd2cf	0.10733568
207	0x3cb10726	0.021609854
208	0x3d7ee46e	0.062229566
209	0x3ca4ccb5	0.020117143
210	0x3d19a847	0.037513997
211	0x3a8f6050	0.0010938738
212	0x3dd73eac	0.105100006
213	0xbe35049b	-0.17677538
214	0x3d9e6f2b	0.07736047
215	0xbe522277	-0.2052096
216	0xbdff0d58	-0.12453717
217	0xbc7dc538	-0.015488915
218	0x3d8e91ed	0.06961427
219	0xbe61dfcd	-0.2205803
220	0x3e529d72	0.20567873
221	0xbe3d17bc	-0.18466085
222	0xbe47d3e7	-0.19514428
223	0x3dba81bd	0.09106777
224	0xbd11f2ee	-0.035632066
225	0x3cd0b454	0.025476612
226	0x3cdc5b3b	0.02689897
227	0xbc0da861	-0.008646102
228	0x3d6b7bb8	0.057491034
229	0x3dddef5f	0.10836672
230	0xbd093014	-0.033493116
231	0x3d1d9838	0.038475245
232	0xbcde69bc	-0.027150027
233	0x3d90bb8e	0.07067023
234	0x3dba6b4e	0.09102498
235	0xbe0235ec	-0.12715882
236	0x3dac6de9	0.08419401
237	0xbde267ca	-0.110549524
238	0xbd89d768	-0.067305386
239	0x3d94f5b1	0.072734244
240	0xbda09ec0	-0.07842779
241	0xbcec66a6	-0.02885754
242	0xbd1d66a7	-0.038427975
243	0x3def9d7e	0.11699961
244	0x3ce99b9d	0.028516585
245	0x3ca1f3a5	0.0197695
246	0xbca3dfbe	-0.02000415
247	0x3b9e0f4d	0.0048236013
248	0xbd230582	-0.039800175
249	0xbd2bb1f5	-0.04191776
250	0xbe30ff4a	-0.17284885
251	0xbc91c8c1	-0.017795922
252	0xbc3f2550	-0.011666611
253	0xbd980aad	-0.07423911
254	0xbd4fd5b3	-0.05074091
255	0xbd8666e5	-0.06562594

weight f4 [64, 64, 3, 3]
0	0xbe33aaa1	-0.17545559
1	0x3b4d08a3	0.0031285665
2	0x3ed08f9a	0.4073456
3	0xbdba4a0d	-0.09096155
4	0xbdc3ee94	-0.095669895
5	0x3ce0b63a	0.027430642
6	0xbd957508	-0.072977126
7	0xbe39e36b	-0.1815316
8	0x3dad93c1	0.084754474
9	0xbc307273	-0.010769474
10	0x3c05d88e	0.008169306
11	0x3dd02c06	0.10164647
12	0xbc003474	-0.007825006
13	0x3c25282b	0.010080378
14	0x3cd0106a	0.025398452
15	0x3db5774c	0.08860645
16	0xbd037b16	-0.032099806
17	0xbdacdec6	-0.08440928
18	0x3c70c870	0.0146962255
19	0xbc6a7788	-0.014310725
20	0xbd5f346f	-0.054493364
21	0x3d8a835f	0.06763338
22	0x3ec93e3f	0.39305303
23	0x3d14d140	0.03633237
24	0xbd978794	-0.07398906
25	0x3a8d81e4	0.0010796157
26	0xbe081312	-0.13288525
27	0x3dc242cf	0.09485399
28	0xbc914060	-0.017730892
29	0xbd8ce9e0	-0.068805456
30	0xbc1c20ec	-0.009529334
31	0xbd73da8c	-0.059534594
32	0x3d10504a	0.03523282
33	0xbc985c4e	-0.018598702
34	0xbd8d03ee	-0.06885515
35	0x3d4e379b	0.050346
36	0xbd81f405	-0.06345371
37	0x3b75c3d5	0.0037500758
38	0xbd87297d	-0.0659971
39	0x3dc60751	0.09669364
40	0xbc3b1afb	-0.011420007
41	0xbd12d101	-0.035843853
42	0x3ad64671	0.0016347897
43	0xbd1fb0ce	-0.038986973
44	0xbd2f3b8e	-0.042781405
45	0xbe22848a	-0.15870872
46	0xbd1ef4a2	-0.03880752
47	0xbc817cf4	-0.015806653
48	0x3dd0d253	0.10196366
49	0x3be73c41	0.0070567434
50	0x3b7d5fc5	0.003866182
51	0xbca1ca8f	-0.019749908
52	0xbd22e17f	-0.03976583
53	0xbceeeab7	-0.029164655
54	0xbbb4abe0	-0.005513653
55	0x3bb9a8d4	0.005665878
56	0xbd85b5f1	-0.06528843
57	0xbd398da6	-0.045301102
58	0xbb23a2c4	-0.0024968842
59	0xbc6034bb	-0.013684447
60	0x3d8d8a38	0.06911129
61	0xbca38686	-0.019961607
62	0xbdbb6e6a	-0.09151919
63	0xbda72550	-0.08161414
64	0xbcfdfddf	-0.031004844
65	0x3c445731	0.011983679
66	0xbd219029	-0.039444122
67	0x3d3f9eb7	0.04678222
68	0x3d959447	0.07303672
69	0xbda7d583	-0.08195021
70	0x3d43aa82	0.04777003
71	0xbc807db0	-0.015684932
72	0xbd91ca61	-0.07118679
73	0xbc88cfba	-0.016700614
74	0x3d1c47dc	0.038154468
75	0x3e8a5115	0.27014986
76	0x3df0cc8e	0.11757766
77	0x3e51478f	0.20437454
78	0x3dea89df	0.11452078
79	0xbe00cb95	-0.1257766
80	0xbd0c790c	-0.034295127
81	0x3a66b9db	0.00088014983
82	0xbd44f308	-0.048083335
83	0xbe3303eb	-0.17481963
84	0xbcf540a9	-0.029938059
85	0xbd6d80fc	-0.057984337
86	0xbe389119	-0.180241
87	0xbdb3e7e5	-0.08784465
88	0x37614af6	1.3428498e-05
89	0xbde1ef36	-0.11031954
90	0xbe4aa1df	-0.19788311
91	0x3c1c3be9	0.009535768
92	0x3d899944	0.06718686
93	0xbde76118	-0.11297816
94	0x3dc0702a	0.093963936
95	0xbccc2d40	-0.02492392
96	0xbc3e88f4	-0.011629332
97	0xbda9a596	-0.08283536
98	0x3d8caa4c	0.06868419
99	0xbd35d5a0	-0.04439318
100	0xbd6b67d5	-0.05747207
101	0xbcf62398	-0.03004627
102	0xbdacd870	-0.0843972
103	0xbc9b090e	-0.018925216
104	0x3cf7ffb3	0.030273294
105	0x3d56d268	0.052446753
106	0xbd560af3	-0.052256536
107	0x3b0c7c0b	0.002143624
108	0xbb96f98e	-0.004607386
109	0x3dc95abc	0.09831759
110	0xbc86b86f	-0.016445367
111	0xbc490288	-0.01226867
112	0x3d441f20	0.047881246
113	0xbe742cb2	-0.23845175
114	0x3c138ded	0.009006006
115	0xbc92e330	-0.017930597
116	0xbe1f72c5	-0.15571125
117	0xbcdd341c	-0.027002387
118	0x3e3721f6	0.17884049
119	0xbe15ddc1	-0.14635374
120	0x3dcbc628	0.09949905
121	0x3d553f22	0.05206216
122	0xbd0f84c5	-0.03503873
123	0xbcad348e	-0.021143224
124	0x3c278664	0.010224912
125	0xbddab70e	-0.10679446
126	0xbd1150bf	-0.035477396
127	0xbe7db052	-0.24774292
128	0xbdf2b1d8	-0.11850327
129	0xbdcc2167	-0.099673085
130	0xbec8c8de	-0.3921575
131	0xbdda77d7	-0.10667389
132	0xbe1ad5f9	-0.15120687
133	0xbe016f8f	-0.12640212
134	0xbdebc7b8	-0.11512703
135	0xbd4a7300	-0.04942608
136	0x3d000318	0.03125295
137	0x3d959898	0.073044956
138	0x3b95077b	0.004548011
139	0xbd8e3374	-0.06943408
140	0xbd0970a4	-0.033554688
141	0x3caa40d5	0.020782867
142	0xbe01995c	-0.12656158
143	0x3b7fb4cf	0.0039017682
144	0x3ca8b354	0.020593323
145	0xbdaaf64b	-0.08347758
146	0x3d93c0a6	0.07214479
147	0xbe61e65d	-0.22060533
148	0xbe42a1f6	-0.19007096
149	0x3e72d94e	0.23715708
150	0xbe6bc9ca	-0.23026195
151	0xbda0cf79	-0.07852072
152	0x3db647ea	0.08900435
153	0xbd4c7557	-0.04991659
154	0xbd608054	-0.054809883
155	0xbbe2f756	-0.0069264574
156	0xbda0027e	-0.07812975
157	0x3b67c398	0.0035364386
158	0x3d6082ac	0.05481212
159	0x3ab27747	0.001361587
160	0x3d14b121	0.036301736
161	0xbda5fd99	-0.081050105
162	0xbdc42a9c	-0.095784396
163	0xbd5e0532	-0.054204173
164	0xbd950bbd	-0.072776295
165	0x3bd6af93	0.006551692
166	0xbca1e4f4	-0.019762494
167	0xbd124a59	-0.035715435
168	0xbdb53760	-0.088484526
169	0xbd13865e	-0.036016814
170	0x3d326c53	0.043560337
171	0xbe65c1b3	-0.22437172
172	0xbf0a4d2b	-0.54024
173	0xbe7e5250	-0.24836087
174	0xbe51b6e5	-0.20479925
175	0xbf2c57dd	-0.6732157
176	0xbe9dfe48	-0.30858064
177	0xbe4425d4	-0.19155055
178	0xbd4d8a78	-0.050180882
179	0xbdcb08df	-0.099138014
180	0xbd821056	-0.06350772
181	0xbca34d64	-0.019934364
182	0xbd3e4a84	-0.046457782
183	0xbd823e84	-0.0635958
184	0xbce94ae3	-0.028478092
185	0x3d0cf314	0.034411505
186	0xbe22b875	-0.15890677
187	0x3dba8372	0.091071025
188	0xbc873b98	-0.016507909
189	0xbd41961a	-0.04726229
190	0x3dd728a6	0.105058
191	0xbd4f419c	-0.05059968
192	0xbcea1eb6	-0.028579097
193	0x3d20f963	0.039300334
194	0xbd8e5833	-0.069504164
195	0xbd9b53eb	-0.075843655
196	0xbd291a64	-0.041284934
197	0x3d064175	0.03277727
198	0xbd2d24e8	-0.042271525
199	0xbd237cbe	-0.039913885
200	0xbcf2aa54	-0.029622234
201	0x3cfda776	0.03096364
202	0x3d177080	0.036972523
203	0x3d5aab46	0.053385995
204	0xbd81e5e1	-0.06342674
205	0x3c0afd5a	0.008483255
206	0x3dcf3b13	0.101186894
207	0x3da7fd9b	0.08202668
208	0xbcd96cda	-0.026541162
209	0xbdc64f3a	-0.0968308
210	0xbbe5b93d	-0.0070106075
211	0xbbc2f0f8	-0.005949136
212	0x3cca0105	0.02465869
213	0x3d0dc788	0.034614116
214	0x3dd74dcb	0.10512885
215	0x3cb87457	0.022516413
216	0x3d86acb5	0.0657591
217	0x3d1dfa85	0.038568992
218	0xbe908501	-0.28226474
219	0xbd122e52	-0.035688706
220	0xbe8a1495	-0.26968828
221	0xbe83ad20	-0.2571802
222	0x3e27c25e	0.16382739
223	0x3dcd3117	0.10019129
224	0xbe7cd1ca	-0.24689403
225	0xbe0b7f13	-0.13622694
226	0xbd71fa66	-0.05907669
227	0xbd470323	-0.048586976
228	0x3c202d16	0.009776374
229	0xbc258515	-0.01010253
230	0xbd91c88c	-0.071183294
231	0x3dd7d6da	0.105390266
232	0xbd089daa	-0.033353485
233	0xbc37a919	-0.01120975
234	0xbcd9df0e	-0.026595619
235	0xbd532341	-0.051547293
236	0x3ba7ed43	0.0051247193
237	0xbcf7c5fe	-0.030245777
238	0xbd04e442	-0.032444246
239	0xbc44d6ed	-0.012014133
240	0xbd8d6bc6	-0.06905322
241	0xbcecf81f	-0.028926907
242	0x3dd4a15c	0.10382339
243	0xbd3aa0ce	-0.04556351
244	0x3d7ccc61	0.06171835
245	0x3c01c362	0.007920118
246	0x3d3ab184	0.04557945
247	0x3d93a3fc	0.07209012
248	0x3e007c45	0.12547405
249	0xbd921cc0	-0.0713439
250	0x3d2e1145	0.04249694
251	0x3dbd4909	0.09242446
252	0xbd9725b0	-0.07380235
253	0xbcced55d	-0.025248224
254	0x3c9e31ed	0.019310916
255	0xbda1027b	-0.07861801

bias f4 [64]
0	0xb98842db	-0.00025989753
1	0xbd57ae3f	-0.05265641
2	0x3d0b0ae9	0.03394595
3	0xbd5d430e	-0.054019026
4	0xbcc47857	-0.023983164
5	0xbb58138b	-0.0032970633
6	0xbb7183b8	-0.0036852192
7	0x3ddda480	0.108223915
8	0x3d93f32a	0.07224114
9	0xbcd3719f	-0.025811015
10	0x3da2336d	0.07919965
11	0xbd568e6c	-0.052381918
12	0x39018806	0.00012353071
13	0x38ea9aa5	0.00011186794
14	0xbc94134c	-0.018075608
15	0xbcb6a49b	-0.022295287
16	0xbcc4fc19	-0.02404599
17	0x3b3b361d	0.002856619
18	0xbc636fce	-0.013881637
19	0xbd437aea	-0.04772464
20	0xbd432880	-0.047646046
21	0x3ab1e9c6	0.0013573698
22	0x3d1e2bc7	0.038615968
23	0x3d0e8d15	0.034802515
24	0xbb8e1a07	-0.004336599
25	0x3d88bfc3	0.06677201
26	0x3da346e3	0.07972505
27	0xbd201fae	-0.039092712
28	0x3dcb4c25	0.09926633
29	0xbb8992d7	-0.004198413
30	0xbbec0af9	-0.0072034565
31	0x3cb0a52b	0.021563133
32	0xbdc297a4	-0.095015794
33	0xbc718152	-0.014740305
34	0x3c1c0ffd	0.009525296
35	0xbcc8a6f8	-0.02449368
36	0x3c392d4b	0.011302303
37	0x3e040b9b	0.12895052
38	0xbc36532c	-0.011128228
39	0xbbc9b14e	-0.0061551696
40	0x3c2ce20c	0.010551941
41	0xbc4f658d	-0.012658489
42	0x3e0e093e	0.13870713
43	0xbc669bc8	-0.014075227
44	0x3b981009	0.0046405834
45	0x3d6bc6b4	0.057562545
46	0x39974131	0.00028849536
47	0xbd45ec9b	-0.048321348
48	0x3a9287a9	0.0011179346
49	0xbcffb808	-0.031215683
50	0xbb28c888	-0.0025754292
51	0x3b958ec1	0.0045641367
52	0x3d954643	0.07288792
53	0xbda50754	-0.08058038
54	0x3d7cd6e7	0.061728384
55	0xbc93e75c	-0.018054657
56	0x3aed4c6d	0.0018104442
57	0xbd66daa5	-0.05636086
58	0x3d735333	0.059405517
59	0x3db4b3c9	0.08823354
60	0x3bdb25cb	0.006687855
61	0x3d87ad2a	0.06624825
62	0xbc870c23	-0.01648528
63	0xbf3e672f	-0.74376196

weight f4 [64, 64, 3, 3]
0	0x3d34c00d	0.044128466
1	0x3d4cd89f	0.050011273
2	0xbcf4f1d6	-0.029900473
3	0xbdcc9f20	-0.09991288
4	0xbe1ba22c	-0.15198582
5	0x3de6d4e2	0.11271073
6	0xbb484ec1	-0.003056452
7	0xbdd768fe	-0.105180725
8	0x3c23c75f	0.009996264
9	0x3cd65b3c	0.02616655
10	0x3b890823	0.004181878
11	0x3c52a80b	0.012857447
12	0xbbc9452e	-0.00614228
13	0xbcad94ec	-0.021189176
14	0xbd8a312e	-0.067476615
15	0x3d4ecfa4	0.05049099
16	0xbd15d423	-0.036579262
17	0x3d04367f	0.032278534
18	0x3d2dd0b5	0.042435367
19	0x3abd617b	0.0014448607
20	0x3de34983	0.110980056
21	0xbbf1780f	-0.0073690484
22	0x3d3a4be5	0.045482535
23	0xbda5e5c5	-0.08100466
24	0xbd8325ce	-0.06403695
25	0xbd9dd30b	-0.07706269
26	0xbcfe0934	-0.031010248
27	0x3d9e6ce0	0.0773561
28	0x3b274fd5	0.0025529761
29	0x3cfca83e	0.030841943
30	0xbc5c2350	-0.0134361535
31	0xbcf593d8	-0.029977724
32	0x3d3017ed	0.042991567
33	0xbd9cffac	-0.07665953
34	0xbccb2301	-0.024796965
35	0xbd4a58e7	-0.04940119
36	0x3d14f698	0.036367983
37	0x3d08680e	0.03330236
38	0x3b1e3c75	0.0024144922
39	0xbd5e3c96	-0.054256998
40	0xbd442912	-0.04789073
41	0xbcc9875e	-0.02460068
42	0xbb91fbd8	-0.004455071
43	0xbc2ff84d	-0.010740352
44	0xbc8c642c	-0.01713761
45	0xbddab39b	-0.10678788
46	0x3d85b776	0.06529133
47	0x3d43bec8	0.047789365
48	0x3ddad119	0.106844135
49	0xbcce7ab3	-0.025204992
50	0x3d74a58e	0.059728198
51	0xbd8d3913	-0.06895652
52	0xbd15d795	-0.03658255
53	0x3d276ad0	0.04087335
54	0xbd9da820	-0.07698083
55	0x3c142567	0.009042121
56	0x3c9e32b8	0.019311294
57	0x3c1bce0b	0.009509574
58	0x3ca7bd55	0.020476023
59	0xbc917356	-0.017755192
60	0x3cb47211	0.022027047
61	0xbd528d86	-0.0514045
62	0x3bd7f2e9	0.0065902364
63	0x3d365b0f	0.044520434
64	0xbd1f8a29	-0.03895012
65	0xbd1d096d	-0.038339067
66	0xbc11673b	-0.00887471
67	0xbcee46b9	-0.029086458
68	0x3d80ce1c	0.06289312
69	0x3ce8cc03	0.028417593
70	0xbda6c1f7	-0.081424646
71	0xbe1d4316	-0.15357623
72	0xbd9584b0	-0.07300699
73	0xbc22e147	-0.009941406
74	0x3d31163f	0.043234106
75	0x3c921fcd	0.01783743
76	0xbd62752d	-0.05528753
77	0x3d5cadb1	0.053876583
78	0xb9f7a5b6	-0.00047234976
79	0xbd59d955	-0.05318578
80	0xbc0bfc8a	-0.008544097
81	0xbda38179	-0.07983679
82	0xbd5ab81b	-0.053398233
83	0xbdc57085	-0.09640602
84	0x3e227901	0.15866472
85	0xbc81187b	-0.015758744
86	0xbbd2e793	-0.006436297
87	0x3d4f3c79	0.05059478
88	0x3da80552	0.0820414
89	0xbcc46a38	-0.02397643
90	0xbc96ec18	-0.018423125
91	0xbe10c399	-0.14137115
92	0xbd1003a9	-0.03515974
93	0x3d0f13d1	0.034931008
94	0x3dffdde3	0.124934934
95	0x3d344e95	0.044020254
96	0xbcec8d61	-0.028876008
97	0xbd4cc75b	-0.049994808
98	0x3b6f2d2e	0.0036495435
99	0x3d0c1b01	0.03420544
100	0xbd8a3865	-0.06749038
101	0x3d210017	0.039306726
102	0x3daf41cf	0.08557474
103	0x3c94ac04	0.01814843
104	0x3c0fdb97	0.008780382
105	0xbc803108	-0.01564838
106	0x3d6acad1	0.057322327
107	0xbd0dcbec	-0.034618303
108	0xbd5c4cc9	-0.053784166
109	0x3b0d8624	0.0021594847
110	0xbd1fb247	-0.038988378
111	0xbd9e973a	-0.07743688
112	0xbd5e84e4	-0.054325953
113	0xbcb86b88	-0.022512212
114	0xbce2011e	-0.027588423
115	0xbdf58823	-0.11988857
116	0xbdc68ec2	-0.09695198
117	0xbd5d3f8d	-0.054015685
118	0x3d0d3752	0.034476586
119	0x3d66a2db	0.056307655
120	0xbd9c1223	-0.07620647
121	0xbdedec78	-0.116173685
122	0xbd0fb767	-0.035087015
123	0x3ca94925	0.02066476
124	0xbc2b1722	-0.010442527
125	0xbd5cb95d	-0.053887714
126	0x3d259e2c	0.040434048
127	0xbcccf3d8	-0.025018618
128	0xbab07dfc	-0.0013465281
129	0xbdfeb246	-0.12436347
130	0x3b4b31a9	0.0031004942
131	0x3c9dec1b	0.019277623
132	0xbdaa03ef	-0.083015315
133	0x3c87ac7c	0.01656174
134	0x3dbbbe36	0.09167139
135	0xbc03f4ba	-0.008053953
136	0xbdd3653e	-0.10322045
137	0xbd795a36	-0.060877047
138	0x3a65c547	0.00087650534
139	0xbda66624	-0.081249505
140	0xbce7090e	-0.02820256
141	0xbcd5a3ff	-0.026079176
142	0xbdc9c1ee	-0.09851442
143	0x3da8d85a	0.08244391
144	0x3c67aed3	0.014140802
145	0xbdd06e99	-0.10177345
146	0xbc79d57f	-0.015248655
147	0xbd478a24	-0.048715726
148	0xbbbfc3a5	-0.00585218
149	0xbd8924d5	-0.06696478
150	0xbcfff4be	-0.031244632
151	0xbc407911	-0.0117476145
152	0x3ca16023	0.019699162
153	0xbcd069e3	-0.025441116
154	0xbc92f05c	-0.017936878
155	0x3d85384d	0.06504879
156	0x3ced58ff	0.0289731
157	0xbbd9945d	-0.0066400007
158	0xbd2f58b7	-0.042809214
159	0x3d97224f	0.07379591
160	0x3c4a604f	0.012352063
161	0xbd1f7f13	-0.038939547
162	0xbbb51198	-0.005525779
163	0xbd11fc94	-0.035641268
164	0xbdfad5bf	-0.122478
165	0x3ac47ee5	0.0014991431
166	0xbc117192	-0.008877175
167	0xbd572fef	-0.052535947
168	0x3d46357c	0.04839085
169	0x3abd353a	0.0014435418
170	0x3b9963d3	0.0046810894
171	0x3d675fae	0.05648773
172	0xbb1c0dfb	-0.0023812044
173	0x3bc5bca6	0.0060344515
174	0x3d28548f	0.041096266
175	0x3d895c3e	0.06707047
176	0xbae4a131	-0.0017443058
177	0x3d01e5ad	0.031713177
178	0xbdf4c47d	-0.1195154
179	0xbcc23808	-0.023708358
180	0x3d13d3a5	0.03609051
181	0x3d9e63cb	0.07733878
182	0xbd1ecbae	-0.038768463
183	0x3d811471	0.06302727
184	0xbdb84396	-0.08997266
185	0x3ccce6dc	0.025012426
186	0x3dd4bc50	0.1038748
187	0x3b94190b	0.004519587
188	0xbd77ef79	-0.060531113
189	0x3c9cf420	0.019159377
190	0x3c29431f	0.010330944
191	0x3caeabee	0.021322217
192	0x3d360b9d	0.04444467
193	0x3cdce274	0.02696345
194	0xb9a304db	-0.000310934
195	0x3dbe5816	0.09294145
196	0xbd92d586	-0.071696326
197	0x3b447e23	0.002998241
198	0xbae5ac2a	-0.0017522622
199	0xbce5e541	-0.028063418
200	0xbd8db7a5	-0.06919793
201	0xbccb84f1	-0.024843665
202	0xbce37116	-0.027763885
203	0xbc117158	-0.008877121
204	0xbcfb357e	-0.030665156
205	0x3b565f4e	0.0032710615
206	0x3d224f60	0.03962648
207	0xbd803b0a	-0.06261261
208	0x3d9a3584	0.075297385
209	0x3dbc356c	0.09189877
210	0x3c2600b7	0.010132006
211	0xbbfbc2cf	-0.007683135
212	0x3d5b23e4	0.053501025
213	0xbd8984c5	-0.06714777
214	0xbd8d396d	-0.06895719
215	0xbce86842	-0.028370026
216	0xbcb9907c	-0.022651903
217	0xbd9a7bbe	-0.07543133
218	0x3ca67504	0.02031947
219	0x3b47e866	0.003050351
220	0xbd5b0bda	-0.0534781
221	0xbdbd1a5b	-0.092335425
222	0xbd2782fe	-0.04089641
223	0xbcdf4402	-0.027254108
224	0xbd087a69	-0.033319864
225	0xbd9c7542	-0.07639553
226	0x3dd4fe5b	0.10400077
227	0xbd3f1c20	-0.04665768
228	0x3b5f54ca	0.0034077638
229	0x3d881ca7	0.0664609
230	0xbd605bc7	-0.054775026
231	0xbd28b159	-0.041184757
232	0xbd071927	-0.03298297
233	0xbd2abe5d	-0.04168545
234	0x3c89f473	0.016840195
235	0xbd5bfe1b	-0.05370913
236	0xbbc88fbf	-0.0061206515
237	0x3c5a1d66	0.013312673
238	0xbcbd308b	-0.023094436
239	0xbd1e8a69	-0.038706217
240	0xbc278ac8	-0.010225959
241	0xbcdee1dc	-0.027207308
242	0xbba87fa1	-0.0051421677
243	0x3b1b2a67	0.0023676397
244	0xbdcafb37	-0.09911197
245	0xbd8f3453	-0.06992402
246	0xbdb9d3a8	-0.09073573
247	0xbe6055e9	-0.21907772
248	0xbdd5a661	-0.10432125
249	0x3c9e1464	0.019296832
250	0xbe130192	-0.14356068
251	0xbe39c56c	-0.18141717
252	0xbceefdf2	-0.029173825
253	0x3d3196b3	0.04335661
254	0xbdf7906d	-0.12088094
255	0xbd34c7af	-0.044135746

bias f4 [64]
0	0x3b602ad5	0.0034205217
1	0x3d9fb8fc	0.07798955
2	0xbda4e9a4	-0.08052376
3	0xbc652249	-0.013985225
4	0x3de9b650	0.114117265
5	0x3e6de3e7	0.23231469
6	0x3a943c30	0.0011309441
7	0x3d08720d	0.033311892
8	0x3d22ada7	0.03971639
9	0xbd14b22e	-0.036302738
10	0x3c941c59	0.018079923
11	0xbc74f6a1	-0.014951379
12	0xbd817aeb	-0.06322273
13	0xbd7bb7a0	-0.061454415
14	0xbd0e6804	-0.034767166
15	0xbe5be2c2	-0.2147322
16	0xbcabf836	-0.02099238
17	0xbad8e92d	-0.0016548984
18	0x3d13d278	0.03608939
19	0xbd1e2ef5	-0.038619
20	0x3d711996	0.05886229
21	0xbd9b0571	-0.07569397
22	0x3eb479c5	0.35249153
23	0xbc5f5dc7	-0.013633198
24	0x3ba65bc4	0.0050768573
25	0x3d025266	0.031816863
26	0xbd9b0698	-0.07569617
27	0x3d3a4fd0	0.04548627
28	0xbd82a1b0	-0.06378496
29	0xbc9eada7	-0.019369913
30	0xba1d5420	-0.00060016103
31	0x3c41d78d	0.0118311765
32	0xbc4fbf0a	-0.012679825
33	0xbd082f75	-0.033248384
34	0x3de21733	0.11039581
35	0xbb134129	-0.0022469258
36	0xbce6cd7d	-0.028174156
37	0xbcf602b8	-0.030030593
38	0x3cda9611	0.026682885
39	0x3d5948ae	0.05304783
40	0xbd59331d	-0.05302726
41	0xbc93867d	-0.018008465
42	0x3dade745	0.08491377
43	0x3d942a74	0.0723466
44	0xbc08303e	-0.008312283
45	0xbd0b623d	-0.034029234
46	0xbd48c113	-0.049012255
47	0x3caa5051	0.020790251
48	0x3c541051	0.012943343
49	0x3d83ea45	0.06441168
50	0x3bf682c5	0.007522913
51	0xbd81a06a	-0.06329425
52	0x3dbd57f0	0.09245288
53	0xbc64f14a	-0.013973543
54	0xbd836f0a	-0.064176634
55	0xbcfe1120	-0.031014025
56	0xbd93f2c1	-0.07224036
57	0x3baff9bb	0.0053703464
58	0xbd2aa3d3	-0.04166014
59	0x3d84622e	0.06464039
60	0xbda1163d	-0.0786557
61	0xbc449c23	-0.0120001165
62	0xbd4a0fff	-0.04933166
63	0x3d9cc9b5	0.0765566

weight f4 [64, 64, 3, 3]
0	0xbcb77408	-0.022394195
1	0x3c0a9e6b	0.008460621
2	0xbd506686	-0.050879024
3	0x3d7ef090	0.062241137
4	0xbdb82457	-0.08991306
5	0xbd7a54f4	-0.061116174
6	0xbde9d0ee	-0.11416803
7	0x3cb5deb9	0.022200929
8	0x3cc9f924	0.024654932
9	0x3d3f90e1	0.046769027
10	0xbc9966eb	-0.018725833
11	0x3d1d43e8	0.03839484
12	0xbbcc64db	-0.006237609
13	0xbc6dcf36	-0.014514735
14	0xbd39f7ed	-0.045402456
15	0xbca4a653	-0.02009884
16	0x3d3b1bd8	0.04568085
17	0xbdd36398	-0.103217304
18	0xbddbe551	-0.10737098
19	0x3c0ec646	0.008714264
20	0x3d9d6425	0.07685117
21	0xbcb8801d	-0.022522027
22	0xbc8f54b2	-0.01749644
23	0xba15533a	-0.00056963007
24	0xbced4080	-0.02896142
25	0x3ca2ec9c	0.019888215
26	0xbd71159c	-0.0588585
27	0x3c0e859b	0.008698846
28	0xbd41a4c4	-0.047276273
29	0x3c905c8a	0.017622251
30	0xbd745832	-0.059654422
31	0xbca200ac	-0.019775711
32	0x3d600414	0.05469139
33	0x3d74873c	0.059699282
34	0xbd830ec3	-0.063993
35	0xbd198317	-0.037478533
36	0x3c219f5c	0.009864654
37	0x3cc2f561	0.023798646
38	0x3d2c5938	0.042077273
39	0xbb7b4e8a	-0.0038346373
40	0x3d197568	0.037465483
41	0xba60505b	-0.0008556896
42	0x3cda83d1	0.026674183
43	0x3d2281a7	0.039674427
44	0x3c194a59	0.009356105
45	0x3d15801c	0.036499128
46	0x3cbd2577	0.023089154
47	0xbd454d12	-0.048169203
48	0xbbfe649f	-0.00776346
49	0x3aae3e00	0.0013293624
50	0xbba71ca4	-0.00509985
51	0xbd864179	-0.06555457
52	0xbd1e843c	-0.038700327
53	0xbdcab354	-0.098974854
54	0xbceb1e2f	-0.028700916
55	0x3cfaea67	0.03062935
56	0xbcea76f2	-0.02862117
57	0xbddbe765	-0.107374944
58	0xbd836808	-0.06416327
59	0x3dc03797	0.09385603
60	0x3d889844	0.06669667
61	0xbba3a240	-0.004993707
62	0xbd02bbc9	-0.031917367
63	0x3c98f5d4	0.018671907
64	0xbdad68cb	-0.08467253
65	0x3d7a2e14	0.0610791
66	0x3d08b531	0.033375923
67	0x3c0d3230	0.008617923
68	0xbc98ba4e	-0.018643524
69	0xbcf8188f	-0.030285148
70	0xbbbfbb8e	-0.0058512157
71	0xbd851008	-0.06497198
72	0xbd173b43	-0.03692175
73	0xbe00797e	-0.12546346
74	0xbe307da9	-0.17235436
75	0xbe0b5ffc	-0.13610834
76	0xbd2ec181	-0.04266501
77	0xbdfef9f0	-0.124500155
78	0xbd5bfa95	-0.05370577
79	0xbb8392bf	-0.004015296
80	0xbc16e390	-0.009209529
81	0x3d588386	0.052859806
82	0x3d218c4d	0.039440442
83	0xbcdff6fc	-0.027339451
84	0xbc9b945c	-0.018991642
85	0xbcd58c29	-0.02606781
86	0xbc6c6135	-0.014427473
87	0xbd9f5b82	-0.077811256
88	0x3d6b7829	0.05748764
89	0xbd880b30	-0.06642759
90	0x3d022d62	0.03178156
91	0xbc2a3a5e	-0.010389892
92	0xbd81be3d	-0.06335113
93	0x3d40e154	0.04708989
94	0xbe1d98b0	-0.15390277
95	0xbdadb869	-0.08482439
96	0xbd8fa6d9	-0.070142455
97	0x3cd66eb9	0.026175844
98	0x3bffd1d0	0.007806994
99	0x3c06d8fe	0.008230446
100	0x38fd31a6	0.00012073228
101	0xbdda6b1a	-0.10664959
102	0xbced12c3	-0.02893961
103	0x3af80e46	0.0018925152
104	0xbd69dfb7	-0.057098117
105	0xbb7032d0	-0.003665138
106	0x3ca772fc	0.020440571
107	0xbc779c19	-0.0151129
108	0xbd5dadcc	-0.054120824
109	0xbc33d5c5	-0.01097626
110	0x3d9d225b	0.076725684
111	0xbd797ef5	-0.06091209
112	0xbda143d3	-0.078742646
113	0xbd1cdc24	-0.03829588
114	0x3c476fbb	0.012172635
115	0xbc8c6478	-0.017137751
116	0xbac906e7	-0.001533714
117	0xbad04942	-0.0015890973
118	0x3d85c095	0.06530873
119	0xbc9dd3a1	-0.019265952
120	0xbd472f4b	-0.048629086
121	0x3d68b6c4	0.056814924
122	0xbcd11142	-0.025520924
123	0x3ca5833f	0.020204185
124	0xbb8c862f	-0.004288457
125	0xbd03121a	-0.031999685
126	0xbdd18db9	-0.102321096
127	0xbc33de8a	-0.01097835
128	0x3d94e6ab	0.07270559
129	0x3d79d5dc	0.060994968
130	0xbdb5bacf	-0.088735215
131	0x3d1195c1	0.035543207
132	0xbd80eba1	-0.06294943
133	0xbd4b4165	-0.049622912
134	0xbd4a79ce	-0.04943257
135	0xbd199d7d	-0.03750371
136	0x3d6faf6a	0.058516897
137	0x3d8cfe7b	0.06884476
138	0x3bca9f6b	0.006183555
139	0x3c9f5b4a	0.01945271
140	0xbca3e9ec	-0.020009004
141	0xbd975ae7	-0.07390385
142	0x3e142175	0.14465888
143	0xbe0b1afe	-0.13584515
144	0x3d6225da	0.05521188
145	0xbdb01776	-0.08598225
146	0x3d8ad923	0.06779697
147	0x3cf22a49	0.029561179
148	0xbd373b89	-0.04473451
149	0xbc5d91cb	-0.013523529
150	0xbd343923	-0.043999802
151	0xbcadd619	-0.021220254
152	0xbcbd191a	-0.023083258
153	0xbce6f29f	-0.028191863
154	0xbda34dc7	-0.07973819
155	0xbd98cfd6	-0.074615166
156	0xbded0296	-0.11572759
157	0xbd90b6d5	-0.070661224
158	0x3cc3d5fb	0.023905745
159	0x3d842ea5	0.06454209
160	0x3ddaac65	0.10677413
161	0x3c4caa5d	0.01249179
162	0xbc991073	-0.018684601
163	0x3d3608f4	0.044442132
164	0xbd84c50d	-0.06482897
165	0x3dd4013a	0.103517964
166	0x3cb8362e	0.022486772
167	0x3d32d76e	0.04366248
168	0x3e02211f	0.12707947
169	0x39e18446	0.00043013896
170	0x3d8dcda8	0.069239914
171	0xbd0ca650	-0.034338295
172	0x3d2f6b27	0.042826798
173	0xbe3c678f	-0.1839888
174	0xbd27f95d	-0.041009296
175	0xbdc47cf4	-0.095941454
176	0x3c96c595	0.018404761
177	0x3da9acac	0.08284888
178	0xbc7b89ef	-0.01535271
179	0x3cdd2777	0.026996357
180	0xbd2af0ad	-0.041733433
181	0xbc88a3ad	-0.01667961
182	0xbc7b46c1	-0.015336693
183	0xbd096889	-0.033546958
184	0x3c92a64b	0.01790156
185	0xbd4591cc	-0.048234746
186	0x3dd7e7c9	0.105422564
187	0xbd0caba9	-0.034343395
188	0x3d454ba1	0.04816783
189	0x3d55dc0b	0.052211802
190	0xbc94774c	-0.018123291
191	0xbd324735	-0.04352494
192	0xbd2e6cff	-0.042584416
193	0x3c3a2c50	0.011363104
194	0x3dc33ac2	0.095326915
195	0xbd7d5904	-0.06185247
196	0x3d8c4a63	0.06850126
197	0x3e0901bb	0.13379566
198	0x3cd1ef26	0.02562673
199	0x3ca28955	0.019840876
200	0x3d00a2b7	0.031405177
201	0xbd1fc500	-0.039006233
202	0xbcfb96b6	-0.030711513
203	0xbd749ac6	-0.059717916
204	0x3d914c32	0.07094611
205	0x3d1a7686	0.03771069
206	0x3cae0029	0.02124031
207	0xbdd79334	-0.10526124
208	0x3d3e85e7	0.046514418
209	0xbe1392de	-0.14411494
210	0x3e11fbb9	0.14256181
211	0xbc9014fb	-0.01758813
212	0xbca154c5	-0.019693742
213	0x3dba7e48	0.091061175
214	0x3e145108	0.14484036
215	0x3d22db9e	0.039760225
216	0x3bfbf41d	0.0076890127
217	0xba2cd562	-0.0006593076
218	0xbd7472aa	-0.059679665
219	0x3d3ba1e3	0.045808684
220	0xbd2f2e5c	-0.04276882
221	0xbd2fca8e	-0.04291778
222	0x3d04d9e3	0.032434355
223	0x3d01b9ef	0.03167146
224	0xbd9173a2	-0.07102133
225	0xbd3bc907	-0.04584601
226	0xbdb676df	-0.089093916
227	0x3d746d07	0.05967429
228	0xbbd846ea	-0.0066002505
229	0xbcd5519d	-0.026039893
230	0xbc62cd42	-0.013842883
231	0x3d7ce12c	0.061738178
232	0x3da2463b	0.07923552
233	0xbd2d22a5	-0.042269368
234	0xbcf30fc6	-0.029670607
235	0x3cf9f2fe	0.030511376
236	0xbd350f2a	-0.044203915
237	0xbd036edf	-0.032088157
238	0xbd2dc574	-0.042424634
239	0x3c9b2378	0.018937811
240	0x3cb77efa	0.022399414
241	0xbd45c6a4	-0.04828514
242	0x3d883cb9	0.06652207
243	0xbcffc63a	-0.031222451
244	0x3cbd7c99	0.023130702
245	0xbcab916c	-0.020943366
246	0xbcce6247	-0.025193347
247	0xbc30a212	-0.010780828
248	0xbd3ae2ae	-0.045626335
249	0x3d5c97f0	0.053855836
250	0xbe20aeff	-0.15691756
251	0xbd8bd16e	-0.06827055
252	0x3d1dfaef	0.038569387
253	0xbd20b276	-0.039232694
254	0xbd0a9d38	-0.03384134
255	0xbda71e71	-0.08160103

bias f4 [64]
0	0xbd1a7a7b	-0.037714463
1	0x3cbe1dfa	0.023207653
2	0xbd36dec8	-0.044646055
3	0xbd3aeca0	-0.04563582
4	0xbd62b7fd	-0.055351246
5	0xbdeb2cdc	-0.114831656
6	0x3c0ca5a3	0.008584413
7	0x3b9018fc	0.0043975096
8	0x3c7dd515	0.015492697
9	0xbcbb33ca	-0.022851843
10	0xbc4c28e9	-0.012460926
11	0xbc84eb07	-0.016225351
12	0x3d084604	0.033269897
13	0xbd0bf950	-0.03417331
14	0xbd0ed672	-0.03487248
15	0x3c67e46d	0.014153582
16	0xbdaa14e5	-0.083047666
17	0x3d19d5f6	0.037557565
18	0xbc090b53	-0.008364516
19	0xba7b9a93	-0.00095979235
20	0x3cbfd7b6	0.023418289
21	0xbda777bf	-0.08177137
22	0xbcc4ba7f	-0.02401471
23	0xbd0e730f	-0.034777697
24	0x39d4137f	0.00040450317
25	0x3d266645	0.040624876
26	0xbdaf7902	-0.08568002
27	0x3bda3bbc	0.006659953
28	0xbd5ca808	-0.053871185
29	0xbd49dad2	-0.04928095
30	0xbbf0ba02	-0.0073463926
31	0x3d2d1532	0.04225654
32	0xbd2089d5	-0.039193947
33	0xbc815869	-0.015789228
34	0xbd4b2f47	-0.049605634
35	0xbd4bcb84	-0.049754634
36	0xbd8812e9	-0.06644232
37	0x3c55b621	0.013043911
38	0xbbd04836	-0.0063562645
39	0xbcf76b0a	-0.030202407
40	0x3a98fa3c	0.0011671255
41	0x3d0f929f	0.03505194
42	0xbd08ad0e	-0.033368163
43	0xbbe0d053	-0.0068607717
44	0xbcb63e22	-0.022246424
45	0x3cc38ce5	0.023870895
46	0xbd8e1419	-0.06937427
47	0xbca0cc2a	-0.019628603
48	0xbd848461	-0.06470562
49	0x3d1002b6	0.035158835
50	0xbd88fc41	-0.066887386
51	0x3bfff9a6	0.007811743
52	0xbbe0bc02	-0.00685835
53	0xbd6cbd76	-0.05779787
54	0xbc93bd96	-0.018034738
55	0xbe15cd2f	-0.14629053
56	0xbccaeceb	-0.024771174
57	0xbd286329	-0.04111019
58	0xbd91528a	-0.07095821
59	0xbd8450ee	-0.064607486
60	0xbd3833b3	-0.04497118
61	0xbd0951d7	-0.033525314
62	0xbd4fdde1	-0.05074871
63	0x3be291d2	0.006914356

weight f4 [12, 64, 3, 3]
0	0x3dbfa369	0.0935734
1	0x3d51513c	0.05110286
2	0xbb4e6ebc	-0.0031499108
3	0xb9dd1837	-0.00042170446
4	0x3d369cd6	0.044583164
5	0x3b5abfb5	0.0033378426
6	0x3cde007a	0.027099837
7	0xbd77cb38	-0.06049654
8	0x3d8e838f	0.069586866
9	0xbc2a91a7	-0.010410703
10	0x3df311e6	0.11868648
11	0xbc88054d	-0.01660409
12	0xbd80dbc3	-0.06291916
13	0xbd07305b	-0.0330051
14	0x3c802135	0.015640834
15	0x3cbea2bf	0.023270963
16	0xbcbf16f2	-0.02332637
17	0xbc09eb67	-0.008417941
18	0x3c48da13	0.012259024
19	0xbbc7b0fd	-0.0060940967
20	0xbc237983	-0.009977701
21	0xbc8304c9	-0.015993493
22	0x3da0733e	0.07834481
23	0xbce23883	-0.027614838
24	0x3b02ad19	0.00199396
25	0xbc000c10	-0.007815376
26	0x3bc28e7d	0.005937396
27	0x3d3b11fe	0.045671456
28	0xbd87f823	-0.06639125
29	0x3cf4a325	0.02986295
30	0xba393c8f	-0.0007066214
31	0xbd93b648	-0.07212502
32	0x3dd8dbc4	0.10588792
33	0x3b8e7798	0.004347753
34	0xbd31472b	-0.04328076
35	0xbb8a9df5	-0.0042302557
36	0x3dc88846	0.09791617
37	0x3d9f54e4	0.077798635
38	0xbccdf0c2	-0.025139216
39	0x3d066344	0.03280951
40	0xbdbc155e	-0.09183763
41	0xbdf545b6	-0.11976187
42	0x3ce67a36	0.028134447
43	0x3b22f380	0.0024864376
44	0xbd1f275c	-0.038855895
45	0x3c3f6dd8	0.011683904
46	0xbccc1300	-0.024911404
47	0x3a018c85	0.00049418985
48	0x3b057c97	0.002036845
49	0x3d6a235d	0.05716263
50	0xbbd5d5e7	-0.0065257433
51	0xbc424915	-0.011858244
52	0xbb9d0ba1	-0.004792646
53	0x3c02ebb9	0.007990771
54	0xbd07463f	-0.033025976
55	0x3cbb8aee	0.022893395
56	0x3cda0a25	0.026616165
57	0x3d07b181	0.033128265
58	0xbd02f21b	-0.03196917
59	0xbe02f105	-0.12787254
60	0xbe0b903c	-0.1362924
61	0xbe268331	-0.16260983
62	0xbbf79258	-0.0075552873
63	0x3bd7dc01	0.006587506
64	0x3e1138ba	0.14181796
65	0x3cacac43	0.021078235
66	0x3c8179a4	0.015805073
67	0x3c8ba05a	0.017044235
68	0x3d892a60	0.066975355
69	0xbdccbc93	-0.09996905
70	0xbdd3189b	-0.103074275
71	0xbd86f6ca	-0.0659004
72	0xbd847c41	-0.06469012
73	0xbd93f5e1	-0.07224632
74	0xbd050935	-0.032479484
75	0x3d860dc2	0.06545593
76	0x3cc05a4d	0.023480559
77	0xbd00c8a0	-0.03144133
78	0x3e0b527c	0.13605684
79	0xbd1af270	-0.037828863
80	0x3d30ac3d	0.04313301
81	0xbcd95afc	-0.026532643
82	0xbd53dc28	-0.05172363
83	0xbc727a2e	-0.014799638
84	0xbbcad6c8	-0.0061901547
85	0x3d58fea3	0.052977215
86	0xbd4905d6	-0.04907783
87	0x3ccf3704	0.025294788
88	0x3d2384ef	0.039921697
89	0x3d807dd6	0.06274001
90	0x3d9f5002	0.07778932
91	0xbbdbd328	-0.0067085214
92	0xbdb538ec	-0.088487476
93	0xbc0a5a8a	-0.008444438
94	0xbd87aab0	-0.06624353
95	0x3cf35588	0.02970387
96	0x3ce34b38	0.027745828
97	0x3d1f95cd	0.03896122
98	0xbc158fc3	-0.009128514
99	0x3ce1fe95	0.027587214
100	0xbceba8db	-0.02876704
101	0xbd1f484d	-0.03888731
102	0x3d2b51d8	0.0418261
103	0xbd28bd00	-0.04119587
104	0x3d9bb826	0.07603483
105	0xbcae0817	-0.021244092
106	0x3c100cba	0.008792097
107	0xbd29107c	-0.041275486
108	0x3958e20a	0.00020683571
109	0xbd3c6c84	-0.046001926
110	0xbd331ee6	-0.04373064
111	0x3c2c1ea7	0.010505355
112	0x3c70480d	0.014665616
113	0x3d12eaef	0.03586858
114	0x3b33bbd2	0.0027425182
115	0x3d4d85f3	0.050176572
116	0xbd1f6e79	-0.038923714
117	0x3d1e2a69	0.038614664
118	0x3c80f154	0.015740074
119	0xbc0edc52	-0.008719521
120	0x3d09da62	0.03365553
121	0x3d6e24a3	0.05814041
122	0xbd0ebeef	-0.034850057
123	0xbc1b800d	-0.009490979
124	0xbb087f94	-0.0020827996
125	0xbd92bb2e	-0.07164608
126	0xbd1d8c8a	-0.038464107
127	0xbac53ff6	-0.0015048969
128	0x3cf8f138	0.03038846
129	0xbdddc5e1	-0.10828758
130	0xbc4e5f8d	-0.012596023
131	0x3d0e2838	0.034706324
132	0x3cb33253	0.021874582
133	0x3d190de0	0.037366748
134	0x3cf922c7	0.030412091
135	0x3c65ba44	0.01402146
136	0xbd9289c8	-0.07155186
137	0xb915af26	-0.00014274995
138	0x3daecd86	0.08535294
139	0x3aa1b99f	0.0012338645
140	0xbcdb1e1e	-0.02674776
141	0xbd01f874	-0.031731084
142	0x3c816d1a	0.015799094
143	0x3c82f8e3	0.015987819
144	0xbcf1db8a	-0.02952363
145	0xbb6b2af7	-0.0035883763
146	0xbd45e0a5	-0.04830994
147	0x3d0bda94	0.034144
148	0x3e0d035c	0.13770813
149	0xbc33fde7	-0.010985828
150	0xbc8e9125	-0.017403195
151	0x3c9089ea	0.017643888
152	0xbd88fcc3	-0.066888355
153	0x3deb0961	0.11476398
154	0x3e132a0f	0.14371513
155	0xbe00eebe	-0.12591073
156	0x3da0af72	0.078459635
157	0x3d8c04c9	0.0683685
158	0xbe3b1228	-0.18268645
159	0x3d25c1bd	0.040467966
160	0x3e7621b4	0.24036294
161	0xbee67913	-0.45014247
162	0xbda2ae7e	-0.07943438
163	0x3da4017b	0.08008095
164	0x3c41684a	0.01180465
165	0x3b9da783	0.0048112287
166	0x3e01002e	0.12597725
167	0xbd16c4b8	-0.0368087
168	0xbde7aec7	-0.11312633
169	0x3c9e083e	0.01929104
170	0xbcd720a4	-0.026260681
171	0xbd866a22	-0.06563212
172	0xbd46205a	-0.048370697
173	0x3c2a1ace	0.010382367
174	0x3cfd0c78	0.030889735
175	0x3dad7886	0.08470254
176	0xbca14d75	-0.019690255
177	0x3d19daef	0.037562307
178	0x3c6bd1b4	0.014393259
179	0xbbf25334	-0.0073951725
180	0xbc8fc3cf	-0.017549424
181	0x3c840fea	0.01612087
182	0x3babc857	0.005242388
183	0x3b5049ab	0.003178219
184	0xbd582d82	-0.052777775
185	0x3cbc864d	0.023013258
186	0x3caa6766	0.020801257
187	0x3cdf4c5c	0.02725809
188	0xbbd4a025	-0.0064888173
189	0x3cf1450b	0.029451868
190	0xbd339c97	-0.043850508
191	0x3b41935d	0.0029537298
192	0xbc060dfe	-0.008182047
193	0xbd0fadfb	-0.03507803
194	0x3c098b44	0.00839502
195	0x3c70fcd3	0.0147087155
196	0xbc2bafd0	-0.010478929
197	0xb8dec676	-0.00010622751
198	0xbc30acf2	-0.010783421
199	0xbcc8b9fe	-0.02450275
200	0xbb6c2e76	-0.0036038435
201	0xbc0348e6	-0.008012986
202	0x3bc25d94	0.0059315655
203	0xbcc2b1da	-0.023766447
204	0x3c8e0879	0.017338024
205	0x3cd33d3b	0.025786033
206	0x3c000a64	0.007814977
207	0xbc7981c0	-0.015228689
208	0xbdb2e0a9	-0.08734257
209	0x3d945017	0.072418384
210	0xbd9de69d	-0.077100016
211	0x3d53b183	0.05168296
212	0xbcdbce02	-0.02683163
213	0xbce0eebb	-0.027457586
214	0x3cf41a8d	0.029797817
215	0x3c20f2f2	0.009823548
216	0xbbba5439	-0.0056863097
217	0xb926414f	-0.00015855323
218	0xbce40526	-0.027834486
219	0x3de60b95	0.11232678
220	0x3d7eb51b	0.062184434
221	0xbdb7eb63	-0.08980443
222	0xbbd972e5	-0.006636011
223	0x3bb4fc69	0.0055232537
224	0xbcf52428	-0.029924467
225	0x3c920287	0.01782347
226	0xbd4e533a	-0.05037234
227	0xbcd4330f	-0.025903253
228	0x3cc8f063	0.024528688
229	0x3d312c03	0.043254863
230	0x3dbd7284	0.09250358
231	0xbacf7306	-0.0015827126
232	0xbcf10d60	-0.029425323
233	0xbd0ef362	-0.034900077
234	0xba97622b	-0.0011549642
235	0xbc9fd84a	-0.019512314
236	0xbc2d365b	-0.010572041
237	0xbca11de9	-0.019667583
238	0xbcdb1b18	-0.026746318
239	0xbb996004	-0.0046806354
240	0x3cafd8a2	0.021465603
241	0x3d36275c	0.04447113
242	0xbcab3c57	-0.020902796
243	0xbd515f4c	-0.051116273
244	0x3da8f1ec	0.08249268
245	0xbc1471fc	-0.009060379
246	0xbd1da729	-0.038489494
247	0x3de4d72a	0.11173852
248	0x3c4a5023	0.012348208
249	0xbd0897af	-0.03334778
250	0xbd3584e7	-0.0443162
251	0xbd21328a	-0.03935484
252	0xbd82a8ae	-0.06379829
253	0xbc338e97	-0.010959289
254	0xbba49851	-0.0050230403
255	0x3d49034d	0.049075413

bias f4 [12]
0	0x3ac7814b	0.0015221027
1	0x3b2640b5	0.0025368158
2	0x3a844da5	0.0010093941
3	0x3b44c257	0.0030023062
4	0xba630455	-0.00086600083
5	0xbad484f1	-0.0016213936
6	0xba368ef7	-0.00069640524
7	0x3b2b05ce	0.002609599
8	0x3b7937fe	0.0038027759
9	0xbbe7d2ac	-0.0070746746
10	0x3c5b4bb3	0.013384747
11	0xbc1785be	-0.009248195
