model_epoch_5.pth (torch_old, 667646 bytes, 10 tensors)

weight f4 [12, 3, 13, 13]
0.014112458 -0.086271465 0.044489894 0.0009516976 -0.049652528 -0.06630022 0.03225633 0.04773077
-0.14283045 0.07743823 -0.033788737 -0.044295434 -0.04860513 0.023440031 -0.098338075 -0.05937467
-0.048663203 0.08790858 0.040742557 0.044018026 -0.094002225 -0.058671832 -0.0708474 -0.04021797
-0.059710756 -0.019468024 -0.08611495 -0.101678304 0.02638415 0.024949258 -0.04748138 -0.06690429
0.044602044 -0.025057977 -0.049330536 0.062123135 0.010893993 -0.08521734 0.0029938943 -0.004100925
-0.118666925 -0.10029222 -0.0591282 -0.018267868 0.055447426 -0.04974144 -0.15181701 -0.06708658
-0.107571654 0.014527834 -0.019699814 -0.11547041 -0.07324201 0.07121784 -0.10352461 -0.15003707
-0.16311885 0.06582623 -0.06339751 -0.010412223 -0.009033336 -0.014474704 -0.061507665 -0.06698827
0.049575176 -0.053896688 -0.035196733 -0.009104085 -0.08998613 -0.09697045 0.023855083 -0.10907598
0.0598459 -0.108255155 -0.0773347 0.006653939 -0.03788406 -0.020721836 -0.035423502 0.037703894
-0.21194473 -0.13397709 -0.15202232 -0.054805506 -0.08837009 -0.08346049 -0.03561858 -0.048102874
0.08539685 0.039525393 0.06445969 0.040114876 0.061280265 0.095196515 0.11630209 -0.08138029
-0.025716748 -0.005282298 -0.06101529 -0.044759683 -0.12807083 -0.039124124 -0.12801519 -0.035816915
-0.1271112 -0.0012433369 0.037949238 -0.030832944 0.051982135 -0.005544248 0.04619921 0.15365121
0.006785669 0.1343657 -0.08325713 0.04949556 0.021572223 0.07231698 -0.120246366 0.017097255
-0.07778072 -0.2466407 -0.04849652 -0.08168545 -0.12236719 0.0017387955 -1.7082024e-05 0.04954766
-0.017161475 0.07560716 -0.09484967 -0.07559322 -0.055580523 0.070324674 -0.09337766 -0.0019565285
-0.11806269 0.0026892335 -0.14548825 -0.05906127 -0.06556359 -0.048436336 -0.08272977 -0.025944075
-0.02900204 -0.03646623 -0.12981203 -0.069767095 0.061571013 0.055978473 0.050027803 -0.09223085
-0.008492284 -0.0230666 -0.003683565 -0.08857408 -0.09832593 -0.04700409 -0.123466566 -0.081126235
0.039253455 -0.0874891 -0.12720448 0.00737131 -0.06703146 -0.011334608 0.0054476587 -0.08201399
-0.013014423 -0.002082206 -0.023505053 -0.019662648 0.029132977 -0.02701381 0.04323619 -0.08374096
0.06118083 0.010099465 -0.028813988 -0.021304915 0.029797256 0.014155596 0.08296458 -0.08220447
0.116923615 -0.048719678 -0.012338044 -0.10136785 -0.06806863 -0.060805324 0.046833128 0.027386617
0.07514047 -0.08952964 0.011701957 -0.051640425 0.112630844 -0.1116301 -0.1738415 -0.12566496
0.035890494 -0.035263 0.05610476 0.02296521 -0.029557914 -0.03378608 -0.0018041765 -0.014118225
0.043669794 0.019064764 0.03805074 0.054096572 -0.042846892 -0.05875988 -0.020112893 0.025648316
-0.0011570549 0.07182925 -0.092698574 -0.17834662 0.030031145 0.122519776 -0.04376445 -0.12488803
-0.08683684 -0.07031351 -0.009582246 -0.14492461 0.03610407 -0.0074393013 0.05704316 -0.10564939
0.01664182 0.038702074 -0.10303349 0.0469775 -0.10892397 0.013195656 -0.101292625 -0.014380978
-0.022776103 0.004778787 -0.043806 0.059216958 -0.01128006 -0.08003821 -0.025439443 -0.102601625
-0.17080168 -0.19321077 -0.035628475 -0.044214506 -0.03438106 -0.14062238 -0.0641639 0.05871415
00000000: f037 673c 18af b0bd 093b 363d 587b 793a
00000010: 7360 4bbd 69c8 87bd 371f 043d 5781 433d
00000020: 2542 12be ef97 9e3d 0f66 0abd 216f 35bd
00000030: 2c16 47bd 4f05 c03c 7965 c9bd db32 73bd
00000040: 1153 47bd 6a09 b43d abe1 263d 3f4c 343d
00000050: 3d84 c0bd e051 70bd 7118 91bd 99bb 24bd
00000060: 4493 74bd 687b 9fbc 095d b0bd b73c d0bd
00000070: 9323 d83c 6362 cc3c d67b 42bd 1e05 89bd
00000080: a2b0 363d 6346 cdbc d10e 4abd d474 7e3d
00000090: b87c 323c 6e86 aebd 3635 443b 0d61 86bb
000000a0: a507 f3bd 0266 cdbd 6930 72bd 7fa6 95bc
000000b0: d71c 633d aebd 4bbd eb75 1bbe b064 89bd
000000c0: 874e dcbd 2706 6e3c 8161 a1bc c07b ecbd
000000d0: e8ff 95bd a9da 913d b604 d4bd 51a3 19be
000000e0: a108 27be e7cf 863d 8ed6 81bd 0798 2abc
000000f0: 8f00 14bc 4f27 6dbc 76ef 7bbd 2531 89bd
00000100: 570f 4b3d c6c2 5cbd 732a 10bd 4d29 15bc
00000110: a64a b8bd 7198 c6bd bc6b c33c 3a63 dfbd
00000120: f920 753d e1b4 ddbd a861 9ebd 4909 da3b
00000130: 512c 1bbd d7c0 a9bc 3c18 11bd 666f 1a3d
00000140: 0a08 59be 4a31 09be bdab 1bbe bd7b 60bd
00000150: 61fb b4bd 55ed aabd cae4 11bd 8507 45bd
00000160: 8be4 ae3d 61e5 213d 7103 843d 7f4f 243d
00000170: 0401 7b3d 64f6 c23d ca2f ee3d b6aa a6bd
00000180: eeab d2bc 2117 adbb 2beb 79bd ee55 37bd
00000190: 0025 03be 9e40 20bd 6a16 03be c2b4 12bd
000001a0: 7029 02be 77f7 a2ba a970 1b3d 5f95 fcbc
000001b0: 38eb 543d 86ac b5bb 623b 3d3d be56 1d3e
000001c0: 515a de3b 2997 093e b782 aabd dbbb 4a3d
000001d0: 3bb8 b03c ed1a 943d ba43 f6bd 8b0f 8c3c
000001e0: 804b 9fbd 618f 7cbe 49a4 46bd b44a a7bd
000001f0: a69b fabd 4ce8 e33a 5e4b 8fb7 7df2 4a3d
00000200: 3996 8cbc edd7 9a3d 8b40 c2bd 9ed0 9abd
00000210: 67a8 63bd 6206 903d c93c bfbd 1a39 00bb
00000220: daca f1bd da3d 303b dffa 14be 3bea 71bd
00000230: 3446 86bd 2e65 46bd 3a6e a9bd ab88 d4bc
00000240: b095 edbc 9d5d 15bd 72ed 04be 0de2 8ebd
00000250: e331 7c3d af49 653d f4e9 4c3d 87e3 bcbd
00000260: 3923 0bbc 2bf6 bcbc f767 71bb 5466 b5bd
00000270: 1b5f c9bd 5c87 40bd 0adc fcbd 8325 a6bd
00000280: 3bc8 203d 7c2d b3bd e441 02be 088b f13b
00000290: ca47 89bd cbb4 39bc 4682 b23b f3f6 a7bd
000002a0: 723a 55bc 9f75 08bb ab8d c0bc 9013 a1bc
000002b0: 48a8 ee3c 114c ddbc 6e18 313d 6180 abbd
000002c0: c098 7a3d 3a78 253c 500b ecbc a587 aebc
000002d0: 6019 f43c dfec 673c 55e9 a93d d15a a8bd
000002e0: a675 ef3d 498e 47bd 8225 4abc f399 cfbd
000002f0: 9167 8bbd 010f 79bd 18d4 3f3d e659 e03c
00000300: 3fe3 993d 515b b7bd 91b9 3f3c e984 53bd
00000310: 00ab e63d 529e e4bd 8203 32be 51ae 00be
00000320: e901 133d ef6f 10bd 1bce 653d 8921 bc3c
00000330: 7023 f2bc 4663 0abd 1e7a ecba 2150 67bc
00000340: 19df 323d b52d 9c3c 18db 1b3d 5e94 5d3d
00000350: 3980 2fbd 33ae 70bd cbc3 a4bc 6b1c d23c
00000360: 52a8 97ba 371b 933d c0d8 bdbd 7fa0 36be
00000370: e003 f63c a6eb fa3d 5a42 33bd 4cc5 ffbd
00000380: 83d7 b1bd 8800 90bd dafe 1cbc 1e67 14be
00000390: dce1 133d 62c5 f3bb 17a6 693d b55e d8bd
000003a0: 6d54 883c 1186 1e3d 3903 d3bd 7b6b 403d
000003b0: 8813 dfbd 9832 583c 8272 cfbd 329e 6bbc
000003c0: f394 babc 5f97 9c3b ec6d 33bd 7b8d 723d
000003d0: 00d0 38bc 13eb a3bd 6166 d0bc cd20 d2bd
000003e0: a3e6 2ebe 0bd9 45be 2aef 11bd 451a 35bd
000003f0: 28d3 0cbd 50ff 0fbe 5d68 83bd 407e 703d

weight f4 [64, 12, 7, 7]
0.016858174 -0.12822056 0.009758301 0.040785633 -0.048847955 -0.03944704 -0.06650482 0.07263329
-0.07697509 -0.033934236 -0.059690736 -0.004213451 -0.029050972 0.03281518 0.035886623 0.06817712
0.017134592 -0.10497514 -0.16478994 0.011734221 -0.03430095 -0.08923828 -0.019216023 0.00090083
0.05832629 -0.02091484 0.020114046 -0.17584835 -0.070310295 -0.035417262 0.0003351096 -0.06406255
-0.043127026 0.041539565 -0.029845065 0.04629414 -0.10855751 0.005066934 -0.037330244 -0.089757584
-0.1769676 -0.05435771 -0.07904457 -0.14009574 -0.008134934 -0.04643205 0.05612574 -0.1237603
-0.093847744 0.0130706895 0.028048052 -0.11476288 0.08331446 -0.0477688 -0.012817619 0.0067085694
-0.019513218 0.04156193 0.07026638 -0.04332482 -0.02507977 -0.108644724 -0.003398684 -0.046996757
-0.021645524 0.046149377 0.08074628 0.026366662 0.0024865887 0.08565142 -0.026641633 0.014797938
0.028378788 -0.055828393 0.18344657 -0.070385434 -0.048401076 0.0032873116 -0.020255253 0.055065814
-0.025697803 -0.03370933 -0.27933803 -0.19868948 -0.04327629 0.015226982 0.0152483685 0.040919803
0.06860821 -0.24609679 0.004183145 0.005446191 -0.04729961 0.09985439 -0.031023663 0.052266747
-0.12887017 -0.036937658 -0.02794521 0.0059101265 -0.035119306 0.020495359 -0.06634674 0.0006756365
-0.022539856 0.007052515 -0.098187126 -0.23361903 -0.101503834 -0.030520605 -0.061215356 0.016300201
0.019970184 -0.04317538 -0.07526557 -0.084269375 0.020172132 -0.11015731 0.012575366 -0.031320404
-0.0877933 -0.11730482 -0.017102795 -0.060492024 -0.09468613 -0.051469907 -0.13098194 -0.114821814
-0.09581108 0.05599124 -0.025821976 0.031692833 0.07774991 -0.090114295 -0.10561829 -0.18305042
0.04921459 -0.079334415 0.030663885 -0.023890657 -0.114303686 0.03231097 -0.276474 0.12147927
-0.055287417 0.025298093 -0.02516085 -0.0783891 0.0102792345 0.11072883 -0.05339964 -0.018233202
-0.063024156 0.05644822 0.02845884 -0.024162887 -0.02665692 -0.049324945 0.009847117 -0.0064448295
-0.042118948 -0.043045945 -0.005345691 0.009572871 0.0020412058 -0.038316607 0.047256954 0.13461863
0.0570343 0.08226141 -0.07041341 -0.07152991 -0.07662589 -0.027677666 -0.07440233 0.062607564
0.058641963 -0.028111545 0.002885606 -0.012122388 -0.03129444 -0.0056046904 -0.13881141 -0.08280795
0.108088985 -0.016278602 -0.012377035 0.016445972 0.1536267 -0.094459735 -0.022970352 0.016919639
0.06469394 -0.17405531 -0.031005131 0.16605903 -0.051648576 0.0350584 0.090463065 -0.025286935
-0.19935125 -0.3366186 0.14255565 0.06280037 -0.067462794 0.013176446 0.003847365 -0.029405218
-0.74379766 0.0023012115 -0.02470082 0.05031725 -0.041712422 -0.058980577 -0.028372405 -0.30898172
-0.45817968 0.024471464 -0.018461203 -0.121930555 0.08505741 -0.019113524 -1.136894 -0.41533428
0.015331889 -0.0106374165 -0.019557538 0.056885798 0.12025243 -0.47393006 -0.3801639 -0.010290852
-0.0002340341 0.038942292 0.08966269 -0.038559817 -0.0870352 -0.44539276 -0.032268465 0.030933117
-0.07959824 0.054038867 0.15712309 0.0356016 -0.16597736 0.048478723 0.106488876 0.02997373
-0.071625136 0.0011283662 -0.09054111 0.039121136 -0.028154088 0.026306743 -0.06666846 -0.10941397
00000000: 271a 8a3c 404c 03be 48e1 1f3c d60e 273d
00000010: cb14 48bd 3893 21bd ae33 88bd c3c0 943d
00000020: 1ea5 9dbd a0fe 0abd 467e 74bd fd10 8abb
00000030: 4efc edbc 3669 063d dafd 123d 72a0 8b3d
00000040: d85d 8c3c 35fd d6bd b2be 28be e440 403c
00000050: 277f 0cbd 8fc2 b6bd ec6a 9dbc ae25 6c3a
00000060: 8ce7 6e3d 9955 abbc 36c6 a43c 9711 34be
00000070: d8fe 8fbd b111 11bd a6b1 af39 3a33 83bd
00000080: f7a5 30bd 6425 2a3d a37d f4bc ed9e 3d3d
00000090: 6653 debd 8608 a63b 99e7 18bd d3d2 b7bd
000000a0: ff36 35be 31a6 5ebd 1fe2 a1bd 4275 0fbe
000000b0: 6348 05bc 892f 3ebd 1be4 653d 0a76 fdbd
000000c0: 3f33 c0bd 7226 563c 07c5 e53c cd08 ebbd
000000d0: c6a0 aa3d 38a9 43bd fe00 52bc 8fd3 db3b
000000e0: 2fda 9fbc d83c 2a3d d2e7 8f3d 5e75 31bd
000000f0: 1774 cdbc 2081 debd 75bc 5ebb ac7f 40bd
00000100: f451 b1bc 2107 3d3d 4e5e a53d e6fe d73c
00000110: 09f6 223b 036a af3d 8e3f dabc 0d73 723c
00000120: a27a e83c 50ac 64bd 6bd9 3b3e 3d26 90bd
00000130: 3540 46bd f06f 573b 58ee a5bc b18c 613d
00000140: 3384 d2bc cb12 0abd 6505 8fbe 4175 4bbe
00000150: 7b42 31bd 977a 793c 4bd4 793c 869b 273d
00000160: 7682 8c3d cc00 7cbe c312 893b f675 b23b
00000170: 3cbd 41bd 7580 cc3d 5625 febc a815 563d
00000180: 8bf6 03be f14b 17bd 5aed e4bc bca9 c13b
00000190: 43d9 0fbd e2e5 a73c cde0 87bd 331d 313a
000001a0: 81a5 b8bc c918 e73b 5516 c9bd d439 6fbe
000001b0: 3ee1 cfbd 5906 fabc f4bc 7abd 0088 853c
000001c0: 8398 a33c abd8 30bd d624 9abd 6c95 acbd
000001d0: 0740 a53c 289a e1bd e808 4e3c d349 00bd
000001e0: f9cc b3bd 823d f0bd 291b 8cbc 7cc6 77bd
000001f0: cdea c1bd 1cd2 52bd 2120 06be b327 ebbd
00000200: 9938 c4bd 1257 653d 9c88 d3bc 58d0 013d
00000210: 583b 9f3d d88d b8bd 674e d8bd 9271 3bbe
00000220: 3d95 493d 157a a2bd d432 fb3c 57b6 c3bc
00000230: 0d18 eabd 8258 043d 008e 8dbe 20ca f83d
00000240: 0f75 62bd f23d cf3c 201e cebc 778a a0bd
00000250: 3c6a 283c ccc5 e23d 95b9 5abd cc5d 95bc
00000260: cf12 81bd 4036 673d 8322 e93c 3ff1 c5bc
00000270: 9d5f dabc f408 4abd cd55 213c 262f d3bb
00000280: eb84 2cbd f250 30bd e82a afbb 88d7 1c3c
00000290: c0c5 053b e0f1 1cbd 8290 413d 77d9 093e
000002a0: cc9c 693d ac78 a83d e834 90bd 467e 92bd
000002b0: 09ee 9cbd 46bc e2bc 4060 98bd 6538 803d
000002c0: 8e32 703d 2f4a e6bc 6f1c 3d3b fb9c 46bc
000002d0: 992e 00bd 8da7 b7bb 9424 0ebe 3797 a9bd
000002e0: c25d dd3d b45a 85bc 0cc9 4abc b4b9 863c
000002f0: 5150 1d3e 1b74 c1bd 522c bcbc 0e9b 8a3c
00000300: 427e 843d 8e3b 32be 79fe fdbc 610b 2a3e
00000310: 758d 53bd 6699 0f3d b344 b93d 8c26 cfbc
00000320: bc22 4cbe 4659 acbe 1cfa 113e 7b9d 803d
00000330: ef29 8abd 05e2 573c 1324 7c3b 36e3 f0bc
00000340: 8669 3ebf eccf 163b 6059 cabc 7619 4e3d
00000350: a5da 2abd 9e95 71bd 3f6d e8bc da32 9ebe
00000360: 8796 eabe 6178 c83c f33b 97bc bab6 f9bd
00000370: 9432 ae3d f793 9cbc be85 91bf b2a6 d4be
00000380: 9a32 7b3c 8f48 2ebc 2137 a0bc 1501 693d
00000390: e846 f63d f6a6 f2be d8a4 c2be f69a 28bc
000003a0: 0d67 75b9 f481 1f3d 13a1 b73d e6f0 1dbd
000003b0: 833f b2bd 850a e4be f02b 04bd 7367 fd3c
000003c0: 6704 a3bd dc57 5d3d e0e4 203e fcd2 113d
000003d0: f8f5 29be a091 463d d716 da3d 788b f53c
000003e0: 33b0 92bd b0e5 933a 9e6d b9bd 7c3d 203d
000003f0: 67a3 e6bc 3d81 d73c 7989 88bd 6e14 e0bd

weight f4 [64, 64, 3, 3]
-0.24607255 0.3030744 0.16082078 -0.49202418 0.53739977 -0.12572528 -0.30214828 -0.1668208
0.15406944 -0.004502772 0.016596073 0.10297512 -0.0035706328 0.046174783 0.025574213 0.09297913
-0.020642897 -0.08460823 -0.0046634167 -0.03572271 -0.074877486 -0.02459514 0.5631193 -0.12786467
-0.08262359 -0.04018902 -0.06932009 0.08020178 0.0543268 -0.06637187 -0.022408133 -0.014262491
0.046361398 -0.0149865635 -0.032286946 0.043934926 -0.061682455 0.006185003 -0.07858675 0.085884646
-0.058885284 -0.08249427 0.08454874 0.02865058 -0.06272623 -0.12879261 -0.024771443 0.008098147
0.15233718 0.030337106 -0.0022078645 0.0150710475 -0.06953304 -0.03070278 0.040661074 0.06701242
-0.06561006 -0.0013225551 0.05927693 -0.014362347 0.117131904 0.041936584 -0.09245055 -0.05834651
-0.103780635 -0.016898029 -0.025832292 0.28013727 0.013925043 -0.0766058 -0.016137125 -0.03382203
-0.043476507 -0.06560449 0.0002050168 -0.29266694 -0.14516893 0.06901187 0.08525451 -0.0032651115
-0.011481748 -0.002593983 -0.04512704 -0.178437 -0.028454006 -0.0680239 -0.18380015 -0.08776533
-0.0018395667 -0.11441173 -0.037671022 -0.011785152 0.03476778 -0.047010686 0.014816861 -0.09813151
0.073400475 -0.021744164 0.018044053 -0.027639173 -0.0057047238 -0.024073133 -0.08011969 0.0070617925
0.032920767 0.053453468 -0.05006631 0.004966066 -0.014487984 0.0769415 -0.032564618 0.0066824616
0.12512414 -0.2533397 -0.058509633 -0.1872165 -0.117136315 0.12699702 0.028531808 -0.3007173
-0.043135863 -0.019445434 -0.09495751 -0.15583092 0.0028528057 -0.048119295 0.2633444 -0.009858265
-0.16699244 0.35723943 -0.41028804 -0.327288 -0.22841759 -0.17285033 -0.1077876 -0.053116046
0.057552353 0.087414995 0.0018722994 -0.08475227 -0.02142343 0.03482674 -0.109974205 0.017037561
-0.09731451 -0.09552137 -0.10893601 0.0354195 0.15541746 0.030495847 0.10886631 0.015079486
-0.03676267 0.015366516 -0.074791476 -0.0074258656 -0.016295264 -0.020363137 0.051298413 0.05836652
0.017603755 -0.07989416 -0.09452595 -0.054465007 -0.078579806 0.00039404325 -0.016593441 -0.034443162
-0.087586544 -0.031864792 0.04349012 -0.037657913 -0.033707075 -0.06048144 -0.013320458 0.121057406
-0.074031726 -0.0168386 -0.020457568 -0.048058443 -0.09427122 0.12540232 -0.15434046 -0.04216617
0.08173734 -0.026748415 -0.104711786 -0.04659387 -0.0630748 -0.010644374 0.019987203 -0.08293949
-0.022720046 -0.15911004 -0.19074321 0.25545135 0.08289237 0.033253513 -0.04146949 -0.040461004
-0.031084865 0.031427067 0.0371791 0.048546765 -0.058383293 0.006750987 0.0978181 0.07360997
-0.06686431 -0.019830555 -0.0441401 0.010989986 0.10171298 0.048760027 0.2409254 0.04200765
-0.12304593 0.024118064 0.014598189 -0.058653116 0.108583085 -0.031085314 -0.12346462 -0.051312473
0.025866533 0.012591638 -0.03279086 -0.04774674 0.014323076 0.021279449 -0.07195429 0.104188345
-0.015216408 -0.011033383 -0.028529752 -0.07944843 0.03260086 -0.03599286 -0.039179377 -0.035270594
-0.078219086 -0.06712106 0.093681194 -0.0032615338 0.035380226 -0.0029151272 0.08898565 0.049446948
0.11011968 -0.016440805 0.026077054 0.08123218 -0.07498472 -0.025893485 0.018906614 -0.07930461
00000000: 71fa 7bbe 912c 9b3e 34ae 243e 98ea fbbe
00000010: 0893 093f 21be 00be 2eb3 9abe 12d3 2abe
00000020: 61c4 1d3e fd8b 93bb 7df4 873c 9fe4 d23d
00000030: 4701 6abb c521 3d3d 0381 d13c d86b be3d
00000040: 4b1b a9bc 1447 adbd 93cf 98bb fa51 12bd
00000050: 5e59 99bd bf7b c9bc 9628 103f f5ee 02be
00000060: 8f36 a9bd 3e9d 24bd b1f7 8dbd d540 a43d
00000070: c785 5e3d faed 87bd 4391 b7bc 39ad 69bc
00000080: 73e5 3d3d 348a 75bc 513f 04bd 1cf5 333d
00000090: bea6 7cbd 91ab ca3b 17f2 a0bd 4ae4 af3d
000000a0: b231 71bd c1f2 a8bd e427 ad3d 9fb4 ea3c
000000b0: 9c76 80bd 36e2 03be 7bed cabc 17ae 043c
000000c0: 47fe 1b3e 8685 f83c d2b1 10bb 8eec 763c
000000d0: 5767 8ebd 6584 fbbc 3a8c 263d cf3d 893d
000000e0: 915e 86bd 9659 adba 5ecc 723d 0d50 6bbc
000000f0: dae2 ef3d b2c5 2b3d b756 bdbd c0fc 6ebd
00000100: f18a d4bd bc6d 8abc 3e9e d3bc 276e 8f3e
00000110: dd25 643c 80e3 9cbd 0132 84bc f888 0abd
00000120: 6c14 32bd a65b 86bd c7f9 5639 71d8 95be
00000130: 2aa7 14be 1856 8d3d eb99 ae3d 7bfb 55bb
00000140: f11d 3cbc d0ff 29bb 22d7 38bd 30b8 36be
00000150: 6018 e9bc 1d50 8bbd 1b36 3cbe 4fbe b3bd
00000160: 9e1d f1ba b250 eabd ee4c 1abd 8316 41bc
00000170: a968 0e3d 478e 40bd 6bc2 723c 2cf9 c8bd
00000180: fd52 963d d120 b2bc 1fd1 933c 8c6b e2bc
00000190: b1ee babb 0535 c5bc cb15 a4bd 9c66 e73b
000001a0: edd7 063d 06f2 5a3d 5512 4dbd 62ba a23b
000001b0: 025f 6dbc 8193 9d3d 7a62 05bd 8df8 da3b
000001c0: 8b20 003e beb5 81be cca7 6fbd afb5 3fbe
000001d0: 2ae5 efbd 820b 023e 8abb e93c 9ef7 99be
000001e0: 3baf 30bd 084c 9fbc 1579 c2bd 2492 1fbe
000001f0: 23f6 3a3b bd18 45bd 14d5 863e 8f84 21bc
00000200: 1100 2bbe 16e8 b63e 4611 d2be 4b92 a7be
00000210: 4de6 69be adff 30be bfbf dcbd 3690 59bd
00000220: 04bc 6b3d a206 b33d f167 f53a 9992 adbd
00000230: 3080 afbc 7ca6 0e3d 283a e1bd 5b92 8b3c
00000240: d44c c7bd b5a0 c3bd d819 dfbd 0a14 113d
00000250: c125 1f3e 6dd2 f93c 4df5 de3d f30f 773c
00000260: 7494 16bd d7c3 7b3c 462c 99bd ad54 f3bb
00000270: a57d 85bc 98d0 a6bc 491e 523d bb11 6f3d
00000280: c035 903c 8d9f a3bd d296 c1bd b316 5fbd
00000290: 73ee a0bd 9797 ce39 f8ee 87bc 4614 0dbd
000002a0: 9360 b3bd a884 02bd b222 323d 2f3f 1abd
000002b0: 6e10 0abd 63bb 77bd 0d3e 5abc f2ec f73d
000002c0: f29d 97bd 1bf1 89bc a196 a7bc eed8 44bd
000002d0: 4511 c1bd 7769 003e 6d0b 1ebe 6fb6 2cbd
000002e0: e865 a73d 7e1f dbbc 2273 d6bd 37d9 3ebd
000002f0: 5c2d 81bd be65 2ebc 34bc a33c 2edc a9bd
00000300: 641f babc beed 22be 3052 43be 85ca 823e
00000310: 7ac3 a93d d634 083d e9db 29bd 70ba 25bd
00000320: b0a5 febc abb9 003d 1d49 183d f9d8 463d
00000330: 5223 6fbd 6237 dd3b db54 c83d d3c0 963d
00000340: 28f0 88bd b073 a2bc 40cc 34bd 580f 343c
00000350: e54e d03d 98b8 473d 26b5 763e 3710 2c3d
00000360: 81ff fbbd 3f93 c53c 3e2d 6f3c 403e 70bd
00000370: cf60 de3d a1a6 febc 05db fcbd 072d 52bd
00000380: 0de6 d33c 284d 4e3c b54f 06bd 1692 43bd
00000390: 56ab 6a3c 3d52 ae3c c55c 93bd b360 d53d
000003a0: 3e4e 79bc 5dc5 34bc 3ab7 e9bc dcb5 a2bd
000003b0: 7b88 053d 406d 13bd 8e7a 20bd e677 10bd
000003c0: 5431 a0bd c476 89bd eddb bf3d 75bf 55bb
000003d0: dbea 103d b80b 3fbb 1c3e b63d e288 4a3d
000003e0: 6d86 e13d deae 86bc 8c9f d53c 0f5d a63d
000003f0: 9791 99bd 931e d4bc 0be2 9a3c 756a a2bd

bias f4 [64]
-0.033102714 0.029266484 0.1740436 -0.09844249 0.03302405 0.0062455432 -0.0028971084 0.016301572
0.080112725 0.066216506 0.07649643 -0.05748503 -0.002457367 -0.004066481 0.00042791225 -0.0689822
0.0071904473 -0.019713957 -0.0019184605 0.010421535 -0.016043933 0.017857635 -0.021735067 -0.054428134
0.062030457 0.06839403 0.097422235 0.036424715 0.072252996 -0.015984563 -0.0077430364 -0.01535743
-0.027449174 0.117403425 -0.03455043 -0.001989532 0.029954439 0.18660945 0.007182634 -0.0039200704
0.043582465 0.0030671475 0.046654236 -0.5653253 -0.00563507 0.054218728 -0.0011336991 -0.2042535
0.0014444633 -0.00010642504 0.010179584 0.01381777 0.1076164 0.040211722 -0.04837673 -0.063745454
-0.0051753316 -0.06566725 0.045504153 -0.028815508 -0.0006394392 -0.020277197 -0.0022067365 -0.10825531
00000000: b696 07bd 44c0 ef3c 7c38 323e 379c c9bd
00000010: 3a44 073d 6aa7 cc3b 6add 3dbb e08a 853c
00000020: 2412 a43d 859c 873d 29aa 9c3d 6c75 6bbd
00000030: c70b 21bb 1d40 85bb 6959 e039 8a46 8dbd
00000040: d89d eb3b 2a7f a1bc da74 fbba 16bf 2a3c
00000050: 916e 83bc 2d4a 923c bd0d b2bc 09f0 5ebd
00000060: a613 7e3d 2b12 8c3d 4f85 c73d 1532 153d
00000070: 61f9 933d 0ff2 82bc 4cb9 fdbb bb9d 7bbc
00000080: 17dd e0bc 3571 f03d c084 0dbd cf62 02bb
00000090: 0363 f53c 8c16 3f3e 4d5c eb3b ef73 80bb
000000a0: 8783 323d 3202 493b 8318 3f3d 29b9 10bf
000000b0: 65a6 b8bb 7514 5e3d a198 94ba d427 51be
000000c0: 2554 bd3a 8230 dfb8 45c8 263c ee63 623c
000000d0: fd65 dc3d 0cb5 243d ae26 46bd fa8c 82bd
000000e0: d495 a9bb 8d7c 86bd 9062 3a3d 800e ecbc
000000f0: 0aa0 27ba 5d1c a6bc e59e 10bb f6b4 ddbd

weight f4 [64, 64, 3, 3]
0.09420327 0.011092672 -0.108981945 -0.05842469 -0.22058973 0.015240493 0.030119719 -0.16533437
-0.05342768 -0.13956286 0.04570217 -0.07620213 -0.13047251 0.012391208 -0.18969521 -0.08925802
0.026156288 -0.04306229 0.16592078 -0.19218591 -0.008192294 0.15179496 -0.20600316 -0.24878883
0.08118812 -0.31442106 -0.21392834 0.06882002 0.14023677 0.24152645 0.015592973 0.055992343
0.19384816 -0.0805917 -0.064159065 -0.08991016 -0.024452822 -0.15755504 0.0741314 -0.109808214
-0.25191283 0.02426821 -0.0065888315 -0.14281671 0.058869004 -0.12553518 0.000487665 0.008431279
0.011342268 -0.044041034 -0.034310196 -0.04104033 -0.023004007 0.005144404 -0.09278122 -0.0023485397
-0.009382471 -0.0029772539 0.009602292 -0.07186181 0.00941578 -0.07079823 -0.013290337 0.037207395
-0.009119969 -0.010395085 -0.003657124 -0.028075498 0.0738115 0.030035645 -0.06839273 -0.12172892
-0.16424121 0.02189957 -0.04428689 -0.1918089 -0.013434522 0.012112695 -0.19134286 -0.031187842
-0.036249552 -0.04727107 -0.06516213 -0.044747647 0.19940929 -0.041332964 0.045228023 0.074091695
0.022770904 0.017831247 -0.053695764 -0.05919345 -0.07655845 0.0021464475 0.13436137 0.032622077
-0.04578243 -0.03709197 0.004573011 0.033032756 -0.06656943 0.038892295 0.08613836 0.01795612
0.007522446 -0.0139473975 0.05721134 -0.034832947 -0.0522161 -0.06139642 -0.05445378 -0.08416987
-0.107231915 0.0097490195 -0.007112765 -0.13850091 -0.01851726 -0.1091138 0.020036638 0.008971009
-0.15705842 -0.123396866 -0.05514273 -0.075036876 -0.019324865 -0.04884358 -0.05956208 -0.00798383
-0.081495605 -0.19779049 0.05856733 -0.03375647 -0.1455138 0.047478907 0.04410319 -0.057490796
-0.08421535 -0.0751362 0.004425253 -0.015082078 -0.068115674 -0.08892014 -0.06556917 0.0720591
0.0055513903 -0.058881864 -0.073418 -0.03139279 0.046732645 -0.10740664 0.0024099485 0.041050315
-0.030864494 -0.065806955 -0.0417 -0.039805457 -0.010910597 -0.07096091 -0.1537294 0.05099606
0.0045880694 -0.13365673 0.018862737 -0.027783634 -0.10247693 0.027050743 -0.021811256 -0.05381928
0.09696439 0.00269662 0.029555041 0.08718138 -0.08411807 0.055133156 0.036663704 0.018779615
0.048333734 -0.0010790594 -0.19155186 -0.003941437 0.031829633 -0.037653044 -0.18988433 0.06285486
-0.22398089 -0.10530816 0.08690694 -0.09079132 -0.1731498 -0.010340889 -0.046554483 -0.07360805
-0.004162339 -0.06038728 -0.057888094 0.21966085 -0.06390012 -0.018283434 0.05008164 -0.032761235
-0.025444854 0.022991503 -0.034752842 -0.0008846712 -0.04839701 -0.06619593 0.0125290025 -0.07247747
0.07575749 0.085663594 -0.046349138 -0.028411392 0.01874909 -0.07535678 -0.07416831 -0.037147623
-0.07220693 -0.12673447 0.059292663 0.013040962 -0.09480109 -0.06039335 -0.013221231 -0.049351055
-0.01594924 -0.1557797 0.10427033 -0.012010728 -0.07497688 0.10437436 -0.057563484 -0.09669497
0.019205634 -0.04350003 0.025485732 -0.29942167 -0.02930617 0.033022128 -0.34361205 -0.0334732
-0.0028689718 -0.3063911 0.028648365 0.10652761 -0.17764083 -0.103467174 -0.0103723565 -0.37017354
-0.1322757 0.060365457 -0.37309352 -0.23719646 -0.04585325 0.049092714 -0.23006633 -0.02494361
00000000: a5ed c03d 0abe 353c ed31 dfbd ba4e 6fbd
00000010: 46e2 61be 43b3 793c a1bd f63c 6a4d 29be
00000020: fcd6 5abd 91e9 0ebe 3332 3b3d dd0f 9cbd
00000030: 969a 05be 7e04 4b3c 763f 42be e9cc b6bd
00000040: b645 d63c 1562 30bd 23e7 293e 62cc 44be
00000050: f938 06bc 2370 1b3e 7ef2 52be 80c2 7ebe
00000060: f545 a63d ccfb a0be 0810 5bbe 83f1 8c3d
00000070: 3a9a 0f3e b652 773e ab79 7f3c 3a58 653d
00000080: 2280 463e 430d a5bd d465 83bd d122 b8bd
00000090: 4951 c8bc 1c56 21be 34d2 973d 21e3 e0bd
000000a0: b8fa 80be 20ce c63c 20e7 d7bb 8b3e 12be
000000b0: a020 713d 4b8c 00be 4aad ff39 5923 0a3c
000000c0: ecd4 393c 5f64 34bd d988 0cbd e819 28bd
000000d0: e672 bcbc 6392 a83b 1504 bebd f5e9 19bb
000000e0: f0b8 19bc 081e 43bb ef52 1d3c 492c 93bd
000000f0: a544 1a3c aafe 90bd b7bf 59bc c866 183d
00000100: ec6b 15bc 2650 2abc 5cac 6fbb 96fe e5bc
00000110: 7c2a 973d 500d f63c 7d11 8cbd 034d f9bd
00000120: d92e 28be ba66 b33c 2c66 35bd 8d69 44be
00000130: 781c 5cbc 5374 463c 62ef 43be a57d ffbc
00000140: 697a 14bd 4f9f 41bd b973 85bd 4f49 37bd
00000150: f331 4c3e c14c 29bd 0541 393d 63bd 973d
00000160: 0c8a ba3c d612 923c 17f0 5bbd d574 72bd
00000170: adca 9cbd 6aab 0c3b 0796 093e ba9e 053d
00000180: 5b86 3bbd c0ed 17bd 32d9 953b 5b4d 073d
00000190: 8e55 88bd 874d 1f3d 4f69 b03d b718 933c
000001a0: da7e f63b a083 64bc 7056 6a3d feac 0ebd
000001b0: 8de0 55bd d07a 7bbd ed0a 5fbd 4161 acbd
000001c0: 689c dbbd 5aba 1f3c 3312 e9bb 2fd3 0dbe
000001d0: 82b1 97bc 0e77 dfbd e023 a43c 24fb 123c
000001e0: ecd3 20be 7fb7 fcbd 58dd 61bd efac 99bd
000001f0: 2e4f 9ebc 3510 48bd 5ef7 73bd 9cce 02bc
00000200: 2be7 a6bd 9789 4abe 4ce4 6f3d 3944 0abd
00000210: 9201 15be 3e79 423d 8ca5 343d 787b 6bbd
00000220: 1979 acbd 02e1 99bd b601 913b d21a 77bc
00000230: 3b80 8bbd c31b b6bd 2149 86bd b993 933d
00000240: 70e8 b53b 1c2e 71bd 2d5c 96bd ba95 00bd
00000250: bb6a 3f3d 03f8 dbbd 3af0 1d3b 6024 283d
00000260: 89d7 fcbc ccc5 86bd 9fcd 2abd 0c0b 23bd
00000270: 5cc2 32bc f453 91bd 3d6b 1dbe 3fe1 503d
00000280: 8457 963b 4fdd 08be 0786 9a3c 819a e3bc
00000290: 6ddf d1bd 8599 dd3c 85ad b2bc 9b71 5cbd
000002a0: 4495 c63d c7b9 303b 6a1d f23c 278c b23d
000002b0: 1846 acbd 4ed3 613d ae2c 163d b5d7 993c
000002c0: 98f9 453d 3a6f 8dba 2c26 44be 2c27 81bb
000002d0: ca5f 023d 143a 1abd 0a71 42be 0dba 803d
000002e0: 3f5b 65be ceab d7bd 44fc b13d cdf0 b9bd
000002f0: 2e4e 31be d56c 29bc eaaf 3ebd d1bf 96bd
00000300: 3b64 88bb a758 77bd 111c 6dbd c6ee 603e
00000310: 11de 82bd 24c7 95bc 6822 4d3d a530 06bd
00000320: ba71 d0bc ad58 bc3c ff58 0ebd 47e9 67ba
00000330: f13b 46bd bb91 87bd 7246 4d3c 116f 94bd
00000340: be26 9b3d 6570 af3d 98d8 3dbd 02bf e8bc
00000350: b197 993c a854 9abd 8ee5 97bd 1b28 18bd
00000360: 3ae1 93bd aec6 01be dddc 723d c2a9 553c
00000370: 1327 c2bd 045f 77bd dd9d 58bc 5524 4abd
00000380: fba7 82bc b784 1fbe af8b d53d a5c8 44bc
00000390: 7a8d 99bd 39c2 d53d b0c7 6bbd 0308 c6bd
000003a0: 2255 9d3c 162d 32bd 74c7 d03c cc4d 99be
000003b0: 7e13 f0bc 3642 073d ebed afbe 321b 09bd
000003c0: 5c05 3cbb 4bdf 9cbe faaf ea3c 262b da3d
000003d0: 7ae7 35be 99e6 d3bd d1f0 29bc 6387 bdbe
000003e0: 4873 07be c541 773d 1d06 bfbe a1e3 72be
000003f0: 9ed0 3bbd 7115 493d 8296 6bbe 8b56 ccbc

bias f4 [64]
0.06499381 0.035831388 -0.06539543 -0.00836197 0.019284334 -0.04974534 -0.00653981 -0.108837314
0.047473982 0.07978928 0.04569042 0.011505682 -0.0059863064 -0.041351024 0.10037281 -0.11289454
-0.024591837 0.09364479 -0.013259091 -0.07220313 -0.0041285083 -0.0658047 0.05464343 0.03357708
0.05279637 0.025568362 0.0050035072 0.05454183 -0.069397606 -0.006954528 -0.037410725 0.029374612
-0.010891848 -0.041055832 0.026004687 -0.0019725072 -0.03547232 -0.010554261 -0.059598695 0.0037257168
-0.046494447 -0.018107686 0.03667675 0.050424453 -0.021369621 0.0840117 -0.054430753 0.02914356
0.049352415 0.03739679 -0.00647845 -0.056384936 0.06516654 0.1196101 0.23815054 -0.0032890495
0.009319582 -0.056877017 -0.022095488 0.07753614 -0.0508765 -0.079841 -0.059863433 0.038002837
00000000: 7a1b 853d efc3 123d 0aee 85bd a500 09bc
00000010: 2efa 9d3c c5c1 4bbd e74b d6bb 19e6 debd
00000020: 1474 423d 9068 a33d e125 3b3d 5482 3c3c
00000030: c728 c4bb b15f 29bd 4390 cd3d 4135 e7bd
00000040: d274 c9bc d7c8 bf3d a93c 59bc 3cdf 93bd
00000050: 7048 87bb 9dc4 86bd cad1 5f3d 1f88 093d
00000060: 0241 583d be74 d13c 76f4 a33b 4167 5f3d
00000070: 5520 8ebd cfe2 e3bb fd3b 19bd 07a3 f03c
00000080: b973 32bc 292a 28bd c807 d53c 2e45 01bb
00000090: 6c4b 11bd c7eb 2cbc c31d 74bd 282b 743b
000000a0: f670 3ebd 9256 94bc 5c3a 163d df89 4e3d
000000b0: 580f afbc 530e ac3d c8f2 5ebd 7abe ee3c
000000c0: c225 4a3d 602d 193d 2d49 d4bb e4f3 66bd
000000d0: 0976 853d 24f6 f43d bcdd 733e 188d 57bb
000000e0: 29b1 183c e0f7 68bd 9901 b5bc 45cb 9e3d
000000f0: e063 50bd ae83 a3bd 5c33 75bd dda8 1b3d

weight f4 [64, 64, 3, 3]
-0.027219672 0.003625472 -0.06837031 0.053582866 -0.10491754 -0.06243473 -0.10818375 0.019089047
0.019699015 0.04970035 -0.048208255 0.044546444 -0.02659093 -0.016434276 -0.09555266 -0.002862642
-0.013360044 -0.11263333 -0.075170584 -0.038452134 0.07056732 -0.053720914 -0.011862647 0.04521768
-0.025386216 0.045500167 -0.052848406 0.0050427024 -0.042897407 0.01764802 -0.058171697 -0.016223453
0.05568561 0.059953276 -0.06315885 -0.03671213 0.0016215061 0.008613391 -0.012410169 -0.027693797
-0.036416497 -0.07513264 -0.041440837 -0.015516597 -0.021605913 0.026692694 0.014218881 -0.043245684
0.023012547 -2.2163482e-05 0.013424174 -0.076242425 -0.044212416 -0.118287615 -0.022196326 0.035772834
-0.030719101 -0.10837624 -0.06461 0.09461584 0.06670269 -0.0054091085 -0.031917848 -0.0023832484
-0.1140126 0.023184797 0.015958602 0.009623853 -0.004442045 -0.04906048 0.012024447 -0.08416198
-0.046830002 -0.12700507 -0.14133428 -0.15559427 0.0113050155 -0.115195386 -0.03565438 -0.005901328
-0.013612655 0.092485525 -0.0024614257 0.0068667443 -0.059831914 0.0025265794 -0.016017446 -0.045388836
-0.01703062 -0.085510105 0.031647496 -0.018735535 -0.13662325 0.027549375 -0.22167419 -0.08151606
-0.12064236 0.035437107 -0.034634616 0.038034834 -0.012433899 -0.10719735 0.015671406 0.003913432
-0.03846967 -0.0046839435 -0.004469193 -0.033834524 -0.06747586 -0.024087366 0.0547588 -0.07851061
-0.09864178 -0.07451032 -0.016824357 -0.057368897 -0.054870356 -0.018180579 0.044687156 -0.044312365
-0.07340335 0.022207802 -0.06958085 -0.013162052 -0.055118497 -0.09131339 -0.1541392 -0.004356845
0.035157364 0.07903011 -0.13100551 0.034258507 -0.11293099 -0.06768399 -0.085161805 -0.052973717
0.07471238 0.04814703 -0.0017607129 -0.024117162 -0.08119434 -0.09867081 0.052086417 -0.18236244
0.07374463 -0.07828607 0.065383986 0.030756423 -0.05194533 -0.015626658 -0.034426287 -0.01926387
-0.024305595 -0.065214604 -0.10682816 -0.12825494 -0.111014776 -0.09870748 0.002252803 0.041395105
0.090044275 0.014539955 -0.07707159 0.04351335 -0.06512071 0.091797434 -0.0052291695 0.005266856
0.08991419 0.047269765 0.081337914 -0.024972247 0.057391826 -0.17073227 -0.039794754 -0.10282958
0.009320957 0.06316657 -0.01950801 0.03954299 -0.07838107 -0.022451308 -0.04370985 -0.042641178
-0.012983466 -0.0697187 0.05743507 -0.06865728 -0.0038405766 0.023847438 -0.0064971023 -0.04731351
-0.013493847 0.035969637 0.13121864 -0.08631113 0.04507795 0.08871211 0.045823622 0.0047738957
0.033766687 -0.018218065 -0.04198021 -0.05992026 0.09400736 0.0319346 0.02500711 -0.12187476
0.032838784 -0.13727474 0.14183645 -0.010159451 -0.007234238 0.0906777 0.13880232 0.043210395
-0.022630543 0.004040867 -0.039511874 0.03678122 -0.082605556 -0.12124209 -0.017156322 -0.030071922
-0.06427419 -0.020661162 -0.12615344 0.069128454 -0.055120666 0.006054115 -0.016526757 0.11198383
0.038314495 -0.08662512 -0.04484332 -0.04622512 -0.03041222 -0.08161726 -0.016871149 -0.037321366
0.013592475 -0.099611364 0.052541845 -0.016756251 -0.009786432 -0.0118113905 -0.05230553 -0.026189761
-0.05918052 0.0009610943 -0.21927795 -0.120724075 -0.0002604632 -0.066433355 -0.08855313 -0.09560769
00000000: cafb debc 5499 6d3b bc05 8cbd b579 5b3d
00000010: 02df d6bd 8fbb 7fbd 718f ddbd a260 9c3c
00000020: d45f a13c 9892 4b3d 0576 45bd 5576 363d
00000030: 39d5 d9bc 2da1 86bc 1db1 c3bd 2a9b 3bbb
00000040: 16e4 5abc 4eac e6bd 09f3 99bd fc7f 1dbd
00000050: 9985 903d 760a 5cbd 8c5b 42bc 2d36 393d
00000060: c1f6 cfbc 625e 3a3d 9277 58bd 413d a53b
00000070: 31b5 2fbd 9592 903c 7245 6ebd 0ce7 84bc
00000080: 9816 643d 9191 753d 6d59 81bd 755f 16bd
00000090: b788 d43a 2e1f 0d3c 0554 4bbc 1ade e2bc
000000a0: 7729 15bd 24df 99bd debd 29bd 5339 7ebc
000000b0: e2fe b0bc a3aa da3c 4ff6 683c 6322 31bd
000000c0: cf84 bc3c b7eb b9b7 11f1 5b3c fd24 9cbd
000000d0: 1418 35bd c740 f2bd 12d5 b5bc 8986 123d
000000e0: a0a6 fbbc 5df4 ddbd 3f52 84bd f3c5 c13d
000000f0: 6c9b 883d e43e b1bb 4abc 02bd 4630 1cbb
00000100: 707f e9bd 0bee bd3c 9dbb 823c 5dad 1d3c
00000110: 938e 91bb a4f3 48bd 3002 453c 1e5d acbd
00000120: d1d0 3fbd 9e0d 02be efb9 10be 1b54 1fbe
00000130: ac38 393c 8feb ebbd 540a 12bd ed5f c1bb
00000140: 9d07 5fbc 0d69 bd3d df4f 21bb 6d02 e13b
00000150: 4f12 75bd f894 253b 0537 83bc a5e9 39bd
00000160: cc83 8bbc ec1f afbd cea0 013d 447b 99bc
00000170: f7e6 0bbe 3aaf e13c 8ffe 62be e4f1 a6bd
00000180: 5713 f7bd 8026 113d 07dd 0dbd 6aca 1b3d
00000190: 8db7 4bbc 498a dbbd 5261 803c 3f3c 803b
000001a0: 5f92 1dbd c47b 99bb 4f72 92bb 1296 0abd
000001b0: c930 8abd de52 c5bc c34a 603d 2cca a0bd
000001c0: b404 cabd de98 98bd 3cd3 89bc a6fb 6abd
000001d0: bdbf 60bd 70ef 94bc e109 373d e280 35bd
000001e0: 7f54 96bd 23ed b53c 6880 8ebd a6a5 57bc
000001f0: efc3 61bd 8402 bbbd abd6 1dbe ddc3 8ebb
00000200: 2b01 103d 8ada a13d 4f26 06be a652 0c3d
00000210: 5d48 e7bd e79d 8abd 5069 aebd f8fa 58bd
00000220: ce02 993d d235 453d b9c7 e6ba 5b91 c5bc
00000230: 3849 a6bd ec13 cabd 9158 553d 38bd 3abe
00000240: 6d07 973d 7254 a0bd 0ae8 853d e5f4 fb3c
00000250: a0c4 54bd 7a03 80bc 9402 0dbd 43cf 9dbc
00000260: 871c c7bc 3c8f 85bd b9c8 dabd 4355 03be
00000270: b75b e3bd 2627 cabd c3a3 133b ea8d 293d
00000280: 2269 b83d fe38 6e3c b6d7 9dbd 0e3b 323d
00000290: 025e 85bd 4b00 bc3d 7459 abbb 9795 ac3b
000002a0: ee24 b83d f19d 413d 7e94 a63d 9992 ccbc
000002b0: b113 6b3d 71d4 2ebe d3ff 22bd 5198 d2bd
000002c0: edb6 183c 7a5d 813d 43cf 9fbc d5f7 213d
000002d0: 4186 a0bd ceeb b7bc 1a09 33bd 84a8 2ebd
000002e0: 9ab8 54bc aec8 8ebd 0941 6b3d 309c 8cbd
000002f0: 2fb2 7bbb b45b c33c a5e5 d4bb d0cb 41bd
00000300: 4c15 5dbc e654 133d 2e5e 063e e4c3 b0bd
00000310: a8a3 383d b2ae b53d 8db1 3b3d 576e 9c3b
00000320: f04e 0a3d 0d3e 95bc 71f3 2bbd f26e 75bd
00000330: ee86 c03d dbcd 023d b6db cc3c 7999 f9bd
00000340: f681 063d c091 0cbe 933d 113e d373 26bc
00000350: 300d edbb 3bb5 b93d 3222 0e3e 62fd 303d
00000360: b063 b9bc 4069 843b 34d7 21bd e8a7 163d
00000370: 1a2d a9bd c64d f8bd 6a8b 8cbc 6459 f6bc
00000380: 30a2 83bd 9941 a9bc 5e2e 01be 3893 8d3d
00000390: 35c6 61bd 9961 c63b 1f63 87bc c757 e53d
000003a0: a9ef 1c3d 8368 b1bd a1ad 37bd 8d56 3dbd
000003b0: 0c23 f9bc f326 a7bd 5d35 8abc 4ade 18bd
000003c0: f9b2 5e3c 0b01 ccbd 1e36 573d 6844 89bc
000003d0: 4557 20bc 9084 41bc 533e 56bd e98b d6bc
000003e0: 4667 72bd f2f1 7b3a 668a 60be 2f3e f7bd
000003f0: c78e 88b9 360e 88bd 585b b5bd f7cd c3bd

bias f4 [64]
-0.03139795 0.0004980115 -0.05546444 -0.06205558 -0.051880255 -0.11304907 0.013512665 0.0033731188
-0.015695171 -0.024650356 -0.014295695 -0.040250283 -0.02746392 -0.014105944 -0.017403545 0.0040637534
-0.06851215 0.029522052 -0.0007256704 -0.038381662 -0.014792024 -0.042599086 -0.03312956 0.0001537926
0.004701386 -0.0115578985 -0.08077899 0.0073943376 -0.036807965 -0.034878295 0.005318963 0.0231884
-0.041667014 -0.01828944 -0.06476697 -0.072541185 -0.05186866 0.019541914 -0.0044991863 -0.015438927
-0.029475046 0.059752833 -0.026777264 0.044555917 0.028336534 0.08563148 -0.05574016 0.016165597
-0.045036882 -0.026066687 -0.048129775 0.18594906 -0.069194935 -0.03721844 -0.057820894 -0.010309718
-0.027628131 -0.01097431 -0.051273584 -0.06404179 -0.045924343 -0.03623233 -0.05265543 0.005400707
00000000: 239b 00bd fc8c 023a ae2e 63bd fe2d 7ebd
00000010: 6480 54bd 4586 e7bd 3a64 5d3c 8b0f 5d3b
00000020: 2993 80bc 8bef c9bc 7e38 6abc 7bdd 24bd
00000030: 04fc e0bc 9e1c 67bc e191 8ebc 3c29 853b
00000040: 1950 8cbd 3bd8 f13c eb3a 3eba 1736 1dbd
00000050: 3f5a 72bc 617c 2ebd ddb2 07bd 6343 2139
00000060: 160e 9a3b 575d 3dbc 756f a5bd 334c f23b
00000070: f3c3 16bd 8bdc 0ebd b24a ae3b 99f5 bd3c
00000080: 08ab 2abd bcd3 95bc 8ca4 84bd 7990 94bd
00000090: 3b74 54bd 5d16 a03c e96d 93bb 8ef3 7cbc
000000a0: a775 f1bc 63bf 743d fe5b dbbc 4480 363d
000000b0: 0522 e83c 8f5f af3d cb4f 64bd b76d 843c
000000c0: 9878 38bd ce89 d5bc ba23 45bd 6e69 3e3e
000000d0: 13b6 8dbd 5d72 18bd 9ad5 6cbd 17ea 28bc
000000e0: 6454 e2bc 98cd 33bc 4004 52bd 5828 83bd
000000f0: 2a1b 3cbd 5a68 14bd 38ad 57bd 6af8 b03b

weight f4 [12, 64, 3, 3]
0.16640487 0.0021842255 0.017745623 0.090245895 0.13646801 0.0534907 0.12637502 0.053471558
0.026405737 -0.04516416 0.003542702 0.0071618273 -0.032628667 0.001286238 0.01894851 0.012498842
0.032168668 -0.019883336 -0.019396314 -0.020950558 0.0044307206 -0.030635647 0.055230718 0.011076379
0.0053822743 0.0021531926 -0.0071588946 0.06650765 -0.05633601 -0.0019653814 0.18288343 0.11066164
0.045405693 -0.16999893 -0.18836349 0.5150514 0.097815536 0.011111882 -0.007482287 0.07039004
-0.023020662 -0.07589221 0.00854225 -0.039411295 -0.050248664 -0.0057003926 -0.00075560913 0.00036518404
-0.0092112105 0.0840261 -0.0076091443 0.010525456 -0.09311487 -0.014968773 -0.006166614 -0.12142396
-0.02429971 -0.06392955 -0.13866656 -0.17943479 0.051976256 -0.053150024 -0.04523766 0.012766015
-0.0058174906 0.0043821246 -0.021221183 0.045944706 -0.1033115 0.011776807 -0.022595074 -0.02327277
-0.05041211 -0.028923681 -0.040242568 0.076391906 0.0066137584 -0.03310099 0.100181684 -0.03241453
-0.017361114 0.055778556 -0.07542701 -0.0071381135 -0.06754498 0.0683615 -0.062494364 0.038049433
0.011952141 0.07201112 0.108380765 0.0039803553 -0.08539915 -0.036145337 -0.036075696 0.017490607
0.026794253 0.006309208 -0.03359056 0.012680522 0.23728082 -0.078774594 -0.017946906 -0.0076599168
-0.020996295 0.022755573 -0.0041308 0.031577498 0.0015355549 -0.054538835 -0.047744185 0.024402928
0.009292281 0.038281858 0.020697601 0.05868905 -0.03470745 0.039409142 -0.004587764 0.0015588548
0.031134222 0.061910234 -0.04165447 0.011578421 -0.0136673385 -0.084940165 -0.06327818 0.030573858
0.0425065 -0.056540743 -0.03186976 0.07306272 -0.010961098 -0.004582519 0.026399126 -0.021288438
-0.020074619 -0.00555124 0.108079754 -0.002452741 -0.030731643 -0.023540819 0.018636942 -0.009766107
-0.022270506 0.02445791 -0.06439023 0.047674347 0.03124625 -0.024611399 0.027396077 -0.013382793
-0.019303815 0.032550726 0.014647511 -0.029269455 0.019079197 -0.002629387 -0.004797054 -5.3755673e-05
-0.0045361435 -0.03724314 -0.007395974 0.0035127874 0.020222168 0.008493463 0.015996583 -0.018084126
-0.013760569 -0.0141489105 -0.00970229 -0.0018675954 0.052213147 -0.0061406842 0.005195853 -0.0706061
-0.028496914 0.016348261 0.056561705 0.015711522 0.0044253105 0.047849737 0.0025098429 -0.008244471
-0.051306922 -0.0019099456 -0.024090638 -0.0022917918 -0.0041143135 0.03697856 0.020081308 -0.004493836
0.05607833 -0.04823823 0.009460935 -0.001859045 0.016717624 0.0029378934 0.08282947 0.12601775
-0.29981148 0.045602273 0.050574128 0.04963203 -0.068532236 0.12301952 -0.14115225 -0.023390263
0.04148326 0.0021301687 -0.036007006 -0.013720779 0.019368526 0.014439255 -0.09340797 0.009593773
-0.006852692 -0.015213028 -0.01733454 0.05601965 0.028596763 -0.05868671 -0.024623573 0.01198906
-0.030310653 -0.014943714 -0.051222336 -0.011593269 0.016158808 0.032573048 0.1254033 -0.020831022
-0.042242955 -0.020445626 -0.042151228 -0.0371321 -0.035891067 0.011612273 0.025519846 -0.005367822
0.025048394 0.04288543 0.024205446 -0.06582107 0.06810925 -0.02448388 -0.016275 0.10027773
0.016578654 -0.053304214 0.0006287224 -0.051527735 -0.030625837 -0.0007250991 0.024944253 -0.037079357
00000000: 0a66 2a3e 3925 0f3b 455f 913c d7d2 b83d
00000010: 45be 0b3e 1019 5b3d 7468 013e fe04 5b3d
00000020: d850 d83c 0efe 38bd ad2c 683b c3ad ea3b
00000030: a3a5 05bd fc96 a83a e839 9b3c f1c7 4c3c
00000040: 4bc3 033d 61e2 a2bc 05e5 9ebc 81a0 abbc
00000050: 942f 913b 9cf7 fabc 9b39 623d b379 353c
00000060: ca5d b03b 941c 0d3b 2995 eabb 2a35 883d
00000070: 97c0 66bd a1cd 00bb cb45 3b3e 92a2 e23d
00000080: 52fb 393d 3314 2ebe 5ce2 40be 69da 033f
00000090: 8353 c83d 9c0e 363c f92d f5bb a728 903d
000000a0: d495 bcbc 606d 9bbd cbf4 0b3c bd6d 21bd
000000b0: 8bd1 4dbd 5cca babb 1214 46ba 2c76 bf39
000000c0: 9eea 16bc e015 ac3d 2156 f9bb f672 2c3c
000000d0: 02b3 bebd 963f 75bc 4f11 cabb 20ad f8bd
000000e0: 2f10 c7bc 7fed 82bd 9bfe 0dbe c1bd 37be
000000f0: 0ee5 543d d7b3 59bd 204b 39bd 8c28 513c
00000100: a6a0 bebb ed97 8f3b 0cd8 adbc 8430 3c3d
00000110: fb94 d3bd 82f3 403c 4e19 b9bc 89a6 bebc
00000120: ee7c 4ebd 5bf1 ecbc 64d5 24bd 5c73 9c3d
00000130: 3ab8 d83b e794 07bd 0e2c cd3d 19c5 04bd
00000140: e538 8ebc 0e78 643d 7a79 9abd d6e6 e9bb
00000150: 0655 8abd 1d01 8c3d 17fa 7fbd b9d9 1b3d
00000160: ead2 433c 917a 933d bcf6 dd3d a46d 823b
00000170: c0e5 aebd 220d 14bd 1cc4 13bd 7648 8f3c
00000180: 9f7f db3c 79bd ce3b 4196 09bd f7c1 4f3c
00000190: bef9 723e 9354 a1bd 6405 93bc 0a00 fbbb
000001a0: 6c00 acbc e569 ba3c a95b 87bb 6857 013d
000001b0: ac44 c93a 1d64 5fbd 688f 43bd a6e8 c73c
000001c0: a73e 183c 70cd 1c3d 048e a93c ee63 703d
000001d0: 6629 0ebd 7b6b 213d f454 96bb 7d52 cc3a
000001e0: 320d ff3c 9695 7d3d e19d 2abd 6bb3 3d3c
000001f0: f9ec 5fbc 1cf5 adbd fe97 81bd 0776 fa3c
00000200: 4c1b 2e3d 4497 67bd de89 02bd e8a1 953d
00000210: 2d96 33bc f528 96bb fb42 d83c 1765 aebc
00000220: 8773 a4bc 2de7 b5bb eb58 dd3d 2abe 20bb
00000230: edc0 fbbc add8 c0bc 80ac 983c 0602 20bc
00000240: a370 b6bc f45b c83c 06df 83bd 2d46 433d
00000250: 23f8 ff3c d89d c9bc bd6d e03c 8143 5bbc
00000260: 0923 9ebc e953 053d 1dfc 6f3c 7fc6 efbc
00000270: fa4b 9c3c cb51 2cbb 9b30 9dbb b777 61b8
00000280: eea3 94bb 438c 18bd ed59 f2bb cb36 663b
00000290: f6a8 a53c 2a28 0b3c 440b 833c 2925 94bc
000002a0: 0274 61bc d5d0 67bc 5bf6 1ebc 1aca f4ba
000002b0: 74dd 553d cb37 c9bb f941 aa3b ee99 90bd
000002c0: 5c72 e9bc caec 853c 3fad 673d 73b5 803c
000002d0: 3202 913b 16fe 433d 2d7c 243b d113 07bc
000002e0: 3527 52bd 2457 faba bb59 c5bc e331 16bb
000002f0: 5dd1 86bb d576 173d 8e81 a43c 0741 93bb
00000300: 64b2 653d 7395 45bd 0a02 1b3c 33ab f3ba
00000310: 66f3 883c ac89 403b 7fa2 a93d cc0a 013e
00000320: e480 99be 73c9 3a3d d126 4f3d f54a 4b3d
00000330: a15a 8cbd a8f1 fb3d 378a 10be f09c bfbc
00000340: 5aea 293d 4d9a 0b3b 157c 13bd 1ecd 60bc
00000350: beaa 9e3c a092 6c3c ae4c bfbd 332f 1d3c
00000360: 8c8c e0bb 1040 79bc 2a01 8ebc dc74 653d
00000370: c243 ea3c 7a61 70bd 60b7 c9bc c36d 443c
00000380: 0c4e f8bc 7bd6 74bc 83ce 51bd b2f1 3dbc
00000390: 7a5f 843c 516b 053d b969 003e d2a5 aabc
000003a0: f306 2dbd 967d a7bc c4a6 2cbd d417 18bd
000003b0: 8302 13bd 6741 3e3c ff0e d13c 8ee4 afbb
000003c0: 4a32 cd3c a2a8 2f3d 804a c63c 32cd 86bd
000003d0: dd7c 8b3d 6b92 c8bc 2653 85bc 695e cd3d
000003e0: f5cf 873c 8555 5abd d9d0 243a bf0e 53bd
000003f0: 09e3 fabc 9414 3eba e457 cc3c 86e0 17bd

bias f4 [12]
9.0576774e-05 -0.00695312 0.0037323255 -0.0026421174 -0.0015583637 -0.0023450092 0.00154584 0.0008523775
-0.00061388046 0.00088685367 0.0028014567 -0.009585788
00000000: 09f4 bd38 00d7 e3bb 089a 743b 6027 2dbb
00000010: 0242 ccba baae 19bb c89d ca3a 1672 5f3a
00000020: d2ec 20ba be7b 683a a598 373b b50d 1dbc
