train_weight_sr5/model_epoch_7.pth (torch_old, 667646 bytes, 10 tensors)

weight f4 [12, 3, 13, 13]
0	0xbb8baa56	-0.004262249
1	0xbdc88f17	-0.09792917
2	0x3d462d24	0.048382893
3	0x3bda097d	0.006653963
4	0xbd349f08	-0.044096977
5	0xbd751511	-0.059834544
6	0x3d1af8e1	0.037835006
7	0x3d624f46	0.055251382
8	0xbe086f2c	-0.13323659
9	0x3dc747af	0.097304694
10	0xbd0ad4ae	-0.033894233
11	0xbd058ea4	-0.032606736
12	0xbcdf8176	-0.027283411
13	0x3bec3ef2	0.007209652
14	0xbdd79908	-0.10527235
15	0xbd47f9e2	-0.04882229
16	0xbd0f3c5c	-0.034969673
17	0x3dd2bf33	0.102903746
18	0x3d6801d3	0.056642365
19	0x3d4deb3d	0.05027317
20	0xbdbb7925	-0.09153966
21	0xbd506c8b	-0.050884765
22	0xbd6214a6	-0.055195473
23	0xbd0a51bd	-0.033769358
24	0xbd3917b6	-0.045188628
25	0xbc32c79c	-0.010911848
26	0xbdba0c07	-0.09084325
27	0xbdcc4bd8	-0.099754035
28	0x3d3fa2ab	0.04678599
29	0x3d40df8e	0.0470882
30	0xbcf71ff6	-0.030166607
31	0xbd510809	-0.051033054
32	0x3d39f3f1	0.045398656
33	0xbceb8b43	-0.028752929
34	0xbd46d456	-0.048542343
35	0x3d8696a9	0.06571705
36	0x3c84ab2e	0.016194906
37	0xbd85edbc	-0.06539485
38	0x3c7ef412	0.015561121
39	0xbc59f2c2	-0.013302507
40	0xbe01e484	-0.12684828
41	0xbda8edd9	-0.08248491
42	0xbd290d62	-0.04127253
43	0xbb87b840	-0.0041418374
44	0x3d8ea39c	0.069648
45	0xbd296536	-0.041356288
46	0xbe12384a	-0.14279285
47	0xbd5299a9	-0.051416073
48	0xbdc820e2	-0.09771897
49	0x3cdfee73	0.027335381
50	0x3ab5c83c	0.0013868879
51	0xbdcfcc17	-0.10146349
52	0xbda238f6	-0.07921021
53	0x3d8a41b5	0.06750814
54	0xbd93869f	-0.07203411
55	0xbdfa22d3	-0.122136734
56	0xbe0d318d	-0.13788433
57	0x3dbf5f03	0.09344294
58	0xbd18c277	-0.03729483
59	0x3bc3b732	0.0059727663
60	0x3b9c55cf	0.0047709714
61	0xbb794ebd	-0.0038041316
62	0xbd37052e	-0.044682674
63	0xbd6a4675	-0.0571961
64	0x3d5823bf	0.052768465
65	0xbc914a3b	-0.017735591
66	0xbc88524a	-0.016640801
67	0x3d0c8c39	0.034313414
68	0xbd40aa34	-0.04703732
69	0xbd758a77	-0.059946503
70	0x3d71d5a5	0.059041638
71	0xbd9d301e	-0.07675193
72	0x3db398f4	0.08769408
73	0xbdac54b9	-0.08414597
74	0xbd6a8e86	-0.057264827
75	0x3cf99751	0.030467661
76	0xbcb6b71f	-0.022304116
77	0xbb9b34c8	-0.0047365166
78	0xbd2e305b	-0.042526584
79	0x3c7d1782	0.015447499
80	0xbe692909	-0.2276956
81	0xbe130f47	-0.14361297
82	0xbe1ea3a4	-0.15492111
83	0xbd23578d	-0.039878417
84	0xbd91647f	-0.07099246
85	0xbd86a336	-0.06574099
86	0xbc7877f0	-0.015165314
87	0xbd17b740	-0.037039995
88	0x3dca5370	0.09879196
89	0x3d4de76e	0.050269537
90	0x3d9e806d	0.07739339
91	0x3d5ab7e2	0.05339802
92	0x3da45bfc	0.08025357
93	0x3de76e65	0.11300353
94	0x3e0835ae	0.13301727
95	0xbd7e08eb	-0.062020224
96	0xbb1908e8	-0.0023351256
97	0x3c6456cf	0.013936712
98	0xbd507618	-0.050893873
99	0xbd28fb2f	-0.041255172
100	0xbe09845b	-0.13429396
101	0xbd4c8189	-0.04992822
102	0xbe119c0c	-0.14219683
103	0xbd0dbde9	-0.03460494
104	0xbdd9d26a	-0.106358364
105	0x3c31de35	0.010856201
106	0x3d361c0f	0.044460353
107	0xbcb67e37	-0.02227698
108	0x3d6f4801	0.058418278
109	0xb9b59730	-0.00034635654
110	0x3d406660	0.046972632
111	0x3e2118cf	0.1573212
112	0x3c30abb3	0.010783124
113	0x3e0e4fd1	0.13897635
114	0xbd98a42c	-0.07453188
115	0x3d5fbee9	0.054625425
116	0x3cae667c	0.021289103
117	0x3d9ed7ae	0.077559814
118	0xbe15700e	-0.14593527
119	0x3c245b72	0.010031568
120	0xbdaf3064	-0.08554152
121	0xbe87fe09	-0.26561
122	0xbd9092a2	-0.07059218
123	0xbdbe8521	-0.09302736
124	0xbdff910f	-0.124788396
125	0xba74e043	-0.0009341279
126	0xbc0780d0	-0.008270457
127	0x3d46de3c	0.048551783
128	0xbc86f0a4	-0.016472168
129	0x3d9aa80f	0.07551586
130	0xbdc65b91	-0.09685434
131	0xbda6bb30	-0.08141172
132	0xbccfff16	-0.02539019
133	0x3dc6fa5e	0.097157225
134	0xbd90147c	-0.07035157
135	0x3cca4a52	0.024693642
136	0xbdbec98e	-0.09315787
137	0x3cab049e	0.020876225
138	0xbe094845	-0.13406475
139	0xbd8a25b5	-0.06745473
140	0xbd7a93eb	-0.06117622
141	0xbd60a34d	-0.054843236
142	0xbddaaea1	-0.10677839
143	0xbc9ebc55	-0.019376913
144	0xbcb37acd	-0.021909142
145	0xbc2ff259	-0.0107389325
146	0xbddf76ed	-0.10911355
147	0xbd46ee6b	-0.048567217
148	0x3db74dea	0.08950408
149	0x3daf2628	0.085521996
150	0x3d990146	0.07470946
151	0xbd839a55	-0.06425921
152	0x3bf3b319	0.0074371216
153	0xba500291	-0.0007934953
154	0x3c30140e	0.010746969
155	0xbdb14769	-0.086561985
156	0xbde07ac3	-0.10960915
157	0xbd804d2e	-0.06264721
158	0xbdf155bc	-0.11783931
159	0xbd9615f7	-0.07328408
160	0x3d20c27a	0.039247967
161	0xbdae1b80	-0.08501339
162	0xbe00a7cf	-0.12564014
163	0x3c247f3f	0.010040103
164	0xbd54b9d5	-0.051935036
165	0xbb323304	-0.0027191052
166	0x3cbae317	0.022813363
167	0xbd85be31	-0.06530417
168	0xbbefe8c0	-0.007321447
169	0x3c098334	0.008393098
170	0xbd24348c	-0.040089175
171	0xbcb24fae	-0.02176651
172	0x3d072475	0.032993753
173	0xbcd0595e	-0.025433239
174	0x3d3954ff	0.045247074
175	0xbda93c1b	-0.08263417
176	0x3d73603f	0.05941796
177	0x3c14ca7b	0.009081478
178	0xbccc3e44	-0.024932034
179	0xbcd5b3fc	-0.0260868
180	0x3cf37801	0.029720308
181	0x3ce037d0	0.027370363
182	0x3dcfa2b9	0.10138459
183	0xbdbc8a79	-0.09206099
184	0x3e00ee50	0.12590909
185	0xbd0be658	-0.03415522
186	0x3a307a34	0.0006732077
187	0xbdb0c036	-0.08630411
188	0xbd8233e8	-0.063575566
189	0xbd816e48	-0.063198626
190	0x3d313b19	0.04326925
191	0x3cdf6e9e	0.027274426
192	0x3da06915	0.07832543
193	0xbdab77d9	-0.083724685
194	0x3c4393e7	0.011937118
195	0xbd067648	-0.032827646
196	0x3dcef123	0.10104587
197	0xbdc32515	-0.09528557
198	0xbe1b7b23	-0.15183692
199	0xbdde3904	-0.108507186
200	0x3d51374c	0.051078126
201	0xbd187978	-0.037225217
202	0x3d41ac17	0.04728326
203	0x3c4c78a3	0.012479934
204	0xbd0c5643	-0.034261953
205	0xbcf64d78	-0.030066237
206	0x3c36d219	0.01115849
207	0xbbf9cca3	-0.0076232716
208	0x3d57d32f	0.052691635
209	0xbb04a3de	-0.0020239274
210	0x3d5cc7cb	0.053901475
211	0x3d9392e9	0.07205755
212	0xbcfb0481	-0.030641796
213	0xbd38e442	-0.04513956
214	0xbc94d832	-0.018169496
215	0x3cc4c2c9	0.024018662
216	0x3a0fd34d	0.00054865034
217	0x3d98d97b	0.07463356
218	0xbda227e4	-0.07917765
219	0xbe2578b9	-0.16159333
220	0x3d1efd69	0.03881589
221	0x3e08d860	0.1336379
222	0xbd7a2621	-0.06107152
223	0xbdcd1e18	-0.100155056
224	0xbd6c9bf6	-0.057765923
225	0xbd3e76a3	-0.04649986
226	0x3c74d3d3	0.014943081
227	0xbdff87a1	-0.12477041
228	0x3d3deeae	0.0463702
229	0xb8d2dd89	-0.000100548445
230	0x3d8667fa	0.06562801
231	0xbda6a64c	-0.08137187
232	0x3cce9a0b	0.025219938
233	0x3d194246	0.03741672
234	0xbd8984dd	-0.06714795
235	0x3d355fa4	0.044280663
236	0xbd9d8e75	-0.07693187
237	0x3d52a996	0.05143126
238	0xbd89cb01	-0.06728173
239	0x3caf0f77	0.021369679
240	0x3c61a218	0.013771556
241	0x3d0087ea	0.031379618
242	0xbcf6fba8	-0.030149296
243	0x3d8e8f14	0.06960884
244	0x3c5d3477	0.013501278
245	0xbd89ef31	-0.06735075
246	0xbc98eb69	-0.01866694
247	0xbdca945b	-0.09891578
248	0xbe531cac	-0.20616406
249	0xbe615d0f	-0.22008155
250	0xbd5be1b5	-0.053682048
251	0xbd55e223	-0.052217614
252	0xbcb1d5c6	-0.02170838
253	0xbdf44b8d	-0.11928473
254	0xbd286842	-0.041115053
255	0x3da78acf	0.081807725

weight f4 [64, 12, 7, 7]
0	0xbbffb09f	-0.0078030373
1	0xbe09c624	-0.13454491
2	0x3ceef841	0.029171111
3	0x3d8375f1	0.0641898
4	0xbd0d98e2	-0.03456963
5	0xbd299b08	-0.041407615
6	0xbd872cf1	-0.06600369
7	0x3d9a8989	0.07545764
8	0xbdbaca70	-0.09120643
9	0xbd32b27f	-0.04362726
10	0xbd9bcabf	-0.0760703
11	0xbc783ad2	-0.015150743
12	0xbd04b84d	-0.032402325
13	0x3d06eea5	0.032942433
14	0x3d104390	0.035220683
15	0x3dae5b31	0.08513487
16	0x3bf0b970	0.0073463246
17	0xbde19b67	-0.11015969
18	0xbe2fa058	-0.1715101
19	0x3be644b8	0.007027235
20	0xbd1aa7bc	-0.03775762
21	0xbdab0d91	-0.08352197
22	0xbc39985d	-0.01132783
23	0x3c1669cd	0.009180498
24	0x3d93293a	0.07185598
25	0xbb3d3607	-0.0028871314
26	0x3c8feeb0	0.01756987
27	0xbe346803	-0.17617802
28	0xbd81720d	-0.063205816
29	0xbd2634eb	-0.04057781
30	0x38e21bfd	0.00010781733
31	0xbd887704	-0.066633254
32	0xbd33f572	-0.043935247
33	0x3d20250a	0.039097823
34	0xbcfb19da	-0.030651975
35	0x3d558084	0.052124515
36	0xbdf13ad7	-0.11778801
37	0x3bf6054e	0.0075079566
38	0xbd016629	-0.03159157
39	0xbdb08c06	-0.08620457
40	0xbe35ad24	-0.17741829
41	0xbd64db4e	-0.055873208
42	0xbd919932	-0.07109298
43	0xbe176c4e	-0.14787409
44	0xbbe6ba22	-0.0070412317
45	0xbd44d4bb	-0.048054438
46	0x3d61828b	0.055056136
47	0xbdfe6d99	-0.12423248
48	0xbdc201ff	-0.09473037
49	0x3b156a9a	0.0022799135
50	0x3cbea7e0	0.023273408
51	0xbdcb4da3	-0.099269174
52	0x3dbc2ce2	0.09188248
53	0xbcdfaef3	-0.027305102
54	0xbc403ddc	-0.011733498
55	0x3c66d752	0.014089422
56	0xbc86cac9	-0.016454117
57	0x3d3895e5	0.045064826
58	0x3d83e18d	0.06439505
59	0xbd5cf076	-0.05394026
60	0xbd258a7f	-0.040415283
61	0xbdd7118d	-0.105013944
62	0x3bf0d3a9	0.0073494506
63	0xbd0cd492	-0.03438241
64	0xbca741cf	-0.020417122
65	0x3d3235c7	0.043508317
66	0x3db0de26	0.086361215
67	0xbc5a9e9b	-0.013343479
68	0x3b8f91ab	0.0043813786
69	0x3dc25108	0.09488112
70	0xbd297ade	-0.04137694
71	0xbadc2c65	-0.0016797899
72	0x3d1ed4b1	0.038777057
73	0xbd57ae22	-0.0526563
74	0x3e5bcfd9	0.21466006
75	0xbd82c5c2	-0.063853756
76	0xbd19cd46	-0.03754928
77	0x3ad4e370	0.0016242098
78	0xbcb95046	-0.022621285
79	0x3d7a0608	0.061040908
80	0xbcb427b2	-0.021991584
81	0xbd3beaca	-0.04587821
82	0xbe9acb6c	-0.30233324
83	0xbe5d6026	-0.21618709
84	0xbcfcdd97	-0.030867381
85	0x3c7f0be7	0.015566803
86	0x3cb116b3	0.02161727
87	0x3d10c6e5	0.03534593
88	0x3d929494	0.07157245
89	0xbe801267	-0.2501404
90	0x3cd133d1	0.025537403
91	0x3c6a7ac2	0.014311494
92	0xbd82ff31	-0.0639633
93	0x3da897d4	0.08232084
94	0xbcf7d6f2	-0.030253861
95	0x3d5f8cca	0.054577626
96	0xbe184bc5	-0.14872654
97	0xbd067a18	-0.03283128
98	0xbce5d0ea	-0.02805372
99	0x3bc625cd	0.0060469867
100	0xbd122aa1	-0.035685185
101	0x3d2bbdd8	0.041929096
102	0xbd86fe15	-0.06591431
103	0x3a2fa6df	0.0006700586
104	0xbcb8a69b	-0.022540381
105	0x3bd8df0e	0.006618387
106	0xbdc8f1a8	-0.09811717
107	0xbe6f3b4d	-0.23362465
108	0xbd9d40ae	-0.07678352
109	0xbd0074b3	-0.031361293
110	0xbd7abc43	-0.061214697
111	0x3c857fb7	0.01629625
112	0x3ca07626	0.019587588
113	0xbd308fab	-0.043105762
114	0xbd9620be	-0.07330464
115	0xbd79ceb9	-0.06098816
116	0x3c98d2d5	0.01865522
117	0xbde19f67	-0.11016732
118	0x3c4dfa00	0.012571812
119	0xbd01f6cb	-0.0317295
120	0xbdb3e7ce	-0.087844476
121	0xbdecbdf6	-0.1155967
122	0x3a64a753	0.0008722443
123	0xbd78d073	-0.060745668
124	0xbdc1ef99	-0.09469528
125	0xbd52d9b8	-0.051477164
126	0xbe067d5e	-0.13133761
127	0xbdec5265	-0.11539153
128	0xbdcd84db	-0.10035106
129	0x3d983a2a	0.07432969
130	0xbd2438b0	-0.040093124
131	0x3d01ca2a	0.03168694
132	0x3d9f2fd2	0.07772793
133	0xbdb88b70	-0.090109706
134	0xbdd94ce6	-0.1061037
135	0xbe3b094c	-0.18265265
136	0x3d8106ed	0.06300149
137	0xbdbca61c	-0.0921137
138	0x3cfb484c	0.030674122
139	0xbcc3c9da	-0.023899961
140	0xbdea89b3	-0.11452045
141	0x3d03b555	0.032155354
142	0xbe8bf617	-0.2733619
143	0x3df423db	0.119209014
144	0xbd770934	-0.06031151
145	0x3ccf1fa4	0.025283642
146	0xbcce37c7	-0.025173081
147	0xbdaa54e8	-0.08316976
148	0x3c287581	0.010281921
149	0x3dcff734	0.10154572
150	0xbd94580b	-0.07243355
151	0xbcba751e	-0.022760924
152	0xbd81a3c2	-0.063300624
153	0x3d6743f7	0.0564613
154	0x3cd07d67	0.025450421
155	0xbcd3b0cf	-0.025841145
156	0xbd00abeb	-0.031413954
157	0xbd74f1bc	-0.05980085
158	0x3c309c98	0.010779522
159	0xbbd39388	-0.006456796
160	0xbd2be358	-0.04196486
161	0xbd3f59ca	-0.04671649
162	0xbbc23200	-0.0059263706
163	0x3c0fbd08	0.008773096
164	0xbbba6f0d	-0.005689508
165	0xbd0aab5a	-0.03385482
166	0x3d419108	0.047257453
167	0x3e0a0240	0.13477421
168	0x3d58642a	0.0528299
169	0x3da741c9	0.081668444
170	0xbd9077c0	-0.070540905
171	0xbdba21e3	-0.09088495
172	0xbd79fcd1	-0.06103212
173	0xbce2d409	-0.027688997
174	0xbd97fae3	-0.074209
175	0x3d77b5cc	0.06047611
176	0x3d6ddc05	0.058071155
177	0xbce62c95	-0.02809743
178	0xbca2301c	-0.019798331
179	0xbc18a9da	-0.0093178395
180	0xbd0015a5	-0.03127064
181	0xbbad00be	-0.0052796295
182	0xbe0ecc1a	-0.13945046
183	0xbda9ea15	-0.08296601
184	0x3ddd397f	0.10801982
185	0xbd0a51ce	-0.03376942
186	0xbc5cf65d	-0.013486472
187	0x3c87262a	0.01649769
188	0x3e1de689	0.15419973
189	0xbdc177ed	-0.09446702
190	0xbcbccfb7	-0.023048265
191	0x3c8b6e38	0.01702033
192	0x3d6d788d	0.057976294
193	0xbe3126cb	-0.17299955
194	0xbcfd9e8b	-0.030959388
195	0x3e2a9cbe	0.16661355
196	0xbd742747	-0.05960777
197	0x3d0aae65	0.03385772
198	0x3db117e6	0.086471364
199	0xbbd55b17	-0.006511103
200	0xbe3570b1	-0.1771877
201	0xbeac0450	-0.3359704
202	0x3df61449	0.12015588
203	0x3d8c4035	0.06848184
204	0xbd91f4b6	-0.07126753
205	0x3c8af7f8	0.016963944
206	0x39c58439	0.00037673282
207	0xbd16d6a6	-0.0368258
208	0xbf4a1032	-0.7893096
209	0xbdcaff06	-0.09911923
210	0xbcbb568b	-0.022868415
211	0x3d8e2d21	0.069422014
212	0xbce4c1a3	-0.027924364
213	0xbdb67cc3	-0.08910515
214	0xbd06e6fb	-0.032935124
215	0xbe9b3bb6	-0.30318993
216	0xbee69564	-0.4503585
217	0x3c7783b2	0.015107082
218	0xbc4b8038	-0.012420706
219	0xbe0cfa73	-0.13767414
220	0x3da70093	0.081544064
221	0xbc803884	-0.015651949
222	0xbf92b604	-1.1461797
223	0xbef1eec8	-0.47252488
224	0xbab3ad81	-0.0013708324
225	0xbb7a25dc	-0.0038169539
226	0xbc2a7352	-0.010403471
227	0x3d223d62	0.03960932
228	0x3e0eec11	0.1395724
229	0xbef39107	-0.47571585
230	0xbedb94e6	-0.42887038
231	0xbc3bca82	-0.011461856
232	0x3a365f47	0.00069569465
233	0x3cd0bccb	0.025480649
234	0x3daa2e60	0.083096266
235	0xbd13fc1c	-0.036129102
236	0xbdd29448	-0.10282189
237	0xbeee14fe	-0.4650039
238	0xbd0a13f1	-0.033710424
239	0x3d39cc96	0.045361124
240	0xbd9357c9	-0.07194478
241	0x3d0980bb	0.033570033
242	0x3e14f697	0.14547192
243	0xbc347f11	-0.011016623
244	0xbe319614	-0.17342407
245	0x3d340db1	0.04395837
246	0x3dd91abf	0.106008045
247	0x3cf12c50	0.029440075
248	0xbd92b9d4	-0.0716435
249	0x3a8c4b29	0.0010703552
250	0xbdb9a3bd	-0.09064434
251	0x3d1f55f5	0.038900334
252	0xbcce769d	-0.025203044
253	0x3cd73e0a	0.0262747
254	0xbd896477	-0.06708615
255	0xbde01e5c	-0.109432906

weight f4 [64, 64, 3, 3]
0	0xbe757606	-0.23970804
1	0x3ea9ab26	0.33138388
2	0x3e230494	0.15919715
3	0xbef27bf1	-0.47360185
4	0x3f25f5f4	0.6482842
5	0xbe01f697	-0.12691723
6	0xbeb3ca83	-0.35115442
7	0xbe109503	-0.14119343
8	0x3e1dc461	0.15406944
9	0xbb938bfd	-0.004502772
10	0x3c87f47d	0.016596073
11	0x3dd2e49f	0.10297512
12	0xbb6a0147	-0.0035706328
13	0x3d3d21c5	0.046174783
14	0x3cd18103	0.025574213
15	0x3dbe6bd8	0.09297913
16	0xbca91b4b	-0.020642897
17	0xbdad4714	-0.08460823
18	0xbd345dd9	-0.044034813
19	0xbd3ab826	-0.045585774
20	0xbdca5696	-0.09879796
21	0xbd68e3aa	-0.056857742
22	0x3f1e8312	0.6191875
23	0xbe35389e	-0.17697379
24	0xbe1374b6	-0.1439999
25	0xbd833266	-0.06406097
26	0xbd8df7b1	-0.06932009
27	0x3d05223c	0.03250335
28	0x3d18b112	0.037278242
29	0xbd87edfa	-0.06637187
30	0xbcb79143	-0.022408133
31	0xbc69ad39	-0.014262491
32	0x3d3de573	0.046361398
33	0xbc758a34	-0.0149865635
34	0xbd043f51	-0.032286946
35	0x3d33f51c	0.043934926
36	0xbd804b18	-0.06264323
37	0xbbe53f4b	-0.0069960705
38	0xbda0f487	-0.0785914
39	0x3dd87516	0.10569207
40	0xbda06de2	-0.078334585
41	0xbdab1060	-0.08352733
42	0x3dc2a2d7	0.095037155
43	0x3d5d4bb7	0.054027285
44	0xbd80769c	-0.06272623
45	0xbe03e236	-0.12879261
46	0xbccaed7b	-0.024771443
47	0x3c04ae17	0.008098147
48	0x3e1bfe47	0.15233718
49	0x3cf88586	0.030337106
50	0xbb10b1d2	-0.0022078645
51	0x3c76ec8e	0.0150710475
52	0xbd8e6757	-0.06953304
53	0xbcfb8465	-0.03070278
54	0x3d268c3a	0.040661074
55	0x3d893dcf	0.06701242
56	0xbd865e91	-0.06561006
57	0xbaad5996	-0.0013225551
58	0x3d72cc5e	0.05927693
59	0xbc6b500d	-0.014362347
60	0x3defe2da	0.117131904
61	0x3d2bc5b2	0.041936584
62	0xbdbd56b7	-0.09245055
63	0xbd732fad	-0.05937164
64	0xbe09620e	-0.13416311
65	0xbcd1d1ed	-0.025612796
66	0xbd4d22e2	-0.050082095
67	0x3e99d65e	0.30046362
68	0x3ca5ff9f	0.020263491
69	0xbd9cd3b5	-0.076575674
70	0x3bbba424	0.005726354
71	0xbd0a88f8	-0.03382203
72	0xbd35157a	-0.044209935
73	0xbd865ba6	-0.06560449
74	0x3956f9c7	0.0002050168
75	0xbea5081c	-0.3223275
76	0xbe17de81	-0.14830972
77	0x3d8aa8cc	0.06770477
78	0x3db0755a	0.08616133
79	0xbb98ce31	-0.004663252
80	0xbc3c1df1	-0.011481748
81	0xbc992e24	-0.01869876
82	0xbca4f8d0	-0.020138174
83	0xbe36b830	-0.178437
84	0xbc7d3bdb	-0.015456165
85	0xbc993348	-0.01870121
86	0xbe3c165e	-0.18367907
87	0xbd8ed2b3	-0.069737814
88	0x3ca6d7e2	0.020366613
89	0xbdea50b2	-0.11441173
90	0xbd1a4cee	-0.037671022
91	0xbc411683	-0.011785152
92	0x3d0e68a9	0.03476778
93	0xbd408e47	-0.047010686
94	0x3c72c26b	0.014816861
95	0xbdc8f92c	-0.09813151
96	0x3d9652fd	0.073400475
97	0xbcb220d1	-0.021744164
98	0x3c93d11f	0.018044053
99	0xbce26b8c	-0.027639173
100	0xbbbaeeb1	-0.0057047238
101	0xbcc53505	-0.024073133
102	0xbda415cb	-0.08011969
103	0x3be50b49	0.0069898707
104	0x3d06d7ed	0.032920767
105	0x3d5af206	0.053453468
106	0xbd4d1255	-0.05006631
107	0x3ba2ba62	0.004966066
108	0xbb82ebf2	-0.003995412
109	0x3da73162	0.08163716
110	0xbd5285c1	-0.05139709
111	0x3be6dbf7	0.007045265
112	0x3e0dcd98	0.13847959
113	0xbe93aa95	-0.2884108
114	0xbd3e2eb6	-0.046431266
115	0xbe41cc81	-0.18925668
116	0xbdefe52a	-0.117136315
117	0x3e154229	0.1457602
118	0x3da9609c	0.0827038
119	0xbe980f8c	-0.2969936
120	0xbd1b72e4	-0.037951365
121	0x3d570af1	0.05250067
122	0xbdbb38d0	-0.091416955
123	0xbe389b79	-0.18028058
124	0x3bd648bc	0.0065394323
125	0xbd4518bd	-0.048119295
126	0x3e7f3b7f	0.2492504
127	0x3d07b587	0.033132102
128	0xbe4a13ed	-0.19734164
129	0x3eb917a0	0.36150837
130	0xbeda92dd	-0.42690173
131	0xbec767bf	-0.3894634
132	0xbe9b503c	-0.3033465
133	0xbe6ff8a6	-0.23434696
134	0xbddcbfbf	-0.1077876
135	0xbd599036	-0.053116046
136	0x3d6bbc04	0.057552353
137	0x3db306a2	0.087414995
138	0x3af567f1	0.0018722994
139	0xbdad9299	-0.08475227
140	0xbcaf8030	-0.02142343
141	0x3d0ea67c	0.03482674
142	0xbde13a28	-0.109974205
143	0x3c8b925b	0.017037561
144	0xbe172b8b	-0.14762704
145	0xbe28f4f7	-0.16499697
146	0xbe1114cd	-0.14168091
147	0xbc702d99	-0.014659309
148	0x3ea3a7d7	0.3196399
149	0x3c956434	0.018236257
150	0x3e027445	0.12739666
151	0x3d98f7b7	0.07469123
152	0xbd169474	-0.03676267
153	0x3c778e04	0.015109543
154	0xbd992c46	-0.074791476
155	0xbbf354ad	-0.0074258656
156	0xbc8c4484	-0.017122515
157	0xbca6d098	-0.020363137
158	0x3d521e49	0.051298413
159	0x3d6f11bb	0.05836652
160	0x3c9035c0	0.017603755
161	0xbda39f8d	-0.07989416
162	0xbdc196d2	-0.09452595
163	0xbd5f16b3	-0.054465007
164	0xbda0ee73	-0.078579806
165	0x39ce9797	0.00039404325
166	0xbc87eef8	-0.016593441
167	0xbd0d1446	-0.034443162
168	0xbdb36093	-0.087586544
169	0xbd0284a8	-0.031864792
170	0x3d3222b2	0.04349012
171	0xbd2d01a5	-0.042237896
172	0xbd0474c8	-0.032337934
173	0xbd77bb63	-0.06048144
174	0xbcb58dc6	-0.02216233
175	0x3d9a8430	0.07544744
176	0xbd979df2	-0.074031726
177	0xbc8cc07f	-0.017181633
178	0xbca53bb8	-0.020170078
179	0xbd44d8ee	-0.048058443
180	0xbe1e9c20	-0.15489244
181	0x3e2bb58d	0.16768475
182	0xbe341b19	-0.17588462
183	0xbe021896	-0.12704691
184	0x3ddb3400	0.107032776
185	0xbd131192	-0.03590543
186	0xbdae9b51	-0.08525718
187	0xbd655fd7	-0.055999603
188	0xbd812d5c	-0.0630748
189	0xbc52df41	-0.012870611
190	0x3be49bce	0.006976581
191	0xbda91c1d	-0.08257315
192	0xbceb5986	-0.028729212
193	0xbe5c7d29	-0.2153212
194	0xbe563db2	-0.20921972
195	0x3e85f11e	0.2616052
196	0x3d7fb7a4	0.062430993
197	0x3d0834d6	0.033253513
198	0xbd29dbe9	-0.04146949
199	0xbd25ba70	-0.040461004
200	0xbcfea5b0	-0.031084865
201	0x3d00b9ab	0.031427067
202	0x3d18491d	0.0371791
203	0x3d46d8f9	0.048546765
204	0xbd6f2352	-0.058383293
205	0x3bdd3762	0.006750987
206	0x3dc854db	0.0978181
207	0x3d95cfc7	0.07315021
208	0xbb725ee2	-0.0036982824
209	0xbca814f2	-0.0205178
210	0xbd37dd3e	-0.044888727
211	0x3d935424	0.07193783
212	0x3dcf1d23	0.10112979
213	0x3d47b898	0.048760027
214	0x3e805ac1	0.2506924
215	0x3d2c1037	0.04200765
216	0xbd4091d3	-0.04701407
217	0xbb8a4901	-0.0042201285
218	0x3c6e8191	0.014557258
219	0xbd7b83ae	-0.061404876
220	0x3df58bf1	0.11989582
221	0xbcec730a	-0.028863449
222	0xbe127648	-0.14302933
223	0xbd54c970	-0.05194992
224	0x3cd3e60d	0.025866533
225	0x3c4e4d28	0.012591638
226	0xbd064fb5	-0.03279086
227	0xbd439216	-0.04774674
228	0x3c6aab56	0.014323076
229	0x3cae523d	0.021279449
230	0xbd935cc5	-0.07195429
231	0x3dd560b3	0.104188345
232	0xbc794e3e	-0.015216408
233	0xbc34c55d	-0.011033383
234	0xbce9b73a	-0.028529752
235	0xbda1c806	-0.078994796
236	0x3d060e1c	0.0327283
237	0xbd136d40	-0.03599286
238	0xbd1a4704	-0.037665382
239	0xbd1077e6	-0.035270594
240	0xbda03154	-0.078219086
241	0xbd9b15fe	-0.07572554
242	0x3dbfdbed	0.093681194
243	0xbb88a1b2	-0.004169666
244	0x3d10eadb	0.035380226
245	0xbb3f0bb8	-0.0029151272
246	0x3db4f90e	0.08836566
247	0x3d4a88e2	0.049446948
248	0x3de1866d	0.11011968
249	0xbc86aede	-0.016440805
250	0x3cd59f8c	0.026077054
251	0x3da65d0f	0.08123218
252	0xbd999197	-0.07498472
253	0xbcd421cc	-0.025895022
254	0x3c9ae20b	0.018906614
255	0xbda26a75	-0.07930461

bias f4 [64]
0	0xbbf9fd76	-0.007629092
1	0x3bde47b1	0.0067834486
2	0x3e3feacf	0.18741916
3	0xbdc99c37	-0.09844249
4	0x3cee3e19	0.029082345
5	0x3c021cea	0.007941464
6	0xbb20eaa3	-0.0024553917
7	0x3bcec8f3	0.006310576
8	0x3d99e583	0.07514479
9	0x3d9d43f1	0.076789744
10	0x3dad2ca6	0.08455782
11	0xbd7e2b2b	-0.062052887
12	0xba8d647a	-0.0010787391
13	0xbaa9177d	-0.0012900677
14	0x3a58eac7	0.00082747306
15	0xbd72cce9	-0.05927745
16	0xba95936d	-0.0011411734
17	0xbccdaf72	-0.025108073
18	0xbc104512	-0.00880553
19	0xbbcbe632	-0.00622251
20	0xbb9775f5	-0.004622216
21	0x3c7072dc	0.014675822
22	0xbba983c1	-0.005173177
23	0xbd5ef009	-0.054428134
24	0x3d8131ec	0.0630835
25	0x3d833193	0.0640594
26	0x3dca28cd	0.098710634
27	0x3d124d23	0.035718095
28	0x3d9abe80	0.07555866
29	0x3ac79e52	0.0015229678
30	0xbbbf660f	-0.0058410238
31	0xbc780f98	-0.015140437
32	0xbd5db645	-0.054128904
33	0x3deacd52	0.11464943
34	0xbd22932d	-0.03969114
35	0xbb0e6a10	-0.0021730699
36	0xba8bce1d	-0.0010666285
37	0x3e32ee20	0.1747365
38	0x3b4a31a2	0.0030852337
39	0xbb315294	-0.0027057277
40	0x3d4efb4a	0.050532617
41	0x3c3c2d38	0.01148539
42	0x3d7e8db1	0.062146846
43	0xbf29bf01	-0.66307074
44	0xbb3c5edc	-0.0028743064
45	0x3d80d77b	0.062911
46	0x3be6e324	0.0070461202
47	0xbe77f012	-0.24212673
48	0xb9c11b98	-0.00036832388
49	0x3b75e0b7	0.0037517974
50	0x3c21f55f	0.009885161
51	0x3c401938	0.011724763
52	0x3dcfb9ca	0.10142858
53	0x3d334c87	0.043774154
54	0xbd4626ae	-0.04837673
55	0xbcf05d24	-0.029341288
56	0x3adb3d21	0.0016726592
57	0xbd852d08	-0.0650273
58	0x3d153acc	0.036433026
59	0xbd25257d	-0.040318955
60	0x39958c14	0.0002852386
61	0xbcad1df1	-0.021132441
62	0x3bd07970	0.0063621327
63	0xbdcbf97e	-0.09959696

weight f4 [64, 64, 3, 3]
0	0x3dc0eda5	0.09420327
1	0x3c35be0a	0.011092672
2	0xbddf31ed	-0.108981945
3	0xbd6f4eba	-0.05842469
4	0xbe61e246	-0.22058973
5	0x3c79b343	0.015240493
6	0x3cf6bda1	0.030119719
7	0xbe294d6a	-0.16533437
8	0xbd5ad6fc	-0.05342768
9	0xbe0ee991	-0.13956286
10	0x3d3b3233	0.04570217
11	0xbd9c0fdd	-0.07620213
12	0xbe04b868	-0.1296097
13	0x3c4b047e	0.012391208
14	0xbe423f76	-0.18969521
15	0xbdb62baf	-0.08895051
16	0x3cd645b6	0.026156288
17	0xbd306215	-0.04306229
18	0x3e29e723	0.16592078
19	0xbe44cc62	-0.19218591
20	0xbc0638f9	-0.008192294
21	0x3e1ecb05	0.15507133
22	0xbe52f27e	-0.20600316
23	0xbe7ec280	-0.24878883
24	0x3dac8d8b	0.08425435
25	0xbea0fbcc	-0.31442106
26	0xbe5b1008	-0.21392834
27	0x3d8cf183	0.06882002
28	0x3e0f9a3a	0.14023677
29	0x3e7752b6	0.24152645
30	0x3c82a331	0.015946956
31	0x3d6c5797	0.05770072
32	0x3e48e534	0.19618684
33	0xbda50d43	-0.0805917
34	0xbd8365d4	-0.064159065
35	0xbdb822d1	-0.08991016
36	0xbcc85149	-0.024452822
37	0xbe21561c	-0.15755504
38	0x3d97d234	0.0741314
39	0xbde0e321	-0.109808214
40	0xbe80db42	-0.2516728
41	0x3cf338cf	0.029690174
42	0xbbd6f680	-0.006560147
43	0xbe121f31	-0.14269711
44	0x3d7e207b	0.062042695
45	0xbe008c4b	-0.12553518
46	0x39ffad4a	0.000487665
47	0x3c0a2359	0.008431279
48	0x3c39d4ec	0.011342268
49	0xbd34645f	-0.044041034
50	0xbd0c88d9	-0.034310196
51	0xbd2819e8	-0.04104033
52	0xbcbc72e6	-0.023004007
53	0x3ba89263	0.005144404
54	0xbdbe0415	-0.09278122
55	0xbb19e9f5	-0.0023485397
56	0xbc19b8f0	-0.009382471
57	0xbb431e08	-0.0029772539
58	0x3c1d52ef	0.009602292
59	0xbd932c49	-0.07186181
60	0x3c1a44a5	0.00941578
61	0xbd90feaa	-0.07079823
62	0xbc59bfb7	-0.013290337
63	0x3d1866c8	0.037207395
64	0xbc156bec	-0.009119969
65	0xbc2a5026	-0.010395085
66	0xbb6fac5c	-0.003657124
67	0xbcdb68a2	-0.026783291
68	0x3d972a7c	0.0738115
69	0x3cf8a319	0.030351209
70	0xbd8c117d	-0.06839273
71	0xbdf94d03	-0.12172892
72	0xbe282ed9	-0.16424121
73	0x3cb366ba	0.02189957
74	0xbd35662c	-0.04428689
75	0xbe42dd61	-0.19029762
76	0xbc3d7334	-0.011563111
77	0x3c474b8e	0.01216401
78	0xbe434845	-0.19070537
79	0xbce57b88	-0.028013006
80	0xbd0e2c19	-0.034710024
81	0xbd419f4f	-0.04727107
82	0xbd8573b9	-0.06516213
83	0xbd37494f	-0.044747647
84	0x3e4e5c0c	0.201523
85	0xbd272de6	-0.040815257
86	0x3d47c40d	0.048770953
87	0x3d9a9f62	0.07549931
88	0x3cc3ae20	0.02388674
89	0x3ca5e648	0.020251408
90	0xbd5bf017	-0.053695764
91	0xbd7274d5	-0.05919345
92	0xbd9ccaad	-0.07655845
93	0x3b7434ea	0.0037262985
94	0x3e0cf5d3	0.1376565
95	0x3d05b5c5	0.032644052
96	0xbd3422a2	-0.04397834
97	0xbd12e481	-0.03586245
98	0x3c070452	0.008240776
99	0x3d074d5b	0.033032756
100	0xbd88558e	-0.06656943
101	0x3d1f4d87	0.038892295
102	0x3db0694f	0.08613836
103	0x3c9318b7	0.01795612
104	0x3bf67eda	0.007522446
105	0xbc6483a0	-0.0139473975
106	0x3d6a5670	0.05721134
107	0xbd0eacfe	-0.034832947
108	0xbd55e08d	-0.0522161
109	0xbd7b7ad0	-0.06139642
110	0xbd5f0aed	-0.05445378
111	0xbdac1754	-0.08402887
112	0xbddb918e	-0.10721122
113	0x3c392dc5	0.011302416
114	0xbbc758d4	-0.006083587
115	0xbe0c9719	-0.13729514
116	0xbc6d54c6	-0.014485544
117	0xbddf770e	-0.1091138
118	0x3ca423e0	0.020036638
119	0x3c12fb24	0.008971009
120	0xbe20d3ec	-0.15705842
121	0xbdf8801c	-0.1213381
122	0xbd5994af	-0.05312031
123	0xbd99acef	-0.075036876
124	0xbc8d47ca	-0.017246146
125	0xbd3e42dd	-0.046450485
126	0xbd73f75e	-0.05956208
127	0xbc02ce9c	-0.00798383
128	0xbda6e72b	-0.081495605
129	0xbe4a8997	-0.19779049
130	0x3d7a8aa0	0.06116736
131	0xbd0a1164	-0.03370799
132	0xbe1477ac	-0.14498776
133	0x3d4657a6	0.04842343
134	0x3d3b6d11	0.04575831
135	0xbd6b7b78	-0.057490796
136	0xbdac7919	-0.08421535
137	0xbd99e102	-0.0751362
138	0x3b9101b6	0.004425253
139	0xbc19185c	-0.009344187
140	0xbd8b803b	-0.068115674
141	0xbdb61bc3	-0.08892014
142	0xbd7906b4	-0.06079741
143	0x3d9393b9	0.0720591
144	0x3bb5e870	0.0055513903
145	0xbd712e1c	-0.058881864
146	0xbd965c2d	-0.073418
147	0xbd0095ba	-0.03139279
148	0x3d418e3d	0.04725479
149	0xbddbf803	-0.10740664
150	0x3b1df03a	0.0024099485
151	0x3d282460	0.041050315
152	0xbcfcd789	-0.030864494
153	0xbd86c5cc	-0.065806955
154	0xbd2acd9f	-0.0417
155	0xbd230b0c	-0.039805457
156	0xbc32c25c	-0.010910597
157	0xbd913997	-0.070910625
158	0xbe1c83bf	-0.15284632
159	0x3d50e13f	0.05099606
160	0x3b965784	0.0045880694
161	0xbe082768	-0.13296282
162	0x3c9a8607	0.018862737
163	0xbce39a81	-0.027783634
164	0xbdd1df6d	-0.10247693
165	0x3cdd9985	0.027050743
166	0xbcb2ad85	-0.021811256
167	0xbd5c719b	-0.05381928
168	0x3dc69544	0.09696439
169	0x3b30b9c7	0.00269662
170	0x3cf621d3	0.030045426
171	0x3db28c27	0.08718138
172	0xbdac4618	-0.08411807
173	0x3d61d34e	0.055133156
174	0x3d16e624	0.036840573
175	0x3cb58d86	0.02216221
176	0x3d45f998	0.048333734
177	0xba801081	-0.0009770544
178	0xbe438d5f	-0.19096898
179	0xbb1b556e	-0.0023702043
180	0x3d025fca	0.031829633
181	0xbd1a3a14	-0.037653044
182	0xbe42710a	-0.18988433
183	0x3d834965	0.06410483
184	0xbe6539f7	-0.22385393
185	0xbdd6d9a7	-0.10490733
186	0x3db35afc	0.08757588
187	0xbdb7fe6f	-0.08984076
188	0xbe314763	-0.17312388
189	0xbc296cd5	-0.010340889
190	0xbd3eafea	-0.046554483
191	0xbd96bfd1	-0.07360805
192	0xbb88643b	-0.004162339
193	0xbd7758a7	-0.06038728
194	0xbd6d1c11	-0.057888094
195	0x3e610ee3	0.21978335
196	0xbd82de11	-0.06390012
197	0xbc95c724	-0.018283434
198	0x3d4d2268	0.05008164
199	0xbd0630a5	-0.032761235
200	0xbcd071ba	-0.025444854
201	0x3cbc58ad	0.022991503
202	0xbd0c32dd	-0.034228195
203	0xba67e947	-0.0008846712
204	0xbd463bf1	-0.04839701
205	0xbd8791bb	-0.06619593
206	0x3c4d4672	0.0125290025
207	0xbd946f11	-0.07247747
208	0x3d9b26be	0.07575749
209	0x3daf7065	0.085663594
210	0xbd3dd898	-0.046349138
211	0xbce8bf02	-0.028411392
212	0x3c9997b1	0.01874909
213	0xbd9a54a8	-0.07535678
214	0xbd97e58e	-0.07416831
215	0xbd18281b	-0.037147623
216	0xbd93e13a	-0.07220693
217	0xbe01c6ae	-0.12673447
218	0x3d72dcdd	0.059292663
219	0x3c686c9e	0.014186053
220	0xbdbe7202	-0.09299089
221	0xbd6f1f0b	-0.058379214
222	0xbc4577bd	-0.012052474
223	0xbd42865c	-0.047491416
224	0xbc67d329	-0.014149466
225	0xbe1f84b7	-0.1557797
226	0x3dd58baf	0.10427033
227	0xbc44c8a5	-0.012010728
228	0xbd97430f	-0.07385837
229	0x3dd7722a	0.10519822
230	0xbd677221	-0.056505326
231	0xbdc3ed54	-0.09566751
232	0x3ca9ddc7	0.020735634
233	0xbd2ddfd8	-0.042449802
234	0x3cd0c774	0.025485732
235	0xbe994dcc	-0.29942167
236	0xbcf0137e	-0.02930617
237	0x3d1027da	0.035194255
238	0xbeafedeb	-0.34361205
239	0xbd002a71	-0.031290475
240	0xbaa9e804	-0.0012962823
241	0xbe9cb9c0	-0.30610466
242	0x3d01a87a	0.031654812
243	0x3dda2b26	0.10652761
244	0xbe35e77a	-0.17764083
245	0xbdd3e699	-0.103467174
246	0xbc1665b9	-0.009179526
247	0xbebd8763	-0.37017354
248	0xbe0752f6	-0.13215241
249	0x3d7be160	0.06149423
250	0xbebf061d	-0.37309352
251	0xbe728bc4	-0.23686129
252	0xbd3bd09e	-0.04585325
253	0x3d491571	0.049092714
254	0xbe6b9682	-0.23006633
255	0xbcc440de	-0.023956712

bias f4 [64]
0	0x3d9b2450	0.075752854
1	0x3d121f6e	0.035674505
2	0xbd953f29	-0.072874375
3	0xbc0900a5	-0.00836197
4	0x3b903a15	0.004401455
5	0xbd684453	-0.056705784
6	0xbbd64be7	-0.00653981
7	0xbdf9a516	-0.12189691
8	0x3d4aab1d	0.049479593
9	0x3dc41840	0.09574938
10	0x3d2fe605	0.042943973
11	0x3c47689e	0.012170939
12	0xbc29e5c5	-0.010369723
13	0xbd295fb1	-0.041351024
14	0x3db5491d	0.08851836
15	0xbdf62364	-0.12018469
16	0xbcc974d2	-0.024591837
17	0x3da0b44a	0.078468874
18	0xbd2d47b7	-0.04230472
19	0xbd93df3c	-0.07220313
20	0xbb7f68c9	-0.003897237
21	0xbd86c49d	-0.0658047
22	0x3d65a642	0.05606676
23	0x3d0440bc	0.032288298
24	0x3d9c99f8	0.07646555
25	0x3cf79a44	0.030224927
26	0x3c8abdac	0.016936146
27	0x3d7b2c83	0.061321747
28	0xbd818a16	-0.06325166
29	0xbbe3e2cf	-0.006954528
30	0xbd3620a7	-0.044464733
31	0x3cf0a307	0.029374612
32	0xbc3273b9	-0.010891848
33	0xbd282a29	-0.041055832
34	0x3d4cc462	0.049991973
35	0xbb01452e	-0.0019725072
36	0xbd114b6c	-0.03547232
37	0x3b4b24f0	0.0030997358
38	0xbd620ad9	-0.055186126
39	0x3b742b28	0.0037257168
40	0xbd4c6024	-0.049896374
41	0xbc945692	-0.018107686
42	0x3cdd28dc	0.026997022
43	0x3d11ba00	0.035577774
44	0xbcaf0f58	-0.021369621
45	0x3dfc89c0	0.12330961
46	0xbd5ef2c8	-0.054430753
47	0x3ce85818	0.028362319
48	0x3d86b6be	0.06577824
49	0x3d218287	0.03943112
50	0xbb62fc6b	-0.0034635316
51	0xbd66f3e4	-0.056384936
52	0x3d7abb3b	0.061213713
53	0x3df452a5	0.11929826
54	0x3e867b81	0.262661
55	0xbba151d7	-0.004923086
56	0x3a751a50	0.0009349929
57	0xbd68f7e0	-0.056877017
58	0xbcb50199	-0.022095488
59	0x3d8f309d	0.06991694
60	0xbd714172	-0.058900304
61	0xbdbeafae	-0.09310852
62	0xbd6bf4f9	-0.05760667
63	0x3d28122d	0.04103296

weight f4 [64, 64, 3, 3]
0	0xbcdefbca	-0.027219672
1	0x3b6d9954	0.003625472
2	0xbd8c05bc	-0.06837031
3	0x3d5b79b5	0.053582866
4	0xbdd6df02	-0.10491754
5	0xbd7fbb8f	-0.06243473
6	0xbddd8f71	-0.10818375
7	0x3c9c60a2	0.019089047
8	0x3ca15fd4	0.019699015
9	0x3d4b9298	0.04970035
10	0xbd457605	-0.048208255
11	0x3d367655	0.044546444
12	0xbcd9d539	-0.02659093
13	0xbc86a12d	-0.016434276
14	0xbdc3b11d	-0.09555266
15	0xbb3b9b2a	-0.002862642
16	0xbc5ae416	-0.013360044
17	0xbde6ac4e	-0.11263333
18	0xbd99f309	-0.075170584
19	0xbd1d7ffc	-0.038452134
20	0x3d908599	0.07056732
21	0xbd5c0a76	-0.053720914
22	0xbc425b8c	-0.011862647
23	0x3d39362d	0.04521768
24	0xbccff6c1	-0.025386216
25	0x3d3a5e62	0.045500167
26	0xbd587792	-0.052848406
27	0x3ba53d41	0.0050427024
28	0xbd2fb531	-0.042897407
29	0x3c909295	0.01764802
30	0xbd6e4572	-0.058171697
31	0xbc84e70c	-0.016223453
32	0x3d641698	0.05568561
33	0x3d759191	0.059953276
34	0xbd81596d	-0.06315885
35	0xbd165f75	-0.03671213
36	0x3ad488b7	0.0016215061
37	0x3c0d1f2e	0.008613391
38	0xbc4b5405	-0.012410169
39	0xbce2de1a	-0.027693797
40	0xbd152977	-0.036416497
41	0xbd99df24	-0.07513264
42	0xbd29bdde	-0.041440837
43	0xbc7e3953	-0.015516597
44	0xbcb0fee2	-0.021605913
45	0x3cdaaaa3	0.026692694
46	0x3c68f64f	0.014218881
47	0xbd312263	-0.043245684
48	0x3cbc84cf	0.023012547
49	0xb7b9ebb7	-2.2163482e-05
50	0x3c5bf111	0.013424174
51	0xbd9c24fd	-0.076242425
52	0xbd351814	-0.044212416
53	0xbdf240c7	-0.118287615
54	0xbcb5d512	-0.022196326
55	0x3d128689	0.035772834
56	0xbcfba6a0	-0.030719101
57	0xbdddf45d	-0.10837624
58	0xbd84523f	-0.06461
59	0x3dc1c5f3	0.09461584
60	0x3d889b6c	0.06670269
61	0xbbb13ee4	-0.0054091085
62	0xbd02bc4a	-0.031917848
63	0xbb1c3046	-0.0023832484
64	0xbde97f70	-0.1140126
65	0x3cbdee0b	0.023184797
66	0x3c82bb9d	0.015958602
67	0x3c1dad5d	0.009623853
68	0xbb918e93	-0.004442045
69	0xbd48f3a4	-0.04906048
70	0x3c450230	0.012024447
71	0xbdac5d1e	-0.08416198
72	0xbd3fd0d1	-0.046830002
73	0xbe020d9e	-0.12700507
74	0xbe10b9ef	-0.14133428
75	0xbe1f541b	-0.15559427
76	0x3c3938ac	0.0113050155
77	0xbdebeb8f	-0.115195386
78	0xbd120a54	-0.03565438
79	0xbbc15fed	-0.005901328
80	0xbc5f079d	-0.013612655
81	0x3dbd690d	0.092485525
82	0xbb214fdf	-0.0024614257
83	0x3be1026d	0.0068667443
84	0xbd75124f	-0.059831914
85	0x3b2594f8	0.0025265794
86	0xbc833705	-0.016017446
87	0xbd39e9a5	-0.045388836
88	0xbc8b83cc	-0.01703062
89	0xbdaf1fec	-0.085510105
90	0x3d01a0ce	0.031647496
91	0xbc997b44	-0.018735535
92	0xbe0be6f7	-0.13662325
93	0x3ce1af3a	0.027549375
94	0xbe62fe8f	-0.22167419
95	0xbda6f1e4	-0.08151606
96	0xbdf71357	-0.12064236
97	0x3d112680	0.035437107
98	0xbd0ddd07	-0.034634616
99	0x3d1bca6a	0.038034834
100	0xbc4bb78d	-0.012433899
101	0xbddb8a49	-0.10719735
102	0x3c806152	0.015671406
103	0x3b803c3f	0.003913432
104	0xbd1d925f	-0.03846967
105	0xbb997bc4	-0.0046839435
106	0xbb92724f	-0.004469193
107	0xbd0a9612	-0.033834524
108	0xbd8a30c9	-0.06747586
109	0xbcc552de	-0.024087366
110	0x3d604ac3	0.0547588
111	0xbda0ca2c	-0.07851061
112	0xbdca04b4	-0.09864178
113	0xbd9898de	-0.07451032
114	0xbc89d33c	-0.016824357
115	0xbd6afba6	-0.057368897
116	0xbd60bfbd	-0.054870356
117	0xbc94ef70	-0.018180579
118	0x3d3709e1	0.044687156
119	0xbd3580e2	-0.044312365
120	0xbd96547f	-0.07340335
121	0x3cb5ed23	0.022207802
122	0xbd8e8068	-0.06958085
123	0xbc57a5a6	-0.013162052
124	0xbd61c3ef	-0.055118497
125	0xbdbb0284	-0.09131339
126	0xbe1dd6ab	-0.1541392
127	0xbb8ec3dd	-0.004356845
128	0x3d10012b	0.035157364
129	0x3da1da8a	0.07903011
130	0xbe06264f	-0.13100551
131	0x3d0c52a6	0.034258507
132	0xbde7485d	-0.11293099
133	0xbd8a9de7	-0.06768399
134	0xbdae6950	-0.085161805
135	0xbd58faf8	-0.052973717
136	0x3d9902ce	0.07471238
137	0x3d4535d2	0.04814703
138	0xbae6c7b9	-0.0017607129
139	0xbcc5915b	-0.024117162
140	0xbda64938	-0.08119434
141	0xbdca13ec	-0.09867081
142	0x3d555891	0.052086417
143	0xbe3abd38	-0.18236244
144	0x3d97076d	0.07374463
145	0xbda05472	-0.07828607
146	0x3d85e80a	0.065383986
147	0x3cfbf4e5	0.030756423
148	0xbd54c4a0	-0.05194533
149	0xbc80037a	-0.015626658
150	0xbd0d0294	-0.034426287
151	0xbc9dcf43	-0.01926387
152	0xbcc71c87	-0.024305595
153	0xbd858f3c	-0.065214604
154	0xbddac8b9	-0.10682816
155	0xbe035543	-0.12825494
156	0xbde35bb7	-0.111014776
157	0xbdca2726	-0.09870748
158	0x3b13a3c3	0.002252803
159	0x3d298dea	0.041395105
160	0x3db86922	0.090044275
161	0x3c6e38fe	0.014539955
162	0xbd9dd7b6	-0.07707159
163	0x3d323b0e	0.04351335
164	0xbd855e02	-0.06512071
165	0x3dbc004b	0.091797434
166	0xbbab5974	-0.0052291695
167	0x3bac9597	0.005266856
168	0x3db824ee	0.08991419
169	0x3d419df1	0.047269765
170	0x3da6947e	0.081337914
171	0xbccc9299	-0.024972247
172	0x3d6b13b1	0.057391826
173	0xbe2ed471	-0.17073227
174	0xbd22ffd3	-0.039794754
175	0xbdd29851	-0.10282958
176	0x3c18b6ed	0.009320957
177	0x3d815d7a	0.06316657
178	0xbc9fcf43	-0.01950801
179	0x3d21f7d5	0.03954299
180	0xbda08641	-0.07838107
181	0xbcb7ebce	-0.022451308
182	0xbd33091a	-0.04370985
183	0xbd2ea884	-0.042641178
184	0xbc54b89a	-0.012983466
185	0xbd8ec8ae	-0.0697187
186	0x3d6b4109	0.05743507
187	0xbd8c9c30	-0.06865728
188	0xbb7bb22f	-0.0038405766
189	0x3cc35bb4	0.023847438
190	0xbbd4e5a5	-0.0064971023
191	0xbd41cbd0	-0.04731351
192	0xbc5d154c	-0.013493847
193	0x3d1354e6	0.035969637
194	0x3e065e2e	0.13121864
195	0xbdb0c3e4	-0.08631113
196	0x3d38a3a8	0.04507795
197	0x3db5aeb2	0.08871211
198	0x3d3bb18d	0.045823622
199	0x3b9c6e57	0.0047738957
200	0x3d0a4ef0	0.033766687
201	0xbc953e0d	-0.018218065
202	0xbd2bf371	-0.04198021
203	0xbd756ef2	-0.05992026
204	0x3dc086ee	0.09400736
205	0x3d02cddb	0.0319346
206	0x3cccdbb6	0.02500711
207	0xbdf99979	-0.12187476
208	0x3d0681f6	0.032838784
209	0xbe0c91c0	-0.13727474
210	0x3e113d93	0.14183645
211	0xbc2673d3	-0.010159451
212	0xbbed0d30	-0.007234238
213	0x3db9b53b	0.0906777
214	0x3e0e2232	0.13880232
215	0x3d30fd62	0.043210395
216	0xbcb963b0	-0.022630543
217	0x3b846940	0.004040867
218	0xbd21d734	-0.039511874
219	0x3d16a7e8	0.03678122
220	0xbda92d1a	-0.082605556
221	0xbdf84dc6	-0.12124209
222	0xbc8c8b6a	-0.017156322
223	0xbcf65964	-0.030071922
224	0xbd83a230	-0.06427419
225	0xbca94199	-0.020661162
226	0xbe012e5e	-0.12615344
227	0x3d8d9338	0.069128454
228	0xbd61c635	-0.055120666
229	0x3bc66199	0.006054115
230	0xbc87631f	-0.016526757
231	0x3de557c7	0.11198383
232	0x3d1cefa9	0.038314495
233	0xbdb16883	-0.08662512
234	0xbd37ada1	-0.04484332
235	0xbd3d568d	-0.04622512
236	0xbcf9230c	-0.03041222
237	0xbda726f3	-0.08161726
238	0xbc8a355d	-0.016871149
239	0xbd18de4a	-0.037321366
240	0x3c5eb2f9	0.013592475
241	0xbdcc010b	-0.099611364
242	0x3d57361e	0.052541845
243	0xbc894468	-0.016756251
244	0xbc205745	-0.009786432
245	0xbc418490	-0.0118113905
246	0xbd563e53	-0.05230553
247	0xbcd68be9	-0.026189761
248	0xbd726746	-0.05918052
249	0x3a7bf1f2	0.0009610943
250	0xbe608a66	-0.21927795
251	0xbdf73e2f	-0.120724075
252	0xb9888ec7	-0.0002604632
253	0xbd880e36	-0.066433355
254	0xbdb55b58	-0.08855313
255	0xbdc3cdf7	-0.09560769

bias f4 [64]
0	0xbd009b23	-0.03139795
1	0x3a028cfc	0.0004980115
2	0xbd632eae	-0.05546444
3	0xbd7e2dfe	-0.06205558
4	0xbd707445	-0.058704633
5	0xbe016232	-0.12635115
6	0x3c5d643a	0.013512665
7	0x3b5d0f8b	0.0033731188
8	0xbc227f69	-0.009918072
9	0xbcd55728	-0.026042536
10	0xbc6a387e	-0.014295695
11	0xbd24dd7b	-0.040250283
12	0xbce0fc04	-0.02746392
13	0xbc9a6e70	-0.018851489
14	0xbc8e91e1	-0.017403545
15	0x3b8a7a6d	0.00422602
16	0xbd8c5019	-0.06851215
17	0x3cf1d83b	0.029522052
18	0xba3e3aeb	-0.0007256704
19	0xbd1d3617	-0.038381662
20	0xbc725a3f	-0.014792024
21	0xbd4011d5	-0.046892006
22	0xbd07b2dd	-0.03312956
23	0x3b01d98b	0.0019813504
24	0x3b9a0e16	0.004701386
25	0xbc3d5d57	-0.0115578985
26	0xbda56f75	-0.08077899
27	0x39d592be	0.00040735857
28	0xbd16c3f3	-0.036807965
29	0xbd0edc8b	-0.034878295
30	0x3ab0a1cd	0.0013475955
31	0x3d236abe	0.03989672
32	0xbd2aab08	-0.041667014
33	0xbc95d3bc	-0.01828944
34	0xbd84a48c	-0.06476697
35	0xbd99e26e	-0.07513891
36	0xbd54743b	-0.05186866
37	0x3ca0165d	0.019541914
38	0xbb936de9	-0.0044991863
39	0xbc7cf38e	-0.015438927
40	0xbcf175a7	-0.029475046
41	0x3cf66da4	0.030081578
42	0xbcdd9f6b	-0.027053555
43	0x3d52c075	0.051453073
44	0x3ce82205	0.028336534
45	0x3dacad2b	0.08431467
46	0xbd7e26ae	-0.062048607
47	0x3c8e1913	0.01734594
48	0xbd387898	-0.045036882
49	0xbcd589ce	-0.026066687
50	0xbd5d612e	-0.054047756
51	0x3e38f360	0.1806159
52	0xbd8db613	-0.069194935
53	0xbd18725d	-0.03721844
54	0xbd4890c1	-0.048966173
55	0xbc28ea17	-0.010309718
56	0xbb082fe7	-0.0020780505
57	0xbc631a69	-0.013861277
58	0xbd85d3f3	-0.06534567
59	0xbd832858	-0.06404179
60	0xbd3c1b2a	-0.045924343
61	0xbd14685a	-0.03623233
62	0xbd57ad38	-0.05265543
63	0x3bb0f86a	0.005400707

weight f4 [12, 64, 3, 3]
0	0x3e5eaa41	0.21744634
1	0xbacc29b6	-0.0015576396
2	0xbb0f56eb	-0.0021871876
3	0x3e0c64f9	0.13710393
4	0x3e0b91ef	0.13629888
5	0x3d81422e	0.06311451
6	0x3e251481	0.16121103
7	0x3d3b8d8a	0.04578928
8	0x3b6d43ca	0.0036203736
9	0xbd6089e4	-0.054819003
10	0xbb154df7	-0.0022782066
11	0x3c3db3e6	0.011578536
12	0xbcebbd3d	-0.02877676
13	0xbaccc3a2	-0.0015622268
14	0x3c6b1479	0.014348143
15	0x3c30a0ec	0.010780554
16	0x3d280658	0.041021675
17	0xbc125e8e	-0.008933676
18	0xbca01d5b	-0.019545248
19	0xbc2ca0bb	-0.010536368
20	0xb9859a59	-0.00025482735
21	0xbc40e755	-0.011773904
22	0x3d050ee5	0.032484908
23	0x3ca41df0	0.020033807
24	0xbb60ab8e	-0.0034281942
25	0xbc2eadf3	-0.01066159
26	0xbbb2d3a3	-0.005457358
27	0x3d82f6bc	0.06394717
28	0xbd3cbe56	-0.046079956
29	0xbd3511bc	-0.044206366
30	0x3e533067	0.20623933
31	0x3e000ef2	0.12505701
32	0x3dab9f34	0.08379975
33	0xbe2d4f46	-0.16924772
34	0xbe7ce134	-0.24695283
35	0x3f1da1d9	0.61575085
36	0x3dba0915	0.090837635
37	0x3c005616	0.0078330245
38	0xbbf030f1	-0.007330053
39	0x3d8875d8	0.06663102
40	0xbc4d451c	-0.012528684
41	0xbd89a834	-0.06721535
42	0x3a0a4bb8	0.0005275565
43	0xbd1be1ad	-0.038057018
44	0xbd20e0fa	-0.039277054
45	0xbb9a39fb	-0.004706619
46	0x3b7cf7ad	0.0038599775
47	0xb94dbce8	-0.00019620697
48	0xbbd5328f	-0.006506271
49	0x3d91de97	0.07122534
50	0xbc1fa90e	-0.009744896
51	0x3bd3a542	0.0064589093
52	0xbdbdb86e	-0.09263693
53	0xbc0dea09	-0.008661755
54	0x3c6a5c10	0.014304176
55	0xbe0ec9e7	-0.13944207
56	0xbd307bb3	-0.04308672
57	0xbdbd1ce8	-0.09234029
58	0xbdee7788	-0.116438925
59	0xbe37252b	-0.17885272
60	0x3d27b035	0.04093953
61	0xbd1eda12	-0.038782187
62	0xbd4608c3	-0.0483482
63	0x3a0cd467	0.00053722266
64	0x392a2b68	0.00016228633
65	0xbbae19bb	-0.005313126
66	0xbb7606ba	-0.003754063
67	0x3cdb61d5	0.026780048
68	0xbdcd7e3c	-0.10033843
69	0x3c285fa7	0.010276712
70	0xbc204605	-0.009782319
71	0xbcb36a82	-0.021901373
72	0xbd3dc9a2	-0.04633487
73	0xbd2bc68e	-0.041937403
74	0xbd2013ef	-0.03908151
75	0x3da5ea19	0.08101291
76	0x3bea9720	0.007159129
77	0xbd087e83	-0.033323776
78	0x3dbf93ff	0.093544
79	0xbce1b954	-0.027554192
80	0xbc6790a2	-0.014133604
81	0x3d6a4891	0.05719811
82	0xbd8b3241	-0.067966945
83	0xbc2bbcdc	-0.010482039
84	0xbd87e8b4	-0.066361815
85	0x3d995a0a	0.07487877
86	0xbd7f0fb5	-0.06227084
87	0x3d243ca3	0.04009689
88	0x3c7c7d7d	0.015410778
89	0x3d819637	0.06327479
90	0x3dd24906	0.10267834
91	0x3b1c1aa7	0.0023819597
92	0xbdb0d16f	-0.08633696
93	0xbd06f773	-0.03295083
94	0xbcf4da20	-0.029889166
95	0x3c83b1b1	0.01607594
96	0x3c563092	0.0130731035
97	0x3c1edde9	0.009696462
98	0xbcc48fed	-0.02399441
99	0x3b4079cb	0.002936947
100	0x3e798172	0.24365786
101	0xbdae0656	-0.08497302
102	0xbca950a1	-0.02066833
103	0xbc175426	-0.009236371
104	0xbb312e27	-0.0027035566
105	0x3ce6cb0f	0.028172998
106	0xbc9d35b0	-0.01919064
107	0x3d04a3a3	0.03238262
108	0x3a029ae6	0.0004982188
109	0xbd5f5527	-0.054524567
110	0xbd3fa6dc	-0.04678999
111	0x3cca9b46	0.024732243
112	0x3c0fdce8	0.0087806955
113	0x3d158bfc	0.036510453
114	0x3caa28ac	0.020771347
115	0x3d6bd7cf	0.057578858
116	0xbd038a98	-0.032114595
117	0x3d293b3a	0.04131625
118	0xba7a34f2	-0.00095446326
119	0x3af29bfd	0.0018509623
120	0x3d15b6a2	0.036551125
121	0x3d6bb100	0.057541847
122	0xbd30e94c	-0.04319124
123	0x3a9ff81e	0.0012204682
124	0xbc9e8feb	-0.019355735
125	0xbda94460	-0.082649946
126	0xbd6c34fd	-0.05766772
127	0x3d135387	0.03596833
128	0x3d3bc4c0	0.045841932
129	0xbd8e2fd0	-0.06942713
130	0xbd1f73f8	-0.038928956
131	0x3d95009e	0.07275508
132	0xbc2302dc	-0.009949412
133	0x39c3702e	0.0003727688
134	0x3cbbcce2	0.022924844
135	0xbc807528	-0.015680864
136	0xbc7fe4d7	-0.0156185245
137	0xbba8930c	-0.0051444825
138	0x3dbb1990	0.09135735
139	0x3c041583	0.008061769
140	0xbcdedab3	-0.027203893
141	0xbc85b27a	-0.016320456
142	0x3c6ff1d3	0.014645058
143	0xbbaf227f	-0.0053446884
144	0xbcded4a6	-0.027201008
145	0x3d0b0d60	0.033948302
146	0xbd7099d3	-0.05874045
147	0x3d726cde	0.059185855
148	0x3d00fd64	0.031491652
149	0xbcb834dd	-0.022486145
150	0x3ce6ce26	0.028174471
151	0xbc60dca9	-0.0137244845
152	0xbcfcfa4f	-0.030881075
153	0x3cd21efd	0.025649542
154	0x3b333e69	0.0027350432
155	0xbc16f1d0	-0.009212926
156	0x3c9fbd74	0.019499518
157	0xbc56a785	-0.013101463
158	0x3bae4f00	0.005319476
159	0xb9c58722	-0.0003767545
160	0x3a50a6a9	0.00079594046
161	0xbd195817	-0.037437525
162	0xbc3d1673	-0.011540997
163	0xbb091fe6	-0.0020923554
164	0x3c54a9d4	0.012979943
165	0x3c99cd3d	0.018774623
166	0x3c910287	0.0177014
167	0xbc9324a1	-0.017961802
168	0xbbbeaeeb	-0.0058191917
169	0xbc340784	-0.01098812
170	0xbbf35151	-0.007425465
171	0x3b6a1dd4	0.0035723345
172	0x3d899181	0.06717206
173	0xbc332a14	-0.010935325
174	0x3bc1f31d	0.005918874
175	0xbda6a1d2	-0.081363335
176	0xbccc9330	-0.024972528
177	0x3c8797ce	0.016551878
178	0x3da353d5	0.07974974
179	0xbb577bb5	-0.0032880132
180	0x3c114b4f	0.008868053
181	0x3d360391	0.044436995
182	0xbb15591c	-0.002278871
183	0xbc3eff82	-0.0116575975
184	0xbd5b58f2	-0.05355162
185	0x3b01c232	0.0019799587
186	0xbcd1064d	-0.0255157
187	0x3c3190ff	0.010837792
188	0xbb9e6791	-0.0048341234
189	0x3d018352	0.031619377
190	0x3cddfb18	0.02709727
191	0xbba36644	-0.0049865562
192	0x3d2dcddd	0.042432655
193	0xbd2d171c	-0.042258367
194	0x3c3473a0	0.011013895
195	0x3b0f68fc	0.0021882644
196	0x3c482f7f	0.012218355
197	0xb9a53861	-0.00031513258
198	0x3d8798dc	0.066209525
199	0x3e1300cb	0.14355771
200	0xbe984e3e	-0.29747194
201	0x3d5181e1	0.051149253
202	0x3d72de03	0.059293758
203	0x3dac0055	0.08398501
204	0xbd850bfe	-0.06496428
205	0x3e0319b7	0.12802778
206	0xbe0234a7	-0.12715398
207	0xbcee2452	-0.029070053
208	0x3d089da8	0.033353478
209	0x3ae26d2a	0.0017274965
210	0xbd044e99	-0.03230152
211	0xbccd6fb4	-0.025077678
212	0x3bbfb66c	0.005850604
213	0x3c7985cf	0.015229656
214	0xbdc55518	-0.09635371
215	0x3cca5f59	0.024703668
216	0xbb7a7f45	-0.0038222831
217	0xbcbde802	-0.023181919
218	0xbc63ecdc	-0.013911452
219	0x3d2101b1	0.039308254
220	0xbb7abdb1	-0.0038260038
221	0xbd1ea86b	-0.038734835
222	0xbc9748cd	-0.018467331
223	0x3d33dd93	0.04391248
224	0xbcb25905	-0.021770963
225	0xbc19dd98	-0.009391211
226	0xbd42b488	-0.04753545
227	0xbc5fbf56	-0.013656458
228	0x3c50e500	0.01274991
229	0x3cf8d69b	0.03037577
230	0x3dee06c5	0.11622385
231	0xbcd1d594	-0.025614537
232	0xbd341132	-0.04396171
233	0xbcdec312	-0.027192626
234	0xbd43c90c	-0.047799155
235	0xbd39d428	-0.045368344
236	0xbcd9255e	-0.026507076
237	0x3c12a64b	0.00895078
238	0x3d2aa01a	0.04165659
239	0x3bcc9a68	0.0062439926
240	0x3cbf67e7	0.023364974
241	0x3d58dc19	0.052944276
242	0x3b91b871	0.004447036
243	0xbd7e0de5	-0.06202497
244	0x3d9aa397	0.075507335
245	0xbcf5600a	-0.029953022
246	0xbb42925a	-0.0029689283
247	0x3db34c31	0.08754767
248	0x3c7e652f	0.015527054
249	0xbd5fde2e	-0.054655246
250	0xbb619437	-0.0034420618
251	0xbd3dc80c	-0.046333358
252	0xbcaa1543	-0.020762092
253	0xbb0ec5b1	-0.0021785314
254	0x3d07b236	0.03312894
255	0xbcf9505e	-0.03043383

bias f4 [12]
0	0x39b39cbd	0.0003425832
1	0xbb9f5747	-0.004862699
2	0x3b1df9b7	0.002410514
3	0xbb6a9085	-0.0035791707
4	0xbab2243d	-0.0013591122
5	0xba81e9f0	-0.0009911638
6	0x3b16b1dd	0.0022994198
7	0x3a831ade	0.0010002514
8	0xbb26020c	-0.002533081
9	0xbb49fdb4	-0.0030821385
10	0x3b3855ef	0.0028127392
11	0xbbe357f4	-0.006937975
