train_weight_sr5/model_epoch_16.pth (torch_old, 667646 bytes, 10 tensors)

weight f4 [12, 3, 13, 13]
000000 27 39 d4 bb 21 1a c3 bd 09 f4 11 3d 2b 25 1b 3c
       -0.0064765397 -0.09526468 0.03563312 0.009469311
000010 24 55 46 bd d1 18 86 bd 5a d3 23 3d 41 a5 46 3d
       -0.04842104 -0.06547702 0.039996482 0.048497442
000020 aa ab e6 bd e8 7c ef 3d ba e2 e2 bc 3a a5 26 bc
       -0.11263211 0.11693746 -0.027696002 -0.010171229
000030 a2 2f 5a bc d2 d9 b3 3a 2b d2 b3 bd dd 9c 39 bd
       -0.013317021 0.0013721532 -0.08780321 -0.045315612
000040 66 ac 1a bd 41 be a9 3d ea 5c 40 3d 96 50 60 3d
       -0.03776207 0.08288241 0.04696361 0.054764353
000050 27 5e 8f bd f7 4f fa bc 14 21 ee bc 71 34 0c bd
       -0.0700038 -0.030555708 -0.029068507 -0.0342297
000060 a6 3c 65 bc 44 a6 ac bb 1e 2c a2 bd 32 b7 9f bd
       -0.0139915105 -0.005268844 -0.07918571 -0.077986136
000070 8e 0a a1 3d 72 68 8f 3d 67 29 a7 bc 5f ca 52 bd
       0.07863341 0.07002343 -0.020405484 -0.051462527
000080 f4 69 51 3d 35 93 17 3c 1b 41 01 bd 2d 9a b6 3d
       0.051126435 0.0092514055 -0.03155623 0.089161254
000090 df 0e 1c 3c 71 92 03 bd ea 65 b3 3c 65 03 55 bc
       0.00952503 -0.03212208 0.021899182 -0.013001298
0000a0 64 f4 fa bd 7b 0d 52 bd 6f 4c 14 bc 36 d1 ec 3c
       -0.12253645 -0.051282387 -0.009051426 0.028908353
0000b0 59 99 79 3d f2 88 67 bd 3a aa e0 bd dd 80 ca bc
       0.06093726 -0.056527086 -0.10969968 -0.02471965
0000c0 4f f1 99 bd f1 f7 51 3d 4c 57 6e 3d f5 8a a2 bd
       -0.07516729 0.051261846 0.05818872 -0.0793666
0000d0 ee 26 b3 bd f8 84 66 3d 78 fd 17 bd e3 aa 8a bd
       -0.087476596 0.056279153 -0.03710696 -0.06770875
0000e0 e6 e4 bb bd 70 67 c9 3d 4e ab 31 bd 73 70 3a 3c
       -0.09174518 0.09834182 -0.04337626 0.011379349
0000f0 1a ed 59 3c 36 ec b4 ba 04 0e 26 bd 77 9e 26 bd
       0.013301158 -0.0013803307 -0.04054071 -0.040678468
000100 d7 cc 38 3d 85 96 38 3d 79 1b 95 b9 cf ea 8d 3d
       0.045117225 0.04506542 -0.00028439963 0.06929552
000110 30 30 30 3a 45 12 95 bc 90 d5 89 3d 0b 9c 81 bd
       0.00067210477 -0.018197188 0.06730187 -0.06328591
000120 f1 2e c6 3d 15 a4 94 bd a3 bf 7b bd 4e 5a 67 3c
       0.09676922 -0.07257859 -0.061462056 0.014120651
000130 52 5c bc bc 92 cc 26 bc 65 bb b9 bc 60 c0 c5 bb
       -0.02299324 -0.010180609 -0.022672364 -0.006034896
000140 c8 d6 81 be 88 69 24 be ac 7f 1b be 73 e3 27 bd
       -0.25359178 -0.16055882 -0.15185422 -0.040988397
000150 62 83 43 bd 45 31 0e bd a4 59 ea 3c 10 6e a2 bc
       -0.04773272 -0.034714956 0.028607197 -0.019827873
000160 b9 00 bc 3d 77 3c 34 3d 00 a7 89 3d 36 c8 ee 3c
       0.09179825 0.044002976 0.06721306 0.029148202
000170 0f 9f 74 3d 3c 1c d3 3d ee 23 0d 3e 88 ce 3b bd
       0.059722003 0.1030812 0.13783237 -0.04585126
000180 dc 26 0c 3c db 6c 7b 3c c9 8f 6d bd ed 08 36 bd
       0.008554187 0.015345777 -0.057998452 -0.044442106
000190 47 3f 10 be b2 6a 77 bd 86 f5 07 be 8b 82 89 bb
       -0.14086638 -0.060404487 -0.13277254 -0.00419647
0001a0 d9 cb df bd 39 37 9b bc 0b 2f d8 3c 12 d1 d6 bc
       -0.10927553 -0.01894723 0.02638962 -0.02622274
0001b0 3e 77 63 3d 1d bb 0b ba d9 22 43 3d 96 a5 16 3e
       0.05553364 -0.0005330311 0.047640655 0.14711604
0001c0 66 d4 24 b9 6b 32 08 3e 8e a6 8b bd 3f da 71 3d
       -0.00015719383 0.13300483 -0.06818877 0.059046026
0001d0 97 47 1c 3a 73 1d d5 3d db 03 28 be 0b 12 59 bc
       0.00059615955 0.104060076 -0.1640772 -0.013248931
0001e0 09 b6 c7 bd 9a c0 8d be d5 30 c9 bd fe d3 e7 bd
       -0.09751517 -0.27686006 -0.09823767 -0.11319731
0001f0 26 fd 0d be 59 c4 37 bc d0 0b f9 bc 7b 81 01 3d
       -0.138661 -0.0112162465 -0.03040114 0.031617623
000200 5a de 10 bd bd 65 2c 3d c3 71 9d bd e6 ba 92 bd
       -0.0353683 0.042089213 -0.07687714 -0.07164554
000210 f4 4b d0 bc ce b5 c5 3d af 32 72 bd c5 96 e6 3b
       -0.025426842 0.09653817 -0.059130367 0.007037016
000220 38 0a c3 bd 4c cc a4 3c 6e 8d 09 be c3 77 a2 bd
       -0.095234334 0.020116948 -0.13432857 -0.07932999
000230 eb 91 98 bd a1 50 89 bd 21 0b 17 be ce e9 ff 3c
       -0.07449707 -0.06704832 -0.14750339 0.031239416
000240 ff fd 0b 3c 9b 13 88 bc c4 7f d8 bd 74 9e eb bc
       0.008544444 -0.016610911 -0.10571244 -0.02876208
000250 1f 69 99 3d ab 3d 83 3d 1f d0 74 3d 79 bc 86 bd
       0.074907534 0.064082466 0.059768792 -0.06578917
000260 73 4b 23 bb 46 07 46 bb 48 18 03 3c 2b c7 d8 bd
       -0.0024916797 -0.0030216738 0.008001395 -0.10584863
000270 21 2d b9 bd d8 5f 40 bd cd f9 04 be 28 03 a6 bd
       -0.09041811 -0.046966404 -0.12985916 -0.08106071
000280 9a b6 24 3d cf 28 a3 bd 78 5a fe bd 59 36 4a 3c
       0.040213205 -0.07966768 -0.12419599 0.012342059
000290 8b 52 1d bd 6e b1 38 3c 6e 99 0e 3d 7d df 7a bd
       -0.038408797 0.011272771 0.03481429 -0.06124829
0002a0 e6 bb be bc 44 56 a9 3c da 3b 21 bd 44 6d e8 bc
       -0.023282956 0.020671017 -0.03936372 -0.028372414
0002b0 3c b4 3d 3d 02 82 8b bc d8 79 53 3d ca d6 94 bd
       0.046314463 -0.017029766 0.05162987 -0.0726753
0002c0 89 76 42 3d 48 75 97 3b cc 15 07 bd 58 19 07 bd
       0.047476325 0.0046221353 -0.03297977 -0.032983154
0002d0 18 68 d5 3c d7 34 b0 3c 7d 96 be 3d cb 7a be bd
       0.026050612 0.021509571 0.09306047 -0.09300765
0002e0 fa 80 01 3e 0e ae 9e bc 05 c3 07 3c f1 71 8b bd
       0.12646857 -0.019370105 0.008286242 -0.06808842
0002f0 e8 7f 23 bd 73 c5 4b bd fb 61 37 3d 95 a4 da 3c
       -0.039916903 -0.04974885 0.044771176 0.026689807
000300 a7 3c 92 3d 3b 5f 9e bd 38 b1 89 bb 60 75 17 bd
       0.07140475 -0.077330075 -0.0042020343 -0.036977172
000310 cb c4 cb 3d b5 b6 92 bd fe 8c 02 be d7 ab a6 bd
       0.09949645 -0.07163755 -0.12749097 -0.081382446
000320 76 c1 92 3d 0f a0 8f bc 2d b7 94 3d 43 76 03 3c
       0.07165806 -0.017532377 0.072615005 0.008023801
000330 e8 c4 13 bd 31 2e 27 bd 70 e5 bc 3c 59 a4 be bc
       -0.036076456 -0.040815536 0.023058623 -0.023271726
000340 02 63 32 3d 7c 6c 80 bb 06 20 b2 3d 16 0e d4 3d
       0.043551452 -0.0039191823 0.08697514 0.10354249
000350 87 49 1a b8 93 af 48 bd 8a 82 e7 bc 69 b6 fc 3c
       -3.678494e-05 -0.048995566 -0.028260488 0.030848699
000360 bd ee b9 bb d2 fd 8c 3d 4a e7 80 bd 7d 94 fa bd
       -0.005674212 0.0688435 -0.06294115 -0.12235353
000370 92 4b 3d 3d 81 dc ee 3d 45 71 8f bd 25 cb 75 bd
       0.046214648 0.116631515 -0.07004026 -0.060008187
000380 76 f8 47 3b 57 04 44 3b bf 3a c0 3c bb 19 fe bd
       0.0030513084 0.0029909813 0.023465512 -0.124072514
000390 6e 2d 1a 3d b5 7d 58 bc 50 af 4d 3d 91 cd 84 bd
       0.03764098 -0.013213565 0.05021602 -0.06484521
0003a0 61 50 4c 3d 52 45 f4 3c 8c 76 cd bc a8 ad 6c 3d
       0.049881343 0.02981821 -0.025080942 0.0577828
0003b0 5b 1d 2a bd 3f 99 e0 3d 46 fd 5b bc 2a 90 41 3d
       -0.0415319 0.109667294 -0.013427084 0.047256626
0003c0 c9 a7 32 3d d7 e5 33 3d 30 74 dc bc 2e cd 9a 3d
       0.043617044 0.043920364 -0.026910871 0.07558666
0003d0 af 9c 03 3d d2 da 24 bd 43 c6 72 bc d2 a1 84 bd
       0.032131847 -0.040247746 -0.014817777 -0.06476177
0003e0 ff b1 52 be ce 07 78 be d7 36 84 bd 11 bf 3e bd
       -0.20575713 -0.24221727 -0.06455772 -0.046568934
0003f0 06 e7 89 bc 67 4f c3 bd 7e ad 8c bc 84 aa d7 3d
       -0.016833793 -0.09536629 -0.017172571 0.1053057

weight f4 [64, 12, 7, 7]
000000 bf b9 f1 bd b5 8a 4d be 5c 33 8a 3c 93 9a aa 3d
       -0.118030064 -0.20072444 0.016870193 0.08330264
000010 62 8f ae bc ac e1 30 bd 25 a9 95 bd 74 51 39 3d
       -0.021308605 -0.043183967 -0.073076524 0.045243695
000020 97 3d f7 bd 83 03 91 bd 04 e3 d6 bd 44 b6 11 bd
       -0.12072294 -0.07080748 -0.104925185 -0.035574213
000030 ac 06 16 bd d8 15 e3 3c af 3f 5f 3c af d1 d8 3d
       -0.036627457 0.027720377 0.013626023 0.10586869
000040 6e a7 96 bc 0b 52 07 be 8a 4f 49 be bf 21 65 3b
       -0.018390384 -0.1321489 -0.19659248 0.0034962741
000050 da 66 2f bd 84 ca ac bd dc 6f 3d bc 9f 24 4b 3c
       -0.042822696 -0.08437064 -0.011562314 0.012398868
000060 87 a3 bc 3d f8 4f 5b 3d 62 62 86 3c f2 52 38 be
       0.09210878 0.05354306 0.016404334 -0.18000391
000070 d0 69 66 bd e0 df 24 bb 17 cd 6e 3c 33 d6 95 bd
       -0.056253254 -0.0025157854 0.014575264 -0.07316246
000080 61 fc 39 bd 47 87 17 3d 47 52 0a bd aa 57 30 3d
       -0.045406703 0.036994245 -0.033769872 0.043052353
000090 fe 2c 07 be aa b2 16 3c 8b 77 50 bc b3 9b a4 bd
       -0.13200757 0.00919787 -0.012723814 -0.0803751
0000a0 8b 27 36 be 59 cc 6e bd f0 b2 b0 bd 0b e7 28 be
       -0.17788522 -0.05830035 -0.086278796 -0.16494386
0000b0 48 33 8e bb f5 2d 0e bd 01 b6 3c 3d ee f9 fd bd
       -0.0043396093 -0.034711797 0.04607201 -0.12401186
0000c0 49 80 c5 bd d4 c8 e6 bb 2f f2 22 3b de f7 a9 bd
       -0.09643609 -0.0070429835 0.002486359 -0.0829923
0000d0 4c 64 dd 3d ca 8a f4 3b b3 ad 1b bd 32 df b3 3c
       0.10810146 0.007462834 -0.03800745 0.021957014
0000e0 76 9c 3e bc 95 66 0c 3d a0 a0 91 3d c3 74 79 bd
       -0.011633983 0.034277517 0.07110715 -0.06090237
0000f0 03 3d 82 bc 98 84 00 be d1 19 a0 3c 66 c7 ea 39
       -0.015898233 -0.1255058 0.01954356 0.0004478052
000100 15 92 77 bc 8c 78 ee 3c 9b f3 83 3d d6 ec d2 bd
       -0.015110512 0.029110216 0.064429484 -0.10299079
000110 69 63 36 bc a6 b6 d8 3d d7 eb 59 bd e7 36 7e bc
       -0.0111321 0.105817124 -0.05320343 -0.015516019
000120 f5 96 86 3d 02 d4 5b bd cc db 84 3e 29 1c 72 bd
       0.065717615 -0.053668983 0.25948942 -0.059108887
000130 99 f4 85 bc 85 cd b0 3c e8 de f5 bc 49 e2 75 3d
       -0.016351985 0.021582374 -0.030013517 0.060030255
000140 59 72 2f bc f3 2b e1 bd d6 59 bb be 4a c5 5a be
       -0.010708415 -0.10994711 -0.36591977 -0.21364322
000150 87 a5 8f bc 12 bf ad 3c 61 b9 0f 3d 8d 93 13 3d
       -0.017534984 0.021209273 0.0350889 0.036029387
000160 9d 97 c3 3d 54 89 96 be 01 60 88 3d 25 b1 fc 3c
       0.09550402 -0.29401648 0.06658936 0.030846188
000170 7c 37 b7 bd f1 3e 7b 3d 6b 47 c4 bc 70 8a 3f 3d
       -0.0894613 0.061339322 -0.023959836 0.046762884
000180 5e 41 7d be cb 51 ca bc 15 b9 f3 bc 96 85 ba 3b
       -0.24731967 -0.024697205 -0.02975134 0.005692194
000190 11 05 0d bd 68 d3 f6 3c 6b d0 7e bd 95 5e 2c 3a
       -0.03442866 0.030130103 -0.06221048 0.0006575373
0001a0 f5 8c b8 bc 5c bf 9b 3b 4f 9b ca bd 8c b8 6a be
       -0.022528151 0.0047530364 -0.09892904 -0.22921962
0001b0 4f 8e b5 bd 82 6e 04 bd 43 bc 7a bd 22 c3 85 3c
       -0.08865034 -0.03233195 -0.061214697 0.016328398
0001c0 47 fe 97 3c 74 b8 32 bd 57 b4 8c bd 83 54 9d bd
       0.018553866 -0.04363294 -0.068703346 -0.07682135
0001d0 16 83 82 3c e2 9e e1 bd 84 2a 4e 3c d3 2e 08 bd
       0.015931647 -0.110166326 0.012583379 -0.03324778
0001e0 32 88 b6 bd 0c cb ec bd 44 47 ae bc 9e e2 70 bd
       -0.08912696 -0.115621656 -0.021274216 -0.05880987
0001f0 c1 f2 c1 bd ea e8 52 bd 84 06 0a be b3 e6 f1 bd
       -0.0947013 -0.051491655 -0.13479048 -0.118115805
000200 b1 cc d2 bd 2c 7e 84 3d 34 40 51 bd 8f d1 01 3d
       -0.10292948 0.06469378 -0.05108662 0.03169399
000210 43 2e 9f 3d 41 a8 b8 bd 6b 9f de bd 85 22 40 be
       0.077724956 -0.09016467 -0.1087025 -0.18763168
000220 c8 7c 6d 3d 00 a3 ae bd 97 bb fb 3c a3 ac c3 bc
       0.05798033 -0.085271835 0.030729098 -0.02388603
000230 be 84 eb bd 4e f5 f6 3c 2a 91 8c be b1 d1 b7 3d
       -0.11499928 0.030146267 -0.274545 0.08975542
000240 7f c9 5e bd c5 a1 cf 3c bb 03 ce bc 1c 85 b7 bd
       -0.05439138 0.025345692 -0.025148263 -0.089609355
000250 6d 5e aa 3b f9 5d cc 3d f0 1c 29 bd 78 bb d5 bc
       0.0051992447 0.09978861 -0.041287363 -0.026090369
000260 8b ef 81 bd 82 a0 67 3d c4 d1 9b 3c b4 9b ff bc
       -0.06344517 0.056549557 0.019020922 -0.031202175
000270 46 4e 02 bd 33 40 84 bd 2b a0 80 bc c1 65 d4 bb
       -0.03181293 -0.064575575 -0.015701374 -0.0064818566
000280 06 1c 2b bd 22 a5 4a bd 69 30 61 bc 83 1e 71 3b
       -0.041774772 -0.04947389 -0.013744452 0.0036791868
000290 d6 15 ad bb b2 40 0d bd c7 6e 41 3d 64 34 0a 3e
       -0.005282144 -0.034485526 0.047224786 0.13496548
0002a0 d2 c9 54 3d ae 13 a2 3d b1 ee 92 bd 51 33 a1 bd
       0.051950283 0.0791391 -0.07174433 -0.07871116
0002b0 3e b9 4c bd f6 05 e3 bc 99 81 97 bd b3 a5 6d 3d
       -0.04998135 -0.027712803 -0.07397766 0.05801935
0002c0 8c 68 65 3d d0 46 e5 bc c5 7e 4c bc 2e e4 e5 bc
       0.056007907 -0.027987868 -0.012481396 -0.028062906
0002d0 a6 00 00 bd b4 3a 9f bb 48 2d 0f be c2 a8 a9 bd
       -0.03125062 -0.004859293 -0.13982117 -0.08284141
0002e0 8e 77 dd 3d 80 b5 17 bd df d0 a0 bc b7 b7 87 3c
       0.10813819 -0.037038326 -0.019630847 0.016567094
0002f0 18 9c 1e 3e 92 57 c1 bd 57 29 bd bc 59 05 8e 3c
       0.15489233 -0.09440531 -0.023091001 0.017336534
000300 17 6b 51 3d 2e 2e 30 be 6d a9 fc bc b4 71 2b 3e
       0.05112752 -0.17205116 -0.030842507 0.16742593
000310 a3 b9 89 bd 87 72 14 3c 93 d7 9a 3d b0 93 ac 3c
       -0.067248605 0.009060509 0.07560649 0.021066517
000320 36 f4 e8 bd 96 9e a0 be f8 3f ac 3d d4 4a b6 3d
       -0.113747045 -0.3137099 0.084106386 0.08900991
000330 5a 2d b2 bd 68 09 77 3c 5f 4a 66 3c 8a 81 96 bd
       -0.087000564 0.015077926 0.014055817 -0.07348926
000340 63 20 51 bf 4d 9c 6d be 79 c9 b2 bc 0f 34 c4 3d
       -0.81690043 -0.23204155 -0.021824585 0.09580242
000350 c5 1a 7a 3c 6e 98 e2 bd d0 b4 1a bd 85 11 93 be
       0.015265171 -0.1106423 -0.037770092 -0.28724304
000360 51 48 e6 be 82 0c af 3b 82 71 36 bc cc 7e 2c be
       -0.44977048 0.005342067 -0.011135461 -0.16845244
000370 b6 e4 94 3d 03 24 91 bc 61 b2 99 bf 98 0d fa be
       0.07270186 -0.017717367 -1.2007562 -0.48838496
000380 8c 3f a9 bc 79 62 35 3d ba ae 8d ba 5d b5 a4 3c
       -0.020660184 0.044283364 -0.0010809519 0.020106012
000390 a5 e2 24 3e 03 bc 00 bf 8f 42 f4 be 62 8b 57 bc
       0.16102083 -0.50286883 -0.4770703 -0.01315579
0003a0 c0 56 03 3c 19 6a d8 bc dd e5 df 3d e6 56 44 bd
       0.008016288 -0.026417779 0.10932515 -0.047934435
0003b0 88 89 07 be 59 37 e9 be ef 65 e5 bc e9 cc 43 3d
       -0.13236058 -0.4555004 -0.028002707 0.04780284
0003c0 d5 c3 4e bd b0 21 3d bc 30 e7 f6 3d 6f 24 4a bd
       -0.05047973 -0.011543676 0.12055814 -0.049351152
0003d0 bf fb 17 be 95 e6 13 3d ef ad d2 3d 0e b7 eb 3c
       -0.14842127 0.036108572 0.102870815 0.02877381
0003e0 b6 fe 92 bd c6 67 52 3a e6 08 ba bd 09 c8 1a 3d
       -0.071774885 0.00080263277 -0.090837285 0.037788425
0003f0 74 77 9a bc 93 67 c1 3c 7e 7b 8a bd 84 77 e0 bd
       -0.018855788 0.023608958 -0.067618355 -0.10960296

weight f4 [64, 64, 3, 3]
000000 bc da 88 be b9 94 96 3e f9 a4 22 3e 85 a5 c4 be
       -0.2672938 0.2941034 0.15883245 -0.3840753
000010 bf 54 36 3f f8 21 02 be 6b 50 9a be 69 f2 29 bd
       0.7122306 -0.1270827 -0.3013948 -0.041490946
000020 bb bc 1d 3e ab bc 93 bb 35 e5 87 3c 4b e1 d2 3d
       0.15404026 -0.004508575 0.016588787 0.102968775
000030 bc 62 6a bb e3 16 3d 3d 30 73 d1 3c 1a 69 be 3d
       -0.0035764417 0.046164405 0.025567621 0.0929739
000040 4d 26 a9 bc 38 4a ad bd 6d ac 0d be 26 50 8e bd
       -0.020648146 -0.08461422 -0.13835306 -0.06948881
000050 d7 d8 ef bd de 41 87 bc 66 d0 30 3f f5 54 55 be
       -0.11711281 -0.0165109 0.6906799 -0.2083319
000060 34 24 6d be 72 56 18 be 6f 27 8e bd ff 15 9c b9
       -0.23158342 -0.14876726 -0.06941115 -0.00029771027
000070 80 6c ce 3c 90 06 88 bd ec e1 b7 bc 67 85 6a bc
       0.025198221 -0.06641877 -0.022446595 -0.014314032
000080 f3 ae 3d 3d 2f 40 76 bc b3 73 04 bd e6 c5 33 3d
       0.046309423 -0.015029951 -0.032336902 0.043889903
000090 92 f0 90 bd 1a 5a e6 bc e9 2c a1 bd 48 43 05 3e
       -0.07077135 -0.028119136 -0.07869894 0.13013947
0000a0 cf ba a7 bd ab 74 ad bd 53 ab c9 3c 98 e3 ea 3d
       -0.08189928 -0.08469518 0.024617827 0.11469191
0000b0 ea b9 80 bd 7d e5 03 be e8 0e cb bc fc 6c 04 3c
       -0.0628546 -0.12880512 -0.024787381 0.0080826245
0000c0 a5 fa 1b 3e b4 60 f8 3c 51 c6 11 bb 68 b0 76 3c
       0.15232332 0.03031955 -0.002224345 0.015056707
0000d0 4d 70 8e bd 00 a9 fb bc cc 72 26 3d ca 2f 89 3d
       -0.069550134 -0.030720234 0.040636823 0.06698568
0000e0 b9 6c 86 bd 72 14 b3 ba c6 a2 72 3d 84 ae 6b bc
       -0.06563706 -0.0013662709 0.059237264 -0.0143848695
0000f0 ad d6 ef 3d a3 ad 2b 3d 14 61 bd bd f8 c3 8c bd
       0.11710868 0.04191364 -0.09247032 -0.068733156
000100 b5 71 4b be 71 b8 09 bd 92 c0 93 bd f9 e0 ae 3e
       -0.19867595 -0.033623163 -0.07214464 0.34156016
000110 52 57 84 3c 49 1f 9d bd 8b c5 87 3c 38 9f 0a bd
       0.016154919 -0.07671983 0.016573688 -0.03384325
000120 26 25 63 bd 76 62 87 bd 19 ab 58 37 48 9c b1 be
       -0.05545535 -0.06610577 1.291444e-05 -0.34689546
000130 39 1b 21 be 84 7f 8e 3d af ad e0 3d 00 b5 5b bc
       -0.15733041 0.069579154 0.109706275 -0.013409853
000140 8a 96 3e bc 2a 71 4c bd cc ac 5e 3c a6 44 37 be
       -0.011632571 -0.04991261 0.013591003 -0.17897281
000150 93 1e 5f bd 40 d4 5c bd f1 2e 3c be 5a 96 ea bc
       -0.054472517 -0.053913355 -0.18377282 -0.028636146
000160 e5 3c c3 3d 56 9f ea bd 6d a0 1a bd 64 6e 42 bc
       0.09533099 -0.11456172 -0.03775065 -0.0118671395
000170 32 0f 0e 3d 14 df 40 bd 73 ba 70 3c 2b 25 c9 bd
       0.03468246 -0.047087744 0.01469289 -0.09821542
000180 58 2b 96 3d c0 ce b2 bc 63 1b 93 3c 73 c3 e2 bc
       0.07332486 -0.021827102 0.017957395 -0.027681088
000190 d2 64 bc bb 7f b1 c5 bc e3 32 a4 bd ba 46 e3 3b
       -0.0057493234 -0.024132488 -0.08017518 0.0069359215
0001a0 72 bc 06 3d 1a cf 5a 3d b6 34 4d bd 30 c0 a1 3b
       0.03289456 0.053420164 -0.050099097 0.0049362406
0001b0 e0 81 9d bc ad 4b 6a 3d 8e 93 a0 bd e6 89 ea 3c
       -0.019226968 0.057201076 -0.07840644 0.028630208
0001c0 14 23 27 3e 76 17 aa be 86 f9 3d bc 57 9f 41 be
       0.16321975 -0.33221024 -0.011595136 -0.1890844
0001d0 65 2b f0 bd ac c5 22 3e bb f6 01 3e 5e ec 9a be
       -0.11727027 0.15895718 0.12691776 -0.3025846
0001e0 b0 9c 05 be b7 af bb 3d 17 2d bc bd c3 dd 4e be
       -0.13048053 0.09164374 -0.09188288 -0.20201783
0001f0 71 b7 d2 3c 20 48 45 bd 9d 2a 10 3e 7b 33 15 3d
       0.025722237 -0.048164487 0.14078756 0.03642605
000200 d4 33 65 be e8 a6 98 3e 0d 90 a6 be 6e f9 db be
       -0.22383052 0.2981484 -0.32531777 -0.42963737
000210 59 c1 ab be 0d dc 4e be 5d 8d dd bd b9 b4 59 bd
       -0.3354595 -0.2020113 -0.108179785 -0.053150866
000220 89 99 6b 3d e1 f4 b2 3d 64 83 f0 3a fc a5 ad bd
       0.05751947 0.08738113 0.0018349704 -0.08478925
000230 3e d0 af bc 5f 82 0e 3d b2 4d e1 bd 52 41 8b 3c
       -0.021461602 0.0347923 -0.11001147 0.01699892
000240 16 ec 86 be 81 8c 05 be 3a ce 24 be df 2f 30 3c
       -0.26351994 -0.13041879 -0.16094294 0.010753601
000250 dc 3c fb 3e 81 50 95 3c 50 de 04 3e 20 96 10 3d
       0.4906987 0.018226864 0.1297543 0.03529942
000260 d8 27 17 bd 75 f4 6f 3c b8 4d 99 bd ba b1 f5 bb
       -0.036903232 0.014645685 -0.07485527 -0.0074979933
000270 d2 b1 95 bc 6c 76 a7 bc 98 c9 51 3d 46 e7 6e 3d
       -0.018273268 -0.02044221 0.051217645 0.05832603
000280 d8 a3 8f 3c 82 c6 a3 bd cd 8c c1 bd 2a ce 5e bd
       0.017534181 -0.07996847 -0.09450684 -0.054395832
000290 05 ed a0 bd 03 20 ba 39 46 52 88 bc ff 4c 0d bd
       -0.07857708 0.00035500535 -0.016640794 -0.034497257
0002a0 dc 73 b3 bd 7c b2 02 bd 91 e8 31 3d cf 16 93 bd
       -0.08762333 -0.031908497 0.043434683 -0.07182085
0002b0 f5 71 5a bd 69 45 78 bd 40 de 64 3a cf d2 88 bc
       -0.053331334 -0.06061307 0.00087306276 -0.016702084
0002c0 13 2c 98 bd 2c 42 ab bc 20 1c 41 bd 4b 31 45 bd
       -0.074302815 -0.020905577 -0.047145963 -0.048142713
0002d0 ea e4 66 be 7c 4c 67 3e 76 4b 4d be b7 3c 5f be
       -0.22548261 0.2258777 -0.20048317 -0.21800505
0002e0 36 e2 a9 3d ac 65 33 bd 10 2d 93 bd 73 fd 8a bd
       0.082950994 -0.043798134 -0.07186329 -0.06786623
0002f0 5c c8 81 bd 72 91 60 bb 32 f6 ae 3d 68 38 ae bd
       -0.06337044 -0.003426638 0.08543052 -0.085068524
000300 78 77 c9 3d 6e d1 83 bd 05 dc 79 be b6 4c 9a 3e
       0.0983724 -0.0643643 -0.24400337 0.3013665
000310 dd e8 2a 3d 81 ad 07 3d 54 21 2a bd d2 fc 25 bd
       0.041725982 0.03312445 -0.04153569 -0.04052431
000320 a4 05 ff bc 5b 86 00 3d 03 e0 17 3d 23 a9 46 3d
       -0.03113062 0.03137813 0.03707887 0.048501145
000330 fb 55 6f bd 95 88 db 3b ac 3e c8 3d 1d 73 95 3d
       -0.058431607 0.0066996315 0.09777579 0.07297347
000340 85 e0 c9 3c 4d 93 a8 bc fd fb 3a bd 47 11 c5 3d
       0.024643192 -0.020578051 -0.04565047 0.09622436
000350 f8 fa c5 3d 19 73 47 3d 6e bd 5c 3e 7f cc 2b 3d
       0.09667009 0.04869375 0.21556637 0.04194307
000360 50 c1 ed bd 81 fd b7 bd ea 37 65 3c e1 a7 bb 3b
       -0.11609137 -0.08983899 0.013990382 0.0057268
000370 2a 52 a5 3d f0 61 e1 bc 51 e7 60 be 62 44 6f bd
       0.08072312 -0.02751252 -0.2196324 -0.058414824
000380 0e ef d2 3c 44 cd 4d 3c 33 7f 06 bd 58 b8 43 bd
       0.025748756 0.012561146 -0.03283615 -0.047783226
000390 8e 1e 6a 3c 6e fb ad 3c e4 71 93 bd f1 4f d5 3d
       0.014289511 0.021238055 -0.07199457 0.10415638
0003a0 f7 e4 79 bc 18 69 35 bc 28 c8 e9 bc a6 d6 8e bd
       -0.015252343 -0.01107242 -0.028537825 -0.06974535
0003b0 c8 44 06 3d c9 7e 13 bd f4 5d 6f bd 85 aa 10 bd
       0.03278044 -0.036009584 -0.05843921 -0.03531887
0003c0 2a 38 a0 bd a3 d8 12 be ba d7 bf 3d e2 ea 96 bb
       -0.078232124 -0.14340453 0.093673185 -0.004605637
0003d0 9d d2 10 3d e4 9b 42 bb 99 a1 b5 3d 1f 6a 4a 3d
       0.035357106 -0.0029694969 0.08868713 0.04941761
0003e0 60 69 e1 3d af de 86 bc a8 71 d5 3c 3a 3f a6 3d
       0.11006427 -0.016463606 0.026055172 0.08117528
0003f0 df f7 8b bd 04 07 07 bd e4 c3 99 3c cb 92 a2 bd
       -0.06834387 -0.032965675 0.018770166 -0.07938155

bias f4 [64]
000000 be 15 8f bb 05 5c c6 bc 7f 6f 3a 3e 37 9c c9 bd
       -0.0043666055 -0.0242138 0.18206595 -0.09844249
000010 ee 2e 5e 3c 37 2d af 3c fc e5 49 bb f7 1c 4e bd
       0.013560994 0.021383865 -0.0030807247 -0.05032059
000020 e4 aa 9c 3d 89 d0 e3 3d 22 15 bf 3d 2b 2b 7e bd
       0.07649782 0.11123759 0.09330203 -0.062052887
000030 9e 43 3e 3a b7 9b f2 3a 56 e2 e3 3a f7 3e 29 bd
       0.00072580006 0.0018509541 0.0017386179 -0.041319814
000040 79 44 51 3a 07 e6 1f bd 6a 25 84 bc 0d ac 14 bd
       0.00079829205 -0.03903773 -0.016131122 -0.036296893
000050 1a 71 ea 37 66 b2 84 3c 6c 8f d5 bb df f2 5e bd
       2.794764e-05 0.016198348 -0.0065173414 -0.05443084
000060 bd 38 e0 3d f7 3e a0 3d f9 27 a5 3d c5 56 26 3d
       0.10948322 0.078245096 0.08064265 0.040610094
000070 c7 3d b7 3d 91 f2 31 bb 5e 55 00 bb 94 94 6a bc
       0.0894733 -0.0027152637 -0.0019582133 -0.01431765
000080 2f 98 21 bd 34 b6 05 3e 2d 93 22 bd 45 fe cf ba
       -0.039451774 0.13057786 -0.03969114 -0.0015868625
000090 d5 fc 99 bb a9 e2 16 3e d7 29 85 bb 0f 24 f0 bb
       -0.0046993294 0.14734901 -0.0040638256 -0.0073285173
0000a0 8a d4 9e 3d 82 55 d7 3c 89 04 aa 3d 7b f7 47 bf
       0.07755382 0.02628589 0.08301646 -0.78112
0000b0 ce 05 50 b9 5f df bd 3d 5f 46 cc 3a ad 2c a0 be
       -0.00019838588 0.0927112 0.0015584937 -0.31284085
0000c0 b2 b8 99 3b 16 4e 90 3a 80 16 24 3b 5d 56 62 3c
       0.004691207 0.00110096 0.0025037825 0.013814536
0000d0 00 53 ae 3d bc 62 15 3d 5a 78 50 bd 37 93 8d 3b
       0.08511925 0.036471114 -0.050896026 0.004320528
0000e0 40 d8 95 3a 08 2d 85 bd 00 3d f6 3c 0b 1d 7e bc
       0.0011432245 -0.0650273 0.030058384 -0.015509854
0000f0 d7 a2 ac b8 25 44 71 bc 75 fa 98 3b 3a fc 84 bd
       -8.2319304e-05 -0.01472572 0.0046685287 -0.06493421

weight f4 [64, 64, 3, 3]
000000 a5 ed c0 3d 0a be 35 3c ed 31 df bd ba 4e 6f bd
       0.09420327 0.011092672 -0.108981945 -0.05842469
000010 46 e2 61 be 43 b3 79 3c a1 bd f6 3c 6a 4d 29 be
       -0.22058973 0.015240493 0.030119719 -0.16533437
000020 fc d6 5a bd 91 e9 0e be 33 32 3b 3d 26 14 9c bd
       -0.05342768 -0.13956286 0.04570217 -0.076210305
000030 e8 ee 04 be 7e 04 4b 3c 78 63 42 be 04 44 b6 bd
       -0.1298176 0.012391208 -0.18983257 -0.08899692
000040 b6 45 d6 3c 15 62 30 bd 62 c2 28 3e 62 cc 44 be
       0.026156288 -0.04306229 0.16480401 -0.19218591
000050 f9 38 06 bc 9b ac 1c 3e 7e f2 52 be 80 c2 7e be
       -0.008192294 0.15300219 -0.20600316 -0.24878883
000060 1e 9e a8 3d 65 fb a0 be 08 10 5b be a0 25 8c 3d
       0.082332835 -0.314418 -0.21392834 0.06843114
000070 69 c1 0e 3e ef da 75 3e 56 e3 81 3c 89 4e 6b 3d
       0.13940968 0.24009298 0.015855473 0.057447944
000080 d4 4a 48 3e 43 0d a5 bd d4 65 83 bd d1 22 b8 bd
       0.19559795 -0.0805917 -0.064159065 -0.08991016
000090 1a 85 c8 bc c1 57 21 be 23 04 93 3d d9 f4 e0 bd
       -0.02447753 -0.15756132 0.071785234 -0.10984201
0000a0 88 dc 80 be 80 fa d2 3c 00 2d d3 bb b2 40 12 be
       -0.25168252 0.025754213 -0.0064445734 -0.14282492
0000b0 35 55 72 3d 4b 8c 00 be 4a ad ff 39 59 23 0a 3c
       0.05916329 -0.12553518 0.000487665 0.008431279
0000c0 ec d4 39 3c 5f 64 34 bd d9 88 0c bd e8 19 28 bd
       0.011342268 -0.044041034 -0.034310196 -0.04104033
0000d0 e6 72 bc bc 63 92 a8 3b 15 04 be bd f5 e9 19 bb
       -0.023004007 0.005144404 -0.09278122 -0.0023485397
0000e0 f0 b8 19 bc 08 1e 43 bb ef 52 1d 3c 10 30 93 bd
       -0.009382471 -0.0029772539 0.009602292 -0.071869016
0000f0 a5 44 1a 3c aa fe 90 bd b7 bf 59 bc c8 66 18 3d
       0.00941578 -0.07079823 -0.013290337 0.037207395
000100 83 f7 1d bc 26 50 2a bc 5c ac 6f bb ee cb dd bc
       -0.009641531 -0.010395085 -0.003657124 -0.02707478
000110 7c 2a 97 3d 54 f6 f8 3c 7d 11 8c bd 03 4d f9 bd
       0.0738115 0.030390896 -0.06839273 -0.12172892
000120 3f ef 28 be 4b 05 af 3c 15 76 35 bd dd 80 43 be
       -0.16497515 0.021364829 -0.044302065 -0.19092126
000130 df 76 54 bc 2f 68 43 3c c2 ad 43 be 8a 3e f1 bc
       -0.012967794 0.011926695 -0.19109252 -0.029448766
000140 87 1f 0f bd 2a be 44 bd 87 0d 86 bd 07 af 3a bd
       -0.034942176 -0.048032917 -0.06545549 -0.045577075
000150 cc ea 4c 3e 6b ac 29 bd 4b e4 3f 3d e5 a0 98 3d
       0.20011443 -0.041424196 0.046848577 0.07452563
000160 16 29 bb 3c a9 0c 9b 3c 86 47 5f bd e9 32 78 bd
       0.02284674 0.018926935 -0.05451157 -0.060595427
000170 c9 f7 9c bd 24 28 1f 3b 2d d5 0a 3e 8c 1c 01 3d
       -0.07664449 0.00242854 0.13557883 0.031521365
000180 5a 21 38 bd 19 3c 19 bd 54 69 d3 3b 5b 4d 07 3d
       -0.04495368 -0.03741083 0.006451765 0.033032756
000190 8e 55 88 bd 87 4d 1f 3d 4f 69 b0 3d b7 18 93 3c
       -0.06656943 0.038892295 0.08613836 0.01795612
0001a0 da 7e f6 3b a0 83 64 bc 70 56 6a 3d fe ac 0e bd
       0.007522446 -0.0139473975 0.05721134 -0.034832947
0001b0 46 cb 56 bd 85 20 7c bd a5 b3 61 bd af c2 ad bd
       -0.05243995 -0.06155445 -0.055102963 -0.084843986
0001c0 cb e5 dd bd 3b 3d 14 3c 23 a3 e5 bb 63 ff 0d be
       -0.10834845 0.009047802 -0.007007973 -0.13866954
0001d0 df 76 8d bc 1c de df bd 67 32 9e 3c e1 ef 08 3c
       -0.017268596 -0.10931036 0.019311143 0.008357973
0001e0 21 d4 20 be f2 07 fc bd 60 71 5e bd 48 aa 99 bd
       -0.15705921 -0.12306203 -0.05430734 -0.07503182
0001f0 4b 0b 9b bc 9f 94 43 bd 5e f7 73 bd d8 ef 14 bc
       -0.018926283 -0.047749158 -0.05956208 -0.009090386
000200 2b e7 a6 bd 6b 8d 4a be c3 c1 75 3d 21 f1 0c bd
       -0.081495605 -0.19780509 0.05999924 -0.034409646
000210 39 b6 14 be d3 a3 42 3d 9a a4 38 3d 78 7b 6b bd
       -0.14522637 0.047519516 0.04507885 -0.057490796
000220 8e 7d b1 bd 02 e1 99 bd b6 01 91 3b cb f5 63 bc
       -0.08666526 -0.0751362 0.004425253 -0.013913582
000230 3b 80 8b bd c3 1b b6 bd 11 be 83 bd c9 fa 93 3d
       -0.068115674 -0.08892014 -0.06432737 0.07225568
000240 70 e8 b5 3b 1c 2e 71 bd 2d 5c 96 bd ba 95 00 bd
       0.0055513903 -0.058881864 -0.073418 -0.03139279
000250 1c 81 41 3d 03 f8 db bd 3a f0 1d 3b 60 24 28 3d
       0.04724227 -0.10740664 0.0024099485 0.041050315
000260 89 d7 fc bc cc c5 86 bd 9f cd 2a bd 0c 0b 23 bd
       -0.030864494 -0.065806955 -0.0417 -0.039805457
000270 5c c2 32 bc a5 54 91 bd 51 96 1c be 3f e1 50 3d
       -0.010910597 -0.07096223 -0.15291716 0.05099606
000280 84 57 96 3b f6 13 08 be 07 86 9a 3c 81 9a e3 bc
       0.0045880694 -0.13288864 0.018862737 -0.027783634
000290 6d df d1 bd 85 99 dd 3c 85 ad b2 bc 3e 85 5d bd
       -0.10247693 0.027050743 -0.021811256 -0.054082148
0002a0 ad 3d c6 3d c7 b9 30 3b 58 07 f3 3c 91 28 b2 3d
       0.096797325 0.00269662 0.029666588 0.08699144
0002b0 ec 90 af bd 4e d3 61 3d 9b 9a 16 3d 5b 72 a8 3c
       -0.085725635 0.055133156 0.036768537 0.020562341
0002c0 9b ae 45 3d 81 10 80 ba 6b 9d 43 be 97 b2 73 bb
       0.04826222 -0.0009770544 -0.19103019 -0.0037185305
0002d0 09 89 00 3d 14 3a 1a bd 82 8f 42 be 05 7b 82 3d
       0.031380687 -0.037653044 -0.19000056 0.0637112
0002e0 aa 4c 65 be c5 3a d7 bd 4d 76 b2 3d c7 e6 b8 bd
       -0.22392526 -0.10509256 0.0871397 -0.09028392
0002f0 b4 49 31 be d5 6c 29 bc ea af 3e bd d1 bf 96 bd
       -0.17313272 -0.010340889 -0.046554483 -0.07360805
000300 0e 04 8f bb a7 58 77 bd 11 1c 6d bd 7f 6b 60 3e
       -0.004364497 -0.06038728 -0.057888094 0.21916007
000310 11 de 82 bd 24 c7 95 bc 68 22 4d 3d 49 39 07 bd
       -0.06390012 -0.018283434 0.05008164 -0.033013616
000320 ba 71 d0 bc ad 58 bc 3c 8c c9 0c bd 47 e9 67 ba
       -0.025444854 0.022991503 -0.034371898 -0.0008846712
000330 f1 3b 46 bd bb 91 87 bd 72 46 4d 3c 11 6f 94 bd
       -0.04839701 -0.06619593 0.0125290025 -0.07247747
000340 be 26 9b 3d 65 70 af 3d 98 d8 3d bd 02 bf e8 bc
       0.07575749 0.085663594 -0.046349138 -0.028411392
000350 b1 97 99 3c a8 54 9a bd 8e e5 97 bd 1b 28 18 bd
       0.01874909 -0.07535678 -0.07416831 -0.037147623
000360 60 14 95 bd ef 3c 02 be 79 d1 6e 3d 3f e7 55 3c
       -0.07279277 -0.12718557 0.058305237 0.013055622
000370 0c e4 c0 bd da ae 76 bd b2 cd 56 bc 72 58 48 bd
       -0.094184965 -0.060225345 -0.013110565 -0.048912473
000380 13 4f 7b bc 87 15 20 be c8 1c d5 3d 4d 28 4d bc
       -0.015338677 -0.15633212 0.1040588 -0.0125218155
000390 41 c4 98 bd c9 23 d6 3d dc 95 6b bd c4 41 c5 bd
       -0.074593075 0.10456044 -0.057515964 -0.096316844
0003a0 07 f2 a2 3c fa 85 2f bd 48 fd c9 3c cc 4d 99 be
       0.019890798 -0.04285238 0.024656907 -0.29942167
0003b0 52 d5 f4 bc d5 37 0b 3d eb ed af be 2e 36 06 bd
       -0.029886875 0.033988792 -0.34361205 -0.032766514
0003c0 2f 76 27 bb 24 d7 9c be 2a 95 f5 3c 3a 70 d9 3d
       -0.002555262 -0.3063289 0.029978354 0.10617109
0003d0 7a e7 35 be 2a 16 d4 bd 35 28 27 bc 63 87 bd be
       -0.17764083 -0.1035579 -0.010202457 -0.37017354
0003e0 27 c6 07 be 96 01 78 3d 0d 07 bf be 76 af 72 be
       -0.13259183 0.060548387 -0.37310067 -0.23699746
0003f0 59 80 3c bd a7 81 45 3d 82 96 6b be 26 ce cc bc
       -0.04602084 0.04821935 -0.23006633 -0.025000643

bias f4 [64]
000000 e7 73 8d 3d 8a 8f 62 3d 3f 73 9a bd a5 00 09 bc
       0.06906872 0.05531267 -0.07541513 -0.00836197
000010 36 a9 f0 bc 86 2f ab 3b e7 4b d6 bb 28 81 07 be
       -0.029377561 0.005224171 -0.00653981 -0.13232863
000020 1f e1 2d 3d 27 a4 d6 3d 4c 80 34 3d a9 56 3b 3c
       0.04245102 0.10480528 0.044067666 0.011434236
000030 9a 9f 0a bc 1b 46 35 bd 4f 02 70 3d b4 00 d1 bd
       -0.008460904 -0.04425631 0.05859595 -0.10205212
000040 02 f6 a0 bc 70 35 93 3d ed 31 64 bd 3c df 93 bd
       -0.019648556 0.07187927 -0.055711675 -0.07220313
000050 02 7f 16 3c 33 a9 88 bd 31 cc 4e 3d f6 9c f5 3c
       0.009185554 -0.06672897 0.0504877 0.029982071
000060 65 da c2 3d 14 a5 c1 3c 58 21 66 3c c2 66 9a 3d
       0.09514312 0.023638286 0.014046036 0.07539131
000070 16 8a 81 bd 1d 21 ff bb 0a 30 52 bd 07 a3 f0 3c
       -0.06325166 -0.00778593 -0.051315345 0.029374612
000080 4b d9 46 bc 29 2a 28 bd 77 b8 bb 3d 0c 75 96 bb
       -0.012136768 -0.041055832 0.09166043 -0.00459159
000090 5f 61 21 bd 3e 9d e7 bb 1f 0d 82 bd 28 2b 74 3b
       -0.0393995 -0.0070683053 -0.06350159 0.0037257168
0000a0 7f bf 6d bd 92 56 94 bc 05 68 24 3d 77 1b 25 3c
       -0.058043953 -0.018107686 0.040138263 0.010077349
0000b0 58 0f af bc 01 20 e1 3d bd fd 6c bd 67 2a 69 3d
       -0.021369621 0.109924324 -0.05785917 0.056925204
0000c0 40 d8 12 3d 93 93 33 3d a5 57 16 3d e4 f3 66 bd
       0.035850763 0.04384191 0.036704678 -0.056384936
0000d0 27 31 3b 3d 4d 4e f1 3d a4 04 95 3e 13 fd 92 3a
       0.045701172 0.11782513 0.29105103 0.0011214338
0000e0 23 43 52 3a e0 f7 68 bd 99 01 b5 bc 68 ec 79 3d
       0.00080208684 -0.056877017 -0.022095488 0.06101647
0000f0 72 41 71 bd b1 8c de bd 62 2d 3a bd 88 c8 9d 3c
       -0.058900304 -0.108666785 -0.045453437 0.01926066

weight f4 [64, 64, 3, 3]
000000 ca fb de bc 54 99 6d 3b bc 05 8c bd b5 79 5b 3d
       -0.027219672 0.003625472 -0.06837031 0.053582866
000010 02 df d6 bd 8f bb 7f bd 71 8f dd bd a2 60 9c 3c
       -0.10491754 -0.06243473 -0.10818375 0.019089047
000020 d4 5f a1 3c 98 92 4b 3d 05 76 45 bd 55 76 36 3d
       0.019699015 0.04970035 -0.048208255 0.044546444
000030 39 d5 d9 bc 2d a1 86 bc 1d b1 c3 bd 2a 9b 3b bb
       -0.02659093 -0.016434276 -0.09555266 -0.002862642
000040 16 e4 5a bc 4e ac e6 bd 09 f3 99 bd fc 7f 1d bd
       -0.013360044 -0.11263333 -0.075170584 -0.038452134
000050 99 85 90 3d 76 0a 5c bd 8c 5b 42 bc 2d 36 39 3d
       0.07056732 -0.053720914 -0.011862647 0.04521768
000060 c1 f6 cf bc 62 5e 3a 3d 92 77 58 bd 41 3d a5 3b
       -0.025386216 0.045500167 -0.052848406 0.0050427024
000070 31 b5 2f bd 95 92 90 3c 72 45 6e bd 0c e7 84 bc
       -0.042897407 0.01764802 -0.058171697 -0.016223453
000080 98 16 64 3d 91 91 75 3d 6d 59 81 bd 75 5f 16 bd
       0.05568561 0.059953276 -0.06315885 -0.03671213
000090 b7 88 d4 3a 2e 1f 0d 3c 05 54 4b bc 1a de e2 bc
       0.0016215061 0.008613391 -0.012410169 -0.027693797
0000a0 77 29 15 bd 24 df 99 bd de bd 29 bd 53 39 7e bc
       -0.036416497 -0.07513264 -0.041440837 -0.015516597
0000b0 e2 fe b0 bc a3 aa da 3c 4f f6 68 3c 63 22 31 bd
       -0.021605913 0.026692694 0.014218881 -0.043245684
0000c0 cf 84 bc 3c b7 eb b9 b7 11 f1 5b 3c fd 24 9c bd
       0.023012547 -2.2163482e-05 0.013424174 -0.076242425
0000d0 14 18 35 bd c7 40 f2 bd 12 d5 b5 bc 89 86 12 3d
       -0.044212416 -0.118287615 -0.022196326 0.035772834
0000e0 a0 a6 fb bc 5d f4 dd bd 3f 52 84 bd f3 c5 c1 3d
       -0.030719101 -0.10837624 -0.06461 0.09461584
0000f0 6c 9b 88 3d e4 3e b1 bb 4a bc 02 bd 46 30 1c bb
       0.06670269 -0.0054091085 -0.031917848 -0.0023832484
000100 70 7f e9 bd 0b ee bd 3c 9d bb 82 3c 5d ad 1d 3c
       -0.1140126 0.023184797 0.015958602 0.009623853
000110 93 8e 91 bb a4 f3 48 bd 30 02 45 3c 1e 5d ac bd
       -0.004442045 -0.04906048 0.012024447 -0.08416198
000120 d1 d0 3f bd 9e 0d 02 be ef b9 10 be 1b 54 1f be
       -0.046830002 -0.12700507 -0.14133428 -0.15559427
000130 ac 38 39 3c 8f eb eb bd 54 0a 12 bd ed 5f c1 bb
       0.0113050155 -0.115195386 -0.03565438 -0.005901328
000140 9d 07 5f bc 0d 69 bd 3d df 4f 21 bb 6d 02 e1 3b
       -0.013612655 0.092485525 -0.0024614257 0.0068667443
000150 4f 12 75 bd f8 94 25 3b 05 37 83 bc a5 e9 39 bd
       -0.059831914 0.0025265794 -0.016017446 -0.045388836
000160 cc 83 8b bc ec 1f af bd ce a0 01 3d 44 7b 99 bc
       -0.01703062 -0.085510105 0.031647496 -0.018735535
000170 f7 e6 0b be 3a af e1 3c 8f fe 62 be e4 f1 a6 bd
       -0.13662325 0.027549375 -0.22167419 -0.08151606
000180 57 13 f7 bd 80 26 11 3d 07 dd 0d bd 6a ca 1b 3d
       -0.12064236 0.035437107 -0.034634616 0.038034834
000190 8d b7 4b bc 49 8a db bd 52 61 80 3c 3f 3c 80 3b
       -0.012433899 -0.10719735 0.015671406 0.003913432
0001a0 5f 92 1d bd c4 7b 99 bb 4f 72 92 bb 12 96 0a bd
       -0.03846967 -0.0046839435 -0.004469193 -0.033834524
0001b0 c9 30 8a bd de 52 c5 bc c3 4a 60 3d 2c ca a0 bd
       -0.06747586 -0.024087366 0.0547588 -0.07851061
0001c0 b4 04 ca bd de 98 98 bd 3c d3 89 bc a6 fb 6a bd
       -0.09864178 -0.07451032 -0.016824357 -0.057368897
0001d0 bd bf 60 bd 70 ef 94 bc e1 09 37 3d e2 80 35 bd
       -0.054870356 -0.018180579 0.044687156 -0.044312365
0001e0 7f 54 96 bd 23 ed b5 3c 68 80 8e bd a6 a5 57 bc
       -0.07340335 0.022207802 -0.06958085 -0.013162052
0001f0 ef c3 61 bd 84 02 bb bd ab d6 1d be dd c3 8e bb
       -0.055118497 -0.09131339 -0.1541392 -0.004356845
000200 2b 01 10 3d 8a da a1 3d 4f 26 06 be a6 52 0c 3d
       0.035157364 0.07903011 -0.13100551 0.034258507
000210 5d 48 e7 bd e7 9d 8a bd 50 69 ae bd f8 fa 58 bd
       -0.11293099 -0.06768399 -0.085161805 -0.052973717
000220 ce 02 99 3d d2 35 45 3d b9 c7 e6 ba 5b 91 c5 bc
       0.07471238 0.04814703 -0.0017607129 -0.024117162
000230 38 49 a6 bd ec 13 ca bd 91 58 55 3d 38 bd 3a be
       -0.08119434 -0.09867081 0.052086417 -0.18236244
000240 6d 07 97 3d 72 54 a0 bd 0a e8 85 3d e5 f4 fb 3c
       0.07374463 -0.07828607 0.065383986 0.030756423
000250 a0 c4 54 bd 7a 03 80 bc 94 02 0d bd 43 cf 9d bc
       -0.05194533 -0.015626658 -0.034426287 -0.01926387
000260 87 1c c7 bc 3c 8f 85 bd b9 c8 da bd 43 55 03 be
       -0.024305595 -0.065214604 -0.10682816 -0.12825494
000270 b7 5b e3 bd 26 27 ca bd c3 a3 13 3b ea 8d 29 3d
       -0.111014776 -0.09870748 0.002252803 0.041395105
000280 22 69 b8 3d fe 38 6e 3c b6 d7 9d bd 0e 3b 32 3d
       0.090044275 0.014539955 -0.07707159 0.04351335
000290 02 5e 85 bd 4b 00 bc 3d 74 59 ab bb 97 95 ac 3b
       -0.06512071 0.091797434 -0.0052291695 0.005266856
0002a0 ee 24 b8 3d f1 9d 41 3d 7e 94 a6 3d 99 92 cc bc
       0.08991419 0.047269765 0.081337914 -0.024972247
0002b0 b1 13 6b 3d 71 d4 2e be d3 ff 22 bd 51 98 d2 bd
       0.057391826 -0.17073227 -0.039794754 -0.10282958
0002c0 ed b6 18 3c 7a 5d 81 3d 43 cf 9f bc d5 f7 21 3d
       0.009320957 0.06316657 -0.01950801 0.03954299
0002d0 41 86 a0 bd ce eb b7 bc 1a 09 33 bd 84 a8 2e bd
       -0.07838107 -0.022451308 -0.04370985 -0.042641178
0002e0 9a b8 54 bc ae c8 8e bd 09 41 6b 3d 30 9c 8c bd
       -0.012983466 -0.0697187 0.05743507 -0.06865728
0002f0 2f b2 7b bb b4 5b c3 3c a5 e5 d4 bb d0 cb 41 bd
       -0.0038405766 0.023847438 -0.0064971023 -0.04731351
000300 4c 15 5d bc e6 54 13 3d 2e 5e 06 3e e4 c3 b0 bd
       -0.013493847 0.035969637 0.13121864 -0.08631113
000310 a8 a3 38 3d b2 ae b5 3d 8d b1 3b 3d 57 6e 9c 3b
       0.04507795 0.08871211 0.045823622 0.0047738957
000320 f0 4e 0a 3d 0d 3e 95 bc 71 f3 2b bd f2 6e 75 bd
       0.033766687 -0.018218065 -0.04198021 -0.05992026
000330 ee 86 c0 3d db cd 02 3d b6 db cc 3c 79 99 f9 bd
       0.09400736 0.0319346 0.02500711 -0.12187476
000340 f6 81 06 3d c0 91 0c be 93 3d 11 3e d3 73 26 bc
       0.032838784 -0.13727474 0.14183645 -0.010159451
000350 30 0d ed bb 3b b5 b9 3d 32 22 0e 3e 62 fd 30 3d
       -0.007234238 0.0906777 0.13880232 0.043210395
000360 b0 63 b9 bc 40 69 84 3b 34 d7 21 bd e8 a7 16 3d
       -0.022630543 0.004040867 -0.039511874 0.03678122
000370 1a 2d a9 bd c6 4d f8 bd 6a 8b 8c bc 64 59 f6 bc
       -0.082605556 -0.12124209 -0.017156322 -0.030071922
000380 30 a2 83 bd 99 41 a9 bc 5e 2e 01 be 38 93 8d 3d
       -0.06427419 -0.020661162 -0.12615344 0.069128454
000390 35 c6 61 bd 99 61 c6 3b 1f 63 87 bc c7 57 e5 3d
       -0.055120666 0.006054115 -0.016526757 0.11198383
0003a0 a9 ef 1c 3d 83 68 b1 bd a1 ad 37 bd 8d 56 3d bd
       0.038314495 -0.08662512 -0.04484332 -0.04622512
0003b0 0c 23 f9 bc f3 26 a7 bd 5d 35 8a bc 4a de 18 bd
       -0.03041222 -0.08161726 -0.016871149 -0.037321366
0003c0 f9 b2 5e 3c 0b 01 cc bd 1e 36 57 3d 68 44 89 bc
       0.013592475 -0.099611364 0.052541845 -0.016756251
0003d0 45 57 20 bc 90 84 41 bc 53 3e 56 bd e9 8b d6 bc
       -0.009786432 -0.0118113905 -0.05230553 -0.026189761
0003e0 46 67 72 bd f2 f1 7b 3a 66 8a 60 be 2f 3e f7 bd
       -0.05918052 0.0009610943 -0.21927795 -0.120724075
0003f0 c7 8e 88 b9 36 0e 88 bd 58 5b b5 bd f7 cd c3 bd
       -0.0002604632 -0.066433355 -0.08855313 -0.09560769

bias f4 [64]
000000 23 9b 00 bd fc 8c 02 3a ae 2e 63 bd fe 2d 7e bd
       -0.03139795 0.0004980115 -0.05546444 -0.06205558
000010 45 74 70 bd 9a 65 17 be 3a 64 5d 3c 8b 0f 5d 3b
       -0.058704633 -0.14784852 0.013512665 0.0033731188
000020 56 31 21 bc 28 57 d5 bc 7e 38 6a bc 7b dd 24 bd
       -0.009838423 -0.026042536 -0.014295695 -0.040250283
000030 04 fc e0 bc 4b bb af bc e1 91 8e bc 5c b0 8c 3b
       -0.02746392 -0.021451613 -0.017403545 0.0042934846
000040 19 50 8c bd 3b d8 f1 3c eb 3a 3e ba 17 36 1d bd
       -0.06851215 0.029522052 -0.0007256704 -0.038381662
000050 3f 5a 72 bc 84 0d 7b bd 64 06 0e bd d5 eb 4d 3c
       -0.014792024 -0.061292186 -0.034674063 0.012568434
000060 16 0e 9a 3b 57 5d 3d bc 75 6f a5 bd 60 fb 77 bc
       0.004701386 -0.0115578985 -0.08077899 -0.015135616
000070 f3 c3 16 bd 8b dc 0e bd d6 be d2 3c c6 85 1c 3d
       -0.036807965 -0.034878295 0.025725763 0.038213514
000080 08 ab 2a bd bc d3 95 bc 8c a4 84 bd 6e e2 99 bd
       -0.041667014 -0.01828944 -0.06476697 -0.07513891
000090 3b 74 54 bd 5d 16 a0 3c e9 6d 93 bb 8e f3 7c bc
       -0.05186866 0.019541914 -0.0044991863 -0.015438927
0000a0 a7 75 f1 bc 9c c1 f9 3b 6b 9f dd bc 54 22 9b 3d
       -0.029475046 0.007621957 -0.027053555 0.07574907
0000b0 05 22 e8 3c b5 36 7d 3d ae 26 7e bd 13 19 8e 3c
       0.028336534 0.06181975 -0.062048607 0.01734594
0000c0 98 78 38 bd ce 89 d5 bc 2e 61 5d bd f5 68 39 3e
       -0.045036882 -0.026066687 -0.054047756 0.18106444
0000d0 13 b6 8d bd 5d 72 18 bd 4a eb 55 bd 17 ea 28 bc
       -0.069194935 -0.03721844 -0.052226342 -0.010309718
0000e0 c7 0a 3f 3d c6 25 b4 3c f3 d3 85 bd 58 28 83 bd
       0.046641137 0.021990668 -0.06534567 -0.06404179
0000f0 2a 1b 3c bd 5a 68 14 bd 38 ad 57 bd 6a f8 b0 3b
       -0.045924343 -0.03623233 -0.05265543 0.005400707

weight f4 [12, 64, 3, 3]
000000 f6 c3 64 3e 66 78 b0 bb 2e 2b 55 3c d6 4f 3d 3e
       0.22340378 -0.0053854464 0.013010783 0.18487486
000010 e6 fa 02 3e 7a e6 91 3d dd 43 2b 3e 56 2f 0e 3d
       0.12791023 0.07124038 0.16725107 0.03471311
000020 08 26 45 bc 53 5f 90 bd 62 9c 5d 3b e8 21 32 3c
       -0.012032993 -0.07049432 0.0033815135 0.010872342
000030 0c 5a 1e bd 62 39 2f 3d 86 7e 97 ba 1b 1f 8b 3c
       -0.038660094 0.042779334 -0.0011558093 0.016982606
000040 77 e3 b5 3c 79 13 ae 3a 01 d0 9f bc 21 8e 89 bb
       0.02220319 0.001328095 -0.019508364 -0.0041978513
000050 63 23 9b bc 19 68 31 3c 25 c6 e3 3c 17 ac 9f 3c
       -0.018937772 0.0108280415 0.027804444 0.019491239
000060 3a f0 0e bd c0 3f f9 bb f5 6a 00 3b 41 94 a2 3c
       -0.034897067 -0.0076064765 0.0019595001 0.019846084
000070 ad eb 01 bd f4 cc 40 bd a2 16 73 3e 8f e3 1f 3e
       -0.0317189 -0.04707046 0.23739102 0.1561415
000080 ff 6c 12 3e 91 fe a1 bd 94 26 81 be 65 e5 32 3f
       0.14299391 -0.07909883 -0.25224745 0.6988128
000090 cc 07 9e 3d 75 37 ef ba cd 6f 9b bc 35 d6 22 3d
       0.07716331 -0.001825078 -0.01897421 0.039755065
0000a0 f3 0b f9 3c 4d f9 71 bd 32 5c 44 3c 56 67 27 bd
       0.030401206 -0.059075642 0.011984872 -0.040870033
0000b0 cd 98 fe bc 5f fd c3 bb 9e 51 fc 3b bb 12 60 bb
       -0.03107872 -0.005981132 0.007700159 -0.0034190852
0000c0 6a f5 e0 bb c9 35 57 3d 80 91 ed bb 90 02 d8 3a
       -0.006865193 0.052541528 -0.007250011 0.0016480256
0000d0 f6 93 a8 bd c1 0f 11 bb 85 cf b7 bc 90 bf e3 bd
       -0.08231346 -0.0022134634 -0.02243782 -0.11120522
0000e0 7e dd 92 3b 50 b7 e4 bd 78 cb b7 bd b2 bc 4b be
       0.0044819703 -0.111677766 -0.089743555 -0.198962
0000f0 a9 d1 9b 3d 28 6d 61 bd da 1c b0 bd 00 6a c5 bb
       0.07608349 -0.05503574 -0.08599253 -0.006024599
000100 cd 4a d7 3b 85 9b 49 bc 87 fa de 3c ad 20 83 3b
       0.0065701962 -0.012305145 0.02721907 0.004001698
000110 3a 96 83 bd ed af ae 3b 32 fa c6 bb a4 ee 34 3c
       -0.06425138 0.0053310306 -0.006072306 0.0110432245
000120 13 9a 5d bd fe bf 0f bd 8e e4 d0 bc 65 0d c2 3d
       -0.054102015 -0.035095207 -0.025499608 0.09475211
000130 d7 ea 04 3c a0 d9 b9 bc ff 39 c2 3d 59 8a 03 bd
       0.008112631 -0.02268678 0.09483718 -0.03211436
000140 10 ec 94 bb b0 c5 4b 3d 08 39 88 bd 6c c3 89 bc
       -0.0045447424 0.049749076 -0.06651503 -0.016816817
000150 2c 8f 59 bd b8 8c 9c 3d 4d f1 49 bd 1c 72 20 3d
       -0.053115055 0.076440275 -0.049302388 0.039171323
000160 0a be f6 3b 89 35 0a 3d 74 aa ba 3d a4 ca 13 3c
       0.0075299786 0.03374246 0.091145426 0.009020481
000170 f4 fc 8b bd 29 a2 eb bc 81 06 b9 bc 8d d3 36 3c
       -0.06835356 -0.028763847 -0.02258611 0.011158836
000180 67 24 15 bc cd da 6f 3c 26 2a 78 bc 06 e7 bc 3c
       -0.009102917 0.0146395685 -0.015146768 0.02305938
000190 08 00 8e 3e 0f 34 aa bd 29 32 6e bd 46 f8 bb bc
       0.277344 -0.08310711 -0.058153305 -0.022945534
0001a0 b5 07 2a 3d c9 97 39 3d d4 f1 e0 bc 1e dc ff 3c
       0.041511256 0.04531077 -0.027459063 0.03123289
0001b0 17 e6 ba bb a4 0a 67 bd 15 30 50 bd d0 eb d5 3c
       -0.0057036984 -0.056406632 -0.050827105 0.02611342
0001c0 f9 63 db 3b 03 10 df 3c a6 77 a1 3c 03 ee 53 3d
       0.0066952673 0.027229315 0.019710373 0.051740658
0001d0 05 48 f8 bc d7 fb 55 3d 73 9d 13 3c 89 b6 99 ba
       -0.03030778 0.052242126 0.009009707 -0.0011727373
0001e0 e1 2f 40 3d c5 47 5b 3d 07 7e 17 bd 95 78 e0 bb
       0.04692066 0.05353524 -0.036985423 -0.006850312
0001f0 70 89 d6 bc a6 b6 96 bd 76 33 38 bd 63 bc 55 3d
       -0.026188582 -0.07359056 -0.044970952 0.052181613
000200 e6 be 43 3d cd 55 b2 bd c7 4f 25 bd 5f 9e 89 3d
       0.047789477 -0.087077715 -0.040359285 0.0671966
000210 cc fa f7 bb a7 5a c1 3c 33 27 fb 3c 0d ec c1 bb
       -0.007567739 0.023602797 0.03065834 -0.005918032
000220 10 1c a4 ba 1c 2e 72 bb 0d 8a 8d 3d 93 a8 d3 3c
       -0.001252057 -0.0036953753 0.06911097 0.025837218
000230 6a 90 db bc dc 20 68 ba fb 8f 17 3c cf 24 04 bb
       -0.02680226 -0.0008854994 0.009250636 -0.0020163541
000240 b6 8e 2f bc 25 0f 9b 3d e2 8f 77 bd 54 de 6b 3d
       -0.010715177 0.07571248 -0.06043995 0.057585075
000250 68 f9 61 3d 74 38 13 bd c7 c8 d7 3c 93 82 f0 bc
       0.055169493 -0.03594251 0.026340855 -0.029359138
000260 a9 ef df bc cf d4 a9 3c ff bc ec bc 9d 5e a5 3c
       -0.027335959 0.020731358 -0.028898714 0.020186717
000270 e2 ac 7d 3a 39 f3 87 3b 1a 3a c2 bc 12 8a e8 3b
       0.00096769456 0.0041488674 -0.023709346 0.0070965374
000280 bd 4c 43 bc d9 11 7d 3c b6 3b 4b bb 0f 43 c7 bb
       -0.011920151 0.01544615 -0.0031010932 -0.006080992
000290 13 3f 32 bb 98 84 64 3c c0 92 cb 3c 0d 41 42 bc
       -0.002719824 0.013947628 0.02485025 -0.01185633
0002a0 ab 56 2f 3b ca b9 3b bc 37 b5 a7 bb d3 c7 18 bc
       0.002675454 -0.01145787 -0.005118038 -0.009324986
0002b0 d5 3e 7d 3d d0 b4 03 bc ec 12 71 3c 6f 5d bb bd
       0.0618275 -0.0080387145 0.014713984 -0.091486804
0002c0 f5 13 ba bc 42 89 18 bc 15 2f b7 3d 72 b2 a9 bc
       -0.022714594 -0.009310069 0.08944527 -0.020714972
0002d0 1c 57 d9 3b 17 e0 2d 3d 1d e5 ee bb a8 fa 4b bc
       0.0066326987 0.042450037 -0.007290496 -0.012449898
0002e0 3f 44 6b bd f3 4c ce 3b 79 7a a0 bc 84 57 c1 3c
       -0.05743813 0.006295794 -0.01958965 0.023601301
0002f0 d0 a3 ed bb 38 48 bc 3c e4 60 94 3c 72 dc e5 ba
       -0.007252194 0.022983655 0.018112607 -0.0017537011
000300 52 11 e4 3c 5c f1 47 bd f7 25 4e 3c 60 a1 4a 3b
       0.02784029 -0.048814163 0.012582294 0.003091894
000310 6a 6f 1c 3c 96 0f 17 3b 4f f2 5e 3d 35 ed 19 3e
       0.009548048 0.0023050061 0.054430302 0.15031894
000320 91 33 6e be c6 9c 14 3d ec 7c a7 3d 50 42 35 3d
       -0.23261859 0.036282323 0.08178124 0.044252694
000330 1e 06 4a bd d1 5b 1e 3e ec ab ea bd d8 45 f2 bc
       -0.04932224 0.15464713 -0.11458573 -0.02957432
000340 34 d3 f2 3c 38 f5 4f bc 97 cc 23 bd a9 16 94 bc
       0.029641725 -0.012692742 -0.039990034 -0.018077211
000350 e2 07 42 3b 97 eb 9e 3c b3 11 c1 bd db 45 6c 3d
       0.002960675 0.019399447 -0.09427204 0.057683807
000360 77 c9 81 bb b6 5b 58 bb 5b 24 60 bc 02 af b6 3c
       -0.003960784 -0.0033013648 -0.013680543 0.022300247
000370 75 07 a5 bc 85 25 bf bc 9d d9 72 bc 0b 67 64 3d
       -0.020145157 -0.02333332 -0.014822391 0.055762332
000380 b3 00 63 bc a7 27 de 3b 52 eb 25 bd 10 3e 9a bc
       -0.013855147 0.0067796293 -0.040507622 -0.018828422
000390 a4 99 89 3b 1e 8c 08 3d a0 63 bf 3d 72 4f ba bc
       0.0041992236 0.03333675 0.09345174 -0.02274296
0003a0 0e 33 66 bd 99 01 04 bd 08 bb 91 bd 8e 07 34 bd
       -0.056201033 -0.032228086 -0.071157515 -0.043952517
0003b0 cd 23 0b bd 39 71 a2 3c 38 c7 43 3d 3a 30 36 3c
       -0.03396969 0.01982938 0.04779741 0.011119897
0003c0 b9 5f 45 ba 77 1d 50 3d fe b2 26 3c 52 d7 21 bd
       -0.00075292174 0.05080935 0.010174511 -0.039511986
0003d0 ec 29 8f 3d 0c 40 08 bd 1c 49 df 3c 92 0f fa 3c
       0.06990418 -0.033264205 0.027256541 0.030525003
0003e0 4a 5b 8f 3c 8a fe 2c bd a2 c3 64 3a 10 3d 92 bc
       0.017499585 -0.042234935 0.00087266613 -0.017851382
0003f0 c3 1f 2a bb 87 3d 68 3b 3b fc 69 3d de f3 d2 bc
       -0.0025958873 0.0035437064 0.05712531 -0.02575105

bias f4 [12]
000000 9c 92 d3 ba a1 e6 9b bb be 4b 8f 3b 9f bf 0c bc
       -0.0016141715 -0.0047577177 0.004373043 -0.008590608
000010 2b f2 37 3b 36 e4 b0 3b 66 c4 18 3c 82 bb a5 ba
       0.0028067927 0.0053982986 0.009324169 -0.0012644383
000020 26 2f eb 3b f9 74 8d 3b fe e3 50 3c ce db 99 3b
       0.0071772514 0.0043169227 0.01274967 0.004695392
