train_weight_sr5/model_epoch_2.pth (torch_old, 667646 bytes, 10 tensors)

weight f4 [12, 3, 13, 13]
0	0x3d03d7ab	0.0321881
1	0xbdc49154	-0.09598032
2	0x3cdaef9b	0.02672558
3	0xbc0bf14d	-0.008541417
4	0xbd642b00	-0.05570507
5	0xbd8904e4	-0.06690386
6	0x3ce622e8	0.028092816
7	0x3c9abd13	0.018888986
8	0xbe26644c	-0.16249198
9	0x3d8b01dc	0.06787464
10	0xbd9274ea	-0.07151206
11	0xbd59de44	-0.053190485
12	0xbdfcf615	-0.12351624
13	0x3c6b81cc	0.014374208
14	0xbe0dfe80	-0.13866615
15	0xbde2a84a	-0.11067255
16	0xbda39424	-0.0798724
17	0x3d9be5fb	0.07612225
18	0x3ce1cf89	0.02756478
19	0x3cd502cb	0.026002308
20	0xbe05e3ae	-0.13075134
21	0xbdc8d581	-0.09806348
22	0xbdc39da7	-0.09551554
23	0xbd9696d9	-0.07352991
24	0xbd81c7da	-0.06336947
25	0xbd99f416	-0.07517259
26	0xbd9067d3	-0.07051053
27	0xbdeaaddf	-0.114589445
28	0x39d692a0	0.00040926505
29	0x3b134c90	0.0022476055
30	0xbd6561e6	-0.056001566
31	0xbd92733d	-0.07150886
32	0x3d228ea4	0.039686814
33	0xbd4bbbdf	-0.049739715
34	0xbd9b949f	-0.075967066
35	0x3d25b1c5	0.040452737
36	0x3aa1c293	0.0012341313
37	0xbd9051e5	-0.0704687
38	0xbce5202c	-0.027969442
39	0x3c19d8ab	0.009390037
40	0xbe05ce83	-0.13067059
41	0xbe00ceb5	-0.12578852
42	0xbda42c67	-0.080162816
43	0xbd261f29	-0.04055706
44	0x3d1a2dd3	0.037641358
45	0xbd7b6a1f	-0.0613805
46	0xbe3cec61	-0.18449546
47	0xbdd86ecb	-0.10568007
48	0xbe13db6b	-0.1443917
49	0xbbf6cbdd	-0.0075316266
50	0xbc9e6da6	-0.019339394
51	0xbe1a4cfb	-0.15068428
52	0xbd89fcb7	-0.06737655
53	0x3d7cb478	0.061695546
54	0xbdfe19ac	-0.1240724
55	0xbe292dd7	-0.16521393
56	0xbe3917c2	-0.18075469
57	0x3d3148fd	0.043282498
58	0xbdaa09fa	-0.08302684
59	0xbd3a6bc7	-0.04551294
60	0xbd4f5c4f	-0.05062514
61	0xbd5568b4	-0.052101806
62	0xbda76acd	-0.081746675
63	0xbda49bcc	-0.080375284
64	0xbae3ea13	-0.0017388485
65	0xbd0c504a	-0.034256257
66	0xbcbc5943	-0.022991782
67	0xbc9a014e	-0.01879945
68	0xbddbec65	-0.10738448
69	0xbde5dbb1	-0.112235434
70	0x3c0c99f4	0.008581627
71	0xbe0435ca	-0.12911144
72	0x3cf33e1b	0.0296927
73	0xbe123b3c	-0.14280409
74	0xbdd85610	-0.1056329
75	0xbc21a55b	-0.009866084
76	0xbd665f5d	-0.05624329
77	0xbdacdf6f	-0.08441054
78	0xbcc547f7	-0.024082167
79	0x3d9effe9	0.07763655
80	0xbe2bd6f6	-0.1678122
81	0xbdc4d057	-0.0961005
82	0xbde36fb9	-0.11105294
83	0xbcb32571	-0.02186844
84	0xbd63ae49	-0.055586133
85	0xbd90c3c8	-0.07068592
86	0xbd2c9736	-0.042136393
87	0xbd0e12f6	-0.03468605
88	0x3ddd1ba2	0.10796286
89	0x3d4c4672	0.04987187
90	0x3c7a676f	0.01528345
91	0xb9488761	-0.00019123919
92	0x3cbe4b8e	0.023229387
93	0x3d60fd08	0.05492881
94	0x3da438fe	0.08018683
95	0xbdf522a5	-0.119694985
96	0xbd73fbb7	-0.059566226
97	0xbcaf0599	-0.021364974
98	0xbd81a101	-0.06329537
99	0xbd404d23	-0.046948563
100	0xbdd6cced	-0.10488305
101	0xbad89edf	-0.001652684
102	0xbd9920c2	-0.07476951
103	0xbca9998d	-0.020703102
104	0xbdc458c6	-0.09587245
105	0x3cd4fd30	0.025999635
106	0x3d5fba08	0.054620773
107	0xbc496086	-0.012291079
108	0x3d868b55	0.06569544
109	0xbad298dc	-0.0016067284
110	0x3d3dbf42	0.046324976
111	0x3e186275	0.14881308
112	0xbc2aa554	-0.010415394
113	0x3ddaab11	0.106771596
114	0xbdc6257b	-0.096751176
115	0x3d302265	0.04300155
116	0x3c9480b5	0.018127779
117	0x3da8a191	0.08233941
118	0xbd9747df	-0.07386755
119	0x3d88e1d8	0.06683701
120	0xbcaced59	-0.02110927
121	0xbe333ada	-0.17502919
122	0x3c93d1c6	0.018044364
123	0xbcd0f4a2	-0.025507275
124	0xbda38cb7	-0.079858236
125	0x3d121e22	0.03567327
126	0x3cb2eda0	0.021841824
127	0x3d8b86cc	0.0681282
128	0x39402744	0.00018325174
129	0x3dbb7db2	0.09154834
130	0xbdde1eb5	-0.10845701
131	0xbd826316	-0.063665554
132	0xbd1ac91c	-0.03778945
133	0x3dbdd289	0.09268672
134	0xbd929756	-0.07157771
135	0x39d32cdf	0.00040278488
136	0xbded1986	-0.11577134
137	0x3c4b0b09	0.012392768
138	0xbe00b487	-0.12568866
139	0xbcceb7e8	-0.025234178
140	0xbc759170	-0.014988288
141	0x3cc3c078	0.023895487
142	0x3a0d3d9c	0.00053879037
143	0xbd3e99b5	-0.046533305
144	0xbc973e46	-0.018462311
145	0xbcc5da6e	-0.024152007
146	0xbde92950	-0.11384833
147	0xbd7243fe	-0.059146874
148	0x3d5dca10	0.05414778
149	0x3d32585b	0.043541294
150	0x3d24678e	0.04013782
151	0xbdd0430d	-0.10169039
152	0xbc4e75ab	-0.012601296
153	0xbc89723f	-0.01677811
154	0x3cab154f	0.020884184
155	0xbd6414d2	-0.05568392
156	0xbde17d6e	-0.11010252
157	0xbd224cb0	-0.039623916
158	0xbdeed398	-0.11661452
159	0xbd8c78ab	-0.06858953
160	0x3d54fa66	0.05199661
161	0xbdab8232	-0.08374442
162	0xbe027222	-0.1273885
163	0x3b940933	0.004517698
164	0xbd87fd65	-0.06640128
165	0xbb39102b	-0.0028238397
166	0x3c2bc550	0.010484055
167	0xbd8ad7c4	-0.06779435
168	0x3c84f5fe	0.01623058
169	0xbc5dca9e	-0.013537077
170	0xbd3bad69	-0.045819674
171	0xbd60255d	-0.054723132
172	0x3a23d21c	0.0006249265
173	0xbd50d018	-0.050979704
174	0x3cfe8fba	0.031074394
175	0xbdc8e2fd	-0.098089196
176	0x3cc7d763	0.024394697
177	0xbcd2f1d3	-0.025750076
178	0xbcfedd6e	-0.031111445
179	0xbd5b70b7	-0.05357429
180	0x3cca7e0b	0.024718305
181	0xbd570236	-0.052492343
182	0x3d2e7459	0.042591427
183	0xbdfd0c27	-0.123558335
184	0x3d753938	0.05986902
185	0xbdbf698f	-0.093463056
186	0xbd2fc974	-0.04291673
187	0xbe059b1e	-0.13047454
188	0xbdc34390	-0.09534371
189	0xbde6a019	-0.11261005
190	0xbb8d8feb	-0.004320135
191	0x3c2c05d7	0.010499439
192	0x3d2f208c	0.04275565
193	0xbdc3418f	-0.09533989
194	0xbd2e0c36	-0.042492114
195	0xbd86e510	-0.06586659
196	0x3dcb2864	0.09919813
197	0xbe0e5d44	-0.13902766
198	0xbe4c03da	-0.19923344
199	0xbe124ddc	-0.14287513
200	0x3caf8b4d	0.021428728
201	0xbd498007	-0.049194362
202	0x3ca4cba6	0.020116638
203	0xbbcbb904	-0.006217124
204	0xbd20cfd7	-0.03926071
205	0xbd25d875	-0.040489633
206	0x3c66bee2	0.014083596
207	0xbd08fc61	-0.033443812
208	0x3d13d8d1	0.036095444
209	0x3c8b5015	0.01700596
210	0x3c8d36e3	0.017238086
211	0x3d0089c5	0.031381387
212	0xbd85c36e	-0.06531416
213	0xbdb65f2e	-0.08904873
214	0xbd3659ab	-0.044519108
215	0xbc35e99e	-0.011103062
216	0xbcfbe19f	-0.030747233
217	0x3d3b7a55	0.04577096
218	0xbde25da8	-0.1105302
219	0xbe323c40	-0.17405796
220	0x3c847e6e	0.016173568
221	0x3deba6c0	0.115064144
222	0xbd74515a	-0.059647895
223	0xbe22eda5	-0.15910967
224	0xbdebef49	-0.115202494
225	0xbdc44506	-0.09583478
226	0xbd27d702	-0.04097653
227	0xbe2897ab	-0.16464107
228	0x3c0a8a47	0.008455819
229	0xbd2924d4	-0.041294888
230	0x3cb474de	0.022028383
231	0xbdf4dbd6	-0.11955993
232	0x3c95c325	0.018281529
233	0x3c77237d	0.015084145
234	0xbdcbad7e	-0.099452004
235	0x3d26c7fd	0.040718067
236	0xbe0d3b72	-0.13792208
237	0xbc9e954c	-0.0193583
238	0xbe02c0a7	-0.12768804
239	0xbd562913	-0.052285265
240	0xbd7389cc	-0.059457585
241	0xbd24ff74	-0.04028268
242	0xbda927f8	-0.082595766
243	0x3cd0204d	0.025406027
244	0xbcf17416	-0.0294743
245	0xbdab17ca	-0.08354147
246	0xbd6f7bd3	-0.058467697
247	0xbdc8b8e2	-0.098008886
248	0xbe07f12a	-0.1327559
249	0xbe1ce6bb	-0.15322392
250	0xbc0010df	-0.007816522
251	0xbcd9a5b9	-0.02656828
252	0xbcec25f4	-0.028826691
253	0xbe139bfb	-0.1441497
254	0xbda0f695	-0.07859532
255	0x3d12690f	0.035744723

weight f4 [64, 12, 7, 7]
0	0x3dddcd81	0.108302124
1	0xbd3bca87	-0.045847442
2	0x3bad026c	0.0052798297
3	0x3b10c8e3	0.0022092394
4	0xbd9d1ae7	-0.07671147
5	0xbd095e36	-0.033537112
6	0xbd6e1471	-0.058124963
7	0x3d83aa0a	0.06428917
8	0xbcfb82e4	-0.030702062
9	0x3c62ae09	0.0138354385
10	0xbba82150	-0.0051309243
11	0x3d1dfa8b	0.038569015
12	0xbd09720e	-0.033556037
13	0x3cf1872a	0.029483397
14	0x3d629413	0.055316996
15	0x3c8efef6	0.01745556
16	0x3cffa4f4	0.031206585
17	0xbda9aca9	-0.082848854
18	0xbe09f2ba	-0.13471499
19	0x3ce45925	0.027874539
20	0xbc951a96	-0.018201154
21	0xbdd56eb2	-0.10421504
22	0xbc98093b	-0.018559089
23	0xbcc7bbac	-0.024381481
24	0x3d08319a	0.03325043
25	0xbd5c9e55	-0.053861935
26	0x3cd42984	0.025898702
27	0xbe2a632f	-0.16639398
28	0xbd23b62f	-0.039968666
29	0xbc970c22	-0.018438403
30	0x3cc8c870	0.024509639
31	0xbd369442	-0.044574983
32	0xbd321c47	-0.043484
33	0x3d2b46cc	0.041815564
34	0xbcf0755b	-0.029352834
35	0x3d718324	0.058962956
36	0xbdcb4c2f	-0.0992664
37	0x3c5314a5	0.01288334
38	0xbd1063d1	-0.035251442
39	0xbdbb9253	-0.091587685
40	0xbe33ceff	-0.17559431
41	0xbd509bad	-0.050929714
42	0xbd56d5d5	-0.05245002
43	0xbe087ada	-0.13328114
44	0xbbaa9453	-0.00520567
45	0xbd563444	-0.052295938
46	0x3d6c210f	0.057648715
47	0xbdfcbf53	-0.1234118
48	0xbdbfbc90	-0.09362137
49	0x3bb58ebc	0.005540697
50	0x3c94ed6f	0.018179623
51	0xbdcb7b3b	-0.09935614
52	0x3dccb703	0.09995844
53	0xbd829ce7	-0.06377583
54	0xbc031713	-0.008001107
55	0x3cc6a36f	0.024247853
56	0xbcbc855d	-0.023012811
57	0xbb85b46b	-0.0040803454
58	0x3d95fc8a	0.07323559
59	0xbd1ce990	-0.03830868
60	0x3c956314	0.01823572
61	0xbddca250	-0.10773146
62	0x3c2eaa07	0.010660655
63	0xbd120939	-0.035653327
64	0xbc56b709	-0.013105162
65	0x3cc4b622	0.024012629
66	0x3d04e38d	0.03244357
67	0x3d3c64df	0.045994636
68	0x3cac41f1	0.021027537
69	0x3ddc261a	0.10749455
70	0x3d21958c	0.03944926
71	0x3d4df374	0.050281003
72	0xbcb464ec	-0.02202078
73	0xbd6e9219	-0.0582448
74	0x3dd2732d	0.10275874
75	0xbd53f5fe	-0.05174827
76	0xbd368a25	-0.04456534
77	0x3ce6e5ef	0.028185813
78	0xbbab5334	-0.0052284244
79	0x3cdcd6a6	0.026957821
80	0xbd748073	-0.05969281
81	0xbd0e8d56	-0.034802757
82	0xbe495032	-0.19659498
83	0xbd3ea737	-0.046546187
84	0xbd3e603b	-0.04647849
85	0x3c754ab5	0.014971425
86	0x3c4ba5f6	0.012429705
87	0x3d66dfa6	0.05636563
88	0x3d78f205	0.060777683
89	0xbe6af7bc	-0.22946066
90	0x3d891946	0.06694274
91	0xbb42f9a2	-0.0029750844
92	0xbc881764	-0.016612716
93	0x3ddc4b7d	0.10756586
94	0xbd0e2add	-0.034708846
95	0x3d5dda49	0.05416325
96	0xbda0d931	-0.07853926
97	0x3c9856cb	0.018596074
98	0xbc97c3c0	-0.018525958
99	0x3c14fb6a	0.009093145
100	0x3b2e2c17	0.0026576573
101	0x3c21f67b	0.009885426
102	0xbd3e29ed	-0.046426702
103	0x3ae5d260	0.001753401
104	0xbca663dc	-0.020311289
105	0x3c66f1ef	0.014095767
106	0xbdc454d7	-0.095864944
107	0xbe547df6	-0.20751175
108	0xbdda2ebe	-0.106534466
109	0xbcd7b50c	-0.026331447
110	0xbd786e8f	-0.060652312
111	0x3c8fc024	0.017547674
112	0x3d030c7e	0.031994335
113	0xbd1db3d1	-0.038501564
114	0xbd68d200	-0.056840897
115	0xbd96cd12	-0.07363333
116	0x3becd8b7	0.007227983
117	0xbde0b80f	-0.109726064
118	0x3c63ae7c	0.013896581
119	0xbcc2d77e	-0.023784395
120	0xbdb0c054	-0.08630434
121	0xbdcfa5bb	-0.101390325
122	0x3c510bda	0.012759173
123	0xbd966fda	-0.07345553
124	0xbdbf06bd	-0.09327457
125	0xbd4b2791	-0.04959828
126	0xbe03a2b1	-0.1285503
127	0xbde5ab44	-0.11214307
128	0xbd7e1abd	-0.06203722
129	0x3da439d8	0.08018845
130	0xbcf90e47	-0.030402316
131	0x3d0936bf	0.033499476
132	0x3da0b2e9	0.078466244
133	0xbdb22048	-0.086975634
134	0xbdd36de9	-0.10323698
135	0xbe2e91f6	-0.17047867
136	0x3d8db4e2	0.06919266
137	0xbdd061cc	-0.10174903
138	0x3d02ed70	0.03196472
139	0xbcc505e5	-0.024050662
140	0xbde9cad6	-0.11415641
141	0x3d124ef2	0.03571982
142	0xbe7d133c	-0.24714369
143	0x3e140088	0.14453328
144	0xbd3989e4	-0.04529752
145	0x3ccaa25e	0.024735626
146	0xbcbf8483	-0.023378616
147	0xbd9d0722	-0.07667376
148	0x3c446f4b	0.011989425
149	0x3df5bfe6	0.11999492
150	0xbcc6cb45	-0.024266848
151	0xbd344966	-0.04401531
152	0xbd7ff4bc	-0.062489256
153	0x3d6a4a80	0.057199955
154	0x3cf55d88	0.029951826
155	0xbca629d3	-0.020283615
156	0xbc9d287f	-0.01918435
157	0xbbd2f040	-0.0064373314
158	0x3c5b3907	0.013380296
159	0xbbca9d6d	-0.0061833174
160	0xbd28ff5a	-0.041259147
161	0xbd261edc	-0.040556774
162	0xbb8d215d	-0.0043069557
163	0x3c9a02e5	0.018800208
164	0x3d0f8948	0.03504303
165	0xbd669959	-0.056298587
166	0x3d4418c5	0.047875185
167	0x3e09e162	0.13464883
168	0x3d6ee9fe	0.05832862
169	0x3db4b497	0.08823507
170	0xbd827668	-0.063702404
171	0xbd13d489	-0.03609136
172	0xbdb6d312	-0.08926977
173	0xbce67d14	-0.028135814
174	0xbd98bdf9	-0.074581094
175	0x3d80bd04	0.06286052
176	0x3d79375a	0.060843803
177	0xbcbd6b69	-0.023122506
178	0x3d0171b8	0.03160259
179	0xbca5c307	-0.020234598
180	0xbcff7dd9	-0.031187939
181	0xbbd36a9d	-0.0064519183
182	0xbe0e102b	-0.13873355
183	0xbda533b6	-0.08066504
184	0x3de97444	0.11399129
185	0x3bfb97c1	0.0076780026
186	0xbc1e342d	-0.009655994
187	0x3c8637b0	0.016383976
188	0x3e1b77bf	0.15182398
189	0xbdc143ce	-0.09436761
190	0xbcc01b4d	-0.023450518
191	0x3c919b69	0.0177743
192	0x3daaed23	0.083460115
193	0xbe2d6f4e	-0.1693699
194	0xbcfbaf01	-0.030723097
195	0x3e267244	0.16254526
196	0xbcb5f1b1	-0.022209974
197	0x3cbe0f68	0.023200706
198	0x3e029428	0.1275183
199	0xbd43e162	-0.047822364
200	0xbe359476	-0.17732415
201	0xbe9b8be9	-0.3038018
202	0x3dc4851a	0.095956996
203	0x3d441d2b	0.04787938
204	0xbd96f8bd	-0.07371662
205	0x3bd3029e	0.006439521
206	0xbb9df602	-0.004820586
207	0xbca292f3	-0.019845461
208	0xbf0b8f71	-0.5451575
209	0x3bd3a3f6	0.0064587547
210	0xbc971d09	-0.018446462
211	0x3d14730a	0.036242522
212	0xbd403af2	-0.046931215
213	0xbca9deee	-0.020736184
214	0xbbe479a7	-0.00697251
215	0xbeb48bdc	-0.35262954
216	0xbf09dbe6	-0.53851163
217	0x3cf7fa09	0.030270593
218	0xbceec887	-0.029148353
219	0xbdc5b224	-0.09653118
220	0x3d967175	0.07345859
221	0xbd070775	-0.032966096
222	0xbf209846	-0.6273235
223	0xbebdf799	-0.37102965
224	0x3d8b12fd	0.06790731
225	0x3a79f48c	0.00095350365
226	0xbda6aaf0	-0.081380725
227	0x3d29b9cc	0.041436955
228	0x3d6e58d5	0.058190186
229	0xbe71e7db	-0.23623602
230	0xbdcad62e	-0.09904133
231	0x3c3533dd	0.011059728
232	0x38846743	6.3134845e-05
233	0x3ca85696	0.0205491
234	0x3db1e8a6	0.08686952
235	0xbd3c9304	-0.046038643
236	0xbc93375b	-0.017970731
237	0xbe8b4388	-0.2719996
238	0xbcfc18a5	-0.03077347
239	0x3cc90fa1	0.024543585
240	0xbdd63c2f	-0.10460698
241	0x3d60eef4	0.054915383
242	0x3e25ea4f	0.16202663
243	0x3d1511c5	0.0363939
244	0xbdae6057	-0.08514469
245	0x3d8c9ff6	0.06866448
246	0x3de48a09	0.111591406
247	0x3d12b8de	0.035820834
248	0xbd910b5a	-0.07082243
249	0x3af000bd	0.0018310767
250	0xbdb83be4	-0.08995798
251	0x3d22035f	0.039553996
252	0xbcd41617	-0.02588944
253	0x3cf0d466	0.029398154
254	0xbd8478a1	-0.06468321
255	0xbddf8b3d	-0.109152295

weight f4 [64, 64, 3, 3]
0	0xbe3906b9	-0.1806897
1	0x3e098d33	0.1343277
2	0x3e01afb0	0.12664676
3	0xbe5308ff	-0.206089
4	0x3dcb4111	0.0992452
5	0xbdd959d0	-0.106128335
6	0xbe42a129	-0.1900679
7	0xbdd8a7e7	-0.105789
8	0x3e1f1dd9	0.1553873
9	0xbb9339f9	-0.004492995
10	0x3c88457f	0.0166347
11	0x3dd2e9bc	0.102984875
12	0xbb692a30	-0.0035578124
13	0x3d3f8ef8	0.046767205
14	0x3cd19b58	0.025586769
15	0x3dbe719b	0.09299012
16	0xbca8fe46	-0.02062906
17	0xbdad4010	-0.084594846
18	0x3d96e053	0.07367005
19	0xba71c71d	-0.00092230906
20	0xbcc28d0d	-0.023748899
21	0x3e58108d	0.21100064
22	0x3ef0dc6e	0.47043175
23	0xbd3ff25c	-0.04686199
24	0xbd5febc5	-0.054668207
25	0xbda16c5a	-0.078819945
26	0xbd8d5f02	-0.06902887
27	0x3deeb086	0.11654763
28	0x3d748902	0.059700973
29	0xbd85b910	-0.065294385
30	0xbcae76cf	-0.021296887
31	0xbc4f1f32	-0.012641715
32	0x3d432ee4	0.04765214
33	0xbc5ccacb	-0.013476084
34	0xbcfaa428	-0.030595854
35	0x3d3ab25f	0.045580264
36	0xbd7b70ff	-0.06138706
37	0x3af6bfd7	0.0018825483
38	0xbda07cd3	-0.07836308
39	0x3da89537	0.082315855
40	0xbccd3fd6	-0.025054853
41	0xbd83d49d	-0.06437037
42	0x3db0e635	0.086376585
43	0x3cc828d3	0.024433529
44	0xbd7f9453	-0.062397312
45	0xbe03d4f0	-0.12874198
46	0xbcca80cc	-0.024719618
47	0x3c058d0a	0.008151302
48	0x3e1c0db7	0.15239607
49	0x3cf8e96d	0.030384744
50	0xbb0d285b	-0.0021538946
51	0x3c77bd61	0.015120835
52	0xbd8e4c83	-0.06948187
53	0xbcfb1c5f	-0.030653177
54	0x3d269df8	0.040677994
55	0x3d895606	0.06705861
56	0xbd8642c4	-0.06555703
57	0xbaadc231	-0.0013256726
58	0x3d72e733	0.05930252
59	0xbc6a7fa9	-0.014312663
60	0x3defef94	0.11715618
61	0x3d2bedeb	0.041974943
62	0xbdbd4082	-0.092408195
63	0xbd669a53	-0.05629952
64	0x3ddc9d8d	0.10772238
65	0x3c847f87	0.016174091
66	0xbc0411a5	-0.008060847
67	0x3e8cff80	0.2753868
68	0x3d0f19ad	0.034936596
69	0xbd9ce4f6	-0.07660858
70	0xbcb5b85c	-0.022182636
71	0xbd095035	-0.033523757
72	0xbd15ef16	-0.036604963
73	0xbd81717d	-0.06320474
74	0x3b178b21	0.0023123699
75	0xbc3cb481	-0.011517645
76	0x3cb36a8a	0.021901388
77	0x3d4c0f28	0.04981914
78	0x3dcb63b7	0.099311285
79	0x3d0c64be	0.034275763
80	0xbc1da4bf	-0.009621798
81	0x393d56ac	0.00018056732
82	0xbd4aa57a	-0.049474217
83	0xbe339c0d	-0.17539997
84	0xbce70edd	-0.02820533
85	0xbd75dd2a	-0.06002537
86	0xbe395086	-0.18097124
87	0xbdabc028	-0.0838626
88	0xbaaa28d3	-0.0012982137
89	0xbde3b448	-0.1111837
90	0xbd19e179	-0.037568543
91	0xbc3d450f	-0.011552109
92	0x3d0f6454	0.03500779
93	0xbd405269	-0.046953592
94	0x3c7692ae	0.01504962
95	0xbdc86f2e	-0.09786831
96	0x3d969ce2	0.07354142
97	0xbcb063cd	-0.021531964
98	0x3c955d5d	0.018232996
99	0xbce2346c	-0.027612887
100	0xbbba1391	-0.005678602
101	0xbcc4fe79	-0.024047123
102	0xbda407b1	-0.080092795
103	0x3bf3f621	0.0074451123
104	0x3d06f63e	0.03294968
105	0x3d5b0dfb	0.05348013
106	0xbd4cf25d	-0.050035823
107	0x3ba3993c	0.004992632
108	0xbd19b3a0	-0.03752482
109	0x3cc9d1ee	0.024636235
110	0x3cb3334d	0.021875048
111	0x3cfc3c46	0.03079046
112	0x3d3b4933	0.045724105
113	0xbe2824a6	-0.1642023
114	0xbca6c3a8	-0.020356968
115	0xbe08e38a	-0.1336805
116	0xbdbbe02f	-0.09173619
117	0xba856266	-0.001017642
118	0xbcada597	-0.021197123
119	0xbe611384	-0.21980101
120	0xbd1aaf74	-0.03776498
121	0xbd0706c5	-0.03296544
122	0xbd79a49f	-0.06094801
123	0xbd7d9916	-0.061913572
124	0xbc41bc17	-0.011824629
125	0xbcfb2f61	-0.03066224
126	0x3e805115	0.2506186
127	0xbe11f8bf	-0.14255045
128	0xbd73fb6a	-0.05956594
129	0x3e9bc1ff	0.30421445
130	0xbeb24720	-0.3481989
131	0xbe2d52d9	-0.16926135
132	0xbddbf701	-0.10740472
133	0xbd64b5c1	-0.055837397
134	0xbdbf8f35	-0.093534864
135	0xbd5820f9	-0.05276582
136	0x3d6d3fd8	0.057922214
137	0x3db3d334	0.08780518
138	0x3b124302	0.0022317772
139	0xbdacc9fd	-0.08436964
140	0xbcac6166	-0.021042537
141	0x3d102ec9	0.035200868
142	0xbde0669f	-0.109570734
143	0x3c8ef6e8	0.017451718
144	0x3c01fc80	0.007933736
145	0xbe45451b	-0.19264643
146	0xbcfa1f2a	-0.030532438
147	0xbe016c3f	-0.12638949
148	0xbdca48eb	-0.09877189
149	0x3d842085	0.06451515
150	0x3cec81ee	0.028870549
151	0xbdb7ae02	-0.08968736
152	0xbd1402f0	-0.036135614
153	0x3c5aa588	0.01334513
154	0xbd96fc30	-0.0737232
155	0xbbdd2d7f	-0.0067498083
156	0xbc7812bb	-0.015141184
157	0xbc9e57c4	-0.01932896
158	0x3d54d4d4	0.05196078
159	0x3d71668c	0.058935687
160	0x3c983def	0.01858422
161	0xbda26ae9	-0.07930548
162	0xbdc15d9f	-0.09441685
163	0xbd5e390e	-0.05425363
164	0xbda0b683	-0.07847311
165	0x3a10e764	0.0005527644
166	0xbc861d43	-0.016371375
167	0xbd0c52fe	-0.034258835
168	0xbdb30669	-0.08741457
169	0xbd019ab3	-0.031641673
170	0x3d32a657	0.043615665
171	0xbd17b9a9	-0.037042294
172	0xbcf92074	-0.030410983
173	0xbd76fc25	-0.060299058
174	0xbc40facd	-0.011778546
175	0x3e1a7909	0.15085234
176	0xbd967414	-0.07346359
177	0xbc7ed6f1	-0.015554176
178	0xbc980cee	-0.018560853
179	0xbd440989	-0.047860656
180	0x3c74ecf2	0.01494907
181	0x3d105e2b	0.035246056
182	0xbda73be2	-0.081657186
183	0x3c980f42	0.018561963
184	0xbb0f568b	-0.0021871652
185	0x3d46ef23	0.048567902
186	0xbdd2786e	-0.102768764
187	0x3c736792	0.014856236
188	0xbd3b08dd	-0.04566275
189	0xbd63a25a	-0.055574752
190	0x3ac494f9	0.0014998011
191	0xbd8481a8	-0.064700425
192	0x3d89e82b	0.06733736
193	0xbd4cf909	-0.050042186
194	0xbe06fa0a	-0.1318132
195	0x3e28d983	0.16489224
196	0x3b9d7fa2	0.004806475
197	0x3d0d346d	0.034473825
198	0xbd297576	-0.041371785
199	0xbd251619	-0.040304277
200	0xbcfd7239	-0.030938255
201	0x3d0128e3	0.031533133
202	0x3d18fa23	0.037347924
203	0x3d47762b	0.048696678
204	0xbd6ea804	-0.0582657
205	0x3be1679b	0.006878806
206	0x3dc8a277	0.09796613
207	0x3d9a9482	0.07547857
208	0xbe01f360	-0.12690496
209	0xbcb43b15	-0.022000829
210	0xbcbd9ada	-0.023145128
211	0xbdb17720	-0.086652994
212	0x3d735517	0.05940732
213	0x3d49ec54	0.049297646
214	0x3dae4ecb	0.08511122
215	0x3d2e3ac9	0.04253653
216	0xbe26d1be	-0.16290948
217	0x3d01fa03	0.03173257
218	0x3c9acdf3	0.018897032
219	0xba81f677	-0.0009915371
220	0x3d706deb	0.058698576
221	0xbd01c504	-0.03168203
222	0xbdfd0c1b	-0.123558246
223	0xbd977ef5	-0.07397262
224	0x3ce77d69	0.028258042
225	0x3c4fe616	0.012689134
226	0xbd05e7af	-0.032691654
227	0xbd431597	-0.04762801
228	0x3c6c5008	0.014423378
229	0x3caf2280	0.021378756
230	0xbd932595	-0.071849026
231	0x3dd58fd3	0.10427823
232	0xbc771b27	-0.015082157
233	0xbc32f854	-0.010923464
234	0xbce998f5	-0.028515318
235	0xbda5f933	-0.081041716
236	0x3d06696e	0.03281539
237	0xbd12fbf6	-0.03588482
238	0xbd2964fb	-0.041356068
239	0xbd104bb1	-0.035228435
240	0xbda03353	-0.07822289
241	0xbd8b1989	-0.0679198
242	0x3dbfe75e	0.09370302
243	0xbc15c45d	-0.009141055
244	0x3d137c8a	0.03600744
245	0xbb09af33	-0.0021008968
246	0x3dae1f5b	0.08502074
247	0x3d4d7848	0.050163537
248	0x3de33570	0.11094177
249	0xbc8161d2	-0.015793715
250	0x3cdbe003	0.026840216
251	0x3da850a2	0.082185045
252	0xbd9774c1	-0.07395316
253	0xbcd2c472	-0.025728438
254	0x3c9c63e3	0.019090598
255	0xbda2188e	-0.0791484

bias f4 [64]
0	0xbca1a351	-0.019731196
1	0x3ab32a14	0.0013669156
2	0x3e2fdcaa	0.1717402
3	0xbdc99c37	-0.09844249
4	0x3bb172b4	0.005415285
5	0xba8274cb	-0.000995302
6	0xbbfd3497	-0.0077272165
7	0xbbeae185	-0.0071679973
8	0x3da6fccd	0.08153687
9	0x3dc665ae	0.096873626
10	0x3d80d8a3	0.0629132
11	0xbd486635	-0.048925597
12	0xbbdbc79a	-0.006707144
13	0xbc41b239	-0.011822277
14	0x3d26f286	0.040758632
15	0xbdedf772	-0.11619462
16	0xba4e1c8d	-0.0007862531
17	0xbaf79eac	-0.0018891892
18	0xbb46ba34	-0.0030323388
19	0x3c4707d8	0.012147866
20	0xbc25e4aa	-0.010125319
21	0xb9907c9a	-0.00027558656
22	0xbbe2ec69	-0.006925155
23	0xbd3ae7b1	-0.045631114
24	0x3d6350b5	0.05549689
25	0x3daac741	0.08338786
26	0x3d5473ad	0.05186813
27	0x3d16edbe	0.036847822
28	0x3db2a366	0.08722572
29	0xbcffd480	-0.031229258
30	0xbc5a2258	-0.013313852
31	0xbd4d38ba	-0.050102927
32	0x3b0fbcce	0.0021932605
33	0x3dfbe4d5	0.122995056
34	0xbcbdee48	-0.02318491
35	0x3d34ebec	0.044170305
36	0x3dfd2c5c	0.123619765
37	0x3e5663b4	0.20936471
38	0x3c3f6af9	0.011683219
39	0xbb97a1d4	-0.0046274457
40	0x3d049ac4	0.03237416
41	0x3c34b906	0.011030441
42	0x3d6b9507	0.05751517
43	0xbde1a343	-0.11017468
44	0xbc272703	-0.010202172
45	0x3cc5b9ae	0.02413639
46	0xbd8756a0	-0.06608319
47	0xbc927fb9	-0.017883169
48	0x3c649bd0	0.013953164
49	0xbad42fa7	-0.0016188518
50	0xbb0e70e0	-0.002173476
51	0xbb0120de	-0.0019703428
52	0x3d96bc13	0.07360091
53	0x3d454a9f	0.048166867
54	0xbd3b2708	-0.04569152
55	0x39bea577	0.00036362905
56	0xbb4b7979	-0.0031047745
57	0xbd5b0969	-0.05347577
58	0x3d438595	0.047734816
59	0x3d41f994	0.047357157
60	0xbba15ed9	-0.004924637
61	0x3cb0a8e8	0.021564916
62	0x3be9f571	0.0071398546
63	0xbdc6bf7e	-0.09704493

weight f4 [64, 64, 3, 3]
0	0x3dca94d5	0.09891669
1	0x3cfaedb4	0.030630924
2	0xbd9fc745	-0.078016795
3	0xbd6353f7	-0.055499997
4	0xbe4bdf4a	-0.19909397
5	0x3d4df42c	0.05028169
6	0x3d034c15	0.03205498
7	0xbe09d918	-0.13461721
8	0xbc5d3bd1	-0.013503031
9	0xbe029c56	-0.1275495
10	0x3d42d70b	0.047568362
11	0xbd9a1986	-0.075243995
12	0xbe0d51d5	-0.13800748
13	0x3c724fc5	0.014789526
14	0xbe2e3ed2	-0.17016152
15	0xbdaea41d	-0.08527396
16	0x3d16465c	0.036688194
17	0xbd16df31	-0.036833946
18	0x3e1e9f06	0.1549035
19	0xbe019605	-0.12654884
20	0x3c53288f	0.012888088
21	0x3e054211	0.13013484
22	0xbe05ce90	-0.13067079
23	0xbe533815	-0.20626862
24	0x3d91095d	0.07081864
25	0xbe8294eb	-0.2550424
26	0xbe1f863d	-0.15578552
27	0x3da82640	0.082104206
28	0x3e089530	0.1333816
29	0x3e70a4f6	0.23500428
30	0x3cdd3b10	0.027005702
31	0x3d989443	0.07450154
32	0x3e49b0c6	0.1969634
33	0xbdb8658a	-0.09003742
34	0xbd5baa6e	-0.05362933
35	0xbd976329	-0.0739196
36	0xbd367d73	-0.04455323
37	0xbe0265a8	-0.12734091
38	0x3d920ce0	0.07131362
39	0xbdef2459	-0.11676855
40	0xbe49a99e	-0.1969361
41	0x3cd47ddb	0.025938919
42	0xbb58b702	-0.0033068066
43	0xbda40861	-0.08009411
44	0x3d835ca0	0.06414151
45	0xbe0094ad	-0.12556715
46	0x3b2728c2	0.0025506471
47	0x3d472149	0.048615728
48	0x3c740eb7	0.014896086
49	0xbd2ae5c8	-0.041723043
50	0x3c804198	0.015656278
51	0xbd201164	-0.039079085
52	0xbce9a957	-0.02852313
53	0x3d41ddf4	0.04733081
54	0xbdb1a1b0	-0.086734176
55	0x3b30fe6e	0.002700712
56	0xbbca82d2	-0.006180146
57	0xbbbd5436	-0.005777861
58	0x3c7b278e	0.015329255
59	0xbd872968	-0.065996945
60	0x3c1a30b1	0.009411023
61	0xbd90424b	-0.070438944
62	0xbc7138a2	-0.014722975
63	0x3d0eb606	0.03484156
64	0xbc15229f	-0.009102493
65	0x3c905382	0.017617945
66	0xbc48f469	-0.012265303
67	0xbce74210	-0.028229743
68	0x3dcf2dec	0.10116181
69	0x3c8c8198	0.017151639
70	0xbd8acacd	-0.067769624
71	0xbdb2497b	-0.087054215
72	0xbe1d7a89	-0.15378775
73	0x3cc99447	0.024606837
74	0xbcb023bd	-0.021501416
75	0xbe2376f6	-0.15963349
76	0xbc83e794	-0.016101636
77	0x3d0be10c	0.03415017
78	0xbe1febfe	-0.15617368
79	0xbcdb08bf	-0.026737569
80	0xbcf2d826	-0.029644083
81	0xbd1dc132	-0.038514324
82	0xbd404d30	-0.04694861
83	0xbd1bbae5	-0.038020033
84	0x3e4eaa60	0.2018218
85	0xbc31b7c1	-0.010847033
86	0x3d63a78a	0.0555797
87	0x3d7bf7d4	0.061515644
88	0x3d3d1fb3	0.04617281
89	0x3d00f569	0.03148404
90	0xbd4c3cc6	-0.049862646
91	0xbd877634	-0.06614342
92	0xbd8b562c	-0.06803545
93	0x3bad6954	0.005292097
94	0x3e0aa232	0.13538435
95	0x3d01ba99	0.031672094
96	0xbd1a3eef	-0.037657674
97	0xbce63a55	-0.028103987
98	0x3c00b365	0.007855271
99	0x3d074d61	0.03303278
100	0xbd88558e	-0.06656943
101	0x3d1f4d87	0.038892295
102	0x3db0694f	0.08613836
103	0x3c9318b7	0.01795612
104	0x3bf67eda	0.007522446
105	0xbc64837c	-0.013947364
106	0x3d6a5670	0.05721134
107	0xbd0eacfe	-0.034832947
108	0xbcd2c8cf	-0.025730519
109	0xbd491a9b	-0.04909764
110	0xbd4ae9a7	-0.049539234
111	0xbd71753f	-0.058949705
112	0xbdbd8128	-0.0925315
113	0x3c6fbdd2	0.014632659
114	0x3c34bd5b	0.011031474
115	0xbe031e23	-0.12804465
116	0xbc818518	-0.015810534
117	0xbd9ed7b3	-0.07755985
118	0x3d117706	0.0355139
119	0x3ca8fee3	0.020629352
120	0xbdee6877	-0.11641019
121	0xbddd0799	-0.10792465
122	0xbd467290	-0.0484491
123	0xbd12d888	-0.03585103
124	0xb7834a4d	-1.5651016e-05
125	0xbd3558e4	-0.044274226
126	0xbccf9e62	-0.025344077
127	0xb9621698	-0.00021561456
128	0xbd85c3a3	-0.06531455
129	0xbe1feaeb	-0.15616958
130	0x3d91cc2d	0.071190216
131	0xbccfb8da	-0.025356699
132	0xbdfbe041	-0.122986324
133	0x3d773fca	0.06036357
134	0x3d09b29a	0.033617593
135	0xbd18e723	-0.037329804
136	0xbdd1aba2	-0.102378145
137	0xbd574537	-0.052556243
138	0x3bf14929	0.0073634577
139	0xbd000701	-0.03125668
140	0xbd2c60b3	-0.042084407
141	0xbd992c94	-0.07479206
142	0xbd8f3a1a	-0.06993504
143	0x3d9be9a0	0.0761292
144	0xbc57e7b0	-0.013177797
145	0xbd8fba01	-0.07017899
146	0xbd85c3d0	-0.06531489
147	0xbd6ac5a1	-0.05731738
148	0x3cfd4a0c	0.030919097
149	0xbdd8d5ab	-0.10587629
150	0xbb5afa08	-0.003341319
151	0x3d5bfff7	0.053710904
152	0xbc0bba64	-0.008528326
153	0xbdfdfa55	-0.12401263
154	0xbd43bf38	-0.047789782
155	0xbd15eb01	-0.03660107
156	0xbd861625	-0.065471925
157	0xbd53385b	-0.051567417
158	0xbe0cbcf2	-0.13743952
159	0xb8cac112	-9.668073e-05
160	0x3bb3b4cc	0.005484199
161	0xbdeb8922	-0.115007654
162	0x3c90c59d	0.017672354
163	0xbcbcaa2e	-0.023030367
164	0xbdb7bb7e	-0.08971308
165	0x3cb841a0	0.02249223
166	0xbc62c4ec	-0.013840895
167	0xbc988fc5	-0.018623242
168	0x3dbe8a9f	0.093037836
169	0x3b3173a2	0.002707698
170	0x3d6004d9	0.054692123
171	0x3dd74ca6	0.105126664
172	0xbdad26be	-0.08454655
173	0x3d1adfa8	0.03781095
174	0x3d9ae048	0.075623095
175	0x3c233153	0.00996049
176	0x3d29aba2	0.041423447
177	0x3d4544f5	0.048161466
178	0xbe3267b0	-0.17422366
179	0xbb99946f	-0.004686884
180	0x3d451b74	0.048121884
181	0xbceaef00	-0.028678417
182	0xbe2d6cd2	-0.16936043
183	0x3da670a0	0.0812695
184	0xbe64a222	-0.22327474
185	0xbdc54ae9	-0.096334286
186	0x3ddd15f4	0.10795203
187	0xbdd0d198	-0.10196227
188	0xbe2aec72	-0.16691759
189	0xbb71ecdd	-0.0036914863
190	0xba544252	-0.00080970407
191	0xbdbf8156	-0.09350841
192	0x391cfedc	0.00014972262
193	0xbc848b03	-0.016179567
194	0xbd81d346	-0.06339125
195	0x3e4f795e	0.20261142
196	0xbd0920c7	-0.033478525
197	0xbd0d74af	-0.034535106
198	0x3d635778	0.05550334
199	0xbcd46fc7	-0.025932206
200	0xbccf02a8	-0.025269821
201	0x3cf23d7e	0.029570337
202	0xbcca04bb	-0.024660459
203	0xba41c565	-0.000739178
204	0xbd27545a	-0.04085193
205	0xbd658336	-0.056033336
206	0x3c4e65b8	0.012597494
207	0xbd94301a	-0.07235737
208	0x3d9b6720	0.07588029
209	0x3dafd07a	0.085846856
210	0xbd3dcfc4	-0.04634072
211	0xbce60ef3	-0.0280833
212	0x3c929a63	0.017895883
213	0xbd9a3bc1	-0.075309284
214	0xbd97b6bf	-0.07407903
215	0xbd13f019	-0.036117647
216	0xbd3c6762	-0.04599703
217	0xbdcf88d1	-0.101335175
218	0x3d92070d	0.07130251
219	0x3cf1b3ba	0.029504646
220	0xbd910d01	-0.070825584
221	0xbd5cefd7	-0.053939667
222	0xbc07d298	-0.008289956
223	0xbcd731ac	-0.026268803
224	0xba1d3ba7	-0.00059979636
225	0xbe168b72	-0.14701632
226	0x3de07336	0.10959475
227	0x3c4b69fa	0.0124154035
228	0xbd8d52ef	-0.06900584
229	0x3dce2d94	0.10067287
230	0xbcd8e30f	-0.026475457
231	0xbdcbf0e6	-0.09958057
232	0x3c909d05	0.017652998
233	0xbb4144e8	-0.0029490534
234	0x3cb0ba2c	0.021573149
235	0xbe725fb7	-0.23669325
236	0xbcc8dbcd	-0.024518872
237	0x3ce9ca0c	0.028538726
238	0xbe91bc71	-0.28464082
239	0xbcdb9298	-0.0268033
240	0xbb470f17	-0.0030373984
241	0xbe82d9a0	-0.2555666
242	0x3d1884be	0.037235968
243	0x3dd31d6d	0.10308347
244	0xbe0aaffc	-0.13543695
245	0xbdc328e0	-0.09529281
246	0xbc98ca1c	-0.01865106
247	0xbeac38e0	-0.33637142
248	0xbdef69da	-0.116901115
249	0x3d337d50	0.04382068
250	0xbeb291f2	-0.34876972
251	0xbe57b4ee	-0.21065113
252	0xbd0ca241	-0.034334425
253	0x3d74606c	0.059662268
254	0xbe63dc97	-0.22252117
255	0xbcdc5140	-0.026894212

bias f4 [64]
0	0x3d74d339	0.05977175
1	0x3d236447	0.039890554
2	0xbd670aeb	-0.056406897
3	0xbc0900a5	-0.00836197
4	0xbb876820	-0.0041322857
5	0xbd674485	-0.05646183
6	0xbbd64be7	-0.00653981
7	0x3cec3545	0.028833995
8	0x39d23781	0.00040095675
9	0x3d1d07b6	0.03833743
10	0x3cc370c7	0.023857487
11	0x3c9fad5a	0.01949184
12	0x3ca2badd	0.019864494
13	0xbd295fb1	-0.041351024
14	0x3d4e5346	0.050372384
15	0xbdb255af	-0.08707749
16	0xbcebe7de	-0.028797086
17	0x3cd05678	0.025431857
18	0x3bcfbb1b	0.0063394434
19	0xbd93df3c	-0.07220313
20	0xba96baa0	-0.001149971
21	0xbd5e5a55	-0.054285366
22	0x3d5ce161	0.053925876
23	0x3d115b7b	0.035487633
24	0x3b9b8875	0.0047464916
25	0x3d1b3a69	0.0378975
26	0xbcb822f1	-0.022477599
27	0x3ced75d5	0.02898685
28	0xbd8e2055	-0.069397606
29	0x3a5c5976	0.00084056647
30	0xbc8a3568	-0.01687117
31	0x3d154efb	0.036452275
32	0x3b07482f	0.002064239
33	0xbd282a29	-0.041055832
34	0xbd1cc67a	-0.03827522
35	0xbb01452e	-0.0019725072
36	0xbd098359	-0.03357253
37	0xbc2cebc7	-0.010554261
38	0xbc3bc87a	-0.011461372
39	0x3c9f3c64	0.019437976
40	0xbd001adc	-0.031275615
41	0xbc945692	-0.018107686
42	0x3d70c1d4	0.0587786
43	0x3d122d59	0.03568778
44	0xbcaf0f58	-0.021369621
45	0xbd128baa	-0.035777725
46	0xbd2f144f	-0.042743977
47	0x3cc3cb73	0.023900723
48	0x3bf9cc66	0.007623243
49	0x3d319911	0.043358866
50	0x3a94f500	0.001136452
51	0xbd66f3e4	-0.056384936
52	0x3d5463fe	0.051853172
53	0x3dda3471	0.10654534
54	0x3e27748b	0.16353051
55	0xbac3d8f5	-0.0014941978
56	0x3ce96536	0.028490644
57	0xbd38185a	-0.0449451
58	0xbcc30fc7	-0.023811234
59	0x3d34354b	0.043996137
60	0xbd343b9d	-0.044002164
61	0xbd266de6	-0.04063215
62	0xbd4993b8	-0.04921314
63	0xbc5396b8	-0.012914352

weight f4 [64, 64, 3, 3]
0	0xbcdefbca	-0.027219672
1	0x3b6d9954	0.003625472
2	0xbd8c05bc	-0.06837031
3	0x3d5b79b5	0.053582866
4	0xbdd6df02	-0.10491754
5	0xbd7fbb8f	-0.06243473
6	0xbddd8f71	-0.10818375
7	0x3c9c60a2	0.019089047
8	0x3ca15fd4	0.019699015
9	0x3d4b9298	0.04970035
10	0xbd457605	-0.048208255
11	0x3d367655	0.044546444
12	0xbcd9d539	-0.02659093
13	0xbc86a12d	-0.016434276
14	0xbdc3b11d	-0.09555266
15	0xbb3b9b2a	-0.002862642
16	0xbc5ae416	-0.013360044
17	0xbde6ac4e	-0.11263333
18	0xbd99f309	-0.075170584
19	0xbd1d7ffc	-0.038452134
20	0x3d908599	0.07056732
21	0xbd5c0a76	-0.053720914
22	0xbc425b8c	-0.011862647
23	0x3d39362d	0.04521768
24	0xbccff6c1	-0.025386216
25	0x3d3a5e62	0.045500167
26	0xbd587792	-0.052848406
27	0x3ba53d41	0.0050427024
28	0xbd2fb531	-0.042897407
29	0x3c909295	0.01764802
30	0xbd6e4572	-0.058171697
31	0xbc84e70c	-0.016223453
32	0x3d641698	0.05568561
33	0x3d759191	0.059953276
34	0xbd81596d	-0.06315885
35	0xbd165f75	-0.03671213
36	0x3ad488b7	0.0016215061
37	0x3c0d1f2e	0.008613391
38	0xbc4b5405	-0.012410169
39	0xbce2de1a	-0.027693797
40	0xbd152977	-0.036416497
41	0xbd99df24	-0.07513264
42	0xbd29bdde	-0.041440837
43	0xbc7e3953	-0.015516597
44	0xbcb0fee2	-0.021605913
45	0x3cdaaaa3	0.026692694
46	0x3c68f64f	0.014218881
47	0xbd312263	-0.043245684
48	0x3cbc84cf	0.023012547
49	0xb7b9ebb7	-2.2163482e-05
50	0x3c5bf111	0.013424174
51	0xbd9c24fd	-0.076242425
52	0xbd351814	-0.044212416
53	0xbdf240c7	-0.118287615
54	0xbcb5d512	-0.022196326
55	0x3d128689	0.035772834
56	0xbcfba6a0	-0.030719101
57	0xbdddf45d	-0.10837624
58	0xbd84523f	-0.06461
59	0x3dc1c5f3	0.09461584
60	0x3d889b6c	0.06670269
61	0xbbb13ee4	-0.0054091085
62	0xbd02bc4a	-0.031917848
63	0xbb1c3046	-0.0023832484
64	0xbde97f70	-0.1140126
65	0x3cbdee0b	0.023184797
66	0x3c82bb9d	0.015958602
67	0x3c1dad5d	0.009623853
68	0xbb918e93	-0.004442045
69	0xbd48f3a4	-0.04906048
70	0x3c450230	0.012024447
71	0xbdac5d1e	-0.08416198
72	0xbd3fd0d1	-0.046830002
73	0xbe020d9e	-0.12700507
74	0xbe10b9ef	-0.14133428
75	0xbe1f541b	-0.15559427
76	0x3c3938ac	0.0113050155
77	0xbdebeb8f	-0.115195386
78	0xbd120a54	-0.03565438
79	0xbbc15fed	-0.005901328
80	0xbc5f079d	-0.013612655
81	0x3dbd690d	0.092485525
82	0xbb214fdf	-0.0024614257
83	0x3be1026d	0.0068667443
84	0xbd75124f	-0.059831914
85	0x3b2594f8	0.0025265794
86	0xbc833705	-0.016017446
87	0xbd39e9a5	-0.045388836
88	0xbc8b83cc	-0.01703062
89	0xbdaf1fec	-0.085510105
90	0x3d01a0ce	0.031647496
91	0xbc997b44	-0.018735535
92	0xbe0be6f7	-0.13662325
93	0x3ce1af3a	0.027549375
94	0xbe62fe8f	-0.22167419
95	0xbda6f1e4	-0.08151606
96	0xbdf71357	-0.12064236
97	0x3d112680	0.035437107
98	0xbd0ddd07	-0.034634616
99	0x3d1bca6a	0.038034834
100	0xbc4bb78d	-0.012433899
101	0xbddb8a49	-0.10719735
102	0x3c806152	0.015671406
103	0x3b803c3f	0.003913432
104	0xbd1d925f	-0.03846967
105	0xbb997bc4	-0.0046839435
106	0xbb92724f	-0.004469193
107	0xbd0a9612	-0.033834524
108	0xbd8a30c9	-0.06747586
109	0xbcc552de	-0.024087366
110	0x3d604ac3	0.0547588
111	0xbda0ca2c	-0.07851061
112	0xbdca04b4	-0.09864178
113	0xbd9898de	-0.07451032
114	0xbc89d33c	-0.016824357
115	0xbd6afba6	-0.057368897
116	0xbd60bfbd	-0.054870356
117	0xbc94ef70	-0.018180579
118	0x3d3709e1	0.044687156
119	0xbd3580e2	-0.044312365
120	0xbd96547f	-0.07340335
121	0x3cb5ed23	0.022207802
122	0xbd8e8068	-0.06958085
123	0xbc57a5a6	-0.013162052
124	0xbd61c3ef	-0.055118497
125	0xbdbb0284	-0.09131339
126	0xbe1dd6ab	-0.1541392
127	0xbb8ec3dd	-0.004356845
128	0x3d10012b	0.035157364
129	0x3da1da8a	0.07903011
130	0xbe06264f	-0.13100551
131	0x3d0c52a6	0.034258507
132	0xbde7485d	-0.11293099
133	0xbd8a9de7	-0.06768399
134	0xbdae6950	-0.085161805
135	0xbd58faf8	-0.052973717
136	0x3d9902ce	0.07471238
137	0x3d4535d2	0.04814703
138	0xbae6c7b9	-0.0017607129
139	0xbcc5915b	-0.024117162
140	0xbda64938	-0.08119434
141	0xbdca13ec	-0.09867081
142	0x3d555891	0.052086417
143	0xbe3abd38	-0.18236244
144	0x3d97076d	0.07374463
145	0xbda05472	-0.07828607
146	0x3d85e80a	0.065383986
147	0x3cfbf4e5	0.030756423
148	0xbd54c4a0	-0.05194533
149	0xbc80037a	-0.015626658
150	0xbd0d0294	-0.034426287
151	0xbc9dcf43	-0.01926387
152	0xbcc71c87	-0.024305595
153	0xbd858f3c	-0.065214604
154	0xbddac8b9	-0.10682816
155	0xbe035543	-0.12825494
156	0xbde35bb7	-0.111014776
157	0xbdca2726	-0.09870748
158	0x3b13a3c3	0.002252803
159	0x3d298dea	0.041395105
160	0x3db86922	0.090044275
161	0x3c6e38fe	0.014539955
162	0xbd9dd7b6	-0.07707159
163	0x3d323b0e	0.04351335
164	0xbd855e02	-0.06512071
165	0x3dbc004b	0.091797434
166	0xbbab5974	-0.0052291695
167	0x3bac9597	0.005266856
168	0x3db824ee	0.08991419
169	0x3d419df1	0.047269765
170	0x3da6947e	0.081337914
171	0xbccc9299	-0.024972247
172	0x3d6b13b1	0.057391826
173	0xbe2ed471	-0.17073227
174	0xbd22ffd3	-0.039794754
175	0xbdd29851	-0.10282958
176	0x3c18b6ed	0.009320957
177	0x3d815d7a	0.06316657
178	0xbc9fcf43	-0.01950801
179	0x3d21f7d5	0.03954299
180	0xbda08641	-0.07838107
181	0xbcb7ebce	-0.022451308
182	0xbd33091a	-0.04370985
183	0xbd2ea884	-0.042641178
184	0xbc54b89a	-0.012983466
185	0xbd8ec8ae	-0.0697187
186	0x3d6b4109	0.05743507
187	0xbd8c9c30	-0.06865728
188	0xbb7bb22f	-0.0038405766
189	0x3cc35bb4	0.023847438
190	0xbbd4e5a5	-0.0064971023
191	0xbd41cbd0	-0.04731351
192	0xbc5d154c	-0.013493847
193	0x3d1354e6	0.035969637
194	0x3e065e2e	0.13121864
195	0xbdb0c3e4	-0.08631113
196	0x3d38a3a8	0.04507795
197	0x3db5aeb2	0.08871211
198	0x3d3bb18d	0.045823622
199	0x3b9c6e57	0.0047738957
200	0x3d0a4ef0	0.033766687
201	0xbc953e0d	-0.018218065
202	0xbd2bf371	-0.04198021
203	0xbd756ef2	-0.05992026
204	0x3dc086ee	0.09400736
205	0x3d02cddb	0.0319346
206	0x3cccdbb6	0.02500711
207	0xbdf99979	-0.12187476
208	0x3d0681f6	0.032838784
209	0xbe0c91c0	-0.13727474
210	0x3e113d93	0.14183645
211	0xbc2673d3	-0.010159451
212	0xbbed0d30	-0.007234238
213	0x3db9b53b	0.0906777
214	0x3e0e2232	0.13880232
215	0x3d30fd62	0.043210395
216	0xbcb963b0	-0.022630543
217	0x3b846940	0.004040867
218	0xbd21d734	-0.039511874
219	0x3d16a7e8	0.03678122
220	0xbda92d1a	-0.082605556
221	0xbdf84dc6	-0.12124209
222	0xbc8c8b6a	-0.017156322
223	0xbcf65964	-0.030071922
224	0xbd83a230	-0.06427419
225	0xbca94199	-0.020661162
226	0xbe012e5e	-0.12615344
227	0x3d8d9338	0.069128454
228	0xbd61c635	-0.055120666
229	0x3bc66199	0.006054115
230	0xbc87631f	-0.016526757
231	0x3de557c7	0.11198383
232	0x3d1cefa9	0.038314495
233	0xbdb16883	-0.08662512
234	0xbd37ada1	-0.04484332
235	0xbd3d568d	-0.04622512
236	0xbcf9230c	-0.03041222
237	0xbda726f3	-0.08161726
238	0xbc8a355d	-0.016871149
239	0xbd18de4a	-0.037321366
240	0x3c5eb2f9	0.013592475
241	0xbdcc010b	-0.099611364
242	0x3d57361e	0.052541845
243	0xbc894468	-0.016756251
244	0xbc205745	-0.009786432
245	0xbc418490	-0.0118113905
246	0xbd563e53	-0.05230553
247	0xbcd68be9	-0.026189761
248	0xbd726746	-0.05918052
249	0x3a7bf1f2	0.0009610943
250	0xbe608a66	-0.21927795
251	0xbdf73e2f	-0.120724075
252	0xb9888ec7	-0.0002604632
253	0xbd880e36	-0.066433355
254	0xbdb55b58	-0.08855313
255	0xbdc3cdf7	-0.09560769

bias f4 [64]
0	0xbd009b23	-0.03139795
1	0x3a028cfc	0.0004980115
2	0xbd632eae	-0.05546444
3	0xbd7e2dfe	-0.06205558
4	0xbd548064	-0.051880255
5	0xbd3f4cd9	-0.046704147
6	0x3c5d643a	0.013512665
7	0x3b5d0f8b	0.0033731188
8	0xbd3e63d0	-0.046481907
9	0xbccc058b	-0.024904987
10	0xbc122233	-0.008919287
11	0xbc39bb8f	-0.011336221
12	0xbce0fc04	-0.02746392
13	0xbc310f50	-0.010806873
14	0xba85dd15	-0.0010212982
15	0x3c54acaf	0.012980624
16	0xbd8c5019	-0.06851215
17	0x3cf1d83b	0.029522052
18	0xba3e3aeb	-0.0007256704
19	0xbd1d3617	-0.038381662
20	0xbc725a3f	-0.014792024
21	0xbc55fb96	-0.013060471
22	0xbcffe7e1	-0.031238498
23	0x3bfbd6ed	0.0076855333
24	0x3c593575	0.013257374
25	0x3baa2855	0.0051927962
26	0xbd9f4b46	-0.07778029
27	0x3cd1af44	0.025596268
28	0xbd16c3f3	-0.036807965
29	0xbc411569	-0.01178489
30	0x3c6a73f8	0.014309876
31	0x3cd9091a	0.026493598
32	0xbd2aab08	-0.041667014
33	0xbc826a31	-0.015919777
34	0xbd84a48c	-0.06476697
35	0xbd85cd89	-0.06533343
36	0xbd54743b	-0.05186866
37	0x3ca0165d	0.019541914
38	0x3c277d7c	0.010222789
39	0xbc7cf38e	-0.015438927
40	0xbcf175a7	-0.029475046
41	0x3dbed425	0.09317807
42	0xbcdb5bfe	-0.026777264
43	0x3d436b2a	0.04770962
44	0x3ce82205	0.028336534
45	0x3d096da2	0.03355182
46	0xbd5cb093	-0.05387933
47	0x3b577d02	0.0032880907
48	0xbd16048c	-0.03662543
49	0xbcd589ce	-0.026066687
50	0xbd78bda5	-0.060727734
51	0x3e2b9dd9	0.16759433
52	0xbd8db613	-0.069194935
53	0xbd18725d	-0.03721844
54	0xbb72763f	-0.003699675
55	0xbc28ea17	-0.010309718
56	0xbce81cd1	-0.028334053
57	0x3c0a9805	0.008459096
58	0xbd520440	-0.051273584
59	0xbd832858	-0.06404179
60	0xbd3c1b2a	-0.045924343
61	0xbcbbe6e6	-0.02293725
62	0xbd2ab9e5	-0.04168119
63	0x3c4cd4c5	0.0125019

weight f4 [12, 64, 3, 3]
0	0x3d1c5d48	0.038174897
1	0xbbc6134c	-0.006044781
2	0x3d2afce8	0.041745096
3	0xbbc80d7f	-0.0061051245
4	0x3dca4ff4	0.09878531
5	0x3d401dcb	0.046903413
6	0xbba06f09	-0.004896049
7	0x3c28703e	0.010280667
8	0x3d7777b1	0.06041688
9	0xbc4ca4c2	-0.012490453
10	0x3c62e528	0.01384858
11	0xbb0ab7c2	-0.0021166657
12	0xbcd4b458	-0.0259649
13	0x3c0b4c4a	0.008502075
14	0x3b9c702b	0.0047741137
15	0x3b5e50c5	0.0033922654
16	0x3c8c4adf	0.017125545
17	0xbd482162	-0.04885996
18	0xbd254911	-0.040352885
19	0x3b804e7b	0.0039156056
20	0x3cd5e836	0.026111703
21	0xbd5dbba6	-0.054134034
22	0x3d207147	0.03917053
23	0x3c707fd7	0.014678917
24	0xbb2dbefc	-0.002651154
25	0x3d434bf3	0.047679853
26	0xba2fded1	-0.00067089224
27	0x3d236dd9	0.03989968
28	0x3ba96da7	0.0051705423
29	0x3d16f87c	0.036858067
30	0x3da73102	0.081636444
31	0x3ce989d2	0.0285081
32	0x3d0df6b7	0.034659114
33	0xbe6e645c	-0.23280472
34	0xbdd476c3	-0.103742145
35	0x3e412d0a	0.18864837
36	0x3d9acff0	0.07559192
37	0x3d26ccf7	0.040722813
38	0x3cd39de7	0.02583213
39	0x3d31b95e	0.04338967
40	0xbbf911ab	-0.007600983
41	0xbdb66da6	-0.089076325
42	0x3ca8e804	0.020618446
43	0xbd23d2b5	-0.039995868
44	0xbd90259f	-0.07038426
45	0xbadeaf14	-0.0016989433
46	0xbcc506e2	-0.024051134
47	0x3b5d201b	0.003374106
48	0xbcabce51	-0.020972403
49	0x3df55473	0.11978998
50	0xbb8cf338	-0.004301455
51	0x3cba67aa	0.022754509
52	0xbdcb74dd	-0.09934399
53	0xbccb068c	-0.024783395
54	0xbac077e8	-0.0014684172
55	0xbdbfb886	-0.09361367
56	0xbc64e397	-0.013970277
57	0xbe02c19c	-0.12769169
58	0xbdbcaa87	-0.09212213
59	0xbdaea14e	-0.0852686
60	0x3da3ac14	0.07991806
61	0xbd24ab5e	-0.04020249
62	0x3ad2c0cb	0.0016079185
63	0x3bbe9135	0.00581565
64	0x3d89be62	0.06725766
65	0xbc09be43	-0.008407178
66	0x3d070185	0.032960434
67	0x3c9eef43	0.019401198
68	0x3d0138de	0.031548373
69	0xbc8631d2	-0.016381178
70	0xbdb16c3a	-0.08663221
71	0xbda327b4	-0.07966557
72	0xbd311631	-0.043234054
73	0xbc08099a	-0.00830307
74	0xbd17051d	-0.03687011
75	0x3d9da223	0.07696941
76	0x3c626764	0.013818596
77	0xbcf91ea5	-0.03041012
78	0x3df26cb2	0.11837138
79	0xbce1fa0c	-0.027585052
80	0xbc9670a7	-0.018364264
81	0x3d77963e	0.060446016
82	0xbdb3e32c	-0.08783564
83	0xbc70bdcc	-0.014693689
84	0xbd84c71c	-0.064832896
85	0x3d92d8ff	0.07170295
86	0xbd8d4059	-0.06897039
87	0x3c6993f6	0.014256468
88	0xbbe8d8ea	-0.0071059363
89	0x3d9e0912	0.07716574
90	0x3dd64cfc	0.10463902
91	0xbb1e7c32	-0.0024182913
92	0xbd96e9da	-0.073688224
93	0xbd60c987	-0.05487969
94	0xbd14c2a9	-0.036318455
95	0x3ce623d7	0.028093262
96	0x3d2e7fbd	0.04260229
97	0xba5f483d	-0.0008517539
98	0xbd331460	-0.043720603
99	0x3ca72085	0.020401249
100	0x3e16a6a2	0.14712003
101	0xbd8f1566	-0.06986503
102	0xbb88fcba	-0.004180518
103	0xbbed2bd7	-0.007237892
104	0xbd42e04c	-0.047577187
105	0x3b856e41	0.004071981
106	0x3bf69f80	0.007526338
107	0x3c12bac7	0.008955664
108	0xbad70ae5	-0.0016406445
109	0xbd660eb2	-0.05616636
110	0xbd4ef4e1	-0.050526503
111	0x3cb17bd6	0.021665495
112	0x3be3027d	0.006927787
113	0x3d208f50	0.039199173
114	0x3c99d151	0.018776568
115	0x3d6855ad	0.05672233
116	0xbd2bd6d0	-0.041952908
117	0x3d577c51	0.05260879
118	0x3b607ec0	0.0034255236
119	0x3c869d49	0.016432421
120	0x3d45d08f	0.0482946
121	0x3db96135	0.09051744
122	0xbc8c8814	-0.01715473
123	0x3d547602	0.051870354
124	0x3cd7fd07	0.02636577
125	0xbd523bf7	-0.05132672
126	0xbd8a7c53	-0.06761994
127	0x3cee7dd7	0.02911274
128	0x3d0ea800	0.034828186
129	0xbd16fb3b	-0.036860686
130	0xbc828977	-0.015934689
131	0x3d95db9c	0.07317278
132	0xbc290cf0	-0.010318026
133	0xbba369c3	-0.004986973
134	0x3d0fa94b	0.03507356
135	0xbcf4b160	-0.029869735
136	0xbd580217	-0.052736368
137	0xbbe80162	-0.007080243
138	0x3dc31b0c	0.09526643
139	0xbc02ca0b	-0.007982741
140	0xbcd4f7b8	-0.025997028
141	0xbc4bbd9b	-0.012435342
142	0x3c4775b9	0.012174063
143	0x3b3006d6	0.0026859543
144	0x3c70dc10	0.0147009045
145	0x3c6325d6	0.013864001
146	0xbd0cc72b	-0.03436963
147	0x3d260018	0.040527433
148	0x3d332133	0.043732833
149	0x3cbcfe22	0.023070399
150	0xbbf81fab	-0.0075721345
151	0x3b3ca934	0.0028787376
152	0xbc09cea0	-0.00841108
153	0x3d337cd8	0.043820232
154	0xbc8ff801	-0.017574312
155	0xbbfdc143	-0.007743986
156	0x3ca5079e	0.020145234
157	0xbc022599	-0.007943534
158	0xbd094d83	-0.033521187
159	0xbcb8aebb	-0.022544255
160	0x3c9f427c	0.019440882
161	0xbd23a91f	-0.03995621
162	0xbd48328a	-0.048876323
163	0xbc3c5ee0	-0.011497229
164	0x3d17b790	0.037040293
165	0xbd0e4a1e	-0.034738652
166	0x3d2b8f79	0.041884873
167	0x3a0f8442	0.0005474725
168	0xbd6fe1bf	-0.058564898
169	0x3d170e61	0.036878947
170	0xbc914012	-0.017730746
171	0xbbad5ddb	-0.0052907295
172	0xbc2ae652	-0.010430889
173	0x3dc71a72	0.09721841
174	0xbd123337	-0.035693374
175	0xbc859982	-0.01630855
176	0x3c544ab4	0.012957264
177	0x3d83e65d	0.06440423
178	0x3bdfa770	0.00682538
179	0xbc311454	-0.010808069
180	0xbbfbffd7	-0.0076904106
181	0x3d2c1dec	0.042020723
182	0xbbfdea8e	-0.0077489084
183	0x3c391418	0.011296295
184	0xbd58b4be	-0.052906744
185	0xbcaf17a7	-0.021373583
186	0x3b003d82	0.0019567912
187	0xbcb03215	-0.021508256
188	0x3bf4fdd7	0.007476549
189	0x3d34d0fb	0.04414461
190	0xbc8f252f	-0.017473785
191	0xbc9caaa2	-0.019124333
192	0x3d91d142	0.07119991
193	0xbcb202c4	-0.021729834
194	0xbb0c81d2	-0.0021439684
195	0x3ac723c6	0.0015193156
196	0x3c788cc6	0.015170282
197	0xbd42dfad	-0.047576595
198	0x3dce32fa	0.10068317
199	0x3dbd1e00	0.09234238
200	0xbe03542d	-0.1282508
201	0x3cbf3c73	0.023344254
202	0x3c898794	0.016788282
203	0xbcabe801	-0.020984652
204	0xbdb32d03	-0.0874882
205	0x3d6e4ad8	0.058176845
206	0x39b7ae5f	0.00035034397
207	0xbbc0b614	-0.0058810804
208	0x3c4b6faf	0.012416764
209	0x3d37cb7d	0.044871796
210	0xbd8aac48	-0.06771141
211	0x3d1c1fb4	0.038116172
212	0xbc7c7b02	-0.015410187
213	0x3d463da7	0.04839864
214	0xbdfc77d9	-0.123275466
215	0xbd2e347e	-0.04253053
216	0x3c4588e9	0.012056568
217	0x3c334adc	0.010943141
218	0xbd1a8a14	-0.037729338
219	0x3d7d4aac	0.06183879
220	0x3d4a951b	0.049458604
221	0xbd9ff36d	-0.07810102
222	0xbcfeeb09	-0.031117933
223	0x3b87b820	0.0041418225
224	0xbd798723	-0.060919892
225	0xbc94f9f1	-0.018185588
226	0xbd73448e	-0.05939155
227	0xbb547fd8	-0.0032424834
228	0x3d0fe2cc	0.0351284
229	0x3cd77ac2	0.026303653
230	0x3e0153f6	0.12629685
231	0xbc52db97	-0.012869737
232	0xbcea5d28	-0.028608873
233	0xbcd17c46	-0.025571954
234	0xbc6c31be	-0.014416156
235	0xba6a3834	-0.00089347665
236	0xbdc61f05	-0.09673885
237	0x3bb026f8	0.005375739
238	0xbb6720a2	-0.0035267253
239	0xbc879feb	-0.016555747
240	0xbc87220d	-0.016495729
241	0x3b49bd39	0.0030782952
242	0x3d3958f4	0.045250848
243	0xbd7a1797	-0.061057653
244	0x3d88d6ee	0.066816196
245	0xbc3a5c25	-0.011374508
246	0xbcf678cc	-0.030086897
247	0x3debe53e	0.11518334
248	0x3d513682	0.051077373
249	0xbd3d8350	-0.046267807
250	0x3c416491	0.011803762
251	0xbd555a81	-0.052088264
252	0xbcf9572e	-0.030437078
253	0x3bb134ee	0.005407921
254	0x3c34cd9a	0.011035347
255	0xbcc27b04	-0.023740299

bias f4 [12]
0	0xbb88a551	-0.004170098
1	0x3949ad31	0.00019233373
2	0x3c35d791	0.011098758
3	0xbb7f0827	-0.0038914771
4	0xbb660db0	-0.0035103373
5	0xbb26777e	-0.0025400813
6	0x3b7ff70c	0.0039057164
7	0x3be9f3ca	0.0071396576
8	0xba6154d2	-0.0008595708
9	0x3b37058d	0.0027926893
10	0xbba59f3c	-0.0050543826
11	0xbb6a98b5	-0.0035796587
