train_weight_sr5/model_epoch_19.pth (torch_old, 667646 bytes, 10 tensors)

weight f4 [12, 3, 13, 13]
0	0xba97d1d4	-0.0011582919
1	0xbdbb9ef3	-0.091611765
2	0x3d1cff1d	0.038329232
3	0x3c6ed5c7	0.014577336
4	0xbd3aa37f	-0.04556608
5	0xbd8793d1	-0.066199906
6	0x3d2a3a04	0.041559234
7	0x3d3a6c11	0.045513216
8	0xbde930f2	-0.11386289
9	0x3de2d3b0	0.110755324
10	0xbce5111c	-0.02796226
11	0xbc16d04e	-0.009204937
12	0xbc366161	-0.011131615
13	0x3b819e92	0.0039556706
14	0xbdaba898	-0.08381766
15	0xbd322896	-0.043495737
16	0xbd0f1add	-0.03493773
17	0x3daaa14d	0.08331547
18	0x3d4958b5	0.049156863
19	0x3d6b2643	0.057409536
20	0xbd8d7f55	-0.06909052
21	0xbd08a934	-0.03336449
22	0xbd0f6b1c	-0.035014257
23	0xbd114bab	-0.035472553
24	0xbc1cd5e9	-0.0095724845
25	0xbb8ed671	-0.0043590595
26	0xbd999206	-0.07498555
27	0xbd94b196	-0.07260434
28	0x3dadece9	0.08492453
29	0x3d9bb651	0.076031335
30	0xbc8109b6	-0.0157517
31	0xbd45d25d	-0.04829632
32	0x3d61ebc2	0.055156477
33	0x3c68f282	0.014217975
34	0xbd034945	-0.032052297
35	0x3db1dbc3	0.08684494
36	0x3c1a09ab	0.009401719
37	0xbcfb3773	-0.030666089
38	0x3ca31750	0.019908577
39	0xbc357e67	-0.0110775
40	0xbdf720b7	-0.12066787
41	0xbd4e5bdb	-0.05038057
42	0xbc1a9e26	-0.00943712
43	0x3ceb5a57	0.0287296
44	0x3d6aae4c	0.05729513
45	0xbd73500b	-0.059402507
46	0xbddc2908	-0.107500136
47	0xbcb2843b	-0.021791568
48	0xbd9986c8	-0.074964106
49	0x3d5a7c7c	0.053341374
50	0x3d80fc12	0.062980786
51	0xbd9cbedb	-0.0765359
52	0xbdb6f654	-0.08933702
53	0x3d59f83e	0.053215258
54	0xbd132dcb	-0.035932343
55	0xbd8368aa	-0.064164475
56	0xbdbb79cb	-0.091540895
57	0x3dd0ad6b	0.10189327
58	0xbd28e384	-0.0412326
59	0x3c0fd57b	0.008778925
60	0x3c69982c	0.014257472
61	0x399f271c	0.00030355982
62	0xbd170794	-0.03687246
63	0xbd164309	-0.036685023
64	0x3d38cbce	0.04511624
65	0x3d4cfd01	0.05004597
66	0xbb56b32f	-0.003276061
67	0x3d8a74c7	0.06760555
68	0x3ae402ae	0.0017395818
69	0xbcb18af1	-0.021672698
70	0x3d861322	0.06546618
71	0xbd811cd3	-0.06304326
72	0x3dc0c95c	0.09413406
73	0xbd959cfb	-0.07305332
74	0xbd6f98be	-0.058495276
75	0x3c7cdb4d	0.015433145
76	0xbcafb61f	-0.021449147
77	0xbc3616ab	-0.011113803
78	0xbc7d8422	-0.015473397
79	0xbb198252	-0.0023423624
80	0xbe81b0d8	-0.25330234
81	0xbe22e62f	-0.1590812
82	0xbe183e4c	-0.14867514
83	0xbd21a781	-0.039466385
84	0xbd33ece5	-0.043927092
85	0xbd0a6cba	-0.033795096
86	0x3cec719c	0.028862767
87	0xbcbf404a	-0.023346085
88	0x3db22e13	0.08700194
89	0x3d2865e7	0.041112807
90	0x3d8423ae	0.06452118
91	0x3ccbdb7f	0.024884937
92	0x3d68e793	0.05686147
93	0x3dce1f26	0.10064535
94	0x3e0d19ff	0.13779448
95	0xbd30fdef	-0.04321092
96	0x3c53566c	0.012899023
97	0x3ca4f7dd	0.020137722
98	0xbd629176	-0.055314504
99	0xbd2b3d2d	-0.04180639
100	0xbe0c7135	-0.1371506
101	0xbd6792e5	-0.056536574
102	0xbe01233f	-0.12611102
103	0x3b04af40	0.0020246059
104	0xbde3ccbc	-0.11123034
105	0xbcb6feac	-0.022338234
106	0x3cce80cc	0.0252079
107	0xbcd41544	-0.025889046
108	0x3d63aa8f	0.05558258
109	0x3a1592a6	0.0005705751
110	0x3d4b1380	0.049579144
111	0x3e16bea3	0.1472116
112	0xbb0afc2f	-0.0021207442
113	0x3e05e31e	0.1307492
114	0xbd8a1f1f	-0.06744217
115	0x3d8057e2	0.06266762
116	0x3ace3041	0.0015730934
117	0x3dd564ba	0.10419603
118	0xbe24bfb8	-0.1608876
119	0xbc48a1ab	-0.012245576
120	0xbdc32998	-0.09529418
121	0xbe8cdc6a	-0.27511913
122	0xbdc7720f	-0.09738552
123	0xbde66d8f	-0.112513654
124	0xbe0d47e1	-0.13796951
125	0xbc403ae1	-0.011732788
126	0xbd080ffb	-0.033218365
127	0x3cfabc98	0.030607507
128	0xbd14352c	-0.03618352
129	0x3d2657d0	0.04061109
130	0xbd9a9e08	-0.07549673
131	0xbd8ec405	-0.069709815
132	0xbcd80306	-0.02636863
133	0x3dc9798f	0.098376386
134	0xbd67213b	-0.056428175
135	0x3b65b62a	0.0035051205
136	0xbdc7c535	-0.09754411
137	0x3cacbc50	0.021085888
138	0xbe06e012	-0.13171414
139	0xbd9fde74	-0.078061014
140	0xbd96111c	-0.07327482
141	0xbd87ae42	-0.06625034
142	0xbe183f7d	-0.14867969
143	0x3d0b7855	0.034050304
144	0x3c228e7d	0.009921667
145	0xbcaea67e	-0.021319624
146	0xbdd6d1a3	-0.10489204
147	0xbcc73eee	-0.024322
148	0x3d970f12	0.07375921
149	0x3d6ace03	0.057325374
150	0x3d673183	0.056443702
151	0xbd7cce32	-0.06172008
152	0x3aebb5c5	0.0017983249
153	0xbadafdab	-0.0016707679
154	0x3c16c34f	0.009201839
155	0xbdd8da8f	-0.10588562
156	0xbdad3e83	-0.08459189
157	0xbd231f5c	-0.03982483
158	0xbe03d825	-0.12875421
159	0xbda2b34b	-0.07944354
160	0x3d2cec6c	0.042217657
161	0xbd9e1f90	-0.07720864
162	0xbdfb2d3f	-0.122644894
163	0x3c617cd4	0.0137626715
164	0xbd0d2f79	-0.0344691
165	0x3c8087cc	0.015689753
166	0x3d0a9d26	0.033841275
167	0xbd7a440d	-0.061100055
168	0xbcd1af8a	-0.025596399
169	0x3cb09f7a	0.02156042
170	0xbd187c38	-0.03722784
171	0xbcfa089a	-0.03052168
172	0x3d42d76e	0.04756873
173	0xbc82eae8	-0.015981153
174	0x3d4f6ee3	0.05064286
175	0xbd947064	-0.07247999
176	0x3d30251a	0.043004133
177	0x3b78cd8e	0.0037964317
178	0xbd170e31	-0.03687877
179	0xbd031b71	-0.032008592
180	0x3cd47651	0.025935324
181	0x3cb94ba4	0.022619076
182	0x3db7f0d3	0.089814804
183	0xbdbf5ae6	-0.093435094
184	0x3df9dbbb	0.122001134
185	0xbc9be611	-0.019030603
186	0x3c0fc953	0.008776027
187	0xbd81f903	-0.06346323
188	0xbd125bde	-0.035732143
189	0xbd4b8835	-0.049690444
190	0x3d365eda	0.04452405
191	0x3cbc5cf6	0.022993546
192	0x3d94e86c	0.072708935
193	0xbd937de8	-0.07201749
194	0xbb75e2d8	-0.0037519243
195	0xbd22b9a0	-0.039727807
196	0x3dcb6c98	0.09932822
197	0xbd96c096	-0.073609516
198	0xbe03d40e	-0.12873861
199	0xbda1e6e0	-0.07905364
200	0x3d9ab3fc	0.075538605
201	0xbc69a39c	-0.014260199
202	0x3d982aaf	0.07430016
203	0x3be6a27d	0.007038413
204	0xbd237af5	-0.039912183
205	0xbd1c94d1	-0.03822786
206	0x3cd8e565	0.026476571
207	0xbcdc9163	-0.026924795
208	0x3d26dbc8	0.040736943
209	0xbaf5cb27	-0.0018752561
210	0x3daf9630	0.08573568
211	0x3dcb19e9	0.09917051
212	0xbb55c83c	-0.003262057
213	0xbd601fcf	-0.054717835
214	0xbd096ca3	-0.03355087
215	0x3ccf616f	0.025315015
216	0xbc2dd8ac	-0.010610741
217	0x3d7dfcdf	0.062008735
218	0xbd755694	-0.05989702
219	0xbdf0526b	-0.1173447
220	0x3d3e5531	0.046467964
221	0x3de463c7	0.111518435
222	0xbd8c8629	-0.068615265
223	0xbd6d1fbd	-0.057891596
224	0x3bb8060b	0.0056159548
225	0x3aa4d428	0.0012575435
226	0x3cc922d3	0.024552738
227	0xbdfdbf76	-0.12390034
228	0x3cf17bee	0.02947804
229	0xbc92c16b	-0.017914494
230	0x3d3b8651	0.04578239
231	0xbd76bf00	-0.060240746
232	0x3d67227f	0.056429382
233	0x3ce7661c	0.028246932
234	0xbcd2ef63	-0.025748914
235	0x3d6a2fa6	0.057174347
236	0xbd30bd8a	-0.04314951
237	0x3de49b0f	0.111623876
238	0xbc80f3de	-0.015741285
239	0x3d407150	0.046983063
240	0x3d35af4b	0.044356626
241	0x3d1e1b00	0.038599968
242	0xbcf7b4db	-0.030237606
243	0x3d9f79b2	0.077868834
244	0x3d1d1f93	0.03836019
245	0xbd028f64	-0.03187503
246	0xbc5ad8da	-0.0133573655
247	0xbd7a3b82	-0.061091907
248	0xbe4d7205	-0.20063026
249	0xbe7b2686	-0.24526414
250	0xbd880878	-0.0664224
251	0xbd40f39d	-0.047107328
252	0xbc8b3628	-0.016993597
253	0xbdc25081	-0.09488011
254	0xbca4347d	-0.02004456
255	0x3dd09f6f	0.101866595

weight f4 [64, 12, 7, 7]
0	0xbe028b1a	-0.12748376
1	0xbe52c5d3	-0.20583276
2	0x3c8390ef	0.01606032
3	0x3db0345f	0.08603739
4	0xbc9de831	-0.019275757
5	0xbd317532	-0.043324657
6	0xbd964bd3	-0.07338681
7	0x3d0cb246	0.034349702
8	0xbdfc8c7f	-0.12331485
9	0xbd938791	-0.072035916
10	0xbddc7b3e	-0.10765694
11	0xbd1e2445	-0.038608808
12	0xbd16ce99	-0.03681812
13	0x3ce4149f	0.027841864
14	0x3c231c65	0.0099555
15	0x3ddef35d	0.108862616
16	0xbc905833	-0.017620182
17	0xbe070ba0	-0.13188028
18	0xbe497953	-0.19675188
19	0x3b5385e3	0.0032275848
20	0xbd2f1680	-0.042746067
21	0xbdad1e5c	-0.08453056
22	0xbc5e024f	-0.013550355
23	0x3c2f343a	0.010693604
24	0x3db6f1c9	0.089328356
25	0x3d6b3fa3	0.057433736
26	0x3c832dd1	0.016013058
27	0xbe388a1c	-0.18021435
28	0xbd794023	-0.06085218
29	0xbb097b11	-0.0020977894
30	0x3c6e5b8c	0.014548194
31	0xbd9ee412	-0.07758345
32	0xbd3ad4b6	-0.045613013
33	0x3d16a2ac	0.03677623
34	0xbd0ae2b5	-0.03390761
35	0x3d36e2d2	0.044649906
36	0xbe0a31f2	-0.13495615
37	0x3c2bbf50	0.010482624
38	0xbc5a57a8	-0.013326563
39	0xbda69840	-0.08134508
40	0xbe36293d	-0.17789169
41	0xbd6f6b33	-0.058451843
42	0xbdb0eed3	-0.08639302
43	0xbe2ef3e7	-0.17085229
44	0xbb81a85b	-0.003956837
45	0xbd0b125a	-0.03395305
46	0x3d398342	0.045291193
47	0xbdfe0b02	-0.12404443
48	0xbdc59ff0	-0.09649646
49	0xbbc7b352	-0.0060943747
50	0x39c8dd53	0.00038311872
51	0xbda8851c	-0.082285136
52	0x3ddd2acc	0.107991785
53	0x3c345dec	0.011008721
54	0xbd5493e5	-0.051898856
55	0x3cabd17a	0.02097391
56	0xbc38a832	-0.01127057
57	0x3cffdf13	0.0312343
58	0x3d993b72	0.074820414
59	0xbd7dc387	-0.061954048
60	0xbc5ce9ec	-0.013483506
61	0xbe0b2764	-0.13589245
62	0x3cafecd3	0.021475231
63	0x3b3cc322	0.0028802832
64	0xbc72e55d	-0.014825192
65	0x3cdea8e3	0.02718014
66	0x3d6e79c3	0.05822159
67	0xbde9af84	-0.1141043
68	0xbc96832c	-0.018373094
69	0x3dddbf8a	0.10827549
70	0xbd5a379f	-0.0532757
71	0xbc75fc18	-0.015013717
72	0x3d9259ea	0.07146056
73	0xbd4a04c8	-0.049320966
74	0x3e875666	0.26433104
75	0xbd7f8bc8	-0.062389165
76	0xbc632bbf	-0.01386541
77	0x3ccf4f7d	0.025306458
78	0xbcfed606	-0.031107914
79	0x3d6f5453	0.058430027
80	0xbbf47e31	-0.0074613323
81	0xbdf86c72	-0.12130059
82	0xbebea180	-0.3723259
83	0xbe61d4c4	-0.2205382
84	0xbc9096d7	-0.017650051
85	0x3cbd95cd	0.02314272
86	0x3d174ef6	0.036940537
87	0x3d1de477	0.03854796
88	0x3dcaf4f6	0.09910004
89	0xbe96f162	-0.29481035
90	0x3d7f93a3	0.062396657
91	0x3d06154b	0.03273515
92	0xbdbc076c	-0.09181103
93	0x3d7214f0	0.059102
94	0xbcc18ae6	-0.023625802
95	0x3d2d9cf9	0.04238603
96	0xbe8141bf	-0.25245473
97	0xbcfd325e	-0.030907806
98	0xbcf687d7	-0.03009407
99	0x3bb92487	0.0056501064
100	0xbd0d4e64	-0.034498587
101	0x3cecb7f3	0.028896308
102	0xbd7eb834	-0.06218739
103	0x3a2c3ab6	0.0006570028
104	0xbcb88161	-0.02252263
105	0x3b9677c7	0.0045919153
106	0xbdcad217	-0.09903353
107	0xbe6aa9ca	-0.22916332
108	0xbdb7434a	-0.08948381
109	0xbd044be3	-0.032298934
110	0xbd7abd04	-0.061215416
111	0x3c85d1fd	0.016335482
112	0x3c99756f	0.018732755
113	0xbd339639	-0.043844435
114	0xbd8c7edb	-0.06860133
115	0xbd9e3ada	-0.07726069
116	0x3c83a63d	0.01607048
117	0xbde19f02	-0.110166565
118	0x3c4e31f7	0.012585155
119	0xbd09829d	-0.03357183
120	0xbdb7a60f	-0.0896722
121	0xbded00cd	-0.11572418
122	0xbcc29229	-0.023751335
123	0xbd7108f1	-0.058846418
124	0xbdc1f2b1	-0.09470118
125	0xbd52ea5e	-0.05149304
126	0xbe0a8101	-0.13525774
127	0xbdf3cf7c	-0.11904809
128	0xbdd31053	-0.10305848
129	0x3d7f082a	0.062263645
130	0xbd5ab79e	-0.053397767
131	0x3d01d273	0.03169484
132	0x3d9f3d4d	0.07775364
133	0xbdb8a8d7	-0.09016579
134	0xbde28f66	-0.11062507
135	0xbe403bd6	-0.18772826
136	0x3d6b0169	0.05737439
137	0xbdb1cc0d	-0.08681498
138	0x3cfbbd30	0.03072986
139	0xbcc3a5a8	-0.023882702
140	0xbdeba9da	-0.11507006
141	0x3ce6b92f	0.028164474
142	0xbe8cc6c9	-0.2749541
143	0x3db2475e	0.087050185
144	0xbd624509	-0.05524162
145	0x3ccfb32c	0.02535399
146	0xbcce0797	-0.025150103
147	0xbdb563a2	-0.08856894
148	0x3baa4bf3	0.005197042
149	0x3dcc9594	0.09989467
150	0xbd1f72f3	-0.038927983
151	0xbcd11d8c	-0.025526784
152	0xbd81eef4	-0.06344405
153	0x3d67a971	0.056558076
154	0x3c9cd5e8	0.019144967
155	0xbd00ee1f	-0.03147709
156	0xbd0250f8	-0.0318155
157	0xbd852446	-0.06501059
158	0xbc86cbc0	-0.016454577
159	0xbbd47b01	-0.00648439
160	0xbd2b16a1	-0.041769627
161	0xbd469ccc	-0.048489377
162	0xbc7d6306	-0.015465504
163	0x3b259398	0.0025264975
164	0xbbbdf631	-0.0057971706
165	0xbd08c4f6	-0.03339096
166	0x3d417034	0.047226146
167	0x3e0a34eb	0.13496749
168	0x3d5c1bdf	0.053737517
169	0x3da0cdfb	0.07851788
170	0xbd93317b	-0.07187172
171	0xbd9baf91	-0.07601846
172	0xbd47cf4a	-0.04878167
173	0xbce3047f	-0.027712105
174	0xbd977fd0	-0.07397425
175	0x3d6b59ce	0.05745869
176	0x3d5c1acd	0.053736497
177	0xbce5f5fc	-0.028071396
178	0xbc43c101	-0.011947871
179	0xbcf98eab	-0.030463537
180	0xbcffffc4	-0.031249888
181	0xbb9efbae	-0.00485178
182	0xbe10cf0e	-0.14141485
183	0xbdaa636f	-0.08319747
184	0x3ddd7cbd	0.108148076
185	0xbd19b8cb	-0.037529748
186	0xbca6706e	-0.020317283
187	0x3c87ba1f	0.016568242
188	0x3e1e9f17	0.15490375
189	0xbdc19303	-0.094518684
190	0xbcbd1f25	-0.02308614
191	0x3c8e4dc2	0.017371062
192	0x3d501da7	0.05080953
193	0xbe30395f	-0.17209385
194	0xbcfca1c9	-0.030838864
195	0x3e2b73c2	0.16743377
196	0xbd879c32	-0.06621589
197	0x3bcd00fc	0.006256221
198	0x3d9968aa	0.07490666
199	0x3cbba717	0.022906823
200	0xbde0f717	-0.10984629
201	0xbe9fc19f	-0.3120241
202	0x3d970df0	0.07375705
203	0x3db99a76	0.09062664
204	0xbdb55a23	-0.08855083
205	0x3c446f5c	0.011989441
206	0x3c834dd3	0.01602832
207	0xbda92602	-0.082592025
208	0xbf511745	-0.8167613
209	0xbe79c006	-0.24389657
210	0xbcb4e0ca	-0.022079844
211	0x3dc87598	0.09788054
212	0x3c9d8ed8	0.019233152
213	0xbde245a2	-0.11048438
214	0xbd1b9c6d	-0.037990976
215	0xbe92b396	-0.28652638
216	0xbee89652	-0.45427185
217	0x3bcecfd7	0.0063113975
218	0xbc4ad98b	-0.012380968
219	0xbe30799a	-0.17233887
220	0x3d952fd3	0.07284512
221	0xbcaa277c	-0.02077078
222	0xbf9ad4bf	-1.2096175
223	0xbefb9257	-0.49135086
224	0xbcc38350	-0.023866326
225	0x3d55e06d	0.052215982
226	0xba97dcd2	-0.0011586195
227	0x3ca1d731	0.019755932
228	0x3e24723a	0.16059199
229	0xbf01b207	-0.50662273
230	0xbef760d3	-0.4831606
231	0xbc763c92	-0.0150290895
232	0x3c0bb186	0.008526212
233	0xbd0c2623	-0.034216058
234	0x3de60ddc	0.11233112
235	0xbd4d4035	-0.05011006
236	0xbe081c29	-0.13291992
237	0xbee9363d	-0.45549193
238	0xbcd97e95	-0.026549617
239	0x3d3f3c76	0.04668852
240	0xbd38cbc1	-0.04511619
241	0xbc7db9cd	-0.015486193
242	0x3df08756	0.11744563
243	0xbd3efc06	-0.046627067
244	0xbe18a44d	-0.14906426
245	0x3d139117	0.03602704
246	0x3dd25c39	0.10271496
247	0x3ceb6b24	0.028737612
248	0xbd93168a	-0.07182033
249	0x3a407c81	0.0007342771
250	0xbdba343e	-0.09091996
251	0x3d199e67	0.03750458
252	0xbc8ef627	-0.017451359
253	0x3cbf5880	0.02335763
254	0xbd8a8db9	-0.06765313
255	0xbde0856b	-0.109629475

weight f4 [64, 64, 3, 3]
0	0xbe87b24c	-0.26503217
1	0x3e90eef0	0.28307295
2	0x3e22a6fb	0.1588401
3	0xbec7da0c	-0.39033544
4	0x3f339ae3	0.70158213
5	0xbe021992	-0.12705067
6	0xbe994b10	-0.2994008
7	0xbcff1621	-0.031138482
8	0x3e1dba71	0.15403153
9	0xbb93bcab	-0.004508575
10	0x3c87e535	0.016588787
11	0x3dd2e14b	0.102968775
12	0xbb6a62bc	-0.0035764417
13	0x3d3d16e3	0.046164405
14	0x3cd17330	0.025567621
15	0x3dbe691a	0.0929739
16	0xbca9264d	-0.020648146
17	0xbdad4a38	-0.08461422
18	0xbe1a9b92	-0.15098408
19	0xbd98965f	-0.07450556
20	0xbdf2b435	-0.11850778
21	0xbc84ec53	-0.01622597
22	0x3f30fa51	0.6913195
23	0xbe5732e0	-0.21015501
24	0xbe7257cd	-0.23666306
25	0xbe1e6170	-0.15466857
26	0xbd8e28bd	-0.06941364
27	0xbc070bcd	-0.00824256
28	0x3c97c928	0.018528536
29	0xbd880690	-0.06641877
30	0xbcb7e1ec	-0.022446595
31	0xbc6a8567	-0.014314032
32	0x3d3daf03	0.046309482
33	0xbc76402f	-0.015029951
34	0xbd0473b3	-0.032336902
35	0x3d33c5e6	0.043889903
36	0xbd927b30	-0.071524024
37	0xbcdb133b	-0.026742568
38	0xbda13029	-0.07870514
39	0x3e07199a	0.1319336
40	0xbdb4b666	-0.08823852
41	0xbdadacbf	-0.08480214
42	0x3c9265cd	0.017870808
43	0x3de91b2c	0.11382136
44	0xbd80bb2f	-0.062857024
45	0xbe03e57d	-0.12880512
46	0xbccb0ee8	-0.024787381
47	0x3c046cfc	0.0080826245
48	0x3e1bfaa5	0.15232332
49	0x3cf860b4	0.03031955
50	0xbb11c651	-0.002224345
51	0x3c76b068	0.015056707
52	0xbd8e704d	-0.069550134
53	0xbcfba900	-0.030720234
54	0x3d2672cc	0.040636823
55	0x3d892fca	0.06698568
56	0xbd866cb9	-0.06563706
57	0xbab31472	-0.0013662709
58	0x3d72a2c6	0.059237264
59	0xbc6bae84	-0.0143848695
60	0x3defd6ad	0.11710868
61	0x3d2bada3	0.04191364
62	0xbdbd6114	-0.09247032
63	0xbd9123af	-0.07086884
64	0xbe4ebadf	-0.20188473
65	0xbd0af636	-0.03392621
66	0xbd9d5a8b	-0.07683285
67	0x3eb1342f	0.34610125
68	0x3c81b810	0.015834838
69	0xbd9d364a	-0.076763704
70	0x3c4fe77c	0.0126894675
71	0xbd0aa151	-0.03384525
72	0xbd654ea3	-0.055983197
73	0xbd873859	-0.06602544
74	0x36f833ca	7.397005e-06
75	0xbeb02374	-0.3440205
76	0xbe1f4668	-0.15554202
77	0x3d8e53e9	0.06949598
78	0x3dece1b4	0.11566487
79	0xbc10bdfa	-0.008834356
80	0xbc3eb3fd	-0.011639592
81	0xbcf65254	-0.030068554
82	0x3d1f4941	0.03888822
83	0xbe374716	-0.17898211
84	0xbd64efe2	-0.055892833
85	0xbd85d803	-0.065353416
86	0xbe3c1ceb	-0.18370406
87	0xbd1e1e85	-0.038603324
88	0x3dc1a918	0.0945608
89	0xbdeaa339	-0.114569135
90	0xbd1aa0c1	-0.037750963
91	0xbc42864a	-0.011872837
92	0x3d0e060f	0.034673747
93	0xbd40df14	-0.047087744
94	0x3c70ba73	0.01469289
95	0xbdc9252b	-0.09821542
96	0x3d962b58	0.07332486
97	0xbcb2d1ca	-0.02182855
98	0x3c931354	0.017953552
99	0xbce2c373	-0.027681088
100	0xbbbc64d2	-0.0057493234
101	0xbcc5b17f	-0.024132488
102	0xbda432e3	-0.08017518
103	0x3be346ba	0.0069359215
104	0x3d06bc72	0.03289456
105	0x3d5acf1a	0.053420164
106	0xbd4d34b6	-0.050099097
107	0x3ba1c030	0.0049362406
108	0xbcb500d2	-0.022095118
109	0x3d5ec28a	0.054384746
110	0xbda96fbb	-0.08273264
111	0x3cf2a39e	0.029619034
112	0x3e27ef02	0.16399768
113	0xbeacd2de	-0.3375463
114	0xbc87874e	-0.01654401
115	0xbe48d4f2	-0.19612482
116	0xbdf02cbf	-0.11727285
117	0x3e20457c	0.15651506
118	0x3dfbab14	0.1228849
119	0xbe9ba410	-0.30398607
120	0xbe089a74	-0.13340169
121	0x3dcc39e2	0.09971978
122	0xbdbc63aa	-0.09198697
123	0xbe4db4fa	-0.20088568
124	0x3d17d98a	0.037072696
125	0xbd455537	-0.04817697
126	0x3e07078c	0.13186473
127	0x3d05bfbe	0.032653563
128	0xbe675a70	-0.22593093
129	0x3e94dc1c	0.2907418
130	0xbea2b1dc	-0.3177632
131	0xbedea744	-0.4348699
132	0xbeab0711	-0.3340383
133	0xbe527bce	-0.2055504
134	0xbddd8d6d	-0.108179905
135	0xbd59b4b9	-0.053150866
136	0x3d6b9989	0.05751947
137	0x3db2f4e1	0.08738113
138	0x3af08364	0.0018349704
139	0xbdada5fc	-0.08478925
140	0xbcafd03e	-0.021461602
141	0x3d0e825f	0.0347923
142	0xbde14db2	-0.11001147
143	0x3c8b4152	0.01699892
144	0xbe8aab4f	-0.27083823
145	0xbdf6b67b	-0.12046524
146	0xbe283e52	-0.16430023
147	0x3c81e92a	0.015858252
148	0x3effeb0a	0.49984008
149	0x3c960c20	0.018316329
150	0x3df90620	0.121593714
151	0x3cc1c68d	0.023654247
152	0xbd174283	-0.036928665
153	0x3c543c5d	0.012953845
154	0xbd994db8	-0.07485527
155	0xbbf5b1ba	-0.0074979933
156	0xbc9f1e58	-0.019423649
157	0xbca7766c	-0.02044221
158	0x3d51c998	0.051217645
159	0x3d6ee746	0.05832603
160	0x3c8fa3d8	0.017534181
161	0xbda3c682	-0.07996847
162	0xbdc18ccd	-0.09450684
163	0xbd5ecc30	-0.054393947
164	0xbda0ecad	-0.07857642
165	0x39b4b26e	0.00034465216
166	0xbc88754a	-0.01665749
167	0xbd0d53bf	-0.034503695
168	0xbdb373dc	-0.08762333
169	0xbd02b27c	-0.031908497
170	0x3d31e891	0.043434683
171	0xbd990d71	-0.07473267
172	0xbd780cb1	-0.06055898
173	0xbd7850c8	-0.060623914
174	0xbbafa96b	-0.0053607724
175	0xbcca5b85	-0.024701843
176	0xbd984459	-0.07434911
177	0xbcb71d1a	-0.022352744
178	0xbd597ed9	-0.053099487
179	0xbd4532e6	-0.048144244
180	0xbe6dbbf0	-0.23216224
181	0x3e6bae79	0.23015775
182	0xbe4fb552	-0.20284012
183	0xbe63c1ed	-0.22241946
184	0x3db15ef0	0.08660686
185	0xbd3645fd	-0.04450034
186	0xbd9cff81	-0.07665921
187	0xbd87033a	-0.06592412
188	0xbd81c7de	-0.0633695
189	0x37d27cc0	2.5092042e-05
190	0x3dbff465	0.093727864
191	0xbdae70ba	-0.08517595
192	0x3dd51784	0.10404876
193	0xbd4fab36	-0.05070039
194	0xbe805f23	-0.25072584
195	0x3e9bebf1	0.30453447
196	0x3d2c8418	0.042118162
197	0x3d079bac	0.033107445
198	0xbd2a2154	-0.04153569
199	0xbd25fcd2	-0.04052431
200	0xbcff05dd	-0.031130726
201	0x3d00865b	0.03137813
202	0x3d17e003	0.03707887
203	0x3d46a923	0.048501145
204	0xbd6f55fb	-0.058431607
205	0x3bdb8895	0.0066996315
206	0x3dc83eac	0.09777579
207	0x3d9574de	0.07297681
208	0x3cd398c0	0.025829673
209	0xbca880bf	-0.020569203
210	0xbd3ae778	-0.045630902
211	0x3dc7f1fa	0.0976295
212	0x3dc6a519	0.09699459
213	0x3d476cfc	0.04868792
214	0x3e50b40d	0.20381184
215	0x3d2bd2c6	0.041949056
216	0xbe01ea95	-0.12687142
217	0xbdc5f4aa	-0.096658066
218	0x3c607ee2	0.013702126
219	0x3c2f4f97	0.010700128
220	0x3d9ccd4d	0.076563455
221	0xbce251ac	-0.027626835
222	0xbe61c812	-0.22048977
223	0xbd72983d	-0.059227217
224	0x3cd2f2f4	0.025750615
225	0x3c4dcd44	0.012561146
226	0xbd067fc3	-0.032836687
227	0xbd43bbfa	-0.04778669
228	0x3c6a1e8e	0.014289511
229	0x3cadfb6e	0.021238055
230	0xbd9371e4	-0.07199457
231	0x3dd54ff1	0.10415638
232	0xbc79e4f7	-0.015252343
233	0xbc356918	-0.01107242
234	0xbce9c8cb	-0.028538128
235	0xbd8a125b	-0.06741782
236	0x3d0644c8	0.03278044
237	0xbd137b38	-0.036006182
238	0xbd7ee09e	-0.06222593
239	0xbd10aee9	-0.035323057
240	0xbda0382a	-0.078232124
241	0xbe22fa63	-0.15915827
242	0x3dbfd626	0.093670174
243	0xbbaf5f4f	-0.005351938
244	0x3d10d29d	0.035357106
245	0xbb429be4	-0.0029694969
246	0x3db5322a	0.08847459
247	0x3d4a6a1f	0.04941761
248	0x3de16960	0.11006427
249	0xbc86deaf	-0.016463606
250	0x3cd571a8	0.026055172
251	0x3da63f3a	0.08117528
252	0xbd8ab620	-0.06773019
253	0xbd163410	-0.036670744
254	0x3c9923ba	0.018693794
255	0xbda292cb	-0.07938155

bias f4 [64]
0	0xbbcec34c	-0.0063099023
1	0xbcddc1f6	-0.027070027
2	0x3e3875e2	0.18013719
3	0xbdc99c37	-0.09844249
4	0x3c43f443	0.011960092
5	0x3cafb409	0.021448152
6	0xbb5889b3	-0.003304106
7	0xbd5e6302	-0.05429364
8	0x3d9dd3f8	0.077064455
9	0x3defe6cd	0.11713944
10	0x3dc0b250	0.094090104
11	0xbd7e2b2b	-0.062052887
12	0xb98a576a	-0.0002638654
13	0x3b4ee4c7	0.0031569467
14	0x3b216825	0.0024628725
15	0xbd2481fb	-0.04016302
16	0x39eb5d65	0.00044892277
17	0xbd164c42	-0.03669382
18	0xbc836b6f	-0.01604244
19	0xbd2847a7	-0.041083958
20	0xb9ab0dbc	-0.00032625895
21	0x3c7e6ba4	0.015528593
22	0xbbeb65dd	-0.007183774
23	0xbd5ef2df	-0.05443084
24	0x3df5ee44	0.12008336
25	0x3da51432	0.080604926
26	0x3d9be5f0	0.076122165
27	0x3d2d087c	0.04224442
28	0x3dbf896e	0.093523845
29	0xbb3128da	-0.0027032406
30	0xba7f8e9c	-0.00097487285
31	0xbc81f5fe	-0.015864369
32	0xbcbeff69	-0.023315148
33	0x3e069526	0.13142833
34	0xbd22932d	-0.03969114
35	0xbae7defb	-0.0017690355
36	0xbb9a6abe	-0.0047124317
37	0x3e11bd7f	0.14232443
38	0xbbb890ea	-0.0056325095
39	0xbc3ae88e	-0.011407984
40	0x3da7770c	0.08177003
41	0x3cefa757	0.029254599
42	0x3daa5d27	0.08318549
43	0xbf4ac25f	-0.79202837
44	0x3a1193ef	0.0005553355
45	0x3dcb014f	0.09912359
46	0x3a514a43	0.0007983783
47	0xbea41d26	-0.32053488
48	0x3bacfdc6	0.0052792756
49	0x3a5ae536	0.0008350195
50	0x3afd02fd	0.0019303259
51	0x3c53c3b4	0.012925077
52	0x3da80174	0.08203402
53	0x3d0d7541	0.03453565
54	0xbd50785a	-0.050896026
55	0x3b916cbf	0.0044380124
56	0xba976a2f	-0.0011552031
57	0xbd852d08	-0.0650273
58	0x3cf3eb66	0.029775333
59	0xbc6d7cda	-0.014495099
60	0xb946191b	-0.00018892104
61	0xbc7c4c00	-0.015398979
62	0x3b8c0067	0.004272509
63	0xbd711505	-0.058857936

weight f4 [64, 64, 3, 3]
0	0x3dc0eda5	0.09420327
1	0x3c35be0a	0.011092672
2	0xbddf31ed	-0.108981945
3	0xbd6f4eba	-0.05842469
4	0xbe61e246	-0.22058973
5	0x3c79b343	0.015240493
6	0x3cf6bda1	0.030119719
7	0xbe294d6a	-0.16533437
8	0xbd5ad6fc	-0.05342768
9	0xbe0ee991	-0.13956286
10	0x3d3b3233	0.04570217
11	0xbd9c1426	-0.076210305
12	0xbe04eee8	-0.1298176
13	0x3c4b047e	0.012391208
14	0xbe4277ec	-0.18991059
15	0xbdb64404	-0.08899692
16	0x3cd645b6	0.026156288
17	0xbd306215	-0.04306229
18	0x3e28c262	0.16480401
19	0xbe44cc62	-0.19218591
20	0xbc0638f9	-0.008192294
21	0x3e1c2a8b	0.15250604
22	0xbe52f27e	-0.20600316
23	0xbe7ec280	-0.24878883
24	0x3da7cf5d	0.08193848
25	0xbea0fb65	-0.314418
26	0xbe5b1008	-0.21392834
27	0x3d8c25a0	0.06843114
28	0x3e0ec169	0.13940968
29	0x3e75daef	0.24009298
30	0x3c816d29	0.015799122
31	0x3d6a8d40	0.057263613
32	0x3e47ed2f	0.19524072
33	0xbda50d43	-0.0805917
34	0xbd8365d4	-0.064159065
35	0xbdb822d1	-0.08991016
36	0xbcc8851a	-0.02447753
37	0xbe2157c1	-0.15756132
38	0x3d930423	0.071785234
39	0xbde0f4d9	-0.10984201
40	0xbe80dde1	-0.2516928
41	0x3ccb9ac3	0.02485407
42	0xbbd32d00	-0.0064445734
43	0xbe124840	-0.14285374
44	0x3d7083a5	0.058719296
45	0xbe008c4b	-0.12553518
46	0x39ffad4a	0.000487665
47	0x3c0a2359	0.008431279
48	0x3c39d4ec	0.011342268
49	0xbd34645f	-0.044041034
50	0xbd0c88d9	-0.034310196
51	0xbd2819e8	-0.04104033
52	0xbcbc72e6	-0.023004007
53	0x3ba89263	0.005144404
54	0xbdbe0415	-0.09278122
55	0xbb19e9f5	-0.0023485397
56	0xbc19b8f0	-0.009382471
57	0xbb431e08	-0.0029772539
58	0x3c1d52ef	0.009602292
59	0xbd933010	-0.071869016
60	0x3c1a44a5	0.00941578
61	0xbd90feaa	-0.07079823
62	0xbc59bfb7	-0.013290337
63	0x3d1866c8	0.037207395
64	0xbc1df783	-0.009641531
65	0xbc2a5026	-0.010395085
66	0xbb6fac5c	-0.003657124
67	0xbcdec4a4	-0.027193375
68	0x3d972a7c	0.0738115
69	0x3cf8f654	0.030390896
70	0xbd8c117d	-0.06839273
71	0xbdf94d03	-0.12172892
72	0xbe28ef3f	-0.16497515
73	0x3caf054b	0.021364829
74	0xbd357615	-0.044302065
75	0xbe43ca5a	-0.1912016
76	0xbc588c7a	-0.013217086
77	0x3c421641	0.011846126
78	0xbe43cbdb	-0.19120733
79	0xbcf49328	-0.029855326
80	0xbd0f6fba	-0.03501866
81	0xbd44be2a	-0.048032917
82	0xbd860d87	-0.06545549
83	0xbd3aaf07	-0.045577075
84	0x3e4c78e6	0.19967994
85	0xbd2a1b6f	-0.04153007
86	0x3d3dd041	0.046341185
87	0x3d98265b	0.07429191
88	0x3cb901ad	0.022583807
89	0x3c97c0fe	0.018524643
90	0xbd5f4786	-0.05451157
91	0xbd7832e9	-0.060595427
92	0xbd9cf7c9	-0.07664449
93	0x3b0cff8a	0.0021514618
94	0x3e0a2e48	0.13494217
95	0x3d0105ab	0.031499546
96	0xbd392a30	-0.04520625
97	0xbd1a3f1e	-0.03765785
98	0x3bc16c90	0.0059028342
99	0x3d074d5b	0.033032756
100	0xbd88558e	-0.06656943
101	0x3d1f4d87	0.038892295
102	0x3db0694f	0.08613836
103	0x3c9318b7	0.01795612
104	0x3bf67eda	0.007522446
105	0xbc6483a0	-0.0139473975
106	0x3d6a5670	0.05721134
107	0xbd0eacfe	-0.034832947
108	0xbd56cb46	-0.05243995
109	0xbd7c2085	-0.06155445
110	0xbd61b3a5	-0.055102963
111	0xbdadcc4a	-0.08486231
112	0xbddde5cb	-0.10834845
113	0x3c1110a8	0.008854069
114	0xbbe9e5d0	-0.0071379915
115	0xbe0e2a8b	-0.13883416
116	0xbc9184a2	-0.01776344
117	0xbddfde1c	-0.10931036
118	0x3c9e3267	0.019311143
119	0x3c08efe1	0.008357973
120	0xbe20d66a	-0.15706792
121	0xbdfc91cb	-0.12332495
122	0xbd5f4284	-0.054506794
123	0xbd99aa48	-0.07503182
124	0xbc9d8450	-0.01922813
125	0xbd44bb2f	-0.048030075
126	0xbd73f75e	-0.05956208
127	0xbc14efd8	-0.009090386
128	0xbda6e72b	-0.081495605
129	0xbe4a8e93	-0.1978095
130	0x3d7473e1	0.059680823
131	0xbd0cf121	-0.034409646
132	0xbe14ca70	-0.14530349
133	0x3d422141	0.047394995
134	0x3d37bd8e	0.044858508
135	0xbd6b7b78	-0.057490796
136	0xbdb17d8e	-0.08666526
137	0xbd99e102	-0.0751362
138	0x3b9101b6	0.004425253
139	0xbc74e851	-0.014947967
140	0xbd8b803b	-0.068115674
141	0xbdb61bc3	-0.08892014
142	0xbd853698	-0.065045536
143	0x3d93fac9	0.07225568
144	0x3bb5e870	0.0055513903
145	0xbd712e1c	-0.058881864
146	0xbd965c2d	-0.073418
147	0xbd0095ba	-0.03139279
148	0x3d418116	0.047242247
149	0xbddbf803	-0.10740664
150	0x3b1df03a	0.0024099485
151	0x3d282460	0.041050315
152	0xbcfcd789	-0.030864494
153	0xbd86c5cc	-0.065806955
154	0xbd2acd9f	-0.0417
155	0xbd230b0c	-0.039805457
156	0xbc32c25c	-0.010910597
157	0xbd9154a5	-0.07096223
158	0xbe1ca705	-0.15298088
159	0x3d50e13f	0.05099606
160	0x3b965784	0.0045880694
161	0xbe081c1d	-0.13291974
162	0x3c9a8607	0.018862737
163	0xbce39a81	-0.027783634
164	0xbdd1df6d	-0.10247693
165	0x3cdd9985	0.027050743
166	0xbcb2ad85	-0.021811256
167	0xbd5dd8c6	-0.05416181
168	0x3dc63dad	0.096797325
169	0x3b30b9c7	0.00269662
170	0x3cf2355c	0.02956646
171	0x3db22891	0.08699144
172	0xbdaf90ec	-0.085725635
173	0x3d61d34e	0.055133156
174	0x3d166236	0.036714755
175	0x3ca30091	0.019897731
176	0x3d45ae9b	0.04826222
177	0xba801081	-0.0009770544
178	0xbe439d97	-0.19103085
179	0xbb89085b	-0.0041819043
180	0x3d008909	0.031380687
181	0xbd1a3a14	-0.037653044
182	0xbe428f82	-0.19000056
183	0x3d823eff	0.06359672
184	0xbe654caa	-0.22392526
185	0xbdd765db	-0.10517474
186	0x3db252ac	0.08707175
187	0xbdb925fa	-0.090404466
188	0xbe3149b4	-0.17313272
189	0xbc296cd5	-0.010340889
190	0xbd3eafea	-0.046554483
191	0xbd96bfd1	-0.07360805
192	0xbb8f75ee	-0.004378072
193	0xbd7758a7	-0.06038728
194	0xbd6d1c11	-0.057888094
195	0x3e60429d	0.21900411
196	0xbd82de11	-0.06390012
197	0xbc95c724	-0.018283434
198	0x3d4d2268	0.05008164
199	0xbd073949	-0.033013616
200	0xbcd071ba	-0.025444854
201	0x3cbc58ad	0.022991503
202	0xbd0d0bae	-0.034434967
203	0xba67e947	-0.0008846712
204	0xbd463bf1	-0.04839701
205	0xbd8791bb	-0.06619593
206	0x3c4d4672	0.0125290025
207	0xbd946f11	-0.07247747
208	0x3d9b26be	0.07575749
209	0x3daf7065	0.085663594
210	0xbd3dd898	-0.046349138
211	0xbce8bf02	-0.028411392
212	0x3c9997b1	0.01874909
213	0xbd9a54a8	-0.07535678
214	0xbd97e58e	-0.07416831
215	0xbd18281b	-0.037147623
216	0xbd951460	-0.07279277
217	0xbe023cef	-0.12718557
218	0x3d6ed179	0.058305237
219	0x3c517922	0.012785228
220	0xbdc16fa6	-0.094451234
221	0xbd785aa2	-0.06063331
222	0xbc5b3f32	-0.013381766
223	0xbd49a026	-0.049224995
224	0xbc810474	-0.015749194
225	0xbe201587	-0.15633212
226	0x3dd51cc8	0.1040588
227	0xbc4d284d	-0.0125218155
228	0xbd993a47	-0.07481819
229	0x3dd5d145	0.104403056
230	0xbd6c5dc4	-0.05770661
231	0xbdc58c42	-0.09645893
232	0x3ca10e73	0.01966021
233	0xbd3050bd	-0.043045748
234	0x3cc9fd48	0.024656907
235	0xbe994dcc	-0.29942167
236	0xbcf4d552	-0.029886875
237	0x3d09c703	0.033637058
238	0xbeafedeb	-0.34361205
239	0xbd06b8cc	-0.03289108
240	0xbb3444e8	-0.0027506892
241	0xbe9cdd97	-0.3063781
242	0x3cf1d060	0.029518306
243	0x3dd9703a	0.10617109
244	0xbe35e77a	-0.17764083
245	0xbdd4162a	-0.1035579
246	0xbc291bc4	-0.010321561
247	0xbebd8763	-0.37017354
248	0xbe07ca27	-0.13260709
249	0x3d7749e4	0.060373202
250	0xbebf070d	-0.37310067
251	0xbe72ba08	-0.23703778
252	0xbd3c8059	-0.04602084
253	0x3d4581a7	0.04821935
254	0xbe6b9682	-0.23006633
255	0xbccea26a	-0.02522393

bias f4 [64]
0	0x3d8a20da	0.06744547
1	0x3d71f1bd	0.05906843
2	0xbd9a733f	-0.07541513
3	0xbc0900a5	-0.00836197
4	0xbd0e0465	-0.03467216
5	0x3c224ba0	0.009905726
6	0xbbd64be7	-0.00653981
7	0xbe078916	-0.13235888
8	0x3d280fea	0.0410308
9	0x3dd38741	0.10328532
10	0x3d2cf72d	0.042227913
11	0x3c416b0a	0.011805305
12	0xbbf3d5c1	-0.007441253
13	0xbd35461b	-0.04425631
14	0x3d5cb39c	0.053882226
15	0xbdcc3be7	-0.09972363
16	0xbc9ef476	-0.019403677
17	0x3d944a8e	0.07240783
18	0xbd5fb942	-0.054620035
19	0xbd93df3c	-0.07220313
20	0x3c528c2d	0.012850803
21	0xbd88a933	-0.06672897
22	0x3d4beae2	0.04978455
23	0x3cf48dbf	0.029852746
24	0x3dc3dd95	0.09563748
25	0x3cb89ec4	0.022536643
26	0x3c4dc690	0.012559548
27	0x3d9bc9e2	0.076068655
28	0xbd818a16	-0.06325166
29	0xbbff211d	-0.00778593
30	0xbd4f352a	-0.05058781
31	0x3cf0a307	0.029374612
32	0xbc347d99	-0.011016273
33	0xbd282a29	-0.041055832
34	0x3dc76717	0.0973646
35	0xbb96750c	-0.00459159
36	0xbd21615f	-0.0393995
37	0xbbe79d3e	-0.0070683053
38	0xbd85597a	-0.06511207
39	0x3b742b28	0.0037257168
40	0xbd6dbf7f	-0.058043953
41	0xbc945692	-0.018107686
42	0x3d431b54	0.047633484
43	0x3c0925ef	0.0083708605
44	0xbcaf0f58	-0.021369621
45	0x3ddb4e8b	0.1070834
46	0xbd6cfdbd	-0.05785917
47	0x3d8332c7	0.064061694
48	0x3d096476	0.033543073
49	0x3d2ee4dd	0.04269873
50	0x3d272c3f	0.04081368
51	0xbd66f3e4	-0.056384936
52	0x3d3c65dd	0.045995582
53	0x3dec5b2b	0.115408264
54	0x3e95be7c	0.2924689
55	0x3983b29c	0.0002511934
56	0x3b921b68	0.0044588335
57	0xbd68f7e0	-0.056877017
58	0xbcbd250f	-0.02308896
59	0x3d72d2a9	0.059282932
60	0xbd714172	-0.058900304
61	0xbde2c3b7	-0.11072486
62	0xbd2cef07	-0.04222014
63	0x3c8fc0d1	0.017547997

weight f4 [64, 64, 3, 3]
0	0xbcdefbca	-0.027219672
1	0x3b6d9954	0.003625472
2	0xbd8c05bc	-0.06837031
3	0x3d5b79b5	0.053582866
4	0xbdd6df02	-0.10491754
5	0xbd7fbb8f	-0.06243473
6	0xbddd8f71	-0.10818375
7	0x3c9c60a2	0.019089047
8	0x3ca15fd4	0.019699015
9	0x3d4b9298	0.04970035
10	0xbd457605	-0.048208255
11	0x3d367655	0.044546444
12	0xbcd9d539	-0.02659093
13	0xbc86a12d	-0.016434276
14	0xbdc3b11d	-0.09555266
15	0xbb3b9b2a	-0.002862642
16	0xbc5ae416	-0.013360044
17	0xbde6ac4e	-0.11263333
18	0xbd99f309	-0.075170584
19	0xbd1d7ffc	-0.038452134
20	0x3d908599	0.07056732
21	0xbd5c0a76	-0.053720914
22	0xbc425b8c	-0.011862647
23	0x3d39362d	0.04521768
24	0xbccff6c1	-0.025386216
25	0x3d3a5e62	0.045500167
26	0xbd587792	-0.052848406
27	0x3ba53d41	0.0050427024
28	0xbd2fb531	-0.042897407
29	0x3c909295	0.01764802
30	0xbd6e4572	-0.058171697
31	0xbc84e70c	-0.016223453
32	0x3d641698	0.05568561
33	0x3d759191	0.059953276
34	0xbd81596d	-0.06315885
35	0xbd165f75	-0.03671213
36	0x3ad488b7	0.0016215061
37	0x3c0d1f2e	0.008613391
38	0xbc4b5405	-0.012410169
39	0xbce2de1a	-0.027693797
40	0xbd152977	-0.036416497
41	0xbd99df24	-0.07513264
42	0xbd29bdde	-0.041440837
43	0xbc7e3953	-0.015516597
44	0xbcb0fee2	-0.021605913
45	0x3cdaaaa3	0.026692694
46	0x3c68f64f	0.014218881
47	0xbd312263	-0.043245684
48	0x3cbc84cf	0.023012547
49	0xb7b9ebb7	-2.2163482e-05
50	0x3c5bf111	0.013424174
51	0xbd9c24fd	-0.076242425
52	0xbd351814	-0.044212416
53	0xbdf240c7	-0.118287615
54	0xbcb5d512	-0.022196326
55	0x3d128689	0.035772834
56	0xbcfba6a0	-0.030719101
57	0xbdddf45d	-0.10837624
58	0xbd84523f	-0.06461
59	0x3dc1c5f3	0.09461584
60	0x3d889b6c	0.06670269
61	0xbbb13ee4	-0.0054091085
62	0xbd02bc4a	-0.031917848
63	0xbb1c3046	-0.0023832484
64	0xbde97f70	-0.1140126
65	0x3cbdee0b	0.023184797
66	0x3c82bb9d	0.015958602
67	0x3c1dad5d	0.009623853
68	0xbb918e93	-0.004442045
69	0xbd48f3a4	-0.04906048
70	0x3c450230	0.012024447
71	0xbdac5d1e	-0.08416198
72	0xbd3fd0d1	-0.046830002
73	0xbe020d9e	-0.12700507
74	0xbe10b9ef	-0.14133428
75	0xbe1f541b	-0.15559427
76	0x3c3938ac	0.0113050155
77	0xbdebeb8f	-0.115195386
78	0xbd120a54	-0.03565438
79	0xbbc15fed	-0.005901328
80	0xbc5f079d	-0.013612655
81	0x3dbd690d	0.092485525
82	0xbb214fdf	-0.0024614257
83	0x3be1026d	0.0068667443
84	0xbd75124f	-0.059831914
85	0x3b2594f8	0.0025265794
86	0xbc833705	-0.016017446
87	0xbd39e9a5	-0.045388836
88	0xbc8b83cc	-0.01703062
89	0xbdaf1fec	-0.085510105
90	0x3d01a0ce	0.031647496
91	0xbc997b44	-0.018735535
92	0xbe0be6f7	-0.13662325
93	0x3ce1af3a	0.027549375
94	0xbe62fe8f	-0.22167419
95	0xbda6f1e4	-0.08151606
96	0xbdf71357	-0.12064236
97	0x3d112680	0.035437107
98	0xbd0ddd07	-0.034634616
99	0x3d1bca6a	0.038034834
100	0xbc4bb78d	-0.012433899
101	0xbddb8a49	-0.10719735
102	0x3c806152	0.015671406
103	0x3b803c3f	0.003913432
104	0xbd1d925f	-0.03846967
105	0xbb997bc4	-0.0046839435
106	0xbb92724f	-0.004469193
107	0xbd0a9612	-0.033834524
108	0xbd8a30c9	-0.06747586
109	0xbcc552de	-0.024087366
110	0x3d604ac3	0.0547588
111	0xbda0ca2c	-0.07851061
112	0xbdca04b4	-0.09864178
113	0xbd9898de	-0.07451032
114	0xbc89d33c	-0.016824357
115	0xbd6afba6	-0.057368897
116	0xbd60bfbd	-0.054870356
117	0xbc94ef70	-0.018180579
118	0x3d3709e1	0.044687156
119	0xbd3580e2	-0.044312365
120	0xbd96547f	-0.07340335
121	0x3cb5ed23	0.022207802
122	0xbd8e8068	-0.06958085
123	0xbc57a5a6	-0.013162052
124	0xbd61c3ef	-0.055118497
125	0xbdbb0284	-0.09131339
126	0xbe1dd6ab	-0.1541392
127	0xbb8ec3dd	-0.004356845
128	0x3d10012b	0.035157364
129	0x3da1da8a	0.07903011
130	0xbe06264f	-0.13100551
131	0x3d0c52a6	0.034258507
132	0xbde7485d	-0.11293099
133	0xbd8a9de7	-0.06768399
134	0xbdae6950	-0.085161805
135	0xbd58faf8	-0.052973717
136	0x3d9902ce	0.07471238
137	0x3d4535d2	0.04814703
138	0xbae6c7b9	-0.0017607129
139	0xbcc5915b	-0.024117162
140	0xbda64938	-0.08119434
141	0xbdca13ec	-0.09867081
142	0x3d555891	0.052086417
143	0xbe3abd38	-0.18236244
144	0x3d97076d	0.07374463
145	0xbda05472	-0.07828607
146	0x3d85e80a	0.065383986
147	0x3cfbf4e5	0.030756423
148	0xbd54c4a0	-0.05194533
149	0xbc80037a	-0.015626658
150	0xbd0d0294	-0.034426287
151	0xbc9dcf43	-0.01926387
152	0xbcc71c87	-0.024305595
153	0xbd858f3c	-0.065214604
154	0xbddac8b9	-0.10682816
155	0xbe035543	-0.12825494
156	0xbde35bb7	-0.111014776
157	0xbdca2726	-0.09870748
158	0x3b13a3c3	0.002252803
159	0x3d298dea	0.041395105
160	0x3db86922	0.090044275
161	0x3c6e38fe	0.014539955
162	0xbd9dd7b6	-0.07707159
163	0x3d323b0e	0.04351335
164	0xbd855e02	-0.06512071
165	0x3dbc004b	0.091797434
166	0xbbab5974	-0.0052291695
167	0x3bac9597	0.005266856
168	0x3db824ee	0.08991419
169	0x3d419df1	0.047269765
170	0x3da6947e	0.081337914
171	0xbccc9299	-0.024972247
172	0x3d6b13b1	0.057391826
173	0xbe2ed471	-0.17073227
174	0xbd22ffd3	-0.039794754
175	0xbdd29851	-0.10282958
176	0x3c18b6ed	0.009320957
177	0x3d815d7a	0.06316657
178	0xbc9fcf43	-0.01950801
179	0x3d21f7d5	0.03954299
180	0xbda08641	-0.07838107
181	0xbcb7ebce	-0.022451308
182	0xbd33091a	-0.04370985
183	0xbd2ea884	-0.042641178
184	0xbc54b89a	-0.012983466
185	0xbd8ec8ae	-0.0697187
186	0x3d6b4109	0.05743507
187	0xbd8c9c30	-0.06865728
188	0xbb7bb22f	-0.0038405766
189	0x3cc35bb4	0.023847438
190	0xbbd4e5a5	-0.0064971023
191	0xbd41cbd0	-0.04731351
192	0xbc5d154c	-0.013493847
193	0x3d1354e6	0.035969637
194	0x3e065e2e	0.13121864
195	0xbdb0c3e4	-0.08631113
196	0x3d38a3a8	0.04507795
197	0x3db5aeb2	0.08871211
198	0x3d3bb18d	0.045823622
199	0x3b9c6e57	0.0047738957
200	0x3d0a4ef0	0.033766687
201	0xbc953e0d	-0.018218065
202	0xbd2bf371	-0.04198021
203	0xbd756ef2	-0.05992026
204	0x3dc086ee	0.09400736
205	0x3d02cddb	0.0319346
206	0x3cccdbb6	0.02500711
207	0xbdf99979	-0.12187476
208	0x3d0681f6	0.032838784
209	0xbe0c91c0	-0.13727474
210	0x3e113d93	0.14183645
211	0xbc2673d3	-0.010159451
212	0xbbed0d30	-0.007234238
213	0x3db9b53b	0.0906777
214	0x3e0e2232	0.13880232
215	0x3d30fd62	0.043210395
216	0xbcb963b0	-0.022630543
217	0x3b846940	0.004040867
218	0xbd21d734	-0.039511874
219	0x3d16a7e8	0.03678122
220	0xbda92d1a	-0.082605556
221	0xbdf84dc6	-0.12124209
222	0xbc8c8b6a	-0.017156322
223	0xbcf65964	-0.030071922
224	0xbd83a230	-0.06427419
225	0xbca94199	-0.020661162
226	0xbe012e5e	-0.12615344
227	0x3d8d9338	0.069128454
228	0xbd61c635	-0.055120666
229	0x3bc66199	0.006054115
230	0xbc87631f	-0.016526757
231	0x3de557c7	0.11198383
232	0x3d1cefa9	0.038314495
233	0xbdb16883	-0.08662512
234	0xbd37ada1	-0.04484332
235	0xbd3d568d	-0.04622512
236	0xbcf9230c	-0.03041222
237	0xbda726f3	-0.08161726
238	0xbc8a355d	-0.016871149
239	0xbd18de4a	-0.037321366
240	0x3c5eb2f9	0.013592475
241	0xbdcc010b	-0.099611364
242	0x3d57361e	0.052541845
243	0xbc894468	-0.016756251
244	0xbc205745	-0.009786432
245	0xbc418490	-0.0118113905
246	0xbd563e53	-0.05230553
247	0xbcd68be9	-0.026189761
248	0xbd726746	-0.05918052
249	0x3a7bf1f2	0.0009610943
250	0xbe608a66	-0.21927795
251	0xbdf73e2f	-0.120724075
252	0xb9888ec7	-0.0002604632
253	0xbd880e36	-0.066433355
254	0xbdb55b58	-0.08855313
255	0xbdc3cdf7	-0.09560769

bias f4 [64]
0	0xbd009b23	-0.03139795
1	0x3a028cfc	0.0004980115
2	0xbd632eae	-0.05546444
3	0xbd7e2dfe	-0.06205558
4	0xbd707445	-0.058704633
5	0xbe18cabc	-0.14921087
6	0x3c5d643a	0.013512665
7	0x3b5d0f8b	0.0033731188
8	0xbbfb5ff1	-0.007671349
9	0xbcd55728	-0.026042536
10	0xbc6a387e	-0.014295695
11	0xbd24dd7b	-0.040250283
12	0xbce0fc04	-0.02746392
13	0xbcafbb4b	-0.021451613
14	0xbc8e91e1	-0.017403545
15	0x3b3ca25f	0.0028783304
16	0xbd8c5019	-0.06851215
17	0x3cf1d83b	0.029522052
18	0xba3e3aeb	-0.0007256704
19	0xbd1d3617	-0.038381662
20	0xbc725a3f	-0.014792024
21	0xbd827ac2	-0.063710704
22	0xbd0e0664	-0.034674063
23	0x3c4b2133	0.012398052
24	0x3b9a0e16	0.004701386
25	0xbc3d5d57	-0.0115578985
26	0xbda56f75	-0.08077899
27	0xbc603cbb	-0.013686354
28	0xbd16c3f3	-0.036807965
29	0xbd0edc8b	-0.034878295
30	0x3ce9610b	0.028488657
31	0x3d2058c2	0.039147146
32	0xbd2aab08	-0.041667014
33	0xbc95d3bc	-0.01828944
34	0xbd84a48c	-0.06476697
35	0xbd99e26e	-0.07513891
36	0xbd54743b	-0.05186866
37	0x3ca0165d	0.019541914
38	0xbb936de9	-0.0044991863
39	0xbc7cf38e	-0.015438927
40	0xbcf175a7	-0.029475046
41	0x3bbf9086	0.005846086
42	0xbcdd9f6b	-0.027053555
43	0x3da56e3e	0.08077668
44	0x3ce82205	0.028336534
45	0x3d75c895	0.060005743
46	0xbd7e26ae	-0.062048607
47	0x3c8e1913	0.01734594
48	0xbd387898	-0.045036882
49	0xbcd589ce	-0.026066687
50	0xbd5d612e	-0.054047756
51	0x3e3a2c25	0.18180902
52	0xbd8db613	-0.069194935
53	0xbd18725d	-0.03721844
54	0xbd5e3dd3	-0.05425818
55	0xbc28ea17	-0.010309718
56	0x3d5606c5	0.05225255
57	0x3cea38cd	0.028591538
58	0xbd85d3f3	-0.06534567
59	0xbd832858	-0.06404179
60	0xbd3c1b2a	-0.045924343
61	0xbd14685a	-0.03623233
62	0xbd57ad38	-0.05265543
63	0x3bb0f86a	0.005400707

weight f4 [12, 64, 3, 3]
0	0x3e63d163	0.22247843
1	0xbbc2fafb	-0.0059503294
2	0x3c7dc764	0.015489433
3	0x3e40881e	0.18801925
4	0x3e00b5bd	0.12569328
5	0x3d88d62e	0.066814765
6	0x3e264acc	0.1623947
7	0x3d1d8f34	0.038466647
8	0xbc4d11ae	-0.012516422
9	0xbd93d676	-0.072186396
10	0x3bb68a28	0.0055706687
11	0x3c16157d	0.009160397
12	0xbd247dfa	-0.040159203
13	0x3d4f183f	0.050560232
14	0xbb68dac6	-0.003553079
15	0x3c93f587	0.018061412
16	0x3caf9eed	0.021438086
17	0x3ac84af5	0.0015281128
18	0xbc9901f4	-0.01867769
19	0xbaf15daf	-0.0018414761
20	0xbcbb07bc	-0.022830836
21	0x3c5790cc	0.013157081
22	0x3cf53c8a	0.029936094
23	0x3c7b3d0b	0.015334378
24	0xbd2654b2	-0.040608115
25	0xbbdb5818	-0.006693851
26	0x3b047e07	0.002021672
27	0x3c8b6c99	0.017019557
28	0xbcfd69c3	-0.03093422
29	0xbd3fcb76	-0.046824895
30	0x3e724db0	0.23662448
31	0x3e21dd75	0.15807135
32	0x3e16920e	0.14704153
33	0xbd86bb11	-0.06578649
34	0xbe75e18c	-0.2401182
35	0x3f34cb11	0.70622355
36	0x3d9e7681	0.077374466
37	0xbb4dcf8f	-0.0031404232
38	0xbc943001	-0.018089296
39	0x3d14b026	0.0363008
40	0x3d0cfec8	0.034422666
41	0xbd71e1dc	-0.059053287
42	0x3c442aac	0.011973064
43	0xbd29ae2e	-0.041425876
44	0xbcfb00f9	-0.030640112
45	0xbbce4cee	-0.006295792
46	0x3bde0b6e	0.006776265
47	0xbb076853	-0.0020661547
48	0xbbccdaa1	-0.0062516485
49	0x3d56a7e4	0.052406207
50	0xbbec4c53	-0.007211247
51	0x3a1db26b	0.0006015661
52	0xbda759a1	-0.08171392
53	0xbb72b3da	-0.003703347
54	0xbce98488	-0.028505579
55	0xbdda1ba2	-0.10649802
56	0x3bbb79d6	0.005721311
57	0xbde5d027	-0.112213425
58	0xbdb8ea18	-0.09029025
59	0xbe47affe	-0.1950073
60	0x3dac1d55	0.08404032
61	0xbd4afac0	-0.04955554
62	0xbdb75513	-0.089517735
63	0xbc015a28	-0.00789503
64	0x3c0b1f48	0.008491345
65	0xbc68528c	-0.014179837
66	0x3ceca221	0.028885903
67	0x3b3eb00a	0.0029096627
68	0xbd7c1080	-0.061539173
69	0x3b7de92d	0.003874372
70	0xbc00effa	-0.007869715
71	0x3c8835bf	0.01662719
72	0xbd5cec56	-0.053936325
73	0xbd06e2d3	-0.03293116
74	0xbcbdccab	-0.023168882
75	0x3dc493cb	0.09598502
76	0x3c256cda	0.010096753
77	0xbca9f459	-0.020746397
78	0x3dc63f4f	0.09680044
79	0xbd02a0aa	-0.031891502
80	0xbb051c91	-0.0020311216
81	0x3d35ce1e	0.04438602
82	0xbd89a094	-0.06720081
83	0xbc9a749d	-0.018854434
84	0xbd584d61	-0.05280817
85	0x3d991d55	0.07476298
86	0xbd3c0575	-0.04590364
87	0x3d1bcaf4	0.038035348
88	0x3bc2c907	0.0059443745
89	0x3cf5e172	0.030014727
90	0x3db74451	0.08948577
91	0x3c091b51	0.008368329
92	0xbd815ead	-0.06316886
93	0xbce2b5e9	-0.027674632
94	0xbcb0677d	-0.021533722
95	0x3c377dba	0.011199409
96	0xbc395156	-0.011310896
97	0x3c75547b	0.014973755
98	0xbc66417d	-0.0140537
99	0x3cdbbdcc	0.0268239
100	0x3e9482c4	0.29006016
101	0xbda9fe06	-0.08300404
102	0xbd77b91a	-0.06047926
103	0xbcd6066c	-0.026126109
104	0x3d3a28c0	0.04544902
105	0x3d33c5d5	0.04388984
106	0xbced0ceb	-0.028936824
107	0x3cf14a5b	0.0294544
108	0xbbe93a3d	-0.0071175382
109	0xbd698292	-0.057009287
110	0xbd558bca	-0.052135266
111	0x3cd6f266	0.026238631
112	0x3bcec938	0.0063106082
113	0x3ccd0055	0.025024572
114	0x3c9e1135	0.019295314
115	0x3d4f84c8	0.05066374
116	0xbcfd27ac	-0.030902706
117	0x3d5c3bd1	0.053767983
118	0x3c27ba0f	0.010237231
119	0xbae3d3ae	-0.0017381811
120	0x3d471633	0.048605155
121	0x3d59ab77	0.053142037
122	0xbd129479	-0.035786126
123	0xbbf9112e	-0.007600925
124	0xbcddd868	-0.02708073
125	0xbd957d6f	-0.07299315
126	0xbd310462	-0.04321707
127	0x3d649c7e	0.055813305
128	0x3d43ab9a	0.047771074
129	0xbdb4a24b	-0.088200174
130	0xbd1f5f4c	-0.03890924
131	0x3d8aead6	0.06783073
132	0xbbedf6bc	-0.007262079
133	0x3cde4022	0.02713019
134	0x3d0223c3	0.031772386
135	0xbbb1bbe8	-0.0054240115
136	0xba887e31	-0.0010413585
137	0xbb4f3deb	-0.00316226
138	0x3d8ccb28	0.068746865
139	0x3cf46bef	0.029836623
140	0xbce309a8	-0.027714565
141	0xb9fd40ad	-0.00048304108
142	0x3c0df351	0.008663968
143	0xbabb71d2	-0.0014300889
144	0xbbde5452	-0.006784954
145	0x3dac84b5	0.08423749
146	0xbd7b59ac	-0.061364815
147	0x3d66377c	0.056205258
148	0x3d754e06	0.059888862
149	0xbd0e1874	-0.03469129
150	0x3ce45d08	0.027876392
151	0xbce40209	-0.027833002
152	0xbcbcf45d	-0.02306574
153	0x3ca6d47a	0.020364989
154	0xbd06a8ea	-0.032875933
155	0x3cac9b35	0.021070102
156	0xbab0bc7b	-0.0013483906
157	0x3ab4f134	0.0013804794
158	0xbccd4d35	-0.02506123
159	0x3c2f4254	0.010696966
160	0xbc6952c4	-0.014240924
161	0x3c925791	0.01786402
162	0xbb37879f	-0.002800442
163	0xbbb57fa3	-0.005538897
164	0xbb809bd0	-0.0039248243
165	0x3c6af967	0.014341689
166	0x3cdcad7c	0.026938193
167	0xbc348ae1	-0.011019439
168	0x3b5793ee	0.003289457
169	0xbc4695dd	-0.012120691
170	0xbbd2e464	-0.0064359177
171	0xbc4342db	-0.011917795
172	0x3d7de6da	0.061987735
173	0xbc174ff8	-0.009235375
174	0x3c827fa1	0.015929999
175	0xbdbd6009	-0.09246833
176	0xbcbc7e4c	-0.023009442
177	0xbc65d4a8	-0.014027752
178	0x3db9254f	0.09040319
179	0xbccdea33	-0.025136089
180	0x3be217aa	0.0068997936
181	0x3d2b8ed3	0.041884255
182	0xbbcecb07	-0.006310824
183	0xbc521a2b	-0.012823622
184	0xbd6ecdc8	-0.058301717
185	0x3bc805cb	0.006104206
186	0xbca06a86	-0.019582044
187	0x3ccae892	0.024769101
188	0xbbf2436c	-0.007393291
189	0x3cb57045	0.02214826
190	0x3c76e6c5	0.015069668
191	0xbab9e53e	-0.0014182699
192	0x3ccdcbdc	0.025121622
193	0xbd4f1621	-0.050558213
194	0x3c56deb3	0.013114619
195	0x3b47699a	0.0030427934
196	0x3bf9836f	0.007614545
197	0x3b08a16f	0.0020848175
198	0x3d4ea131	0.050446693
199	0x3e1c8f37	0.15289007
200	0xbe5ce22a	-0.2157065
201	0x3d11c092	0.03558404
202	0x3daf4672	0.08558358
203	0x3cb85b75	0.022504548
204	0xbd4a79cd	-0.049432565
205	0x3e2041e1	0.15650131
206	0xbde49ebb	-0.11163088
207	0xbcfa1771	-0.030528756
208	0x3cf07cb7	0.029356344
209	0xbc7f311c	-0.015575673
210	0xbd2ff469	-0.042957697
211	0xbc5d5e89	-0.0135113085
212	0x3b18fe7a	0.002334504
213	0x3c94ce88	0.018164888
214	0xbdc3ce9d	-0.09560893
215	0x3d6c0eb1	0.0576312
216	0xbbbe07b1	-0.0057992567
217	0xbaf56d09	-0.0018724512
218	0xbc6fc73e	-0.014634905
219	0x3ca6ebe4	0.020376153
220	0xbc9f7998	-0.01946716
221	0xbcc42f0c	-0.023948215
222	0xbc7d63ea	-0.015465716
223	0x3d66e02e	0.05636614
224	0xbc5d9bcc	-0.013525914
225	0x3c071382	0.008244397
226	0xbd2be240	-0.041963816
227	0xbc9ac8c4	-0.01889456
228	0x3b88818d	0.0041658343
229	0x3d0807d4	0.03321059
230	0x3dba1a62	0.09087063
231	0xbca2baa0	-0.01986438
232	0xbd743ed3	-0.059630226
233	0xbd032f75	-0.03202768
234	0xbd937387	-0.071997695
235	0xbd31fa60	-0.043451667
236	0xbd0f47ea	-0.034980692
237	0x3ca241f6	0.019806843
238	0x3d3fd84e	0.046837144
239	0x3c2a2789	0.0103854025
240	0xbb9c5648	-0.0047710277
241	0x3d41d4d5	0.047322113
242	0x3c4f721a	0.012661481
243	0xbd10bcdf	-0.03533637
244	0x3d8a95fc	0.067668885
245	0xbcf9d8e3	-0.030498927
246	0x3d0751cb	0.03303699
247	0x3ca14a55	0.019688765
248	0x3c8337a9	0.016017752
249	0xbd20015a	-0.03906379
250	0x3b513f28	0.0031928513
251	0xbc68852d	-0.014191908
252	0x39a9f15b	0.00032414016
253	0x3bab9602	0.005236388
254	0x3d7711e5	0.0603198
255	0xbcf1d59a	-0.029520798

bias f4 [12]
0	0xba33d238	-0.0006859633
1	0xbbbf03e2	-0.0058293203
2	0x3bc054e9	0.005869497
3	0xbc0b7328	-0.008511342
4	0x3b46c464	0.003032946
5	0x3be00031	0.0068359603
6	0x3c37f693	0.0112282215
7	0xba3eb225	-0.00072744704
8	0x3c40fea4	0.011779461
9	0x3c0e9e33	0.00870471
10	0x3c7e24a7	0.015511668
11	0x3c0b52e3	0.008503648
