train_weight_sr5/model_epoch_11.pth (torch_old, 667646 bytes, 10 tensors)

weight f4 [12, 3, 13, 13]
0	0xbbe1000b	-0.00686646
1	0xbdd2b03e	-0.10287522
2	0x3d1fa397	0.03897437
3	0x3bea8990	0.007157512
4	0xbd53998a	-0.051660098
5	0xbd843cfc	-0.06456944
6	0x3d0c3e0e	0.034238867
7	0x3d4be196	0.049775682
8	0xbdeebbb2	-0.11656894
9	0x3de86d3a	0.11348958
10	0xbd184305	-0.03717329
11	0xbc7c8a56	-0.015413841
12	0xbc3906f3	-0.011293161
13	0x3a9acb64	0.0011809883
14	0xbdc8fa56	-0.09813373
15	0xbd22ae89	-0.03971723
16	0xbceba157	-0.028763456
17	0x3dc5782c	0.096420616
18	0x3d652025	0.05593886
19	0x3d5f89b9	0.054574702
20	0xbd977679	-0.07395644
21	0xbce79c6a	-0.028272826
22	0xbcf384da	-0.029726434
23	0xbcda13f1	-0.026620837
24	0xbc9d1075	-0.019172886
25	0xbb689222	-0.0035487493
26	0xbdb1d3ab	-0.086829506
27	0xbdb5991c	-0.08867094
28	0x3d8d2c7d	0.06893251
29	0x3d83d327	0.064367585
30	0xbce2eb58	-0.027700111
31	0xbd4a9e53	-0.049467396
32	0x3d4395bf	0.04775023
33	0xbb83b665	-0.004019546
34	0xbcd47317	-0.025933785
35	0x3dbb5ff7	0.09149163
36	0x3ce4a547	0.027910842
37	0xbce22039	-0.027603256
38	0x3cd24e03	0.025671965
39	0xbccb9cf3	-0.024855113
40	0xbe0547b3	-0.13015632
41	0xbd70409a	-0.05865536
42	0xbc7d8d47	-0.015475578
43	0x3c466c96	0.01211085
44	0x3d7a5426	0.061115406
45	0xbd777b38	-0.060420245
46	0xbe08cb73	-0.1335886
47	0xbd25089f	-0.040291425
48	0xbdb898cd	-0.090135194
49	0x3d324a89	0.043528114
50	0x3d2b3bb2	0.041804977
51	0xbdb84cc4	-0.08999017
52	0xbdc1c9fe	-0.09462355
53	0x3d57a26a	0.052645124
54	0xbd4e424e	-0.0503562
55	0xbdbb79cb	-0.091540895
56	0xbde9b999	-0.11412353
57	0x3dc20465	0.094734944
58	0xbd56f71d	-0.05248176
59	0x3aa3310d	0.0012450531
60	0x3c0bd1dc	0.008533921
61	0xbc42b05d	-0.011882869
62	0xbd19c524	-0.037541524
63	0xbd30a960	-0.04313028
64	0x3d375588	0.044759303
65	0x3cea1762	0.028575603
66	0x39f15cf4	0.00046036358
67	0x3d850e7a	0.06496902
68	0xbc51c0f3	-0.01280235
69	0xbcfb7531	-0.03069553
70	0x3d93305a	0.07186957
71	0xbd901582	-0.07035352
72	0x3dbce042	0.09222461
73	0xbd9431ad	-0.072360374
74	0xbd873fb3	-0.066039465
75	0x3caa7556	0.020807903
76	0xbcbaf1c5	-0.022820363
77	0xbc233194	-0.009960551
78	0xbd0557a1	-0.032554273
79	0xbb83e83d	-0.0040254877
80	0xbe8055d9	-0.25065497
81	0xbe2519c5	-0.16123112
82	0xbe22036a	-0.15821615
83	0xbd13dc6c	-0.036098883
84	0xbd72b419	-0.059253786
85	0xbd4233c7	-0.04741266
86	0x3c2a67d6	0.010400733
87	0xbd061c69	-0.032741938
88	0x3dbf2a00	0.09334183
89	0x3d2e7773	0.042594384
90	0x3d868fcf	0.06570398
91	0x3d3977fc	0.04528044
92	0x3d927611	0.07151426
93	0x3ddbd926	0.10734777
94	0x3e09ca6d	0.13456126
95	0xbd516a55	-0.051126797
96	0x3bac4f32	0.0052584643
97	0x3c659e01	0.014014722
98	0xbd6763a0	-0.056491494
99	0xbd3bdec0	-0.045866728
100	0xbe144e21	-0.14482929
101	0xbd6dace3	-0.058026206
102	0xbe0b165c	-0.13582748
103	0xbc2164d6	-0.009850701
104	0xbdd428f1	-0.103593715
105	0xbafb68bc	-0.0019180994
106	0x3d180d9f	0.037122365
107	0xbcc1bfb2	-0.023650978
108	0x3d676206	0.056489967
109	0xbb170866	-0.0023045777
110	0x3d3a7116	0.045518003
111	0x3e182cc4	0.14860827
112	0x3b47517c	0.0030413559
113	0x3e0bf38c	0.13667125
114	0xbd881917	-0.066454105
115	0x3d7a71c8	0.061143667
116	0x3c517dea	0.012786368
117	0x3dd5f280	0.10446644
118	0xbe20eba4	-0.1571489
119	0xba2af118	-0.0006520911
120	0xbdb8da20	-0.09025979
121	0xbe8afdd1	-0.27146772
122	0xbdb65dfa	-0.08904643
123	0xbdd9c312	-0.1063291
124	0xbe07650d	-0.13222142
125	0xbb8107df	-0.003937706
126	0xbc8d58db	-0.017254284
127	0x3d26338b	0.0405765
128	0xbce930a1	-0.02846557
129	0x3d5b1134	0.053483203
130	0xbda5f045	-0.081024684
131	0xbd9db512	-0.07700552
132	0xbca1d127	-0.019753052
133	0x3dd55b9a	0.10417862
134	0xbd61caee	-0.05512517
135	0x3cc8f52d	0.024530971
136	0xbdb500c3	-0.08838036
137	0x3cc55cb5	0.024092058
138	0xbe05ee4c	-0.13079184
139	0xbd98240a	-0.07428749
140	0xbd895ee9	-0.06707556
141	0xbd7d67c3	-0.061866533
142	0xbe07d1fd	-0.13263698
143	0x3c8293b8	0.015939578
144	0xbb85eadf	-0.0040868367
145	0xbc131ded	-0.008979303
146	0xbdd1035d	-0.102057196
147	0xbd050c6f	-0.03248256
148	0x3dad68cd	0.08467255
149	0x3d97d3dc	0.07413456
150	0x3d89d863	0.067307256
151	0xbd87176c	-0.06596264
152	0xba248872	-0.00062764355
153	0x3ad4f5e3	0.0016247596
154	0x3c4b6c72	0.012415992
155	0xbdc13ba4	-0.09435204
156	0xbdcf2901	-0.10115243
157	0xbd702dc4	-0.058637396
158	0xbdfd3564	-0.12363699
159	0xbd9e5d8a	-0.07732685
160	0x3d29cc97	0.041454878
161	0xbda1e743	-0.07905438
162	0xbdff0618	-0.12452334
163	0x3c60aa02	0.013712408
164	0xbd2bd3db	-0.041950088
165	0x3b94f8c3	0.0045462563
166	0x3d06218f	0.032746848
167	0xbd7bdc08	-0.061489135
168	0xbc7ebf22	-0.015548499
169	0x3cc7cbd6	0.024389189
170	0xbd339379	-0.043841813
171	0xbcbafc75	-0.022825459
172	0x3d41eb78	0.0473437
173	0xbc95ed25	-0.018301556
174	0x3d59bbf0	0.053157747
175	0xbd9a6229	-0.07538254
176	0x3d6897e9	0.056785498
177	0x3bf65a4a	0.0075180875
178	0xbcf52acb	-0.029927632
179	0xbd16de49	-0.03683308
180	0x3d025a4d	0.0318244
181	0x3d049402	0.032367714
182	0x3dd76d87	0.105189376
183	0xbdc07b85	-0.093985595
184	0x3e09691e	0.13419005
185	0xbc6b6ebb	-0.014369662
186	0x3c49e102	0.012321712
187	0xbd8f6127	-0.07000952
188	0xbd47a027	-0.048736718
189	0xbd550d3e	-0.05201458
190	0x3d39bcdb	0.045346122
191	0x3ce2d83d	0.027691001
192	0x3da2db25	0.07951955
193	0xbd98bc05	-0.07457737
194	0x3bc66064	0.006053971
195	0xbcf124d0	-0.029436499
196	0x3dc8a7e6	0.09797649
197	0xbd9d757b	-0.07688423
198	0xbe03fecd	-0.12890168
199	0xbdbc49ea	-0.091937855
200	0x3d88c99a	0.066790774
201	0xbced8e24	-0.028998442
202	0x3d747a2c	0.059686825
203	0x3c228cb6	0.009921243
204	0xbd0b1388	-0.033954173
205	0xbcd56fea	-0.026054341
206	0x3d0aac43	0.033855688
207	0xbc185468	-0.009297468
208	0x3d25b712	0.040457793
209	0xbc5989cf	-0.013277485
210	0x3d9eb717	0.07749765
211	0x3dcd5f79	0.100279756
212	0xbc33d7de	-0.01097676
213	0xbd362f25	-0.044478554
214	0xbcf862b8	-0.03032051
215	0x3cb2c640	0.021823049
216	0xbbfa00ed	-0.007629505
217	0x3d8bec67	0.068321995
218	0xbd815303	-0.06314661
219	0xbe02de91	-0.12780215
220	0x3d48a81c	0.048988447
221	0x3df253be	0.11832379
222	0xbda21a4e	-0.079151735
223	0xbd9a55e5	-0.07535914
224	0xbca5aabb	-0.020223012
225	0xbc8ab9e1	-0.016934337
226	0x3cb73cba	0.022367824
227	0xbe093c3f	-0.13401888
228	0x3d093fe4	0.033508196
229	0xbc3fe806	-0.011713034
230	0x3d50f85f	0.051018115
231	0xbd7b75fb	-0.06139181
232	0x3d50f513	0.05101497
233	0x3d20b5fd	0.039236058
234	0xbd129fb6	-0.035796843
235	0x3d576954	0.052590683
236	0xbd426a17	-0.047464456
237	0x3dbd84d2	0.09253849
238	0xbcfe8bec	-0.03107258
239	0x3d36317d	0.04448079
240	0x3cf3e634	0.029772855
241	0x3d1ade9c	0.037809953
242	0xbcea5fe3	-0.028610175
243	0x3d84b2f5	0.06479446
244	0x3cd0d089	0.025490062
245	0xbd42bdc4	-0.047544256
246	0xbc5bf6ae	-0.013425512
247	0xbda042b9	-0.07825226
248	0xbe5f6973	-0.2181757
249	0xbe777185	-0.24164398
250	0xbd89344c	-0.06699428
251	0xbd597d63	-0.053098094
252	0xbc50bc6e	-0.012740238
253	0xbdd5385d	-0.10411141
254	0xbccee1f5	-0.02525423
255	0x3dc12c09	0.09432227

weight f4 [64, 12, 7, 7]
0	0xbd906764	-0.0705097
1	0xbe29b597	-0.16573177
2	0x3cf240a3	0.029571837
3	0x3da63c3a	0.08116956
4	0xbcd6dc36	-0.026228052
5	0xbd2c969f	-0.04213583
6	0xbd90620a	-0.070499495
7	0x3d8af98c	0.067858785
8	0xbde5abe8	-0.11214429
9	0xbd7b276a	-0.061316885
10	0xbdbff4cc	-0.09372863
11	0xbcd6b401	-0.02620888
12	0xbd0f5127	-0.034989502
13	0x3cee89f4	0.029118516
14	0x3cd77309	0.02629997
15	0x3dc9922b	0.098423325
16	0xbc72de80	-0.014823556
17	0xbe02633f	-0.12733172
18	0xbe3fdffd	-0.18737788
19	0x3ba11616	0.004915963
20	0xbd29cff5	-0.04145809
21	0xbda07f9d	-0.0783684
22	0xbbf95d74	-0.0076100174
23	0x3c85adfd	0.016318316
24	0x3dbf2dcb	0.09334906
25	0x3d18d5d9	0.037313316
26	0x3c963ce3	0.01833958
27	0xbe3664a8	-0.17811835
28	0xbd6cf051	-0.05784637
29	0xbca298bc	-0.01984822
30	0x3b945962	0.004527257
31	0xbd8969bf	-0.067096226
32	0xbd365429	-0.044513855
33	0x3d1be4a5	0.03805985
34	0xbd0605a1	-0.032720212
35	0x3d315687	0.04329541
36	0xbe0018dd	-0.12509485
37	0x3bc9bf07	0.0061568054
38	0xbc9d9108	-0.019234195
39	0xbda2ebe1	-0.079551466
40	0xbe35bc24	-0.17747551
41	0xbd6ab0a3	-0.05729736
42	0xbdb2a1a5	-0.087222375
43	0xbe1b3470	-0.15156722
44	0xbbe68e5b	-0.007036013
45	0xbd370e98	-0.044691652
46	0x3d52cc81	0.05146456
47	0xbdfe4f21	-0.124174364
48	0xbdc3f778	-0.09568685
49	0xbbb828a4	-0.005620079
50	0x3c372cc9	0.011180111
51	0xbdb1c29d	-0.08679698
52	0x3dd77a6d	0.10521398
53	0xbbfbd4ae	-0.0076852655
54	0xbc9a23ce	-0.018815901
55	0x3ca2816c	0.019837104
56	0xbc40b2e1	-0.011761398
57	0x3d2ab694	0.041678026
58	0x3d83ddb0	0.06438768
59	0xbd731bdd	-0.059352744
60	0xbd067f77	-0.032836404
61	0xbde097b6	-0.109664366
62	0x3c6c7d12	0.014434116
63	0xbc13e22b	-0.009026091
64	0xbc87df6a	-0.016586024
65	0x3d0f6aa6	0.035013817
66	0x3da43b00	0.08019066
67	0xbd92d55d	-0.07169602
68	0xb8d8fbf1	-0.0001034661
69	0x3dcca431	0.099922545
70	0xbd467cb1	-0.04845876
71	0xbc506b8e	-0.012720956
72	0x3d54a3a2	0.051913865
73	0xbd68de1d	-0.05685245
74	0x3e74a531	0.2389114
75	0xbd6fcdbe	-0.05854582
76	0xbcdb6d88	-0.026785627
77	0x3c5286db	0.012849535
78	0xbccfaa2c	-0.025349699
79	0x3d823edc	0.06359646
80	0xbc920373	-0.01782391
81	0xbda1bd90	-0.07897484
82	0xbea985e3	-0.3310996
83	0xbe55ae20	-0.20867205
84	0xbca91d45	-0.02064384
85	0x3c8d42f6	0.017243844
86	0x3cf1fa0d	0.029538179
87	0x3cecb34d	0.028894091
88	0x3da5cacd	0.08095322
89	0xbe868374	-0.26272166
90	0x3d87e547	0.06635528
91	0x3cca81cb	0.024720093
92	0xbda2d587	-0.07950883
93	0x3d8ceb9f	0.06880879
94	0xbce1a1e4	-0.027543016
95	0x3d5d1864	0.05397834
96	0xbe413a00	-0.18869781
97	0xbc482be0	-0.012217492
98	0xbcea177f	-0.028575657
99	0x3bbd18fb	0.0057708
100	0xbd0ab878	-0.03386733
101	0x3d1536f2	0.036429353
102	0xbd7ed072	-0.062210508
103	0x3a2ceb07	0.0006596301
104	0xbcb897f3	-0.022533393
105	0x3baba7a0	0.0052384883
106	0xbdca3a1a	-0.09874363
107	0xbe6b2548	-0.2296344
108	0xbdab6215	-0.08368317
109	0xbd046d5f	-0.032330867
110	0xbd7aba3a	-0.061212756
111	0x3c858a72	0.016301367
112	0x3c9c34d6	0.019068163
113	0xbd324d92	-0.043531008
114	0xbd8ebd91	-0.06969751
115	0xbd92f959	-0.071764655
116	0x3c8bf2be	0.017083522
117	0xbde19e0f	-0.110164754
118	0x3c4df7a1	0.012571246
119	0xbd03408c	-0.03204398
120	0xbdb60d7f	-0.08889293
121	0xbdeab129	-0.11459572
122	0xbc3f74b3	-0.011685538
123	0xbd6c92cd	-0.057757188
124	0xbdc1f190	-0.094699025
125	0xbd52e5a3	-0.05148853
126	0xbe0811a6	-0.13287982
127	0xbdef5b16	-0.11687295
128	0xbdd09a27	-0.10185652
129	0x3d8ebe89	0.069699354
130	0xbd3e9a86	-0.046534084
131	0x3d01c925	0.031685967
132	0x3d9f2957	0.07771557
133	0xbdb8bd3c	-0.090204686
134	0xbddaa4ab	-0.10675939
135	0xbe3fbf0e	-0.18725225
136	0x3d767425	0.060169358
137	0xbdac7c94	-0.08422199
138	0x3cfb8411	0.030702623
139	0xbcc3c54e	-0.023897793
140	0xbdeb551b	-0.11490842
141	0x3d041a7b	0.032251816
142	0xbe8c8f7f	-0.2745323
143	0x3dcf2166	0.10113792
144	0xbd61d80e	-0.055137686
145	0x3ccf6907	0.025318636
146	0xbcce1a96	-0.025159162
147	0xbdb3b5da	-0.0877492
148	0x3c06a567	0.008218146
149	0x3dcb7cbd	0.09935901
150	0xbd5cc393	-0.05389745
151	0xbce1a293	-0.027543342
152	0xbd81e944	-0.0634332
153	0x3d679860	0.0565418
154	0x3ca393d6	0.019967955
155	0xbcf1abc7	-0.029500855
156	0xbd027af0	-0.031855524
157	0xbd77d617	-0.060506906
158	0xbc123cd2	-0.0089256335
159	0xbbd45f1e	-0.0064810654
160	0xbd2b436d	-0.04181235
161	0xbd500abe	-0.050791495
162	0xbc06d61c	-0.008229759
163	0x3bc034f7	0.005865689
164	0x3ab9a16f	0.0014162491
165	0xbd2a265b	-0.041540485
166	0x3d416cf3	0.047223043
167	0x3e0a2be6	0.13493308
168	0x3d47f0d9	0.048813675
169	0x3da24117	0.07922571
170	0xbd92b0d7	-0.07162636
171	0xbdb40aca	-0.0879112
172	0xbd73b7bf	-0.059501406
173	0xbce3020a	-0.027710933
174	0xbd979339	-0.07401127
175	0x3d6dccce	0.058056645
176	0x3d6f9853	0.058494877
177	0xbce54d9e	-0.027991112
178	0xbc96d79a	-0.018413354
179	0xbc9a0ab6	-0.018803935
180	0xbd000874	-0.03125806
181	0xbba1a9d3	-0.0049335747
182	0xbe0eddf1	-0.13951851
183	0xbda9b52e	-0.082865104
184	0x3ddd6a6f	0.10811316
185	0xbd12027f	-0.03564691
186	0xbc999fcf	-0.01875296
187	0x3c87863c	0.0165435
188	0x3e1e78bc	0.15475744
189	0xbdc17225	-0.094455995
190	0xbcbd7f7a	-0.023132075
191	0x3c8ce9f8	0.017201409
192	0x3d5b9d82	0.053617008
193	0xbe2ff010	-0.1718142
194	0xbcfd0354	-0.030885376
195	0x3e2b4501	0.16725542
196	0xbd88b69a	-0.066754535
197	0x3c8e9b48	0.017408028
198	0x3d9e666c	0.07734379
199	0x3c3143fb	0.01081943
200	0xbe0dbc4f	-0.13841365
201	0xbea58874	-0.32330668
202	0x3dd88146	0.10571532
203	0x3da5f6eb	0.081037365
204	0xbda4934d	-0.08035908
205	0x3c995dad	0.018721426
206	0x3bdd0bd5	0.0067457953
207	0xbd658ab4	-0.05604048
208	0xbf50d915	-0.8158124
209	0xbe36a108	-0.17834866
210	0xbcbcee6b	-0.023062905
211	0x3db2327a	0.08701034
212	0xbaeeeb3d	-0.0018228065
213	0xbddf5b05	-0.109060325
214	0xbd160285	-0.036623497
215	0xbe9a7bb9	-0.30172518
216	0xbee83c87	-0.4535868
217	0x3bdfa330	0.0068248734
218	0xbbe87bb1	-0.0070948233
219	0xbe1e412a	-0.15454546
220	0x3da0da71	0.078541644
221	0xbc6c6415	-0.014428158
222	0xbf95f7be	-1.171623
223	0xbef6a51c	-0.48172843
224	0xbc5d19fe	-0.013494967
225	0x3cabe70b	0.020984193
226	0xbac0b000	-0.001470089
227	0x3cca7c96	0.02471761
228	0x3e2118ec	0.15732163
229	0xbef96b64	-0.48714745
230	0xbeea5f95	-0.45776048
231	0xbc54adbb	-0.012980874
232	0x3b95e6eb	0.0045746467
233	0xbb9ca65e	-0.0047805747
234	0x3dc82749	0.09773118
235	0xbd340ede	-0.04395949
236	0xbe018513	-0.1264842
237	0xbeed2e5c	-0.46324432
238	0xbd0ce021	-0.034393433
239	0x3d4cc7a9	0.0499951
240	0xbd81533a	-0.06314702
241	0x3bbcfafd	0.005767225
242	0x3e05c195	0.13062127
243	0xbd41c108	-0.04730323
244	0xbe1d071b	-0.15334742
245	0x3d16ebe7	0.036846068
246	0x3dd42024	0.10357693
247	0x3ceb55aa	0.028727371
248	0xbd92cef3	-0.07168379
249	0x3a7a9b54	0.0009559889
250	0xbdb9c2ab	-0.09070333
251	0x3d1d8675	0.038458306
252	0xbcaa068e	-0.020755079
253	0x3cc7ffd2	0.024413977
254	0xbd8a38c3	-0.06749108
255	0xbde03776	-0.10948078

weight f4 [64, 64, 3, 3]
0	0xbe845ed8	-0.2585361
1	0x3e9e3cf5	0.30905882
2	0x3e22b86f	0.15890668
3	0xbecb9195	-0.39759508
4	0x3f360663	0.71103495
5	0xbe0231dd	-0.12714334
6	0xbeb085d3	-0.344771
7	0xbdafddc5	-0.08587221
8	0x3e1dbd63	0.15404277
9	0xbb93be9f	-0.004508808
10	0x3c87e583	0.016588932
11	0x3dd2e15d	0.10296891
12	0xbb6a64d5	-0.0035765667
13	0x3d3d16cf	0.04616433
14	0x3cd17316	0.025567573
15	0x3dbe6914	0.09297386
16	0xbca926b1	-0.020648332
17	0xbdad4a41	-0.084614284
18	0xbdc88a65	-0.09792022
19	0xbd7d73eb	-0.061878126
20	0xbde88a1a	-0.11354466
21	0xbd08f38d	-0.033435393
22	0x3f2c6290	0.67337894
23	0xbe50cc62	-0.20390466
24	0xbe55c86c	-0.20877236
25	0xbdf0a2a8	-0.11749774
26	0xbd8e241f	-0.06940483
27	0x3bb171fa	0.0054151984
28	0x3d009b24	0.031397954
29	0xbd88067c	-0.06641862
30	0xbcb7e0c8	-0.022446051
31	0xbc6a83c6	-0.014313644
32	0x3d3daf2c	0.046309635
33	0xbc763cad	-0.015029115
34	0xbd04735c	-0.032336578
35	0x3d33c611	0.043890063
36	0xbd88ffb4	-0.066893965
37	0xbd027384	-0.031848446
38	0xbda12e98	-0.07870215
39	0x3e030e58	0.1279844
40	0xbd7409b0	-0.05957955
41	0xbdacf687	-0.08445459
42	0x3d6ab9f6	0.057306252
43	0x3ddd70c8	0.10812527
44	0xbd80b9b3	-0.06285419
45	0xbe03e584	-0.12880522
46	0xbccb0cf3	-0.024786448
47	0x3c046ed6	0.008083066
48	0x3e1bfaa7	0.15232335
49	0x3cf861d9	0.030320095
50	0xbb11c00f	-0.002223972
51	0x3c76a34a	0.01505358
52	0xbd8e7037	-0.06954997
53	0xbcfba898	-0.03072004
54	0x3d26749a	0.040638544
55	0x3d893063	0.06698682
56	0xbd866c13	-0.06563582
57	0xbab30503	-0.001365811
58	0x3d72a3cc	0.05923824
59	0xbc6baa92	-0.014383929
60	0x3defd620	0.11710763
61	0x3d2bab4a	0.0419114
62	0xbdbd6175	-0.09247104
63	0xbd81754b	-0.063212
64	0xbe38ec2c	-0.18058842
65	0xbd065669	-0.03279725
66	0xbd82560b	-0.06364068
67	0x3ea4d6cd	0.3219513
68	0x3c8acabe	0.016942378
69	0xbd9d05d5	-0.07667128
70	0x3c47a1e4	0.012184594
71	0xbd0a9de3	-0.03384198
72	0xbd5c520d	-0.053789187
73	0xbd877e6e	-0.066159114
74	0x36e46948	6.807186e-06
75	0xbeb406cb	-0.35161433
76	0xbe221176	-0.15826973
77	0x3d8ea946	0.0696588
78	0x3dc73f55	0.097288765
79	0xbc5d2791	-0.013498203
80	0xbc3e7ccb	-0.011626433
81	0xbd7b401c	-0.061340436
82	0xbcf11b5c	-0.029431991
83	0xbe372a1a	-0.17887154
84	0xbd06fc86	-0.03295567
85	0xbc9bd9dd	-0.019024784
86	0xbe3c75ea	-0.18404356
87	0xbcb86286	-0.022507917
88	0x3d9fa3a7	0.07794886
89	0xbdea9b9e	-0.11455463
90	0xbd1aa14b	-0.037751477
91	0xbc426736	-0.011865428
92	0x3d0e11d3	0.034684967
93	0xbd40defc	-0.047087654
94	0x3c70d844	0.014699999
95	0xbdc924c1	-0.098214634
96	0x3d962afe	0.07332419
97	0xbcb2cfc9	-0.021827595
98	0x3c931f81	0.017959358
99	0xbce2c0e6	-0.027679872
100	0xbbbc5991	-0.005747982
101	0xbcc5aef0	-0.024131268
102	0xbda431d7	-0.08017319
103	0x3be36665	0.0069396966
104	0x3d06bc36	0.032894336
105	0x3d5acee0	0.053419948
106	0xbd4d33b1	-0.050098125
107	0x3ba1c97c	0.004937349
108	0xbbdf3786	-0.006812039
109	0x3d8b7b8a	0.068106726
110	0xbd91e779	-0.07124228
111	0x3cae6cb3	0.021292066
112	0x3e1c7a89	0.15281118
113	0xbea5bae7	-0.32369158
114	0xbc7b77b8	-0.015348367
115	0xbe3bcbba	-0.18339434
116	0xbdf0275e	-0.11726259
117	0x3e1ab369	0.15107502
118	0x3e040072	0.12890795
119	0xbe9a946a	-0.30191356
120	0xbdd0856a	-0.10181697
121	0x3dbd89cb	0.092547975
122	0xbdbbadab	-0.09163984
123	0xbe5217d0	-0.20516896
124	0x3c8c0975	0.017094353
125	0xbd451387	-0.048114326
126	0x3e390821	0.18069507
127	0x3d3b3207	0.045702007
128	0xbe600845	-0.21878155
129	0x3ea50e7a	0.32237607
130	0xbebe79e8	-0.37202382
131	0xbed7f696	-0.42180318
132	0xbeac4b62	-0.33651263
133	0xbe708538	-0.23488319
134	0xbddd84f4	-0.108163744
135	0xbd59b27c	-0.05314873
136	0x3d6b9adc	0.057520732
137	0x3db2f572	0.08738221
138	0x3af0d581	0.0018374176
139	0xbdada52a	-0.08478768
140	0xbcafce99	-0.021460818
141	0x3d0e82fb	0.03479288
142	0xbde14d5d	-0.11001084
143	0x3c8b4295	0.016999522
144	0xbe56426a	-0.20923772
145	0xbe1583e9	-0.14601101
146	0xbe201d61	-0.15636207
147	0xbc5010df	-0.012699335
148	0x3ee52306	0.44753283
149	0x3c91e453	0.017809069
150	0x3e004c68	0.12529147
151	0x3d61c980	0.055123806
152	0xbd17087f	-0.036873337
153	0x3c7cd501	0.015431643
154	0xbd995326	-0.074865624
155	0xbbf5a8db	-0.007496936
156	0xbc8cc47d	-0.017183537
157	0xbca7768a	-0.020442266
158	0x3d51cb41	0.05121923
159	0x3d6ee7b9	0.058326457
160	0x3c8fa47e	0.01753449
161	0xbda3c761	-0.07997013
162	0xbdc18cc5	-0.09450678
163	0xbd5f0bdc	-0.05445467
164	0xbda0fd83	-0.078608535
165	0x39b876c6	0.00035183708
166	0xbc884a5f	-0.016637025
167	0xbd0d4d3c	-0.034497485
168	0xbdb373ae	-0.087622985
169	0xbd02b24b	-0.031908315
170	0x3d31e8ef	0.043435033
171	0xbd566b21	-0.05234826
172	0xbd199cc5	-0.037503023
173	0xbd784059	-0.06060824
174	0xbce260ba	-0.027634013
175	0x3a940088	0.0011291662
176	0xbd97e1c5	-0.07416109
177	0xbc8fb0d8	-0.01754038
178	0xbd0b9492	-0.034077235
179	0xbd45359d	-0.048146833
180	0xbe4c9cd0	-0.19981694
181	0x3e530ef2	0.2061117
182	0xbe485d36	-0.19566807
183	0xbe491aba	-0.19639102
184	0x3db46198	0.08807677
185	0xbd2e8aa8	-0.0426127
186	0xbd9a180b	-0.07524117
187	0xbd99d78c	-0.075118154
188	0xbd81bb47	-0.063345484
189	0xbc1893b2	-0.009312557
190	0x3d3069b8	0.04306957
191	0xbdac98c4	-0.08427575
192	0x3da60a90	0.081074834
193	0xbdd38f80	-0.10330105
194	0xbe6fcfa5	-0.23419054
195	0x3e8ec55d	0.2788495
196	0x3d430b2b	0.047618072
197	0x3d07c12f	0.03314322
198	0xbd2a1920	-0.041527867
199	0xbd25f8e3	-0.04052056
200	0xbcff0382	-0.031129602
201	0x3d008434	0.03137608
202	0x3d17e75f	0.037085887
203	0x3d46aa24	0.048502102
204	0xbd6f5502	-0.05843068
205	0x3bdb8180	0.006698787
206	0x3dc83e26	0.09777479
207	0x3d95764d	0.07297955
208	0x3c5adbf4	0.013358105
209	0xbca8be41	-0.020598533
210	0xbd3b293f	-0.045693632
211	0x3db53d34	0.08849564
212	0x3dc55d3f	0.09636926
213	0x3d47800f	0.04870611
214	0x3e699de8	0.22814143
215	0x3d2bd4cd	0.04195099
216	0xbd9ad158	-0.075594604
217	0xbda3f185	-0.080050506
218	0x3c69d327	0.014271534
219	0xbd08e6de	-0.033423297
220	0x3d90eec5	0.07076792
221	0xbcdfac75	-0.027303914
222	0xbe52d376	-0.20588478
223	0xbd4c3e00	-0.049863815
224	0x3cd2f98b	0.025753757
225	0x3c4dcef4	0.0125615485
226	0xbd067f75	-0.032836396
227	0xbd43b79a	-0.047782518
228	0x3c6a1f7b	0.014289732
229	0x3cadfd90	0.021239072
230	0xbd9371c0	-0.071994305
231	0x3dd5501c	0.1041567
232	0xbc79e39f	-0.015252023
233	0xbc3567cc	-0.01107211
234	0xbce9c800	-0.02853775
235	0xbda93be6	-0.08263378
236	0x3d060fb2	0.032729812
237	0xbd137e1e	-0.036008947
238	0xbd30f530	-0.04320258
239	0xbd10a625	-0.035314698
240	0xbda0377f	-0.07823085
241	0xbdd22004	-0.10260013
242	0x3dbfd83b	0.093674146
243	0xbb898cbd	-0.0041976855
244	0x3d10cd5f	0.035352107
245	0xbb42a173	-0.0029698282
246	0x3db4e747	0.08833175
247	0x3d4a6a43	0.049417745
248	0x3de1695a	0.11006422
249	0xbc86ddea	-0.016463239
250	0x3cd5677b	0.02605032
251	0x3da63f5d	0.08117554
252	0xbd9670ee	-0.073457584
253	0xbcef124c	-0.02918353
254	0x3c9a494b	0.018833777
255	0xbda2916e	-0.07937895

bias f4 [64]
0	0xbb2c438a	-0.0026285374
1	0xbc7c7cf2	-0.015410649
2	0x3e3fa5f0	0.18715644
3	0xbdc99c37	-0.09844249
4	0x3c85d1d6	0.01633541
5	0x3c8b7459	0.017023252
6	0xbb38003e	-0.0028076316
7	0xbd021d2a	-0.031766094
8	0x3d999a70	0.0750016
9	0x3dbbd880	0.091721535
10	0x3dbcf4b3	0.0922636
11	0xbd7e2b2b	-0.062052887
12	0x3b432c3a	0.0029781
13	0x39e85403	0.00044313082
14	0x3add92b3	0.0016904682
15	0xbd43408f	-0.04766899
16	0x3b551cf9	0.003251849
17	0xbd152b2f	-0.036418136
18	0xbc89eea5	-0.016837427
19	0xbcc4a848	-0.024006024
20	0xbb342607	-0.0027488486
21	0x3c8fd713	0.01755861
22	0xbc5051ea	-0.012714842
23	0xbd60f440	-0.054920435
24	0x3da5cca6	0.08095674
25	0x3d8c98fd	0.06865118
26	0x3db903e0	0.09033942
27	0x3d17dd2b	0.037076157
28	0x3da7aae2	0.0818689
29	0xbb2281f2	-0.0024796692
30	0xbb9bc76c	-0.0047539975
31	0xbc866443	-0.01640523
32	0xbd8f36c2	-0.06992866
33	0x3e00490d	0.12527867
34	0xbd22932d	-0.03969114
35	0xba28d777	-0.0006440798
36	0xbb27989e	-0.0025573145
37	0x3e230ef9	0.1592368
38	0xbb2ce1ec	-0.0026379777
39	0xbbb891b1	-0.005632602
40	0x3d815d56	0.063166305
41	0x3ca093ad	0.019601667
42	0x3da2c33e	0.07947396
43	0xbf3e6835	-0.7437776
44	0xb9a6fae6	-0.0003184892
45	0x3da041ed	0.07825074
46	0x3b3a60ec	0.0028439118
47	0xbe93655e	-0.28788275
48	0x3b488882	0.0030598943
49	0x3ae1df75	0.0017232733
50	0x3bb7f99b	0.005614472
51	0x3c0b7df8	0.00851392
52	0x3dc8b772	0.098006144
53	0x3d24245f	0.04007375
54	0xbd50785a	-0.050896026
55	0x3b5be915	0.0033555676
56	0x3bab025b	0.0052187867
57	0xbd852d08	-0.0650273
58	0x3d01ee17	0.0317212
59	0xbca710f8	-0.020393834
60	0xb9b4a661	-0.00034456237
61	0xbc7c8f65	-0.015415047
62	0x3b4d6cb1	0.0031345303
63	0xbda8dc04	-0.0824509

weight f4 [64, 64, 3, 3]
0	0x3dc0eda5	0.09420327
1	0x3c35be0a	0.011092672
2	0xbddf31ed	-0.108981945
3	0xbd6f4eba	-0.05842469
4	0xbe61e246	-0.22058973
5	0x3c79b343	0.015240493
6	0x3cf6bda1	0.030119719
7	0xbe294d6a	-0.16533437
8	0xbd5ad6fc	-0.05342768
9	0xbe0ee991	-0.13956286
10	0x3d3b3233	0.04570217
11	0xbd9c1426	-0.076210305
12	0xbe04e00a	-0.12976089
13	0x3c4b047e	0.012391208
14	0xbe423fd5	-0.18969662
15	0xbdb64404	-0.08899692
16	0x3cd645b6	0.026156288
17	0xbd306215	-0.04306229
18	0x3e28c262	0.16480401
19	0xbe44cc62	-0.19218591
20	0xbc0638f9	-0.008192294
21	0x3e1e37a5	0.15450914
22	0xbe52f27e	-0.20600316
23	0xbe7ec280	-0.24878883
24	0x3dab06bd	0.083508946
25	0xbea0fb65	-0.314418
26	0xbe5b1008	-0.21392834
27	0x3d8c25a0	0.06843114
28	0x3e0ec169	0.13940968
29	0x3e75daef	0.24009298
30	0x3c8331da	0.016014982
31	0x3d6d84a4	0.057987824
32	0x3e4965a5	0.1966768
33	0xbda50d43	-0.0805917
34	0xbd8365d4	-0.064159065
35	0xbdb822d1	-0.08991016
36	0xbcc8851a	-0.02447753
37	0xbe2157c1	-0.15756132
38	0x3d930423	0.071785234
39	0xbde0f4d9	-0.10984201
40	0xbe80dc88	-0.25168252
41	0x3ce866c4	0.028369315
42	0xbbd32d00	-0.0064445734
43	0xbe122374	-0.14271337
44	0x3d77c3b9	0.06048939
45	0xbe008c4b	-0.12553518
46	0x39ffad4a	0.000487665
47	0x3c0a2359	0.008431279
48	0x3c39d4ec	0.011342268
49	0xbd34645f	-0.044041034
50	0xbd0c88d9	-0.034310196
51	0xbd2819e8	-0.04104033
52	0xbcbc72e6	-0.023004007
53	0x3ba89263	0.005144404
54	0xbdbe0415	-0.09278122
55	0xbb19e9f5	-0.0023485397
56	0xbc19b8f0	-0.009382471
57	0xbb431e08	-0.0029772539
58	0x3c1d52ef	0.009602292
59	0xbd932c49	-0.07186181
60	0x3c1a44a5	0.00941578
61	0xbd90feaa	-0.07079823
62	0xbc59bfb7	-0.013290337
63	0x3d1866c8	0.037207395
64	0xbc1df783	-0.009641531
65	0xbc2a5026	-0.010395085
66	0xbb6fac5c	-0.003657124
67	0xbcd9fa4f	-0.026608614
68	0x3d972a7c	0.0738115
69	0x3cf8f654	0.030390896
70	0xbd8c117d	-0.06839273
71	0xbdf94d03	-0.12172892
72	0xbe28ef3f	-0.16497515
73	0x3caf054b	0.021364829
74	0xbd357615	-0.044302065
75	0xbe42aea1	-0.19011928
76	0xbc496779	-0.012292736
77	0x3c46042c	0.012085956
78	0xbe43546c	-0.19075173
79	0xbce73945	-0.02822555
80	0xbd0e7a4c	-0.0347846
81	0xbd44be2a	-0.048032917
82	0xbd860d87	-0.06545549
83	0xbd3aaf07	-0.045577075
84	0x3e4e2277	0.20130335
85	0xbd283e26	-0.041074894
86	0x3d464920	0.04840958
87	0x3d9a0e61	0.07522274
88	0x3cc1d8ed	0.023663009
89	0x3ca48c52	0.020086441
90	0xbd5f4786	-0.05451157
91	0xbd7832e9	-0.060595427
92	0xbd9cf7c9	-0.07664449
93	0x3b560839	0.003265871
94	0x3e0cb0b8	0.13739288
95	0x3d013af5	0.031550366
96	0xbd35145b	-0.044208866
97	0xbd167aad	-0.036738086
98	0x3c048f0d	0.008090747
99	0x3d074d5b	0.033032756
100	0xbd88558e	-0.06656943
101	0x3d1f4d87	0.038892295
102	0x3db0694f	0.08613836
103	0x3c9318b7	0.01795612
104	0x3bf67eda	0.007522446
105	0xbc6483a0	-0.0139473975
106	0x3d6a5670	0.05721134
107	0xbd0eacfe	-0.034832947
108	0xbd56cb46	-0.05243995
109	0xbd7c2085	-0.06155445
110	0xbd61b3a5	-0.055102963
111	0xbdada76b	-0.08479198
112	0xbddde5cb	-0.10834845
113	0x3c1e0d56	0.009646734
114	0xbbd8bc87	-0.006614271
115	0xbe0d73b6	-0.13813671
116	0xbc81099f	-0.015751658
117	0xbddfde1c	-0.10931036
118	0x3c9e3267	0.019311143
119	0x3c08efe1	0.008357973
120	0xbe20d3ec	-0.15705842
121	0xbdfa43bd	-0.12219951
122	0xbd5bd7cc	-0.053672597
123	0xbd99aa48	-0.07503182
124	0xbc93f0f3	-0.01805923
125	0xbd403e0b	-0.04693417
126	0xbd73f75e	-0.05956208
127	0xbc14efd8	-0.009090386
128	0xbda6e72b	-0.081495605
129	0xbe4a8b44	-0.19779688
130	0x3d79a813	0.060951304
131	0xbd0cf121	-0.034409646
132	0xbe147d7f	-0.14500998
133	0x3d442c46	0.047893785
134	0x3d3b5174	0.045731977
135	0xbd6b7b78	-0.057490796
136	0xbdb17d8e	-0.08666526
137	0xbd99e102	-0.0751362
138	0x3b9101b6	0.004425253
139	0xbc32c707	-0.01091171
140	0xbd8b803b	-0.068115674
141	0xbdb61bc3	-0.08892014
142	0xbd7ef7d8	-0.06224808
143	0x3d93fac9	0.07225568
144	0x3bb5e870	0.0055513903
145	0xbd712e1c	-0.058881864
146	0xbd965c2d	-0.073418
147	0xbd0095ba	-0.03139279
148	0x3d41958e	0.047261767
149	0xbddbf803	-0.10740664
150	0x3b1df03a	0.0024099485
151	0x3d282460	0.041050315
152	0xbcfcd789	-0.030864494
153	0xbd86c5cc	-0.065806955
154	0xbd2acd9f	-0.0417
155	0xbd230b0c	-0.039805457
156	0xbc32c25c	-0.010910597
157	0xbd9141bf	-0.07092618
158	0xbe1c71fe	-0.1527786
159	0x3d50e13f	0.05099606
160	0x3b965784	0.0045880694
161	0xbe081354	-0.13288623
162	0x3c9a8607	0.018862737
163	0xbce39a81	-0.027783634
164	0xbdd1df6d	-0.10247693
165	0x3cdd9985	0.027050743
166	0xbcb2ad85	-0.021811256
167	0xbd5c5e04	-0.053800598
168	0x3dc63fb7	0.096801214
169	0x3b30b9c7	0.00269662
170	0x3cf5f318	0.030023143
171	0x3db22891	0.08699144
172	0xbdaf90ec	-0.085725635
173	0x3d61d34e	0.055133156
174	0x3d16e3bf	0.03683829
175	0x3cb84398	0.022493169
176	0x3d45ae9b	0.04826222
177	0xba801081	-0.0009770544
178	0xbe4396d4	-0.19100505
179	0xbb14e445	-0.0022719067
180	0x3d008909	0.031380687
181	0xbd1a3a14	-0.037653044
182	0xbe428f82	-0.19000056
183	0x3d8332e9	0.06406195
184	0xbe654caa	-0.22392526
185	0xbdd6c3e4	-0.10486582
186	0x3db2d0d3	0.08731236
187	0xbdb830e9	-0.08993704
188	0xbe3149b4	-0.17313272
189	0xbc296cd5	-0.010340889
190	0xbd3eafea	-0.046554483
191	0xbd96bfd1	-0.07360805
192	0xbb8f040e	-0.004364497
193	0xbd7758a7	-0.06038728
194	0xbd6d1c11	-0.057888094
195	0x3e60d25c	0.21955246
196	0xbd82de11	-0.06390012
197	0xbc95c724	-0.018283434
198	0x3d4d2268	0.05008164
199	0xbd073949	-0.033013616
200	0xbcd071ba	-0.025444854
201	0x3cbc58ad	0.022991503
202	0xbd0c1c6e	-0.0342068
203	0xba67e947	-0.0008846712
204	0xbd463bf1	-0.04839701
205	0xbd8791bb	-0.06619593
206	0x3c4d4672	0.0125290025
207	0xbd946f11	-0.07247747
208	0x3d9b26be	0.07575749
209	0x3daf7065	0.085663594
210	0xbd3dd898	-0.046349138
211	0xbce8bf02	-0.028411392
212	0x3c9997b1	0.01874909
213	0xbd9a54a8	-0.07535678
214	0xbd97e58e	-0.07416831
215	0xbd18281b	-0.037147623
216	0xbd951460	-0.07279277
217	0xbe023cef	-0.12718557
218	0x3d6ed179	0.058305237
219	0x3c619b86	0.01376999
220	0xbdbf5699	-0.09342689
221	0xbd720206	-0.05908396
222	0xbc4bcac2	-0.012438478
223	0xbd4439f8	-0.047906846
224	0xbc6858b1	-0.014181302
225	0xbe201587	-0.15633212
226	0x3dd51cc8	0.1040588
227	0xbc4d284d	-0.0125218155
228	0xbd975d8d	-0.0739089
229	0x3dd6ee1d	0.10494635
230	0xbd69281d	-0.05692302
231	0xbdc4682d	-0.095901825
232	0x3ca849c2	0.020542983
233	0xbd2d5940	-0.042321444
234	0x3cc9fd48	0.024656907
235	0xbe994dcc	-0.29942167
236	0xbcf4d552	-0.029886875
237	0x3d0f4be0	0.03498447
238	0xbeafedeb	-0.34361205
239	0xbd043e39	-0.032285903
240	0xbafc488e	-0.0019247697
241	0xbe9cb54c	-0.3060707
242	0x3d0076c6	0.03136327
243	0x3dd9703a	0.10617109
244	0xbe35e77a	-0.17764083
245	0xbdd4162a	-0.1035579
246	0xbc2147f7	-0.009843818
247	0xbebd8763	-0.37017354
248	0xbe07b3f1	-0.13252236
249	0x3d7a5220	0.061113477
250	0xbebf066c	-0.37309587
251	0xbe7288dd	-0.23685022
252	0xbd3c8059	-0.04602084
253	0x3d4581a7	0.04821935
254	0xbe6b9682	-0.23006633
255	0xbcc7dc25	-0.024396965

bias f4 [64]
0	0x3d974d92	0.07387842
1	0x3d404c10	0.04694754
2	0xbd953f29	-0.072874375
3	0xbc0900a5	-0.00836197
4	0xbc6204e8	-0.013795115
5	0xb9daae80	-0.00041710213
6	0xbbd64be7	-0.00653981
7	0xbe07812b	-0.13232867
8	0x3d48ae99	0.048994634
9	0x3dd61f20	0.104551554
10	0x3d3c2008	0.045928985
11	0x3c20f483	0.009823921
12	0xbc353d65	-0.011062001
13	0xbd295fb1	-0.041351024
14	0x3d984721	0.07435442
15	0xbde88e14	-0.11355224
16	0xbcc974d2	-0.024591837
17	0x3d8983a3	0.06714561
18	0xbd637fbf	-0.05554175
19	0xbd93df3c	-0.07220313
20	0x3b0630f8	0.0020475965
21	0xbd84fd01	-0.06493569
22	0x3d54a30d	0.05191331
23	0x3d01d7b7	0.031699862
24	0x3dbe6c01	0.09297944
25	0x3d107b90	0.03527409
26	0x3c8e992a	0.017407019
27	0x3d909046	0.07058768
28	0xbd818a16	-0.06325166
29	0xbbff211d	-0.00778593
30	0xbd4c83f8	-0.049930543
31	0x3cf0a307	0.029374612
32	0xbbd16633	-0.006390357
33	0xbd282a29	-0.041055832
34	0x3d9a2532	0.07526626
35	0xbb96750c	-0.00459159
36	0xbd08980b	-0.033348124
37	0xbbe79d3e	-0.0070683053
38	0xbd6e3b69	-0.058162127
39	0x3b742b28	0.0037257168
40	0xbd6c5bef	-0.057704862
41	0xbc945692	-0.018107686
42	0x3cd585de	0.02606481
43	0x3c98aac8	0.018636122
44	0xbcaf0f58	-0.021369621
45	0x3dd96a98	0.10616034
46	0xbd6cfdbd	-0.05785917
47	0x3d23ca28	0.039987713
48	0x3d56dbd2	0.05245573
49	0x3d36518d	0.044511367
50	0x3c915907	0.017742647
51	0xbd66f3e4	-0.056384936
52	0x3d478ee4	0.048720255
53	0x3df97363	0.121802114
54	0x3e918f7b	0.2842978
55	0x3a0056a8	0.0004895725
56	0xbb9c7c13	-0.004775533
57	0xbd68f7e0	-0.056877017
58	0xbcb50199	-0.022095488
59	0x3d74bc1c	0.059749708
60	0xbd714172	-0.058900304
61	0xbdcf8400	-0.10132599
62	0xbd562f51	-0.05229122
63	0x3cb55575	0.022135476

weight f4 [64, 64, 3, 3]
0	0xbcdefbca	-0.027219672
1	0x3b6d9954	0.003625472
2	0xbd8c05bc	-0.06837031
3	0x3d5b79b5	0.053582866
4	0xbdd6df02	-0.10491754
5	0xbd7fbb8f	-0.06243473
6	0xbddd8f71	-0.10818375
7	0x3c9c60a2	0.019089047
8	0x3ca15fd4	0.019699015
9	0x3d4b9298	0.04970035
10	0xbd457605	-0.048208255
11	0x3d367655	0.044546444
12	0xbcd9d539	-0.02659093
13	0xbc86a12d	-0.016434276
14	0xbdc3b11d	-0.09555266
15	0xbb3b9b2a	-0.002862642
16	0xbc5ae416	-0.013360044
17	0xbde6ac4e	-0.11263333
18	0xbd99f309	-0.075170584
19	0xbd1d7ffc	-0.038452134
20	0x3d908599	0.07056732
21	0xbd5c0a76	-0.053720914
22	0xbc425b8c	-0.011862647
23	0x3d39362d	0.04521768
24	0xbccff6c1	-0.025386216
25	0x3d3a5e62	0.045500167
26	0xbd587792	-0.052848406
27	0x3ba53d41	0.0050427024
28	0xbd2fb531	-0.042897407
29	0x3c909295	0.01764802
30	0xbd6e4572	-0.058171697
31	0xbc84e70c	-0.016223453
32	0x3d641698	0.05568561
33	0x3d759191	0.059953276
34	0xbd81596d	-0.06315885
35	0xbd165f75	-0.03671213
36	0x3ad488b7	0.0016215061
37	0x3c0d1f2e	0.008613391
38	0xbc4b5405	-0.012410169
39	0xbce2de1a	-0.027693797
40	0xbd152977	-0.036416497
41	0xbd99df24	-0.07513264
42	0xbd29bdde	-0.041440837
43	0xbc7e3953	-0.015516597
44	0xbcb0fee2	-0.021605913
45	0x3cdaaaa3	0.026692694
46	0x3c68f64f	0.014218881
47	0xbd312263	-0.043245684
48	0x3cbc84cf	0.023012547
49	0xb7b9ebb7	-2.2163482e-05
50	0x3c5bf111	0.013424174
51	0xbd9c24fd	-0.076242425
52	0xbd351814	-0.044212416
53	0xbdf240c7	-0.118287615
54	0xbcb5d512	-0.022196326
55	0x3d128689	0.035772834
56	0xbcfba6a0	-0.030719101
57	0xbdddf45d	-0.10837624
58	0xbd84523f	-0.06461
59	0x3dc1c5f3	0.09461584
60	0x3d889b6c	0.06670269
61	0xbbb13ee4	-0.0054091085
62	0xbd02bc4a	-0.031917848
63	0xbb1c3046	-0.0023832484
64	0xbde97f70	-0.1140126
65	0x3cbdee0b	0.023184797
66	0x3c82bb9d	0.015958602
67	0x3c1dad5d	0.009623853
68	0xbb918e93	-0.004442045
69	0xbd48f3a4	-0.04906048
70	0x3c450230	0.012024447
71	0xbdac5d1e	-0.08416198
72	0xbd3fd0d1	-0.046830002
73	0xbe020d9e	-0.12700507
74	0xbe10b9ef	-0.14133428
75	0xbe1f541b	-0.15559427
76	0x3c3938ac	0.0113050155
77	0xbdebeb8f	-0.115195386
78	0xbd120a54	-0.03565438
79	0xbbc15fed	-0.005901328
80	0xbc5f079d	-0.013612655
81	0x3dbd690d	0.092485525
82	0xbb214fdf	-0.0024614257
83	0x3be1026d	0.0068667443
84	0xbd75124f	-0.059831914
85	0x3b2594f8	0.0025265794
86	0xbc833705	-0.016017446
87	0xbd39e9a5	-0.045388836
88	0xbc8b83cc	-0.01703062
89	0xbdaf1fec	-0.085510105
90	0x3d01a0ce	0.031647496
91	0xbc997b44	-0.018735535
92	0xbe0be6f7	-0.13662325
93	0x3ce1af3a	0.027549375
94	0xbe62fe8f	-0.22167419
95	0xbda6f1e4	-0.08151606
96	0xbdf71357	-0.12064236
97	0x3d112680	0.035437107
98	0xbd0ddd07	-0.034634616
99	0x3d1bca6a	0.038034834
100	0xbc4bb78d	-0.012433899
101	0xbddb8a49	-0.10719735
102	0x3c806152	0.015671406
103	0x3b803c3f	0.003913432
104	0xbd1d925f	-0.03846967
105	0xbb997bc4	-0.0046839435
106	0xbb92724f	-0.004469193
107	0xbd0a9612	-0.033834524
108	0xbd8a30c9	-0.06747586
109	0xbcc552de	-0.024087366
110	0x3d604ac3	0.0547588
111	0xbda0ca2c	-0.07851061
112	0xbdca04b4	-0.09864178
113	0xbd9898de	-0.07451032
114	0xbc89d33c	-0.016824357
115	0xbd6afba6	-0.057368897
116	0xbd60bfbd	-0.054870356
117	0xbc94ef70	-0.018180579
118	0x3d3709e1	0.044687156
119	0xbd3580e2	-0.044312365
120	0xbd96547f	-0.07340335
121	0x3cb5ed23	0.022207802
122	0xbd8e8068	-0.06958085
123	0xbc57a5a6	-0.013162052
124	0xbd61c3ef	-0.055118497
125	0xbdbb0284	-0.09131339
126	0xbe1dd6ab	-0.1541392
127	0xbb8ec3dd	-0.004356845
128	0x3d10012b	0.035157364
129	0x3da1da8a	0.07903011
130	0xbe06264f	-0.13100551
131	0x3d0c52a6	0.034258507
132	0xbde7485d	-0.11293099
133	0xbd8a9de7	-0.06768399
134	0xbdae6950	-0.085161805
135	0xbd58faf8	-0.052973717
136	0x3d9902ce	0.07471238
137	0x3d4535d2	0.04814703
138	0xbae6c7b9	-0.0017607129
139	0xbcc5915b	-0.024117162
140	0xbda64938	-0.08119434
141	0xbdca13ec	-0.09867081
142	0x3d555891	0.052086417
143	0xbe3abd38	-0.18236244
144	0x3d97076d	0.07374463
145	0xbda05472	-0.07828607
146	0x3d85e80a	0.065383986
147	0x3cfbf4e5	0.030756423
148	0xbd54c4a0	-0.05194533
149	0xbc80037a	-0.015626658
150	0xbd0d0294	-0.034426287
151	0xbc9dcf43	-0.01926387
152	0xbcc71c87	-0.024305595
153	0xbd858f3c	-0.065214604
154	0xbddac8b9	-0.10682816
155	0xbe035543	-0.12825494
156	0xbde35bb7	-0.111014776
157	0xbdca2726	-0.09870748
158	0x3b13a3c3	0.002252803
159	0x3d298dea	0.041395105
160	0x3db86922	0.090044275
161	0x3c6e38fe	0.014539955
162	0xbd9dd7b6	-0.07707159
163	0x3d323b0e	0.04351335
164	0xbd855e02	-0.06512071
165	0x3dbc004b	0.091797434
166	0xbbab5974	-0.0052291695
167	0x3bac9597	0.005266856
168	0x3db824ee	0.08991419
169	0x3d419df1	0.047269765
170	0x3da6947e	0.081337914
171	0xbccc9299	-0.024972247
172	0x3d6b13b1	0.057391826
173	0xbe2ed471	-0.17073227
174	0xbd22ffd3	-0.039794754
175	0xbdd29851	-0.10282958
176	0x3c18b6ed	0.009320957
177	0x3d815d7a	0.06316657
178	0xbc9fcf43	-0.01950801
179	0x3d21f7d5	0.03954299
180	0xbda08641	-0.07838107
181	0xbcb7ebce	-0.022451308
182	0xbd33091a	-0.04370985
183	0xbd2ea884	-0.042641178
184	0xbc54b89a	-0.012983466
185	0xbd8ec8ae	-0.0697187
186	0x3d6b4109	0.05743507
187	0xbd8c9c30	-0.06865728
188	0xbb7bb22f	-0.0038405766
189	0x3cc35bb4	0.023847438
190	0xbbd4e5a5	-0.0064971023
191	0xbd41cbd0	-0.04731351
192	0xbc5d154c	-0.013493847
193	0x3d1354e6	0.035969637
194	0x3e065e2e	0.13121864
195	0xbdb0c3e4	-0.08631113
196	0x3d38a3a8	0.04507795
197	0x3db5aeb2	0.08871211
198	0x3d3bb18d	0.045823622
199	0x3b9c6e57	0.0047738957
200	0x3d0a4ef0	0.033766687
201	0xbc953e0d	-0.018218065
202	0xbd2bf371	-0.04198021
203	0xbd756ef2	-0.05992026
204	0x3dc086ee	0.09400736
205	0x3d02cddb	0.0319346
206	0x3cccdbb6	0.02500711
207	0xbdf99979	-0.12187476
208	0x3d0681f6	0.032838784
209	0xbe0c91c0	-0.13727474
210	0x3e113d93	0.14183645
211	0xbc2673d3	-0.010159451
212	0xbbed0d30	-0.007234238
213	0x3db9b53b	0.0906777
214	0x3e0e2232	0.13880232
215	0x3d30fd62	0.043210395
216	0xbcb963b0	-0.022630543
217	0x3b846940	0.004040867
218	0xbd21d734	-0.039511874
219	0x3d16a7e8	0.03678122
220	0xbda92d1a	-0.082605556
221	0xbdf84dc6	-0.12124209
222	0xbc8c8b6a	-0.017156322
223	0xbcf65964	-0.030071922
224	0xbd83a230	-0.06427419
225	0xbca94199	-0.020661162
226	0xbe012e5e	-0.12615344
227	0x3d8d9338	0.069128454
228	0xbd61c635	-0.055120666
229	0x3bc66199	0.006054115
230	0xbc87631f	-0.016526757
231	0x3de557c7	0.11198383
232	0x3d1cefa9	0.038314495
233	0xbdb16883	-0.08662512
234	0xbd37ada1	-0.04484332
235	0xbd3d568d	-0.04622512
236	0xbcf9230c	-0.03041222
237	0xbda726f3	-0.08161726
238	0xbc8a355d	-0.016871149
239	0xbd18de4a	-0.037321366
240	0x3c5eb2f9	0.013592475
241	0xbdcc010b	-0.099611364
242	0x3d57361e	0.052541845
243	0xbc894468	-0.016756251
244	0xbc205745	-0.009786432
245	0xbc418490	-0.0118113905
246	0xbd563e53	-0.05230553
247	0xbcd68be9	-0.026189761
248	0xbd726746	-0.05918052
249	0x3a7bf1f2	0.0009610943
250	0xbe608a66	-0.21927795
251	0xbdf73e2f	-0.120724075
252	0xb9888ec7	-0.0002604632
253	0xbd880e36	-0.066433355
254	0xbdb55b58	-0.08855313
255	0xbdc3cdf7	-0.09560769

bias f4 [64]
0	0xbd009b23	-0.03139795
1	0x3a028cfc	0.0004980115
2	0xbd632eae	-0.05546444
3	0xbd7e2dfe	-0.06205558
4	0xbd707445	-0.058704633
5	0xbe0ef08b	-0.13958947
6	0x3c5d643a	0.013512665
7	0x3b5d0f8b	0.0033731188
8	0xbc64453b	-0.013932521
9	0xbcd55728	-0.026042536
10	0xbc6a387e	-0.014295695
11	0xbd24dd7b	-0.040250283
12	0xbce0fc04	-0.02746392
13	0xbcafbb4b	-0.021451613
14	0xbc8e91e1	-0.017403545
15	0x3b4d1d9e	0.003129817
16	0xbd8c5019	-0.06851215
17	0x3cf1d83b	0.029522052
18	0xba3e3aeb	-0.0007256704
19	0xbd1d3617	-0.038381662
20	0xbc725a3f	-0.014792024
21	0xbd61e1ed	-0.0551471
22	0xbd0e0664	-0.034674063
23	0x3bf1e9bf	0.007382601
24	0x3b9a0e16	0.004701386
25	0xbc3d5d57	-0.0115578985
26	0xbda56f75	-0.08077899
27	0xbc57bf01	-0.0131680975
28	0xbd16c3f3	-0.036807965
29	0xbd0edc8b	-0.034878295
30	0x3c908cb7	0.017645223
31	0x3d2e9bf7	0.04262921
32	0xbd2aab08	-0.041667014
33	0xbc95d3bc	-0.01828944
34	0xbd84a48c	-0.06476697
35	0xbd99e26e	-0.07513891
36	0xbd54743b	-0.05186866
37	0x3ca0165d	0.019541914
38	0xbb936de9	-0.0044991863
39	0xbc7cf38e	-0.015438927
40	0xbcf175a7	-0.029475046
41	0x3c6e2f74	0.014537681
42	0xbcdd9f6b	-0.027053555
43	0x3d810798	0.063002765
44	0x3ce82205	0.028336534
45	0x3d8cddbb	0.06878229
46	0xbd7e26ae	-0.062048607
47	0x3c8e1913	0.01734594
48	0xbd387898	-0.045036882
49	0xbcd589ce	-0.026066687
50	0xbd5d612e	-0.054047756
51	0x3e3ad1f5	0.18244155
52	0xbd8db613	-0.069194935
53	0xbd18725d	-0.03721844
54	0xbd3f8f5b	-0.046767574
55	0xbc28ea17	-0.010309718
56	0x3d161c4f	0.03664809
57	0x3b2e9c34	0.0026643397
58	0xbd85d3f3	-0.06534567
59	0xbd832858	-0.06404179
60	0xbd3c1b2a	-0.045924343
61	0xbd14685a	-0.03623233
62	0xbd57ad38	-0.05265543
63	0x3bb0f86a	0.005400707

weight f4 [12, 64, 3, 3]
0	0x3e6a28a8	0.22867072
1	0xb8c847b8	-9.550102e-05
2	0x3bf197a8	0.007372815
3	0x3e2df0a2	0.16986325
4	0x3e08cf69	0.1336037
5	0x3d8cc92a	0.068743065
6	0x3e2cddaa	0.16881433
7	0x3d061c3b	0.032741766
8	0xbc44e775	-0.012018074
9	0xbd81e75b	-0.06342956
10	0xba01bb03	-0.00049488264
11	0x3c73de02	0.014884474
12	0xbd0270c5	-0.031845827
13	0x3ca94680	0.0206635
14	0x3bcda2cb	0.00627551
15	0x3c5fdd96	0.01366367
16	0x3cdf95e5	0.027293155
17	0x3a85fb96	0.0010222073
18	0xbca7e94f	-0.020496992
19	0xbc2630e5	-0.010143493
20	0xbc3fc3b1	-0.011704371
21	0x3b4ebc92	0.0031545502
22	0x3cc148fc	0.023594372
23	0x3ccd6fea	0.025077779
24	0xbcad0bf3	-0.021123862
25	0xbc5bcbff	-0.013415336
26	0x3a87449c	0.001032013
27	0x3d0a38d0	0.033745587
28	0xbd0e66ac	-0.034765884
29	0xbd4bead4	-0.049784496
30	0x3e6aa57d	0.22914691
31	0x3e13a110	0.14416909
32	0x3df8106d	0.12112508
33	0xbddf63c8	-0.10907704
34	0xbe8a0123	-0.26953992
35	0x3f2d3673	0.6766121
36	0x3da15a48	0.07878548
37	0x39895e57	0.00026200965
38	0xbca1d772	-0.019756053
39	0x3d51a95b	0.0511869
40	0x3c7e989a	0.015539313
41	0xbd76da86	-0.060266994
42	0x3c0078db	0.007841314
43	0xbd2390a3	-0.03993286
44	0xbd05a296	-0.032625757
45	0xbba6b871	-0.005087905
46	0x3c09f31d	0.008419779
47	0xbb45aba8	-0.003016213
48	0xbbd7d2ab	-0.006586393
49	0x3d6797ef	0.05654138
50	0xbc0047a0	-0.007829577
51	0x3b67234b	0.003526884
52	0xbdb715b2	-0.08939685
53	0xbb702b8c	-0.003664705
54	0xbb58db8b	-0.0033089842
55	0xbe019ba8	-0.12657034
56	0xbc1b29a9	-0.009470382
57	0xbdd33506	-0.10312848
58	0xbdb9a7e9	-0.090652294
59	0xbe44c646	-0.1921626
60	0x3d8ae8e6	0.06782703
61	0xbd3cb814	-0.046073988
62	0xbd909eb9	-0.07061524
63	0xbb961322	-0.0045799175
64	0x3b83baf7	0.0040200907
65	0xbc465f36	-0.012107661
66	0x3c8310da	0.015999246
67	0x3c0e6b96	0.008692643
68	0xbda19778	-0.078902185
69	0x3b23cd05	0.0024994027
70	0xbb8c4d29	-0.004281659
71	0xbbb868d2	-0.00562773
72	0xbd4c6694	-0.049902514
73	0xbd22f0c7	-0.039780404
74	0xbd0058dc	-0.031334743
75	0x3db9caf7	0.090719156
76	0x3be096ff	0.0068539376
77	0xbce693c6	-0.028146636
78	0x3dbd377a	0.09239097
79	0xbcf25a78	-0.029584154
80	0xbc2ebd72	-0.0106652845
81	0x3d73593d	0.059411276
82	0xbd82602f	-0.06366002
83	0xbc6f8cef	-0.0146210035
84	0xbd646872	-0.05576367
85	0x3da544b6	0.08069746
86	0xbd6ef574	-0.05833955
87	0x3d259442	0.040424593
88	0x3c39876c	0.011323791
89	0x3d36091c	0.04444228
90	0x3dc567d4	0.09638944
91	0x3be858fb	0.0070906854
92	0xbda2eb51	-0.07955039
93	0xbd009d27	-0.031399872
94	0xbccb7c78	-0.024839625
95	0x3c73686e	0.014856441
96	0xba6b174e	-0.0008968011
97	0x3c6479b3	0.013945031
98	0xbc8abbb9	-0.016935216
99	0x3c0e8972	0.008699762
100	0x3e8184e8	0.25296712
101	0xbdac4342	-0.08411266
102	0xbd302c60	-0.04301107
103	0xbc87c3d3	-0.016572868
104	0x3ccac17c	0.024750464
105	0x3d3af9e0	0.045648456
106	0xbcbf09ed	-0.023320163
107	0x3d101a44	0.0351813
108	0xbb16a0f4	-0.002298412
109	0xbd62b0f1	-0.055344526
110	0xbd4526bd	-0.048132647
111	0x3cd2abd9	0.025716709
112	0x3bf86bfe	0.007581233
113	0x3d044b4b	0.032298367
114	0x3ca7c06d	0.020477498
115	0x3d5f95c4	0.054586187
116	0xbcf41c71	-0.029798718
117	0x3d41a5f3	0.047277402
118	0x3bb79246	0.005602154
119	0x39609ca5	0.0002142066
120	0x3d30599a	0.0430542
121	0x3d60566b	0.054769915
122	0xbd2677b4	-0.0406415
123	0xbb9e15ee	-0.0048243916
124	0xbcbd684b	-0.02312102
125	0xbd9cf2bd	-0.07663486
126	0xbd491789	-0.04909471
127	0x3d33a63f	0.043859717
128	0x3d410bc9	0.04713038
129	0xbda81674	-0.082074076
130	0xbd2eb386	-0.042651676
131	0x3d8bf0a1	0.06833006
132	0xbc009e43	-0.0078502325
133	0x3c5ca17c	0.013466235
134	0x3cdfe01e	0.027328547
135	0xbc1f7119	-0.009731554
136	0xbb935b80	-0.0044969916
137	0xbb931176	-0.0044881655
138	0x3d99252c	0.07477793
139	0x3c8bf2c8	0.01708354
140	0xbcca0c47	-0.024664057
141	0xbb4352a6	-0.00298039
142	0x3c338ed1	0.010959343
143	0xbb6c2156	-0.0036030612
144	0xbc9555df	-0.018229423
145	0x3d5a3e00	0.053281784
146	0xbd6474cf	-0.05577546
147	0x3d83a9d0	0.064288735
148	0x3d379035	0.04481526
149	0xbd1a8a11	-0.037729327
150	0x3cf2643d	0.029588813
151	0xbccdc164	-0.02511663
152	0xbcfc9b07	-0.030835642
153	0x3c930fa0	0.017951787
154	0xbcaa208b	-0.02076747
155	0x3c4cad0a	0.012492428
156	0x3c2c2591	0.010507003
157	0x3b7e632b	0.0038816433
158	0xbc460c33	-0.012087869
159	0xbb80f454	-0.003935376
160	0xbb8700f4	-0.0041199867
161	0x3aa3db1d	0.0012501214
162	0xbb78ae35	-0.0037945632
163	0xbba4a859	-0.0050249514
164	0x3b5d8482	0.0033800905
165	0x3c826da1	0.015921416
166	0x3c8f0353	0.01745764
167	0xbc80192a	-0.015637
168	0xb8163b93	-3.581827e-05
169	0xbc0c80e0	-0.008575648
170	0xbb7526ac	-0.0037407083
171	0xbb00ea7d	-0.0019671016
172	0x3d82af60	0.063811064
173	0xbc1255b6	-0.008931568
174	0x3c11f4b2	0.008908438
175	0xbdb29b6f	-0.08721053
176	0xbcc61590	-0.024180204
177	0x3af9bf16	0.001905414
178	0x3db13f22	0.0865462
179	0xbc6ddd5f	-0.014518111
180	0x3bf705cd	0.0075385333
181	0x3d302b52	0.043010063
182	0xbbee60ed	-0.007274738
183	0xbc3174d4	-0.010831077
184	0xbd68ff04	-0.056883827
185	0x3bc86fbc	0.0061168354
186	0xbcad35f6	-0.021143895
187	0x3ca15c73	0.019697404
188	0xbbcab4a3	-0.0061860844
189	0x3cbe99b3	0.023266649
190	0x3cb7ec33	0.022451496
191	0xbb511bb6	-0.0031907386
192	0x3d075f83	0.03305007
193	0xbd3d2a90	-0.04618317
194	0x3c541577	0.012944571
195	0x3b2f58b8	0.0026755761
196	0x3c31192f	0.010809227
197	0x3b249643	0.0025113977
198	0x3d86f1c5	0.06589083
199	0x3e16ab9f	0.14713906
200	0xbe8d9fb2	-0.276609
201	0x3d2e4ee8	0.04255572
202	0x3d90827b	0.07056137
203	0x3dc4fbfc	0.09618375
204	0xbd69602b	-0.05697648
205	0x3e14b9bf	0.14523982
206	0xbe00cc55	-0.12577946
207	0xbcd95435	-0.02652941
208	0x3cd54e74	0.026038386
209	0xbb830bbe	-0.0039992025
210	0xbd0afe33	-0.03393383
211	0xbceb88fa	-0.028751839
212	0x3bfd7352	0.0077346945
213	0x3cca3754	0.024684586
214	0xbdbff2eb	-0.09372505
215	0x3d3c1244	0.045915857
216	0xbad66968	-0.0016358318
217	0xbc091d06	-0.008368736
218	0xbc219914	-0.009863157
219	0x3ceead9f	0.029135523
220	0xbca0a007	-0.019607557
221	0xbccab28b	-0.024743339
222	0xbc49beb4	-0.012313534
223	0x3d67e4b5	0.056614596
224	0xbc64ab1d	-0.013956812
225	0x39c93153	0.00038374457
226	0xbd25ba6c	-0.04046099
227	0xbc926b35	-0.017873386
228	0x3c04c1f7	0.008102885
229	0x3d02ddb1	0.031949703
230	0x3dd238f7	0.102647714
231	0xbce0b828	-0.027431563
232	0xbd44a184	-0.048005596
233	0xbd0624c1	-0.032749895
234	0xbd84b590	-0.06479943
235	0xbd3ac36c	-0.045596525
236	0xbd051d25	-0.032498498
237	0x3c963cb4	0.018339492
238	0x3d506082	0.050873287
239	0x3c84a9e2	0.016194288
240	0x3c2213f5	0.009892453
241	0x3d68a68c	0.056799456
242	0x3bb73205	0.0055906796
243	0xbd52bce2	-0.051449664
244	0x3d99f87c	0.07518098
245	0xbd14b64d	-0.036306668
246	0x3c6002b1	0.013672517
247	0x3d6df635	0.05809613
248	0x3c87411b	0.016510537
249	0xbd4a11ac	-0.04933326
250	0xbb8297bd	-0.003985374
251	0xbcff25c2	-0.031145934
252	0xbc1996fb	-0.009374375
253	0x38ea7ab8	0.00011180848
254	0x3d384464	0.044987097
255	0xbcb2b476	-0.021814566

bias f4 [12]
0	0xbb0a165d	-0.0021070458
1	0xbb2669b2	-0.002539259
2	0x3b1bf23e	0.002379551
3	0xbbe0b684	-0.006857695
4	0x3a1dce90	0.0006019855
5	0x3abb3ba9	0.0014284748
6	0x3b854aba	0.004067746
7	0xbaa1ad46	-0.0012334965
8	0xba929c73	-0.0011185542
9	0xbb45edac	-0.0030201478
10	0x3be2ee78	0.0069254003
11	0xbb1d9660	-0.002404593
