train_weight_sr6/model_epoch_5.pth (torch_old, 667646 bytes, 10 tensors)

weight f4 [12, 3, 13, 13]
000000 f4 6c a0 3c a9 27 80 bd 36 b6 27 3d a8 29 dc bc
       0.019583203 -0.062575646 0.040945254 -0.026875332
000010 3d 2e 6f bd bf 00 8f bd ef c8 3f 3d c1 2d 61 bd
       -0.058393706 -0.06982564 0.046822485 -0.054975275
000020 b0 20 4d be fa d2 24 3d 47 30 9e bd 48 aa 2c 3c
       -0.20032 0.040240265 -0.07724052 0.010538645
000030 d0 3c 00 bd f8 ee 0b 3d 08 c4 7c bd e9 c4 14 bd
       -0.031307995 0.034163445 -0.061710387 -0.0363206
000040 5c bd 5f bd d9 b9 a8 3d 3c 7b 29 3d d7 4e 99 3d
       -0.054623947 0.082385726 0.04137729 0.07485741
000050 2e cf 23 be 50 6f 8b bd dc dd e2 bd c1 92 a1 bd
       -0.15997002 -0.068083405 -0.110774726 -0.07889319
000060 2d bb a0 bc 3b 30 9d bb 97 1e 28 bd 87 eb 72 bd
       -0.019620502 -0.0047970093 -0.041044798 -0.059306648
000070 38 57 92 3d f8 8e 69 3d df 16 8f bc 9b 7e 0f bd
       0.07145542 0.05702111 -0.01746696 -0.03503285
000080 05 67 e2 3d 3d e9 b1 bd c4 8d b9 bc a3 2d 1d 3d
       0.11054806 -0.08687065 -0.022650607 0.0383736
000090 e2 d1 98 3b b4 88 20 bd 24 5e 33 3d ad 1c 33 3d
       0.004663692 -0.03919287 0.04379095 0.04372852
0000a0 3a 3a a8 bd 54 45 1b bd d6 ed 41 3d 69 a5 95 3d
       -0.08214231 -0.037907913 0.04734596 0.0730694
0000b0 f9 aa ef 3d a1 7d 22 3d 4d 46 46 be 59 25 fe bc
       0.11702532 0.03967059 -0.19362755 -0.031023668
0000c0 20 c3 0a be d4 c1 d2 3b b1 d8 3d 3d 62 40 2d bd
       -0.13550997 0.0064317975 0.04634923 -0.04229773
0000d0 a4 3e ac bd 79 47 82 3d 22 07 a3 bd 1c 84 cf bd
       -0.08410385 0.063612886 -0.07960345 -0.1013262
0000e0 e3 08 e2 bd 46 b8 87 3d 9d 3f f9 bc d8 eb 20 be
       -0.11036851 0.06626944 -0.030425841 -0.15714967
0000f0 e6 9e 5e bc af ea ca bc 3a ef 9d bd 94 10 34 bd
       -0.013587689 -0.024770109 -0.077116445 -0.043961123
000100 09 8a 93 3d 2b 8b 20 3d e4 ed 88 3d ef 81 04 3e
       0.072040625 0.03919522 0.06685999 0.1294019
000110 4a cf cf 3b de 01 85 ba 8e fd f4 3d f3 2d 76 bc
       0.0063418495 -0.0010147651 0.11962424 -0.015025604
000120 9d 51 b8 bc 53 bd dc bd b2 27 ec bd a3 de b7 bd
       -0.022499854 -0.10778298 -0.11531009 -0.089780115
000130 e8 df 19 be 3a 58 08 be 34 4d 87 bd 7f 52 5d 3d
       -0.1502682 -0.13314906 -0.06606522 0.054033753
000140 53 aa cf bd 18 7c a5 bc b6 0c 57 39 5a ab e5 3d
       -0.10139909 -0.020200774 0.00020508733 0.11214323
000150 1f c5 17 3e 37 88 ce 3b 32 86 89 3d 44 00 a2 3d
       0.1482129 0.006302859 0.06715049 0.07910207
000160 fa ef 30 3e ee 1f 7e 3d 9d 39 16 3c c6 85 45 3c
       0.17279044 0.06204217 0.0091690095 0.01205582
000170 54 c7 d7 bd cd 28 ca bd 95 09 f2 bd 3a eb b1 be
       -0.10536066 -0.098710634 -0.11818234 -0.34749776
000180 e8 dc 89 be 8d 19 33 be ae 03 82 bd 5c 0d a5 bb
       -0.2692635 -0.17490216 -0.06348358 -0.005036993
000190 26 58 93 bc 12 7b c9 3d ac ef 5b bb c1 ff a3 3d
       -0.017986368 0.09837927 -0.0033559604 0.080077656
0001a0 19 c1 08 bd 77 82 98 bc 2b 57 ec 3c a5 3b 77 bd
       -0.033387277 -0.018616898 0.028850159 -0.060359616
0001b0 1b 8c 38 bc 61 35 89 bd 77 d8 53 bd 2d 46 87 3d
       -0.0112638725 -0.06699634 -0.05172011 0.06605182
0001c0 d6 20 e9 bd 2e ef 0e 3b 76 a8 62 be 53 e5 90 bd
       -0.11383216 0.0021810043 -0.22134575 -0.0707499
0001d0 2c 93 13 be 5e f5 a6 3d 9a 0a dd bd d8 1a 95 3d
       -0.1441161 0.08152269 -0.10793038 0.07280511
0001e0 48 93 da bb 52 66 32 be 4f a6 0f 3d 2e 3b 74 bd
       -0.0066703893 -0.17421845 0.035070714 -0.05962675
0001f0 1f 2f cc bd 28 bc ac bc 9d 38 c7 bc 93 ee 01 3c
       -0.09969925 -0.021085814 -0.024318988 0.007930416
000200 16 98 98 bd e8 75 14 bd 8d 6e d4 bd 68 e8 b1 bd
       -0.07450883 -0.036245257 -0.103726484 -0.08686906
000210 e1 da 6c bd 4c a3 8f 3d 86 33 d9 bd 06 95 4a bc
       -0.057825927 0.07013568 -0.106055304 -0.0123646315
000220 f6 75 33 be 88 18 55 bd b8 d0 24 be d8 de 35 bb
       -0.17525467 -0.052025348 -0.16095245 -0.0027751233
000230 c6 4a df bc 2b 5c 2a bc dc 8c b1 bd a0 45 92 3b
       -0.027257334 -0.010397951 -0.08669445 0.0044638664
000240 f1 aa e6 bb f4 2c 89 bd 52 f3 29 be 5e 1e c0 bd
       -0.007039421 -0.06698027 -0.16596726 -0.09380792
000250 ef 62 5e 3d 08 94 35 3b 45 43 31 ba f8 66 1a be
       0.05429357 0.0027706642 -0.0006762038 -0.15078342
000260 97 58 f7 bc 33 2d 3b bd f4 75 87 bc 67 c8 d0 bd
       -0.03019361 -0.045697402 -0.016535737 -0.10194474
000270 89 78 a3 bd a2 6d 01 bd 60 87 11 be 6c 6f e0 bd
       -0.07981975 -0.031598695 -0.14211798 -0.10958752
000280 ea c9 0c 3c 77 45 1d bd 9e 2a 11 be 07 03 85 bc
       0.008593062 -0.038396325 -0.14176413 -0.016236795
000290 c4 33 9a bd b0 ba b6 bc 84 64 81 3a 10 77 ee bd
       -0.07529405 -0.022305816 0.0009871875 -0.11643803
0002a0 59 d4 fa bc c0 6b 48 bc 4a 22 2d bb 78 5a 0f bd
       -0.030618833 -0.012232721 -0.0026418143 -0.034998387
0002b0 50 11 dd 3c f4 55 96 3c 71 d6 8c 3d 10 b7 48 bd
       0.026985794 0.018351533 0.06876839 -0.049002707
0002c0 96 1c 4c 3d f9 30 e1 bc 43 90 98 bd 31 96 a9 bd
       0.04983195 -0.027489172 -0.07449391 -0.082806
0002d0 17 e7 56 3d 70 bf a6 3c d5 18 6d 3d 94 e8 80 bd
       0.05246648 0.020354956 0.05788501 -0.06294361
0002e0 c2 36 ed 3d bc 9e ec bc 59 69 e1 3c be da c3 bd
       0.1158271 -0.028884284 0.027516054 -0.09563206
0002f0 a3 84 e1 bc 6f 28 52 bd 29 93 ea 3c d2 10 bf bc
       -0.027529066 -0.05130809 0.028634625 -0.02332345
000300 7b 61 98 39 3e cb c7 bd ab f9 1b bc b5 cf 21 bd
       0.00029064328 -0.09755562 -0.009519975 -0.039504725
000310 d3 cd 10 3e fa 62 98 bd 9b ad 06 be 87 00 9c bd
       0.14141016 -0.07440753 -0.13152163 -0.07617288
000320 1b e6 79 3d 56 10 28 3c ce ef 67 3d 98 aa f3 3c
       0.06101046 0.010257801 0.05662518 0.029744431
000330 c0 04 2d bd c0 cf 1f bd 52 bb cc 3c ba 5f e2 3b
       -0.042240858 -0.039016485 0.024991665 0.006908384
000340 95 7c 37 3d 9d 97 40 3d 93 d1 c5 3d fa 2a ff 3d
       0.044796545 0.04701959 0.09659114 0.12459369
000350 40 68 df 3c 27 da a2 bc 80 0e e3 3c f0 ab 34 3d
       0.02727139 -0.019879414 0.027716875 0.044109285
000360 7c 67 42 3c 60 5b 0b 3d 6a ef c7 bd e0 8a 18 be
       0.011865493 0.03402269 -0.097624615 -0.14896727
000370 06 77 a8 3d 23 82 b7 3d 12 67 57 bd ca f1 f6 bd
       0.08225827 0.089603685 -0.05258853 -0.12057836
000380 81 d0 9e bd 25 45 47 bd 4f 76 f8 bc 76 45 0d be
       -0.07754613 -0.048649926 -0.030329851 -0.13796028
000390 a6 db af 3c b5 75 01 bb 6a d5 00 3d b2 53 e8 bd
       0.021467041 -0.0019753997 0.031453528 -0.113440886
0003a0 7d cd 23 3d d0 77 b7 3d 72 a5 fa bc ec 04 0e 3e
       0.03999089 0.08958399 -0.030596469 0.13869065
0003b0 32 c0 3b 3c 9e 6f 94 3d 96 28 14 bd 2b 6d 0e 3c
       0.011459397 0.07247852 -0.03617152 0.00869302
0003c0 1b b9 5c bc d6 89 a1 bd 82 ce a1 bd 94 1a 33 3c
       -0.013471867 -0.07887618 -0.07900716 0.01093163
0003d0 63 4e be bd 73 3e fe bd 92 ee e8 bc 50 76 a9 bd
       -0.09292295 -0.12414255 -0.028434072 -0.082745194
0003e0 ad 02 ea bd 50 b9 65 bd 05 ea 5d 3d f4 56 73 3d
       -0.114262916 -0.05608493 0.054178257 0.059409097
0003f0 ad 8f e8 3c 59 13 02 bd c5 1d e6 bc fe 9d de 3d
       0.028388822 -0.031756733 -0.028090367 0.10869978

weight f4 [64, 12, 7, 7]
000000 03 8a 22 3e dd 43 9e bc fd df 09 bd ca cb d2 bc
       0.1587296 -0.01931947 -0.033660877 -0.02573194
000010 14 4c 84 bd 2d ad d7 bc f7 eb 16 be c1 8c bc bd
       -0.06459823 -0.026327694 -0.14738451 -0.09206534
000020 da 0d 41 bd 86 d5 14 3c 35 d3 84 3d fa ca 14 3e
       -0.04713235 0.009084111 0.06485597 0.14530554
000030 19 71 b5 3d 70 b4 2a 3e d1 c2 50 3d 73 b7 8a bd
       0.08859462 0.16670394 0.05096704 -0.067732714
000040 0d 74 43 3b 68 89 bb bd 9f 27 31 be 9e 71 07 be
       0.002982381 -0.091570675 -0.1730027 -0.13226935
000050 b4 a1 04 be 45 2a 2c be cf 13 78 bd 63 ab fb bc
       -0.1295231 -0.16813 -0.060565766 -0.030721372
000060 d5 b9 0e 3e dd 0d 36 3e ad 7f 90 bd fd 3a be bd
       0.13938077 0.17778726 -0.07055602 -0.09288595
000070 37 d8 a4 3d ab 6c a1 3c d2 5b 00 3d 04 85 ec bb
       0.08049052 0.019705137 0.031337567 -0.007218005
000080 2e ea 29 bd b7 c6 a4 3d 70 ff f7 bc 40 a3 8f bd
       -0.041483097 0.08045714 -0.03027317 -0.07013559
000090 7c 20 63 be 85 d0 05 be eb 99 d1 3d 77 8d 97 bd
       -0.2218036 -0.13067825 0.10234436 -0.07400029
0000a0 83 40 5b 3e d6 cc 80 bd 74 9d 10 bd 14 b1 03 be
       0.21411328 -0.06289069 -0.03530641 -0.12860519
0000b0 33 04 39 bd 64 47 35 3e bd 70 a0 bd b5 a7 e0 bc
       -0.04517002 0.17703015 -0.07834003 -0.027423719
0000c0 db ea d3 bd e9 e8 07 bd 1d 7e aa 3b ec 8b b6 bd
       -0.103475295 -0.033181105 0.005203022 -0.08913407
0000d0 33 7f 2a 3e d3 90 07 bd 18 2a a1 bb c7 56 03 bd
       0.16650085 -0.0330971 -0.004918348 -0.03206518
0000e0 6a 32 4c 3c da 5e e6 3c 52 ce aa 3d 1e 20 42 3d
       0.0124631915 0.0281214 0.08340134 0.04739391
0000f0 91 0f 52 be 32 26 99 bd 01 88 b4 3d be 48 53 bd
       -0.2051375 -0.07477988 0.08815003 -0.051583044
000100 fb c4 f4 bc 6a 2c 68 3d 2c dd 88 be c7 34 8e 3b
       -0.029879084 0.05668298 -0.2673124 0.0043397876
000110 78 99 94 3e ef f2 48 3d 88 37 83 3d aa 07 6d bc
       0.29023337 0.049059805 0.06407076 -0.014467159
000120 14 29 8f bd 9d 12 bf bd 4b ac 82 3c 86 f9 d4 3d
       -0.06990257 -0.09329722 0.015951296 0.10399155
000130 ff d3 16 be a7 6e f6 bc 20 5c b9 bc c7 79 59 3e
       -0.14729308 -0.03008206 -0.022626936 0.2123786
000140 57 93 a3 be 06 70 31 3e 44 46 bc bc 37 b3 3d 3d
       -0.3194835 0.1732789 -0.022982724 0.04631349
000150 62 17 09 3d 9f 23 dd 3d 16 f7 a0 bd 1c 90 90 bd
       0.033469565 0.1079781 -0.07859628 -0.07058737
000160 19 6e 03 3e 4c 09 67 be a7 f2 12 3e bb 82 f1 bc
       0.12834968 -0.2256214 0.14350377 -0.029481282
000170 be 7e 76 3d 4f 5d f6 bd 8f 07 fb 3d da dc 42 be
       0.060179465 -0.12029516 0.12257301 -0.1902956
000180 88 7d 56 3e f1 06 2b bd 47 e3 bf bb cb aa 82 ba
       0.20946324 -0.041754667 -0.005855951 -0.0009969113
000190 d8 94 ec 3c f2 d4 3a 3d 74 91 0e 3d 51 a8 40 3d
       0.028879568 0.045613237 0.034806684 0.04703552
0001a0 ee 98 6e bb 08 03 9a 3d 32 7c ff bd 70 5e 0c be
       -0.0036407071 0.075201094 -0.1247486 -0.137079
0001b0 86 02 ab bc 66 6a 8c 3d 93 91 f1 3c 0a de 0b 3d
       -0.020875227 0.068562314 0.02948836 0.0341473
0001c0 c0 41 ab 3c 7b 86 0f be 44 34 fa bd 98 d9 f2 bc
       0.020905375 -0.14016144 -0.12217 -0.029644772
0001d0 bf 8d 27 3d bb 39 9b 3d 80 2d d3 bc c6 d1 b5 bc
       0.040906664 0.075793706 -0.025778532 -0.022194754
0001e0 d3 4b 5b bd bc 22 88 bd 57 e0 88 3c cc 51 be 3b
       -0.05353911 -0.0664725 0.016708536 0.005808091
0001f0 8d 15 7e 3c 6e aa f8 bd af 89 0b be 93 4d 0c be
       0.015508068 -0.12141882 -0.13626741 -0.13701467
000200 41 2e b3 bd 1c 04 c1 3d 69 75 9f 3d f0 f4 ee 3d
       -0.087490566 0.09424612 0.07786066 0.11667812
000210 ad c5 af 3c 58 48 ac bd 7b fa f6 bd f5 fb 46 be
       0.021456564 -0.08412236 -0.12059494 -0.19432051
000220 d7 b3 b8 3d 17 7e 98 3d 9a b3 be 3d 21 00 01 bd
       0.09018677 0.07445925 0.093116 -0.031494264
000230 ad 81 57 bd 3f 27 f1 3c f7 45 4b be 0c 6a 6f 3e
       -0.052613903 0.02943766 -0.19850908 0.23380297
000240 f0 01 ee 3c a1 f3 e2 3d 65 ad 94 bb 37 14 be bd
       0.029053658 0.11081625 -0.004537272 -0.092811994
000250 46 81 7b 3c 65 13 c2 3d 41 4c b1 bc 7e 59 f0 bc
       0.015350645 0.094763555 -0.021642806 -0.029339548
000260 b0 d8 f7 bd 70 75 77 bc 0b 50 8e 3c 7d 62 c4 bc
       -0.12101877 -0.015103683 0.017372152 -0.023972744
000270 bc 74 31 bd 9e 3c 32 bc 0f eb 1a 3c 63 4d 2e bd
       -0.043324217 -0.01087871 0.009455456 -0.04255427
000280 0b 0d 96 bd 39 79 8b bd 31 a3 8f 3c 09 be 2c 3b
       -0.073267065 -0.06810231 0.01753387 0.0026358387
000290 a2 67 7a 3d 96 bd b1 bd f1 5b be bb b2 b5 3b 3d
       0.06113399 -0.08678739 -0.0058093 0.045827575
0002a0 2d 93 9c 3d 97 9a d5 3d e3 bb ae bd 75 2e 90 bc
       0.07645259 0.10429876 -0.0853193 -0.017600277
0002b0 3c a5 c0 bd 2d 5e 8a bd e9 82 05 be 20 8c 35 3c
       -0.09406516 -0.06756244 -0.1303822 0.011080772
0002c0 ab a8 2c 3d 38 dc bd bd 96 12 d8 3c f7 23 66 bd
       0.04215304 -0.09270519 0.02637605 -0.056186642
0002d0 68 03 bd bd ac c2 5c bd 8a e1 3a be 79 95 c0 bd
       -0.09229165 -0.05389659 -0.18250099 -0.0940351
0002e0 10 ed 42 3d 1d 80 47 bc d9 71 95 bd be 0d 17 be
       0.04758936 -0.012176541 -0.07297105 -0.14751336
0002f0 c6 44 0c bd de 77 15 be ca 72 1b bd 2c 31 8c bd
       -0.034245275 -0.14596507 -0.03795127 -0.06845316
000300 9a 69 12 3e 79 9f 12 be fc 24 64 3b 6e 39 d0 3d
       0.14298096 -0.14318646 0.0034812083 0.10167204
000310 b3 3b cb bd cf 1f db 3b 6c 80 96 3d 47 7f 54 3d
       -0.09923496 0.0066871415 0.07348713 0.051879194
000320 a5 7c 39 be 7a ff ae 3d a8 1c 0c 3c 66 e5 63 3d
       -0.18113954 0.08544822 0.008551754 0.055638693
000330 04 fd 8c bc d9 56 9e 3c cf 77 a3 bd f8 4b 98 3c
       -0.017210491 0.019328522 -0.07981836 0.018590912
000340 af 7a 55 3e 0b 6f 4b bd d1 b8 bf 3d 7b 29 82 3c
       0.20847581 -0.049666446 0.09361423 0.01588892
000350 8b 0b 05 bc 27 fe ba bd 01 6f 0b 3e 4c d2 1f 3e
       -0.008120428 -0.09130507 0.13616563 0.15607566
000360 17 71 8a be 99 db 89 bd 66 cb 08 bd a4 37 ae 3d
       -0.27039406 -0.06731338 -0.0333971 0.08506706
000370 6b 34 0f bd 2e 21 c1 bb 70 cb 47 be 2f db 37 bd
       -0.0349621 -0.005893848 -0.19511199 -0.044886764
000380 e8 4b 28 3d 2b 57 0c bc 87 3a be bd fd 97 58 3d
       0.041088015 -0.008565704 -0.09288507 0.052879322
000390 35 e4 02 be ed e5 05 3e 45 14 1a 3e 63 c2 17 3c
       -0.12782367 0.13075991 0.15046795 0.009262654
0003a0 ac c2 b2 3c 46 b5 4c 3d cb 55 50 bd 68 7c dc 3d
       0.021821342 0.049977563 -0.05086307 0.10765916
0003b0 0e 94 0f 3c ee 79 63 be 7c dd 05 bd d2 68 c1 3c
       0.008763326 -0.22214481 -0.032681927 0.023609553
0003c0 4b bf c6 bc d0 3f 8e bd 6b 04 93 3d 6a 05 ae bd
       -0.024261137 -0.06945765 0.07178577 -0.084971264
0003d0 b5 3a 0b 3e 6c c7 7f 3d 2a e9 09 bd b5 4e a7 ba
       0.13596614 0.062446043 -0.03366963 -0.0012764545
0003e0 ad c3 ef bd 55 d6 de bc 99 36 72 bd 3a 3c 7e 3d
       -0.11707244 -0.02720181 -0.0591341 0.062069155
0003f0 b7 db cd 3c ea 00 99 bd d6 83 9d bd c2 c0 07 be
       0.025129182 -0.074708775 -0.07691161 -0.13257125

weight f4 [64, 64, 3, 3]
000000 e4 6f 47 be 3e ff 96 3d 47 f9 1f 3e 68 4f 93 3d
       -0.19476277 0.07372902 0.15622436 0.0719288
000010 b9 ea 03 3d 8d b9 86 bc 15 c3 38 3e 04 2b a1 3c
       0.03220627 -0.0164459 0.18043168 0.019673832
000020 a1 ab 07 3e af be 3f 3d 0e a5 cc 3c 78 06 99 3d
       0.13249065 0.04681271 0.024981048 0.07471937
000030 7f 08 15 3c 72 a1 ce 3d 15 59 37 3b 3c f2 c4 3d
       0.009096264 0.10089387 0.002797668 0.09616515
000040 3c 42 4a bd e7 18 cc bd ad f9 bf 3d a7 2a fa 3c
       -0.049379572 -0.09965687 0.09373794 0.030537916
000050 24 87 bb bd b4 8b ef bd ae 47 4c 3e 52 f4 0c bd
       -0.091566354 -0.11696568 0.19949219 -0.03441269
000060 ad b8 f4 bd 98 6b cf bd 9a d4 1c bd fd e4 f4 3d
       -0.119492866 -0.10127944 -0.03828869 0.119577385
000070 07 93 84 3d 9f 36 83 bd 80 34 a1 bc 1e d2 36 3c
       0.06473356 -0.064069025 -0.019678354 0.011158494
000080 96 90 55 3d 71 0f 33 bc b7 2b d1 bc a2 8e 49 3d
       0.05213984 -0.0109289745 -0.02553354 0.04920829
000090 e6 5b 76 bd d5 13 17 3c 2b 21 87 bd 7e ac c8 3d
       -0.060146235 0.009221037 -0.06598123 0.09798525
0000a0 df e2 38 bc cb 02 28 bd f3 41 04 3b c5 d9 29 bd
       -0.011284559 -0.04101829 0.002018091 -0.041467447
0000b0 0d 0f 30 bd 6f 49 c6 bd 86 80 86 bc 6b f3 a4 bc
       -0.042983104 -0.09681975 -0.016418707 -0.020135602
0000c0 5f 16 43 3e 17 63 70 3d 40 a3 cb bc ae 18 49 3d
       0.19051503 0.05868825 -0.024858117 0.049095802
0000d0 c5 f9 07 3c 98 bc 7e bd 73 e3 57 3c a6 a6 10 3d
       0.008299296 -0.062191576 0.013176787 0.03531518
0000e0 2a 6a 8c bd bd 01 c7 bc 08 40 03 3d 5f 97 9f bc
       -0.06856187 -0.024292821 0.032043487 -0.019481359
0000f0 8d 92 bb 3d 02 44 93 3c 4c 58 cc bd 15 11 80 bd
       0.09158812 0.017976765 -0.09977779 -0.06253258
000100 27 70 d7 3b 02 4a a4 3c 0d d9 c3 bc e2 47 5d 3d
       0.006574649 0.02005482 -0.023907209 0.05402363
000110 4b 39 54 3d 49 15 9c bd 97 78 69 3d 6f 87 14 bd
       0.05181245 -0.07621247 0.05699977 -0.036261972
000120 7b da 88 bd 9b a2 9f bd 91 cb ab 38 bb 7d a1 be
       -0.06682297 -0.077946864 8.1918326e-05 -0.31541237
000130 40 99 39 be bb 40 b7 3c bc b2 03 be 4f d3 d1 bd
       -0.18124866 0.022369733 -0.1286115 -0.10245382
000140 af 1f ce bc b5 1a d1 bc 0b a5 87 bd ee 08 4c be
       -0.025161592 -0.02552543 -0.06623276 -0.19925281
000150 3b 43 56 bd 0c e9 9e bd 7d 18 4f be 2d ad e4 bd
       -0.05231021 -0.07759294 -0.20224185 -0.11165843
000160 8a 80 a4 bc 00 12 0a be c2 4b a4 bc 2c c9 05 bd
       -0.020080823 -0.13483429 -0.020055655 -0.032662556
000170 80 39 0f 3d b6 cb de bd c6 46 eb bb 08 c7 f7 bd
       0.034966946 -0.108786985 -0.0071800677 -0.12098509
000180 1a fe 0f bc ca 4c 63 bd e4 43 e3 bc 15 cd 58 bc
       -0.00878861 -0.055493154 -0.027742334 -0.013232489
000190 72 82 a0 3c 6f a7 0c 3d 67 e7 8c bd e3 d0 c3 3c
       0.019593451 0.034339365 -0.06880074 0.023903316
0001a0 eb 3b ac 3d 47 47 5c 3d 6e e5 62 39 e1 06 87 3d
       0.08409866 0.053778913 0.00021638509 0.06593109
0001b0 88 c8 c3 3c 7b 14 b1 3d 4c 16 e7 bd a6 07 bc 3c
       0.023899332 0.086464845 -0.1128355 0.022952866
0001c0 85 ad f3 3c a3 d7 9e be 14 ac 00 3d ad 2a 4e bd
       0.029745826 -0.31023893 0.031414106 -0.050333668
0001d0 7a 71 2c be 36 8b 05 be 79 b3 cc 3c b1 af 03 be
       -0.16840163 -0.13041386 0.024987923 -0.1285999
0001e0 38 f6 a9 3c 8b 6f b9 bd ad d4 a8 bd 1a 97 18 3c
       0.020747289 -0.09054478 -0.0824369 0.009313369
0001f0 4a 23 d5 bd 8d 76 d6 bc 1d 34 65 bd 42 13 3a be
       -0.104071215 -0.026179576 -0.055957902 -0.18171409
000200 7b 16 68 be ab e7 47 be a9 48 00 bf 33 b2 5c be
       -0.22664826 -0.19521968 -0.5011087 -0.21552353
000210 04 41 c5 be 20 ef 53 be 3a 0d 7c be f1 35 e3 3c
       -0.38526165 -0.20696688 -0.2461442 0.027735682
000220 b4 ae 24 3e e7 53 50 3d 11 63 d0 3d 55 9b 7b 3c
       0.16082269 0.050861266 0.101751454 0.015356858
000230 e3 95 6e bd 52 ca c1 ba 57 7a 3d bc 26 a7 84 ba
       -0.058248412 -0.0014785028 -0.011564813 -0.0010120615
000240 dd 50 04 bd 45 e5 1b be 0d 69 a0 3b 8c 81 97 be
       -0.03230368 -0.15224178 0.0048953355 -0.29591024
000250 38 3f ae bd d7 5f ab bc 3b a7 4c bd e0 19 d6 bb
       -0.08508152 -0.020919723 -0.04996417 -0.0065338463
000260 8b b2 3a bd cb f0 04 3c 00 99 9b bd ea eb cb bb
       -0.045580428 0.00811405 -0.07597542 -0.0062231915
000270 bd e3 95 bc e9 43 ab bc 3d 1d 55 3d f4 e5 6e 3d
       -0.01829707 -0.020906406 0.052029837 0.05832477
000280 e0 d7 87 3c 18 55 a2 bd 04 f1 c1 bd 20 a5 5b bd
       0.01658243 -0.079263866 -0.09469798 -0.053624272
000290 fd 06 9e bd 70 c2 4a 39 0b 60 8b bc 57 19 09 bd
       -0.07716177 0.00019336655 -0.01701357 -0.03347143
0002a0 2f 0a b3 bd fa 53 01 bd 53 03 35 3d f2 67 e3 bd
       -0.08742177 -0.031574227 0.044192623 -0.1110381
0002b0 81 44 80 bd 12 2c 93 be 33 ce 9f be c7 d1 cb 3d
       -0.06263066 -0.2874456 -0.31212005 0.09952121
0002c0 b5 26 92 be be 63 8e be ea 47 14 3e 61 02 93 be
       -0.28545156 -0.27810472 0.14480558 -0.28712752
0002d0 5f cf 09 3d 0a a4 a5 3c 58 94 49 bd cb e5 62 3d
       0.03364503 0.020219821 -0.049213737 0.05539493
0002e0 b2 7a 9b bc 1f 2b a5 bb 6f 70 61 bd 86 17 4d 3d
       -0.018979404 -0.005040541 -0.055038866 0.05007126
0002f0 de be a0 3a db 22 06 be b4 d5 dc bd 72 d1 d2 bd
       0.0012263914 -0.13099234 -0.10782948 -0.10293855
000300 d5 4b 02 bd 16 e2 1c 3d b1 34 7d be b6 75 37 be
       -0.0318106 0.03830155 -0.24727131 -0.17915997
000310 71 35 e6 3d 00 72 2d bc 3a 34 2b bd a1 8d 25 bd
       0.11240662 -0.010586262 -0.041797854 -0.04041827
000320 84 33 f2 bc 75 17 f8 3c e7 a5 17 3d 1f bd 4b 3d
       -0.02956558 0.030284623 0.03702345 0.049740907
000330 69 43 73 bd 64 8e df 3b 6c 87 c8 3d 07 f9 a8 3d
       -0.05939046 0.006822394 0.09791455 0.08250623
000340 e7 ce 0c bd bf ee 07 be f7 f1 cf bc b8 66 ff bc
       -0.034377005 -0.13274668 -0.025383933 -0.03117691
000350 da a0 41 3d fe 39 5b bc 3a ff 17 3e ff b7 d4 3b
       0.04727254 -0.013380526 0.14843455 0.0064916606
000360 37 44 4e bd 19 3e dd 3c 00 53 1f 3d e3 b0 5f be
       -0.050358023 0.02700715 0.038897514 -0.2184482
000370 51 3d 0a be 75 68 2c 3d f5 ba e3 bd 9b 56 d8 bd
       -0.13499953 0.042091805 -0.111196436 -0.10563394
000380 1e d9 2c 3d 22 08 e3 bd bc 80 1a 3d 10 c9 88 bd
       0.042199247 -0.110855356 0.037720427 -0.06678975
000390 53 8f 64 3d 80 b3 d6 3d a4 5c c8 bd 90 d7 b7 3d
       0.055800747 0.10483456 -0.09783295 0.08976662
0003a0 56 66 81 3c fa 37 f7 bc d2 f5 15 be de 3e 54 bd
       0.015795868 -0.030178059 -0.14644554 -0.051817767
0003b0 24 de da bc ed 8e 10 be 64 64 b3 bc f1 17 1f bd
       -0.026717253 -0.14117022 -0.021898456 -0.03884119
0003c0 65 58 43 be c3 f9 1e bd ac f9 95 3d c1 d9 b5 bb
       -0.19076689 -0.03881241 0.07323012 -0.00554964
0003d0 38 a6 19 3d 98 c7 55 38 68 ce da 3d a6 47 38 3d
       0.037512034 5.0969044e-05 0.106839 0.044990204
0003e0 47 06 d9 3d 3a 3f 67 bc 31 7d e5 3c 1d 74 ad 3d
       0.105969004 -0.0141141955 0.028013797 0.084694125
0003f0 d7 27 d6 bd 37 0d 50 bd 06 1a b9 3a 7f 55 db bd
       -0.104568176 -0.050793853 0.0014122135 -0.107096665

bias f4 [64]
000000 8f 37 34 bc 0c 45 90 3c b7 43 8a bc 12 df 7a bd
       -0.010999574 0.01761105 -0.016877992 -0.061247893
000010 41 f4 d5 3d c4 b4 1e 3b 31 53 3b bd 6b 49 13 3e
       0.10446978 0.0024216631 -0.045733634 0.14383475
000020 55 ac dd 3d 0f 47 dc 3d c9 0d 0f 3d c9 7a ca 3c
       0.10823885 0.10755741 0.034925256 0.024716752
000030 19 c6 6c 3c 2d 8a 34 3b 64 aa 45 bc 50 a3 0e 3d
       0.014451527 0.002754818 -0.01206455 0.034823716
000040 d4 89 38 bc 91 40 17 bc ed d2 c6 3b 77 0e 7b bd
       -0.01126333 -0.009231702 0.006067625 -0.06129309
000050 58 3d 98 3d 91 e1 0b bd f7 9c 82 3b b5 cd 61 bd
       0.074335754 -0.034150664 0.003985997 -0.05512782
000060 dc 5e e8 bc 4c 10 97 3d 4e 3d d0 3d 7d c2 6f 3d
       -0.028365545 0.07376155 0.10167943 0.058535088
000070 01 48 19 3e 47 a6 9c bc fc 2b ee ba a9 fe 55 bd
       0.14968874 -0.019122256 -0.0018171067 -0.052244816
000080 67 2f be 3b 22 4d de 3d 63 a1 2a bd 0e 68 02 bd
       0.0058039906 0.10854556 -0.041657817 -0.031837516
000090 ee d3 a4 3c 6c 12 3d 3e 43 f8 48 bb 6e db a3 bc
       0.020120587 0.18464059 -0.0030665554 -0.020002093
0000a0 76 ce c6 3d 8b 44 bf bc 40 2e a6 3e a7 2a 09 bf
       0.09707348 -0.023348114 0.3245716 -0.5358071
0000b0 9a 1a 38 39 06 4c 78 3d be 02 be bc aa eb 0e 3d
       0.00017557517 0.060619377 -0.023194667 0.034892716
0000c0 77 04 89 3a c0 cc 43 bd af ee 08 3d 03 c7 95 bb
       0.0010453601 -0.047802687 0.03343075 -0.004570843
0000d0 ad fa fe 3c b6 2e 40 3c 2c cf 65 bb fa ca 58 3c
       0.03112539 0.011729887 -0.003506611 0.013231987
0000e0 72 6c c0 3c c7 6c 96 bd b7 0f 3e 3d 88 e3 dc 3c
       0.02348921 -0.073449664 0.046401706 0.026963964
0000f0 a2 1b 6f 3d 55 be ab 3c 1a da ce bb 88 df 24 bd
       0.058375962 0.02096478 -0.006312621 -0.04025224

weight f4 [64, 64, 3, 3]
000000 8a 4c 41 bb 7e 26 80 3d c7 c1 5e bd cb 09 9d bd
       -0.0029495084 0.06257342 -0.05438402 -0.076678835
000010 96 6e 4a be 39 b6 f9 3c e5 70 9b bb b4 3f e9 bd
       -0.19768748 0.030482398 -0.0047436827 -0.113891035
000020 f0 f1 a7 3b 40 83 f3 3a a6 f9 28 bc 1e da dd 3b
       0.0051252767 0.0018578544 -0.010313427 0.0067703864
000030 22 91 86 3c 5b fe dc bc 4b a1 61 bd 3a 6b 89 3c
       0.016426627 -0.026976755 -0.05508546 0.016774762
000040 87 ea 41 bd 1c 30 33 3c b1 e9 59 3d 68 c3 80 3c
       -0.047342803 0.010936763 0.05320138 0.015718177
000050 97 0f e6 3d 5f 61 1c 3c 61 12 7c 3d 2c f7 ac bd
       0.11233442 0.009544699 0.061540965 -0.08445582
000060 4a 4d 52 bd 4c 76 80 bd 01 18 6c bc f6 4f 9e 3d
       -0.05134324 -0.06272563 -0.01441002 0.07730095
000070 ad 45 c1 3a 4c ca ee 3c 4e 5a dc bb 22 b9 b4 bc
       0.0014745496 0.029149197 -0.0067246323 -0.022060934
000080 1c 3e 57 3d e2 d4 9c bd 7f 67 ce bc 8e bd 4a bd
       0.052549466 -0.07657792 -0.025195835 -0.04949718
000090 f0 37 2b 3c b9 16 eb 3c e7 ca 88 bc 42 36 9a bd
       0.010450348 0.028697358 -0.016698314 -0.0752988
0000a0 39 32 a3 bd e0 be 7e bd 51 92 90 bc b9 ea f5 bb
       -0.079685636 -0.06219375 -0.017647894 -0.0075047878
0000b0 83 f6 91 bc d3 31 f5 bd 62 c9 98 3d 16 43 f5 3c
       -0.017817741 -0.11972394 0.07460286 0.029939216
0000c0 66 e9 3e 3d f4 3e 80 bc 5d b6 e9 3c 02 7a a8 bd
       0.046609305 -0.015655018 0.02852934 -0.08226396
0000d0 c4 e7 4f bd 44 8e c7 3c 5b cc 9b bd 1f 44 4a 3c
       -0.05075814 0.02435983 -0.07607337 0.012345343
0000e0 aa 7c 9f 3c 3e da 4c 3c 89 db d1 3c 60 d4 7a bc
       0.019468624 0.012503205 0.025617378 -0.015309423
0000f0 48 b2 cc 3c 76 85 3c bd 8f ac 07 3c de 99 5f 3d
       0.024987355 -0.046025716 0.008280887 0.0545901
000100 7a 95 9b ba 39 95 2c bc 5a 28 a2 3c 77 0c be bc
       -0.0011870109 -0.010533624 0.019794632 -0.023199303
000110 93 96 a6 3d a0 a7 8d 3c 49 cc b8 bd 23 b7 1a be
       0.081341885 0.017291844 -0.09023339 -0.15108924
000120 b3 bc 92 bd 49 58 51 3c 24 f0 26 3d 6f c9 c9 ba
       -0.07164898 0.0127773965 0.04075636 -0.0015395115
000130 63 93 23 bd 3a 91 8b 3d d7 2b dd bb d9 df 8b bd
       -0.03993548 0.06814809 -0.006749611 -0.06829805
000140 87 0d b2 bc 24 27 77 bd 8e df ee bc bd 5f 72 bd
       -0.021734966 -0.06034006 -0.029159334 -0.059173334
000150 29 18 3d 3e e9 bd 72 3c 06 03 bd 3c 37 fa eb bb
       0.18466248 0.014815786 0.02307273 -0.007201459
000160 d3 46 82 3d 05 b1 2a bd 0e 01 85 bb 7b 18 99 bd
       0.06361165 -0.041672725 -0.0040589636 -0.074753724
000170 18 82 47 bc 97 2c e7 3c 9a 4c 01 3e 32 c7 3b 3d
       -0.012177013 0.028219504 0.12626877 0.045844264
000180 64 59 22 bd 75 86 61 bd 9f 84 47 bb 23 e2 0b 3d
       -0.03963603 -0.05505987 -0.0030444039 0.034151208
000190 95 43 8a bd 85 fb 21 3d 14 5b b2 3d ec fa 9c 3c
       -0.067511715 0.03954651 0.08708778 0.019162618
0001a0 3f 82 de 3b 17 36 7e bc 59 eb 6a 3d 45 06 0e bd
       0.006790429 -0.015515826 0.05735335 -0.034673948
0001b0 26 8b 67 bd af bc 4a bc 8d 97 37 bd 6d 57 b1 bd
       -0.056529187 -0.012374087 -0.044822264 -0.08659253
0001c0 40 cf 7f bd 78 37 08 bd 4b 65 8c bb 19 08 cc bd
       -0.06245351 -0.033256024 -0.004284536 -0.09962482
0001d0 84 80 94 bd fb 38 4d bd e6 44 e7 3c b7 59 28 3d
       -0.07251075 -0.05010317 0.028231096 0.041101184
0001e0 9a cb 83 bd 69 33 e8 bd c8 d0 53 bd 97 66 03 3d
       -0.06435318 -0.11337931 -0.05171278 0.03208026
0001f0 31 45 42 3c ac a3 2f bd 3e 00 0c 3c be 88 21 bd
       0.011857317 -0.0428807 0.00854498 -0.039437048
000200 8a c6 d2 ba 65 65 07 be 0b 96 34 3c 9f 72 2e 3c
       -0.0016080898 -0.13222273 0.011022101 0.010647445
000210 9a 62 d0 bd 60 08 0e 3c 89 98 ab 3d 38 65 2f bc
       -0.10175057 0.008668989 0.08378703 -0.010705285
000220 1b 2e c6 bd e1 3b 9a bd f1 0a cc 3c e2 7d 8e bd
       -0.09676763 -0.07530952 0.024907561 -0.06957604
000230 df a6 f3 bc 4c 41 cf bc b2 f6 c5 bd 74 af 9f 3d
       -0.029742656 -0.02529969 -0.09666194 0.07797137
000240 c4 13 08 3d b1 d9 78 bd 17 93 9e 3c 21 22 9f bd
       0.033221975 -0.06075448 0.019357247 -0.077701814
000250 59 46 0b bb 43 e9 8f bd 2b 16 52 bd a4 83 e0 bc
       -0.0021251647 -0.07026913 -0.051290672 -0.027406521
000260 f9 c0 dd 39 39 35 d4 bc 8b 39 b1 bc d9 bd 7e 3d
       0.0004229618 -0.025904285 -0.021633884 0.06219277
000270 f2 7b 12 3d f7 39 3d 3c 5d 1a 8b bc 57 89 57 3d
       0.035762735 0.011549464 -0.016980344 0.05262121
000280 08 9f f2 bb fd d5 64 bd e5 84 f7 bb e6 56 b9 bb
       -0.007404212 -0.055868138 -0.007553684 -0.005656111
000290 a6 29 fc bd 17 b2 d1 3b a1 72 d2 bc 91 94 64 bd
       -0.12312631 0.006399404 -0.025689425 -0.055805746
0002a0 f0 3f bd 3c a0 76 cd bc 0f 49 6f bc f6 d6 cb 3c
       0.023101777 -0.025080979 -0.014604821 0.024882775
0002b0 ac eb 1a bd 20 18 4a 3c c4 41 02 3d 3b 70 4e 3d
       -0.03782241 0.012334853 0.031801 0.0504
0002c0 17 d4 a3 b9 d2 bb 2a 3d f2 60 f6 bd f4 08 7e bc
       -0.00031247802 0.041683026 -0.120302096 -0.015505064
0002d0 06 b2 ba 3c b6 ed c1 3c 15 58 a8 bd e6 f4 85 3d
       0.022789966 0.02367292 -0.08219925 0.06540851
0002e0 08 50 03 be 65 a0 11 bc e2 f5 e5 3d 15 66 29 3b
       -0.12823498 -0.008888339 0.11228539 0.00258482
0002f0 27 ce 8c bd 2a bf 34 bc ab 31 a5 bc 2f 25 16 bd
       -0.06875258 -0.011031905 -0.020165285 -0.036656555
000300 bd d9 17 bc a9 70 c3 bc ff e6 00 bd ba 6e c4 3d
       -0.009268221 -0.023857431 -0.031470295 0.09591432
000310 9f f8 95 bd 31 66 7a bc 91 86 79 3d f6 03 c7 3b
       -0.07322811 -0.015283153 0.06091935 0.00607347
000320 cd 73 e5 bc 76 fa de 3c 00 53 2c 3b 96 3f c7 ba
       -0.02800932 0.027219038 0.002629459 -0.0015201445
000330 ef 66 bd bc a9 83 bf bc fd 7c bb 3c 30 0b 8f bd
       -0.023120372 -0.02337821 0.022886747 -0.06984556
000340 81 19 9b 3d eb 4b b8 3d 14 c3 3a bc 96 88 88 bb
       0.07573224 0.08998855 -0.011399049 -0.004166673
000350 07 a2 81 3d 22 d3 86 bd 71 33 8e bd 02 ac e6 bc
       0.063297324 -0.06583239 -0.069434054 -0.028158192
000360 97 ae 40 bd 73 3c 9f bd 67 be 49 3d 3c 3f fc 3b
       -0.0470415 -0.07775202 0.049253847 0.007697968
000370 c5 85 3b bd cd 2b b7 bd 00 d2 4e bd 2a d0 e9 bc
       -0.04578187 -0.08943901 -0.05049324 -0.028541643
000380 2e 27 13 bd 8a f8 95 bd 23 01 bd 3d a4 dd d5 bc
       -0.035926037 -0.07322796 0.092287324 -0.026106663
000390 05 37 f5 3c 8f be 98 3d 0d 2e 9a bc 92 2d 4a bd
       0.029933462 0.07458221 -0.018820787 -0.049359865
0003a0 c5 86 07 bd 14 92 29 bd 97 cf 3f 3c 48 4d de bc
       -0.03308751 -0.041399077 0.011707208 -0.02713646
0003b0 a4 a6 ca bc 02 0e 88 3c 84 57 86 bd d4 f0 82 bd
       -0.024737664 0.016608242 -0.06559661 -0.063935906
0003c0 a1 f7 2d bd 8a e3 85 bd 56 f2 f9 bc 0e 93 7b bd
       -0.042472485 -0.0653754 -0.030511063 -0.06141954
0003d0 79 18 ec bd 62 69 ab bd 00 b3 b2 bd 13 95 4e be
       -0.11528105 -0.083697096 -0.08725548 -0.20174055
0003e0 90 a6 c5 bd 27 bb 5b bc 3e c7 19 be 4c 57 38 be
       -0.0965091 -0.01341132 -0.15017411 -0.18002051
0003f0 03 b0 80 3c 62 e2 24 3d 3e ea 12 be b4 2b 79 bc
       0.015708929 0.040254958 -0.14347169 -0.015208174

bias f4 [64]
000000 e4 fa 4e 3d 69 c4 27 3d ba 3f 7e bc 69 7a 97 bc
       0.050532237 0.040958796 -0.015518123 -0.018490987
000010 ad be 2c 3d d9 2f 64 bd 3f e7 6b bc 45 d1 96 bc
       0.04217403 -0.055709694 -0.014398395 -0.018410334
000020 0c 75 99 3b 5b 1f f9 3c 2c 0b d2 3d d3 04 b0 bc
       0.0046831425 0.03041046 0.10256037 -0.021486675
000030 31 26 16 bd bf 36 52 bd d5 24 70 3d e0 9b 08 be
       -0.036657516 -0.05132174 0.058628876 -0.13340712
000040 a4 78 5a bd 2b 19 8c bc 19 00 c4 bc 24 7f 39 bd
       -0.053337708 -0.017101845 -0.023925828 -0.045287266
000050 2b 76 59 3d 5b 63 8a bd 88 29 ea bc 97 58 1f bc
       0.05309121 -0.06757232 -0.028584257 -0.009725711
000060 e4 e8 17 bd 0c 7c 67 3d 99 d6 9e bd 0e c9 51 3d
       -0.037087336 0.056514785 -0.07755775 0.05121713
000070 11 ce 74 bd 86 e1 32 3c bb 1f 06 bd 25 8f 95 3d
       -0.059766833 0.010918027 -0.032745104 0.07302693
000080 ee 91 8e 3b 3f 02 4b bc 1b 7b 67 3b d4 67 6f 3b
       0.0043508923 -0.012390672 0.003532118 0.0036530392
000090 67 fc f4 bc 62 79 01 3c 0a 3b aa bd 5f e3 04 bc
       -0.029905511 0.007902475 -0.08312042 -0.00811085
0000a0 12 6a b0 3b 7b c6 93 bc 2e 2e 4f 3e 9e 4a 6f bd
       0.0053837383 -0.018038979 0.2023246 -0.05842077
0000b0 f0 63 90 bc 80 dc 68 bd 7a c5 0e bd b2 0e d2 3c
       -0.017625779 -0.05685091 -0.034856297 0.025641773
0000c0 4c 11 35 3d e7 ed c3 3d 9c ed 1c bd 0d 7c d4 bc
       0.04420595 0.09566861 -0.03831254 -0.025938058
0000d0 c2 b0 8e 3d 7d 3b ae 3e a9 d9 39 3e 5c 8e 62 bc
       0.069673076 0.3402976 0.18149437 -0.013827886
0000e0 0f 26 d7 3c b3 e2 6f bd f5 76 f3 bc 8f 6d 8a 3d
       0.026263265 -0.058565807 -0.02971981 0.06759178
0000f0 63 85 86 bd ef 43 ad 3d 2d b6 7c bd e1 76 c1 3c
       -0.0656841 0.08460223 -0.061697174 0.023616256

weight f4 [64, 64, 3, 3]
000000 12 6a f8 bc 7a 40 c2 3b ff ee 5c bd eb 88 36 3d
       -0.030324016 0.0059280964 -0.053938862 0.04456417
000010 a5 5d c2 bd ca 97 81 bd 89 2e f8 bd 9f dc b5 3c
       -0.094905175 -0.063277796 -0.12118251 0.022199927
000020 fe 44 c6 3c 2b 1a 3f 3d 3b 59 02 bd f9 c9 35 3d
       0.02420282 0.046655815 -0.031823378 0.04438207
000030 7e 48 a8 3a 7b 42 a3 bc bd ca 4a bd dc 6f 8b bc
       0.0012838987 -0.019929161 -0.049509753 -0.017021112
000040 f9 e6 29 3d 21 6b b4 bd c5 09 de bd 21 e7 5b 3c
       0.04148004 -0.08809496 -0.10841707 0.013421805
000050 f3 e4 ad 3d 9c 51 ca bc f5 de 03 bc a5 09 54 bb
       0.08490934 -0.024697118 -0.008048763 -0.0032354381
000060 eb 57 eb bc 53 9e 94 3c 3c 3b 88 bd b5 75 18 3c
       -0.028728446 0.018141901 -0.06651923 0.009305407
000070 40 38 41 bd b5 8d 91 3c dd 3c 6f bd 3e b1 9a bc
       -0.047172785 0.017767766 -0.058407653 -0.018883344
000080 d7 ae 63 3d de a6 76 3d e9 5c 81 bd ca b0 15 bd
       0.055586662 0.06021773 -0.06316549 -0.036545552
000090 3c e3 46 3a e0 60 c8 3b ea b7 0e 3d ab 92 10 bc
       0.0007586961 0.006115064 0.034843363 -0.008824031
0000a0 54 9f 0e 3d 0a 3f 3c bc 9f 92 ad 3c ae 12 27 3d
       0.034819916 -0.011489639 0.021188078 0.0407893
0000b0 bc 24 60 3c b3 fd da 3c 5e d3 75 3c 63 41 3e bd
       0.013680633 0.026732301 0.015004007 -0.046449076
0000c0 19 18 96 bb 02 e8 cd 3a 87 84 79 bb 31 46 83 bd
       -0.0045805094 0.0015709403 -0.0038073377 -0.06409872
0000d0 d4 28 24 bd 69 d8 bf bd bd 19 e8 bc 0b f4 ff 3c
       -0.040078 -0.09367449 -0.028332585 0.031244298
0000e0 06 6a e4 bc dc e7 db bd 31 69 83 bd 91 2b c0 3d
       -0.027882587 -0.10737583 -0.06416548 0.0938331
0000f0 a7 98 88 3d 70 90 a3 bb c6 b9 02 bd 10 33 e5 3c
       0.06669741 -0.0049915835 -0.03191545 0.02797845
000100 4a 54 b0 bd 0b f3 4e 3d f7 12 20 3d 93 ae 8d 3c
       -0.08609827 0.050524753 0.039080586 0.017295158
000110 27 a9 9f bc 4a 50 b8 bc a4 65 2f ba 12 88 71 bd
       -0.019489838 -0.022499222 -0.0006690866 -0.058967657
000120 df ef 16 bd dd 20 00 be e7 e5 2a be 3a 99 08 be
       -0.036849853 -0.12512536 -0.16689263 -0.13339701
000130 9f c0 00 bd d8 21 dd bd 19 08 34 bd 7c 24 c4 3b
       -0.031433698 -0.10797471 -0.043953035 0.0059857946
000140 47 2c 5b bc bc bb 30 3d d0 c5 05 3d 7e 1a e7 bc
       -0.013377256 0.043147787 0.03265935 -0.028210875
000150 d2 a2 b1 bc 63 6f d3 bc 18 92 ba bc fc e7 be bd
       -0.021684084 -0.02580995 -0.022774741 -0.09321591
000160 65 e8 03 3d 54 82 99 bd da 1a c8 3c 11 43 f0 bc
       0.03220405 -0.07495561 0.024426866 -0.029328855
000170 d5 f4 92 bd 45 9b db 3c 20 c0 21 be 6f 95 af bd
       -0.07175604 0.026807437 -0.15795946 -0.08573424
000180 6d a4 90 bd e1 3e d2 3c 23 46 5f 3b 4c d0 06 3c
       -0.07062612 0.025664749 0.0034068904 0.008228373
000190 35 88 7a 38 9a 71 da bd 2d 19 ed bc f6 75 f2 3a
       5.9731497e-05 -0.10666199 -0.028942669 0.001849829
0001a0 a8 d1 69 bd 94 88 71 bb 12 ea a6 3c a1 a5 77 bc
       -0.05708471 -0.0036855089 0.020375285 -0.015115173
0001b0 ab af 72 bd 50 46 9a bc e4 78 6e 3d fe 66 9d bd
       -0.05924956 -0.018832356 0.05822076 -0.0768566
0001c0 72 6c cc bd 01 a4 86 bd fc 99 1f bc 1f 65 1e bd
       -0.09981622 -0.0657425 -0.009741303 -0.038670655
0001d0 35 72 d2 bc 2b bd 80 bb c1 5b 85 3d 94 54 98 bc
       -0.025689224 -0.0039288006 0.06511641 -0.018595017
0001e0 37 97 5b bd d7 d0 53 3d fa 16 fb bc 66 9e b7 3b
       -0.053611007 0.051712837 -0.030650605 0.0056035994
0001f0 f1 26 87 bc d7 3b 18 bd 56 2d ca bd c5 eb 83 bc
       -0.01649806 -0.037166443 -0.098719284 -0.016103635
000200 f7 ef 8b 3d 88 78 6a 3d cb e0 ba bd bf b1 07 3d
       0.06832879 0.057243854 -0.09124907 0.033128496
000210 8f eb 82 bd 78 fd 63 bd 55 f8 72 bd 57 db fd bc
       -0.063925855 -0.05566165 -0.05931886 -0.030988378
000220 bc 7c 3d 3d ac f1 99 3d 02 97 9f bb 7f 01 4f 3c
       0.046261534 0.075167984 -0.0048702965 0.012634634
000230 50 df 94 bc 6a c5 99 bd 92 9c 0a 3e a2 3a 00 be
       -0.01817289 -0.07508357 0.1353629 -0.12522367
000240 fb e2 5c 3d bd f2 b2 bd 92 32 88 3d 7f 44 ee 3c
       0.053927403 -0.08737705 0.066502705 0.029085396
000250 67 a9 37 bd d1 f3 79 bc 8a 7c 2f bd 8a 42 ac bc
       -0.04483929 -0.015255884 -0.04284338 -0.021027822
000260 7f 44 cb bc 9a e1 e5 bc 35 4a a2 bd e1 84 97 bd
       -0.024812935 -0.028061677 -0.0792431 -0.073983915
000270 bc b7 ed bd 09 a3 91 bd 07 25 c4 3c 5b 4e 83 3d
       -0.1160731 -0.071111746 0.023943437 0.064114295
000280 77 83 d9 3d 1f f6 4a 3c ee 05 cc bc da 4d 17 3d
       0.10620778 0.012387781 -0.024905171 0.03693948
000290 b5 b2 8f bd 42 30 ba 3d 85 c2 3e 3c ab 4a 0f 3d
       -0.070165075 0.09091236 0.011643057 0.03498332
0002a0 87 20 e7 3d b9 d5 47 bc 8e c3 5e 3d 6e f2 f5 bc
       0.11285501 -0.012196952 0.054385714 -0.030022826
0002b0 b3 bf 42 3d a1 92 39 be 62 92 36 bd a2 46 b4 bd
       0.0475461 -0.1812234 -0.044573195 -0.08802535
0002c0 11 fb 57 3c 3d 66 a3 3d 3a f1 9b bc 31 76 b5 3c
       0.0131824175 0.07978485 -0.019035924 0.022151085
0002d0 cf 7f ba bc 09 f8 7f bc b4 78 bd bc 88 c0 08 bd
       -0.022766022 -0.015623101 -0.023128845 -0.033386737
0002e0 90 3e b1 3b 04 cd 2e bd cf b0 bd 3d d9 d0 28 bd
       0.0054090694 -0.042675987 0.09262239 -0.041214798
0002f0 cb cb c7 3c 14 55 53 3d 6e fd 7d bc 8b 2b 21 bd
       0.024389168 0.05159481 -0.015502317 -0.039348166
000300 e9 d9 5a bd c7 51 6a 3c 5e 3d c5 3d aa cd 7f bd
       -0.05343047 0.014301724 0.096308455 -0.062451996
000310 d5 1b 86 3d db 61 08 3e 3c 93 fa 3c 83 fd 9b 3c
       0.06548277 0.13318579 0.030587785 0.019041782
000320 b0 7a 0a 3d 98 ea 11 bd 77 2b de bc dc ac 72 bd
       0.03380841 -0.035624117 -0.027120335 -0.059246883
000330 56 d0 97 3d 43 85 37 3d ad a3 da 3c 87 18 da bd
       0.07412784 0.044804823 0.026689375 -0.106492095
000340 9a f2 3a 3d f8 d7 13 be cc 7b 11 3e df 18 90 bc
       0.04564152 -0.14437854 0.14207381 -0.017589984
000350 22 55 a1 bc 04 6e ba 3d 82 4f 14 3e a8 db 22 3d
       -0.019693915 0.09103015 0.14483455 0.03976026
000360 e6 d2 11 3c 0a b7 80 3b 14 48 7a bd 59 37 27 3d
       0.00890038 0.00392807 -0.061103895 0.040824268
000370 25 5b 5d bd 3f 6f 1c bd e9 15 be 3c a9 53 37 3d
       -0.054042 -0.03819203 0.023203807 0.04475752
000380 e4 b3 a4 bd 77 c4 1a bd bc 8d ca bd 8c 6e 7d 3d
       -0.08042124 -0.03778502 -0.09890315 0.061873004
000390 46 1b 8e 3c 4d fa b2 bc 59 3f af bc 34 ba 75 3d
       0.01734699 -0.021847868 -0.021392511 0.05999203
0003a0 02 4f 67 3d 03 81 46 bd 46 8a 28 bd 9f 31 8d 3c
       0.056471832 -0.04846288 -0.041147493 0.017235575
0003b0 3c 9b 52 bd 93 db 24 bd d4 52 10 bd cf f9 ee 3a
       -0.051417574 -0.040248465 -0.03523524 0.0018232408
0003c0 f4 14 ac 3c 39 ad 63 bd 56 92 8c 3d da 40 5f bc
       0.021006085 -0.05558512 0.06863849 -0.013626302
0003d0 a8 7c 5e 3c 69 7f 80 bc 63 1d bc bc 10 bf 9e bc
       0.013579525 -0.015685754 -0.022963231 -0.019378215
0003e0 01 e5 30 bd 1a 3d 38 3d 24 cb 33 be a8 f3 83 bd
       -0.043187145 0.044980146 -0.17557961 -0.06442958
0003f0 31 6a 27 3d 70 34 72 bd 78 68 4c bd 89 94 b3 bd
       0.040872756 -0.05913204 -0.049904317 -0.08768565

bias f4 [64]
000000 5c 3a 44 bd 80 38 24 bd af 3b 89 bd 3b 15 18 bd
       -0.04790722 -0.040092945 -0.06700837 -0.037129622
000010 64 41 93 bd 5e 3e b2 bd 31 8c 50 3c 56 62 45 3c
       -0.07190207 -0.08703302 0.012728737 0.012047371
000020 1a b5 8e bb d6 a8 2a bd a4 09 8e bc e8 d6 05 bd
       -0.004355085 -0.04166492 -0.017338581 -0.032675654
000030 4e d5 2c bd 69 90 87 3d 30 6c 7c bc 96 ea 20 3d
       -0.04219561 0.06619341 -0.015406653 0.03928622
000040 dd 28 82 bd 30 2d 97 bc 32 f7 a1 3a a7 78 e8 bc
       -0.0635545 -0.018454164 0.0012356995 -0.028377844
000050 01 bf 25 bc 8d a9 4f bd 58 ff 21 bd 5a 82 80 bc
       -0.01011634 -0.050698806 -0.039550155 -0.015687156
000060 f0 71 95 bb 77 02 ed 3c a0 9f 90 bd a3 5e c5 3b
       -0.0045607015 0.02893184 -0.07061696 0.0060232445
000070 8c d0 18 bd 78 d9 fa bc 9e 6c 9d bc 2c 6a 80 3d
       -0.03730826 -0.030621275 -0.019216832 0.06270251
000080 6e 2d 01 3d 5b 6a 82 bc cc 07 74 bd 03 b4 85 bd
       0.031537466 -0.015919855 -0.05957775 -0.06528475
000090 c3 a4 89 bd cb 8b 25 3c 60 26 9d 3b d4 b1 82 bc
       -0.06720879 0.01010413 0.0047958344 -0.015953936
0000a0 85 63 8f bc 23 52 90 3d 2b f2 c9 3d 00 37 81 3b
       -0.01750351 0.07046916 0.09860643 0.003943324
0000b0 7b 1d d4 3a 21 93 c5 3c 7a ca 75 bd c9 cd dd bc
       0.0016183102 0.024118008 -0.06000755 -0.027075665
0000c0 cb 94 5d bd a2 72 63 bd 53 45 5f bd b9 4f 90 3b
       -0.05409698 -0.055529244 -0.054509472 0.004404035
0000d0 12 47 d2 bb 9f 0c 5c bd e3 76 96 bd f9 f7 17 3b
       -0.0064171636 -0.053722974 -0.073468946 0.0023188575
0000e0 ee 0b 06 bd ca 9c d5 bd 50 9c 5b bd 9a d4 25 bd
       -0.03272622 -0.10430296 -0.053615868 -0.040485956
0000f0 d1 25 3a bd 65 b1 cf bc c7 e0 22 bd 0a b0 0e 3b
       -0.04544622 -0.025353143 -0.039765146 0.0021772408

weight f4 [12, 64, 3, 3]
000000 24 1f 58 bd fd b4 05 3d cf 0d 2d bc 0c 62 d5 3a
       -0.052764073 0.032643307 -0.010562374 0.0016279831
000010 3e ab 38 bb 3a bf db bc c4 1f 56 3d 70 e2 c4 bc
       -0.002817824 -0.026824582 0.052276388 -0.024033755
000020 d4 08 de 3c 23 10 67 bd e2 e0 9b 3d 70 05 82 3c
       0.027103819 -0.056411874 0.07611252 0.015871733
000030 48 18 7f bd b3 40 0a 3d 13 96 28 3c 8e 62 0c bc
       -0.062279016 0.03375311 0.010289687 -0.008568419
000040 b9 06 bd bc 47 0f 0a bd f6 18 0c bc a5 72 fd 3b
       -0.023074495 -0.033705976 -0.008550873 0.007734614
000050 37 ed ed bc d5 d4 93 3a e8 26 9c 3d 3a 51 d3 bc
       -0.029043777 0.0011278639 0.07624608 -0.025795568
000060 a7 90 77 3d fe bc 2d 3d 4b 91 23 3c 48 76 fd 3c
       0.060440686 0.042416565 0.009983371 0.03094019
000070 42 4f 84 bd f7 74 a6 3d 52 ef 8a bc 39 e5 05 be
       -0.0646043 0.08127778 -0.01695982 -0.13075723
000080 f8 0a aa 3e 5d a5 61 bb 69 6f e4 3c 7b f7 7c be
       0.33211493 -0.003443084 0.027885156 -0.24703781
000090 38 2c d8 3d ed 86 e6 3c 37 b3 56 bd 1a 80 73 3d
       0.10555309 0.02814051 -0.052417006 0.05944834
0000a0 fe e6 e9 3c d1 bf a5 bd c8 79 d1 3a f1 e8 fc bc
       0.028552528 -0.08093227 0.0015981728 -0.030872794
0000b0 7a 90 82 bd 38 00 88 bb b6 92 6c bb 05 29 08 39
       -0.06375213 -0.0041504167 -0.0036098189 0.00012985252
0000c0 c3 8f 81 bb e7 d7 b5 3d e2 cd c7 3b 72 73 22 3c
       -0.0039539053 0.08879071 0.006097541 0.00991522
0000d0 24 a6 63 bd 6a 2f ee ba c6 01 bc 3c 6c 37 38 bd
       -0.055578366 -0.001817209 0.022950064 -0.04497473
0000e0 03 06 d9 3b 17 0b 74 3d c3 f8 47 bd 9b 07 1e 3d
       0.006623031 0.05958089 -0.048821222 0.038581472
0000f0 e0 c1 9a 3d d2 b4 5e 3c 49 22 ad 3c c5 94 c8 3c
       0.0755651 0.013592916 0.021134512 0.024485001
000100 bc 60 44 bc f9 e5 1a 3c 0e 60 38 bc 0d a0 b9 3d
       -0.011985954 0.009454244 -0.01125337 0.090637304
000110 e0 fc 74 bc 64 a2 61 3c 22 28 82 bd e4 8c cc 39
       -0.014952868 0.013771627 -0.06355311 0.00039014884
000120 96 35 28 bd e7 f9 cd bb db e8 91 bc f1 48 da 3d
       -0.04106673 -0.006285894 -0.01781123 0.10658444
000130 35 34 65 bc 32 72 51 bd 94 87 05 3e 29 32 a2 bd
       -0.013989498 -0.051134296 0.1304 -0.079197235
000140 25 4d f8 bc e4 fa 41 3d e1 7e da bd 86 33 fa 3b
       -0.030310223 0.04735841 -0.106687315 0.0076355366
000150 13 c9 73 bd bd af 74 3d f7 df 9b bd 4d 75 fb 3c
       -0.05951793 0.05973791 -0.07611077 0.030695582
000160 fd 18 d5 3c ab 97 6f 3d d2 ab 7e 3d 66 b1 bf 3b
       0.026012892 0.05849425 0.06217558 0.005850005
000170 ef 1d 8a bd 4e ce c1 bc 9d 43 12 bd a4 38 20 3c
       -0.06743991 -0.023657944 -0.035709012 0.009779129
000180 22 44 33 3d 63 7c 4b 3c 5a 2f 57 bd 89 c5 80 bc
       0.04376615 0.012419793 -0.052535392 -0.015719192
000190 1d 77 19 bc 2a cf 9e 3c 23 71 29 bc 92 0f fb 3b
       -0.009366778 0.019385893 -0.010341915 0.0076617682
0001a0 3b 95 87 bb f2 6b c3 bc 72 5e 35 3d 14 c3 09 bd
       -0.0041376627 -0.023855183 0.044279523 -0.033633307
0001b0 81 fe ec 38 c8 37 41 bd 92 5a 29 bd aa 83 e5 3c
       0.00011300762 -0.047172338 -0.04134614 0.028016884
0001c0 a3 5c 01 3c 36 bc 16 3d bb 3b 37 3c 54 c0 7b 3d
       0.0078956215 0.036800586 0.011183674 0.061462715
0001d0 46 04 12 bd 0b 02 ec 3c 8c f3 c5 3b 21 b3 a2 3b
       -0.035648607 0.028809568 0.006040996 0.0049652015
0001e0 d9 23 0b 3d 9a 83 99 3d bc ac b4 bc 4a 3b a7 3c
       0.033969734 0.07495804 -0.022055022 0.020414013
0001f0 cb cb da bb 9c d8 9a bd 9f e1 98 bd 39 05 e5 3c
       -0.006677126 -0.07560846 -0.07464909 0.027956592
000200 1d e0 29 3d 25 b8 1b bd 54 42 a5 bc f0 fb ab 3d
       0.041473497 -0.03801741 -0.02017323 0.08397663
000210 8e 5f c5 bc f8 19 63 bc be 0e a5 3c 8f d4 5b bc
       -0.024093416 -0.013861172 0.020148631 -0.013417377
000220 d9 6a 9b bc 84 54 ba 3a a1 73 f8 3d ee dd 86 bc
       -0.018971847 0.0014215861 0.121314295 -0.016463246
000230 b7 b5 5c bd 29 3c 21 bd bc 58 9d 3c af fb 2d bb
       -0.053884234 -0.039364014 0.01920735 -0.002654772
000240 07 ee 3a bd f2 d9 89 3c 36 e3 67 bc 8e ab d6 3c
       -0.045637157 0.016827557 -0.014153292 0.02620485
000250 59 76 ac 3d d1 ab 93 3c b1 80 2b 3c 73 23 00 3a
       0.084210105 0.018026264 0.010467694 0.0004888095
000260 78 1b 6c bd dc 58 84 ba 60 1f 68 3c 00 c6 ca bc
       -0.057643384 -0.0010097283 0.014167637 -0.024752617
000270 56 c7 ee bb 65 07 96 bd 44 b7 17 bc 43 78 d7 3a
       -0.0072869463 -0.07325629 -0.0092600025 0.0016439039
000280 ad 82 17 3d fc ed 29 3d 9f fd 19 bd ae bd 70 3d
       0.036989857 0.041486725 -0.037595388 0.058774643
000290 ac 2f d5 3c ac 0f 34 bd 47 5e c2 bc 58 ae a4 ba
       0.026023708 -0.04396026 -0.023726596 -0.0012564166
0002a0 65 d8 93 bb af e6 d2 3c 6e da 52 bc 19 40 90 bd
       -0.00451188 0.025744764 -0.0128694605 -0.07043476
0002b0 7a 66 7d bd e8 9f b9 3b 21 d1 55 3d 73 93 a0 3d
       -0.061865307 0.0056648143 0.052201394 0.07840624
0002c0 65 5a 29 bd d7 1f 94 3d f7 e9 71 3c 85 c8 9b bc
       -0.041345973 0.072326355 0.014765254 -0.019016514
0002d0 4b af 57 bd 78 28 9d 3c 60 05 d8 3c 4c be f4 ba
       -0.052657407 0.019184336 0.02636975 -0.0018672436
0002e0 15 27 cb bc 2d 47 f2 3b b1 cf 89 bc b6 46 9a 3c
       -0.02479891 0.0073937387 -0.016822668 0.018832546
0002f0 5f 7f 9e 3c 59 1e bb 3c 5d 5c cf bb c3 6e 64 bb
       0.019347845 0.02284162 -0.0063281492 -0.0034856058
000300 79 fd 66 3c fb 9c e4 bb 0b 1c ac 3b 7a 75 82 3b
       0.0140985185 -0.0069767213 0.0052523664 0.0039812895
000310 24 a5 b5 bb 20 5f 28 39 c6 1c 25 3d 40 15 2b 3c
       -0.005543368 0.00016057165 0.040310644 0.010442078
000320 b7 f4 bb bd 4c 08 13 3d 22 e0 a8 3d 23 cf c7 bb
       -0.09177535 0.035896584 0.08245875 -0.0060976907
000330 ce f6 a2 bb d7 35 3e 3b be f1 b3 bd 32 cd 84 bd
       -0.004973269 0.002902379 -0.08786343 -0.064844504
000340 55 20 50 bc 82 68 b9 bb db f0 6b bd 89 96 9d bc
       -0.012703021 -0.0056582103 -0.057602745 -0.01923682
000350 b0 ba 4c 3c c4 cf 5b 3c e9 f0 7a 3d 86 ae e1 3d
       0.012495682 0.013416234 0.061264906 0.11019616
000360 ea d0 04 ba e3 1f 11 bd c1 75 8a bd 2a 79 8a 3d
       -0.0005066531 -0.0354308 -0.06760741 0.067613915
000370 f6 8f b3 3d e0 dd 03 be 52 8e 61 3c d3 36 61 3d
       0.08767693 -0.12877607 0.013766842 0.054983925
000380 7f 62 00 be 3c 05 71 3c 1a 2c f8 bc 58 2b 35 bc
       -0.12537573 0.014710721 -0.030294467 -0.011057697
000390 91 63 7d 3c fe c9 09 3c ed 08 cf 3d c2 fd ab bc
       0.015465633 0.008409975 0.10109124 -0.020995025
0003a0 ba ef df bc 8c d4 b1 bc d4 13 9d bc 35 f5 c2 3c
       -0.02733599 -0.021707796 -0.019174494 0.023798564
0003b0 61 04 1b 3d 29 5d 35 bd 32 62 85 3c a1 d7 1a 3d
       0.037845973 -0.044278298 0.016282175 0.037803296
0003c0 33 e6 5e bd 09 0f 09 3d e1 8e b0 bb f8 d4 88 bd
       -0.054418754 0.033461604 -0.0053881262 -0.066812456
0003d0 c3 ad 8c 3d 92 ce 07 bd 2f 43 a7 bc c2 b8 02 3e
       0.0686908 -0.033155985 -0.020417778 0.12765792
0003e0 d0 b7 bb 3c 11 e0 87 bd 64 c9 7e 3c 44 c9 49 bd
       0.022914797 -0.06634534 0.015550945 -0.049264207
0003f0 f9 1f 9b bc f1 5e 45 3d 8e 1d 50 3d 45 99 48 bc
       -0.018936144 0.048186246 0.050809436 -0.012243574

bias f4 [12]
000000 8e aa 0b bb 3a 05 be ba f6 36 b3 3b 0a b8 93 3b
       -0.0021311375 -0.0014497407 0.0054691983 0.004508023
000010 2a 3b 06 3b 81 22 d5 3b 3d b5 1d b9 ae 6a 18 bb
       0.0020482042 0.0065043573 -0.00015040203 -0.0023256945
000020 9d c6 54 3b 2d e5 d5 bb e9 e7 6c 3b c3 0b 16 bb
       0.0032467016 -0.006527564 0.0036148971 -0.0022895194
