train_weight_sr6/model_epoch_10.pth (torch_old, 667646 bytes, 10 tensors)

weight f4 [12, 3, 13, 13]
00000000: b677 c23c 5bb7 19bd 2990 a23d 779d 0dbc
00000010: 2dd5 37bd bd72 9dbd 028a 183d 0ea8 8cbd
00000020: 670d 30be 5278 9e3d d2df 41bd 76f7 333d
00000030: 4db0 acbc 27da f53c fc95 41bd a6a0 77bc
00000040: 0812 4ebd e805 793d 3792 143c e16c 463d
00000050: 99f6 11be 08d1 bcbb d90f 33bd 899c 91bc
00000060: 17c7 3d3d 15ee 6d3b a725 fbbc 447e 6abd
00000070: f107 9d3d 6bcb 0c3d 63cc 58bd c8a5 b8bd
00000080: 01c6 683d 6a27 ccbd e5bb 8b39 8b3f 8c3d
00000090: da27 c13c 81ca 173c 67f1 ae3c fbf8 463d
000000a0: c518 b5bd 9e76 02bd 81ef 0d3d 2ad8 463d
000000b0: 937e 873d f5bb 003d 4774 2dbe ad9f 053c
000000c0: affe a5bd 1023 c23c cc2d ca3d 3689 6bbd
000000d0: 258f a6bd 4275 253d 0f75 99bd e407 9bbd
000000e0: 24e0 f4bd e772 b83c 8761 183b a773 2ebe
000000f0: 3592 9e3c 5bac 223d 39de ffbc 894e 8a3c
00000100: 6e5b 4e3d a203 333d d8ae 623d d80c 143e
00000110: 64cb d23c 4238 72bc 0483 bb3d 4709 8f3c
00000120: 5e1c 72bc 7596 c3bd 90db f8bd 2dae d2bd
00000130: 1947 09be 5046 03be 8d4e 8cbd 86b3 c83c
00000140: c7fc dabd 4a63 c2bc 9689 96bc d801 9d3d
00000150: 832c 433e e3fe fe3a 50ff 9c3d c660 bc3d
00000160: 50d1 2e3e cbd9 963d 8306 0b3d 4c6a 463d
00000170: 88cc c9bd f562 11be 9b6d 23be 1e7c babe
00000180: 30a5 8dbe 41bc 0ebe c71e 61bd 3b30 043c
00000190: 1940 a5bc c3cd 993d 8b17 67bc d4b7 7e3d
000001a0: 03ec 50bc 6758 d4bc 5cdb 97bb dddd 55bd
000001b0: e80e c03c 69b5 0ebd 7606 cebc dd57 973d
000001c0: bd62 ccbd ab72 40bc c00f 67be ce91 79bd
000001d0: a1af 34be 96b0 943d 3978 e7bd 2b02 0c3d
000001e0: 5a5b c0bc ac8a 2abe a362 1f3d 0914 37bd
000001f0: 7ec5 9dbd 4776 40bc 22fb 94bc 6718 2cba
00000200: 1778 85bd 3b33 c8bc c5cf b2bd 997a 81bd
00000210: 585e d1bd ae47 353d 0aba e5bd eef0 84bc
00000220: 3b43 2fbe f903 14bd 2419 0fbe 6757 8b3c
00000230: 1f8f c8bc ae33 c9bb 3561 b4bd 62c6 be3c
00000240: 7133 dc3c 4f86 cdbd 5798 3cbe 2a64 ccbd
00000250: dede 723d e21a 633c ef90 0a3c dd11 13be
00000260: 3a1a 9dbc 60b4 3bbd 503b 74bc 404b c9bd
00000270: bbf3 86bd 9e51 0838 e223 21be d5e4 debd
00000280: 628d 2a3c db0b fabc 91b0 05be 05bd 58bc
00000290: 5b63 a0bd fc76 c3bc e6e9 6abb bbca f8bd
000002a0: 6af1 69bc 26e5 d3bc e74b 43bc e6c0 2abd
000002b0: 8f6a 323c 8af0 ff3c 1c50 863d de19 41bd
000002c0: 08de 853c 165f 05bc 8889 70bd 8bf3 ecbd
000002d0: b2b3 393d 0ec5 d23b 694b 003d c52c 9abd
000002e0: d5e3 eb3d 19c6 aabc 40e5 2b3d 22c4 c6bd
000002f0: daed 17bd 9df9 44bd 4877 8e3d 5794 513a
00000300: b0b5 acbc a78c b0bd 5b87 d0bc 7e1e 68bd
00000310: 3a86 ff3d 802b 94bd a011 0dbe fa99 75bd
00000320: 0fc8 943d 2b17 47bc f761 0c3d 4fcf 303d
00000330: e011 09bd 8ddf 96bd 1f33 ea3c 0729 d3bc
00000340: dc04 b13c c029 023d 77c4 dc3d b4bf e53d
00000350: 8536 353d 824c 293b 9898 6b3d c3fb 1a3d
00000360: b50b 553c b467 4e3d 84a0 f0bd cf2c 0bbe
00000370: 48e0 653d fdb1 823d a522 a5bd 7db2 d2bd
00000380: 09ad 27bd eb02 5ebc 0b44 b93a 2f91 8bbd
00000390: e9de 1bbb d4b0 95bc 26a5 f13c 47db fdbd
000003a0: 03d0 533d a0d3 783d 6254 6cbd 4f0e d93d
000003b0: 3d33 813c e188 8e3d 4138 66bd c2a2 63bc
000003c0: 755e fd3a 3134 d0bd c69c d4bd ab35 dabc
000003d0: b32b 05be 4926 00be 6ab1 2bbd db10 42bd
000003e0: 9a48 b3bd 59c4 67bc 8736 843d 785e 673d
000003f0: 8264 5ebc 96c7 5dbc 789b 50bd f0af ca3d
0.023738723 -0.037528377 0.079376526 -0.0086435 -0.044881035 -0.076879 0.03724099 -0.068679914
-0.17192613 0.07737793 -0.047332592 0.04393717 -0.02108016 0.03001125 -0.047262177 -0.015113985
-0.050310165 0.06079665 0.009068063 0.04844368 -0.14254226 -0.005762223 -0.043716285 -0.017774837
0.046332445 0.0036305238 -0.030657602 -0.057249323 0.0766753 0.034373682 -0.052929293 -0.09015995
0.056829456 -0.09968455 0.00026652138 0.06848057 0.023578573 0.009264589 0.021355344 0.04857729
-0.08842615 -0.031851403 0.034652237 0.048545994 0.06615939 0.03142925 -0.16938888 0.008155745
-0.08105218 0.02369836 0.09872016 -0.0575039 -0.081327714 0.04039503 -0.0749303 -0.075698644
-0.11956814 0.022515727 0.002325149 -0.17036305 0.019356826 0.039715152 -0.031233894 0.016883152
0.050380163 0.043704636 0.055342525 0.14458025 0.02573175 -0.014783921 0.091558486 0.017460478
-0.014777271 -0.09550182 -0.12151253 -0.10287128 -0.13406028 -0.12819791 -0.0685092 0.024499666
-0.10692745 -0.023728985 -0.018376153 0.07666367 0.19059949 0.0019454624 0.076658845 0.091981456
0.17072034 0.073657595 0.033941757 0.048441216 -0.09853464 -0.14197905 -0.1595978 -0.3642282
-0.2766509 -0.13939 -0.054960992 0.00806814 -0.020172166 0.07509949 -0.014104734 0.06218703
-0.012751582 -0.02592106 -0.004634304 -0.05221354 0.023444608 -0.034840975 -0.025149565 0.073898055
-0.0997977 -0.011746089 -0.22564602 -0.060930066 -0.17645122 0.072602436 -0.113022275 0.034181755
-0.02348106 -0.16654462 0.038912427 -0.04469684 -0.07703684 -0.0117469495 -0.018186156 -0.00065649155
-0.06517046 -0.024438491 -0.08731035 -0.06322212 -0.10223073 0.044257812 -0.11217125 -0.016228165
-0.1711549 -0.0361366 -0.13974434 0.01700945 -0.024482308 -0.006140194 -0.08807603 0.023287956
0.026879998 -0.10035383 -0.18417488 -0.09980042 0.059294574 0.01386139 0.008457406 -0.14362283
-0.019177545 -0.045826316 -0.014906719 -0.09828806 -0.06589457 3.250094e-05 -0.15736344 -0.1088349
0.010409685 -0.030523231 -0.13055636 -0.0132286595 -0.078314506 -0.023860447 -0.003584498 -0.12148043
-0.014278749 -0.025866102 -0.011919952 -0.04168787 0.010889663 0.031242628 0.065582484 -0.04714381
0.016341224 -0.008140346 -0.05872491 -0.1156989 0.045337386 0.006432182 0.031321917 -0.0752807
0.11518065 -0.020846413 0.041966677 -0.09705378 -0.037092067 -0.048089612 0.06956345 0.00079948216
-0.02108273 -0.08620577 -0.025455168 -0.056669705 0.124767736 -0.072348595 -0.13776255 -0.059961297
0.07264721 -0.01215152 0.034273114 0.043166455 -0.033464313 -0.07366858 0.02858883 -0.0257764
0.021608762 0.031778097 0.1077966 0.11218205 0.044241447 0.0025832956 0.05751857 0.037837755
0.013003279 0.050391868 -0.11749366 -0.13591312 0.056122094 0.06381605 -0.080632485 -0.1028795
-0.040936504 -0.0135505 0.0014134658 -0.06814801 -0.0023783988 -0.018272795 0.029497694 -0.123953395
0.051712047 0.060748696 -0.05769766 0.10598432 0.015771503 0.06959701 -0.05620599 -0.013893785
0.0019330519 -0.10166205 -0.10381465 -0.026636919 -0.13004951 -0.12514605 -0.041917242 -0.047379356
-0.08754082 -0.014145934 0.06455713 0.056486577 -0.013573768 -0.0135363545 -0.050929517 0.09896839

weight f4 [64, 12, 7, 7]
00000000: 8933 343e 8b6f 47bd 2d42 87bd 5750 e6bc
00000010: 6f14 eabc 786b a83c bfd5 e1bd 45be 57bd
00000020: 7fa6 bcba ef5b 4b3d fc55 753d c54e 043e
00000030: 72ee 973d 2a48 233e 1382 493c 7a5f 04be
00000040: 6e62 6cbd 6e2b 0fbe 82a2 42be 8b37 31be
00000050: c86b 29be da3a 62be 78de 9cbd 5833 983c
00000060: e330 923e 64f0 503e 84c2 08be 94ac 0f3e
00000070: 6a20 4c3d 3a26 ba3c 305a 663d 0635 833c
00000080: c7ef f3bc 2e9e 513d edbe 71bd fe4d bcbd
00000090: 3876 71be d46c 17be 6a01 0d3e face febd
000000a0: 5dc0 6b3e 8b44 30be dac6 8abd 6d1a 15be
000000b0: 8581 a3bd a68c ac3d 4e5f 09be 2ded e6bc
000000c0: 23a8 13be 8e37 27bd 19aa 873b 0238 b0bd
000000d0: 9d55 2f3e f043 a6bc ca36 dabb 0819 f9bc
000000e0: 72d5 433c 9888 3e3c e0f2 f53d 625c 253d
000000f0: b132 7ebe b9a8 59bd 2ff7 ec3d 1777 f7bc
00000100: d096 1dbc 3887 c23d e4cc 9dbe fd1a 8b3b
00000110: bbf5 983e 1a42 aabb 3c5f 733d b7d2 cfbc
00000120: 2d74 1fbd fa1e d8bd 3604 423d cc56 e83d
00000130: 0e08 2ebe 5bf1 0abd 65a8 26bc 04c7 6a3e
00000140: ac85 b2be 8d94 653e 72ab 2ebc 7968 b63c
00000150: 1741 643c e5f8 f03d bc40 babd 2f39 9abd
00000160: bfa5 fa3d 3a56 82be 117d 0d3e c615 a3bc
00000170: c197 593d 5cd0 b0bd 2ee5 003e e9ae 60be
00000180: 7902 633e 6bc2 83bd 1079 27bc 4260 3ebc
00000190: 30cf 013d 9ed8 573d e70e 153d c82f 593d
000001a0: 5ae3 87bb 6726 8d3d cb0e 09be f882 f9bd
000001b0: 431c e3bc bb91 8e3d 78b9 183d cb6a 0c3d
000001c0: 3414 8b3b 32da 18be 9526 16be 4d13 95bc
000001d0: 56af 183d 0cd7 ad3d 821b c3bc 55cd f4bc
000001e0: 49db 75bd bb23 92bd f275 8f3b 7a26 5bbb
000001f0: a7d2 ae3c 0218 f3bd 8672 0dbe 21fb 11be
00000200: f483 a6bd 87de a53d ecae 733d 20e6 f23d
00000210: bf2f cf3c 04c5 afbd fa3e 06be cc8b 69be
00000220: 8990 893d 9df3 7f3d 550c c03d 6a4b d5bc
00000230: ffc4 55bd ea2e 6a3c 151e 57be 89c3 4a3e
00000240: ede5 e83c 1cc0 eb3d d999 8cb9 0185 bdbd
00000250: 3bb6 7a3c c54e c43d 2b6d 123d 8d4c 70bc
00000260: f6dd e8bd 276d c7bc 4a76 913c 447e c6bc
00000270: 5661 31bd 59c7 993d af09 8c3c e5bc 57bd
00000280: a098 99bd ed16 89bd 9ca6 8e3c 95b4 523b
00000290: 6b2f c63d eb5a b3bd 0da2 32bc b57a 863d
000002a0: fb89 9e3d 114e d83d 9638 aabd 2743 9ebc
000002b0: f857 a3bd 6dc0 62bd 8c53 cabd 0cba 493c
000002c0: 723d 193d 4ff9 c5bd 0d7e ad3b 245f 8cbd
000002d0: 2fd4 c0bd c0f1 39bd c74a 3bbe a58b c0bd
000002e0: 0c51 433d 1a62 07bd 27c1 93bd 5e69 17be
000002f0: 4264 1abd fa5f 14be 47a2 1abd 5905 8ebd
00000300: 5b68 f93d b39d 12be a257 523b 1130 c63d
00000310: 42c3 bdbd ee73 f93a b437 9e3d 4fb2 7c3d
00000320: 9344 31be 5242 903d 71e3 13bc e8b4 9e3d
00000330: 57e1 fabc 089b e93b 05f4 12be 3739 d93c
00000340: c722 743e 6d24 0ebd ea60 c33d 0320 c43b
00000350: 35e3 90bc e940 8dbd 6b0b 573e 42d3 023e
00000360: b7af 95be d373 96bd 54b6 08bd 3a2a 7f3d
00000370: 0d24 70bc 879a 473c a61f 8ebe bb26 b93b
00000380: a810 f83c 552d 6cbc ccb5 bdbd 1bb1 5f3d
00000390: e655 19be b51b 173e e38f 423e 7a27 793c
000003a0: 3d3a f13c d92e 823d 2eda 64bd 69d4 f93d
000003b0: edfc 7fbc 8570 49be 31bf ffbc 1b93 0b3d
000003c0: 5821 24bd 5dc3 8fbd 402e 983d 3b79 fdbd
000003d0: 20be 133e 1e9a 893d d88e 08bd ed2f 6cba
000003e0: d175 dcbd f658 a5bc cb4a 84bd e113 ee3c
000003f0: 9972 a73d 30f1 8ebd 534a acbd 4832 01be
0.17597784 -0.04869036 -0.06604419 -0.02811448 -0.028574197 0.020559058 -0.11027097 -0.05267169
-0.0014392881 0.04964822 0.059896454 0.12920673 0.07418527 0.15945497 0.0122990785 -0.12927046
-0.057711057 -0.13981411 -0.19007304 -0.17306344 -0.16545022 -0.22092763 -0.0765962 0.01857917
0.28552923 0.20404202 -0.13355452 0.14030677 0.0498356 0.022723306 0.056238353 0.016016494
-0.02977742 0.051176243 -0.05901997 -0.09194563 -0.23580253 -0.14787608 0.1377007 -0.124418214
0.230226 -0.17213647 -0.06776209 -0.14560862 -0.07983688 0.08425264 -0.13415262 -0.028189266
-0.14419608 -0.040824465 0.0041401503 -0.08604433 0.17122503 -0.020296067 -0.0066593634 -0.030407444
0.011952745 0.011629246 0.12009215 0.040371306 -0.24824025 -0.053139422 0.11570584 -0.030208154
-0.009618476 0.09498447 -0.30820382 0.0042451606 0.29874977 -0.005195868 0.059416994 -0.025369031
-0.038929153 -0.10552783 0.047367297 0.1134468 -0.1699526 -0.03392158 -0.010171984 0.22927481
-0.3486761 0.22419949 -0.010660993 0.022266613 0.013931534 0.11766223 -0.09094378 -0.07530438
0.12238645 -0.2545641 0.1381724 -0.019907843 0.05312324 -0.086334914 0.12587425 -0.21941723
0.22168912 -0.06433567 -0.010221735 -0.011619629 0.03169173 0.052696817 0.036391165 0.053024083
-0.0041469755 0.0689209 -0.1338455 -0.121831834 -0.027723437 0.0696139 0.03728625 0.034281533
0.0042443518 -0.14926985 -0.14663155 -0.01819768 0.03727659 0.084882826 -0.023816828 -0.029883066
-0.06002358 -0.07135721 0.004378074 -0.0033439682 0.021340681 -0.118698135 -0.13813218 -0.14255954
-0.08130637 0.08099084 0.05949299 0.11860299 0.025291322 -0.085824996 -0.13109961 -0.22807235
0.06717021 0.062488187 0.09377352 -0.026036937 -0.052189823 0.014293412 -0.21007569 0.19801153
0.02842995 0.11511251 -0.00026817506 -0.09253884 0.015302236 0.095853366 0.035748642 -0.014666689
-0.11370461 -0.02434404 0.0177566 -0.02423013 -0.043305717 0.07508726 0.017094461 -0.05267038
-0.07499814 -0.06693826 0.01741343 0.0032151092 0.09677013 -0.087575756 -0.010902894 0.06566373
0.077411614 0.10561765 -0.08311574 -0.01931913 -0.07975763 -0.055359293 -0.098792166 0.012312423
0.037412114 -0.096666925 0.0052945674 -0.06854084 -0.09415471 -0.045396566 -0.18290244 -0.09401635
0.047684714 -0.03305254 -0.07214575 -0.14786288 -0.03769327 -0.14489737 -0.037752416 -0.06934614
0.12178107 -0.1431797 0.003209569 0.09677137 -0.09265758 0.0019031742 0.07725468 0.061693486
-0.17311315 0.070438996 -0.009026394 0.07749349 -0.030625029 0.007129077 -0.14350899 0.02651654
0.23841392 -0.034702707 0.09539969 0.0059852614 -0.017686466 -0.06897146 0.2100045 0.12775901
-0.29235622 -0.073463105 -0.033377007 0.06229613 -0.014657033 0.012182838 -0.2775852 0.005650369
0.03028138 -0.014415105 -0.092631906 0.05461226 -0.14974174 0.14756663 0.19000201 0.015207166
0.029446715 0.06356592 -0.055872135 0.12198717 -0.015624267 -0.19671829 -0.031219097 0.034075838
-0.04007086 -0.070196845 0.074306965 -0.123766385 0.14427996 0.06718849 -0.03333935 -0.0009009827
-0.10764659 -0.020184021 -0.06459578 0.029062213 0.08176155 -0.069795966 -0.08412614 -0.12616837

weight f4 [64, 64, 3, 3]
00000000: 65e5 a2be 13c1 0e3e 88ed 223e 055e 5ebc
00000010: 006a b63d 33c6 52bc e680 d63d c1f0 5a3d
00000020: a285 063e cd40 3e3d ba87 6a3c b221 953d
00000030: ac89 113c cb77 bf3d eea8 853a 0bbc c43d
00000040: 8c85 51bd 919b cfbd da69 e23c d61f 19bd
00000050: 6046 bcbd 95d9 f0bd f078 3f3e e828 0ebd
00000060: a0b9 83be cc96 27be 8cd4 1cbd 3de6 f43d
00000070: 0793 843d 9f36 83bd b53d a1bc e62a 373c
00000080: f499 553d a74c 33bc 6c3a d1bc a28e 493d
00000090: e65b 76bd d513 173c 2b21 87bd 7eac c83d
000000a0: dfe2 38bc cb02 28bd f341 043b c5d9 29bd
000000b0: 0d0f 30bd 6f49 c6bd 8680 86bc 6bf3 a4bc
000000c0: 5f16 433e 1763 703d 40a3 cbbc a718 493d
000000d0: 50f9 073c 98bc 7ebd 73e3 573c a3a5 103d
000000e0: 2a6a 8cbd 8c00 c7bc b03f 033d 5f97 9fbc
000000f0: ed91 bb3d e643 933c 4c58 ccbd a84b 7ebd
00000100: fe56 ba3b 0f4c a43c fd1b bfbc 56cb 0f3d
00000110: cc49 543d c914 9cbd ee7a 673d 6f87 14bd
00000120: 9b41 89bd 9ba2 9fbd 9c68 b138 e063 afbe
00000130: 7ff3 3cbe c143 b73c 44ab 01be eb9f 63bc
00000140: 2911 cebc 2533 c8bc cb54 87bd b608 4cbe
00000150: 3b43 56bd a706 9fbd 7d18 4fbe 3bad e4bd
00000160: f3b3 a5bc 0012 0abe 2bc0 6bbc ee00 323c
00000170: 5edc 0d3d b297 5cbd 6602 8fba 37b4 f8bd
00000180: f94b a43c f0bd 0d3e a8bf e4bc f3cc e93b
00000190: 8788 da3b 6fa7 0c3d 6541 31bd ec84 59ba
000001a0: eb3b ac3d fd7e a13d 7214 31bd e106 873d
000001b0: c49a 46bb 73a6 b73d daf8 e8bd b662 71bc
000001c0: 4b8f d43c b82f a0be 1492 2d3a e3f1 4cbd
000001d0: 07c1 34be 8ac2 0abe 0d96 873c 42e6 02be
000001e0: 9150 f03d bf27 95bd f9e5 abbd 09b9 cc3c
000001f0: 1b60 4bbe 5cc9 dfbc 455f b33d 1552 a7bd
00000200: 1798 68be f6e0 0cbb ab4b e8be 700d 5dbe
00000210: 3085 8ebe f287 c7bd f4bb 7cbe e812 84bc
00000220: 6ad5 0a3e e753 503d 5341 ce3d 99e4 1e3c
00000230: e395 6ebd 598a bfba 452f 3fbc 26a7 84ba
00000240: a666 0dbd 9811 1dbe 3b8a aa3b f8d6 bcbe
00000250: 1c08 4cbd 084e a0bc f644 f0bd ed11 1b3d
00000260: dde3 3abd 8bd9 043c 0099 9bbd eaeb cbbb
00000270: a50d 96bc e943 abbc 3d1d 553d 40c8 6e3d
00000280: dad8 873c fb54 a2bd 04f1 c1bd 20a5 5bbd
00000290: fd06 9ebd 70c2 4a39 0b60 8bbc 5719 09bd
000002a0: 2f0a b3bd fa53 01bd 5303 353d c4fa 94bd
000002b0: afa0 15be 4dad 95be 0bb0 33be b7f5 ca3d
000002c0: fd2b 94be 277c 65be ada3 583e fb03 95be
000002d0: cad2 043d ff13 b23c ef97 49bd a137 613d
000002e0: 9538 8dbc d51b a5bb ab12 5fbd ddf4 483d
000002f0: debe a03a 05cf f7bd 16b4 36bc 16d1 d2bd
00000300: de2d c9bd 4ad3 18bd 57a6 79be 7fb4 3bbe
00000310: 2ba0 7d3d fc64 2dbc ad64 2bbd 4ca1 25bd
00000320: 8433 f2bc 7517 f83c 9891 173d 1fbd 4b3d
00000330: 6943 73bd 508e df3b 2287 c83d 442d 0f3e
00000340: 32bc 8e3c 151d 0cbe de5d e33c c8c5 e1bd
00000350: a572 293d 6915 c93c a682 433d c7e2 1a3b
00000360: a3c6 13bb b6e6 183d 141c 1f3d 5db9 2cbe
00000370: 4056 01be e1b2 2b3d 86ae 9bbd 3ecb debd
00000380: 39d1 2c3d 31a4 f4bd 3441 df3c 0218 89bd
00000390: 9263 d53d e941 f13d a45c c8bd 3a1b 413d
000003a0: 8361 1d3d fa37 f7bc c535 11be 311e d7bd
000003b0: 24de dabc ca5f 0bbe 98b0 9dbd f117 1fbd
000003c0: 8b94 3ebe 4896 b3bd acf9 953d 4c54 b6bb
000003d0: f8a2 193d 98c7 5538 68ce da3d a647 383d
000003e0: 4706 d93d 3a3f 67bc d335 e53c 1d74 ad3d
000003f0: d727 d6bd 370d 50bd 061a b93a 7f55 dbbd
-0.3181564 0.1394084 0.15910923 -0.013572221 0.08906937 -0.012864637 0.10473804 0.053452257
0.13136914 0.046448518 0.014314586 0.072818175 0.008882921 0.093490206 0.001019744 0.09606179
-0.05115275 -0.10137094 0.027638365 -0.037383877 -0.091931105 -0.117602505 0.18698478 -0.03470698
-0.25727558 -0.16366118 -0.038288638 0.11957977 0.06473356 -0.064069025 -0.019682745 0.011179661
0.052148774 -0.010943568 -0.025540553 0.04920829 -0.060146235 0.009221037 -0.06598123 0.09798525
-0.011284559 -0.04101829 0.002018091 -0.041467447 -0.042983104 -0.09681975 -0.016418707 -0.020135602
0.19051503 0.05868825 -0.024858117 0.049095776 0.008299187 -0.062191576 0.013176787 0.035314213
-0.06856187 -0.024292253 0.03204316 -0.019481359 0.091586925 0.017976712 -0.09977779 -0.06208387
0.00568664 0.020055799 -0.023328776 0.035106026 0.05182819 -0.07621152 0.05651372 -0.036261972
-0.067019664 -0.077946864 8.459503e-05 -0.34255886 -0.18452261 0.022371175 -0.12662989 -0.013893108
-0.025154667 -0.02443845 -0.0660797 -0.19925198 -0.05231021 -0.07764941 -0.20224185 -0.111658536
-0.020227408 -0.13483429 -0.014389078 0.0108644795 0.034633987 -0.053855605 -0.0010910749 -0.12143748
0.020055758 0.13841987 -0.02792342 0.0071350276 0.0066691074 0.034339365 -0.043275256 -0.00082977
0.08409866 0.07885549 -0.04323239 0.06593109 -0.003030465 0.089672945 -0.1137559 -0.014733007
0.025947234 -0.31286407 0.00066211936 -0.05003537 -0.17651759 -0.13550773 0.016551042 -0.12783149
0.11734117 -0.072829716 -0.08393473 0.024990575 -0.1986088 -0.027317695 0.087584056 -0.08169953
-0.22714268 -0.0021496392 -0.4537023 -0.21587157 -0.2783599 -0.097427264 -0.24681073 -0.016122296
0.13557974 0.050861266 0.10071053 0.009698057 -0.058248412 -0.0014613374 -0.011668985 -0.0010120615
-0.03452172 -0.15338743 0.0052044666 -0.36882758 -0.04981242 -0.019568458 -0.11731903 0.037858892
-0.045627464 0.008108507 -0.07597542 -0.0062231915 -0.018317053 -0.020906406 0.052029837 0.058296442
0.016582895 -0.07926365 -0.09469798 -0.053624272 -0.07716177 0.00019336655 -0.01701357 -0.03347143
-0.08742177 -0.031574227 0.044192623 -0.07274392 -0.14612077 -0.2923378 -0.17547624 0.09910148
-0.2893981 -0.22410642 0.21156187 -0.291046 0.032427587 0.02173805 -0.04921716 0.054984692
-0.017238894 -0.005038718 -0.054461163 0.049061645 0.0012263914 -0.12100033 -0.011151334 -0.10293786
-0.098232016 -0.037310876 -0.2437986 -0.18330573 0.061920326 -0.010583159 -0.04184406 -0.040437028
-0.02956558 0.030284623 0.037004083 0.049740907 -0.05939046 0.006822385 0.097913995 0.13982111
0.017423723 -0.13682969 0.02775472 -0.11024052 0.0413691 0.024546342 0.047732018 0.0023633705
-0.0022548817 0.037329398 0.038845137 -0.16867585 -0.12630558 0.04191864 -0.07601647 -0.10878609
0.042191718 -0.119453795 0.027252771 -0.06694032 0.10419382 0.117801495 -0.09783295 0.047145106
0.038423073 -0.030178059 -0.14180668 -0.105038054 -0.026717253 -0.1361076 -0.07699698 -0.03884119
-0.18611352 -0.08768898 0.07323012 -0.005564248 0.037508935 5.0969044e-05 0.106839 0.044990204
0.105969004 -0.0141141955 0.027979767 0.084694125 -0.104568176 -0.050793853 0.0014122135 -0.107096665

bias f4 [64]
00000000: 6646 abbb 1207 9a3c 32c5 16bd 12df 7abd
00000010: 4139 043e 025e 4039 3153 3bbd bcb8 103e
00000020: b886 e43d e2c7 f63d 1fad 033d d099 253c
00000030: ebed 653c 2981 8e3b 428f f3bb 79c2 1c3b
00000040: 9975 b6bc 0428 1ebc baaa 35bd ed4e 6bbd
00000050: a25f a73d ddfe 9abc 52a1 bd3b 4e0a 66bd
00000060: 7a63 05bd be4a 0cbc c8c6 cd3d 954e 573d
00000070: 5e67 553e 8b77 ddbc c746 4bbb d48b aabc
00000080: b4a5 303b b89b 033e 3036 5bbd 2f9c 11bd
00000090: 3389 b43c 7816 173e 7954 67bd d061 9fbc
000000a0: 62f2 0c3e 9138 82bc 7957 af3e 0558 39bf
000000b0: 252d 173b 99a4 983d 5077 cb3a 79b0 b43c
000000c0: 0d20 e73a 17df 3dbd 572e 0d3d fc63 023c
000000d0: e919 dbbb 8452 8e3c 6dab 9e3a 93e4 443d
000000e0: a859 f43c c76c 96bd fb17 443d eed1 d23c
000000f0: 0aa6 853d 7369 7b3c 12e2 a8bb bd2d 2fbd
-0.005226898 0.0188022 -0.036809154 -0.061247893 0.12912466 0.00018345568 -0.045733634 0.1413297
0.11158508 0.12049843 0.032147523 0.010107473 0.014033775 0.004348893 -0.007432849 0.0023919626
-0.022272872 -0.009653095 -0.04435227 -0.057448316 0.081725374 -0.018920356 0.005787053 -0.05616217
-0.03256557 -0.008562742 0.1004768 0.052565176 0.20840213 -0.027034542 -0.0031017528 -0.020818628
0.0026954236 0.1285237 -0.053518474 -0.03554934 0.022038078 0.14754665 -0.056477044 -0.01945582
0.13764337 -0.015896114 0.34246424 -0.7239993 0.002306768 0.074532695 0.0015523229 0.022056805
0.0017633453 -0.046355333 0.03446802 0.007958408 -0.0066864383 0.01737333 0.0012105532 0.048069548
0.029827908 -0.073449664 0.047874432 0.025734868 0.0652581 0.015344965 -0.005153903 -0.04276823

weight f4 [64, 64, 3, 3]
00000000: 8a4c 41bb 7e26 803d c7c1 5ebd cb09 9dbd
00000010: 966e 4abe 39b6 f93c e570 9bbb b43f e9bd
00000020: f0f1 a73b 4083 f33a a6f9 28bc 1eda dd3b
00000030: 2291 863c 5bfe dcbc 4ba1 61bd 3a6b 893c
00000040: 87ea 41bd 1c30 333c b1e9 593d 68c3 803c
00000050: 970f e63d 5f61 1c3c 6112 7c3d 2cf7 acbd
00000060: 4a4d 52bd 4c76 80bd 0118 6cbc f64f 9e3d
00000070: ad45 c13a 4cca ee3c 4e5a dcbb 22b9 b4bc
00000080: 1c3e 573d e2d4 9cbd 7f67 cebc 8ebd 4abd
00000090: f037 2b3c b916 eb3c e7ca 88bc 4236 9abd
000000a0: 3932 a3bd e0be 7ebd 5192 90bc b9ea f5bb
000000b0: 83f6 91bc d331 f5bd 62c9 983d 1643 f53c
000000c0: 66e9 3e3d f43e 80bc 5db6 e93c 027a a8bd
000000d0: c4e7 4fbd 448e c73c 5bcc 9bbd 1f44 4a3c
000000e0: aa7c 9f3c 3eda 4c3c 89db d13c 60d4 7abc
000000f0: 48b2 cc3c 7685 3cbd 8fac 073c de99 5f3d
00000100: 7a95 9bba 3995 2cbc 5a28 a23c 770c bebc
00000110: 9396 a63d a0a7 8d3c 49cc b8bd 23b7 1abe
00000120: b3bc 92bd 4958 513c 24f0 263d 6fc9 c9ba
00000130: 6393 23bd 3a91 8b3d d72b ddbb d9df 8bbd
00000140: 870d b2bc 2427 77bd 8edf eebc bd5f 72bd
00000150: 2918 3d3e e9bd 723c 0603 bd3c 37fa ebbb
00000160: d346 823d 05b1 2abd 0e01 85bb 7b18 99bd
00000170: 1882 47bc 972c e73c 9a4c 013e 32c7 3b3d
00000180: 6459 22bd 7586 61bd 9f84 47bb 23e2 0b3d
00000190: 9543 8abd 85fb 213d 145b b23d ecfa 9c3c
000001a0: 3f82 de3b 1736 7ebc 59eb 6a3d 4506 0ebd
000001b0: 268b 67bd afbc 4abc 8d97 37bd 6d57 b1bd
000001c0: 40cf 7fbd 7837 08bd 4b65 8cbb 1908 ccbd
000001d0: 8480 94bd fb38 4dbd e644 e73c b759 283d
000001e0: 9acb 83bd 6933 e8bd c8d0 53bd 9766 033d
000001f0: 3145 423c aca3 2fbd 3e00 0c3c be88 21bd
00000200: 8ac6 d2ba 6565 07be 0b96 343c 9f72 2e3c
00000210: 9a62 d0bd 6008 0e3c 8998 ab3d 3865 2fbc
00000220: 1b2e c6bd e13b 9abd f10a cc3c e27d 8ebd
00000230: dfa6 f3bc 4c41 cfbc b2f6 c5bd 74af 9f3d
00000240: c413 083d b1d9 78bd 1793 9e3c 2122 9fbd
00000250: 5946 0bbb 43e9 8fbd 2b16 52bd a483 e0bc
00000260: f9c0 dd39 3935 d4bc 8b39 b1bc d9bd 7e3d
00000270: f27b 123d f739 3d3c 5d1a 8bbc 5789 573d
00000280: 089f f2bb fdd5 64bd e584 f7bb e656 b9bb
00000290: a629 fcbd 17b2 d13b a172 d2bc 9194 64bd
000002a0: f03f bd3c a076 cdbc 0f49 6fbc f6d6 cb3c
000002b0: aceb 1abd 2018 4a3c c441 023d 3b70 4e3d
000002c0: 17d4 a3b9 d2bb 2a3d f260 f6bd f408 7ebc
000002d0: 06b2 ba3c b6ed c13c 1558 a8bd e6f4 853d
000002e0: 0850 03be 65a0 11bc e2f5 e53d 1566 293b
000002f0: 27ce 8cbd 2abf 34bc ab31 a5bc 2f25 16bd
00000300: bdd9 17bc a970 c3bc ffe6 00bd ba6e c43d
00000310: 9ff8 95bd 3166 7abc 9186 793d f603 c73b
00000320: cd73 e5bc 76fa de3c 0053 2c3b 963f c7ba
00000330: ef66 bdbc a983 bfbc fd7c bb3c 300b 8fbd
00000340: 8119 9b3d eb4b b83d 14c3 3abc 9688 88bb
00000350: 07a2 813d 22d3 86bd 7133 8ebd 02ac e6bc
00000360: 97ae 40bd 733c 9fbd 67be 493d 3c3f fc3b
00000370: c585 3bbd cd2b b7bd 00d2 4ebd 2ad0 e9bc
00000380: 2e27 13bd 8af8 95bd 2301 bd3d a4dd d5bc
00000390: 0537 f53c 8fbe 983d 0d2e 9abc 922d 4abd
000003a0: c586 07bd 1492 29bd 97cf 3f3c 484d debc
000003b0: a4a6 cabc 020e 883c 8457 86bd d4f0 82bd
000003c0: a1f7 2dbd 8ae3 85bd 56f2 f9bc 0e93 7bbd
000003d0: 7918 ecbd 6269 abbd 00b3 b2bd 1395 4ebe
000003e0: 90a6 c5bd 27bb 5bbc 3ec7 19be 4c57 38be
000003f0: 03b0 803c 62e2 243d 3eea 12be b42b 79bc
-0.0029495084 0.06257342 -0.05438402 -0.076678835 -0.19768748 0.030482398 -0.0047436827 -0.113891035
0.0051252767 0.0018578544 -0.010313427 0.0067703864 0.016426627 -0.026976755 -0.05508546 0.016774762
-0.047342803 0.010936763 0.05320138 0.015718177 0.11233442 0.009544699 0.061540965 -0.08445582
-0.05134324 -0.06272563 -0.01441002 0.07730095 0.0014745496 0.029149197 -0.0067246323 -0.022060934
0.052549466 -0.07657792 -0.025195835 -0.04949718 0.010450348 0.028697358 -0.016698314 -0.0752988
-0.079685636 -0.06219375 -0.017647894 -0.0075047878 -0.017817741 -0.11972394 0.07460286 0.029939216
0.046609305 -0.015655018 0.02852934 -0.08226396 -0.05075814 0.02435983 -0.07607337 0.012345343
0.019468624 0.012503205 0.025617378 -0.015309423 0.024987355 -0.046025716 0.008280887 0.0545901
-0.0011870109 -0.010533624 0.019794632 -0.023199303 0.081341885 0.017291844 -0.09023339 -0.15108924
-0.07164898 0.0127773965 0.04075636 -0.0015395115 -0.03993548 0.06814809 -0.006749611 -0.06829805
-0.021734966 -0.06034006 -0.029159334 -0.059173334 0.18466248 0.014815786 0.02307273 -0.007201459
0.06361165 -0.041672725 -0.0040589636 -0.074753724 -0.012177013 0.028219504 0.12626877 0.045844264
-0.03963603 -0.05505987 -0.0030444039 0.034151208 -0.067511715 0.03954651 0.08708778 0.019162618
0.006790429 -0.015515826 0.05735335 -0.034673948 -0.056529187 -0.012374087 -0.044822264 -0.08659253
-0.06245351 -0.033256024 -0.004284536 -0.09962482 -0.07251075 -0.05010317 0.028231096 0.041101184
-0.06435318 -0.11337931 -0.05171278 0.03208026 0.011857317 -0.0428807 0.00854498 -0.039437048
-0.0016080898 -0.13222273 0.011022101 0.010647445 -0.10175057 0.008668989 0.08378703 -0.010705285
-0.09676763 -0.07530952 0.024907561 -0.06957604 -0.029742656 -0.02529969 -0.09666194 0.07797137
0.033221975 -0.06075448 0.019357247 -0.077701814 -0.0021251647 -0.07026913 -0.051290672 -0.027406521
0.0004229618 -0.025904285 -0.021633884 0.06219277 0.035762735 0.011549464 -0.016980344 0.05262121
-0.007404212 -0.055868138 -0.007553684 -0.005656111 -0.12312631 0.006399404 -0.025689425 -0.055805746
0.023101777 -0.025080979 -0.014604821 0.024882775 -0.03782241 0.012334853 0.031801 0.0504
-0.00031247802 0.041683026 -0.120302096 -0.015505064 0.022789966 0.02367292 -0.08219925 0.06540851
-0.12823498 -0.008888339 0.11228539 0.00258482 -0.06875258 -0.011031905 -0.020165285 -0.036656555
-0.009268221 -0.023857431 -0.031470295 0.09591432 -0.07322811 -0.015283153 0.06091935 0.00607347
-0.02800932 0.027219038 0.002629459 -0.0015201445 -0.023120372 -0.02337821 0.022886747 -0.06984556
0.07573224 0.08998855 -0.011399049 -0.004166673 0.063297324 -0.06583239 -0.069434054 -0.028158192
-0.0470415 -0.07775202 0.049253847 0.007697968 -0.04578187 -0.08943901 -0.05049324 -0.028541643
-0.035926037 -0.07322796 0.092287324 -0.026106663 0.029933462 0.07458221 -0.018820787 -0.049359865
-0.03308751 -0.041399077 0.011707208 -0.02713646 -0.024737664 0.016608242 -0.06559661 -0.063935906
-0.042472485 -0.0653754 -0.030511063 -0.06141954 -0.11528105 -0.083697096 -0.08725548 -0.20174055
-0.0965091 -0.01341132 -0.15017411 -0.18002051 0.015708929 0.040254958 -0.14347169 -0.015208174

bias f4 [64]
00000000: e4fa 4e3d 96f2 823d 7133 71bc 697a 97bc
00000010: f503 8c3d d92f 64bd 3fe7 6bbc 7c2d 0bbd
00000020: 406f 87ba 46f4 8b3c 1c41 563d d304 b0bc
00000030: 3126 16bd bf36 52bd 5195 8e3d 14be f8bd
00000040: 912c 5fbd 2b19 8cbc 76c8 d3bc 247f 39bd
00000050: 5608 ac3d 5b63 8abd d4e1 01bd 9758 1fbc
00000060: e4e8 17bd 7e3f 7a3d 99d6 9ebd 4d91 3e3d
00000070: 11ce 74bd 7acd 8c3b 6c07 57bc 2187 7d3d
00000080: ee91 8e3b 6843 e8bb 7870 083c d467 6f3b
00000090: 67fc f4bc 6279 013c 7909 d8bd 5fe3 04bc
000000a0: a996 ca3c 7bc6 93bc 1964 413e 2556 2abe
000000b0: bbfe 8dbc c96e 70bd f58c 53bd 9931 c73c
000000c0: d606 5d3d 52be bd3d 54a9 05bd 70f9 f2bc
000000d0: e5b4 4c3d 5b9d c13e 385e 253e e468 ebbb
000000e0: 0fc1 5e3d a357 943c f576 f3bc 2014 843d
000000f0: 4725 97bd 9d64 c73d f5b2 80bd ffc0 683d
0.050532237 0.06393926 -0.014721737 -0.018490987 0.06836692 -0.055709694 -0.014398395 -0.033978924
-0.0010332838 0.017084252 0.052308187 -0.021486675 -0.036657516 -0.05132174 0.069620736 -0.121456295
-0.05448586 -0.017101845 -0.025852423 -0.045287266 0.084000275 -0.06757232 -0.031709507 -0.009725711
-0.037087336 0.061095707 -0.07755775 0.04652529 -0.059766833 0.0042969557 -0.013124328 0.061896447
0.0043508923 -0.0070881136 0.008327596 0.0036530392 -0.029905511 0.007902475 -0.10548682 -0.00811085
0.024730043 -0.018038979 0.1888584 -0.16634424 -0.017333379 -0.058699403 -0.0516481 0.024315642
0.053961597 0.09264816 -0.032632187 -0.029659957 0.049977202 0.37815365 0.16149223 -0.007184135
0.054383334 0.018108195 -0.02971981 0.06449151 -0.07380157 0.09735987 -0.06284133 0.05682468

weight f4 [64, 64, 3, 3]
00000000: 126a f8bc 7a40 c23b ffee 5cbd eb88 363d
00000010: a55d c2bd ca97 81bd 892e f8bd 9fdc b53c
00000020: fe44 c63c 2b1a 3f3d 3b59 02bd f9c9 353d
00000030: 7e48 a83a 7b42 a3bc bdca 4abd dc6f 8bbc
00000040: f9e6 293d 216b b4bd c509 debd 21e7 5b3c
00000050: f3e4 ad3d 9c51 cabc f5de 03bc a509 54bb
00000060: eb57 ebbc 539e 943c 3c3b 88bd b575 183c
00000070: 4038 41bd b58d 913c dd3c 6fbd 3eb1 9abc
00000080: d7ae 633d dea6 763d e95c 81bd cab0 15bd
00000090: 3ce3 463a e060 c83b eab7 0e3d ab92 10bc
000000a0: 549f 0e3d 0a3f 3cbc 9f92 ad3c ae12 273d
000000b0: bc24 603c b3fd da3c 5ed3 753c 6341 3ebd
000000c0: 1918 96bb 02e8 cd3a 8784 79bb 3146 83bd
000000d0: d428 24bd 69d8 bfbd bd19 e8bc 0bf4 ff3c
000000e0: 066a e4bc dce7 dbbd 3169 83bd 912b c03d
000000f0: a798 883d 7090 a3bb c6b9 02bd 1033 e53c
00000100: 4a54 b0bd 0bf3 4e3d f712 203d 93ae 8d3c
00000110: 27a9 9fbc 4a50 b8bc a465 2fba 1288 71bd
00000120: dfef 16bd dd20 00be e7e5 2abe 3a99 08be
00000130: 9fc0 00bd d821 ddbd 1908 34bd 7c24 c43b
00000140: 472c 5bbc bcbb 303d d0c5 053d 7e1a e7bc
00000150: d2a2 b1bc 636f d3bc 1892 babc fce7 bebd
00000160: 65e8 033d 5482 99bd da1a c83c 1143 f0bc
00000170: d5f4 92bd 459b db3c 20c0 21be 6f95 afbd
00000180: 6da4 90bd e13e d23c 2346 5f3b 4cd0 063c
00000190: 3588 7a38 9a71 dabd 2d19 edbc f675 f23a
000001a0: a8d1 69bd 9488 71bb 12ea a63c a1a5 77bc
000001b0: abaf 72bd 5046 9abc e478 6e3d fe66 9dbd
000001c0: 726c ccbd 01a4 86bd fc99 1fbc 1f65 1ebd
000001d0: 3572 d2bc 2bbd 80bb c15b 853d 9454 98bc
000001e0: 3797 5bbd d7d0 533d fa16 fbbc 669e b73b
000001f0: f126 87bc d73b 18bd 562d cabd c5eb 83bc
00000200: f7ef 8b3d 8878 6a3d cbe0 babd bfb1 073d
00000210: 8feb 82bd 78fd 63bd 55f8 72bd 57db fdbc
00000220: bc7c 3d3d acf1 993d 0297 9fbb 7f01 4f3c
00000230: 50df 94bc 6ac5 99bd 929c 0a3e a23a 00be
00000240: fbe2 5c3d bdf2 b2bd 9232 883d 7f44 ee3c
00000250: 67a9 37bd d1f3 79bc 8a7c 2fbd 8a42 acbc
00000260: 7f44 cbbc 9ae1 e5bc 354a a2bd e184 97bd
00000270: bcb7 edbd 09a3 91bd 0725 c43c 5b4e 833d
00000280: 7783 d93d 1ff6 4a3c ee05 ccbc da4d 173d
00000290: b5b2 8fbd 4230 ba3d 85c2 3e3c ab4a 0f3d
000002a0: 8720 e73d b9d5 47bc 8ec3 5e3d 6ef2 f5bc
000002b0: b3bf 423d a192 39be 6292 36bd a246 b4bd
000002c0: 11fb 573c 3d66 a33d 3af1 9bbc 3176 b53c
000002d0: cf7f babc 09f8 7fbc b478 bdbc 88c0 08bd
000002e0: 903e b13b 04cd 2ebd cfb0 bd3d d9d0 28bd
000002f0: cbcb c73c 1455 533d 6efd 7dbc 8b2b 21bd
00000300: e9d9 5abd c751 6a3c 5e3d c53d aacd 7fbd
00000310: d51b 863d db61 083e 3c93 fa3c 83fd 9b3c
00000320: b07a 0a3d 98ea 11bd 772b debc dcac 72bd
00000330: 56d0 973d 4385 373d ada3 da3c 8718 dabd
00000340: 9af2 3a3d f8d7 13be cc7b 113e df18 90bc
00000350: 2255 a1bc 046e ba3d 824f 143e a8db 223d
00000360: e6d2 113c 0ab7 803b 1448 7abd 5937 273d
00000370: 255b 5dbd 3f6f 1cbd e915 be3c a953 373d
00000380: e4b3 a4bd 77c4 1abd bc8d cabd 8c6e 7d3d
00000390: 461b 8e3c 4dfa b2bc 593f afbc 34ba 753d
000003a0: 024f 673d 0381 46bd 468a 28bd 9f31 8d3c
000003b0: 3c9b 52bd 93db 24bd d452 10bd cff9 ee3a
000003c0: f414 ac3c 39ad 63bd 5692 8c3d da40 5fbc
000003d0: a87c 5e3c 697f 80bc 631d bcbc 10bf 9ebc
000003e0: 01e5 30bd 1a3d 383d 24cb 33be a8f3 83bd
000003f0: 316a 273d 7034 72bd 7868 4cbd 8994 b3bd
-0.030324016 0.0059280964 -0.053938862 0.04456417 -0.094905175 -0.063277796 -0.12118251 0.022199927
0.02420282 0.046655815 -0.031823378 0.04438207 0.0012838987 -0.019929161 -0.049509753 -0.017021112
0.04148004 -0.08809496 -0.10841707 0.013421805 0.08490934 -0.024697118 -0.008048763 -0.0032354381
-0.028728446 0.018141901 -0.06651923 0.009305407 -0.047172785 0.017767766 -0.058407653 -0.018883344
0.055586662 0.06021773 -0.06316549 -0.036545552 0.0007586961 0.006115064 0.034843363 -0.008824031
0.034819916 -0.011489639 0.021188078 0.0407893 0.013680633 0.026732301 0.015004007 -0.046449076
-0.0045805094 0.0015709403 -0.0038073377 -0.06409872 -0.040078 -0.09367449 -0.028332585 0.031244298
-0.027882587 -0.10737583 -0.06416548 0.0938331 0.06669741 -0.0049915835 -0.03191545 0.02797845
-0.08609827 0.050524753 0.039080586 0.017295158 -0.019489838 -0.022499222 -0.0006690866 -0.058967657
-0.036849853 -0.12512536 -0.16689263 -0.13339701 -0.031433698 -0.10797471 -0.043953035 0.0059857946
-0.013377256 0.043147787 0.03265935 -0.028210875 -0.021684084 -0.02580995 -0.022774741 -0.09321591
0.03220405 -0.07495561 0.024426866 -0.029328855 -0.07175604 0.026807437 -0.15795946 -0.08573424
-0.07062612 0.025664749 0.0034068904 0.008228373 5.9731497e-05 -0.10666199 -0.028942669 0.001849829
-0.05708471 -0.0036855089 0.020375285 -0.015115173 -0.05924956 -0.018832356 0.05822076 -0.0768566
-0.09981622 -0.0657425 -0.009741303 -0.038670655 -0.025689224 -0.0039288006 0.06511641 -0.018595017
-0.053611007 0.051712837 -0.030650605 0.0056035994 -0.01649806 -0.037166443 -0.098719284 -0.016103635
0.06832879 0.057243854 -0.09124907 0.033128496 -0.063925855 -0.05566165 -0.05931886 -0.030988378
0.046261534 0.075167984 -0.0048702965 0.012634634 -0.01817289 -0.07508357 0.1353629 -0.12522367
0.053927403 -0.08737705 0.066502705 0.029085396 -0.04483929 -0.015255884 -0.04284338 -0.021027822
-0.024812935 -0.028061677 -0.0792431 -0.073983915 -0.1160731 -0.071111746 0.023943437 0.064114295
0.10620778 0.012387781 -0.024905171 0.03693948 -0.070165075 0.09091236 0.011643057 0.03498332
0.11285501 -0.012196952 0.054385714 -0.030022826 0.0475461 -0.1812234 -0.044573195 -0.08802535
0.0131824175 0.07978485 -0.019035924 0.022151085 -0.022766022 -0.015623101 -0.023128845 -0.033386737
0.0054090694 -0.042675987 0.09262239 -0.041214798 0.024389168 0.05159481 -0.015502317 -0.039348166
-0.05343047 0.014301724 0.096308455 -0.062451996 0.06548277 0.13318579 0.030587785 0.019041782
0.03380841 -0.035624117 -0.027120335 -0.059246883 0.07412784 0.044804823 0.026689375 -0.106492095
0.04564152 -0.14437854 0.14207381 -0.017589984 -0.019693915 0.09103015 0.14483455 0.03976026
0.00890038 0.00392807 -0.061103895 0.040824268 -0.054042 -0.03819203 0.023203807 0.04475752
-0.08042124 -0.03778502 -0.09890315 0.061873004 0.01734699 -0.021847868 -0.021392511 0.05999203
0.056471832 -0.04846288 -0.041147493 0.017235575 -0.051417574 -0.040248465 -0.03523524 0.0018232408
0.021006085 -0.05558512 0.06863849 -0.013626302 0.013579525 -0.015685754 -0.022963231 -0.019378215
-0.043187145 0.044980146 -0.17557961 -0.06442958 0.040872756 -0.05913204 -0.049904317 -0.08768565

bias f4 [64]
00000000: 5c3a 44bd 78dc 98bc af3b 89bd da76 06bd
00000010: 90a5 92bd 1d3f ecbd 318c 503c 3659 f53b
00000020: 219a 0c3c d6a8 2abd a409 8ebc e8d6 05bd
00000030: 4ed5 2cbd 0a06 053e 306c 7cbc 5cb0 1b3d
00000040: dd28 82bd 2c24 5dbd 92e2 bbbb a778 e8bc
00000050: 01bf 25bc d6cc e0bd 58ff 21bd 320c c43c
00000060: f071 95bb 7702 ed3c a09f 90bd 01b8 e73c
00000070: 8cd0 18bd 78d9 fabc 7c58 cbbb 737f 863d
00000080: ea58 59bc 5b6a 82bc cc07 74bd 03b4 85bd
00000090: 704a 90bd cb8b 253c 6026 9d3b d4b1 82bc
000000a0: 8563 8fbc 6c41 b43d b223 f93d eda2 c1bc
000000b0: 7b1d d43a 2193 c53c 7aca 75bd c9cd ddbc
000000c0: cb94 5dbd 02e3 83bc 5345 5fbd b94f 903b
000000d0: 0ab8 7abc 9f0c 5cbd 5950 c3bd f9f7 173b
000000e0: ee0b 06bd a5f2 01be 509c 5bbd 9ad4 25bd
000000f0: d125 3abd fdff b8bc c7e0 22bd 0ab0 0e3b
-0.04790722 -0.018659815 -0.06700837 -0.03282819 -0.07160485 -0.115354754 0.012728737 0.0074874414
0.008581669 -0.04166492 -0.017338581 -0.032675654 -0.04219561 0.12990585 -0.015406653 0.038009986
-0.0635545 -0.053989574 -0.0057337964 -0.028377844 -0.01011634 -0.10976569 -0.039550155 0.023931596
-0.0045607015 0.02893184 -0.07061696 0.028285982 -0.03730826 -0.030621275 -0.0062056165 0.06567278
-0.013265828 -0.015919855 -0.05957775 -0.06528475 -0.07045448 0.01010413 0.0047958344 -0.015953936
-0.01750351 0.08801541 0.121650115 -0.02363726 0.0016183102 0.024118008 -0.06000755 -0.027075665
-0.05409698 -0.016099457 -0.054509472 0.004404035 -0.015302667 -0.053722974 -0.095368095 0.0023188575
-0.03272622 -0.12690218 -0.053615868 -0.040485956 -0.04544622 -0.022583002 -0.039765146 0.0021772408

weight f4 [12, 64, 3, 3]
00000000: 0891 48bd 27c8 9a3b 9fc0 543c 8ac7 603c
00000010: ece3 953c bc95 9ebc c4b4 1a3c 14f1 35bc
00000020: c98a 853c 7f28 51bd 7a2b b53d d8d6 823c
00000030: 9cde 89bd b690 0f3d 7ded c43b 04bc af3a
00000040: 8a87 8fbc 1070 13bd 572c 97bc d612 de3c
00000050: c8f4 8abd 71ba 633c f2fe 933d c1dd 94bd
00000060: 9b0b 573d be69 3e3d c2d7 1e3d fb16 833c
00000070: 56ed 923d 51f6 fabc 61d4 483c c212 bbbd
00000080: ce1c b73e 3cd8 fbbb 0071 873c ecb3 46be
00000090: c57b c63d 0e17 543c 0489 5cbd e978 793d
000000a0: cc6a 3c3d 4069 a5bd ccd8 11bb 9f62 f8bc
000000b0: 2aad 07bd bb2b a8bb a377 99ba bb15 3abb
000000c0: 74f3 45bb 4c16 b63d e3ad 763a f81e 193c
000000d0: 6698 2bbd cdb1 373b 1652 b93c 0cac 37bd
000000e0: c63b b03b c6a1 553d a085 53bd f9c4 093d
000000f0: 41a8 863d 5122 ff3b 3e9d 833c 0f30 043d
00000100: 59e5 aebb 8c4e 733a 956e 3ebc 641e df3d
00000110: 5beb acbc c5ea d93c b90c 60bd 16b1 493c
00000120: 7488 64bd 7a8c 49bc 3a3e aebc efaa f03d
00000130: c6b1 30bb 589c 26bd fe33 053e c2a0 bebd
00000140: 5deb 04bd cd80 0b3d e190 b5bd 2262 443b
00000150: ca56 53bd 07dc 4e3d 9eb3 3ebd 91a1 093d
00000160: 2dd9 073d f220 3a3d 7832 7d3d 93a4 fb3a
00000170: 3531 4bbd 1e1c 61bc 4afd 17bd e784 18bc
00000180: 1ef7 f93c be53 6a3c a94b 05bd 9810 923c
00000190: 2448 09bb c5c7 963c 31a1 dfbc dc9e 623c
000001a0: 2a62 9ebc e128 4dbd ce15 423d 3e2c 84bd
000001b0: 58b4 5abb 1f56 44bd 96f1 20bd 1cc4 c13c
000001c0: 2647 1f3c 5e8d 0e3d 3aab 2f3c 6713 723d
000001d0: 53ab 0abd ae5f e23c a8c0 453c 6549 57bb
000001e0: 1bad ee3c 11cb 8d3d 1b71 bdbc 30aa 493c
000001f0: 6bb8 a3bc b0f2 aebd e81f 8cbd 3ecb e53c
00000200: 3c98 233d ae67 ebbc c589 15bc 3686 ba3d
00000210: b8e5 09bd 3e4a 4bbc cb02 753c 6d2c 303a
00000220: c08c 84bc 2a50 b63b 0e70 d23d 42c4 b3bb
00000230: 4b3d 0abd 1ee2 18bd 4edf ab3c 6ca7 f6b9
00000240: bfa0 08bd 59ee 763c 7d96 d9b9 2646 023d
00000250: ee26 2a3d 5849 77bc abac 343c 40af 6a3c
00000260: 200c 02bd 3a2e 2cb8 c365 af3b a1ea 94bc
00000270: 1fe9 b1bb 7f92 a3bd 6280 ffbb c381 643b
00000280: c4f6 f93c 5b41 013d ed11 e53c b87e 443d
00000290: 0204 943c c68b 8dbd d9e1 9e3a 5269 45bd
000002a0: 17d8 9ebd 92da a43b eee5 843b e30a 9fbd
000002b0: c721 31bd 7fde f6ba 9aba 733d 3326 ce3d
000002c0: 3d08 32bd 3619 623d 751d 413c 942a 9ebc
000002d0: 952c 8dbd d312 cf3c 9463 fe3c ee78 593a
000002e0: 3c33 acbc 7ca6 ceba 95ea 00bc df70 d83c
000002f0: 1e71 443c 992e 96bb dc16 ab3b 0c20 4bbb
00000300: 897b 073d c632 80bc c111 473c 897f d93b
00000310: 6787 95bc 6fd8 a93a 3d79 c43c 914f c439
00000320: d3a4 a2bd 4277 7c3d e41d 883d a753 b23c
00000330: dc7b 8abc 8954 313d a417 d6bd 090f 4ebd
00000340: 2aeb 38bd c311 2a3c c929 12bd 85e0 d13b
00000350: 2739 873c d7f4 363c 814e ed3c 4f75 b53d
00000360: 8ea4 523d 044c 9dbd 9401 99bd b996 4b3d
00000370: 847e 113e c4b3 48be ecb6 bd3c 9378 353d
00000380: cb3d dbbd 4f3c 7e3c df64 eabc 3513 4abc
00000390: 9b07 a93c c7a0 1ebc 3cca 913d c9c5 f0bc
000003a0: 61dc 09bc 286e 37bc c52f b2bc defb cf3c
000003b0: d7f1 693c 3bbd 85bc 13dd 4ebb d0f0 273d
000003c0: 3712 4dbd 2663 fd3c bc58 a7bc c983 8abd
000003d0: 6ddf 903d 77db b3bc 4db9 73bc c24d f03d
000003e0: 963f cf36 1ef8 5dbd 0b96 ad3c 0a20 31bd
000003f0: 3357 e1bc f61d 753d 5338 843d 6c58 8dbc
-0.048966438 0.004723567 0.012985378 0.013719449 0.018297158 -0.019358508 0.009442512 -0.011104841
0.01630153 -0.05106401 0.08846183 0.015971586 -0.067319125 0.035050116 0.006009756 0.0013407473
-0.017520685 -0.035995543 -0.01845376 0.027108591 -0.067849696 0.013899432 0.07226361 -0.07268859
0.052501302 0.046487562 0.03877998 0.016002169 0.071741745 -0.030635031 0.012257666 -0.09134437
0.35764164 -0.0076856893 0.016533375 -0.19404572 0.09691576 0.01294495 -0.053841606 0.060906325
0.046000287 -0.080767155 -0.0022254465 -0.030320464 -0.033124126 -0.005132166 -0.0011708628 -0.00283943
-0.0030204924 0.088909715 0.00094100664 0.009345762 -0.041893385 0.0028029562 0.02262215 -0.04484181
0.0053782193 0.052156232 -0.051641107 0.033635113 0.06575061 0.0077860733 0.01606619 0.032272395
-0.005337399 0.0009281419 -0.0116230445 0.108944684 -0.02110832 0.026601205 -0.054699633 0.012310287
-0.055794194 -0.012301559 -0.021269906 0.11751353 -0.002696143 -0.040676445 0.13008115 -0.09308006
-0.032451022 0.03405838 -0.08865524 0.0029965718 -0.05159644 0.050502803 -0.046558015 0.033601347
0.0331661 0.045441575 0.06181571 0.0019198827 -0.049607474 -0.013739614 -0.03710679 -0.00930903
0.030513342 0.014302192 -0.03254286 0.017830178 -0.002094754 0.018405804 -0.027298542 0.01383182
-0.019333918 -0.050087813 0.047384076 -0.06453751 -0.0033371653 -0.047933694 -0.039292894 0.023653083
0.009721553 0.034802787 0.010721976 0.059100535 -0.033854794 0.027633514 0.012069859 -0.0032850143
0.029135277 0.069234975 -0.023125222 0.012308642 -0.019985398 -0.08542383 -0.06842023 0.028051015
0.039940104 -0.028735962 -0.009127085 0.0910763 -0.033666342 -0.012407837 0.014954279 0.0006720487
-0.016180396 0.0055637555 0.10275279 -0.0054860422 -0.03374986 -0.037325017 0.020980503 -0.00047045515
-0.033356424 0.015071475 -0.00041501588 0.03180518 0.041541032 -0.01509317 0.011027495 0.014324009
-0.031749845 -4.1051047e-05 0.005352707 -0.018178286 -0.0054294015 -0.07986926 -0.007797287 0.0034867383
0.030513175 0.03155647 0.02796265 0.04797241 0.018068317 -0.06911425 0.0012121751 -0.048196144
-0.077560596 0.0050309384 0.00405573 -0.07765748 -0.043245103 -0.001883462 0.05950413 0.1006588
-0.043464888 0.055199824 0.011786808 -0.019307412 -0.06893269 0.02527753 0.031053342 0.0008295913
-0.021020524 -0.0015766169 -0.007868429 0.026421009 0.01198986 -0.0045831916 0.005221231 -0.0030994443
0.033076797 -0.01564921 0.012150229 0.006637518 -0.018253041 0.0012958179 0.023983592 0.00037443315
-0.07941594 0.06163717 0.06646326 0.021768404 -0.016904764 0.04329351 -0.10453728 -0.050307307
-0.045146145 0.010380211 -0.03568438 0.0064049386 0.016506745 0.011166773 0.028968098 0.088602655
0.051426463 -0.076805145 -0.07471004 0.049704287 0.14208418 -0.19599825 0.023158513 0.04430444
-0.107051454 0.015517308 -0.028612552 -0.012333681 0.02063351 -0.009681887 0.07118651 -0.029391186
-0.008414359 -0.011195697 -0.021751294 0.025388654 0.0142788505 -0.016325584 -0.0031564876 0.04100114
-0.0500662 0.030931067 -0.020428054 -0.06763417 0.07073865 -0.021955235 -0.014875722 0.11733581
6.176483e-06 -0.0541917 0.02118971 -0.043243445 -0.0275074 0.059843026 0.064560555 -0.017254077

bias f4 [12]
00000000: 469c 18bb 76ea fc3b 080a 933b 9f0e 1f3c
00000010: a3b2 843b 01ac 793c 0f0e 4b3b 4afd 0aba
00000020: 7cb4 503b 9be9 963a 54e0 473c 67fc 9fba
-0.0023286506 0.0077183796 0.00448728 0.009708076 0.0040496155 0.015238763 0.0030983721 -0.0005302025
0.0031845858 0.0011513712 0.01219948 -0.0012205959
