train_weight_sr6/model_epoch_16.pth (torch_old, 667646 bytes, 10 tensors)

weight f4 [12, 3, 13, 13]
00000000: a47b b83c ed6f edbc 33fc ac3d 70f4 17bc
00000010: 6b11 32bd 71d8 8dbd 01f5 413d a9d9 3dbd
00000020: 0ee7 21be 6a5a a03d 7512 47bd 0ff0 e63c
00000030: 9bd1 9ebc 6c12 223d 5b41 13bd 8e01 5abc
00000040: 5d08 3fbd dbf1 6d3d 18df 523c e066 553d
00000050: 1e14 00be 4f87 3f3b fed2 32bd 3c0f 04bc
00000060: b63e 1d3d f0c4 53bb 78f3 e5bc bbc2 51bd
00000070: e6e8 a53d fa1b 123d 183d 51bd d09d bfbd
00000080: b21d 463d c6d3 dcbd c82d f3bb e557 653d
00000090: eb87 893c 5ef9 4bbb 1024 ac3b 72c7 593d
000000a0: 2cc2 a3bd 5bea 92bc 5373 103d 04b9 6a3d
000000b0: dca9 543d 1748 cd3c cd7b 1ebe 3e53 4b3c
000000c0: 35ee adbd 4b54 9e3c cd5f c63d 907e 84bd
000000d0: fe58 b2bd 3386 c53c a054 98bd 8c53 7fbd
000000e0: 197f e2bd 1351 91b9 7c6d dfba dc21 36be
000000f0: 2a3f 1e3c f4e0 133d da8c aabc 534c 333d
00000100: 388c 3e3d fd58 423d d391 3b3d f362 083e
00000110: 610d c83c 9019 e9bc 0f2d 773d 1585 ba3c
00000120: 80bc 38bc f3cd b6bd 8eb5 00be d539 ccbd
00000130: 6a11 e8bd 920e f0bd 9248 4cbd ce9a f33c
00000140: 968e e1bd 14c6 a6bc 968d bdbc a19d 543d
00000150: c0f6 583e 696b 233a ea17 9f3d d505 c23d
00000160: 5a5f 323e 96d9 a13d 661d 3d3d 73d2 593d
00000170: f05b 89bd afd7 06be fafa 11be 18b4 aebe
00000180: b5d3 85be 6b66 e7bd 80cd 3ebd 356b 603c
00000190: 5e4b 9dbc 8e8c 993d 3f91 b9bb 779a 883d
000001a0: 8294 dcbb 5df9 5c3b 4e7e 413b 51f2 1cbd
000001b0: 4146 053d 521b 04bd 3a60 d9bc 8534 783d
000001c0: 52f3 e7bd ec27 e3bc 5821 7abe 70ef 95bd
000001d0: c6d7 4bbe a50e 8f3d ac18 b6bd ac8c 353d
000001e0: 590c 01bd 1c5f 25be ea4e 113d b1e9 10bd
000001f0: 743f 55bd 586f 933b 293b 9cbb 5fbe 76bb
00000200: fe38 83bd 8822 acbc 9d5c a7bd 0d98 4fbd
00000210: 4004 c3bd 1456 273d 4dee bdbd dfa9 033c
00000220: 4040 1abe d9eb 9abc 57ea 08be 165d 7b3c
00000230: e0e5 49bc d6a6 d6b9 2956 acbd 23c4 ef3c
00000240: 70e5 fd3c 5c57 c9bd 9781 3fbe 290c b7bd
00000250: 7cc7 953d f17b 163d bd86 c43c 791d 0fbe
00000260: 375e 98bc 3e58 1bbd 8039 33bc 54d5 bfbd
00000270: d955 72bd a661 f33b cc52 15be b668 d9bd
00000280: 2ae4 d73c 7fce 89bc 1b5f efbd 4a6a b53a
00000290: 8c4e a2bd b084 b9bc 31b3 e93b 7730 f3bd
000002a0: 986d 0c3a 6e04 febc 7b84 a4bb bd54 2dbd
000002b0: 8eb1 2a3b bcb4 c83c aa78 853d 9df3 1bbd
000002c0: 6e26 0a3d 4fc5 b83b 0130 29bd 4e1d d4bd
000002d0: 5263 293d cddc a73c d258 323d c030 90bd
000002e0: 6f08 de3d fac9 9bbc c45d 333d 90f3 b0bd
000002f0: 72e0 11bd 1738 19bd 23e7 923d 2909 2a3c
00000300: 2553 f1b9 7fdb a4bd a161 93bc 2b4d 64bd
00000310: f9e7 013e caea 96bd 641b 12be 7341 52bd
00000320: 603e b03d 3fab 99bc e8ad 953c c92a c23c
00000330: 5361 22bd 56aa 8bbd 87ea 0e3d e40b bebc
00000340: 890c c83c ab3b 2f3d d458 e93d abd5 ac3d
00000350: 544c 5a3d 5400 3c3c 4bbe 873d bc83 1d3d
00000360: 4f2d 833b 0b21 233d 26ed eebd 6a7c 03be
00000370: e105 623d 40ec 793d 8287 b2bd 73f7 c2bd
00000380: 509b 37bd a43b 0c3c ab25 6a3c 8fd5 69bd
00000390: 2e10 aebc 4d91 2ebd 26b4 a63b 2928 00be
000003a0: 15e2 8d3d c8d6 483d a021 79bd 01f3 ae3d
000003b0: ed31 debb 260c 333d 9b57 8fbd 9934 efbc
000003c0: 0e28 433c 0590 d2bd a1b3 d9bd 1aaf 28bd
000003d0: 2513 12be 0ed3 e8bd 3479 49bd 53c6 c6bc
000003e0: 23fb 9bbd cd83 41bc d048 773d 5cea 703d
000003f0: f710 04bd d421 073c 1ba6 70bd a2d4 b03d
0.022519894 -0.028984034 0.08446541 -0.009274587 -0.043473642 -0.069260485 0.047352795 -0.046350155
-0.15810797 0.07829745 -0.048601586 0.02819064 -0.019387057 0.03956835 -0.035951 -0.013306035
-0.046638835 0.05809198 0.0128705725 0.052100062 -0.12507674 0.0029224937 -0.04365825 -0.008060273
0.038389884 -0.0032313429 -0.028070197 -0.0512111 0.081010625 0.03567121 -0.051083654 -0.09356272
0.048368163 -0.1078258 -0.007421229 0.055992026 0.016788444 -0.0031123976 0.0052533224 0.05316872
-0.0799602 -0.017934015 0.03526623 0.05730535 0.051919803 0.02505879 -0.15476914 0.012409983
-0.084927 0.019327303 0.09686241 -0.064694524 -0.0870838 0.024111843 -0.07438016 -0.062335536
-0.11059398 -0.0002771696 -0.0017046179 -0.17786354 0.009658614 0.036103204 -0.020819116 0.04377396
0.04652044 0.047448147 0.045793366 0.13318996 0.024420442 -0.028454572 0.060345706 0.022768537
-0.011275411 -0.089260004 -0.12569258 -0.09971968 -0.113314465 -0.11721529 -0.049873896 0.029736903
-0.11013524 -0.020358123 -0.023138802 0.05190814 0.21187878 0.0006233962 0.07768233 0.094737686
0.17419186 0.07902829 0.046170615 0.053179216 -0.06706989 -0.13168214 -0.14255896 -0.34121776
-0.26138082 -0.112988316 -0.0465827 0.013697435 -0.019200977 0.07497512 -0.0056630666 0.06670087
-0.0067315707 0.0033717968 0.0029524746 -0.03831703 0.032537702 -0.032252617 -0.026535142 0.06059696
-0.113257065 -0.027728997 -0.24426782 -0.0732106 -0.1990653 0.06985215 -0.088914245 0.04432361
-0.031505916 -0.16149563 0.03547565 -0.035379115 -0.052062467 0.004499357 -0.0047677946 -0.003765009
-0.06407355 -0.02101256 -0.081719615 -0.050682116 -0.09522295 0.040853575 -0.09273968 0.008036106
-0.15063572 -0.018911289 -0.13370644 0.015342018 -0.012322873 -0.00040941563 -0.08414871 0.02926833
0.030993193 -0.098311156 -0.18701778 -0.08937866 0.07313439 0.036739293 0.02399003 -0.13976087
-0.018599613 -0.03792595 -0.010939002 -0.09366861 -0.059163902 0.007427412 -0.14582366 -0.10615675
0.026353914 -0.016822098 -0.11688062 0.0013840881 -0.07925138 -0.022646278 0.007131957 -0.11874478
0.0005356907 -0.031007972 -0.0050206757 -0.04231714 0.0026045772 0.024500243 0.065171555 -0.038074125
0.033728056 0.0056387554 -0.041305546 -0.10357152 0.041354485 0.020491028 0.043541737 -0.07040548
0.10841452 -0.019017208 0.043790594 -0.08640206 -0.03561444 -0.037407007 0.07172992 0.0103781605
-0.0004602905 -0.08049678 -0.017990889 -0.055737656 0.12686147 -0.07369001 -0.14268261 -0.05133195
0.08605647 -0.018758414 0.018271402 0.023702042 -0.039643597 -0.068195984 0.03489163 -0.02319903
0.02442004 0.042781513 0.11393896 0.084391914 0.05329545 0.011474688 0.066280924 0.03845571
0.004003204 0.039826434 -0.11666326 -0.12840429 0.055181388 0.06101632 -0.08717252 -0.095198534
-0.044825852 0.008559141 0.014291207 -0.05708843 -0.02124795 -0.04261904 0.0050873933 -0.1251532
0.06927887 0.049032956 -0.060823083 0.08542443 -0.006780854 0.043712758 -0.06999131 -0.029199885
0.011911405 -0.10281376 -0.106299646 -0.041182615 -0.14265116 -0.113683805 -0.049187854 -0.02426449
-0.0761626 -0.011811209 0.060372174 0.058817253 -0.03224274 0.008247811 -0.05875216 0.086343065

weight f4 [64, 12, 7, 7]
00000000: a1ea 2b3e 051c 89bd 357e 90bd eca8 aebb
00000010: 37af 0bbc 23e0 4f3d 5690 c3bd 55d5 8bbc
00000020: d190 043d 99fb a83d 46a4 aa3d d1d7 103e
00000030: ca1b af3d 6b9a 1d3e 313a 8f3c 9626 08be
00000040: ab40 68bd 2ff1 febd aacd 39be 1a64 2cbe
00000050: 7fb2 44be fb30 84be 1436 f5bd 9e98 d33b
00000060: f19c ac3e 925e 803e d18a eabd 3f9d 1f3e
00000070: 9710 743d de2a 033d 2b5b 853d d01e 3d3d
00000080: 83f6 4bbc d1d2 f13c b9a2 90bd 55c4 e3bd
00000090: cfa9 6ebe cc21 11be 741e 333e 2023 18be
000000a0: 05dc 8d3e 7bf5 2ebe 5d53 97bd 6ecc 18be
000000b0: f54f c0bd c250 043e 4e9a 51be 32bc 67bc
000000c0: 61eb 29be 424a 28bd a1fb 1bba d211 aabd
000000d0: cc58 343e 417a 3dbc bb4d 04bc 250a e6bc
000000e0: 3a61 303c e613 74bb 959e 053e 2d98 293d
000000f0: 8323 84be 04c8 39bd b2c8 003e d005 c2bc
00000100: ff23 cabb 7f7e d73d e25e a4be 6a86 903b
00000110: ae61 963e b2be cbbc 67d4 643d fa69 f4bc
00000120: addc c5bc e3c9 d5bd 0eff 863d 7bb7 f13d
00000130: 4132 32be defc 1cbd b2d2 98bb 15f0 683e
00000140: 2e4b b6be 66c5 7b3e acaa 4abc 1f3d 553c
00000150: 22be ee3b 05a5 f43d 75f3 bfbd b929 8dbd
00000160: df1e f63d ab8d 84be 6ecb 0b3e 3a68 93bc
00000170: b758 3c3d d29e 94bd f15f 013e 03e1 65be
00000180: 0f7b 633e 901f 8dbd 175b b9bb a7a0 ecbc
00000190: e9c9 003d 9fe1 6d3d 657f 143d bd43 5f3d
000001a0: e930 66bb 56b8 9c3d 2f88 03be e87d f8bd
000001b0: 0d6e c8bc 34a9 883d f7d1 1e3d 2a80 0c3d
000001c0: 7b33 43bc 47d9 1dbe 2d95 23be 6747 4a39
000001d0: 8350 093d 975e b23d 06a5 c1bc 25d0 e9bc
000001e0: cc02 70bd 06ff 8bbd f535 f03c 1e36 2fbc
000001f0: 9c75 b63c 84b0 f2bd 9ff9 0fbe 1e6f 0bbe
00000200: 94a9 a6bd 4284 9b3d a1b2 4c3d b383 f83d
00000210: 9925 eb3c a197 bbbd b4a7 09be f173 79be
00000220: 1539 313d ec0b 693d c500 c43d 77a2 acbc
00000230: fa21 5ebd d164 293c c316 5cbe d9e1 363e
00000240: 7d88 dc3c bfd9 ed3d 234b c73b 474e bcbd
00000250: 3ce0 763c 2207 c13d bd7c 32bc 1811 3e3c
00000260: 829c f1bd ac49 5cbd a9ff a13c a270 c0bc
00000270: 4f98 2ebd 4217 0f3e 28d7 ba3b 4624 63bd
00000280: 6cf6 9dbd de53 87bd d858 8f3c 192e 813b
00000290: 40cb 0c3e de33 f9bd fc09 7cbb 4854 883d
000002a0: 3fb6 9b3d d106 d63d 418c aabd 614b c5bc
000002b0: 3f75 58bd d412 60bd 3194 18be 648b 503c
000002c0: c799 1e3d 1628 c2bd a4e2 153c 9da8 c0bd
000002d0: a68d c8bd 13ab 42bd a35a 3bbe 28a4 c0bd
000002e0: 82a1 423d ce29 e9bc 6aad 94bd 302f 1abe
000002f0: 9315 24bd f851 14be 6f4c 1abd 23a3 8ebd
00000300: 34e4 df3d eafb 13be 2bbc 2b3b 1154 b33d
00000310: bf94 b3bd 5191 be39 f470 a53d 29fd 8d3d
00000320: 3d84 2fbe 9de0 7d3d 7c74 78bc d257 af3d
00000330: 91cb 07bd 8917 d53a f649 2dbe f72e c73c
00000340: e280 803e b538 b7bc c60d c23d bb9e e73b
00000350: d468 9cbc 913f 77bd 3d5b 703e 0fed f43d
00000360: 070b 95be d090 98bd f071 efbc 3e97 393d
00000370: 260d 2d3b 82da 393c 65fb 9bbe 6dcf b13c
00000380: 9ef1 f23c b115 8dbc 6a6c bbbd 9c52 6e3d
00000390: fdbe 22be a63d 1d3e 08ac 4a3e 5c25 7c3c
000003a0: 37a4 e43c 7c57 8d3d bbfb 55bd 5506 013e
000003b0: 7348 99bc ca63 3ebe 88d0 07bd ee10 213d
000003c0: c32b 2ebd 63c6 7ebd 2bb8 933d d4b8 08be
000003d0: d5cc 133e f2e7 1a3d 2329 1abd fae1 99bb
000003e0: f595 b6bd b3a6 5dbc 1a96 64bd 1b4e 0e3d
000003f0: afee a23d 65a9 a7bd cba1 b0bd d722 d3bd
0.16788723 -0.066947974 -0.07055322 -0.0053301957 -0.008525661 0.050750863 -0.09549014 -0.017069498
0.03236467 0.082511134 0.08332114 0.14144827 0.08550222 0.15390937 0.017483803 -0.1329597
-0.056702297 -0.12448346 -0.18144861 -0.1683506 -0.19208716 -0.2581862 -0.11973205 0.0064574024
0.33713487 0.2507215 -0.114522584 0.15587328 0.059586134 0.032023303 0.065115295 0.046171963
-0.01244891 0.02951947 -0.07062287 -0.11121432 -0.23306964 -0.14173049 0.17492086 -0.14857149
0.27706924 -0.17085831 -0.07388947 -0.14921734 -0.093902506 0.12921432 -0.20469019 -0.01414399
-0.16593696 -0.041086443 -0.00059502764 -0.0830418 0.17611998 -0.011564792 -0.008075173 -0.02808101
0.010765368 -0.0037243306 0.13048775 0.04140489 -0.25808343 -0.045356765 0.12576559 -0.023684412
-0.006168842 0.10522174 -0.3210364 0.0044105547 0.293714 -0.024871204 0.055866625 -0.02983569
-0.024153078 -0.104388975 0.065916166 0.11802574 -0.17401983 -0.03832709 -0.0046637887 0.22747834
-0.35604233 0.2458702 -0.012369793 0.013015061 0.007285849 0.119455375 -0.093726076 -0.068927236
0.12017607 -0.25889334 0.13651821 -0.017994035 0.045983043 -0.07256855 0.12634255 -0.22449116
0.22214912 -0.06890786 -0.0056566107 -0.028885199 0.031442557 0.058076497 0.036254305 0.05450796
-0.0035124368 0.07652347 -0.12844919 -0.1213339 -0.024466539 0.06672898 0.038774457 0.034301914
-0.011914129 -0.15414916 -0.15974875 0.0001929082 0.033524048 0.08709448 -0.02363826 -0.028541634
-0.058596417 -0.06835751 0.029322604 -0.010694055 0.022272877 -0.11850074 -0.14060067 -0.13616607
-0.08137813 0.075935856 0.04997504 0.12134495 0.028704451 -0.0915978 -0.1344288 -0.24360634
0.04326733 0.056896135 0.09570459 -0.021073563 -0.05423162 0.010338978 -0.21493058 0.17859592
0.026920551 0.116137974 0.006081955 -0.09194618 0.01506811 0.094251886 -0.010893998 0.011600755
-0.117974296 -0.053781196 0.019775229 -0.023491208 -0.04262572 0.13973716 0.005701918 -0.055454515
-0.07713017 -0.06607793 0.017498419 0.003942263 0.13749409 -0.12168096 -0.00384581 0.066567004
0.0760312 0.10450519 -0.083275326 -0.024083795 -0.05284619 -0.054705456 -0.1490028 0.012728546
0.038720872 -0.09480302 0.009148274 -0.094071604 -0.09792642 -0.04752643 -0.18296294 -0.0940631
0.047517307 -0.028462317 -0.072596386 -0.15057063 -0.040059637 -0.14484394 -0.03767055 -0.069647096
0.10932198 -0.14451566 0.0026204686 0.08756269 -0.087686054 0.00036347893 0.08078185 0.06933052
-0.17140289 0.061981786 -0.015164491 0.08561672 -0.03315312 0.0016257624 -0.16922745 0.024314387
0.2509833 -0.022365907 0.09475283 0.0070684827 -0.019092955 -0.060363356 0.23472305 0.11959278
-0.29109976 -0.07449496 -0.029229134 0.04531025 0.0026405542 0.0113436 -0.30465236 0.021705354
0.029656228 -0.017222257 -0.09151538 0.05818425 -0.15893169 0.15355548 0.19792187 0.015389767
0.027910335 0.06901452 -0.052242022 0.12600072 -0.018711304 -0.18592754 -0.033157855 0.039322786
-0.042522203 -0.062200915 0.072128616 -0.13351756 0.14433606 0.037818857 -0.037636887 -0.004696128
-0.08915321 -0.013528514 -0.05580721 0.034742456 0.079556815 -0.08186606 -0.086246096 -0.103093795

weight f4 [64, 64, 3, 3]
00000000: e7c2 a9be f34f 333e 4355 223e 7bd5 f4bc
00000010: 0fc0 e23d 41c9 50bc 2d44 693d 98cd 7f3d
00000020: 3683 063e e697 3d3d ec95 df3c 0220 953d
00000030: 4a0e 0e3c 3a54 b03d ad1d 853a 9281 c43d
00000040: 948b 50bd 919b cfbd d794 3abc 1a1f 46bd
00000050: 1d83 bdbd 1dc8 46bc 982e 803e 9846 0ebd
00000060: 1a5e 7fbe e2ac 20be 8cd4 1cbd 3de6 f43d
00000070: 0793 843d 9f36 83bd 4445 a1bc e62a 373c
00000080: 9a4e 563d 4f64 33bc 6c3a d1bc a28e 493d
00000090: e65b 76bd d513 173c 2b21 87bd 7eac c83d
000000a0: dfe2 38bc cb02 28bd f341 043b c5d9 29bd
000000b0: 0d0f 30bd 6f49 c6bd 8680 86bc 6bf3 a4bc
000000c0: 5f16 433e 1763 703d 40a3 cbbc a718 493d
000000d0: 50f9 073c 98bc 7ebd b4e9 573c a3a5 103d
000000e0: 2a6a 8cbd 9002 c7bc b03f 033d 5f97 9fbc
000000f0: 0f8e bb3d fe3e 933c 4c58 ccbd 2a15 7cbd
00000100: 87d8 e33a 6f4e a43c 9ca4 acbc 7f6b c33c
00000110: cc49 543d cd1a 9cbd 3a06 663d 6f87 14bd
00000120: ac87 8abd 9ba2 9fbd 9c68 b138 df67 b7be
00000130: c8e7 53be c143 b73c d5cb a4bd 57df a7bb
00000140: 2911 cebc 043d bfbc a2b7 86bd 7909 4cbe
00000150: cdf5 55bd b80f 9fbd 7d18 4fbe 43a8 e2bd
00000160: c373 a8bc e311 0abe b9ea c6bc f4af 333d
00000170: 4dcb 0c3d aa30 1ebd f717 c2ba 7dc8 f8bd
00000180: 029f 223d f7d8 2f3e f4ac e4bc ab24 e73b
00000190: 65ab 8e3c 6fa7 0c3d 326a 31bd 850a 473c
000001a0: eb3b ac3d 3840 a13d 9fd7 24bd e106 873d
000001b0: b02a 46bc 9b5d be3d 50c4 ebbd ae03 e9bc
000001c0: 0ea5 c23c d162 a0be 5f3a 4abc 7e23 56bd
000001d0: d520 34be 901d 04be cc2b 13bd f1e9 02be
000001e0: 1bc8 103e 1056 e6bd a1d8 abbd 3bbb c33b
000001f0: a575 82be efd0 dfbc 1518 033e c8bb 40bd
00000200: 8176 68be 4bd5 183d b28f cabe 3b5e 5cbe
00000210: e4b0 6fbe 4c19 95bd 6269 7cbe 0c51 3dbc
00000220: 8514 0b3e e753 503d 8c2f ce3d a351 1b3c
00000230: e395 6ebd 19b5 c0ba c941 3fbc 26a7 84ba
00000240: 673d 0fbd 53f4 1cbe 7d58 af3b 706c c3be
00000250: 8a50 54bd d01b a1bc e210 00be c74c eb3d
00000260: dde3 3abd 8bd9 043c 0099 9bbd eaeb cbbb
00000270: a50d 96bc e943 abbc 3d1d 553d 40c8 6e3d
00000280: dad8 873c fb54 a2bd 04f1 c1bd 20a5 5bbd
00000290: fd06 9ebd 70c2 4a39 0b60 8bbc 5719 09bd
000002a0: 2f0a b3bd fa53 01bd 5303 353d be6c 37bd
000002b0: 1c68 e5bd 4dd9 95be d9a9 ebbd 0337 073e
000002c0: 0b4e 94be 5a0b 42be 669e 583e c9ec 94be
000002d0: d6cd e83c 3893 963c ea9e 49bd ecb3 613d
000002e0: 3946 60bc ec23 a5bb 4ca2 71bd f034 3c3d
000002f0: 664c a13a d326 00be d845 88bd 47d5 d2bd
00000300: 9f36 02be 95f0 58bd dd95 79be 9725 bdbd
00000310: 11d7 da3d ee80 2dbc 0a61 2bbd 98c6 25bd
00000320: 8433 f2bc 3914 f83c a08e 1b3d 7bbb 4b3d
00000330: 6943 73bd e4dd da3b 2287 c83d 8c26 163e
00000340: 1ed0 fc3d 6a9e 0cbe e811 c23c a778 adbd
00000350: 353f 253d 1490 cb3b 2e9c e33c 2486 1a3b
00000360: ba93 7b3d b2f1 873d 252c 1f3d ff29 c0bd
00000370: 6d73 0dbe 46a4 2b3d 422c 4fbc 8eb2 d4bd
00000380: 39d1 2c3d 6007 f6bd d102 3b3d 7b18 89bd
00000390: 31d9 963d 5b39 e63d a45c c8bd 50d0 d63c
000003a0: 8b31 14bc fa37 f7bc 5b44 11be c383 c4bd
000003b0: 8bad dabc 1262 0bbe 4e87 b4bd 6b01 1fbd
000003c0: eeb0 3ebe 489a c8bd b802 963d 4c54 b6bb
000003d0: f8a2 193d 98c7 5538 68ce da3d a647 383d
000003e0: 4706 d93d 3a3f 67bc d335 e53c 1d74 ad3d
000003f0: d727 d6bd 370d 50bd 061a b93a 7f55 dbbd
-0.3315651 0.17510967 0.15852837 -0.029886952 0.110717885 -0.012743295 0.056949783 0.06245193
0.1313599 0.04628744 0.027293168 0.07281496 0.008670399 0.08609815 0.0010155939 0.09595026
-0.050914362 -0.10137094 -0.011388025 -0.048369505 -0.092535235 -0.012132672 0.25035548 -0.034735292
-0.2493824 -0.1569095 -0.038288638 0.11957977 0.06473356 -0.064069025 -0.019686349 0.011179661
0.052321054 -0.010949208 -0.025540553 0.04920829 -0.060146235 0.009221037 -0.06598123 0.09798525
-0.011284559 -0.04101829 0.002018091 -0.041467447 -0.042983104 -0.09681975 -0.016418707 -0.020135602
0.19051503 0.05868825 -0.024858117 0.049095776 0.008299187 -0.062191576 0.013178278 0.035314213
-0.06856187 -0.024293214 0.03204316 -0.019481359 0.09157955 0.017974373 -0.09977779 -0.06154362
0.0017383256 0.020056931 -0.021074586 0.02385497 0.05182819 -0.07622299 0.056158282 -0.036261972
-0.067641586 -0.077946864 8.459503e-05 -0.35821435 -0.20693886 0.022371175 -0.080466904 -0.0051230597
-0.025154667 -0.023344524 -0.06577994 -0.19925489 -0.052236367 -0.0776667 -0.20224185 -0.110672496
-0.020563012 -0.13483386 -0.024281846 0.043868974 0.03437357 -0.03862063 -0.0014808167 -0.12147615
0.039702423 0.1717261 -0.027914502 0.0070539317 0.017415712 0.034339365 -0.043314166 0.012148504
0.08409866 0.07873577 -0.040244695 0.06593109 -0.012095138 0.092951976 -0.11512053 -0.028444137
0.023760345 -0.3132539 -0.012343018 -0.05227994 -0.1759065 -0.12901902 -0.03593044 -0.12784554
0.14138834 -0.11246884 -0.08390928 0.0059732473 -0.2548038 -0.027321307 0.12802155 -0.047054082
-0.22701456 0.037312787 -0.39562756 -0.21520321 -0.23407322 -0.072802156 -0.24649575 -0.011554968
0.13582046 0.050861266 0.100676626 0.009479913 -0.058248412 -0.0014702409 -0.011673399 -0.0010120615
-0.034970667 -0.15327577 0.005351125 -0.3816867 -0.05183462 -0.019666582 -0.1250644 0.114892535
-0.045627464 0.008108507 -0.07597542 -0.0062231915 -0.018317053 -0.020906406 0.052029837 0.058296442
0.016582895 -0.07926365 -0.09469798 -0.053624272 -0.07716177 0.00019336655 -0.01701357 -0.03347143
-0.08742177 -0.031574227 0.044192623 -0.04478144 -0.11201498 -0.2926735 -0.11507005 0.13204579
-0.28965792 -0.18949643 0.21154174 -0.29086903 0.028418463 0.018380746 -0.049223818 0.055103227
-0.013688617 -0.0050396826 -0.05899267 0.045948923 0.0012306094 -0.1251481 -0.06653947 -0.10294586
-0.12716149 -0.052963812 -0.24373575 -0.09235685 0.10685552 -0.010589821 -0.04184059 -0.040472597
-0.02956558 0.03028308 0.037977815 0.049739342 -0.05939046 0.0066792835 0.097913995 0.14663142
0.12344383 -0.13732305 0.023690179 -0.08470278 0.040343482 0.006212244 0.027784433 0.002357849
0.06142018 0.066378966 0.03886046 -0.0938301 -0.13813563 0.04190471 -0.012644829 -0.10385619
0.042191718 -0.120131254 0.045656983 -0.066941224 0.07365645 0.112414084 -0.09783295 0.026222378
-0.009045015 -0.030178059 -0.14186232 -0.09595444 -0.02669408 -0.1361163 -0.0881487 -0.03881971
-0.18622181 -0.09795052 0.07324737 -0.005564248 0.037508935 5.0969044e-05 0.106839 0.044990204
0.105969004 -0.0141141955 0.027979767 0.084694125 -0.104568176 -0.050793853 0.0014122135 -0.107096665

bias f4 [64]
00000000: c505 2fbc 273e 973c b94b 03bd 12df 7abd
00000010: 9f5f 0e3e e8a0 233b 3153 3bbd 8370 043e
00000020: b32a f23d ae77 0f3e 063e 003d f4e9 273c
00000030: 9df2 3b3c efc1 8c3b 8592 fdbb 2b69 a0bc
00000040: cc1a b9bc a635 0cbc f24e 6bbd ed4e 6bbd
00000050: 45c0 c13d f749 56bc c858 073c 4e0a 66bd
00000060: 3e80 11bd 95f3 2cbc 03b1 b63d dfb6 243d
00000070: 4ddc 6c3e 9487 ccbc fc65 993b 5ac5 85bc
00000080: 6b02 d73c e405 133e 3036 5bbd 7496 03bd
00000090: 56e3 c23c e585 0e3e 3020 91bd 9e9b a0bc
000000a0: 4ea2 133e 9c44 70bc e15a b23e a6a6 47bf
000000b0: 88cf ff3a 6d87 ac3d f2af 463b 3035 ab3c
000000c0: 0109 0a3a f762 48bd 94eb 113d 10ef b23c
000000d0: ec71 90bc ff57 ca3c 75fb 7339 cf3e af3d
000000e0: 4f1a 2a3d c76c 96bd 30f5 453d 4af1 d63c
000000f0: d562 9a3d 500e 4e3c c8ba c3bb 2656 01bd
-0.010682528 0.018462254 -0.032054637 -0.061247893 0.13903664 0.0024967734 -0.045733634 0.12933545
0.118245505 0.14010498 0.03130915 0.01024865 0.011471418 0.0042955796 -0.0077384138 -0.019581398
-0.022595786 -0.008557713 -0.057448335 -0.057448316 0.09460501 -0.013079158 0.008260913 -0.05616217
-0.035522692 -0.010556121 0.08920481 0.040213462 0.23130913 -0.024966992 0.004681347 -0.016329456
0.02624627 0.14357716 -0.053518474 -0.032125905 0.023790043 0.13918264 -0.070862174 -0.019605454
0.14417383 -0.014664795 0.3483496 -0.7798866 0.0019516805 0.08424268 0.0030317274 0.020899385
0.0005265624 -0.048922505 0.035625055 0.02184251 -0.017632447 0.024700163 0.00023267961 0.08556902
0.041528996 -0.073449664 0.048329532 0.026238102 0.07538382 0.012576655 -0.005973194 -0.0315763

weight f4 [64, 64, 3, 3]
00000000: 8a4c 41bb 7e26 803d c7c1 5ebd cb09 9dbd
00000010: 966e 4abe 39b6 f93c e570 9bbb b43f e9bd
00000020: f0f1 a73b 4083 f33a a6f9 28bc 1eda dd3b
00000030: 2291 863c 5bfe dcbc 4ba1 61bd 3a6b 893c
00000040: 87ea 41bd 1c30 333c b1e9 593d 68c3 803c
00000050: 970f e63d 5f61 1c3c 6112 7c3d 2cf7 acbd
00000060: 4a4d 52bd 4c76 80bd 0118 6cbc f64f 9e3d
00000070: ad45 c13a 4cca ee3c 4e5a dcbb 22b9 b4bc
00000080: 1c3e 573d e2d4 9cbd 7f67 cebc 8ebd 4abd
00000090: f037 2b3c b916 eb3c e7ca 88bc 4236 9abd
000000a0: 3932 a3bd e0be 7ebd 5192 90bc b9ea f5bb
000000b0: 83f6 91bc d331 f5bd 62c9 983d 1643 f53c
000000c0: 66e9 3e3d f43e 80bc 5db6 e93c 027a a8bd
000000d0: c4e7 4fbd 448e c73c 5bcc 9bbd 1f44 4a3c
000000e0: aa7c 9f3c 3eda 4c3c 89db d13c 60d4 7abc
000000f0: 48b2 cc3c 7685 3cbd 8fac 073c de99 5f3d
00000100: 7a95 9bba 3995 2cbc 5a28 a23c 770c bebc
00000110: 9396 a63d a0a7 8d3c 49cc b8bd 23b7 1abe
00000120: b3bc 92bd 4958 513c 24f0 263d 6fc9 c9ba
00000130: 6393 23bd 3a91 8b3d d72b ddbb d9df 8bbd
00000140: 870d b2bc 2427 77bd 8edf eebc bd5f 72bd
00000150: 2918 3d3e e9bd 723c 0603 bd3c 37fa ebbb
00000160: d346 823d 05b1 2abd 0e01 85bb 7b18 99bd
00000170: 1882 47bc 972c e73c 9a4c 013e 32c7 3b3d
00000180: 6459 22bd 7586 61bd 9f84 47bb 23e2 0b3d
00000190: 9543 8abd 85fb 213d 145b b23d ecfa 9c3c
000001a0: 3f82 de3b 1736 7ebc 59eb 6a3d 4506 0ebd
000001b0: 268b 67bd afbc 4abc 8d97 37bd 6d57 b1bd
000001c0: 40cf 7fbd 7837 08bd 4b65 8cbb 1908 ccbd
000001d0: 8480 94bd fb38 4dbd e644 e73c b759 283d
000001e0: 9acb 83bd 6933 e8bd c8d0 53bd 9766 033d
000001f0: 3145 423c aca3 2fbd 3e00 0c3c be88 21bd
00000200: 8ac6 d2ba 6565 07be 0b96 343c 9f72 2e3c
00000210: 9a62 d0bd 6008 0e3c 8998 ab3d 3865 2fbc
00000220: 1b2e c6bd e13b 9abd f10a cc3c e27d 8ebd
00000230: dfa6 f3bc 4c41 cfbc b2f6 c5bd 74af 9f3d
00000240: c413 083d b1d9 78bd 1793 9e3c 2122 9fbd
00000250: 5946 0bbb 43e9 8fbd 2b16 52bd a483 e0bc
00000260: f9c0 dd39 3935 d4bc 8b39 b1bc d9bd 7e3d
00000270: f27b 123d f739 3d3c 5d1a 8bbc 5789 573d
00000280: 089f f2bb fdd5 64bd e584 f7bb e656 b9bb
00000290: a629 fcbd 17b2 d13b a172 d2bc 9194 64bd
000002a0: f03f bd3c a076 cdbc 0f49 6fbc f6d6 cb3c
000002b0: aceb 1abd 2018 4a3c c441 023d 3b70 4e3d
000002c0: 17d4 a3b9 d2bb 2a3d f260 f6bd f408 7ebc
000002d0: 06b2 ba3c b6ed c13c 1558 a8bd e6f4 853d
000002e0: 0850 03be 65a0 11bc e2f5 e53d 1566 293b
000002f0: 27ce 8cbd 2abf 34bc ab31 a5bc 2f25 16bd
00000300: bdd9 17bc a970 c3bc ffe6 00bd ba6e c43d
00000310: 9ff8 95bd 3166 7abc 9186 793d f603 c73b
00000320: cd73 e5bc 76fa de3c 0053 2c3b 963f c7ba
00000330: ef66 bdbc a983 bfbc fd7c bb3c 300b 8fbd
00000340: 8119 9b3d eb4b b83d 14c3 3abc 9688 88bb
00000350: 07a2 813d 22d3 86bd 7133 8ebd 02ac e6bc
00000360: 97ae 40bd 733c 9fbd 67be 493d 3c3f fc3b
00000370: c585 3bbd cd2b b7bd 00d2 4ebd 2ad0 e9bc
00000380: 2e27 13bd 8af8 95bd 2301 bd3d a4dd d5bc
00000390: 0537 f53c 8fbe 983d 0d2e 9abc 922d 4abd
000003a0: c586 07bd 1492 29bd 97cf 3f3c 484d debc
000003b0: a4a6 cabc 020e 883c 8457 86bd d4f0 82bd
000003c0: a1f7 2dbd 8ae3 85bd 56f2 f9bc 0e93 7bbd
000003d0: 7918 ecbd 6269 abbd 00b3 b2bd 1395 4ebe
000003e0: 90a6 c5bd 27bb 5bbc 3ec7 19be 4c57 38be
000003f0: 03b0 803c 62e2 243d 3eea 12be b42b 79bc
-0.0029495084 0.06257342 -0.05438402 -0.076678835 -0.19768748 0.030482398 -0.0047436827 -0.113891035
0.0051252767 0.0018578544 -0.010313427 0.0067703864 0.016426627 -0.026976755 -0.05508546 0.016774762
-0.047342803 0.010936763 0.05320138 0.015718177 0.11233442 0.009544699 0.061540965 -0.08445582
-0.05134324 -0.06272563 -0.01441002 0.07730095 0.0014745496 0.029149197 -0.0067246323 -0.022060934
0.052549466 -0.07657792 -0.025195835 -0.04949718 0.010450348 0.028697358 -0.016698314 -0.0752988
-0.079685636 -0.06219375 -0.017647894 -0.0075047878 -0.017817741 -0.11972394 0.07460286 0.029939216
0.046609305 -0.015655018 0.02852934 -0.08226396 -0.05075814 0.02435983 -0.07607337 0.012345343
0.019468624 0.012503205 0.025617378 -0.015309423 0.024987355 -0.046025716 0.008280887 0.0545901
-0.0011870109 -0.010533624 0.019794632 -0.023199303 0.081341885 0.017291844 -0.09023339 -0.15108924
-0.07164898 0.0127773965 0.04075636 -0.0015395115 -0.03993548 0.06814809 -0.006749611 -0.06829805
-0.021734966 -0.06034006 -0.029159334 -0.059173334 0.18466248 0.014815786 0.02307273 -0.007201459
0.06361165 -0.041672725 -0.0040589636 -0.074753724 -0.012177013 0.028219504 0.12626877 0.045844264
-0.03963603 -0.05505987 -0.0030444039 0.034151208 -0.067511715 0.03954651 0.08708778 0.019162618
0.006790429 -0.015515826 0.05735335 -0.034673948 -0.056529187 -0.012374087 -0.044822264 -0.08659253
-0.06245351 -0.033256024 -0.004284536 -0.09962482 -0.07251075 -0.05010317 0.028231096 0.041101184
-0.06435318 -0.11337931 -0.05171278 0.03208026 0.011857317 -0.0428807 0.00854498 -0.039437048
-0.0016080898 -0.13222273 0.011022101 0.010647445 -0.10175057 0.008668989 0.08378703 -0.010705285
-0.09676763 -0.07530952 0.024907561 -0.06957604 -0.029742656 -0.02529969 -0.09666194 0.07797137
0.033221975 -0.06075448 0.019357247 -0.077701814 -0.0021251647 -0.07026913 -0.051290672 -0.027406521
0.0004229618 -0.025904285 -0.021633884 0.06219277 0.035762735 0.011549464 -0.016980344 0.05262121
-0.007404212 -0.055868138 -0.007553684 -0.005656111 -0.12312631 0.006399404 -0.025689425 -0.055805746
0.023101777 -0.025080979 -0.014604821 0.024882775 -0.03782241 0.012334853 0.031801 0.0504
-0.00031247802 0.041683026 -0.120302096 -0.015505064 0.022789966 0.02367292 -0.08219925 0.06540851
-0.12823498 -0.008888339 0.11228539 0.00258482 -0.06875258 -0.011031905 -0.020165285 -0.036656555
-0.009268221 -0.023857431 -0.031470295 0.09591432 -0.07322811 -0.015283153 0.06091935 0.00607347
-0.02800932 0.027219038 0.002629459 -0.0015201445 -0.023120372 -0.02337821 0.022886747 -0.06984556
0.07573224 0.08998855 -0.011399049 -0.004166673 0.063297324 -0.06583239 -0.069434054 -0.028158192
-0.0470415 -0.07775202 0.049253847 0.007697968 -0.04578187 -0.08943901 -0.05049324 -0.028541643
-0.035926037 -0.07322796 0.092287324 -0.026106663 0.029933462 0.07458221 -0.018820787 -0.049359865
-0.03308751 -0.041399077 0.011707208 -0.02713646 -0.024737664 0.016608242 -0.06559661 -0.063935906
-0.042472485 -0.0653754 -0.030511063 -0.06141954 -0.11528105 -0.083697096 -0.08725548 -0.20174055
-0.0965091 -0.01341132 -0.15017411 -0.18002051 0.015708929 0.040254958 -0.14347169 -0.015208174

bias f4 [64]
00000000: e4fa 4e3d b2ee aa3d 3f8f d0bc 697a 97bc
00000010: 6552 ad3d d92f 64bd 7ca6 61bc fac6 efbc
00000020: 1220 2cbb 9b6c c63c 14de 1f3d d304 b0bc
00000030: 22c2 86bc bf36 52bd 7dd9 a93d 8657 e1bd
00000040: 703b 52bd 2b19 8cbc 429d d1bc 247f 39bd
00000050: 9f1c ab3d 5b63 8abd 5ada b6bc 9758 1fbc
00000060: e4e8 17bd f77c 903d 99d6 9ebd f201 503d
00000070: 11ce 74bd 314b c0bb 0fde f138 e780 463d
00000080: ee91 8e3b 5050 2abb 2fa1 613c d467 6f3b
00000090: 67fc f4bc 6279 013c 03ea f8bd 5fe3 04bc
000000a0: 044d c23c 7bc6 93bc 0aab 463e 15f9 52be
000000b0: 5d88 a6bc f26b 75bd f58c 53bd 9f1a 043d
000000c0: 8b9c 823d 89a3 be3d f600 f1bc 70f9 f2bc
000000d0: 2a22 4d3d dfd4 c33e 84ce 223e 5fc7 1e3d
000000e0: 4f18 853d 8ba1 2a3d f576 f3bc 9a0a 883d
000000f0: 52c3 98bd c1da bd3d f5b2 80bd 40cc 913d
0.050532237 0.08346309 -0.02545893 -0.018490987 0.08462981 -0.055709694 -0.013772603 -0.029269684
-0.0026264233 0.024221709 0.03903015 -0.021486675 -0.016449992 -0.05132174 0.08293436 -0.11003022
-0.051326215 -0.017101845 -0.025587682 -0.045287266 0.083550684 -0.06757232 -0.022320915 -0.009725711
-0.037087336 0.07055085 -0.07755775 0.050783105 -0.059766833 -0.0058683385 0.00011533137 0.048462775
0.0043508923 -0.0025987811 0.013771339 0.0036530392 -0.029905511 0.007902475 -0.12154009 -0.00811085
0.023718365 -0.018038979 0.19401184 -0.2060283 -0.020328695 -0.059917398 -0.0516481 0.03225195
0.063775145 0.093085356 -0.029419404 -0.029659957 0.05008141 0.38248345 0.15899092 0.038764354
0.06498777 0.041657966 -0.02971981 0.06642647 -0.074591294 0.092702396 -0.06284133 0.07119036

weight f4 [64, 64, 3, 3]
00000000: 126a f8bc 7a40 c23b ffee 5cbd eb88 363d
00000010: a55d c2bd ca97 81bd 892e f8bd 9fdc b53c
00000020: fe44 c63c 2b1a 3f3d 3b59 02bd f9c9 353d
00000030: 7e48 a83a 7b42 a3bc bdca 4abd dc6f 8bbc
00000040: f9e6 293d 216b b4bd c509 debd 21e7 5b3c
00000050: f3e4 ad3d 9c51 cabc f5de 03bc a509 54bb
00000060: eb57 ebbc 539e 943c 3c3b 88bd b575 183c
00000070: 4038 41bd b58d 913c dd3c 6fbd 3eb1 9abc
00000080: d7ae 633d dea6 763d e95c 81bd cab0 15bd
00000090: 3ce3 463a e060 c83b eab7 0e3d ab92 10bc
000000a0: 549f 0e3d 0a3f 3cbc 9f92 ad3c ae12 273d
000000b0: bc24 603c b3fd da3c 5ed3 753c 6341 3ebd
000000c0: 1918 96bb 02e8 cd3a 8784 79bb 3146 83bd
000000d0: d428 24bd 69d8 bfbd bd19 e8bc 0bf4 ff3c
000000e0: 066a e4bc dce7 dbbd 3169 83bd 912b c03d
000000f0: a798 883d 7090 a3bb c6b9 02bd 1033 e53c
00000100: 4a54 b0bd 0bf3 4e3d f712 203d 93ae 8d3c
00000110: 27a9 9fbc 4a50 b8bc a465 2fba 1288 71bd
00000120: dfef 16bd dd20 00be e7e5 2abe 3a99 08be
00000130: 9fc0 00bd d821 ddbd 1908 34bd 7c24 c43b
00000140: 472c 5bbc bcbb 303d d0c5 053d 7e1a e7bc
00000150: d2a2 b1bc 636f d3bc 1892 babc fce7 bebd
00000160: 65e8 033d 5482 99bd da1a c83c 1143 f0bc
00000170: d5f4 92bd 459b db3c 20c0 21be 6f95 afbd
00000180: 6da4 90bd e13e d23c 2346 5f3b 4cd0 063c
00000190: 3588 7a38 9a71 dabd 2d19 edbc f675 f23a
000001a0: a8d1 69bd 9488 71bb 12ea a63c a1a5 77bc
000001b0: abaf 72bd 5046 9abc e478 6e3d fe66 9dbd
000001c0: 726c ccbd 01a4 86bd fc99 1fbc 1f65 1ebd
000001d0: 3572 d2bc 2bbd 80bb c15b 853d 9454 98bc
000001e0: 3797 5bbd d7d0 533d fa16 fbbc 669e b73b
000001f0: f126 87bc d73b 18bd 562d cabd c5eb 83bc
00000200: f7ef 8b3d 8878 6a3d cbe0 babd bfb1 073d
00000210: 8feb 82bd 78fd 63bd 55f8 72bd 57db fdbc
00000220: bc7c 3d3d acf1 993d 0297 9fbb 7f01 4f3c
00000230: 50df 94bc 6ac5 99bd 929c 0a3e a23a 00be
00000240: fbe2 5c3d bdf2 b2bd 9232 883d 7f44 ee3c
00000250: 67a9 37bd d1f3 79bc 8a7c 2fbd 8a42 acbc
00000260: 7f44 cbbc 9ae1 e5bc 354a a2bd e184 97bd
00000270: bcb7 edbd 09a3 91bd 0725 c43c 5b4e 833d
00000280: 7783 d93d 1ff6 4a3c ee05 ccbc da4d 173d
00000290: b5b2 8fbd 4230 ba3d 85c2 3e3c ab4a 0f3d
000002a0: 8720 e73d b9d5 47bc 8ec3 5e3d 6ef2 f5bc
000002b0: b3bf 423d a192 39be 6292 36bd a246 b4bd
000002c0: 11fb 573c 3d66 a33d 3af1 9bbc 3176 b53c
000002d0: cf7f babc 09f8 7fbc b478 bdbc 88c0 08bd
000002e0: 903e b13b 04cd 2ebd cfb0 bd3d d9d0 28bd
000002f0: cbcb c73c 1455 533d 6efd 7dbc 8b2b 21bd
00000300: e9d9 5abd c751 6a3c 5e3d c53d aacd 7fbd
00000310: d51b 863d db61 083e 3c93 fa3c 83fd 9b3c
00000320: b07a 0a3d 98ea 11bd 772b debc dcac 72bd
00000330: 56d0 973d 4385 373d ada3 da3c 8718 dabd
00000340: 9af2 3a3d f8d7 13be cc7b 113e df18 90bc
00000350: 2255 a1bc 046e ba3d 824f 143e a8db 223d
00000360: e6d2 113c 0ab7 803b 1448 7abd 5937 273d
00000370: 255b 5dbd 3f6f 1cbd e915 be3c a953 373d
00000380: e4b3 a4bd 77c4 1abd bc8d cabd 8c6e 7d3d
00000390: 461b 8e3c 4dfa b2bc 593f afbc 34ba 753d
000003a0: 024f 673d 0381 46bd 468a 28bd 9f31 8d3c
000003b0: 3c9b 52bd 93db 24bd d452 10bd cff9 ee3a
000003c0: f414 ac3c 39ad 63bd 5692 8c3d da40 5fbc
000003d0: a87c 5e3c 697f 80bc 631d bcbc 10bf 9ebc
000003e0: 01e5 30bd 1a3d 383d 24cb 33be a8f3 83bd
000003f0: 316a 273d 7034 72bd 7868 4cbd 8994 b3bd
-0.030324016 0.0059280964 -0.053938862 0.04456417 -0.094905175 -0.063277796 -0.12118251 0.022199927
0.02420282 0.046655815 -0.031823378 0.04438207 0.0012838987 -0.019929161 -0.049509753 -0.017021112
0.04148004 -0.08809496 -0.10841707 0.013421805 0.08490934 -0.024697118 -0.008048763 -0.0032354381
-0.028728446 0.018141901 -0.06651923 0.009305407 -0.047172785 0.017767766 -0.058407653 -0.018883344
0.055586662 0.06021773 -0.06316549 -0.036545552 0.0007586961 0.006115064 0.034843363 -0.008824031
0.034819916 -0.011489639 0.021188078 0.0407893 0.013680633 0.026732301 0.015004007 -0.046449076
-0.0045805094 0.0015709403 -0.0038073377 -0.06409872 -0.040078 -0.09367449 -0.028332585 0.031244298
-0.027882587 -0.10737583 -0.06416548 0.0938331 0.06669741 -0.0049915835 -0.03191545 0.02797845
-0.08609827 0.050524753 0.039080586 0.017295158 -0.019489838 -0.022499222 -0.0006690866 -0.058967657
-0.036849853 -0.12512536 -0.16689263 -0.13339701 -0.031433698 -0.10797471 -0.043953035 0.0059857946
-0.013377256 0.043147787 0.03265935 -0.028210875 -0.021684084 -0.02580995 -0.022774741 -0.09321591
0.03220405 -0.07495561 0.024426866 -0.029328855 -0.07175604 0.026807437 -0.15795946 -0.08573424
-0.07062612 0.025664749 0.0034068904 0.008228373 5.9731497e-05 -0.10666199 -0.028942669 0.001849829
-0.05708471 -0.0036855089 0.020375285 -0.015115173 -0.05924956 -0.018832356 0.05822076 -0.0768566
-0.09981622 -0.0657425 -0.009741303 -0.038670655 -0.025689224 -0.0039288006 0.06511641 -0.018595017
-0.053611007 0.051712837 -0.030650605 0.0056035994 -0.01649806 -0.037166443 -0.098719284 -0.016103635
0.06832879 0.057243854 -0.09124907 0.033128496 -0.063925855 -0.05566165 -0.05931886 -0.030988378
0.046261534 0.075167984 -0.0048702965 0.012634634 -0.01817289 -0.07508357 0.1353629 -0.12522367
0.053927403 -0.08737705 0.066502705 0.029085396 -0.04483929 -0.015255884 -0.04284338 -0.021027822
-0.024812935 -0.028061677 -0.0792431 -0.073983915 -0.1160731 -0.071111746 0.023943437 0.064114295
0.10620778 0.012387781 -0.024905171 0.03693948 -0.070165075 0.09091236 0.011643057 0.03498332
0.11285501 -0.012196952 0.054385714 -0.030022826 0.0475461 -0.1812234 -0.044573195 -0.08802535
0.0131824175 0.07978485 -0.019035924 0.022151085 -0.022766022 -0.015623101 -0.023128845 -0.033386737
0.0054090694 -0.042675987 0.09262239 -0.041214798 0.024389168 0.05159481 -0.015502317 -0.039348166
-0.05343047 0.014301724 0.096308455 -0.062451996 0.06548277 0.13318579 0.030587785 0.019041782
0.03380841 -0.035624117 -0.027120335 -0.059246883 0.07412784 0.044804823 0.026689375 -0.106492095
0.04564152 -0.14437854 0.14207381 -0.017589984 -0.019693915 0.09103015 0.14483455 0.03976026
0.00890038 0.00392807 -0.061103895 0.040824268 -0.054042 -0.03819203 0.023203807 0.04475752
-0.08042124 -0.03778502 -0.09890315 0.061873004 0.01734699 -0.021847868 -0.021392511 0.05999203
0.056471832 -0.04846288 -0.041147493 0.017235575 -0.051417574 -0.040248465 -0.03523524 0.0018232408
0.021006085 -0.05558512 0.06863849 -0.013626302 0.013579525 -0.015685754 -0.022963231 -0.019378215
-0.043187145 0.044980146 -0.17557961 -0.06442958 0.040872756 -0.05913204 -0.049904317 -0.08768565

bias f4 [64]
00000000: 5c3a 44bd fce4 48bc af3b 89bd 9018 dcbc
00000010: 90a5 92bd 56ec 03be 318c 503c 3659 f53b
00000020: 5cf8 5f3c 032c 2fbd a409 8ebc e8d6 05bd
00000030: 4ed5 2cbd e918 e83d 306c 7cbc 6af3 0f3d
00000040: dd28 82bd 5515 67bd 92e2 bbbb a778 e8bc
00000050: 01bf 25bc 0174 f2bd 58ff 21bd 6f8e 3e3d
00000060: f071 95bb 7702 ed3c a09f 90bd 0a8d 043d
00000070: 8cd0 18bd 78d9 fabc 0fd7 a9b8 0b1d 3e3d
00000080: 52d0 77bc 5b6a 82bc cc07 74bd 03b4 85bd
00000090: 16f7 93bd cb8b 253c 6026 9d3b d4b1 82bc
000000a0: 8563 8fbc f58e ba3d 3518 f03d 3409 e3bc
000000b0: 7b1d d43a 2193 c53c 7aca 75bd c9cd ddbc
000000c0: cb94 5dbd aa5d 00bc 5345 5fbd b94f 903b
000000d0: 7442 9cbc 9f0c 5cbd aed7 e7bd f9f7 173b
000000e0: ee0b 06bd c0de 0fbe 509c 5bbd 9ad4 25bd
000000f0: d125 3abd dcc8 bebc c7e0 22bd 0ab0 0e3b
-0.04790722 -0.012261625 -0.06700837 -0.026867181 -0.07160485 -0.12883124 0.012728737 0.0074874414
0.013670053 -0.042766582 -0.017338581 -0.032675654 -0.04219561 0.11332876 -0.015406653 0.035144247
-0.0635545 -0.05641683 -0.0057337964 -0.028377844 -0.01011634 -0.11838532 -0.039550155 0.046522554
-0.0045607015 0.02893184 -0.07061696 0.032361068 -0.03730826 -0.030621275 -8.098606e-05 0.046414416
-0.015125351 -0.015919855 -0.05957775 -0.06528475 -0.07224862 0.01010413 0.0047958344 -0.015953936
-0.01750351 0.09109298 0.11723367 -0.02771435 0.0016183102 0.024118008 -0.06000755 -0.027075665
-0.05409698 -0.007834831 -0.054509472 0.004404035 -0.019074656 -0.053722974 -0.113204345 0.0023188575
-0.03272622 -0.14049816 -0.053615868 -0.040485956 -0.04544622 -0.023289137 -0.039765146 0.0021772408

weight f4 [12, 64, 3, 3]
00000000: dd94 39bd ac5e 59bb fa89 b83c 438a 873c
00000010: 037d a63c 1bba 43bc 49d8 4dbb 2b92 49bc
00000020: 7e6a 5a3c 81df 2dbd 41b7 a03d e5a9 1a3c
00000030: 8741 80bd d915 db3c ed05 813c 69ab d13b
00000040: 5571 72bb 0aec 0fbd 75e8 1ebd 13f8 eb3c
00000050: e746 e9bd 676a 013d a0a7 b03d 3965 a9bd
00000060: 4989 1c3d 7a7a 553d ef52 263d eec9 05bb
00000070: 53af 853d 7870 4bbd 654a 813c c5dc a9bd
00000080: db08 a03e 7708 bebb 85df 383c 7ed9 f8bd
00000090: 89a4 af3d ef43 253c e990 4dbd 8935 653d
000000a0: e9cf 523d 2ecd a0bd b38c 01bb 4135 e4bc
000000b0: c765 a9bc b9ed e3bb e913 42bb c8f7 caba
000000c0: 8514 a9ba 0a0b b13d fe69 363a 5a7a 263c
000000d0: 8312 17bd d30b 0e3b 9ba9 c13c 4b55 33bd
000000e0: a43d d83b ef51 4b3d 0ab6 59bd 9c59 fd3c
000000f0: 02ce 7a3d dfdf 603b 0c78 553c f16e 083d
00000100: 062a 8d3a 8726 6d3b 96e5 46bc b1d8 e93d
00000110: 2d2f 82bc adec 043d 4eb7 4ebd 9725 973c
00000120: 99bd 55bd 5266 5cbc 531b b8bc 2663 ff3d
00000130: f58d 1d3b e437 02bd d41c 033e 2f95 c5bd
00000140: e3fb 04bd 4263 a03c 1747 87bd 5514 243c
00000150: ee12 2dbd 29ca 6c3d 4c5f 0abd 8cd3 ab3c
00000160: f097 c43c 62b1 0c3d 42db 853d c07d b7bb
00000170: 43d5 32bd 5162 19bc 9ce0 c2bc cc10 44bc
00000180: f8ab f53c 6285 323c b936 e3bc bade b33c
00000190: 3419 433b 14cd cf3c a1e4 e9bc 18be 463c
000001a0: a16d f1bc 3d49 3fbd d4fe 513d 01e2 acbd
000001b0: 62a5 00bc 273d 4dbd 27dd 25bd d253 a33c
000001c0: 0475 083c 637c f43c 40db 333c 84c4 6a3d
000001d0: d249 0dbd 7561 e33c 33a4 e13c c48c 19bb
000001e0: 0dbb f23c 0ca3 b03d fdd1 d1bc bb22 573c
000001f0: 01bf 48bc 8590 a8bd 33f8 69bd 82f7 973c
00000200: f818 0f3d 809a 60bb ec8f e33b 521a a53d
00000210: 1a1d fdbc be49 64bc c3d6 c23b 3628 3e3b
00000220: 01da 3cbc 9486 d23b cd0b cf3d d586 a8bb
00000230: 999f dcbc c715 f8bc 8135 df3c 4d6f ecba
00000240: d589 a1bc 6444 573c 8563 063b e230 933c
00000250: 7550 cd3c aecd a9bc 97c2 873c 9644 a63c
00000260: 81c0 d6bc 5c64 c939 42a4 a2ba 8022 58bc
00000270: d3ed 63bb 059b aabd c5ea 2abc 7de9 ee3b
00000280: 715b fd3c bacb fa3c 7ce0 1c3d aca2 2f3d
00000290: 6ec2 233c 8757 84bd 7152 5c3b 2d21 64bd
000002a0: af11 b4bd 4a12 f8ba f763 d33a aa9c a5bd
000002b0: 0c38 0cbd 65fa 9abb 13ed 883d 52ce e93d
000002c0: 1247 3abd 91d3 4a3d 024b 3c3c a21a 6ebc
000002d0: 2ece 8dbd 117d 023d d947 f63c b0c7 cbbb
000002e0: ab8b babc ec17 5d39 b046 1fbc eb94 c73c
000002f0: 5e94 dc3b 21f1 24bc b7f0 403c 48c6 e6ba
00000300: e6ec 0a3d 0ffc 2dbc 9b36 433c 77b6 1a3b
00000310: a19b 92bc 681a 323b 68de ac3c bcde e6bb
00000320: a433 98bd c71c 613d 9aed 7e3d e1ff d23c
00000330: eb38 08bc 418e 523d 7130 c3bd 4a13 42bd
00000340: 89b2 3dbd 3c90 0f3c 7fda 23bd 61b8 853b
00000350: 98c3 e23c 1b8b bf3c 1744 f43c 5a1b 913d
00000360: c388 553d b130 c2bd 9a17 2cbd e555 1e3d
00000370: cf6d 0b3e a9df 5ebe 5cf5 493c 76b8 0d3d
00000380: 018d c5bd 8c72 743c 6c57 d6bc 937a 2fbc
00000390: a387 e93c 67c5 36bc 644c 803d a246 08bd
000003a0: 03d2 0e3a 4dd5 44bc d5b8 e1bc aff0 ec3c
000003b0: 1a35 ca3b 7edb 18bc 91ab 4dbb 5916 113d
000003c0: b804 50bd 8630 fd3c d474 38bc 9ec8 85bd
000003d0: efe8 973d 6c30 a7bc fcba 1bbc 1eb0 e13d
000003e0: 3a4e 19bc b10d 50bd 5ef7 a03c 5d9a 18bd
000003f0: 1f3f 0abd 0b07 5d3d e4c6 883d 6960 d6bc
-0.045307983 -0.0033168 0.02252673 0.01654542 0.020323282 -0.0119462265 -0.0031409434 -0.012302916
0.013331054 -0.042449478 0.07847453 0.00943992 -0.06262498 0.026743816 0.015749896 0.0063986075
-0.003699382 -0.035137214 -0.038795907 0.028804814 -0.11390477 0.031595614 0.08625722 -0.0827126
0.038216863 0.052118756 0.040606435 -0.002041455 0.06527581 -0.049667805 0.015782544 -0.082940616
0.31256756 -0.005799349 0.01128376 -0.12150858 0.085763045 0.010086997 -0.050187025 0.05595926
0.05146781 -0.07851635 -0.00197677 -0.027857425 -0.020678414 -0.006955829 -0.0029613918 -0.0015485222
-0.0012899792 0.08644684 0.0006958543 0.010161007 -0.03688289 0.0021674528 0.023640445 -0.043782514
0.006599145 0.049638685 -0.05315212 0.030926518 0.06123162 0.0034313125 0.01302911 0.033308927
0.001076997 0.0036186294 -0.0121396985 0.11418284 -0.015891636 0.032452274 -0.05046778 0.018450541
-0.052182768 -0.013452129 -0.022473967 0.12470083 0.0024040912 -0.031791583 0.12803966 -0.09647595
-0.03246678 0.01957858 -0.06605356 0.010014613 -0.04225438 0.057809982 -0.03378229 0.020974897
0.02399823 0.034348853 0.06535961 -0.0055997074 -0.043660413 -0.009361819 -0.023788743 -0.011966895
0.029989228 0.010896059 -0.027736055 0.02195679 0.002976966 0.025366344 -0.028551402 0.012130283
-0.02947122 -0.046700705 0.051268414 -0.08441544 -0.00785193 -0.050107148 -0.04049411 0.01993743
0.00832868 0.029844468 0.010977566 0.05731632 -0.03449423 0.027756432 0.027544117 -0.002342985
0.029630208 0.08624849 -0.025612826 0.013130839 -0.01225257 -0.0823069 -0.057121467 0.018550638
0.03493592 -0.0034271777 0.006944647 0.08061661 -0.030897666 -0.013933597 0.0059460117 0.0029015667
-0.011526586 0.0064247344 0.10109673 -0.0051430264 -0.02693157 -0.030283822 0.027247192 -0.0018038541
-0.019719044 0.013138864 0.0020506096 0.017967645 0.025062779 -0.020727959 0.01657228 0.020296376
-0.02621484 0.0003841248 -0.0012408572 -0.013191819 -0.0034779205 -0.08330349 -0.01043195 0.0072910176
0.030927392 0.030614723 0.038300022 0.042879745 0.009995086 -0.06462007 0.0033618475 -0.0556957
-0.087924354 -0.0018926349 0.0016127814 -0.08086522 -0.034233138 -0.0047295564 0.06685843 0.114163056
-0.045477934 0.04951817 0.011492493 -0.014532717 -0.06924091 0.031857554 0.030063557 -0.006218873
-0.022771677 0.00021085114 -0.009721443 0.024363002 0.006731554 -0.010067255 0.011776141 -0.00176067
0.03391733 -0.0106191775 0.011914874 0.0023607293 -0.017896475 0.0027176384 0.021102145 -0.007045595
-0.07431725 0.054959085 0.062238313 0.025756778 -0.008314352 0.051405195 -0.09530724 -0.047381677
-0.046312843 0.0087624155 -0.040003296 0.0040808176 0.027681157 0.02338176 0.029817624 0.07085295
0.05213238 -0.094819434 -0.042014696 0.038656134 0.13616107 -0.21765007 0.012326565 0.034599744
-0.09646035 0.014919888 -0.026164733 -0.010710376 0.02850706 -0.011155463 0.0626457 -0.033270486
0.00054481643 -0.0120137455 -0.027553955 0.02892336 0.006170881 -0.009329675 -0.003138278 0.035421703
-0.05078575 0.030906927 -0.011258323 -0.06532405 0.074174754 -0.020408832 -0.00950503 0.1101992
-0.00935703 -0.050794307 0.019649204 -0.037256587 -0.033751603 0.053961795 0.066785604 -0.026169019

bias f4 [12]
00000000: 6332 1a3b d444 8d3c 14b6 063c 4f6a 5a3c
00000010: d1e1 203c 0cd0 bb3c 5ca2 2a3c 0295 9c3b
00000020: 5f56 303c 2cea 163c f849 8b3c ed11 573b
0.0023528568 0.017244734 0.008222122 0.01333101 0.009819464 0.022926353 0.010414686 0.0047785053
0.01076278 0.009211104 0.017003044 0.003281708
