train_weight_sr3/model_epoch_20.pth (torch_old, 667646 bytes, 10 tensors)

weight f4 [12, 3, 13, 13]
00000000: 87ab bf3c 1cf3 7abd e883 5f3d d27b 6d3c
00000010: 1e6a 0cbd b9ee 82bd 2bc1 593d f413 843d
00000020: fe31 e9bd f708 ca3d 8106 97bc a0f1 083d
00000030: 153d 2bbc df64 b33c aa52 81bd e353 17bd
00000040: 91fb 45bd 5f73 c63d abfd 273d d15d 383d
00000050: 1c72 aebd e2d9 8bbc f1a8 0cbd 0f23 f2bb
00000060: 2c41 f63c 3577 6fbc 959b e2bc a21a 48bd
00000070: 6512 9c3d 78f2 753d 9d18 ddbc 3506 7dbd
00000080: dd18 973d ef0a cdbc 2927 32bc b1a3 5f3d
00000090: 3dd9 71bb 9c41 dcbc 061c a43b f221 883c
000000a0: f431 c4bd 37d6 0dbd 6c38 be3c cd73 783d
000000b0: 8d05 993d 5b22 77bc 618f b4bd 29e5 8c3c
000000c0: 394b 69bd 77b7 683d db83 d13d d10a 68bd
000000d0: 5ea2 70bd 7916 db3c c2e8 19be af12 58be
000000e0: 2b4f 65be edb4 bebd 77dd 08be d2b7 57bc
000000f0: 6371 7b3d 40ae 6c3d ff22 863c ea44 b83c
00000100: 4a17 723d dc67 683d 3e67 933d c1e6 053e
00000110: e099 bc3c d936 46bc d291 a93d cb80 96bd
00000120: 69f7 f13c 4ca4 22be 21e2 65be 405b 15be
00000130: ae6e 03be 1cd2 05be 040b 9bbd 1b21 393d
00000140: 0ef5 e2bd c16b 933a cc7d 86bc 1cdd c53d
00000150: 1a05 053e 69ea e73d afc8 113e b8bd c33d
00000160: 7790 343e 0945 933d bca7 e33c a56c b53c
00000170: c171 f7bd d2c5 31be 9057 12be 9367 acbe
00000180: e5d8 7ebe 6711 a2bd 5a77 74bd 6d45 cbbc
00000190: 13ea 42bd 2bb6 943d 2b9f d3bc ee53 803d
000001a0: b497 e4bc 9ab3 9dbc efc8 febb 0489 c8bd
000001b0: 50b0 8dbd 1545 21be 9f05 7cbd 64f3 683d
000001c0: c76b 1ebe f5af 85bd 0b50 a6be 1692 55be
000001d0: 63ab 9ebe 4c5d a13d 7002 a6bd bea7 803d
000001e0: 3619 33bd 0eef 62be 3b43 12bd 6d84 00bd
000001f0: 7f81 2fbd 0647 dabb fde8 60bd ea1c ebbc
00000200: 55ff 98bd c4ec 8fbc 6aab 9ebd 6aff edbc
00000210: fd00 0bbd 3346 883d 9ed8 b5bd 60fd 503c
00000220: 05d2 d1bd 7a32 103d 9b72 a9bd 7d0a df3c
00000230: eb94 753c f812 823d a539 34ba b126 d13c
00000240: e8e0 3d3d a1d1 1abd 80dd 0ebe 7350 8dbd
00000250: 7a5a be3c eb70 d53c e524 1e3d a213 d6bd
00000260: bc99 57bb 6cbd 44bc 7468 a63c 2bb4 3bbd
00000270: 8a20 72bd d5ac 743c e62b d8bd 7d92 c1bd
00000280: f864 493c 6f6e c9bd aa3a 0ebe 0f26 873c
00000290: 96f3 65bd eff1 3eb9 bf27 023a 1a3a 81bd
000002a0: b6d8 073d b17f 8cbc 6173 9b3c ba9b f4bc
000002b0: 5f08 7c3c 0e53 7dbc f9e0 8a3d 2e80 5dbd
000002c0: db6c 6b3d 51bf 073c f7a1 a2bd 7088 99bd
000002d0: 78e9 503c e29c 223c 5995 593d 5739 09bd
000002e0: dbfc f83d 96cf f2bc 53f1 d43c 0472 60bd
000002f0: a32a 14bd 1e3f 89bd 5804 2b3d 60dd 003c
00000300: b7b0 5b3d 8e69 bdbd 6e1a e6bc dfe1 90bd
00000310: da8c e53d 9c14 e6bd 3e11 04be e42e 92bd
00000320: cb02 db3d c6dc 7c3c 19d8 363d f569 ff3c
00000330: a6f3 3dbd d5c0 46bd b1e9 f23c 28f1 b3bb
00000340: f2d7 823c 3fad 333d 7a8f 9c3d 0dc0 073e
00000350: 1162 4d3d 8318 213d dc27 633d df3a 693d
00000360: c1d5 ac3b ffac 023d f1cd 0bbe 3b97 1dbe
00000370: fcad 463d 0663 bd3d ecc5 83bd a365 38be
00000380: 17c2 2fbe 025f e9bd a708 53bd 1863 bbbd
00000390: b375 893d c2da 7f3c 933d 6d3d 2b63 b9bd
000003a0: 2195 8a3d a4c1 653d fd35 85bd 510d d53d
000003b0: 6c1e 61bc dd9b 9a3d 51a7 28bd 76fa 3e3c
000003c0: 14ee d5bc 12a6 52bd a08f d3bd 9625 88bd
000003d0: c99b ffbd 701b 7bbd db7c 683c 1316 cebd
000003e0: 4070 0dbe 9b71 c3bd ff6e 693d 9f14 0d3d
000003f0: 3782 293d d367 49bd 5dae 263c 7b07 0f3e
0.02339722 -0.061267003 0.054569155 0.014494853 -0.03428089 -0.06393189 0.053162735 0.06449118
-0.113864884 0.09864991 -0.018435718 0.033433557 -0.010451575 0.021898685 -0.06314595 -0.036945235
-0.048335616 0.09689974 0.0410134 0.045011345 -0.085178584 -0.017071668 -0.034340803 -0.007389433
0.030060373 -0.0146158235 -0.027662078 -0.048853524 0.07620696 0.06004569 -0.026989276 -0.061773498
0.07377789 -0.025029628 -0.010873594 0.054599468 -0.0036903166 -0.026886754 0.0050082235 0.016617749
-0.0957984 -0.03462812 0.023220263 0.06065731 0.07471762 -0.015083875 -0.0881641 0.017199116
-0.056956504 0.05681559 0.102302276 -0.05665094 -0.058748595 0.026744114 -0.15030196 -0.21100877
-0.22393481 -0.093118526 -0.13365732 -0.013166385 0.06138743 0.057783365 0.01637411 0.022493798
0.05910424 0.056739673 0.07197426 0.13076307 0.023022592 -0.012098038 0.08279766 -0.07348784
0.02953692 -0.15882987 -0.22449543 -0.1458559 -0.1283519 -0.13068432 -0.075704604 0.045197587
-0.11081897 0.0011247323 -0.016417406 0.09661314 0.12990227 0.11324007 0.14236711 0.0955767
0.17633234 0.07190902 0.027789943 0.022146532 -0.12082244 -0.17360619 -0.14291215 -0.3367277
-0.24887426 -0.079134755 -0.059684135 -0.024813378 -0.04758651 0.07261308 -0.025832733 0.06266008
-0.027904369 -0.01925068 -0.007775418 -0.09791759 -0.069183946 -0.15749009 -0.0615288 0.05687274
-0.15470801 -0.06527702 -0.32482943 -0.20856509 -0.30990133 0.07879123 -0.08105934 0.06281994
-0.043725215 -0.22161505 -0.035708647 -0.03137629 -0.042848106 -0.0066612987 -0.054909695 -0.02870031
-0.07470576 -0.017568953 -0.077475384 -0.029052455 -0.03393649 0.066540144 -0.08879207 0.012755722
-0.10245136 0.03520439 -0.082738124 0.02722668 0.014989118 0.06351274 -0.0006875045 0.025531145
0.046357065 -0.037797574 -0.13951683 -0.0690011 0.023236502 0.02605482 0.038609404 -0.104529634
-0.003289803 -0.012008052 0.020313479 -0.04582612 -0.059113063 0.0149337845 -0.10555248 -0.094517685
0.012292139 -0.09835517 -0.13889566 0.01649764 -0.056140505 -0.0001820994 0.0004965029 -0.0630991
0.033165656 -0.017150732 0.018975915 -0.029859412 0.015382855 -0.015461696 0.067811914 -0.05407732
0.05747686 0.0082853595 -0.079410486 -0.074967265 0.012750976 0.009925099 0.053120945 -0.03350195
0.12157603 -0.02964 0.025993979 -0.054796234 -0.036173474 -0.06701492 0.04175219 0.00786528
0.053635325 -0.092486486 -0.028088775 -0.070743315 0.11208506 -0.112344 -0.12897202 -0.0713785
0.10693892 0.015433496 0.04463968 0.031178454 -0.04637494 -0.048523743 0.029652448 -0.0054913945
0.015972111 0.043866392 0.076445535 0.13256855 0.05014235 0.039330017 0.055457935 0.05694091
0.005274505 0.031903263 -0.13652779 -0.15389721 0.04850577 0.09247403 -0.06434235 -0.18007521
-0.17163883 -0.113950744 -0.051521923 -0.0914976 0.067119025 0.015616121 0.05792005 -0.09052118
0.06766725 0.056092873 -0.06504438 0.104029305 -0.013740163 0.0754926 -0.04117519 0.011656394
-0.026114501 -0.05142791 -0.10330129 -0.06647794 -0.124808855 -0.061305463 0.014189924 -0.10062804
-0.13812351 -0.09543153 0.05699062 0.034443494 0.04138395 -0.04917128 0.010173407 0.13967697

weight f4 [64, 12, 7, 7]
00000000: 652a 3d3d 11d3 90bd 0eec 10bc e7b2 4f3c
00000010: bc80 0fbd bde4 863c 0926 c5bd f9d1 173c
00000020: 1ea9 5abc 73d7 3eba fafe 123a 2293 6c3d
00000030: 42f0 52bc bba4 133d 8326 663b 0229 4ebd
00000040: c298 bf39 f1ce 93bd 6c38 bbbd fcd0 2f3d
00000050: b527 04bb 9344 a6bd 71f4 15bd bf8d 29bd
00000060: b392 643d aa1b 08bd ee0c 413d 36c4 f2bd
00000070: 504a 92bc 89db 4fbc 2514 193d ed5e 85bc
00000080: 37c8 fabc e574 9f3d c645 7a3b 3362 513d
00000090: 765b 44bc 6eec babc 1756 75bc 3cc5 11bc
000000a0: d642 8d3d 02c0 30be 2d57 d7bb 0979 82bd
000000b0: cd36 66bd c6f3 4abd f33a d93c dadb 4d3d
000000c0: 0d4b 51bd b86b 5abd e52c 95bc 53c6 d0bc
000000d0: 8832 693e ddcd 9cbd cd37 39bd 09ca 86bd
000000e0: 1bc6 873d 8111 08bd cbf0 943d 2093 1fbe
000000f0: c6da 9abd 428e 4ebe 17ba 28bc 22e4 15bd
00000100: 1ec7 a7bc c8ae 0abe aa0b 0ebe ea1d 35be
00000110: 4302 86bc e0f6 43bd 82c4 a23d a4d4 083d
00000120: 06d4 a4bd 0af2 87bd 6828 5cbe 0114 14bc
00000130: 3090 67be 7547 21be 9422 31be fc2d 08be
00000140: e5e5 a3be 5b8a 233b 6373 9abd b09e ad3d
00000150: ac2a a73d 1996 12bd a797 f9bd 8ab5 5cbe
00000160: 5512 7ebd d9e2 95be b15c 263d b7c8 fb3c
00000170: 389c 81bd 2577 3bbe 2c9b 08be 950c f9bd
00000180: 7fc4 a83d 5307 24be 4e56 32bc 4da1 53bb
00000190: ef9c de3c 440a 4bbd f787 16ba a082 8d3c
000001a0: b7a6 d9bc 6597 913d a2aa e5bd 94a5 02be
000001b0: a50e ffbd b691 5fbc 8e09 3e3c fb37 fdba
000001c0: b8e8 c13c 3207 e8bd f604 e7bd 87af 18be
000001d0: 4e7e 11bd 4ff0 ac3d 8e0d 27bd 5ae8 a83b
000001e0: 1870 0fbd 16d6 20bd 41e7 9ebd c4e0 c1bd
000001f0: f7b5 a63c c7b9 f9bd 641a e3bd e420 dcbd
00000200: 4cdc 31bd 4342 893b 42ef 153c 9984 093e
00000210: 3597 273c 9f63 a5bd 0cbb e1bd de3a 24be
00000220: 0a87 1bbd 9550 0bbc fc9f ff3d 5caf 5dbd
00000230: 74bc 17bd 14aa 5f3d f8d2 1ebe d739 903d
00000240: 3874 87bd 4c88 e53d e8a4 48bd 3e56 b5bd
00000250: abce e3bb 200c f43d 9725 36bd b833 7a3b
00000260: 2509 70bd c102 ae3c c1ff bf3c 2564 26bd
00000270: e621 f73a 80ee 2bbc 4973 723d fb94 013d
00000280: bb5f 4cbd 4aaf cbbc d375 263c d986 883d
00000290: e875 513d 1553 59bd af37 743d e703 d53d
000002a0: f2b8 a93d 0877 be3d d82b edbc ac75 2dbb
000002b0: f3d8 80bd a04d b9bc 8f2b c5bd 62dc ea3c
000002c0: 0ea3 383d 1280 b6bc 19b0 9c3c 69f5 d8bc
000002d0: a76f b4bc c7a5 88bc 70f2 13be f42f e3bd
000002e0: 6258 f73d 336f e23c 381d e1bc 4cae 19bd
000002f0: 7be7 583c c57c cebd 4ebe 8cbd fdac 0c3d
00000300: f53e 433e 6e75 8abd b88e c83d 227d f73d
00000310: 1b8f 8cbd 71fd eabc a80e 853e 2149 4c3d
00000320: e84d 07be 3ad3 94bd da3a d83c 954f 863d
00000330: 1857 98bd 2831 90bd d9f9 11be f131 ccbd
00000340: dc3c 293c 30b8 c5bb 1384 de3d c0cf 0ebd
00000350: 4aec 97bd b43c 09be 44bf 31bd 5c00 023e
00000360: 5912 7bbe 0286 2abd 5920 453c 7396 f7bd
00000370: 889e 08bd fb38 c4bd 5ee3 ab39 ce60 8bbe
00000380: 7b05 5a3d 035b 5ebd 0020 6ebd 7758 1abd
00000390: 65a4 f1bd 67b3 993c 6d84 e3bc 04cc 8e3d
000003a0: 085a cb3d 8548 fa3d b751 603d d1bc 673b
000003b0: 8db8 5c3d c1fc 85be bf60 4ebd befa 6e3d
000003c0: 5376 bc3b 0a74 853c 6ba5 403d 76d0 413d
000003d0: a8b0 da3d 07bf d13d aac7 863d 0c3d 613d
000003e0: 3023 8bbd 4f9d 283d 4287 69bd 4587 833d
000003f0: 3164 853d 4817 c93c eebf 50bd 56b5 abbd
0.04618301 -0.07071508 -0.008845342 0.012676931 -0.03503488 0.016466493 -0.09626395 0.00926637
-0.013345985 -0.0007280029 0.00056074525 0.057757504 -0.012874665 0.03604577 0.003511817 -0.050332077
0.00036544172 -0.07217205 -0.09141621 0.042923912 -0.0020165269 -0.08118548 -0.03661007 -0.041394945
0.055803966 -0.033229508 0.04713147 -0.118538305 -0.0178577 -0.012686619 0.037372727 -0.016280616
-0.030613048 0.07785968 0.003818856 0.05111904 -0.011984697 -0.022817817 -0.014974139 -0.008897122
0.068975136 -0.17260745 -0.0065716715 -0.06370742 -0.056204606 -0.049548887 0.026517367 0.050258495
-0.051096965 -0.053325385 -0.018209884 -0.025485193 0.22773182 -0.07656453 -0.04521923 -0.06581504
0.066295825 -0.033219818 0.0727249 -0.15583467 -0.07561259 -0.20171455 -0.0102982735 -0.036594518
-0.020480689 -0.13543236 -0.13871637 -0.17687193 -0.0163585 -0.04784286 0.07947637 0.033405915
-0.08048253 -0.06637962 -0.21499789 -0.009037972 -0.22613597 -0.15749915 -0.17298347 -0.13298792
-0.32011333 0.0024954292 -0.075415395 0.08477533 0.08162436 -0.035787676 -0.121871285 -0.21553627
-0.0620292 -0.29274634 0.04061574 0.030735357 -0.063286245 -0.18307169 -0.13340443 -0.12160603
0.08240604 -0.16018419 -0.010884834 -0.0032292188 0.027174441 -0.049570337 -0.0005742306 0.0172742
-0.026568754 0.07108954 -0.11214186 -0.12758476 -0.12453965 -0.01364558 0.011598958 -0.0019319052
0.02367054 -0.113294974 -0.11280243 -0.14910708 -0.035520844 0.08444273 -0.04078441 0.0051546516
-0.03501901 -0.03926667 -0.07758952 -0.09466699 0.02035044 -0.12193637 -0.11089018 -0.10748461
-0.043422982 0.004188807 0.009151282 0.13429488 0.010228922 -0.08075642 -0.110220045 -0.16038081
-0.03797058 -0.008503099 0.124816865 -0.054122314 -0.037044957 0.05460556 -0.15510166 0.07042282
-0.06613964 0.11207637 -0.04898539 -0.0885434 -0.006952127 0.11916375 -0.044469442 0.00381778
-0.05860247 0.021241548 0.023437383 -0.04062285 0.0018854707 -0.010493875 0.059191976 0.03163622
-0.049895983 -0.024863858 0.010159927 0.06666345 0.051137835 -0.05305775 0.059623417 0.10401135
0.08287229 0.09300047 -0.02895157 -0.0026467843 -0.0629138 -0.022620022 -0.09627449 0.02866954
0.045077376 -0.022277866 0.019126939 -0.026484208 -0.022025896 -0.016680611 -0.14447951 -0.11093131
0.120774046 0.027640915 -0.027479753 -0.037519738 0.013238783 -0.10082392 -0.06872235 0.034344662
0.19066985 -0.06760679 0.097928464 0.12084414 -0.06863233 -0.028685303 0.25987744 0.04987443
-0.13213313 -0.07266851 0.02639525 0.06558148 -0.07438487 -0.07040626 -0.14255466 -0.09970463
0.010329451 -0.0060339198 0.10865035 -0.034866095 -0.074181154 -0.13402063 -0.043395296 0.1269545
-0.24518718 -0.041631706 0.012031638 -0.12089243 -0.033354312 -0.09581181 0.00032785063 -0.27222294
0.053227883 -0.054286014 -0.058135986 -0.037682023 -0.11798934 0.018762304 -0.027773106 0.06972507
0.099292815 0.12220863 0.05476543 0.0035360346 0.05388694 -0.26169398 -0.050385233 0.058344595
0.00575141 0.016290683 0.047032755 0.047317944 0.10678226 0.10241514 0.06581052 0.05498986
-0.06793821 0.041165646 -0.057013758 0.06422285 0.065132506 0.024547234 -0.05096429 -0.083841965

weight f4 [64, 64, 3, 3]
00000000: 80d8 143d 01b5 aabc 3f7a 673e 89eb 08bd
00000010: 1af8 e3be b43d 883d 25b3 06bd 63af 21be
00000020: a7e5 8d3d 7652 9ebc 69fb 1fbc 4373 ca3d
00000030: ef9c 163d e63a f2bd 23db a1bc 8384 893d
00000040: 2c7a 98bd 73d6 1c3d 4a51 8a3e a443 873d
00000050: 0f25 cf3d 51a9 a5bd a725 253e 30d6 b1be
00000060: d338 d63c 4c97 00bd 4433 ae3d 3f7e b2bc
00000070: e86e 2bbe 3d90 443e c9be 0dbe bfde 1bbe
00000080: fdc7 163e 8aae a93e c52f f93d c3b5 ffbe
00000090: f3db 7ebd 4472 ca3b af65 88bd 3770 b83d
000000a0: 4d09 9dbc df0e 3dbd c142 98ba 4437 36bd
000000b0: f9dd 41bd 8d12 e83c fe81 46bd 0305 80bb
000000c0: e407 cdbd cf49 75bc 36f7 c33d 7924 803c
000000d0: 3081 4abd c431 84bd 12c1 523c 4f1e 2a3d
000000e0: f2ab bdbd 8950 e8bc ab33 0a3d 0b50 2abd
000000f0: 1f10 b93d 0ba1 843c edaa f5bd 9def 36bd
00000100: 1c3c ef3c c29e 89be fadf 0cbe 0e6b 7abe
00000110: c1e8 f43e 3ba6 88be dfb2 0a3d 5e97 6bbe
00000120: 52c6 473e a36d 833d 9a30 29bc 5be0 11bd
00000130: fecb 1d3f 9631 0b3f 3c4d edbd 5791 dabd
00000140: 5dfa 203d 71b3 d6ba d5f2 4fbd 7860 35be
00000150: ada9 fdbc ef25 80bd 7c00 3abe e361 b0bd
00000160: 94df 29bb 21f9 ecbd 4440 66bd ed2f 6d3d
00000170: 44d3 633c fb1d 79bc 0469 9e3d c30a e1bd
00000180: 0db9 5c3d 0c37 013e 3267 2ebe 0433 9d3d
00000190: dfcb f3bc da0c babc 6a51 133d 5d59 123d
000001a0: 2e52 243d b223 5c3d 46b5 90bd cb11 21bd
000001b0: 5168 963c fff5 263d ed8e 0e3d 976d 96bc
000001c0: 9d88 edbc b23b 62be 61d0 c93c 55e1 4cbd
000001d0: dc88 bb3d 1dc8 5e3d 6247 b9bd 0910 e3bd
000001e0: a312 cb3c 139b 26be 74c3 0ebe dabc 613d
000001f0: 2fec aa3d c525 483e 5669 5fbc bffc 3ebe
00000200: 15a5 623e fd96 503d 0b9c 77be 87b0 ba3e
00000210: 9735 5dbd f3c0 c33d cd64 54be e4c6 80bd
00000220: 5a97 433d 92f4 d43d 6c1a 81bb eb2d efbc
00000230: 3796 b7bc 72e9 d63c 7409 bdbd a45e 7a3c
00000240: 1ec5 18bd 974a 37be 0ea4 88bd ca97 17bd
00000250: cc96 ebbd 2b1b 943e 6f77 983d 1be0 fdbc
00000260: b7d7 30be c470 e7bd 6ff2 31be e1cd 663c
00000270: fb4c 08be a996 7dbd 7f5c ab3d ad77 16bd
00000280: e940 1a3d 1ae8 33bd 6761 6ebc 2730 56bd
00000290: 9ee1 36be 24c7 0dbc 7b33 60bd 71cd 593c
000002a0: 7f3c 5dbd 1410 0abd c04f 94be 2037 203e
000002b0: 091d b83d c311 993c 35ff 7e3e 214d 92be
000002c0: a81a c3bc 37d1 e7bd 33ba 5c3d c679 c0bb
000002d0: d722 e73c e92a dc3c 99f7 41bc d7c4 843d
000002e0: 3e2a 99bc 9788 1b3b 9dfa ecbc 6b74 5b3d
000002f0: 78d6 11bc 89d7 ccbe f4a0 febd 0d08 d63e
00000300: d635 b4bd 76c6 2b3e e149 e23b c1d1 07be
00000310: 7c04 43bd e5f7 16be 9fb8 1dbd 2d19 96bc
00000320: fc5b f3bc ac6a fa3c 1bae 433d 02d0 353d
00000330: 64c2 7dbd 0c30 af3b 5a3e c63d 572c 9b3d
00000340: b279 d1bc a314 23be d2d8 b23d 66cf 52bd
00000350: 849c d8bb 5a77 d03d fc15 3cbd 6ef2 d7bd
00000360: 980d 0bbe 51a7 593d 736e 4abd 1325 26be
00000370: ee39 fd3d 0794 d4be d68a 31bd 1330 063d
00000380: 076a a7bd ac17 113d 6ebd cfbb 0bd2 02bd
00000390: f699 483d b637 883d be00 f9bc c64b b53d
000003a0: 40a8 e8bc 33d0 aabc d66d 09bd 6e9b 30bd
000003b0: 9100 183d d90a b6bc 6c63 99bd 4f8b f93c
000003c0: b104 e0bd 2905 72bc c96e b5bd 137f 3ebc
000003d0: 293d 7cbe 24d9 15bc 6986 b53c 9288 0a3e
000003e0: 4bf2 c3be d28a 853d f12b 2a3e 87a9 d6bc
000003f0: 24bc 95bd 2328 cfbc 8524 8e3c 141e a2bd
0.036339283 -0.020838263 0.22605227 -0.03342775 -0.44525224 0.06652394 -0.03288569 -0.15789561
0.06928568 -0.01932643 -0.009764531 0.09885266 0.036770757 -0.1182764 -0.019757813 0.06714728
-0.074451774 0.038290452 0.27015144 0.06604698 0.1011449 -0.08088935 0.16127644 -0.34733725
0.026150143 -0.031394288 0.08505872 -0.021788714 -0.16741526 0.19195648 -0.1384231 -0.1522169
0.14724727 0.33140975 0.121673144 -0.4994336 -0.06222148 0.0061781723 -0.066600196 0.09005778
-0.019169474 -0.04615676 -0.0011616574 -0.0444863 -0.04733083 0.028329158 -0.048463814 -0.0039068474
-0.10011271 -0.014971211 0.09568636 0.015642392 -0.04943961 -0.064548045 0.012863414 0.04153281
-0.092613116 -0.028358715 0.03374068 -0.04158024 0.09036278 0.016190073 -0.11995492 -0.044662107
0.029203467 -0.26878935 -0.13757315 -0.244549 0.47833827 -0.26689324 0.03386199 -0.23006961
0.19509247 0.06417396 -0.010326529 -0.035614353 0.6163939 0.5437254 -0.11586997 -0.106722526
0.039301265 -0.0016380382 -0.050768692 -0.17712581 -0.030964697 -0.06257235 -0.18164247 -0.086124204
-0.0025920616 -0.11570955 -0.056213632 0.057907034 0.01390535 -0.015204902 0.07734874 -0.10988381
0.053887416 0.12618655 -0.17031553 0.07675746 -0.0297603 -0.022711206 0.035966314 0.035729755
0.040117435 0.05374498 -0.07065825 -0.03932361 0.018360289 0.040761944 0.034804273 -0.018362803
-0.028995806 -0.22093084 0.024635496 -0.05001958 0.09156963 0.05439006 -0.09046818 -0.11087043
0.02478916 -0.16270094 -0.13941747 0.055111744 0.0834583 0.19545658 -0.013635954 -0.18651102
0.22133286 0.050925244 -0.2418062 0.36462805 -0.054006185 0.095582865 -0.20741577 -0.062879354
0.047751762 0.103982106 -0.0039399173 -0.0291967 -0.022410495 0.026234362 -0.09230319 0.015281353
-0.03729736 -0.17899548 -0.06671916 -0.03700999 -0.115033716 0.28926978 0.07444655 -0.03099065
-0.17269789 -0.11300805 -0.17377637 0.014087171 -0.13310616 -0.06191126 0.083672516 -0.036735225
0.03765956 -0.04392252 -0.01454959 -0.052292015 -0.17859504 -0.008653436 -0.054736596 0.01329361
-0.05401277 -0.03370674 -0.28967094 0.15646029 0.08989913 0.018685227 0.24902041 -0.2857447
-0.023816422 -0.113192014 0.05388851 -0.0058738915 0.028214855 0.02687593 -0.011838817 0.06482857
-0.0186969 0.0023732537 -0.028928095 0.05357782 -0.008901231 -0.4000819 -0.12433043 0.41803017
-0.08799331 0.16774926 0.0069057797 -0.13263609 -0.0476117 -0.14743002 -0.038506147 -0.018322552
-0.029706948 0.030568443 0.04777346 0.044387825 -0.061952963 0.005346304 0.09679861 0.075768165
-0.025570724 -0.15925841 0.087327614 -0.05146732 -0.006610455 0.101790145 -0.045919403 -0.10544287
-0.13579404 0.05313808 -0.04942174 -0.1622508 0.12364565 -0.41519186 -0.043345295 0.03276069
-0.0817452 0.035422966 -0.0063397205 -0.031938594 0.048974954 0.06651251 -0.030395862 0.08852343
-0.02840054 -0.02085123 -0.033552013 -0.04311698 0.037109915 -0.02222197 -0.07489666 0.030461935
-0.10938395 -0.014771738 -0.08859021 -0.011626977 -0.24632706 -0.009146009 0.022158818 0.1352866
-0.38270792 0.065206185 0.16618325 -0.026203884 -0.073112756 -0.025287693 0.017351398 -0.07915893

bias f4 [64]
00000000: 9576 a73d bab1 793d 5e6d b13d 1631 93bd
00000010: 3b2c 22bd 6968 02bd 17dc 303e c5f4 c43c
00000020: 6da7 fd3d bb3f 003e 76f6 8a3d 7cbf 66bc
00000030: 488a 5c3b 0915 923a a254 d33d c07b 38be
00000040: abac 2939 eb83 b13c 02a6 fa3d 5df7 69bd
00000050: f4d6 4ebc aaa4 b2bc b646 303e bb3b 39bd
00000060: 77e7 133e a906 e73d b5d0 8d3b 3002 cf3c
00000070: 1d84 313e 9e15 e4bc 0017 0b38 0c81 31bd
00000080: 2840 b13c 615f 503e afd0 54bb 8a97 e4bb
00000090: c5c9 c13c a80a 953d 200b 3a3c c785 2fbb
000000a0: 812a 85bd 1035 653c e074 043f b053 b53d
000000b0: 71e3 82b8 5b37 003e 5c86 193c d366 55bd
000000c0: 2bb8 15ba c937 74bd 06c0 b83d f52b 133c
000000d0: 2075 cb3d 833f 8dbd 646d 3bbd 1ef4 893e
000000e0: 3c2f 623c fa22 6abc 915f 24bc 28f4 adba
000000f0: fa3b 1f3d c98a 91bc 089e 22bc 62c2 c3bd
0.081769146 0.06096051 0.08663438 -0.07187097 -0.039592963 -0.031837855 0.17271458 0.024042496
0.123854496 0.12524311 0.0678529 -0.014083739 0.0033651758 0.0011145185 0.10318877 -0.18015957
0.0001618142 0.021669349 0.12238695 -0.05712067 -0.012624491 -0.021807034 0.17214474 -0.04522298
0.14443766 0.11280567 0.0043278583 0.025269598 0.17335553 -0.02784234 3.3161603e-05 -0.04333596
0.021637037 0.20348884 -0.0032473018 -0.0069760727 0.023655782 0.07277423 0.0113551915 -0.0026782618
-0.065022476 0.013989702 0.5174084 0.08853853 -6.241247e-05 0.12521116 0.009370413 -0.052100014
-0.0005711342 -0.059623513 0.090210006 0.008982648 0.09934449 -0.068968795 -0.04575862 0.2694406
0.013805207 -0.014290566 -0.01003255 -0.0013271617 0.038875557 -0.017766373 -0.009925373 -0.0955856

weight f4 [64, 64, 3, 3]
00000000: 4323 34bc f4c0 4d3d 94bd 653d 5e73 3b3d
00000010: 6614 bebe 0760 40be eed2 163d b5e4 42be
00000020: 4078 94bc 8394 423b f820 4e3d 888c 8f3e
00000030: 4746 cfbd 65d1 4d3e dd36 52be d147 4c3e
00000040: 6c4c 9bbe a39c 08be b657 353d d131 1d3e
00000050: ba85 0e3e 1daf dc3d 7bde dbbd c5d4 21be
00000060: 7dfd 80bd 3d1a a8bd d534 64bd 49b3 d03d
00000070: 8fa3 d8bc 550e 193c ac3c 87bd 9c78 d4bc
00000080: a745 3e3d 905a 9cbd a465 b9bc 30f7 4abd
00000090: d8d9 0d3d 510a a63d e237 263d 6bc0 aabd
000000a0: ea3d a9bd f56c 1fbe f3fe ecbb 3eda d73c
000000b0: 2621 83bd a4a6 99bd 148a a33d 6637 a73c
000000c0: b6e9 553d d0c9 a4bd 01c4 c33d 855a 1abd
000000d0: f54c ffbc ca41 633d 39e9 71be 6c91 ff3d
000000e0: 0050 afba 6df7 d7bd bc99 fa3d 6bef 173e
000000f0: 5b77 17bd 3a39 1fbe 7a82 9bbd a199 9c3e
00000100: 31ed e83c bc23 0a3d 9353 0dbe 2e2c 89bc
00000110: ae89 2dbf 36db 753d c418 bebc 38c8 04be
00000120: f2f0 83bd c51a ca3c d03b b83c c29b 743d
00000130: de27 d7ba 5cdd 573e 0d11 333c 792c 95be
00000140: 3140 71be 5e46 19be 8221 06be 13aa f53c
00000150: f8ef 253d 111a b53d d7c8 a1bd 559b a5bd
00000160: 234b 3f3d 6505 4bbe 44ed cabd 989f 92bc
00000170: 7d8d 8dbe c7c5 3b3d 1acc 913c 592c 463e
00000180: c1b7 0dbe 1439 ffbd 35cd 5ebd eea1 9e3c
00000190: 4def 06bc b651 ef3d bc92 fbbd c373 6ebe
000001a0: 1851 103e 4ae9 8ebe b9a8 14be 4f50 e7bd
000001b0: f215 143d ddc0 793d 0fa2 63ba b553 d5bd
000001c0: fd00 bfbd 6f61 ecbd 0cb3 b13d 7d12 e3bc
000001d0: d457 74be 1509 90bc 1dd6 c93c 4918 5e3d
000001e0: 4017 863a 3b72 a2bd ace9 9d3c 0a8c 9e3d
000001f0: 1f4c 8fbd 5d42 d7bd 3698 02bd 0b8c 373d
00000200: 1356 b33d 8525 cc3a eadc 46ba 5082 9d3d
00000210: a4a9 633c ea89 01be 2ec6 8abd 43d7 01bd
00000220: 1cd5 6e3b d077 853d f932 1ebd 55db 4fbe
00000230: bb23 123e 8a4a 8d3b ef72 88bc fc41 ba3d
00000240: f165 37bd 562e b4bd caba 17be e080 b43d
00000250: 7a44 523c 4652 9d3e 2e83 e7bd 5930 12be
00000260: 772e f2bc 15a8 4dbd df02 d83d 190a a6bd
00000270: e763 b7bc 0987 7d3c 280f dcbc c2b2 2c3d
00000280: c66e 59bd 002c 93bd 21cc 163e fddb c93d
00000290: 00c1 1dbe 1957 9e3d 04ea d13b b468 89bd
000002a0: a129 b7bd ddd5 99bd e019 b3bd 25b9 0bbe
000002b0: a609 a33d 49c0 0b3e c707 d43d e5b6 dd3d
000002c0: 0c53 403d 2f1c b33c 48ff 1ebb f544 0cbd
000002d0: 2968 15ba 593a ab3d 3ccc abbb ec9c a23d
000002e0: 3e16 cabd 6449 5a3c f13b eb3d 82d4 8b3c
000002f0: 27a6 60bd 8577 173d eff2 793d 069c 903d
00000300: 3461 973d 5062 573b 0053 ca3d 723e 933e
00000310: 89fd cf3d 1e01 0b3b fff1 d83d 241d 533e
00000320: 05e2 f03d 3ad0 cdbd dd51 74bd b266 04be
00000330: 6bd3 3abd a75e b6bd 7e35 5cbc 5544 80bd
00000340: 9fcf 973d edb9 bf3d 9b59 b6bd fc62 18be
00000350: 6893 edbc 1ba3 86bd 514f afbd 5a53 06bd
00000360: 1481 15be ad5d e53d acc2 503e ca58 a53d
00000370: 0c66 84bd 4919 0cbe 4a2c f8bd ae44 6abd
00000380: 0b1d 35be 286d cb3d 5a1f 093d 1678 d5bd
00000390: cf5d 683d c822 133e 49da 703e 6f7d c1be
000003a0: 2955 de3d 7b42 7cbe 1322 22bc 4728 5a3e
000003b0: f252 0e3e 30e5 1cbe 18a2 03be 1d44 29be
000003c0: 5b55 9bbc e006 dc3d b5f7 75bc babe 93bc
000003d0: 9dfa 85bd 53f3 053e 8c2d fdbc 2cf3 5bbe
000003e0: 3a33 92be cde3 013c ed44 8bbd 1110 8fbe
000003f0: 9497 26be 1cff e03c 628d 9dbe 30d5 153e
-0.010994735 0.050232843 0.056089 0.04576432 -0.37124938 -0.18786632 0.036822252 -0.19032557
-0.018123746 0.002969057 0.05032441 0.28036904 -0.10120826 0.20099409 -0.20528741 0.19949271
-0.30331743 -0.13341002 0.0442731 0.15351035 0.139182 0.10775588 -0.10735794 -0.15803821
-0.06298349 -0.082081296 -0.055714447 0.10190446 -0.026445178 0.009341796 -0.06603369 -0.025936417
0.046453144 -0.07634461 -0.022631474 -0.049552143 0.03463158 0.081074364 0.040580638 -0.08337482
-0.08263762 -0.15568908 -0.0072325408 0.026349183 -0.06402807 -0.07502487 0.07985321 0.020412158
0.052224837 -0.08046305 0.09558869 -0.037683982 -0.031164626 0.055482663 -0.23624124 0.12478909
-0.0013375282 -0.105452396 0.12236354 0.14837424 -0.03697906 -0.15549174 -0.07593246 0.3058596
0.028433414 0.033725485 -0.13801412 -0.0167447 -0.6778821 0.06002351 -0.023205169 -0.12967002
-0.06442441 0.024670968 0.022489458 0.059718855 -0.001641508 0.21080536 0.010929358 -0.29135492
-0.23559643 -0.14968249 -0.1309872 0.029988324 0.040512055 0.088428624 -0.07899635 -0.08086268
0.046702515 -0.19826277 -0.09908536 -0.017898366 -0.2764701 0.045842912 0.017797519 0.19352855
-0.13839628 -0.12462059 -0.05439492 0.019364323 -0.008235765 0.11685507 -0.12283847 -0.23286347
0.14093435 -0.2791236 -0.14517488 -0.112946145 0.03615374 0.060974944 -0.00086835114 -0.104163565
-0.093263604 -0.115420215 0.086767286 -0.027718777 -0.23861629 -0.017582456 0.02463823 0.05422238
0.0010230318 -0.07931944 0.019276462 0.07741554 -0.06996941 -0.10510705 -0.03188344 0.04481129
0.08756652 0.0015575147 -0.00075860193 0.07690871 0.013895426 -0.12650266 -0.06776081 -0.03169943
0.003644294 0.06516993 -0.03862283 -0.20298512 0.14271443 0.0043118643 -0.016656367 0.09094617
-0.044774953 -0.087979004 -0.14817348 0.088136435 0.012833709 0.30726832 -0.113043174 -0.14276256
-0.029563172 -0.050209124 0.105474226 -0.08107395 -0.022386504 0.015474089 -0.026862696 0.042162664
-0.053084157 -0.07186127 0.14726306 0.098564126 -0.15405655 0.07731456 0.0064060707 -0.06709424
-0.08943487 -0.07511494 -0.0874517 -0.13644846 0.07960825 0.1364757 0.10353046 0.108259
0.0469542 0.021864025 -0.0024261046 -0.03424545 -0.000569942 0.08360738 -0.0052428525 0.07940087
-0.098675236 0.013323162 0.11486042 0.017069105 -0.054845955 0.036979217 0.061022695 0.07061009
0.07391587 0.0032864995 0.09879112 0.2875858 0.1015578 0.0021210383 0.10593032 0.20616585
0.1176186 -0.10049482 -0.059648383 -0.129298 -0.04561178 -0.08904772 -0.013440488 -0.06263033
0.074126475 0.093616344 -0.0890381 -0.1488151 -0.029000953 -0.06574079 -0.0856005 -0.032794334
-0.1460002 0.11199508 0.20386761 0.08073576 -0.064647764 -0.1368152 -0.121178225 -0.057194404
-0.1768686 0.09932929 0.033477165 -0.10423295 0.056730088 0.14368737 0.23520769 -0.3779101
0.10856087 -0.24634735 -0.009895819 0.21304427 0.13898829 -0.15321803 -0.12854803 -0.1652989
-0.0189616 0.10743499 -0.015012671 -0.018035281 -0.06541941 0.13081102 -0.030905508 -0.21479481
-0.28554708 0.007927847 -0.06800256 -0.27941945 -0.1626876 0.027465396 -0.3077193 0.14632106

bias f4 [64]
00000000: b4e4 ee3c c10a 253e 0a16 6abc b928 0bbd
00000010: 3a2a 16be 721b 85bd af45 26bd 81da 24bd
00000020: 53e1 34bc 91d8 2bbd 5442 b53d 11d0 40bd
00000030: 73d5 183d b797 67bd 43a4 b83d 3be1 78bc
00000040: 7b94 ffbc 53aa 1e3e b5b9 d2ba 06c6 4f3d
00000050: 559c cf3d 06b4 babc 473b a23e 5981 d93d
00000060: 7a33 b3bc 969b 233d 96b2 afbd 7883 67bc
00000070: 5974 90bd 8641 32bb e4e5 51bc 5782 e6bd
00000080: 921a 6b3d 3231 27bd 8c88 9e3d f3c1 32bc
00000090: 9e0b dfbc a5e0 1ebd 49d0 63bd 7d80 ed3b
000000a0: eb2b 73bd d451 0dbd 926b 1e3e 9a38 ceba
000000b0: a8d7 41bd ea73 7dbd 67e7 64bd 7ffe d2bc
000000c0: 78e9 863d 2d62 bf3a d144 40bd ddf8 65bd
000000d0: af1f 143e 6ae4 093f fcc2 cb3e 06f2 a5bc
000000e0: 9040 51bd cd13 6bbd 640a 20bd e781 173e
000000f0: 49ae 92bd eb45 69bd 4764 7ebd 54e2 463d
0.029161789 0.16117384 -0.014287481 -0.033974383 -0.14664546 -0.064993754 -0.0405938 -0.040247444
-0.01104005 -0.04195458 0.08850542 -0.047073428 0.037312936 -0.05654117 0.090157054 -0.015190418
-0.03119873 0.15494661 -0.0016077074 0.05072596 0.1013724 -0.02279092 0.3168585 0.10620374
-0.021875132 0.0399433 -0.085789844 -0.014130466 -0.070534416 -0.00271997 -0.012811158 -0.11255329
0.057398386 -0.0408184 0.07740888 -0.010910499 -0.02722722 -0.038788456 -0.055618558 0.007247983
-0.059368055 -0.034501866 0.15470722 -0.0015733421 -0.047324806 -0.061878122 -0.055884745 -0.025756119
0.065874994 0.0014601402 -0.04694063 -0.056145538 0.14465211 0.5386416 0.397972 -0.020257007
-0.051086962 -0.05739193 -0.03907241 0.14795648 -0.071621485 -0.056951445 -0.06210735 0.048555687

weight f4 [64, 64, 3, 3]
00000000: 0a63 c7bc e850 093c 9c55 5dbd 8c6a 6c3d
00000010: 805b b8bd 5335 81bd d58e edbd c92e b53c
00000020: 8206 c63c 5093 6a3d 4e0c 9dbc 04ec 393d
00000030: 829d ee3b 6d6d 67bc 2991 43bd 4c38 84bc
00000040: 4b65 263d 303b b7bd 88f2 d8bd 12b8 843c
00000050: 3a34 b23d 2681 c1bc 71c1 babb db71 79ba
00000060: b206 e1bc 225c 9f3c 701f 84bd 2c09 153c
00000070: 6f90 42bd 4e2e 923c 4441 6fbd d5b8 9abc
00000080: 79af 633d d3a6 763d 1859 81bd 8d9f 15bd
00000090: 53d7 2c3c 509c 2f3c 260a 113d 6ed1 f4bb
000000a0: 6f82 003d f850 36bc 5d10 bc3c df70 153d
000000b0: 8cba 1f3c 52d9 d13c f68e 6d3c ffad 41bd
000000c0: 64c6 b5bb 3c4f a53a e113 6fbb 5122 83bd
000000d0: 10f0 23bd e1dd bfbd 7852 f7bc 6916 c33c
000000e0: 916f e4bc 34e9 dbbd 4ecb 8abd 1a2a c03d
000000f0: f597 883d f5a0 a3bb 2cbc 02bd dffc a53c
00000100: af4f b9bd fdea 663d dc9a 0f3d 2323 8b3c
00000110: a859 88bc a8c4 d0bc 42ed 053c 2a1c 6cbd
00000120: 9523 07bd c920 b9bd c57c 10be ea0b 07be
00000130: 365b 123c 748c bfbd aff2 f8bc 3096 743c
00000140: dc54 f2bb 7009 1c3d 6066 ef3c 2b56 e2bc
00000150: 3605 05bd 4e70 ffbc 5033 71bc b0d9 c4bd
00000160: 2493 0b3d 78ff 92bd 7449 f13c edf5 d8bc
00000170: 408d 9cbd e385 da3c 12fe 26be 5b90 aebd
00000180: 1c28 99bd f842 a23c c83a 183b abcd d7bb
00000190: ade6 0fbc 95fa e0bd 0147 12bd 9024 1cbc
000001a0: dbf2 7dbd e75f c2bb 700c 2d3c f280 e9bc
000001b0: b82c 64bd a137 11bc 9f27 a53d 9330 99bd
000001c0: 3944 c2bd d228 44bd 1d75 1ebc 39a9 15bd
000001d0: ca92 3cbc 7c92 053c f3a5 9b3d 1585 2abc
000001e0: c063 36bd 04d0 5f3d 0c30 c0bc 0164 143c
000001f0: 8cad 7ebc 9398 10bd 0b8e d8bd 70b5 82bc
00000200: 2693 a53d 04d9 623d e2a5 b2bd 2795 2b3d
00000210: 2c09 84bd 8fbe 3fbd 2bbd 47bd a0ce 25bd
00000220: 4479 1f3d 8bfa 993d 3314 50bc b89f 253c
00000230: 2e76 d1bc b4f4 9fbd e9c5 013e 915e 02be
00000240: 0086 5c3d a875 b2bd 6f9f 8a3d cedd e43c
00000250: b7fa 3bbd c8ac 77bc 33c6 2ebd f0a3 afbc
00000260: 091d c0bc 2dee eabc 83f0 a3bd a129 99bd
00000270: f59b efbd 0268 93bd 71bc ba3c 034d 803d
00000280: 5a85 d53d fce2 383c fedb e6bc 4726 043d
00000290: 0138 8dbd d54f bd3d f975 983b e180 173d
000002a0: e221 ec3d 9d25 9fbc c3db 7f3d 3185 debc
000002b0: 7f44 533d dc4a 32be 4343 21bd fd38 b3bd
000002c0: 9103 533c 4235 ad3d 4e56 7cbc 671a a33c
000002d0: 038c 06bd c97e 4fbc 77c2 24bc 5e91 1fbd
000002e0: 1087 643c 7dcc 2abd acaa b53d b7f3 24bd
000002f0: 1c1c 053d b62c 4e3d 601a b1bc 6adc 2dbd
00000300: 6b65 52bd 7470 2f3c d422 b53d 5ba1 85bd
00000310: 7fcd 603d 6580 053e 1e4b c23c e7a6 963c
00000320: b709 083d 5ceb 14bd 2247 e3bc 405a 73bd
00000330: beb4 953d 680a 373d 345c d93c 7d8d d9bd
00000340: 5081 0d3d 8cbf 13be 4086 113e 10bb f1bc
00000350: 3971 a1bc 3b6e ba3d 6a80 083e 6d16 213d
00000360: 4112 dc3b 6425 2e3b baa7 6bbd 802a 333d
00000370: 96be 56bd a825 1bbd 4550 ed3c b581 183d
00000380: 93dc a9bd 7fda a1bc ce1c c0bd 6059 7f3d
00000390: 87d2 423c 1462 37bc 3212 78ba 62c9 9d3d
000003a0: 00ae 983d 806d 27bd 50ea 19bd 5b47 773c
000003b0: f7bd 50bd 4c7e 2dbd 5a55 37bd b514 6bba
000003c0: 134c 903c b7c3 87bd 1717 823d afa8 ed3b
000003d0: bc05 823c 8b7a af3b 16c6 a0bc 3079 acbc
000003e0: ad07 11bd 2b7b 2a3d 9af7 49be 38ce b0bd
000003f0: 3ead 233d 0a0f 65bd bee7 15bd 3f04 b9bd
-0.024339218 0.008381106 -0.05403672 0.0577188 -0.09001827 -0.06308999 -0.11599509 0.022117035
0.024173025 0.057269394 -0.019170906 0.045391098 0.00728196 -0.01412521 -0.047745857 -0.016140126
0.040623944 -0.08946836 -0.10593134 0.016201053 0.08701368 -0.023621153 -0.0056993295 -0.0009515562
-0.027469013 0.019453112 -0.06451309 0.009096425 -0.047501024 0.017844345 -0.05841185 -0.018886963
0.055587266 0.06021769 -0.063158214 -0.036529113 0.010549384 0.01071842 0.03541007 -0.007471255
0.03137439 -0.011127703 0.022957021 0.036484595 0.009749066 0.025616322 0.014499417 -0.047285076
-0.0055473316 0.0012612115 -0.0036480355 -0.0640303 -0.040023863 -0.09368492 -0.030190691 0.023814397
-0.02788523 -0.10737839 -0.067770585 0.0938303 0.066696085 -0.004993553 -0.031917736 0.02026218
-0.090484016 0.056376446 0.035059795 0.016984528 -0.016644314 -0.025484398 0.008174242 -0.057644047
-0.032992918 -0.090394564 -0.14110096 -0.13188139 0.008932879 -0.09352961 -0.030389158 0.014928386
-0.00739537 0.038094938 0.02922362 -0.027628979 -0.032475673 -0.03118148 -0.0147217065 -0.09611833
0.03407587 -0.07177633 0.02945397 -0.026484454 -0.07644129 0.02667517 -0.16307858 -0.08523627
-0.074783534 0.019807324 0.0023228396 -0.006585797 -0.008783025 -0.10985295 -0.035712246 -0.009530202
-0.061999183 -0.0059318426 0.010562047 -0.028503869 -0.05570671 -0.008863361 0.08064198 -0.07479968
-0.09485669 -0.04789049 -0.009671477 -0.036538336 -0.011509607 0.0081526 0.07600012 -0.010407706
-0.044528723 0.05464174 -0.02346041 0.009057046 -0.0155443065 -0.035301756 -0.105739675 -0.015955657
0.08084707 0.055382743 -0.08723046 0.04189029 -0.06447062 -0.04681259 -0.04876439 -0.040480256
0.038934007 0.075184904 -0.012700128 0.010108881 -0.025569048 -0.07810345 0.12673153 -0.12731387
0.05383873 -0.087138474 0.06768691 0.027937796 -0.045893397 -0.015116878 -0.042669486 -0.021440476
-0.023451345 -0.028678024 -0.08004858 -0.07478643 -0.11699668 -0.07197572 0.022794934 0.06264689
0.104258254 0.011284586 -0.028181072 0.032263067 -0.068954475 0.092437424 0.0046527353 0.036988143
0.115299 -0.019427115 0.06246544 -0.02716312 0.051578995 -0.17411369 -0.039370786 -0.08751104
0.012879268 0.08457424 -0.015401436 0.01991005 -0.03284837 -0.012664505 -0.01005613 -0.038956992
0.013948217 -0.04169892 0.08870444 -0.040271487 0.03249751 0.05033561 -0.021619022 -0.04244653
-0.05136625 0.010707963 0.088445336 -0.06524917 0.054883476 0.1303726 0.02371746 0.018390132
0.03321239 -0.03635727 -0.02774388 -0.05941224 0.073098645 0.04468766 0.026533224 -0.1062269
0.03454715 -0.14428538 0.14211369 -0.029508144 -0.01970731 0.09103056 0.13330236 0.039328028
0.006716043 0.002657258 -0.057533003 0.043741703 -0.05242785 -0.03787771 0.02896894 0.037233073
-0.08294024 -0.019757507 -0.09380494 0.062341094 0.011891014 -0.011192817 -0.00094631605 0.07704426
0.07455063 -0.04087591 -0.037576973 0.015092696 -0.050962415 -0.042356774 -0.044759132 -0.0008967624
0.0176144 -0.066291265 0.0635206 0.0072527747 0.015871875 0.0053551844 -0.019625705 -0.02105388
-0.03540771 0.04162137 -0.19723359 -0.08633083 0.03996014 -0.055922545 -0.03659796 -0.09034013

bias f4 [64]
00000000: 6ba2 05bd 8783 d8bc 4302 8cbd 0984 5fbc
00000010: 018b 48bd 5987 01be 5b33 e13c 5c60 b83b
00000020: b9b1 9dbc 31f2 a43c 45ac 72bc 0244 023d
00000030: 3014 68bc b04a 02bc d380 d53c 930b 353c
00000040: aaac b5bd 506a 8b3d 26eb 403c 27c4 28bd
00000050: d0f2 743b fb39 b93d a8a0 26bd f17e 813b
00000060: cc39 893b f041 423d f200 8dbd 7df4 47bd
00000070: b57a 6fbd 40cb debc 2145 9bbc d80a f43c
00000080: 4554 31bb 4f57 82bc 4fe7 bbbc 331d 6bbd
00000090: d3b4 79bd 7fbc 703a 0c57 d33b 907d f4bc
000000a0: 3645 91bc ca26 8e3d 969c 083d dbc7 a2bb
000000b0: 49a4 c23b d00d 8b3c 9b11 5fbd 5a16 94bc
000000c0: 4604 7ebd ce19 193d 3901 54bd 7d80 c63b
000000d0: 4294 7d3d b2e0 65bd 3b43 b3bd 5ee9 63bc
000000e0: 7e11 eebb 96a5 2bbe 7894 5fbd df42 d33c
000000f0: f2b7 30bd cb01 08bd 0d81 5fbd cabc 813b
-0.032625597 -0.026429905 -0.06836369 -0.0136423195 -0.04896069 -0.12649287 0.027490309 0.0056267213
-0.019249784 0.020135017 -0.01481158 0.03180314 -0.014164969 -0.007952377 0.026062405 0.011050123
-0.08870824 0.06807387 0.011774814 -0.04120269 0.0037376173 0.09044262 -0.040680557 0.0039519
0.004187798 0.047426164 -0.06884946 -0.048817147 -0.058466632 -0.027196527 -0.018953862 0.029790327
-0.0027058285 -0.015910773 -0.022937445 -0.057400893 -0.060963463 0.00091833615 0.006449586 -0.02984503
-0.017733198 0.06940992 0.033352457 -0.0049676723 0.0059399945 0.01697436 -0.05446015 -0.018077064
-0.062015794 0.037378125 -0.05175898 0.0060577975 0.061908968 -0.05612249 -0.087530576 -0.01391062
-0.007265269 -0.16762385 -0.05458495 0.025788723 -0.043144174 -0.033204835 -0.05456643 0.003959273

weight f4 [12, 64, 3, 3]
00000000: 798f e3bc 9a31 903c 8b8a 003d 15c9 09bd
00000010: 03b5 253c 588b 853c 0bf7 efbc b306 713b
00000020: fb4e 633b 9ae3 82bd dda5 c33c 94c5 c23c
00000030: b4ec 62bd 08fd 2d3d 67e5 df3b 127b e83c
00000040: 3254 1d3c 88ef 6ebc 4b76 38bb 2ef1 103b
00000050: c52e 71bd a0ee 91bc 2c5d dd3d f814 3f3b
00000060: 3cc9 d8bb 053e 4a3c 1430 44bc a1dd e23d
00000070: 3201 1ebd 78a8 a73d 516c 3f3e a7f9 e1bc
00000080: b533 4e3e b441 0ebd f63c b7bc 0232 053f
00000090: 9649 783a 7749 233c 864d af36 50d2 543c
000000a0: e859 d4bb c621 09bd 6b07 3f3c 8415 4c3b
000000b0: a2e9 003c 2acc bb3b bddb 17bc 1f23 833b
000000c0: 48ce 00bd e19d c13d 2e59 89ba 5b37 873c
000000d0: 00f1 16bd 2e56 a0bc 8b1a 3b3d 2b88 3b3d
000000e0: 5083 cbbc a29d 89bd 5c20 04be 7b3d 8d3c
000000f0: 5a45 7b3d 32b1 7f3d e7bb febb dc01 15bd
00000100: 00f1 053d e080 66bc ff94 17bc f01d 9e3d
00000110: f563 b03c 682f 0ebd 43b1 cd3c 27e1 1dbd
00000120: c737 62bc 82cf 243c 726a f8bc 31a1 b43d
00000130: a36a b93c 06b5 4dbd 559f c63d 1947 a4bc
00000140: 7f6a 0ebd b034 41bc 6b81 2bbd dadd b73b
00000150: 4084 5dbd c1fe 073d d915 d0bc e6a1 193c
00000160: d662 5d3d 6ca4 ec3c 8314 8dbb b290 00bc
00000170: 7e29 8ebc c998 80bb f725 36bd 7d15 58bb
00000180: 4d79 f73b 6ef5 443d fcec ed3c ed72 2cbc
00000190: c4f3 883b 0f08 793c 1ad9 033b 10bd e9bc
000001a0: 6207 3a3d 35c6 023b 7680 a83b 527a 63bb
000001b0: 966a ccbb f0fd 48bd b0f7 29bd 8e3a a83c
000001c0: acbd 4ebb 1a14 733c 004b 4f3c 8420 603d
000001d0: d570 d3bc 73f9 d63d 4d4f 083d 5b79 783c
000001e0: 6d7b 123d 4547 323d 7a5f 5dbd 1ae5 41bc
000001f0: b3a5 6bbd c97b c2bd 6679 9abd d683 b03b
00000200: 4328 d83c a5f7 8abd 6176 ce3a cd74 ac3d
00000210: d8bb 58bc 5946 3f3d eb1c ba3c c859 57bc
00000220: 3609 233d f5d3 8dbc 3ff1 2bbd b710 b1bb
00000230: bf12 dfbc f482 a73c bc70 9f3c 4575 be3c
00000240: 348d 12bd 0018 b33d 9694 b33d 7851 853c
00000250: bc8d 453e 9ea9 8dbe 62e6 883d 1b4a 1a3e
00000260: 29e6 b9bd 81e5 263d cae0 babc 9186 0e3d
00000270: e2c5 6fbb a905 2bbd 6534 cebd b6eb 9d3b
00000280: 5218 cbbd f4e0 d3bd d7e7 c93a 33c6 5c3c
00000290: b6ce 803d 8ca8 90bc 025a bf3c f5be ec3b
000002a0: de56 b2bd 527d 28bc f335 883b cdba a8bd
000002b0: 9e91 e0bc e081 653b 0796 8e3d a0c9 cf3d
000002c0: dea2 24bd 7e95 403d 0821 fdbb bf9c a13c
000002d0: 3dd0 7a3c dbf9 543d bb60 7dbc aca0 e3bc
000002e0: 5ebd 98bd f3c2 353d a210 d5bc 1956 f43c
000002f0: 079a 1bbb 3231 093d 2294 8fbc 63f2 78bc
00000300: 98be 843d 377d 98bc e19e ddbc 90f9 82b9
00000310: b35a 4bbc e4eb 503b 333f 923c 4770 83bc
00000320: 7e7c 043c ca57 5f3c 7a1f 5739 6329 4dbd
00000330: d0fc 823c 4f88 893c 7045 043b 69c8 7d3c
00000340: 95e1 f3bc 1762 edbb 8fd1 4a3b 2541 883d
00000350: 9dea 79bc 4d6a 88bc ee07 04bb 5323 473c
00000360: 19ac 863d c500 a5bc 7f70 99bd 5e46 ad3d
00000370: 9347 ab3c 1e58 a3bd 6aa1 c6bb ce67 3d3c
00000380: 5d8e 41bd 1226 0f3c 5de6 2abd 55a8 ddbc
00000390: a780 543d 1c38 25bd 42c6 bb3d 8d59 9dbb
000003a0: a0e6 a6bc a382 6e3c 8650 b93c c6ff 033d
000003b0: 3f50 e73c fca0 90bc d4df bbbd 53eb abbd
000003c0: 8a96 563d ada9 5e3d 4f0d 9b3c dd4d a9bd
000003d0: abda 7b3d d45d 91bc 0637 86bc 2588 fc3d
000003e0: 9dfd c23c c16e 12bd 62aa 98bc b9d3 c9bc
000003f0: 024d 50bb 22f6 a83c cb88 633d ea23 33bd
-0.027778374 0.017601777 0.031382125 -0.033639032 0.010113957 0.016301796 -0.029292604 0.0036777675
0.0034684527 -0.06391068 0.0238828 0.023775853 -0.05540152 0.042477638 0.006832767 0.028378997
0.009602593 -0.014583476 -0.002814668 0.002211641 -0.058882494 -0.01781398 0.10808787 0.0029156785
-0.006615786 0.012343888 -0.011974353 0.110774286 -0.03857536 0.0818643 0.18693663 -0.027584864
0.20136912 -0.034730628 -0.022367936 0.5202943 0.00094714144 0.009966246 5.2244313e-06 0.0129895955
-0.006480444 -0.033479474 0.011659483 0.0031140754 0.007868202 0.0057311254 -0.009268698 0.0040019895
-0.031446725 0.09453941 -0.0010478848 0.016505888 -0.03685093 -0.019572344 0.04567961 0.045784157
-0.024842888 -0.06719519 -0.12902969 0.01724123 0.061345436 0.062424846 -0.0077738645 -0.036378726
0.03270054 -0.014068812 -0.009251832 0.07720554 0.021532038 -0.03471318 0.025108939 -0.0385448
-0.013807244 0.010059239 -0.030324195 0.08819807 0.022633856 -0.050221466 0.09698359 -0.020053433
-0.03476953 -0.011792347 -0.04187147 0.0056111636 -0.0540812 0.033201937 -0.025401043 0.0093769785
0.054049335 0.028886996 -0.0043054237 -0.007846998 -0.01735377 -0.0039244634 -0.0444698 -0.0032971792
0.007552302 0.048085622 0.029043667 -0.010525447 0.0041794498 0.015199675 0.0020118416 -0.028532535
0.045417197 0.0019954566 0.005142267 -0.003471036 -0.006238292 -0.0490703 -0.04149598 0.020535734
-0.0031546159 0.014836336 0.012652159 0.05471851 -0.025810638 0.104967974 0.033278752 0.015165652
0.03576224 0.043525 -0.05404613 -0.011834407 -0.05753107 -0.094962664 -0.07542686 0.00538681
0.026386386 -0.06785516 0.0015751832 0.084207155 -0.013228379 0.046697948 0.022718867 -0.013143964
0.039803706 -0.017312983 -0.041978117 -0.005403604 -0.027230619 0.020448186 0.019462936 0.023249278
-0.035779193 0.08744812 0.08768575 0.016274199 0.19292349 -0.2766847 0.06684567 0.15067331
-0.09077103 0.040746216 -0.022812266 0.0347963 -0.0036586453 -0.041753445 -0.10068587 0.0048193587
-0.09916748 -0.10345641 0.0015404177 0.013474989 0.06289427 -0.017658494 0.023358349 0.0072249123
-0.08707975 -0.010283785 0.004156822 -0.082387544 -0.027413186 0.0035020038 0.06962209 0.10145879
-0.040194385 0.047017567 -0.007724885 0.019728063 0.015308437 0.051996093 -0.015464957 -0.027786575
-0.07457994 0.04437537 -0.026008908 0.02982621 -0.002374293 0.033494182 -0.01752669 -0.015194508
0.064816654 -0.018614395 -0.027053298 -0.0002498147 -0.012411761 0.0031878883 0.017852401 -0.016044749
0.008086322 0.01363177 0.00020515724 -0.050088298 0.015989691 0.01678863 0.002018299 0.015489676
-0.029770652 -0.0072443592 0.003094766 0.0665305 -0.01525369 -0.01665225 -0.0020146328 0.012154418
0.06575794 -0.020141969 -0.0749216 0.08460687 0.020908153 -0.079757914 -0.0060617225 0.0115603935
-0.04725491 0.008737104 -0.041723598 -0.027057806 0.051880505 -0.040336713 0.09168674 -0.004801935
-0.020373642 0.014557513 0.022621404 0.032226346 0.028236507 -0.017654888 -0.09173551 -0.08394494
0.05238966 0.054361034 0.018927244 -0.08266804 0.061487835 -0.017744936 -0.01638366 0.12330655
0.023802573 -0.035750154 -0.018635932 -0.02463709 -0.0031784181 0.020625178 0.055550378 -0.043735422

bias f4 [12]
00000000: 97b5 843c d5ec 813c b337 4f3c 8662 013c
00000010: cc9e aeb9 1d98 603c 2f0e 6c3c 809d a03c
00000020: 12ba 463b 8930 ca3b 49bc 873c abf5 213c
0.01619987 0.01586 0.012647557 0.007897025 -0.0003330618 0.013708142 0.0144076785 0.019606352
0.003032331 0.0061703366 0.016569274 0.009885232
