train_weight_sr3/model_epoch_12.pth (torch_old, 667646 bytes, 10 tensors)

weight f4 [12, 3, 13, 13]
00000000: a63b 823c a729 96bd 51b0 613d 23d7 f73b
00000010: 155a 39bd 462e 82bd e41d 573d 0e20 863d
00000020: 0dfa 00be 7399 bf3d 40a9 b7bc 3ba3 003d
00000030: d30a 1ebc 1ac5 603c ca97 a8bd b4f6 20bd
00000040: 63b8 42bd 34f0 bd3d 54b4 273d 9ff5 403d
00000050: 0017 a5bd 7b50 bfbc ce70 0cbd 8cd3 adbb
00000060: aed6 f63c 79f7 e8bb 612b 1bbd 6caa 78bd
00000070: 456e aa3d 60ce 6a3d 2f5a cbbc 7e7b 6ebd
00000080: 4b3f 763d 6856 95bc bf4e 80bc 4945 813d
00000090: 2390 283c a69a eebc cd28 4a3c 4697 ed3b
000000a0: d85c e9bd cb4a 0cbd 1a9d c03c c164 7a3d
000000b0: 1a7c a83d ddda babc 990d c1bd 3087 053c
000000c0: 202d 82bd 0048 5d3d 7e6f ad3d a9dc 86bd
000000d0: 2889 67bd 5de7 803c f5f9 25be 0799 5bbe
000000e0: 1503 6cbe 9aef afbd 186d 0fbe 8f53 ccbc
000000f0: 40c8 633d 8aed 663d 38b7 823c cc8c a93c
00000100: 8acd 9e3d e564 863d bdc1 9a3d 7655 033e
00000110: b8a6 ad3c 0a5f a0bc c043 b03d c280 97bd
00000120: 1a24 113d e130 19be 5e51 4fbe 0c7a 00be
00000130: 9c0a 02be bf1c febd 3b1f 92bd 664a 5e3d
00000140: 1164 d0bd 1b05 eb3b 6f45 4ebc 1e27 cd3d
00000150: a2ea fd3d ed51 da3d c828 073e efdc c63d
00000160: 89b4 363e 4a1c 913d 694b f93c a92c d43b
00000170: e84b 0dbe 087b 1fbe 7655 fcbd 17a0 9ebe
00000180: 7370 63be 0ea6 92bd 0ffc 6dbd 223a cabc
00000190: d383 23bd c106 a23d f57c a8bc b68b 843d
000001a0: 2e88 11bd 0a1f 06bd 7ae6 59bc 9e15 dabd
000001b0: 28ac 8ebd 400c 1fbe 3df6 7fbd 0945 733d
000001c0: 2e2a 17be ee93 75bd 450d a3be daef 49be
000001d0: 267c 8ebe b6dd ab3d a23c b3bd 023f 723d
000001e0: 3fbb 3abd 1944 5fbe 0419 28bd 770a 4bbd
000001f0: f542 66bd 9a6f 2dbb 7692 41bd 9f05 b6bc
00000200: ca49 9fbd 888b b4bc 2884 aabd 7941 27bd
00000210: b49c 1fbd 1c19 973d 19b8 a5bd 00b5 0f3c
00000220: 4574 e7bd b19f f13c ca21 a2bd b92d 003d
00000230: 5da6 6c3c fd36 6a3d c03a 2fbc c451 6f3c
00000240: 17ac 063d 94f1 1dbd ff07 06be e1bc 7dbd
00000250: 5a4e 053d eed7 eb3c d0f5 2c3d 838c d4bd
00000260: 4797 28bb 9ee2 61bc 9382 553c b3fc 4fbd
00000270: 0a4d 95bd 3648 8f39 0793 e4bd 2059 b8bd
00000280: 45d9 973c 78c9 b1bd d617 09be 68b1 9c3c
00000290: fd2a 54bd ce0d f53b c03d b73b fbc1 8ebd
000002a0: 9352 fa3c 9a32 4fbc 2c0c 6d3c 56fa 9bbc
000002b0: 9a4c 7f3c 3770 c7bc 5818 833d 0d99 69bd
000002c0: d197 5d3d b062 78bc eadd b8bd 8786 b6bd
000002d0: 7bf4 183c bcf5 2a3c 42ee 883d 2e6f 1cbd
000002e0: 4f95 013e a7b8 01bd e315 723c 5265 76bd
000002f0: 75fc ffbc f5e3 82bd 7b77 fd3c e686 913b
00000300: 75cc 333d c4fe cabd 25ff dcbc 300f 67bd
00000310: 5250 ea3d 97cf c3bd 29eb 07be a390 a2bd
00000320: 65db c73d 79e2 2a3a 8745 673d c2e6 133d
00000330: 086a 0bbd 2590 2fbd ac03 813c fe3f d8bb
00000340: eacb 113d d05f 233d 482a b33d 248e 0e3e
00000350: c17c 3c3d 6533 fd3c b0db 173d 7520 783d
00000360: 9b8f 343c 88bf 1b3d d3dd 08be 54c0 30be
00000370: 5928 393d 08ea de3d fa63 a0bd ea82 45be
00000380: d0e6 2dbe a438 07be ac6d 8cbd dfb0 01be
00000390: 57aa 4a3d ea38 303c 6037 573d 43df c7bd
000003a0: 6699 813d 8aaf a33d 4077 43bd af54 e43d
000003b0: 30a7 45bc acc6 a93d d087 45bd 1af2 373c
000003c0: 06d8 07bd 5b44 56bd 01b4 c9bd 28d9 70bd
000003d0: 1720 fdbd 6abf 99bd 3f18 a63c 8452 e6bd
000003e0: b660 17be 2638 d4bd 4a26 7a3d bf46 193d
000003f0: e2c9 363d c127 4abd 40f6 583c d222 113e
0.015897583 -0.07332163 0.05509979 0.007563488 -0.045251925 -0.06356482 0.05251874 0.06549083
-0.12595387 0.0935544 -0.022419572 0.03140567 -0.009646135 0.013718868 -0.082320765 -0.039297774
-0.047539126 0.09274331 0.04094346 0.047109243 -0.080610275 -0.023353806 -0.034287266 -0.0053047594
0.030131664 -0.007109579 -0.037883166 -0.060709402 0.083218135 0.05732572 -0.024823276 -0.05822324
0.060118955 -0.018229678 -0.015662549 0.06312043 0.010288271 -0.029126476 0.012338829 0.007250699
-0.11394662 -0.034251016 0.023512412 0.061131243 0.082267955 -0.02280944 -0.09426422 0.008149907
-0.06356263 0.054023743 0.08468531 -0.06585056 -0.056527287 0.015735323 -0.16208632 -0.21445094
-0.2304805 -0.08590622 -0.1400646 -0.024942188 0.055610895 0.05637888 0.015956506 0.02069702
0.07754047 0.06562213 0.07556484 0.1282557 0.021197662 -0.019576568 0.08606672 -0.073976055
0.03543482 -0.14960052 -0.20245883 -0.12546557 -0.1269936 -0.12407827 -0.07134863 0.05427017
-0.10175336 0.0071722395 -0.012589796 0.10017227 0.12398268 0.10660157 0.1319915 0.097101085
0.17842306 0.07085474 0.030431466 0.0064750505 -0.13798487 -0.15574276 -0.12320988 -0.30981514
-0.22210865 -0.07160579 -0.05810171 -0.024685923 -0.03992064 0.079114445 -0.020567397 0.0647196
-0.03553026 -0.032744445 -0.013299579 -0.106486544 -0.0696643 -0.15532017 -0.06249069 0.05939201
-0.14762184 -0.05995553 -0.3184606 -0.19720402 -0.27829093 0.083918974 -0.08751799 0.05914212
-0.045588728 -0.21803321 -0.04103948 -0.049570527 -0.0562162 -0.0026464225 -0.047258817 -0.022219477
-0.07777746 -0.02203919 -0.08325988 -0.040833924 -0.038967803 0.07377836 -0.080917545 0.008771181
-0.113014735 0.029495092 -0.07916601 0.031293605 0.014443961 0.057181347 -0.010695159 0.014606897
0.03287896 -0.038560465 -0.13088988 -0.061947707 0.032545425 0.028789487 0.042226613 -0.10378363
-0.0025724934 -0.01378694 0.01303162 -0.050778102 -0.07290085 0.00027328887 -0.11160856 -0.09001374
0.01853622 -0.08681005 -0.13387999 0.019127563 -0.05179881 0.0074784523 0.005592078 -0.069705926
0.030556953 -0.012646342 0.014468234 -0.019040268 0.015582228 -0.0243455 0.064011276 -0.057030726
0.05409986 -0.015160248 -0.09026702 -0.08912378 0.009335632 0.010434564 0.06686069 -0.038191967
0.12654613 -0.03167024 0.014775726 -0.06015522 -0.03124831 -0.063911356 0.030940762 0.00444113
0.043896157 -0.09911874 -0.026977131 -0.05641097 0.11441101 -0.09561079 -0.132733 -0.079377435
0.09758643 0.00065187324 0.05646279 0.03610874 -0.034036666 -0.042862076 0.015748821 -0.0065994253
0.03559486 0.039886296 0.08748299 0.1392141 0.046017412 0.030908296 0.037074745 0.06057783
0.011020566 0.038024455 -0.13365869 -0.17260867 0.045204494 0.10884482 -0.07831569 -0.19288221
-0.16982579 -0.132052 -0.06856856 -0.12665127 0.049478855 0.010755757 0.052543044 -0.09759381
0.063280866 0.07992466 -0.047721148 0.111489646 -0.012063786 0.08289847 -0.048225224 0.011227155
-0.033165 -0.052311283 -0.09848786 -0.058800846 -0.12359636 -0.075072125 0.020275233 -0.11246207
-0.14782986 -0.10362272 0.06107167 0.037420984 0.044626124 -0.04935432 0.013242304 0.14173439

weight f4 [64, 12, 7, 7]
00000000: f487 3c3d 5aa2 8ebd 91e3 04bc cc8f 5a3c
00000010: 34ff 0abd 0f09 893c 35d5 c3bd 10b9 1f3c
00000020: 8f11 45bc 9cfb d83a 95a0 c33b c021 7f3d
00000030: 463f 3abc c0a2 183d 5ae8 673b 7b66 50bd
00000040: ffac 053a 155a 91bd 20ab bdbd ad09 2d3d
00000050: a5ba b7ba f327 a8bd 30d7 0dbd c7d4 2cbd
00000060: 03fc 833d 630b d9bc 2f86 383d 0888 f2bd
00000070: 9a10 8abc 0e44 4bbc 0f7a 1a3d 7c68 82bc
00000080: 9e65 f3bc 2316 a23d 75bd 7d3b 2b67 523d
00000090: 457a 3ebc aeb8 b7bc 1daf 58bc 8909 0bbc
000000a0: bcec 8e3d adad 30be d7b6 d0bb 6105 82bd
000000b0: 5f4e 65bd 3814 52bd c5bd df3c 3f54 4f3d
000000c0: 987b 50bd 72b8 11bd eb01 07bd 1d19 e5bc
000000d0: fd6d 5e3e 9b76 a0bd 9a0d 40bd de76 8bbd
000000e0: fbc3 833d b778 10bd 5295 a33d adfb e1bd
000000f0: 4fe0 b7bd ab37 60be c519 b7bc c2a5 42bd
00000100: 0f40 33bd 4ef1 0cbe 8f71 0abe 895a 40be
00000110: 7adb 7abc 65c1 65bd 6e33 8e3d 5b57 013d
00000120: cf7c 82bd 3b43 26bd 09b4 4fbe 57ed 93bb
00000130: 85ff 67be d176 56be 18a3 4cbe 12a9 e1bd
00000140: 3d5c 84be c1ef b03b 2fcc 93bd 7507 b23d
00000150: 4f00 483d b931 64bd 2662 aebd 11f8 29be
00000160: 243e 7dbd 07e2 95be 7baf 293d 02c8 cdbc
00000170: 1659 edbd 2008 21be 6d70 53bd f459 f6bd
00000180: 7e96 a93d 8abb 23be 3d7d 31bc f8b9 49bb
00000190: 7bfc de3c b769 4bbd 8eb3 77ba ab5c 8c3c
000001a0: d6ae d9bc c065 923d a8a4 e5bd 28a6 02be
000001b0: 831b ffbd fae1 72bc 9b4e 403c 8c3b fcba
000001c0: d422 c53c e7ec e7bd d3fa e6bd 5b9d 18be
000001d0: 2ffc 11bd ea29 ad3d 5707 27bd 96c5 a93b
000001e0: 077d 0fbd 2990 20bd dec2 9ebd 3613 c1bd
000001f0: 2c05 a53c 8fb5 f9bd 5613 e3bd 7002 dcbd
00000200: ffb3 31bd 322e 893b c0bd 193c 798b 093e
00000210: bce0 273c a066 a5bd ecb8 e1bd 6b3b 24be
00000220: 447b 1bbd dc2f 0abc 16a9 ff3d 85a4 5dbd
00000230: 7aee 17bd e690 603d bdd2 1ebe f964 903d
00000240: f75f 87bd 818b e53d 0392 48bd 7355 b5bd
00000250: c0be e3bb f811 f43d 1324 36bd 6eec 793b
00000260: d908 70bd d9f0 ad3c 4611 c03c 8061 26bd
00000270: 7f4e f93a 81bc 2bbc a77e 723d 5ea2 013d
00000280: 9267 4cbd f3a6 cbbc 2663 263c f588 883d
00000290: 707c 513d 1d49 59bd 7c42 743d d800 d53d
000002a0: c1bb a93d c17e be3d 510c edbc 9ab4 2cbb
000002b0: f2d4 80bd 301b b9bc e620 c5bd 5fe8 ea3c
000002c0: 1da7 383d f186 b6bc d1be 9c3c b7e0 d8bc
000002d0: 574f b4bc 1672 88bc a5f1 13be fb2d e3bd
000002e0: 585c f73d 6d7a e23c 5a14 e1bc 63a9 19bd
000002f0: 6f25 593c 4a7c cebd 2fbb 8cbd 22bb 0c3d
00000300: a442 433e 0d72 8abd f491 c83d e283 f73d
00000310: 0589 6dbd ffde 89bc 8586 813e f8ab 243d
00000320: 8091 14be c8a3 98bd 137f e13c d57e 673d
00000330: 0e62 aebd d7af 99bd a3cd 2abe bdc9 aabd
00000340: e1fd 0b3c 1417 34bb 9429 c23d a413 debc
00000350: b687 a4bd 07c9 17be 0048 85bd e0b9 f93d
00000360: 48f2 85be df07 1fbd 808a 1f3b 9c80 dbbd
00000370: 66e2 19bd b26c f7bd 93ce 39bc 6da0 91be
00000380: c382 383d 1885 8cbd 0894 bebd 513d 30bd
00000390: e882 ddbd 8e7d a93c 53ed d6bc 4113 6d3d
000003a0: 31c0 9a3d a172 af3d 4526 093d 0497 c43b
000003b0: bafe 5f3d 1aa9 85be f2b1 81bd 0fb9 243d
000003c0: 93c0 e3bc e89b 02bb 61c1 443d 6260 433d
000003d0: 9de1 db3d c0b7 d13d 96cb 863d 2821 613d
000003e0: 1130 8bbd 6f9c 283d 4b76 69bd d1af 833d
000003f0: be63 853d 6014 c93c eab0 50bd 84b4 abbd
0.046028093 -0.0696456 -0.008110897 0.013339948 -0.033934787 0.016727952 -0.095621504 0.009748712
-0.012028112 0.0016554478 0.0059700706 0.062288046 -0.011367625 0.037264585 0.0035386295 -0.050878983
0.0005099326 -0.0709726 -0.09261155 0.042245556 -0.0014017416 -0.08210745 -0.034629047 -0.042195108
0.06444552 -0.026494687 0.045049842 -0.11842352 -0.01685362 -0.012406362 0.03771406 -0.015918963
-0.02971154 0.079143785 0.0038717662 0.05136792 -0.011625831 -0.02242693 -0.013225344 -0.00848616
0.06978747 -0.17253752 -0.0063694525 -0.06348682 -0.055982944 -0.051288813 0.027312169 0.050617453
-0.05089912 -0.03557629 -0.032960813 -0.027966077 0.21721645 -0.07835122 -0.04688797 -0.068097815
0.06433865 -0.035271373 0.07987465 -0.110343315 -0.0897833 -0.21896236 -0.022351155 -0.04752136
-0.043762263 -0.13763925 -0.13519882 -0.18784536 -0.015311116 -0.05609264 0.06943403 0.03157745
-0.063714616 -0.04059146 -0.20283522 -0.004514377 -0.22656067 -0.20943762 -0.1998409 -0.11018576
-0.25851622 0.0053996746 -0.07216679 0.086928286 0.04882842 -0.05571148 -0.08514814 -0.16598536
-0.06182684 -0.29274008 0.041427117 -0.025119785 -0.115892574 -0.15725756 -0.05162089 -0.12028876
0.08280657 -0.15989509 -0.010833082 -0.0030781012 0.027220001 -0.049661364 -0.0009449058 0.017134031
-0.026572626 0.071483135 -0.11213046 -0.12758696 -0.12456419 -0.014824385 0.011737491 -0.001924382
0.024064459 -0.113244824 -0.1127831 -0.14903776 -0.03564089 0.0845526 -0.040778484 0.005181025
-0.035031345 -0.03919998 -0.07752012 -0.09427492 0.020144068 -0.12192833 -0.110876724 -0.107426524
-0.04338455 0.004186415 0.009383619 0.13432111 0.010246452 -0.08076215 -0.11021599 -0.16038291
-0.037959352 -0.008434262 0.124834225 -0.054111976 -0.037092663 0.054825686 -0.15510078 0.07050509
-0.06610101 0.11208249 -0.048967373 -0.08854189 -0.0069502294 0.1191749 -0.044467997 0.0038135308
-0.058602188 0.02123301 0.023445737 -0.040620327 0.0019020586 -0.010481955 0.059202816 0.031648986
-0.04990346 -0.024859881 0.010155475 0.066667475 0.051144063 -0.053048242 0.059633717 0.104005516
0.08287764 0.0930152 -0.028936537 -0.0026352764 -0.06290616 -0.022595972 -0.096254155 0.028675256
0.045081247 -0.022281142 0.019133957 -0.02647434 -0.022010488 -0.016655963 -0.14447649 -0.110927545
0.1207816 0.027646268 -0.027475525 -0.037515055 0.013253554 -0.100823 -0.0687164 0.03435815
0.1906839 -0.06760035 0.09793463 0.120857015 -0.057992 -0.016829966 0.25297943 0.040203065
-0.14508629 -0.07453114 0.027526414 0.05651744 -0.08514796 -0.07504242 -0.16680007 -0.0833926
0.008544416 -0.0027479576 0.09480587 -0.027108975 -0.08033697 -0.1482278 -0.065078735 0.12193656
-0.26161408 -0.038825866 0.0024344027 -0.1071789 -0.037569426 -0.12081279 -0.011340755 -0.28442708
0.04504658 -0.06861323 -0.093055785 -0.043027226 -0.10815984 0.020689752 -0.026236212 0.05787969
0.07556189 0.085667856 0.033483762 0.005999448 0.054686286 -0.26105577 -0.063327685 0.040215548
-0.027801787 -0.0019929353 0.048035983 0.04769934 0.10736392 0.10240126 0.065818 0.05496326
-0.06796277 0.04116481 -0.05699758 0.06430019 0.06513165 0.024545848 -0.05094997 -0.0838404

weight f4 [64, 64, 3, 3]
00000000: 5dfd 0b3d 10fd 443c 09ea 813e 831c 16bd
00000010: 303e ddbe f036 3c3d d8c6 0abd 49ad 18be
00000020: c805 d73d fd93 9cbc 1d51 833c d41f dd3d
00000030: b74b 323c 20f6 b7bd aa0f 3c3c 30d4 9d3d
00000040: 471a 95bd 3bc5 d13c 3db2 8f3e b66d 973d
00000050: 501f e03d 1b93 9ebd cc60 2f3e 6580 c1be
00000060: 342d bd3c db14 17bd c15b b33d eb86 9f3c
00000070: 8a3b 4cbe 98a8 453e b844 3bbe bd54 36be
00000080: c035 ff3d 2058 9b3e 6c32 a63b 280b 00bf
00000090: 0d04 7cbd acc7 eb3b b60b 88bd e91a b93d
000000a0: f955 95bc 15a1 3abd cbe3 123a e550 34bd
000000b0: fff2 3fbd a359 373c d0b8 5abd 31e4 70ba
000000c0: 19bd a1bd bc0c b3bc 01ae 753d 9f5f b2bb
000000d0: c73f 0cbd 068d b0bc 05d6 553c 7b14 2b3d
000000e0: 4033 bdbd e613 e7bc e207 0b3d f777 29bd
000000f0: 684a b93d d13b 873c d215 f5bd 1057 14bd
00000100: 5f98 873b 0642 79be 0fb0 f5bd f288 8ebe
00000110: 6049 f03e f546 81be 8a45 ccbb c8b8 4cbe
00000120: 9aee 4c3e 28f0 8a3d fe68 4e3c d114 e1bc
00000130: 0643 243f 7425 213f d1c4 e0bd f6f0 63bd
00000140: dbe1 e7bc 6e89 d7ba e8ff 4fbd d35e 35be
00000150: cf8a fdbc 2d22 80bd 8dfc 39be 3761 b0bd
00000160: 9d4c 2abb 0ef9 ecbd e520 91bc 133c b13d
00000170: 4cb1 533d be11 cf3c 4baf b43d 5879 b0bd
00000180: 916b e93d b15a bb3d 258a c8bd 6764 903d
00000190: 77ce 85bd 0f29 4fbd 8e29 e23c bbd6 683c
000001a0: 86e3 363d f2b2 873d b1c4 9cbd 70f3 bbbc
000001b0: fb71 b93c 7034 503d 76e8 173d fd3e d2bc
000001c0: e733 06bd bac3 68be a23f ca3c 42be 4abd
000001d0: 7fb0 bd3d 0160 e73c dac3 eebd fd5e 0fbe
000001e0: ca5d 5b3c 1d1f 20be 187a 0dbe d70e 6d3d
000001f0: 80f5 b03d e2d7 613e c4a3 123c 5b18 48be
00000200: 6c28 633e 9c7f 6e3d 24d8 6ebe 969b ba3e
00000210: ad45 67bd 737a d33d 2a3f 67be 86b2 80bd
00000220: d852 433d 1ce9 d43d 935d 82bb 137e efbc
00000230: ce09 b6bc 3300 d73c f818 bdbd ce14 7b3c
00000240: 0604 18bd e713 37be e169 88bd 92f3 16bd
00000250: 9b2e ebbd ae28 943e d01c 993d 5f44 fabc
00000260: 5771 30be c8fb 4bbd 06ee 2bbe 6710 3dbc
00000270: b862 e1bd 6755 73bd a803 513d 60ef 87bd
00000280: c7eb 263e c607 97bd 00f5 d33c f2e9 c2bd
00000290: d7a1 6cbe 4f8e 7dbd a974 1cbd 055d 6d3c
000002a0: 053c 2bbd c6c4 5bbc d9d9 9ebe 2e94 1e3e
000002b0: 2ff6 c13d ada2 063d ea64 763e 86b1 87be
000002c0: e53d 80bd 2286 ddbd dd37 2d3d 1b56 04bd
000002d0: d08b e93c be32 de3c 14be 3fbc 5e93 853d
000002e0: 85f3 99bc da13 203b cef4 eabc 19e8 5c3d
000002f0: bcd6 0dbc 8b61 c8be 7099 17be d700 cf3e
00000300: 5aec aabd 29b9 503e d939 413d 8394 f0bd
00000310: bc72 07bd 2505 32be 3296 1dbd 8a2d 96bc
00000320: efec f2bc 0e48 fb3c 94d4 433d d93f 363d
00000330: 548b 7dbd 7ff8 b13b e268 c63d 0385 963d
00000340: a1f5 d3bc 3299 21be 6631 a13a e7ca b3bd
00000350: dc63 6cbd 7c35 7e3d d92b ac3c 86d4 bbbb
00000360: 7bb5 cabd 91e2 d63d db4d 8abc 4596 03be
00000370: e9f8 0d3e 1a6c 02bf b0e0 91bd a852 633d
00000380: 4051 99bd 045a 113d aeaa cfbb 2bb0 02bd
00000390: ceaa 483d cf2a 883d 52f2 f8bc 004a b53d
000003a0: 28ec e8bc 2b29 abbc 2bb0 b2bc e8a2 aabc
000003b0: 1b27 e53c 811f 1abc 3f05 9fbd 4c05 11ba
000003c0: c5c7 b1bd 7c0a c5bc 1551 5cbd f708 bbbc
000003d0: 3bd4 66be b1ea 103d 13f0 073d 5438 ed3d
000003e0: b4d5 cabe 42bb 703d 9f17 183e 579f 8abb
000003f0: 058a 99bd 83d9 d2bc 77ca 933c 2555 a3bd
0.034177173 0.012023225 0.25373867 -0.036648285 -0.43211508 0.04595083 -0.03388104 -0.14909853
0.104991496 -0.019113535 0.016029889 0.10797086 0.01088231 -0.089824915 0.011478344 0.07706487
-0.07280403 0.025606742 0.28065673 0.073939726 0.109434724 -0.07742902 0.17126769 -0.3779327
0.023092844 -0.036885124 0.08757735 0.019473514 -0.19944587 0.19302595 -0.18287933 -0.17805763
0.12461424 0.30340672 0.0050719287 -0.50017023 -0.0615273 0.0071954336 -0.06642859 0.09038336
-0.018229472 -0.045563776 0.0005603402 -0.04402246 -0.0468626 0.011190805 -0.053398907 -0.00091892766
-0.07897396 -0.021856658 0.059980396 -0.005443528 -0.03424051 -0.02155162 0.0130515145 0.04176758
-0.09238291 -0.02820773 0.033943065 -0.041374173 0.09047395 0.016508015 -0.119670525 -0.03621584
0.004138037 -0.24341592 -0.11996471 -0.27838856 0.4693098 -0.25249448 -0.0062338756 -0.19992363
0.20012894 0.067840874 0.012598274 -0.027475746 0.6416477 0.62947774 -0.1097504 -0.05564972
-0.028305938 -0.0016444155 -0.05078116 -0.17711954 -0.030949978 -0.062565185 -0.18162747 -0.08612292
-0.0025985606 -0.11570941 -0.01771588 0.086540364 0.051682755 0.025277015 0.08822497 -0.086168945
0.1139747 0.091481574 -0.09791974 0.070504 -0.06533521 -0.050576266 0.027607705 0.014211352
0.044650577 0.06625928 -0.076547034 -0.022943228 0.022637358 0.05083126 0.037086926 -0.0256648
-0.03276434 -0.22730914 0.024688546 -0.04949785 0.092621796 0.02824402 -0.116584495 -0.14001079
0.01338906 -0.15636869 -0.13816106 0.05787548 0.086405754 0.22055009 0.008950178 -0.19540541
0.22183388 0.058227167 -0.23324639 0.36446828 -0.056462932 0.1032609 -0.22582689 -0.06284051
0.047686428 0.103960246 -0.00397844 -0.029234922 -0.022221472 0.026245212 -0.09233278 0.015324784
-0.037113212 -0.17878686 -0.0666082 -0.03685338 -0.11483499 0.28937286 0.07476199 -0.03055018
-0.17230736 -0.049800664 -0.16790017 -0.011539555 -0.11005157 -0.059407618 0.051028877 -0.06637454
0.1630088 -0.073745295 0.025873661 -0.09517278 -0.23108612 -0.061903294 -0.038197193 0.01448751
-0.041805286 -0.013413614 -0.3102558 0.15486214 0.09470784 0.032869983 0.24061933 -0.26502627
-0.062618054 -0.108165994 0.042289604 -0.03230868 0.02850905 0.027123805 -0.011703033 0.06522249
-0.018792877 0.0024425895 -0.028681185 0.053932283 -0.008657154 -0.3913692 -0.14804626 0.40430328
-0.08345862 0.20383133 0.04717431 -0.11747076 -0.033068404 -0.17384775 -0.038473316 -0.018332262
-0.029653994 0.030674007 0.047810152 0.044494484 -0.06190045 0.0054312344 0.096879736 0.07349589
-0.02587396 -0.15781096 0.0012298047 -0.08778935 -0.05771242 0.062062725 0.021017002 -0.005732122
-0.09897896 0.10492433 -0.016882828 -0.12850292 0.13864483 -0.509462 -0.07122934 0.05549875
-0.074862 0.035486236 -0.0063374853 -0.031906288 0.048991017 0.0664879 -0.030388985 0.08852005
-0.02843292 -0.020893654 -0.021812519 -0.020829633 0.027972749 -0.009406925 -0.077646725 -0.00055321003
-0.08680681 -0.02405285 -0.053788263 -0.022831423 -0.22541897 0.03538007 0.033187937 0.11583009
-0.39616168 0.058772333 0.1485276 -0.0042304206 -0.07497028 -0.025738483 0.018040879 -0.079752244

bias f4 [64]
00000000: f9db cb3d 8061 753d ca90 c23d 1631 93bd
00000010: 0e81 4dbd 6968 02bd 6f59 023e 7b8a c83c
00000020: 112d e73d 4ca8 eb3d bf40 923d 30a8 73bc
00000030: 0da9 8f3a 60cc 413b 4fa5 ab3d 0d3a 25be
00000040: 8c8c 5f3a 22d9 d93b d2b5 d03d 5df7 69bd
00000050: 3a58 45bc 22f9 debc 8cf9 1b3e bb3b 39bd
00000060: 25cd 013e 4680 e43d a978 ef3a 63f8 dd3c
00000070: 4663 283e 4df9 ddbc 0aa0 bfba 0c81 31bd
00000080: 8b13 b53c 10d5 333e d0f7 3dbb 837d 3dbc
00000090: 715c 1b3d dfa2 ba3d 9ef9 2d3c 8e4e a539
000000a0: 9011 56bd f28c bf3b 97ec f93e 8cc2 d03d
000000b0: 0813 2eba acd9 dd3d ff2b 993c f325 afbc
000000c0: 83a1 b03a c937 74bd f4c0 a53d 5550 8fbb
000000d0: 0c3e bb3d 426e a6bd 646d 3bbd e6bc 653e
000000e0: b5fe 953c b583 98bc 3df0 0dbc 5030 b739
000000f0: ef8a 3e3d 7fc1 10bd 7e41 5a39 5de5 bebd
0.09954066 0.059907436 0.095002726 -0.07187097 -0.050171904 -0.031837855 0.12729429 0.024480095
0.112878926 0.115067095 0.071412556 -0.014871642 0.0010960415 0.002957128 0.083811395 -0.16135426
0.0008527718 0.0066481987 0.101909295 -0.05712067 -0.012044961 -0.027218405 0.15231913 -0.04522298
0.12675913 0.11157279 0.0018270212 0.02709598 0.1644412 -0.027096415 -0.0014619839 -0.04333596
0.022104045 0.17561746 -0.002898682 -0.011565569 0.037929956 0.091130964 0.010618595 0.0003152978
-0.052262843 0.0058456594 0.48813316 0.10193357 -0.0006640409 0.10832533 0.018697737 -0.0213804
0.0013475869 -0.059623513 0.080934435 -0.00437359 0.09142694 -0.08126499 -0.04575862 0.2243534
0.01830993 -0.01861749 -0.008663234 0.00034940476 0.046519216 -0.035340782 0.00020814498 -0.09321091

weight f4 [64, 64, 3, 3]
00000000: b8e1 c1bc e45a ca3c ccfc 623d 2113 0e3d
00000010: f1a5 a8be d3cd 4dbe 044f 093c ca1a 36be
00000020: 3540 8bbc 4207 8a3c b94b 773d de8b 1c3e
00000030: fe1d 1abe e5a9 073e 72d2 3bbe e66c 3e3e
00000040: fd82 47be 03ed 01be d901 863d 0c3d 1c3e
00000050: 3f73 083e 2dc3 d53d e63b 05be 7acf 14be
00000060: 84fa 71bd 37ef c7bd 4331 27bd f9eb b73d
00000070: 32ec a5bc dd5b 2a3c ed5a 08bd 830c f1bc
00000080: cf41 3e3d 8b70 9cbd e963 bebc 30f7 4abd
00000090: 11d0 3f3d 102c a73d 86aa a53d f87f b2bd
000000a0: cdf2 7ebd 093b b3bd f397 053d a9f2 f13c
000000b0: ef3c 6bbd e36d 82bd a135 333c 643f 8f3d
000000c0: 6a2f 813d 1cf2 0dbe c780 a53c 6354 4bbd
000000d0: 0ddc e8bc 4da9 7a3d bcd3 78be 389c c63d
000000e0: 36d6 b4bd f5b9 e8bd a545 013e 6280 da3c
000000f0: b75b 17bd bb2b 1fbe 7a82 9bbd 0db0 9b3e
00000100: b582 273d 883d c33c 811e a8bd 1659 27bc
00000110: fd2e febe 5ef9 823d f8a6 89bc 38c8 04be
00000120: 39d3 5fbd c45f 553c d7e0 973c 1bc8 613d
00000130: 2d44 0abc 0538 4d3e c7e8 7b3c 38da 89be
00000140: 5850 66be cce0 10be 391f 2ebe eb33 253d
00000150: e51f 933d 1486 c73d f4b1 d7bd c98a 46bd
00000160: 3afe 263d 3227 43be 23fb e2bd 630a 79bc
00000170: df95 7fbe 5b3c 353d 563d db3c f932 303e
00000180: 3ac0 09be 83ab c1bd a437 69bd 986a 133d
00000190: 0a29 5cbc 2f9e c03d cc36 b6bd 3161 43be
000001a0: 8d6e 523e d46e 35be 2582 e9bd e40f dabd
000001b0: 0a3e d93c 5e60 643d 56da 07bb 2c15 d5bd
000001c0: c304 c2bd 5b32 e7bd 4b33 a13d 8459 18bd
000001d0: 3a4a 60be 9526 36bc f598 d03c 887f 833d
000001e0: 990a 8c3b bbbf 9abd fbbd b93c d685 803d
000001f0: 160f 63bd 8149 bfbd c0d5 ffbc febe 133d
00000200: c077 973d 3a6e 5c3c d427 48bc 44af a03d
00000210: 2d44 823b 65ad febd f26b 82bd 6490 05bd
00000220: 2b73 89bc 9ab1 283d 6acf 42bd 7484 5abe
00000230: dbef 123e dfdb ddbc 55c0 c2bc d589 b93d
00000240: 7745 afbd 0f8b b0bd 7703 38be 7f22 943d
00000250: fad3 7b3c d039 993e 7bf5 cfbd a5d1 1cbe
00000260: 1cdf f1bc 0e7d a3bc 60de 193e 4dc4 03bd
00000270: 887f 083d 7b5d 9a3d 3cfb 06bb 5d5c 493d
00000280: eca1 99bd 002c 93bd 200d 2e3e 8da3 d43d
00000290: 62c8 fbbd 26b7 af3d d4bf 953c 97a6 cdbc
000002a0: 3895 d0bd 25a7 56bd f464 a1bd 38f6 12be
000002b0: b681 903d f57f ff3d cac1 fe3d b541 d93d
000002c0: 2a81 603d 55e9 fd3c 224c 09bd 4700 01bd
000002d0: 26d6 20ba 9d36 ab3d 8f4d acbb 0aa1 a23d
000002e0: b916 cabd e53d 5a3c f13b eb3d 82d4 8b3c
000002f0: 27a6 60bd f7b2 033d d471 7a3d f851 9d3d
00000300: 478a b93d c94e 7ebc b3b1 d93d bba0 8d3e
00000310: 4912 1c3d 658b 4c3c 8fd5 eb3d c249 5f3e
00000320: 42de dfbc 8281 e0bd 59cd 1ebd 8259 86be
00000330: bdd9 3abd 4857 b6bd 7e35 5cbc e4d5 80bd
00000340: 2099 973d b89e bf3d 5500 73bd c046 03be
00000350: 69bc 85bd 1615 87bd 4c81 8ebd 5a53 06bd
00000360: abe9 24be d0af f93d 53a7 413e 7af6 ae3d
00000370: 4b93 73bd 663a 20be 61c4 f4bd 45fc 83bd
00000380: 123a 28be 6b12 f03d fbcc e73c b5c1 cbbd
00000390: aef4 953d ca51 1e3e 10d9 553e 4030 aebe
000003a0: d988 bb3d 5410 68be 0e36 0fbd 83f0 843e
000003b0: 138b 713d a434 40be c0ba 20be cf20 0abe
000003c0: c790 ddbc 1df9 5b3d b5f7 75bc 166b 1ebd
000003d0: 2f69 7dbd 8fc9 a73d 6f00 1ebd de56 3ebe
000003e0: d5d2 92be b92d 40bd cf3c 8fbd 661f 8cbe
000003f0: c53b 17be d548 f33c c8d9 96be 52bf 213e
-0.023667201 0.024701543 0.055416867 0.03468621 -0.32939103 -0.20098047 0.008380655 -0.17783657
-0.01699839 0.016849164 0.06037495 0.1528773 -0.15050504 0.13248403 -0.18341997 0.18596229
-0.19483562 -0.12688069 0.06543321 0.15257663 0.13325213 0.104376175 -0.1301113 -0.14532271
-0.0590768 -0.097624235 -0.040818464 0.08980555 -0.020254228 0.0103978785 -0.03328984 -0.029424911
0.04644948 -0.07638653 -0.023241 -0.049552143 0.046829287 0.08162701 0.080891654 -0.08715814
-0.06224327 -0.087514944 0.032615613 0.029534655 -0.057431158 -0.063686155 0.010938079 0.06994513
0.06307872 -0.13861889 0.020203007 -0.049641024 -0.02842524 0.061196614 -0.2429952 0.09697765
-0.0882992 -0.113635935 0.12624224 0.026672546 -0.0369527 -0.15544026 -0.07593246 0.30407754
0.040896136 0.023833051 -0.08208943 -0.010214111 -0.49645224 0.06395219 -0.01680325 -0.12967002
-0.054644797 0.013023321 0.01853983 0.055122476 -0.008439106 0.20040901 0.015375323 -0.269243
-0.22491586 -0.14148253 -0.17004098 0.040332716 0.07183818 0.0974237 -0.10531989 -0.0484722
0.040769793 -0.1905792 -0.11083057 -0.01520023 -0.24959515 0.044247013 0.026762646 0.17206945
-0.13452235 -0.094565414 -0.05693783 0.035990328 -0.013437519 0.09405171 -0.088971704 -0.19080044
0.20549984 -0.17718059 -0.11401776 -0.10647562 0.02651884 0.055755965 -0.0020729504 -0.10404429
-0.094735645 -0.112889014 0.078711115 -0.037194744 -0.21903315 -0.011117597 0.02546356 0.06420809
0.0042737243 -0.07556101 0.022673598 0.06275527 -0.05543431 -0.09340192 -0.031229854 0.036070816
0.073958874 0.013454014 -0.012216527 0.07845929 0.0039754123 -0.12435416 -0.06368245 -0.032608405
-0.01677855 0.041185 -0.047561087 -0.2133959 0.1434931 -0.027082382 -0.023773352 0.090594925
-0.08558171 -0.08620273 -0.17970072 0.07233142 0.015370363 0.2992692 -0.101542436 -0.15314348
-0.029525332 -0.019957092 0.15026236 -0.03216963 0.03332475 0.07537361 -0.0020596525 0.04916035
-0.07501587 -0.07186127 0.16997194 0.10382757 -0.12294079 0.08579855 0.018279947 -0.02510385
-0.10184711 -0.052405495 -0.078805834 -0.14351737 0.070559904 0.12475578 0.12439306 0.10608236
0.05481068 0.03099505 -0.03351987 -0.031494405 -0.0006135426 0.08360026 -0.005258269 0.07940872
-0.09867615 0.013320421 0.11486042 0.017069105 -0.054845955 0.032153096 0.06114371 0.0768165
0.090595774 -0.0155217135 0.106295966 0.2766169 0.038103376 0.012484406 0.115153424 0.2180548
-0.02732766 -0.10962202 -0.038770054 -0.26240164 -0.045617808 -0.08903366 -0.013440488 -0.062907964
0.07402253 0.09356445 -0.05932649 -0.12819958 -0.06530077 -0.06595819 -0.06958255 -0.032794334
-0.16104762 0.12191737 0.18911485 0.085431054 -0.05946664 -0.15647277 -0.11951519 -0.06444601
-0.16428402 0.11722263 0.028295984 -0.09949056 0.073220596 0.15460888 0.20883584 -0.34021187
0.09156961 -0.22662479 -0.03496366 0.25964746 0.058970522 -0.18770081 -0.1569624 -0.13489078
-0.027046574 0.05370437 -0.015012671 -0.038676344 -0.06186789 0.08192741 -0.038574632 -0.18587825
-0.28676477 -0.046918605 -0.0699402 -0.27367705 -0.14768894 0.029697815 -0.2946303 0.15795639

bias f4 [64]
00000000: 113c 033d 65f2 143e 8eba 21bc b928 0bbd
00000010: d626 08be 721b 85bd af45 26bd 272d 2fbd
00000020: 53e1 34bc 91d8 2bbd aafc 973d 50d4 2abd
00000030: 6195 f03c b797 67bd 561d a83d 3be1 78bc
00000040: 8a8d f8bc c1f1 153e aebc 01bc 9b41 683d
00000050: 47b9 ae3d dd1f 58bd 02cd 9c3e 3ca1 d43d
00000060: 7a33 b3bc 51dc e63c 96b2 afbd f8dc 01bc
00000070: 5974 90bd 8641 32bb 0dbd acbc 211f ecbd
00000080: c69a 193d fdcb 3cbd bf9c 973d f3c1 32bc
00000090: 9e0b dfbc a5e0 1ebd 260b 56bd 7d80 ed3b
000000a0: eb2b 73bd d451 0dbd bf45 1e3e 1dd2 693c
000000b0: a8d7 41bd ea73 7dbd 67e7 64bd d389 85bc
000000c0: 0bb2 713d 5784 5bba 8224 3dbd ddf8 65bd
000000d0: 388e 0f3e 026f 063f e220 c43e 06f2 a5bc
000000e0: 4ba2 4bbd cd13 6bbd 640a 20bd 56e2 023e
000000f0: f2f3 8ebd eb45 69bd 4764 7ebd bd96 3f3d
0.032039706 0.14545591 -0.009871138 -0.033974383 -0.13296065 -0.064993754 -0.0405938 -0.04276767
-0.01104005 -0.04195458 0.07421239 -0.041706383 0.029368104 -0.05654117 0.082087204 -0.015190418
-0.030340929 0.14643003 -0.00791852 0.05670319 0.085314326 -0.052764762 0.3062516 0.103823155
-0.021875132 0.028181227 -0.085789844 -0.007926218 -0.070534416 -0.00271997 -0.02108624 -0.11529375
0.03750112 -0.046092976 0.07402944 -0.010910499 -0.02722722 -0.038788456 -0.052256726 0.007247983
-0.059368055 -0.034501866 0.15456294 0.014271286 -0.047324806 -0.061878122 -0.055884745 -0.016301071
0.059007686 -0.0008373907 -0.046177395 -0.056145538 0.14019096 0.52513134 0.38306338 -0.020257007
-0.04971532 -0.05739193 -0.03907241 0.12781653 -0.069801226 -0.056951445 -0.06210735 0.046774615

weight f4 [64, 64, 3, 3]
00000000: 0a63 c7bc e850 093c 9c55 5dbd 8c6a 6c3d
00000010: 805b b8bd 5335 81bd d58e edbd c92e b53c
00000020: 8206 c63c 5093 6a3d 4e0c 9dbc 04ec 393d
00000030: 829d ee3b 6d6d 67bc 2991 43bd 4c38 84bc
00000040: 4b65 263d 303b b7bd 88f2 d8bd 12b8 843c
00000050: 3a34 b23d 2681 c1bc 71c1 babb db71 79ba
00000060: b206 e1bc 225c 9f3c 701f 84bd 2c09 153c
00000070: 6f90 42bd 4e2e 923c 4441 6fbd d5b8 9abc
00000080: 79af 633d d3a6 763d 1859 81bd 8d9f 15bd
00000090: 53d7 2c3c 509c 2f3c 260a 113d 6ed1 f4bb
000000a0: 6f82 003d f850 36bc 5d10 bc3c df70 153d
000000b0: 8cba 1f3c 52d9 d13c f68e 6d3c ffad 41bd
000000c0: 64c6 b5bb 3c4f a53a e113 6fbb 5122 83bd
000000d0: 10f0 23bd e1dd bfbd 7852 f7bc 6916 c33c
000000e0: 916f e4bc 34e9 dbbd 4ecb 8abd 1a2a c03d
000000f0: f597 883d f5a0 a3bb 2cbc 02bd dffc a53c
00000100: af4f b9bd fdea 663d dc9a 0f3d 2323 8b3c
00000110: a859 88bc a8c4 d0bc 42ed 053c 2a1c 6cbd
00000120: 9523 07bd c920 b9bd c57c 10be ea0b 07be
00000130: 365b 123c 748c bfbd aff2 f8bc 3096 743c
00000140: dc54 f2bb 7009 1c3d 6066 ef3c 2b56 e2bc
00000150: 3605 05bd 4e70 ffbc 5033 71bc b0d9 c4bd
00000160: 2493 0b3d 78ff 92bd 7449 f13c edf5 d8bc
00000170: 408d 9cbd e385 da3c 12fe 26be 5b90 aebd
00000180: 1c28 99bd f842 a23c c83a 183b abcd d7bb
00000190: ade6 0fbc 95fa e0bd 0147 12bd 9024 1cbc
000001a0: dbf2 7dbd e75f c2bb 700c 2d3c f280 e9bc
000001b0: b82c 64bd a137 11bc 9f27 a53d 9330 99bd
000001c0: 3944 c2bd d228 44bd 1d75 1ebc 39a9 15bd
000001d0: ca92 3cbc 7c92 053c f3a5 9b3d 1585 2abc
000001e0: c063 36bd 04d0 5f3d 0c30 c0bc 0164 143c
000001f0: 8cad 7ebc 9398 10bd 0b8e d8bd 70b5 82bc
00000200: 2693 a53d 04d9 623d e2a5 b2bd 2795 2b3d
00000210: 2c09 84bd 8fbe 3fbd 2bbd 47bd a0ce 25bd
00000220: 4479 1f3d 8bfa 993d 3314 50bc b89f 253c
00000230: 2e76 d1bc b4f4 9fbd e9c5 013e 915e 02be
00000240: 0086 5c3d a875 b2bd 6f9f 8a3d cedd e43c
00000250: b7fa 3bbd c8ac 77bc 33c6 2ebd f0a3 afbc
00000260: 091d c0bc 2dee eabc 83f0 a3bd a129 99bd
00000270: f59b efbd 0268 93bd 71bc ba3c 034d 803d
00000280: 5a85 d53d fce2 383c fedb e6bc 4726 043d
00000290: 0138 8dbd d54f bd3d f975 983b e180 173d
000002a0: e221 ec3d 9d25 9fbc c3db 7f3d 3185 debc
000002b0: 7f44 533d dc4a 32be 4343 21bd fd38 b3bd
000002c0: 9103 533c 4235 ad3d 4e56 7cbc 671a a33c
000002d0: 038c 06bd c97e 4fbc 77c2 24bc 5e91 1fbd
000002e0: 1087 643c 7dcc 2abd acaa b53d b7f3 24bd
000002f0: 1c1c 053d b62c 4e3d 601a b1bc 6adc 2dbd
00000300: 6b65 52bd 7470 2f3c d422 b53d 5ba1 85bd
00000310: 7fcd 603d 6580 053e 1e4b c23c e7a6 963c
00000320: b709 083d 5ceb 14bd 2247 e3bc 405a 73bd
00000330: beb4 953d 680a 373d 345c d93c 7d8d d9bd
00000340: 5081 0d3d 8cbf 13be 4086 113e 10bb f1bc
00000350: 3971 a1bc 3b6e ba3d 6a80 083e 6d16 213d
00000360: 4112 dc3b 6425 2e3b baa7 6bbd 802a 333d
00000370: 96be 56bd a825 1bbd 4550 ed3c b581 183d
00000380: 93dc a9bd 7fda a1bc ce1c c0bd 6059 7f3d
00000390: 87d2 423c 1462 37bc 3212 78ba 62c9 9d3d
000003a0: 00ae 983d 806d 27bd 50ea 19bd 5b47 773c
000003b0: f7bd 50bd 4c7e 2dbd 5a55 37bd b514 6bba
000003c0: 134c 903c b7c3 87bd 1717 823d afa8 ed3b
000003d0: bc05 823c 8b7a af3b 16c6 a0bc 3079 acbc
000003e0: ad07 11bd 2b7b 2a3d 9af7 49be 38ce b0bd
000003f0: 3ead 233d 0a0f 65bd bee7 15bd 3f04 b9bd
-0.024339218 0.008381106 -0.05403672 0.0577188 -0.09001827 -0.06308999 -0.11599509 0.022117035
0.024173025 0.057269394 -0.019170906 0.045391098 0.00728196 -0.01412521 -0.047745857 -0.016140126
0.040623944 -0.08946836 -0.10593134 0.016201053 0.08701368 -0.023621153 -0.0056993295 -0.0009515562
-0.027469013 0.019453112 -0.06451309 0.009096425 -0.047501024 0.017844345 -0.05841185 -0.018886963
0.055587266 0.06021769 -0.063158214 -0.036529113 0.010549384 0.01071842 0.03541007 -0.007471255
0.03137439 -0.011127703 0.022957021 0.036484595 0.009749066 0.025616322 0.014499417 -0.047285076
-0.0055473316 0.0012612115 -0.0036480355 -0.0640303 -0.040023863 -0.09368492 -0.030190691 0.023814397
-0.02788523 -0.10737839 -0.067770585 0.0938303 0.066696085 -0.004993553 -0.031917736 0.02026218
-0.090484016 0.056376446 0.035059795 0.016984528 -0.016644314 -0.025484398 0.008174242 -0.057644047
-0.032992918 -0.090394564 -0.14110096 -0.13188139 0.008932879 -0.09352961 -0.030389158 0.014928386
-0.00739537 0.038094938 0.02922362 -0.027628979 -0.032475673 -0.03118148 -0.0147217065 -0.09611833
0.03407587 -0.07177633 0.02945397 -0.026484454 -0.07644129 0.02667517 -0.16307858 -0.08523627
-0.074783534 0.019807324 0.0023228396 -0.006585797 -0.008783025 -0.10985295 -0.035712246 -0.009530202
-0.061999183 -0.0059318426 0.010562047 -0.028503869 -0.05570671 -0.008863361 0.08064198 -0.07479968
-0.09485669 -0.04789049 -0.009671477 -0.036538336 -0.011509607 0.0081526 0.07600012 -0.010407706
-0.044528723 0.05464174 -0.02346041 0.009057046 -0.0155443065 -0.035301756 -0.105739675 -0.015955657
0.08084707 0.055382743 -0.08723046 0.04189029 -0.06447062 -0.04681259 -0.04876439 -0.040480256
0.038934007 0.075184904 -0.012700128 0.010108881 -0.025569048 -0.07810345 0.12673153 -0.12731387
0.05383873 -0.087138474 0.06768691 0.027937796 -0.045893397 -0.015116878 -0.042669486 -0.021440476
-0.023451345 -0.028678024 -0.08004858 -0.07478643 -0.11699668 -0.07197572 0.022794934 0.06264689
0.104258254 0.011284586 -0.028181072 0.032263067 -0.068954475 0.092437424 0.0046527353 0.036988143
0.115299 -0.019427115 0.06246544 -0.02716312 0.051578995 -0.17411369 -0.039370786 -0.08751104
0.012879268 0.08457424 -0.015401436 0.01991005 -0.03284837 -0.012664505 -0.01005613 -0.038956992
0.013948217 -0.04169892 0.08870444 -0.040271487 0.03249751 0.05033561 -0.021619022 -0.04244653
-0.05136625 0.010707963 0.088445336 -0.06524917 0.054883476 0.1303726 0.02371746 0.018390132
0.03321239 -0.03635727 -0.02774388 -0.05941224 0.073098645 0.04468766 0.026533224 -0.1062269
0.03454715 -0.14428538 0.14211369 -0.029508144 -0.01970731 0.09103056 0.13330236 0.039328028
0.006716043 0.002657258 -0.057533003 0.043741703 -0.05242785 -0.03787771 0.02896894 0.037233073
-0.08294024 -0.019757507 -0.09380494 0.062341094 0.011891014 -0.011192817 -0.00094631605 0.07704426
0.07455063 -0.04087591 -0.037576973 0.015092696 -0.050962415 -0.042356774 -0.044759132 -0.0008967624
0.0176144 -0.066291265 0.0635206 0.0072527747 0.015871875 0.0053551844 -0.019625705 -0.02105388
-0.03540771 0.04162137 -0.19723359 -0.08633083 0.03996014 -0.055922545 -0.03659796 -0.09034013

bias f4 [64]
00000000: 6ba2 05bd 7567 afbc 4302 8cbd 3902 15bc
00000010: 018b 48bd ff12 f1bd 8f37 c53c 5c60 b83b
00000020: 128d 72bc a058 143b 45ac 72bc 8184 193d
00000030: 2cbb 55bc b04a 02bc fb72 8f3c 930b 353c
00000040: aaac b5bd 7980 9c3d 78ee 5d3c 27c4 28bd
00000050: d0f2 743b c945 ad3d a8a0 26bd a8c2 0c3b
00000060: cc39 893b 74e1 3e3d f200 8dbd bbf6 50bd
00000070: b57a 6fbd 40cb debc 2355 91bc 7675 fc3c
00000080: 7ad9 28bc 4f57 82bc e644 03bd 7742 68bd
00000090: d3b4 79bd 7fbc 703a 58ae 233a 907d f4bc
000000a0: 3645 91bc f6d5 873d d17a 413d dbc7 a2bb
000000b0: 49a4 c23b d00d 8b3c 9b11 5fbd 5a16 94bc
000000c0: 4604 7ebd cfc3 093d 3901 54bd 7d80 c63b
000000d0: 8a49 6a3d b2e0 65bd 9c4b b4bd 5ee9 63bc
000000e0: 7e11 eebb 24fc 2bbe 7894 5fbd 03aa f73c
000000f0: f2b7 30bd cb01 08bd 0d81 5fbd cabc 813b
-0.032625597 -0.021411637 -0.06836369 -0.009094768 -0.04896069 -0.11771201 0.024074344 0.0056267213
-0.014804142 0.0022635832 -0.01481158 0.03747988 -0.0130451135 -0.007952377 0.017510882 0.011050123
-0.08870824 0.07641692 0.013545625 -0.04120269 0.0037376173 0.08460576 -0.040680557 0.002147833
0.004187798 0.046601728 -0.06884946 -0.05101655 -0.058466632 -0.027196527 -0.017740792 0.030817728
-0.010305757 -0.015910773 -0.03204813 -0.05670401 -0.060963463 0.00091833615 0.0006243936 -0.02984503
-0.017733198 0.06632607 0.047236267 -0.0049676723 0.0059399945 0.01697436 -0.05446015 -0.018077064
-0.062015794 0.033634003 -0.05175898 0.0060577975 0.05719904 -0.05612249 -0.08803484 -0.01391062
-0.007265269 -0.16795403 -0.05458495 0.030232435 -0.043144174 -0.033204835 -0.05456643 0.003959273

weight f4 [12, 64, 3, 3]
00000000: 1ac0 93bc 1c93 c73b 7424 fa3c bede e7bc
00000010: b2ac 7d3c 56c9 003c c058 08bd 72b8 c7ba
00000020: 5cf1 be3a e55b 95bd 27cf c23c 0eeb b43c
00000030: e176 5ebd c8cf 3d3d 70a5 cb3a 0ea8 de3c
00000040: 74fd c13a 9624 5cbc e018 413c 0e98 1ebb
00000050: f81f 69bd bed7 80bc 3387 e53d 1c2f da3b
00000060: 675c f5ba 26ea 2e3c c7ec 28bc 4f70 da3d
00000070: f6e6 b5bc fa70 913d ffba 363e ddc5 dbbc
00000080: 9a6a 5f3e bfe2 1bbd 598d b7bc 7df4 0b3f
00000090: 1c4c f6b9 ba29 bb3b 6759 813b d8d1 123c
000000a0: 6563 30bc 8420 e0bc 3cdb 5e3c 0b8b a83b
000000b0: cef7 5b3b 4c02 d73b 3ccd 2ebc 6ee5 473b
000000c0: f1b4 00bd 2782 b93d e8ca b53b f8c8 8d3c
000000d0: 8c27 1bbd a8b1 b5bc ed96 113b 40fb 0f3d
000000e0: 1e1a cbbb 7938 b8bd dc5f 41be 24fb 60bd
000000f0: a269 203e a746 b53d 046b ebbc 50bc e8bc
00000100: cc42 3c3d 5641 87bc 6a71 a9bb c1a6 b63d
00000110: 478f d23c 8f09 0ebd 8673 2e3d 73af 27bd
00000120: 5ec5 a3bc 1faa 053c f53b 03bd 617b c33d
00000130: 923e 803c 871a 63bd e9e6 c83d 7e71 13bd
00000140: 41c4 0ebd c45b 67bc cc72 69bd b1aa 43bc
00000150: 60a5 69bd a0b0 473d bb7c c7bc 7d3b cd3c
00000160: 2cd0 573d 779a 8e3d 576f bd3b f4af 9cbb
00000170: 209e 56bd 8eee 9d3a d441 49bd 1fdf 003c
00000180: 4308 b43c 2216 2a3d 34d7 e43c c828 27bc
00000190: 7768 4f3b ae15 623c 29bf 903b c05a e5bc
000001a0: b74d 3b3d e934 b73a 2f2c 033c 34e2 83bb
000001b0: 5ddc 07bb c534 44bd 3e19 26bd 5e7a af3c
000001c0: 0a08 a9ba 24fd a43c 9826 673c 084a 703d
000001d0: fe45 d5bc 01f1 b93d b946 f03c 6b56 663c
000001e0: 2373 203d d01a 323d 567e 57bd 2f13 07bc
000001f0: 9d01 3dbd 013c c8bd 0e3c a1bd edd1 e53a
00000200: 86bf 123d 69f1 81bd a136 97bb 4cab ba3d
00000210: f97e 09bc b1d6 373d 01f5 d43c 5ee9 cabc
00000220: 7d97 433d 8103 81bc bf52 32bd 6abf 27bc
00000230: 90d3 a7bc f079 ca3c e1ae b73c d0b2 c43c
00000240: 652b fbbc 86c8 6d3d 32b6 8f3d 789a e63a
00000250: 3ba0 423e 1101 38be 622f a33d 3f8c 113e
00000260: e81b dabd 3972 1d3d 54dc 38bc 19d3 f73c
00000270: 1ac9 87bc 401d 28bd 15f6 b0bd 77d5 053b
00000280: 1e27 c6bd 3f8b cdbd 9c00 74bb 569d 6f3c
00000290: 0921 853d 1e15 8bbc 22e4 853c bc38 543c
000002a0: 3755 b2bd c434 02bc 36f9 4f3b 9c39 a8bd
000002b0: 1393 16bd bdad a73a c141 853d 7718 ba3d
000002c0: cc53 20bd cb81 583d 4d75 90bb c2bb e43b
000002d0: 3734 1c3c 8533 713d cf7c a4bc 2307 f0bc
000002e0: 2d7a 64bd 6a27 303d be39 d0bc db9c 803c
000002f0: 354d 5339 ac5f 2b3d c343 81bc 595d a2bc
00000300: 1b9d 723d b448 3fbc 3d73 febc f3ec 0d3c
00000310: 4ec5 82bc 2191 243b 09a8 9d3c 29fa 81bc
00000320: dfca 9e3b 7b2f 303c bd45 553b bfbd 44bd
00000330: f628 883c 12cb c33c 0180 77bb cdb9 3e3c
00000340: 353e fabc e213 12bc 5383 993b ac4c 813d
00000350: 45f7 7bbc b146 9bbc 22ee 663b 117a 2c3c
00000360: 3a0c 6b3d 7da1 81bc 91ef 94bd 2f64 b03d
00000370: 72ee bb3c 55a6 a6bd 4d93 a9bb 882a be3b
00000380: 5358 5bbd 8c4b dd3b 3112 2ebd 607e 07bd
00000390: 074e 393d 6036 00bd 08a2 cc3d 4e47 a4bb
000003a0: 9c8b a5bc a520 ec3b 705c 033d f74a 383c
000003b0: 4890 4b3c a10f 07bb e5ef a8bd d4fb 8dbd
000003c0: a99b 5c3d 666c 803d 4a49 67ba a418 b4bd
000003d0: 7b8f 673d 4059 97bc 6b08 fbbb c249 063e
000003e0: 432e ac3c 1311 46bd 9d12 84bc d870 01bd
000003f0: 53b7 b2bb 2eef 9d3c 41d8 5e3d 77bc 44bd
-0.018035937 0.006090535 0.03053496 -0.028304454 0.015483068 0.007860502 -0.033287764 -0.0015237464
0.001456778 -0.07292918 0.023780419 0.022084739 -0.05431259 0.046340734 0.0015536975 0.027179744
0.0014800266 -0.013436457 0.011785716 -0.0024199518 -0.056915253 -0.015727874 0.11207428 0.006658448
-0.0018719555 0.0106759425 -0.010310358 0.106659524 -0.022204857 0.07101627 0.17844771 -0.026827747
0.21818009 -0.03805804 -0.022406267 0.54669935 -0.00046977482 0.0057117613 0.003947425 0.008961163
-0.010765885 -0.027359255 0.013602074 0.0051435283 0.003356445 0.006561553 -0.010669049 0.003050174
-0.03142256 0.09058028 0.00554787 0.017307743 -0.03787951 -0.02217944 0.0022215203 0.03515172
-0.006198182 -0.08995146 -0.18884224 -0.054927006 0.15665296 0.088513665 -0.028737552 -0.028410107
0.04596214 -0.016510647 -0.0051709907 0.089185245 0.025703086 -0.034677085 0.04259064 -0.040938806
-0.019991573 0.008158236 -0.0320396 0.09545017 0.015654836 -0.05544522 0.098096676 -0.035996906
-0.03485513 -0.014121 -0.056994244 -0.0119425515 -0.05704248 0.048752427 -0.024351468 0.02505278
0.052688763 0.069630556 0.005781095 -0.0047817174 -0.052396894 0.0012049244 -0.049135044 0.007865696
0.021976596 0.041525014 0.027934648 -0.010202594 0.003164796 0.013799114 0.0044173193 -0.027997375
0.04572841 0.001397756 0.00800614 -0.0040247682 -0.0020730712 -0.047901887 -0.040551417 0.021420654
-0.0012896073 0.020140238 0.014108323 0.05866435 -0.026034351 0.09079171 0.029330598 0.01405869
0.039172303 0.0434826 -0.052610718 -0.00824432 -0.046144117 -0.0977707 -0.07872783 0.0017533876
0.035827182 -0.063448735 -0.0046146666 0.091147035 -0.008392089 0.04488248 0.025995733 -0.024769481
0.047751892 -0.015748741 -0.043535944 -0.010238508 -0.020486623 0.024716347 0.022422256 0.024011046
-0.03066034 0.058052562 0.07017173 0.0017593643 0.19006436 -0.17969157 0.07968022 0.14213656
-0.10649854 0.03843901 -0.011282999 0.030252026 -0.016575385 -0.04104352 -0.086406864 0.0020421424
-0.0967543 -0.10036325 -0.0037231809 0.014624914 0.065004416 -0.016977843 0.016344134 0.01295298
-0.0870766 -0.007947151 0.0031734235 -0.08214113 -0.036761355 0.0012792867 0.06506682 0.090866975
-0.039142415 0.052858155 -0.0044085146 0.0069803903 0.009533933 0.058887023 -0.020079045 -0.029300278
-0.05578058 0.04300634 -0.025418159 0.015699795 0.0002015129 0.041839287 -0.015779382 -0.019819902
0.05923186 -0.011675049 -0.03106081 0.00866245 -0.015963223 0.0025110918 0.019245164 -0.015866356
0.0048459615 0.010753508 0.0032542788 -0.04803252 0.016621094 0.023900542 -0.0037765505 0.011640978
-0.03054724 -0.008915873 0.0046848445 0.06313452 -0.015378778 -0.018954607 0.0035237153 0.01052715
0.057384707 -0.015824074 -0.07272256 0.086128585 0.022940848 -0.08137194 -0.0051750303 0.00580341
-0.05355103 0.0067533907 -0.042497817 -0.033079505 0.04524043 -0.031301856 0.099918425 -0.005013383
-0.020208173 0.00720604 0.032070577 0.011248342 0.012424536 -0.002060868 -0.08248881 -0.06932798
0.053859387 0.06270675 -0.00088228716 -0.08793762 0.056533318 -0.018475175 -0.0076609156 0.13114074
0.021018153 -0.048356127 -0.016122157 -0.031601757 -0.005453983 0.019279089 0.054405455 -0.048031297

bias f4 [12]
00000000: 217c 563c 6a24 543c 6839 fa3b 9a58 883b
00000010: 3d51 b3bb 83a5 513c ecb9 1c3c c0fa 883c
00000020: 1df7 e736 5d3f a43b 57f1 563c d5cd 863b
0.013091118 0.012948135 0.007636238 0.0041609528 -0.005472331 0.012795809 0.009565812 0.01672113
6.9131042e-06 0.0050124363 0.013119063 0.0041138926
