train_weight_sr3/model_epoch_9.pth (torch_old, 667646 bytes, 10 tensors)

weight f4 [12, 3, 13, 13]
00000000: d6b2 793c a0f7 a6bd 7529 7f3d 4021 8f3c
00000010: 11f2 15bd 7877 4cbd 84a0 813d 1fb4 993d
00000020: 73d6 02be 55d5 c63d 7c47 86bc d10f fc3c
00000030: 81c7 c1bb bf80 473c 383d bcbd 5641 09bd
00000040: 5601 26bd bcb2 cc3d 48db 473d 0f63 553d
00000050: d4de a0bd f608 01bd cba6 1cbd 08e0 43bb
00000060: 0f5b e33c 3dd7 38bb 41f6 2ebd 50e0 7abd
00000070: 0bb7 a83d d79e 5b3d d51c e6bc 3cd0 72bd
00000080: 1b65 683d ebc3 95bc 6a6d bebc 67f5 883d
00000090: 7a08 bd3c ec37 1ebd 397e 623c 2b37 a6bb
000000a0: 4263 0cbe 387a 67bd 1eb2 a23b 7775 393d
000000b0: b44d 943d ddc7 05bd ed9d e1bd bd47 d33a
000000c0: 590c 88bd da3a 643d 96b6 863d 40eb 92bd
000000d0: 0201 93bd 9df4 d8bb 986a 3bbe c081 63be
000000e0: c642 70be 8f65 a8bd c087 18be 4acd 24bd
000000f0: d03d 343d 9142 3a3d 1202 3c3c edf4 1e3c
00000100: 8925 be3d 7ed7 8a3d 60b5 913d 4028 f43d
00000110: 487c 7a3c c4c6 c3bc b752 b13d 7b2a 9bbd
00000120: 3bde 293d a3e8 10be a26e 3dbe b65f debd
00000130: 802b 04be 7e85 04be aba3 85bd f894 733d
00000140: e38b c4bd 6127 4a3c 6690 c1bb 88c1 d13d
00000150: 0f90 f73d 30a3 d33d 65b3 f93d f9f9 c43d
00000160: 4d36 343e 428e 893d afb9 d93c 0f24 54bc
00000170: b504 1abe 7a92 0bbe 91bc d5bd 8a99 93be
00000180: 0f08 50be f56e 81bd d042 5ebd 2179 cfbc
00000190: 5a8f 10bd ef47 a63d 07ff a3bc 3109 873d
000001a0: 9d7a 4bbd 9756 4ebd 1f8a 54bc eac4 dabd
000001b0: e874 87bd bd58 1fbe 5646 8ebd b773 4c3d
000001c0: 33cb 23be 4e30 8abd ab57 a2be 1ad7 3fbe
000001d0: 5d65 81be f8e0 ba3d 6428 d5bd 2f2d 703d
000001e0: 4579 56bd b0aa 65be 89fd 50bd d7c8 79bd
000001f0: 7df5 97bd bb4d 96bc 7b84 6ebd 804e 14bd
00000200: dc89 9fbd 9740 a7bc 9bd3 b7bd 497d 89bd
00000210: 4a82 1ebd b352 903d 3147 b1bd c45f 813b
00000220: bb82 edbd fe84 c53c 7ec7 adbd 9f25 043d
00000230: f4bb deba cb34 4d3d cbc7 3bbc 6560 3d3b
00000240: 1190 8b39 d30f 1dbd e31e 05be c739 7cbd
00000250: 1c1b 133d e5c1 e83c 6060 1e3d d314 e0bd
00000260: c576 6dbb f43d b9bc 2595 b13b 50f8 57bd
00000270: 4cdd afbd 4ebb 12bd baa0 f5bd f2c9 babd
00000280: 8b56 a83c 140d a7bd 1cf3 06be 6c16 9c3c
00000290: 9ca9 67bd f8f2 373b ce6f cbba c369 9bbd
000002a0: 1cec 1a3d a246 5fbc 9e9b cabb bf90 46bc
000002b0: 4893 d53c dfe5 8dbc dc96 8f3d f49d 58bd
000002c0: a85f 5c3d c59b fabc a284 b3bd 651c b9bd
000002d0: 6e2b 813b 7840 313c 3ce0 8b3d 185f 5fbd
000002e0: d10c 0a3e 80f9 e9bc cff7 793c 1aca 87bd
000002f0: 8bca 1fbd 6bf4 90bd ed11 8d3c cd6f 19bb
00000300: e2e2 223d 83dd e5bd 4b07 08bd 1464 2cbd
00000310: 5658 043e 8636 92bd f292 01be d0de a0bd
00000320: a561 ae3d 99ae 22bc 4b66 653d 30b8 143d
00000330: 2fcb 07bd fdea 2bbd 5a1c 23bc 4fbb 90bc
00000340: e334 413d 6509 0b3d 78a3 c33d 6552 143e
00000350: c3bc 4b3d 3766 963c 5b29 eb3c 49fc 773d
00000360: bd97 cc3c 2301 393d a2e3 05be c889 4abe
00000370: b59e 193d e0b0 de3d 139e d9bd 5307 54be
00000380: 06c4 2cbe 9812 06be 6aca a6bd 0645 1dbe
00000390: 5049 1f3d 2db1 493c 4b58 2b3d 80d7 dfbd
000003a0: 8f7d 393d a925 c33d 3c4b fdbc bfa3 e83d
000003b0: 647c 96bc bab9 a73d 23e3 57bd 5b45 193a
000003c0: cf21 41bd 777d 6abd 4363 d4bd 410f 7ebd
000003d0: 74ca ffbd c6ed cfbd a359 ceba 4bf9 f3bd
000003e0: fb00 23be e394 debd 4b6d 7f3d 65f6 223d
000003f0: d083 0b3d c998 63bd 643f 183c 5541 013e
0.015240392 -0.081526995 0.062295396 0.01747191 -0.036607806 -0.04991862 0.06329444 0.075050585
-0.12777118 0.097086586 -0.016391508 0.03076926 -0.0059136753 0.012176692 -0.09191364 -0.033509575
-0.040528618 0.099950284 0.048793107 0.052096423 -0.07855001 -0.031502686 -0.038245004 -0.0029888172
0.027753381 -0.0028204464 -0.042715315 -0.061249077 0.08238038 0.05361828 -0.02808992 -0.05928062
0.056737047 -0.018281898 -0.023245532 0.06687432 0.023075331 -0.03862755 0.013824039 -0.0050724945
-0.13709739 -0.05651304 0.004965081 0.04527804 0.07241383 -0.032661308 -0.1101645 0.0016119402
-0.0664298 0.055720188 0.06577794 -0.071737766 -0.071779266 -0.006620957 -0.18302381 -0.22217464
-0.23462972 -0.08222496 -0.14895535 -0.04023484 0.04400426 0.04547364 0.011475103 0.00970195
0.09284503 0.06779383 0.07114673 0.119217396 0.01528842 -0.02389849 0.08658355 -0.07576462
0.0414717 -0.14151244 -0.18499234 -0.10858099 -0.12907219 -0.12941548 -0.06525358 0.05946824
-0.09596994 0.01233849 -0.005907106 0.10241991 0.12088024 0.1033386 0.1219242 0.09617991
0.17598839 0.06716587 0.026577799 -0.01294805 -0.15040858 -0.13630095 -0.10436357 -0.28828079
-0.20315574 -0.063199915 -0.054262936 -0.025326313 -0.03529296 0.08119189 -0.020019067 0.0659355
-0.04967748 -0.050375547 -0.012972384 -0.106820896 -0.06614095 -0.15561195 -0.06947009 0.04991504
-0.15995483 -0.06747495 -0.3170751 -0.18734398 -0.25272647 0.09124941 -0.104080945 0.05863684
-0.052361745 -0.22428393 -0.05102304 -0.06098255 -0.0741987 -0.018347612 -0.058231812 -0.036207676
-0.077899665 -0.020416541 -0.089759074 -0.06713349 -0.038698472 0.070470236 -0.08656157 0.0039481837
-0.115972005 0.024111267 -0.08485316 0.03226244 -0.001699327 0.050099175 -0.011461209 0.0028896567
0.00026619484 -0.03834517 -0.13000064 -0.06157854 0.035914525 0.028412769 0.03866613 -0.10941472
-0.0036234122 -0.02261255 0.0054193907 -0.052727044 -0.08587131 -0.03582316 -0.11993547 -0.09120549
0.02054908 -0.08156791 -0.13178676 0.01905366 -0.056558236 0.0028068405 -0.0015520991 -0.07588532
0.037822828 -0.01362768 -0.006183102 -0.012119471 0.026071206 -0.017321525 0.07011196 -0.05288501
0.053802162 -0.030591855 -0.08765532 -0.09038619 0.003941945 0.010818593 0.06829879 -0.054534048
0.13481452 -0.028561354 0.015256836 -0.06630345 -0.03901152 -0.07077869 0.017220462 -0.0023412586
0.039767154 -0.11223891 -0.03321008 -0.04208763 0.12924322 -0.07139306 -0.12653711 -0.07854998
0.08514718 -0.009929323 0.056005757 0.036308467 -0.033152755 -0.04197215 -0.00995549 -0.01766744
0.047169577 0.033944506 0.095526636 0.14484556 0.049740564 0.018359287 0.028706243 0.060543332
0.024974698 0.0451671 -0.13075116 -0.19779122 0.03750487 0.1087358 -0.106258534 -0.20705919
-0.16871652 -0.1309303 -0.08144076 -0.15358362 0.038888276 0.012310308 0.04183225 -0.10929775
0.045285758 0.095286675 -0.030919664 0.11359357 -0.018369861 0.081897214 -0.05270685 0.00058468216
-0.047151383 -0.05724856 -0.10370495 -0.062026266 -0.12489787 -0.101527736 -0.0015743267 -0.11912783
-0.15918343 -0.10868242 0.06236009 0.03978576 0.034061253 -0.05556563 0.009292457 0.12622578

weight f4 [64, 12, 7, 7]
00000000: 13cb 3d3d 3240 8ebd 9f55 03bc 6cbd 6a3c
00000010: a4dd 0abd a3b6 8b3c 719b c3bd 1a6c 3a3c
00000020: 181b 22bc 8c2c a13b 5601 2d3c fd6a 853d
00000030: 37d1 26bc b271 193d 126e 913b b06c 4fbd
00000040: fa60 383a 5823 91bd 0a2a bfbd f44a 283d
00000050: 4b8f a9ba ac22 adbd 98d1 1cbd 51c3 46bd
00000060: 4d03 843d ad70 c4bc 2901 313d 94d6 f2bd
00000070: 621f 85bc 3ccd 45bc a89a 1a3d 130f 82bc
00000080: 60c3 f2bc daac a13d 974f 773b 18a1 523d
00000090: 64cf 41bc d82e b7bc 3748 55bc 85c0 0dbc
000000a0: 1fda 8e3d ac9d 30be b1d0 d3bb 31cf 81bd
000000b0: f166 64bd 1c2a 52bd 9f82 e03c 173f 503d
000000c0: 21b1 50bd 6c7a 03bd 81dc 42bd be4e 1abd
000000d0: 9706 4e3e 3623 78bd c27f 1dbd 2b9f 83bd
000000e0: acbd 5f3d 6d46 25bd 9574 943d c8d2 8dbd
000000f0: 16fd b2bd 9ef2 63be 71a9 ebbc 4626 59bd
00000100: 6db5 71bd 6316 16be f932 0dbe 2e00 33be
00000110: 6d59 2fbc 9ed1 66bd 293a 803d 26f9 f43c
00000120: 9807 70bd 8889 65bc e5db 2dbe cce5 e6b9
00000130: 8ccd 64be 61af 45be ab48 31be fb35 95bd
00000140: d04d 67be d47a a43b 25d5 92bd 7fc6 b23d
00000150: 9542 da3c 7e76 60bd a24c 99bd c8a4 2fbe
00000160: a97d 7bbd 62c3 95be 527e 2a3d e311 36bd
00000170: cbfe eabd 4c55 1cbe fe1c 01bd 011e f5bd
00000180: c9a9 aa3d 079d 23be 7224 30bc 07aa 42bb
00000190: 5d14 df3c 0e71 4bbd 2b34 8fba 365d 8c3c
000001a0: e9a7 d9bc f19a 923d f2a4 e5bd 00a5 02be
000001b0: c515 ffbd e4b1 74bc e389 403c d741 fcba
000001c0: 7e0c c63c 25f6 e7bd 6efb e6bd 809b 18be
000001d0: f8a3 12bd 0f31 ad3d b001 27bd b4e1 a93b
000001e0: 6367 0fbd 9d86 20bd 87be 9ebd 440e c1bd
000001f0: 6f40 a53c fcb5 f9bd be0e e3bd 3fae dbbd
00000200: 31b1 31bd 624b 893b 016a 1a3c 6a98 093e
00000210: 6c43 283c 1f66 a5bd c1b4 e1bd 353d 24be
00000220: 3e79 1bbd 3714 0abc b0ab ff3d 9194 5dbd
00000230: f1e9 17bd 6e97 603d ead3 1ebe 8c6f 903d
00000240: b75c 87bd 3797 e53d bf8c 48bd 6252 b5bd
00000250: 2496 e3bb 7616 f43d ec23 36bd 6ebb 793b
00000260: ae02 70bd 73f3 ad3c cb27 c03c 4360 26bd
00000270: b9cb fa3a 208b 2bbc b787 723d a6b4 013d
00000280: 2169 4cbd 7299 cbbc b054 263c eb89 883d
00000290: d585 513d c540 59bd 1355 743d 9d02 d53d
000002a0: 5cbc a93d 7b83 be3d d100 edbc 39ff 2bbb
000002b0: 36d2 80bd fdfb b8bc d61b c5bd c2ef ea3c
000002c0: cdaf 383d 2194 b6bc eec8 9c3c 06de d8bc
000002d0: 4442 b4bc 3e63 88bc 80f0 13be fe29 e3bd
000002e0: 005c f73d a277 e23c 4517 e1bc 4ca9 19bd
000002f0: a253 593c c57b cebd 01ba 8cbd fabe 0c3d
00000300: c444 433e 0c71 8abd cb94 c83d af89 f73d
00000310: cf28 69bd d578 b2bc 9cfd 6e3e 9606 c53c
00000320: a4eb 21be c61c 98bd 6d77 ea3c c1b8 453d
00000330: dbe2 d3bd ac69 a1bd 1619 32be 0d12 98bd
00000340: 2bae 143c d9be 42bb 35aa b93d 4067 92bc
00000350: a88a 98bd 4015 1abe 68fa 85bd f735 fa3d
00000360: 2240 89be 23af 0ebd 7f45 e7ba 6552 b3bd
00000370: 866a 1cbd f6ec 06be a9f6 71bc 0f6a 95be
00000380: 4be5 103d 20c8 adbd 3cbd 04be f47c 5bbd
00000390: 25d6 ccbd 6791 ac3c 3b19 d5bc 8c51 413d
000003a0: f64a 4a3d adfd 553d 71df 543c 4084 d83b
000003b0: 5e63 613d d69c 85be 0dd9 9bbd f454 a13c
000003c0: 7feb 5ebd 608a 9cbc 13a4 473d 4167 463d
000003d0: 402b dd3d a5ca d13d 73d8 863d 0afe 603d
000003e0: f32d 8bbd f3c4 283d 6792 68bd ca82 843d
000003f0: d57d 853d 4857 c93c 2dae 50bd 51b6 abbd
0.046336245 -0.06945838 -0.008016019 0.014327388 -0.03390278 0.017054861 -0.095511325 0.0113783125
-0.009894155 0.0049186405 0.010559401 0.06514547 -0.010181717 0.037461944 0.00443817 -0.05064076
0.00070334936 -0.070868194 -0.0933419 0.041087106 -0.0012936381 -0.08453879 -0.03828582 -0.048526112
0.06445942 -0.02397951 0.043213997 -0.11857334 -0.016250316 -0.0120728575 0.037745148 -0.015876329
-0.029634178 0.07894297 0.0037736648 0.051423162 -0.011829231 -0.022361204 -0.013017706 -0.008651857
0.06975197 -0.17247647 -0.006464087 -0.06338347 -0.055762235 -0.05130969 0.027406035 0.050841417
-0.050950173 -0.032099172 -0.04757357 -0.03767275 0.20119701 -0.060580455 -0.038451917 -0.06426843
0.054624245 -0.040350366 0.07248799 -0.06924969 -0.087396786 -0.2226052 -0.02876732 -0.053015016
-0.05901091 -0.14656977 -0.13788976 -0.17480537 -0.010702473 -0.05635225 0.06261093 0.02990396
-0.058600992 -0.014009841 -0.16978414 -0.0004404023 -0.22344035 -0.19305183 -0.17312877 -0.072856866
-0.22588277 0.005019525 -0.0716956 0.087292664 0.026643077 -0.054800503 -0.0748532 -0.17152703
-0.061399136 -0.29250628 0.041624375 -0.04445065 -0.11474379 -0.15266913 -0.03152179 -0.119686134
0.08333165 -0.1597787 -0.010750877 -0.0029703395 0.02723139 -0.049668364 -0.0010925581 0.01713429
-0.026569324 0.07158459 -0.112131014 -0.12758255 -0.12455324 -0.014934991 0.011751625 -0.0019245696
0.024175879 -0.11326245 -0.11278425 -0.14903069 -0.035800904 0.08456623 -0.040773094 0.0051843766
-0.035010707 -0.039190877 -0.07751184 -0.09426549 0.020172326 -0.12192914 -0.11086796 -0.10726594
-0.043381874 0.0041898945 0.009424687 0.13437048 0.010269981 -0.08076119 -0.11020804 -0.16038974
-0.037957422 -0.008427671 0.12483919 -0.054096762 -0.03708834 0.054831915 -0.15510526 0.07052526
-0.06609481 0.112104826 -0.04896235 -0.08853604 -0.0069453884 0.119183466 -0.04446785 0.0038106102
-0.058596306 0.02123425 0.023456475 -0.040619146 0.00191342 -0.010470182 0.05921146 0.03166642
-0.049904946 -0.024853442 0.010152027 0.06666931 0.051153023 -0.053040285 0.059651446 0.10400889
0.0828788 0.09302422 -0.028931053 -0.0026244654 -0.062900946 -0.022581095 -0.0962445 0.028678779
0.04508953 -0.02228743 0.01913878 -0.026473057 -0.022004254 -0.016648885 -0.14447212 -0.11091994
0.120780945 0.027644936 -0.027476916 -0.03751497 0.0132645685 -0.10082201 -0.06871415 0.034361817
0.19069201 -0.06759843 0.09794005 0.12086808 -0.056923684 -0.021786133 0.23338932 0.024050992
-0.15812546 -0.07427363 0.0286214 0.0482719 -0.103460036 -0.078814834 -0.17392382 -0.07425318
0.009074728 -0.0029715805 0.090656675 -0.017871499 -0.074483216 -0.15047169 -0.06541902 0.12217324
-0.26806742 -0.034834992 -0.0017644613 -0.0875595 -0.038187526 -0.13176331 -0.014768281 -0.2918248
0.03537492 -0.084854364 -0.12962812 -0.05358596 -0.10001782 0.021065427 -0.026013007 0.04719691
0.049387895 0.052243877 0.012992726 0.0066075623 0.055026405 -0.2609622 -0.076097585 0.01969383
-0.054423805 -0.019108951 0.048740458 0.048438314 0.10799265 0.102437295 0.06584253 0.05492977
-0.067958735 0.04120345 -0.056780245 0.064702585 0.06518141 0.024577752 -0.050947357 -0.083843835

weight f4 [64, 64, 3, 3]
00000000: 3713 fb3c 4609 093d 8900 8a3e 055f 4abd
00000010: f843 babe 4147 863c d684 d8bc 9633 24be
00000020: 766e 0c3e fd13 9abc f954 043d 491f c73d
00000030: b8bb 5e3b 7077 8dbd d637 f63c 4d6c a63d
00000040: e689 a0bd 98c0 bfba 42e0 913e 98b5 803d
00000050: 1b27 bf3d 9dcf a4bd 4002 3e3e 9e75 ccbe
00000060: 02a7 d03c 8287 c7bc a967 d63d 5ef6 8b3d
00000070: 7258 66be 2827 423e 6029 60be 16eb 62be
00000080: 7842 b53d c51c 943e fce9 8bbd 6e47 f4be
00000090: 5c69 7abd 7444 003c b9c7 87bd de50 ba3d
000000a0: 7ed0 90bc 6109 39bd 753f cd3a 4223 33bd
000000b0: b723 3ebd 8df4 66bc ff2a 46bd 7aa6 fa3c
000000c0: 8262 91bd 2285 dfbc c602 cc3c bd37 96bc
000000d0: e010 b2bc b88b a03c 296d 573c 97fb 2b3d
000000e0: fab9 bcbd 6d3b e6bc efd8 0b3d f772 28bd
000000f0: d27a b93d 50fc 883c 4688 f4bd 205f 16bd
00000100: c7e3 f33b a7ea 54be 912c ebbd af1d 8abe
00000110: 2209 e43e 9fb8 7ebe 423c 06bc 3af7 30be
00000120: fcf1 523e da07 9b3d afac 0b3d 84b0 26bc
00000130: 4389 2a3f 3590 363f a4c5 cabd 9794 6c38
00000140: ef25 c1bd d06b daba 3811 50bd 955d 35be
00000150: 1b74 fdbc ec1f 80bd 99f9 39be f667 b0bd
00000160: bc73 2abb 64f8 ecbd 37b5 1b3b 5977 e43d
00000170: 7579 353d 3023 d63c 24e9 d63d 3693 e3bd
00000180: 7fa5 e73d 1da3 bd3d 48fe 04be 74bd 3f3d
00000190: 904c 95bd 1c15 95bd 3e40 cdbb 319e f3ba
000001a0: 4573 cc3c 466f 873d 5db2 8fbd efbe b8bc
000001b0: f205 ca3c 9175 673d b8f8 1e3d 77d0 ddbc
000001c0: faa7 06bd 5947 6abe 53eb b33c 443a 51bd
000001d0: 073b bd3d 7542 943c cf65 02be b3d1 18be
000001e0: 9581 e13b 6310 0ebe 3675 fbbd bcb4 903d
000001f0: 0dc1 bd3d 3be9 753e 0735 0d3d 46c1 43be
00000200: 3e65 6d3e 127f 813d e009 5fbe 2bc0 bc3e
00000210: 176f 5cbd 9b4c e33d 481b 6dbe 5b9f 80bd
00000220: bc4b 433d a4f2 d43d 21b1 7ebb 0ea2 eebc
00000230: 13ed b2bc 3178 d73c 1e31 bdbd 7f47 7b3c
00000240: 49e6 18bd 4cfb 36be 722c 88bd 1076 16bd
00000250: 421c ebbd 8844 943e 36b9 993d 1840 f6bc
00000260: 7ee5 2fbe d3de 6eba 58b1 09be 3d70 f1bb
00000270: 436e 7bbd aaeb 5ebd cd62 593d 7238 8fbd
00000280: cb18 4c3e a46f 99bd a5b4 ed3c 5113 36be
00000290: 7ac4 90be 4a49 1bbd c85f 89bc 13c6 05bd
000002a0: 4284 89bc 12d7 2ebb 1e3e 9abe 2fd6 0d3e
000002b0: 41e5 b73d 6d8c 5a3d 16cb 6f3e 411a 7fbe
000002c0: 9b10 bfbd e72b c2bd 3e10 e13c 418f 7bbd
000002d0: e1b0 ec3c 2655 e03c 0ecc 3abc 7541 863d
000002e0: a4c9 99bc 1d15 2d3b b5db e9bc 4b73 5e3d
000002f0: 3d83 0abc 224e c0be 4d6b 0dbe f538 bd3e
00000300: 0fd6 b7bd 87ec 7d3e 99d9 b93d d4ad edbd
00000310: 80a1 5cbc 88d7 22be 897e 1dbd be64 96bc
00000320: 9466 f2bc 23d5 fb3c abc5 433d f59f 363d
00000330: 8d5f 7dbd 348b b43b 36a2 c63d 369d 9b3d
00000340: e64f d6bc ffa8 1fbe b30e f3bc 1487 90bd
00000350: d403 4ebd 3834 503d 794d 993b 4b6f d63c
00000360: 47f4 c0bd 3efb d13d 734c 793d 039b 9ebd
00000370: 851e e93d 6874 f1be e2e1 9dbd 151f 533d
00000380: 3a07 43bd 8aa4 113d 6562 cfbb 9569 02bd
00000390: 8fcb 483d 3932 883d d806 f9bc 1531 b53d
000003a0: d833 e9bc 74c0 abbc 1b75 0cbd f0d4 d4ba
000003b0: 688d f1bb 945c afbc c267 66bd 04a9 c2bc
000003c0: c19a 9fbd c3c0 2bbd d241 b9bc 3e92 20bd
000003d0: a634 51be 9e41 bb3d 6f41 213d 0bd8 d83d
000003e0: ea26 c5be 0c9f 213d 344f fb3d 0943 3f3d
000003f0: aa42 99bd a279 d4bc 8fbb 953c 701d a3bd
0.03064881 0.03345611 0.26953533 -0.049407024 -0.3637998 0.016391398 -0.026430529 -0.16035303
0.13714013 -0.01880836 0.0323076 0.09722764 0.00339864 -0.069075465 0.030055922 0.081261255
-0.07838802 -0.0014629541 0.28491408 0.06284636 0.09333631 -0.080474116 0.18555546 -0.39933485
0.02547026 -0.024356607 0.1046899 0.068341 -0.22494677 0.1896025 -0.21890783 -0.2215999
0.088505685 0.289282 -0.06831738 -0.47710747 -0.061135635 0.0078288205 -0.06629891 0.090974554
-0.017677542 -0.04517496 0.001565917 -0.043734796 -0.04642078 -0.014096391 -0.048380848 0.03059696
-0.07098867 -0.027285162 0.024903666 -0.018337125 -0.021736562 0.019597873 0.013148584 0.04198798
-0.0921516 -0.028104508 0.03414243 -0.041125264 0.09056629 0.016721874 -0.119400546 -0.036711812
0.0074429247 -0.20792638 -0.1148311 -0.26975772 0.44538218 -0.24875115 -0.0081930775 -0.1728181
0.20600122 0.07569857 0.03410023 -0.010173921 0.66615695 0.7131379 -0.09900978 5.640517e-05
-0.094310634 -0.0016664211 -0.05079767 -0.1771148 -0.030939152 -0.062560886 -0.1816162 -0.08613579
-0.0026008924 -0.11570814 0.0023759136 0.11155576 0.044305284 0.026139826 0.10493687 -0.11112063
0.11310863 0.09259627 -0.12987626 0.046811536 -0.07289994 -0.07279417 -0.006263762 -0.0018586573
0.024957309 0.066130206 -0.07016442 -0.022551982 0.024661038 0.056508604 0.038811415 -0.027076943
-0.03287504 -0.2287878 0.021962797 -0.051080957 0.09239774 0.018098095 -0.1273415 -0.14923744
0.0068819025 -0.13873439 -0.122782156 0.07065722 0.09265337 0.24014752 0.0344744 -0.19116697
0.23183152 0.06323065 -0.21781111 0.36865363 -0.05381688 0.11098596 -0.23154938 -0.06280395
0.047679648 0.103978425 -0.0038862901 -0.029130008 -0.021841561 0.026302429 -0.09237884 0.01533687
-0.037328992 -0.178693 -0.06649102 -0.036733687 -0.11479999 0.28958535 0.07506029 -0.03005986
-0.17177388 -0.0009112183 -0.13446558 -0.007368116 -0.06138445 -0.054423966 0.05307274 -0.06993188
0.19931333 -0.07491997 0.029016802 -0.17780806 -0.282749 -0.03791169 -0.016769305 -0.0326596
-0.016786698 -0.0026678485 -0.30125517 0.13851236 0.089792736 0.053356577 0.23417315 -0.24912359
-0.09329339 -0.0948103 0.027473565 -0.061415914 0.028892936 0.027384352 -0.0114011895 0.06555454
-0.018772908 0.002641029 -0.028547147 0.05430917 -0.008454141 -0.3755961 -0.13810463 0.36957517
-0.08976375 0.2479726 0.090747066 -0.11605421 -0.013466239 -0.15902531 -0.03845075 -0.018358584
-0.029589929 0.03074128 0.047795933 0.04458614 -0.061858702 0.0055097584 0.09698908 0.07598345
-0.026161145 -0.1559181 -0.029670095 -0.07057014 -0.05029662 0.05083105 0.004678425 0.026176115
-0.09421592 0.10252999 0.060863923 -0.0774441 0.11382774 -0.47159123 -0.07709099 0.051543314
-0.047614314 0.035557307 -0.006328868 -0.031838972 0.049022254 0.06650204 -0.030398771 0.08847252
-0.028467104 -0.020965792 -0.034291368 -0.0016237777 -0.0073715933 -0.02140645 -0.056251295 -0.023762234
-0.07793189 -0.04193188 -0.022614393 -0.039201967 -0.2043024 0.09143375 0.039369043 0.10588082
-0.38506252 0.03945832 0.12270966 0.04669479 -0.07483418 -0.025936905 0.018277911 -0.07964599

bias f4 [64]
00000000: 9fd9 de3d 3b74 3e3d fb69 c13d 1631 93bd
00000010: ff40 74bd 6968 02bd dd2f c83d 2301 bf3c
00000020: 7dba e13d 8fdb dc3d b7ce 893d 9c28 4ebc
00000030: 20c5 d83a 73ec 493b 20fe 983d 6eba 14be
00000040: 4833 043b a829 453a 82f9 ae3d 5df7 69bd
00000050: 5dab 58bc 1b6c 04bd 7119 023e bb3b 39bd
00000060: f956 db3d 2ab7 dd3d fcf5 8bbb 42f3 dc3c
00000070: ee10 243e 4df9 ddbc a1b9 cbba 0c81 31bd
00000080: 798a a33c 0dba 1e3e 544f a0bb 4ca8 87bc
00000090: 6fef 353d 2f09 c83d 7f11 193c 0b8e 72ba
000000a0: fc5f 12bd a5ce 4b3b 1b15 ec3e 30b9 d93d
000000b0: 1215 2cba 1ac8 bb3d 1cf5 c33c dede ce3a
000000c0: e610 3fba b6b3 73bd 90cc 8c3d 22b8 39bb
000000d0: 78c5 ac3d 2b4f 9fbd 7bbc 3dbd 7fac 433e
000000e0: 8e13 953c 220f 0ebd 6d7f c8bb 98b2 ad3b
000000f0: 8d0f 543d ddb0 1cbd 8a60 c5ba 25a5 9dbd
0.10881352 0.046497565 0.09444042 -0.07187097 -0.059632298 -0.031837855 0.09774754 0.023315972
0.11021898 0.10784065 0.06728881 -0.012582924 0.001653824 0.00308111 0.074703455 -0.14524242
0.0020172168 0.0007521161 0.085436836 -0.05712067 -0.01322445 -0.03232966 0.12705018 -0.04522298
0.10709948 0.108259514 -0.004271267 0.026971463 0.16022083 -0.027096415 -0.0015542993 -0.04333596
0.01996349 0.1550066 -0.004892269 -0.016559742 0.044417795 0.09767377 0.00934255 -0.00092527334
-0.03573607 0.0031098512 0.46109852 0.10631025 -0.0006564419 0.09169026 0.023920588 0.0015782972
-0.000728859 -0.059497558 0.06874955 -0.0028338511 0.08436102 -0.07778772 -0.046322327 0.19108771
0.018197801 -0.0346824 -0.006118706 0.005300831 0.051772643 -0.038254607 -0.0015058678 -0.076975144

weight f4 [64, 64, 3, 3]
00000000: bdbc 02bd 4108 443c 9898 6c3d 2782 d73c
00000010: 1826 96be 796a 55be 504b b23c 2e16 e6bd
00000020: c645 9abc c140 d93c 8649 263d a311 ac3d
00000030: 7393 5abe b647 7f3c fddb 17be a9b9 e93d
00000040: 9f41 00be c11b d5bd f472 a63d b678 153e
00000050: 30ac 053e cf54 c93d 2104 1bbe 8bbd 14be
00000060: d498 1bbd 327f d7bd d4bb 0abd 1816 893d
00000070: 8fc9 5fbc 1915 393c f4bd 90bc 90b5 eabc
00000080: 2a46 3e3d 1e9f 9cbd db07 c7bc 30f7 4abd
00000090: 9ac3 2f3d 11c2 853d 4347 063e 9e2e 9bbd
000000a0: a737 88bd 9818 14bd 7e38 4a3d ae11 973c
000000b0: 6b08 31bd c576 91bd de75 75bd b1e5 c03d
000000c0: 35ca 033d 12c4 2fbe b717 86bd 0b5e 4cbd
000000d0: 3b53 0dbd 0834 803d 1d48 79be 9f38 313d
000000e0: e97f 11be 66bb afbd 81ee df3d d991 46bd
000000f0: 0f38 17bd fd18 1fbe 7a82 9bbd 458b 8c3e
00000100: 0155 663d e644 cf3b c02c 3ebd 6016 edbc
00000110: 9c9d b3be d24f 863d d40b b8bc 38c8 04be
00000120: bbb4 20bd 6465 e4bb 678d 4c3c 316b 433d
00000130: e128 75bc c970 363e 5451 153b 3df9 7abe
00000140: 810a 4fbe 549f 08be 4bf7 50be 1c6d 1d3d
00000150: b342 943d 2e9e df3d 4bb5 c6bd a775 98bc
00000160: 9d56 863d fb4d 37be 93e2 d1bd 606d 93bc
00000170: 02d6 69be 1dcc 653d 34b8 023d da26 163e
00000180: 8a4c 09be 5da1 d6bd 0e93 71bd 035b 043d
00000190: 4915 7fbc bfa5 933d 5867 5abd 030b 2abe
000001a0: 43a3 703e c52c c7bd 1abd 8ebd 5792 adbd
000001b0: 5b31 a33c da7f 563d 8f2b a5ba e47a d2bd
000001c0: 9d42 c1bd 718f d8bd 3d7a 783d 27b2 77bd
000001d0: af1a 3abe 6e07 bfbb 721c d73c c5ba 9e3d
000001e0: 555f 6d3b 425e 9dbd 2ed1 eb3c 4632 393d
000001f0: 4a6e 45bd fb0e 90bd f64f 01bd 7421 bb3c
00000200: aa29 7e3d b592 bd3c 0d4f debc 7f83 b23d
00000210: f27f f4bc 2f58 e7bd 4ff6 1abd 7de6 2dbd
00000220: 7bdd 0abd ceaf 1bbc a9d7 09bd 5ca2 6bbe
00000230: c816 163e 29cb 89bd 7367 b4bd 541f bb3d
00000240: 334f 12be 0884 02be 7b2e 49be 617a 443d
00000250: 2723 003d 3a41 903e 0734 b2bd 3822 29be
00000260: 1a13 ebbc 4435 20bc a540 3a3e 2279 67bb
00000270: 8ff5 3b3d 4c44 db3d c766 003d 4bad 733d
00000280: efd1 f8bd 002c 93bd bea7 3c3e bc10 e33d
00000290: 4792 a4bd fe66 c43d 7384 883c d1f2 f13b
000002a0: 9493 a7bd 77fe 42bd 5681 8ebd 3f41 1abe
000002b0: 261c 823d 64cb e03d e1f0 123e 1e7c dd3d
000002c0: 8758 893d e009 2b3d 54bf 7ebd 4d4a bbbc
000002d0: be91 26ba 5631 ab3d 1893 acbb 7fa2 a23d
000002e0: a311 cabd 0911 5a3c f13b eb3d 82d4 8b3c
000002f0: 27a6 60bd 89ba 7c3c bcd0 473d bca9 923d
00000300: 05d7 df3d cdbc 04bd ef02 cc3d d0ff 863e
00000310: 4236 883c b7ae 973c d764 143e d4d2 723e
00000320: 0075 acbd 3eff cfbd 9966 5bbc ce39 93be
00000330: da59 3abd 6d64 b4bd 7e35 5cbc e969 81bd
00000340: 4bea 963d 2482 be3d f1b4 f0bc 3b4a aabd
00000350: c7d5 15bd 5386 86bd 2f1b 8dbd 5a53 06bd
00000360: 5e16 36be a05c ff3d c6a8 2a3e 9116 c13d
00000370: a39f 4abd 908d 36be 048a f4bd 82a9 b3bd
00000380: b0d4 1abe 3dfb e23d 442c c53c 4deb debd
00000390: c090 903d 34c6 263e eaa0 403e f8fd 81be
000003a0: d3a2 753d fa5d 54be 617e 2fbd 5198 983e
000003b0: 8682 343d 7400 2abe e187 1dbe 9a0f b7bd
000003c0: 7ca8 19bd 9c49 22bd b5f7 75bc 4233 6dbd
000003d0: 97e9 84bd ce4b 8f3d 7627 55bd 10a0 22be
000003e0: 0587 88be da50 92bd ad38 a2bd 7be8 82be
000003f0: 1216 06be e6e1 183d c6ab 8abe 7e9c 253e
-0.031918276 0.0119648585 0.057762712 0.026307179 -0.29325938 -0.20841397 0.021764427 -0.11234699
-0.018832099 0.026520135 0.04059746 0.084018014 -0.2134531 0.015581062 -0.14830013 0.11412365
-0.12525032 -0.10405684 0.08127394 0.14596829 0.13053966 0.09830629 -0.15138294 -0.1452543
-0.037987545 -0.105223075 -0.033870533 0.06693667 -0.013658895 0.011296534 -0.017668702 -0.028651029
0.046453632 -0.07647537 -0.024295738 -0.049552143 0.04291115 0.06531156 0.13113122 -0.07577251
-0.0665124 -0.036156267 0.04937028 0.018441048 -0.04322092 -0.071027316 -0.05992686 0.0941881
0.03217526 -0.17164639 -0.06547492 -0.049894374 -0.034503203 0.06259924 -0.24343915 0.04326689
-0.1420895 -0.08580665 0.10934163 -0.048478935 -0.036918696 -0.15536876 -0.07593246 0.27450004
0.05623341 0.006325352 -0.046429396 -0.028941333 -0.35081184 0.06558193 -0.022466578 -0.12967002
-0.039234858 -0.0069700945 0.012484885 0.047709648 -0.01496336 0.17816462 0.002278407 -0.2450914
-0.2021885 -0.13342029 -0.20406835 0.038434133 0.07239284 0.10918842 -0.09702548 -0.018610789
0.06559489 -0.17900841 -0.10248294 -0.01799649 -0.22835544 0.05610286 0.03191395 0.14663258
-0.13408104 -0.10479996 -0.058978133 0.032313358 -0.01556904 0.07209348 -0.053321213 -0.16605763
0.2349978 -0.09725336 -0.06969662 -0.08475178 0.019920995 0.052368023 -0.0012601482 -0.10277346
-0.094365336 -0.10574234 0.06066345 -0.060472634 -0.18174241 -0.005829743 0.026258681 0.07750467
0.0036220152 -0.07683994 0.028786268 0.04521396 -0.048200883 -0.07034107 -0.031570397 0.0228431
0.062051453 0.023141244 -0.027137304 0.08716487 -0.029846165 -0.112961166 -0.037832554 -0.04245614
-0.033902626 -0.009502364 -0.033652935 -0.23011154 0.14657128 -0.06728203 -0.08808794 0.09136835
-0.14288025 -0.12745678 -0.19646637 0.047968272 0.031283524 0.28174764 -0.0870133 -0.1651696
-0.028695632 -0.0097783245 0.18188722 -0.0035320004 0.04588848 0.10706386 0.031348016 0.059491437
-0.12149417 -0.07186127 0.18423364 0.11087176 -0.08035713 0.09589957 0.01666472 0.0073836823
-0.08182445 -0.047605958 -0.069582626 -0.15063952 0.06353025 0.10976294 0.143497 0.10814689
0.067063384 0.041757464 -0.062194183 -0.022862578 -0.0006354115 0.083590195 -0.0052665584 0.0794115
-0.09866645 0.013309726 0.11486042 0.017069105 -0.054845955 0.015425333 0.04878305 0.071612805
0.109296836 -0.032406617 0.09961497 0.26367044 0.016627435 0.018515928 0.14491592 0.23713237
-0.084207535 -0.101561055 -0.01339116 -0.2875504 -0.045495845 -0.08808217 -0.013440488 -0.06319029
0.073689066 0.09302166 -0.029383155 -0.083149396 -0.036580827 -0.06568589 -0.068899505 -0.032794334
-0.1778197 0.12468839 0.16665944 0.09428132 -0.049468648 -0.1782744 -0.11940387 -0.087725654
-0.15120196 0.11083076 0.024068959 -0.10884724 0.07058859 0.16286546 0.18811384 -0.25389075
0.059969734 -0.20738974 -0.042845134 0.29803708 0.04406979 -0.16601735 -0.15383865 -0.08938523
-0.037514195 -0.03962098 -0.015012671 -0.05791021 -0.06489866 0.069968805 -0.052039586 -0.15881371
-0.26665512 -0.071443275 -0.07920966 -0.25567994 -0.13094357 0.03732481 -0.27084178 0.16172978

bias f4 [64]
00000000: a13a 043d caeb 043e 0234 5ebb b928 0bbd
00000010: f155 e9bd 6314 82bd af45 26bd 6133 33bd
00000020: 53e1 34bc 91d8 2bbd a75d 683d 11ce 0ebd
00000030: a0a1 cd3c b797 67bd 3972 a43d 3be1 78bc
00000040: 8a8d f8bc e969 143e 6474 5fbc a37d 5d3d
00000050: f85a 953d 9101 72bd bd67 943e 6bbb bf3d
00000060: 7a33 b3bc ec2e 9d3c 96b2 afbd 89d4 663a
00000070: 5974 90bd 8641 32bb 3fc9 e2bc 5cd4 e9bd
00000080: d38b 0c3d c6b9 44bd c6cd 913d f3c1 32bc
00000090: 9e0b dfbc a5e0 1ebd 2eb9 58bd 7d80 ed3b
000000a0: eb2b 73bd d451 0dbd b0ce 1a3e 0ba6 e13c
000000b0: a8d7 41bd ea73 7dbd 67e7 64bd 8ae6 43bb
000000c0: 4268 483d 7b0f ceba 716b 2bbd 33ed 53bd
000000d0: e093 033e 06f1 013f 88f2 b83e 06f2 a5bc
000000e0: 6ef6 53bd cd13 6bbd 640a 20bd 1646 de3d
000000f0: bc7c 90bd eb45 69bd 4764 7ebd ab00 2e3d
0.032282475 0.12980571 -0.003390551 -0.033974383 -0.11393345 -0.06351545 -0.0405938 -0.04375017
-0.01104005 -0.04195458 0.05672994 -0.03486449 0.025101483 -0.05654117 0.08029599 -0.015190418
-0.030340929 0.14493527 -0.0136385895 0.054074895 0.072927415 -0.059083525 0.28985396 0.09361919
-0.021875132 0.019187413 -0.085789844 0.0008805474 -0.070534416 -0.00271997 -0.027683852 -0.114174575
0.034313034 -0.04802873 0.07119326 -0.010910499 -0.02722722 -0.038788456 -0.052910976 0.007247983
-0.059368055 -0.034501866 0.15117908 0.027544996 -0.047324806 -0.061878122 -0.055884745 -0.002989205
0.048927553 -0.0015721166 -0.04185051 -0.051739883 0.12849379 0.507584 0.36122537 -0.020257007
-0.051748686 -0.05739193 -0.03907241 0.108532116 -0.07055041 -0.056951445 -0.06210735 0.042481106

weight f4 [64, 64, 3, 3]
00000000: 0a63 c7bc e850 093c 9c55 5dbd 8c6a 6c3d
00000010: 805b b8bd 5335 81bd d58e edbd c92e b53c
00000020: 8206 c63c 5093 6a3d 4e0c 9dbc 04ec 393d
00000030: 829d ee3b 6d6d 67bc 2991 43bd 4c38 84bc
00000040: 4b65 263d 303b b7bd 88f2 d8bd 12b8 843c
00000050: 3a34 b23d 2681 c1bc 71c1 babb db71 79ba
00000060: b206 e1bc 225c 9f3c 701f 84bd 2c09 153c
00000070: 6f90 42bd 4e2e 923c 4441 6fbd d5b8 9abc
00000080: 79af 633d d3a6 763d 1859 81bd 8d9f 15bd
00000090: 53d7 2c3c 509c 2f3c 260a 113d 6ed1 f4bb
000000a0: 6f82 003d f850 36bc 5d10 bc3c df70 153d
000000b0: 8cba 1f3c 52d9 d13c f68e 6d3c ffad 41bd
000000c0: 64c6 b5bb 3c4f a53a e113 6fbb 5122 83bd
000000d0: 10f0 23bd e1dd bfbd 7852 f7bc 6916 c33c
000000e0: 916f e4bc 34e9 dbbd 4ecb 8abd 1a2a c03d
000000f0: f597 883d f5a0 a3bb 2cbc 02bd dffc a53c
00000100: af4f b9bd fdea 663d dc9a 0f3d 2323 8b3c
00000110: a859 88bc a8c4 d0bc 42ed 053c 2a1c 6cbd
00000120: 9523 07bd c920 b9bd c57c 10be ea0b 07be
00000130: 365b 123c 748c bfbd aff2 f8bc 3096 743c
00000140: dc54 f2bb 7009 1c3d 6066 ef3c 2b56 e2bc
00000150: 3605 05bd 4e70 ffbc 5033 71bc b0d9 c4bd
00000160: 2493 0b3d 78ff 92bd 7449 f13c edf5 d8bc
00000170: 408d 9cbd e385 da3c 12fe 26be 5b90 aebd
00000180: 1c28 99bd f842 a23c c83a 183b abcd d7bb
00000190: ade6 0fbc 95fa e0bd 0147 12bd 9024 1cbc
000001a0: dbf2 7dbd e75f c2bb 700c 2d3c f280 e9bc
000001b0: b82c 64bd a137 11bc 9f27 a53d 9330 99bd
000001c0: 3944 c2bd d228 44bd 1d75 1ebc 39a9 15bd
000001d0: ca92 3cbc 7c92 053c f3a5 9b3d 1585 2abc
000001e0: c063 36bd 04d0 5f3d 0c30 c0bc 0164 143c
000001f0: 8cad 7ebc 9398 10bd 0b8e d8bd 70b5 82bc
00000200: 2693 a53d 04d9 623d e2a5 b2bd 2795 2b3d
00000210: 2c09 84bd 8fbe 3fbd 2bbd 47bd a0ce 25bd
00000220: 4479 1f3d 8bfa 993d 3314 50bc b89f 253c
00000230: 2e76 d1bc b4f4 9fbd e9c5 013e 915e 02be
00000240: 0086 5c3d a875 b2bd 6f9f 8a3d cedd e43c
00000250: b7fa 3bbd c8ac 77bc 33c6 2ebd f0a3 afbc
00000260: 091d c0bc 2dee eabc 83f0 a3bd a129 99bd
00000270: f59b efbd 0268 93bd 71bc ba3c 034d 803d
00000280: 5a85 d53d fce2 383c fedb e6bc 4726 043d
00000290: 0138 8dbd d54f bd3d f975 983b e180 173d
000002a0: e221 ec3d 9d25 9fbc c3db 7f3d 3185 debc
000002b0: 7f44 533d dc4a 32be 4343 21bd fd38 b3bd
000002c0: 9103 533c 4235 ad3d 4e56 7cbc 671a a33c
000002d0: 038c 06bd c97e 4fbc 77c2 24bc 5e91 1fbd
000002e0: 1087 643c 7dcc 2abd acaa b53d b7f3 24bd
000002f0: 1c1c 053d b62c 4e3d 601a b1bc 6adc 2dbd
00000300: 6b65 52bd 7470 2f3c d422 b53d 5ba1 85bd
00000310: 7fcd 603d 6580 053e 1e4b c23c e7a6 963c
00000320: b709 083d 5ceb 14bd 2247 e3bc 405a 73bd
00000330: beb4 953d 680a 373d 345c d93c 7d8d d9bd
00000340: 5081 0d3d 8cbf 13be 4086 113e 10bb f1bc
00000350: 3971 a1bc 3b6e ba3d 6a80 083e 6d16 213d
00000360: 4112 dc3b 6425 2e3b baa7 6bbd 802a 333d
00000370: 96be 56bd a825 1bbd 4550 ed3c b581 183d
00000380: 93dc a9bd 7fda a1bc ce1c c0bd 6059 7f3d
00000390: 87d2 423c 1462 37bc 3212 78ba 62c9 9d3d
000003a0: 00ae 983d 806d 27bd 50ea 19bd 5b47 773c
000003b0: f7bd 50bd 4c7e 2dbd 5a55 37bd b514 6bba
000003c0: 134c 903c b7c3 87bd 1717 823d afa8 ed3b
000003d0: bc05 823c 8b7a af3b 16c6 a0bc 3079 acbc
000003e0: ad07 11bd 2b7b 2a3d 9af7 49be 38ce b0bd
000003f0: 3ead 233d 0a0f 65bd bee7 15bd 3f04 b9bd
-0.024339218 0.008381106 -0.05403672 0.0577188 -0.09001827 -0.06308999 -0.11599509 0.022117035
0.024173025 0.057269394 -0.019170906 0.045391098 0.00728196 -0.01412521 -0.047745857 -0.016140126
0.040623944 -0.08946836 -0.10593134 0.016201053 0.08701368 -0.023621153 -0.0056993295 -0.0009515562
-0.027469013 0.019453112 -0.06451309 0.009096425 -0.047501024 0.017844345 -0.05841185 -0.018886963
0.055587266 0.06021769 -0.063158214 -0.036529113 0.010549384 0.01071842 0.03541007 -0.007471255
0.03137439 -0.011127703 0.022957021 0.036484595 0.009749066 0.025616322 0.014499417 -0.047285076
-0.0055473316 0.0012612115 -0.0036480355 -0.0640303 -0.040023863 -0.09368492 -0.030190691 0.023814397
-0.02788523 -0.10737839 -0.067770585 0.0938303 0.066696085 -0.004993553 -0.031917736 0.02026218
-0.090484016 0.056376446 0.035059795 0.016984528 -0.016644314 -0.025484398 0.008174242 -0.057644047
-0.032992918 -0.090394564 -0.14110096 -0.13188139 0.008932879 -0.09352961 -0.030389158 0.014928386
-0.00739537 0.038094938 0.02922362 -0.027628979 -0.032475673 -0.03118148 -0.0147217065 -0.09611833
0.03407587 -0.07177633 0.02945397 -0.026484454 -0.07644129 0.02667517 -0.16307858 -0.08523627
-0.074783534 0.019807324 0.0023228396 -0.006585797 -0.008783025 -0.10985295 -0.035712246 -0.009530202
-0.061999183 -0.0059318426 0.010562047 -0.028503869 -0.05570671 -0.008863361 0.08064198 -0.07479968
-0.09485669 -0.04789049 -0.009671477 -0.036538336 -0.011509607 0.0081526 0.07600012 -0.010407706
-0.044528723 0.05464174 -0.02346041 0.009057046 -0.0155443065 -0.035301756 -0.105739675 -0.015955657
0.08084707 0.055382743 -0.08723046 0.04189029 -0.06447062 -0.04681259 -0.04876439 -0.040480256
0.038934007 0.075184904 -0.012700128 0.010108881 -0.025569048 -0.07810345 0.12673153 -0.12731387
0.05383873 -0.087138474 0.06768691 0.027937796 -0.045893397 -0.015116878 -0.042669486 -0.021440476
-0.023451345 -0.028678024 -0.08004858 -0.07478643 -0.11699668 -0.07197572 0.022794934 0.06264689
0.104258254 0.011284586 -0.028181072 0.032263067 -0.068954475 0.092437424 0.0046527353 0.036988143
0.115299 -0.019427115 0.06246544 -0.02716312 0.051578995 -0.17411369 -0.039370786 -0.08751104
0.012879268 0.08457424 -0.015401436 0.01991005 -0.03284837 -0.012664505 -0.01005613 -0.038956992
0.013948217 -0.04169892 0.08870444 -0.040271487 0.03249751 0.05033561 -0.021619022 -0.04244653
-0.05136625 0.010707963 0.088445336 -0.06524917 0.054883476 0.1303726 0.02371746 0.018390132
0.03321239 -0.03635727 -0.02774388 -0.05941224 0.073098645 0.04468766 0.026533224 -0.1062269
0.03454715 -0.14428538 0.14211369 -0.029508144 -0.01970731 0.09103056 0.13330236 0.039328028
0.006716043 0.002657258 -0.057533003 0.043741703 -0.05242785 -0.03787771 0.02896894 0.037233073
-0.08294024 -0.019757507 -0.09380494 0.062341094 0.011891014 -0.011192817 -0.00094631605 0.07704426
0.07455063 -0.04087591 -0.037576973 0.015092696 -0.050962415 -0.042356774 -0.044759132 -0.0008967624
0.0176144 -0.066291265 0.0635206 0.0072527747 0.015871875 0.0053551844 -0.019625705 -0.02105388
-0.03540771 0.04162137 -0.19723359 -0.08633083 0.03996014 -0.055922545 -0.03659796 -0.09034013

bias f4 [64]
00000000: 6ba2 05bd ccfd a3bc 4302 8cbd 3a8d 9bbb
00000010: 018b 48bd a6b0 debd fda7 d23c 5c60 b83b
00000020: ea35 5bbc 0407 a3bc 45ac 72bc 02e5 383d
00000030: 97af 67bc b04a 02bc 8628 673c 930b 353c
00000040: aaac b5bd 5cc9 a83d 78ee 5d3c 27c4 28bd
00000050: d0f2 743b 9f38 a13d a8a0 26bd 9609 dc3a
00000060: 3f7b e73b 75db 423d f200 8dbd 17d1 4fbd
00000070: b57a 6fbd 40cb debc d630 9abc 6ff1 0d3d
00000080: ec83 2bbc 4f57 82bc 3e39 0dbd 7742 68bd
00000090: d3b4 79bd 7fbc 703a de40 a7bb 907d f4bc
000000a0: 3645 91bc 95bb 8c3d b6d8 693d dbc7 a2bb
000000b0: 49a4 c23b d00d 8b3c 9b11 5fbd 5a16 94bc
000000c0: 4604 7ebd 712f 073d 3901 54bd 7d80 c63b
000000d0: 381b 673d b2e0 65bd 44ed b3bd 5ee9 63bc
000000e0: 7e11 eebb 70ee 25be 7894 5fbd 3765 df3c
000000f0: f2b7 30bd cb01 08bd 0d81 5fbd b046 703b
-0.032625597 -0.02001848 -0.06836369 -0.00474706 -0.04896069 -0.10873537 0.025714869 0.0056267213
-0.013379553 -0.019900806 -0.01481158 0.045140274 -0.014140985 -0.007952377 0.014108783 0.011050123
-0.08870824 0.08241531 0.013545625 -0.04120269 0.0037376173 0.07872128 -0.040680557 0.0016787525
0.0070642526 0.04757257 -0.06884946 -0.050736513 -0.058466632 -0.027196527 -0.018822115 0.034654077
-0.010468464 -0.015910773 -0.03447842 -0.05670401 -0.060963463 0.00091833615 -0.0051041683 -0.02984503
-0.017733198 0.06871716 0.057091437 -0.0049676723 0.0059399945 0.01697436 -0.05446015 -0.018077064
-0.062015794 0.033004228 -0.05175898 0.0060577975 0.056422442 -0.05612249 -0.08785489 -0.01391062
-0.007265269 -0.16204238 -0.05458495 0.027269943 -0.043144174 -0.033204835 -0.05456643 0.0036663227

weight f4 [12, 64, 3, 3]
00000000: 894f 38bc 7862 3e3a ad6b 1d3d e0fd a6bc
00000010: 671b 773c ce8f 36b9 4269 11bd c582 0ebb
00000020: cb82 463b 86fe a0bd d45f c33c c845 bf3c
00000030: 3c15 50bd 9eb2 433d 5848 13b9 bddc db3c
00000040: cf80 5dbb dd66 4bbc f327 a73c b1d1 35bc
00000050: f306 6abd a1cb 5fbc 69ac d33d 8e47 333a
00000060: 1bc5 153b fdae 5f3c 41e0 38bc a566 e43d
00000070: a9a6 1bbc 700c 9a3d e4f0 383e 699c cbbc
00000080: 466b 613e 0214 00bd bf79 96bb d6b4 133f
00000090: cddf 62bb 67b2 1e3c 6c44 233b d0de e63b
000000a0: d0ac 41bc af33 bbbc 7a53 683c 5788 cd3b
000000b0: 4449 b6b9 c771 733b 8eee 18bc 7a1c 903b
000000c0: 1b37 0bbd bb37 b83d 6967 ff3b adf2 a23c
000000d0: 1a62 20bd ee88 afbc 4445 cebc 3f2e b03c
000000e0: bad8 493c 59b7 a4bd 279f 4fbe 27bb a8bd
000000f0: 1bb5 143e 7f41 e23d 2cf4 f4bc 4330 d8bc
00000100: d0c3 473d 96a0 89bc d0e8 0cbc b751 b23d
00000110: f412 f83c 749a d2bc 76c1 3a3d d3aa 36bd
00000120: b60f d4bc 09a7 aa3b 24ab 05bd 643f c53d
00000130: 5de6 2d3c de9b 66bd 6020 cb3d 9136 2fbd
00000140: fca5 08bd 6e2e 91bb 058a 82bd 90da 86bc
00000150: c950 78bd b11b 6b3d 1047 f1bc 4fe3 163d
00000160: d254 643d fcb0 9c3d 9b7d 893c 94ef b8bb
00000170: cd91 96bd 4699 cfb8 329d 4dbd cb82 813c
00000180: d90a 023d c86d 1d3d 99c7 bb3c de58 1ebc
00000190: c162 283b ed27 153c 3161 993b b5ee dfbc
000001a0: 9233 433d 89a1 ca3a 1277 213c 51b9 9cbb
000001b0: 2a0f 50ba 555c 41bd 5572 22bd 64ca af3c
000001c0: 2a61 a5ba 4237 bf3c 2ce5 623c 46e2 743d
000001d0: 9ac7 e2bc 0249 a43d f28b d03c eaf5 6b3c
000001e0: 6eed 243d 79e0 3b3d d6c2 48bd 72d5 adbb
000001f0: 17cd 20bd 0293 c8bd 2ed8 a6bd 955f 0cbb
00000200: b67d 233d c37e 78bd 14ba 1cbc 02aa bf3d
00000210: 14d8 fdbb a52d 263d 20e7 f73c 2b62 1bbd
00000220: 2821 443d 76ce 74bc 3171 2fbd e857 8abc
00000230: 77ee 64bc 9875 f93c 9922 ef3c 734e ca3c
00000240: 6134 00bd 8930 cd3c da3a 89bb 90ad b23b
00000250: c7f1 463e 57c3 b8bd 7854 a33d 5339 fe3d
00000260: 0aea e2bd 5f40 fb3c 265f 9abb dcd2 463c
00000270: 9f84 d5bc 0990 3bbd 36ff 9ebd 85d2 1137
00000280: 927a bcbd 06bc babd 3285 21bb b10d 6a3c
00000290: fab2 723d baa6 acbc ed47 633c 5e3e 5f3c
000002a0: 7611 b1bd 03ec 25bc 066b 013c 879b a6bd
000002b0: 6305 37bd 453e 533a 1da5 793d 2296 ab3d
000002c0: 93e4 19bd 6eda 6b3d 309e 8dbb 3187 14bb
000002d0: bbba ed3b a3c3 7a3d 4631 a3bc 9ff1 0fbd
000002e0: 0a75 2cbd 71c2 263d 63fd b3bc a6c2 293c
000002f0: f44b a93a 301c 403d b3d9 75bc 1b81 cabc
00000300: b122 6d3d 53e1 1cbc 8ebe 05bd 530f 2b3c
00000310: 96cb 96bc ef75 aa3a 2474 8d3c dc76 8bbc
00000320: bb67 5d3b ced0 343c 08ff 9b3b 0eb5 40bd
00000330: d302 6c3c 9c35 b63c 70e2 0bbc 6417 433c
00000340: b3db 04bd 62ce 34bc 33f8 6e3b 581c 6c3d
00000350: 9a8b 42bc 6004 9abc 9832 613b 59e2 263c
00000360: 598f 5a3d 63d5 36bc 7f1f 92bd 7c4a b13d
00000370: f129 d43c e6e8 a8bd b3cd e8bb 42a0 e63a
00000380: 9e83 5fbd 2648 ab3b 6e93 28bd 8be3 13bd
00000390: 89d5 263d 009b c1bc aaf6 d23d e283 cabb
000003a0: c569 9fbc 8898 49bb 6358 cd3c 4830 32bc
000003b0: 4c2c 04bc 8fff 493c 4069 92bd af3e 31bd
000003c0: 508f 6b3d fc17 793d 7a9e 71bc 885d b6bd
000003d0: bf1e 653d 8bb4 a4bc 393d 93bb ac30 0a3e
000003e0: 9ee5 a73c 5c5a 68bd e58f 62bc 814b 1dbd
000003f0: fceb a5bb 1adc b53c 8481 593d 5644 56bd
-0.011249431 0.0007262598 0.038432766 -0.020384729 0.015082217 -0.00017410444 -0.035500772 -0.0021745425
0.003029036 -0.078610465 0.023849405 0.023348704 -0.0508015 0.047777764 -0.00014045963 0.026838655
-0.00337987 -0.012414661 0.020404791 -0.011097358 -0.057135534 -0.013659389 0.10335619 0.00068389706
0.002285308 0.01365256 -0.011283935 0.111523904 -0.009500184 0.075219035 0.18060642 -0.024854856
0.22013578 -0.03126908 -0.00459215 0.5769781 -0.003461826 0.009686089 0.0024912609 0.0070456043
-0.011820987 -0.022851793 0.014180059 0.0062723565 -0.00034768332 0.0037146674 -0.00933422 0.004397926
-0.0339881 0.08995005 0.00779431 0.019891107 -0.039156057 -0.021427598 -0.025179513 0.021506427
0.012319738 -0.08042783 -0.20275556 -0.082388215 0.14522211 0.11047649 -0.029901586 -0.0263902
0.048770726 -0.016800206 -0.008600429 0.08706992 0.030282475 -0.025708415 0.045594655 -0.044596504
-0.025886398 0.0052079004 -0.032633916 0.096312314 0.010614005 -0.05630099 0.099182844 -0.042776648
-0.03336142 -0.0044305837 -0.063739814 -0.01646164 -0.060623918 0.057399455 -0.02945283 0.036837872
0.055744953 0.076509446 0.016783526 -0.0056437943 -0.07352028 -9.8990786e-05 -0.05019874 0.015809437
0.031748626 0.038434774 0.022922324 -0.009664742 0.0025693628 0.009103757 0.0046807756 -0.027335504
0.047656603 0.0015459518 0.009855049 -0.0047828336 -0.000793683 -0.047207195 -0.039659817 0.021458812
-0.0012617458 0.023341779 0.013848584 0.059786104 -0.027683068 0.08021738 0.025457356 0.014401892
0.040265493 0.04586837 -0.049013935 -0.0053049857 -0.03925809 -0.097936645 -0.08146702 -0.0021419276
0.03991481 -0.060667764 -0.009565849 0.09358598 -0.007746706 0.040570874 0.030261576 -0.037935417
0.047883183 -0.014941802 -0.042832557 -0.01688762 -0.01397287 0.03045158 0.029191302 0.02469561
-0.031299952 0.025047557 -0.004187924 0.005452819 0.19428168 -0.09021633 0.079750955 0.124132775
-0.11079796 0.030670343 -0.0047110496 0.012135234 -0.026064215 -0.04579166 -0.077635214 8.691689e-06
-0.09203066 -0.09117894 -0.002464604 0.014285491 0.059252717 -0.021075595 0.013872129 0.013625709
-0.086459085 -0.01012707 0.0078990515 -0.08135133 -0.04468287 0.000805829 0.06094848 0.08378245
-0.0375715 0.057581358 -0.004321836 -0.0022663588 0.007254926 0.06122173 -0.019920956 -0.035142537
-0.042103805 0.040712778 -0.02197141 0.010361349 0.0012916313 0.04690188 -0.015005517 -0.024719765
0.057894412 -0.009575206 -0.03265243 0.010440665 -0.018407624 0.0013005118 0.017267294 -0.01702445
0.0033783752 0.011036111 0.0047606267 -0.047047667 0.01440497 0.02224236 -0.008537874 0.011907432
-0.032436084 -0.011035534 0.0036463856 0.05764422 -0.011874104 -0.018800914 0.0034362432 0.010185801
0.053359363 -0.011159274 -0.07134914 0.08656785 0.025898905 -0.08247547 -0.0071045994 0.0017595368
-0.05456888 0.0052271066 -0.041156225 -0.036105674 0.040730987 -0.02363348 0.10300954 -0.0061802724
-0.019459615 -0.0030761082 0.02506656 -0.010875769 -0.008067202 0.012328996 -0.07148981 -0.04327267
0.05750972 0.06081389 -0.014747256 -0.089045584 0.055937525 -0.02010562 -0.0044933823 0.1349513
0.020495232 -0.0567268 -0.013828252 -0.038402084 -0.005063532 0.02219968 0.05310203 -0.052311264

bias f4 [12]
00000000: d6a3 353c 56ea 1b3c 4d64 963b 2eb5 8d39
00000010: 8ca5 07bc bf0a 3b3c 07a2 d73b a311 5b3c
00000020: da77 e9ba 095d 833b 96e6 403c 6994 f8b9
0.011086425 0.009516319 0.0045895935 0.00027028605 -0.008279216 0.011416136 0.0065805945 0.013370904
-0.0017812208 0.0040088934 0.011773726 -0.0004741282
