train_weight_sr3/model_epoch_15.pth (torch_old, 667646 bytes, 10 tensors)

weight f4 [12, 3, 13, 13]
000000 b3 af 99 3c 9b 76 8a bd f8 32 60 3d fa 96 5a 3c
       0.018760538 -0.067609034 0.054736108 0.01334166
000010 f8 43 1d bd 86 38 84 bd f1 f3 5c 3d 3b a7 80 3d
       -0.0383949 -0.064560935 0.05394358 0.06281897
000020 d1 31 f8 bd c5 1a c2 3d c5 2e b0 bc a2 f6 0a 3d
       -0.12118877 0.09477762 -0.021506676 0.033926614
000030 61 a4 26 bc 93 c8 90 3c 12 35 96 bd 06 b8 1d bd
       -0.010171027 0.017673766 -0.07334341 -0.038505577
000040 aa 6b 39 bd fc 29 cc 3d 6d 94 35 3d b8 b3 4a 3d
       -0.045268692 0.099689454 0.044331003 0.0494878
000050 44 44 ad bd 23 35 b3 bc d2 c2 0f bd 6a a4 f1 bb
       -0.08460286 -0.021875923 -0.035097905 -0.007374336
000060 e9 61 f7 3c 73 fd 3d bc 61 92 02 bd 13 ab 59 bd
       0.030198054 -0.0115960715 -0.03187788 -0.053141665
000070 95 67 a2 3d 54 7e 73 3d e8 30 b0 bc ac 1a 61 bd
       0.07929913 0.059446648 -0.021507695 -0.054957077
000080 87 1f 8f 3d c4 41 b1 bc 61 b0 7c bc 39 58 76 3d
       0.06988435 -0.021637805 -0.015422911 0.06014273
000090 40 4e bd 3b 3e 99 c5 bc 72 6d 54 3c b5 3c 5f 3c
       0.0057771504 -0.024120923 0.012965547 0.0136253135
0000a0 0a 84 cf bd 47 d0 0b bd 9f ac ca 3c 60 a7 82 3d
       -0.10132606 -0.034134176 0.024740515 0.063795805
0000b0 02 4b a8 3d 7c bf 8f bc e7 77 be bd c2 3a 47 3c
       0.082174316 -0.017547362 -0.09300213 0.012160005
0000c0 5f 48 6c bd 66 9f 6d 3d a3 df c7 3d 40 5d 6a bd
       -0.057686206 0.058013342 0.09759452 -0.057217836
0000d0 9b 71 69 bd e2 ec cc 3c 4d 61 1e be 38 51 56 be
       -0.05699311 0.025015298 -0.15466805 -0.2092942
0000e0 5f ec 64 be 02 33 af bd 20 4f 09 be ca 82 9a bc
       -0.22355793 -0.08554651 -0.1340909 -0.018861193
0000f0 9f 17 7a 3d 45 a5 7e 3d 3c 21 a4 3c 3b 93 d6 3c
       0.061057683 0.062169332 0.020035379 0.026193252
000100 e8 8a 8e 3d 77 1a 72 3d de 75 94 3d 30 88 01 3e
       0.06960088 0.05910727 0.07249044 0.12649608
000110 c2 eb a4 3c 65 4e 8c bc ac 62 aa 3d 6b 92 97 bd
       0.02013195 -0.017127225 0.083196014 -0.07400974
000120 38 77 07 3d 88 ae 1a be 94 0c 58 be 10 ac 09 be
       0.03307268 -0.15105641 -0.21098548 -0.13444543
000130 57 bc ff bd 00 7a 02 be 63 37 91 bd ea b1 52 3d
       -0.12487095 -0.12741852 -0.07090642 0.051439203
000140 12 27 de bd a2 06 2f 3b b0 3f 73 bc f6 ec c9 3d
       -0.10847296 0.0026706834 -0.014846727 0.0985965
000150 05 4e 03 3e f0 39 e6 3d 8f b4 0f 3e 3d 53 c5 3d
       0.12822731 0.112415195 0.14033721 0.09635017
000160 9b a1 33 3e 30 fa 89 3d 66 d9 c1 3c 24 58 5c 3c
       0.17542116 0.067371726 0.023663234 0.013448749
000170 ab 57 01 be df 47 2a be 2f 96 0b be e4 21 a7 be
       -0.12631099 -0.16628979 -0.13631509 -0.32643044
000180 42 04 75 be e1 1e 9d bd c8 7b 79 bd 13 57 de bc
       -0.23927405 -0.07671905 -0.060909063 -0.02714113
000190 73 dc 41 bd 66 67 95 3d bd db d2 bc f7 b4 7a 3d
       -0.047329377 0.07295112 -0.025739545 0.061207738
0001a0 c0 46 09 bd 35 dd bc bc 2a 4f 0b bc 9d fb cf bd
       -0.033514738 -0.023054698 -0.008502761 -0.10155413
0001b0 33 31 8f bd 25 17 21 be 10 cf 7e bd 5e 95 6c 3d
       -0.06991806 -0.15731485 -0.06220919 0.057759635
0001c0 6a ba 1a be 8f d0 86 bd cc c8 a5 be 6b ad 52 be
       -0.15110174 -0.06582748 -0.32379758 -0.20573966
0001d0 b1 df 97 be 69 03 9e 3d d9 77 a9 bd 28 b1 83 3d
       -0.2966285 0.07715494 -0.08274812 0.06430274
0001e0 a4 6d 2f bd 84 4d 5f be 4b f1 15 bd 2b de 21 bd
       -0.04282917 -0.21806914 -0.036607068 -0.039518517
0001f0 84 4c 49 bd 7b 3b bd bb 81 f0 61 bd 16 65 cb bc
       -0.049145237 -0.005774913 -0.055161003 -0.024828475
000200 00 1e 9d bd ce 2c a2 bc 2c f6 ac bd ba 13 03 bd
       -0.07671738 -0.019796755 -0.08445391 -0.032001235
000210 cf 6c 02 bd ae 78 93 3d ea 36 aa bd 45 fa 65 3c
       -0.03184205 0.07200752 -0.08311255 0.01403672
000220 17 e7 d7 bd 0a 37 02 3d ed 68 a8 bd c7 f3 d3 3c
       -0.10542124 0.03179077 -0.08223138 0.025873078
000230 4b 6a 84 3c eb f2 7c 3d 3b fd 95 bb dc 23 85 3c
       0.016163966 0.061755102 -0.0045773066 0.01625245
000240 6b 34 35 3d 07 83 04 bd ad 99 08 be cc 9f 83 bd
       0.044239443 -0.03235152 -0.13339873 -0.06426963
000250 b8 f0 ed 3c ab e1 f3 3c d1 35 2f 3d a3 a1 d1 bd
       0.029045448 0.029770693 0.042775933 -0.10235908
000260 af ff f3 ba f5 b4 28 bc ba c7 9e 3c 68 ca 3b bd
       -0.0018615628 -0.01029705 0.019382346 -0.045847327
000270 15 c3 8f bd e4 f7 3b 3c 0c 57 d2 bd d3 19 b8 bd
       -0.07019631 0.011472676 -0.10270509 -0.089893006
000280 56 a5 82 3c 69 96 bc bd 17 fb 09 be a9 8a 9e 3c
       0.015947979 -0.09208376 -0.1347469 0.019353228
000290 e6 f6 55 bd 40 f4 b4 3b 8e f5 db 3b 58 17 7f bd
       -0.052237414 0.005522281 0.006712622 -0.06227812
0002a0 10 5c 09 3d 94 bc 82 bc 58 e9 79 3c 09 9e db bc
       0.033535063 -0.015959062 0.015253387 -0.026808755
0002b0 4c 02 68 3c 51 93 b1 bc 83 b4 83 3d 14 3c 62 bd
       0.014160704 -0.021676691 0.06430914 -0.055233076
0002c0 49 8c 5f 3d b4 7f 97 ba f3 b5 a9 bd 29 4a a5 bd
       0.054577146 -0.0011558444 -0.08286657 -0.080707856
0002d0 4b 78 69 3c b7 8c 3c 3c c5 bc 6d 3d 63 4b 1c bd
       0.0142498715 0.011508158 0.058041353 -0.038157832
0002e0 5d 00 fb 3d b2 56 ea bc 13 67 ce 3c 0f a6 56 bd
       0.12255929 -0.028605793 0.025195634 -0.05240446
0002f0 04 0d ee bc ef 18 85 bd fc d4 15 3d 64 2c e6 3b
       -0.02905894 -0.06498896 0.03658007 0.0070243347
000300 97 d2 4b 3d 3e 40 c0 bd 73 c5 dd bc eb 80 80 bd
       0.04976138 -0.09387253 -0.02707169 -0.06274589
000310 bd 08 ef 3d f7 dc d2 bd c3 87 04 be e3 0d 8c bd
       0.116715886 -0.10296052 -0.12942414 -0.06838586
000320 84 65 e0 3d c8 33 48 3c c7 5a 5b 3d c2 8d 06 3d
       0.109568626 0.012219377 0.05355337 0.032850035
000330 d9 05 20 bd 7a b6 2f bd bd cf ee 3c d3 52 29 ba
       -0.039068077 -0.042898633 0.029151792 -0.000645918
000340 4d 7a da 3c b1 a9 3f 3d 0e 7e a9 3d 6f 8e 0b 3e
       0.026669646 0.04679269 0.08275996 0.13628553
000350 73 c1 52 3d 29 c9 20 3d cc 51 42 3d 62 a9 6d 3d
       0.05145402 0.03925434 0.04744129 0.058022864
000360 89 e7 f6 3b 7f 09 15 3d b4 2f 08 be 86 67 21 be
       0.0075349254 0.03638601 -0.13299447 -0.15762147
000370 f6 24 50 3d 6c 6c d0 3d 98 0e 88 bd 13 d5 3d be
       0.0508165 0.1017693 -0.066434085 -0.18538313
000380 e7 45 2c be ea 05 f5 bd 82 94 5e bd 64 0d d6 bd
       -0.1682354 -0.11964019 -0.054340847 -0.10451773
000390 93 01 73 3d 29 7f 74 3c 2f 81 70 3d df 6a ba bd
       0.059327673 0.0149228955 0.05871695 -0.09102415
0003a0 e9 c9 8d 3d ea cd 8b 3d 9a bd 6d bd a1 5a dd 3d
       0.06923277 0.06826384 -0.058042146 0.10808302
0003b0 a6 8c 70 bc dd d4 a1 3d 7e 01 38 bd b7 ba 26 3c
       -0.014681971 0.079019286 -0.044923298 0.010176352
0003c0 04 e3 ef bc e8 58 48 bd 55 f4 c2 bd f1 f9 68 bd
       -0.029283054 -0.048912913 -0.09519259 -0.056878988
0003d0 14 3c f5 bd 48 ed 7e bd 04 82 9a 3c 69 6a d5 bd
       -0.119743496 -0.062238008 0.018860824 -0.10420687
0003e0 64 43 0f be 7e 8e cd bd 61 25 6e 3d e5 07 13 3d
       -0.13990551 -0.10036944 0.058141116 0.0358962
0003f0 9e 88 2f 3d 4d 28 46 bd d4 8b 7f 3c 6a 28 15 3e
       0.042854898 -0.048378278 0.0155973025 0.14566198

weight f4 [64, 12, 7, 7]
000000 c9 0a 3f 3d db 53 8f bd 1f 8b 06 bc d2 5b 59 3c
       0.046641145 -0.06998416 -0.00821188 0.013266521
000010 9d 62 0b bd 8d d0 89 3c ac 0f c4 bd 52 99 19 3c
       -0.03402959 0.016823078 -0.09573302 0.009374933
000020 42 55 53 bc da 0f 24 39 d5 42 60 3b 7d d7 76 3d
       -0.012898745 0.00015646164 0.0034219522 0.0602641
000030 32 39 46 bc e2 55 16 3d 46 45 5e 3b e0 1c 50 bd
       -0.012098597 0.036702998 0.0033915802 -0.050808787
000040 9c ec d9 39 0d 3d 91 bd 27 98 bc bd f4 dd 2e 3d
       0.00041565753 -0.07091723 -0.09208708 0.04269214
000050 ac a3 e0 ba f5 1b a8 bd c3 9a 18 bd f0 cd 2a bd
       -0.0017138622 -0.082084574 -0.037256967 -0.041700304
000060 e3 0b 77 3d c5 87 f1 bc b4 7a 3c 3d ed 75 f2 bd
       0.06031407 -0.029483685 0.046015456 -0.11838899
000070 d0 25 8c bc 85 ed 4b bc 06 92 1a 3d 90 e0 82 bc
       -0.017107874 -0.012446766 0.037736915 -0.01597622
000080 d4 45 f6 bc 85 cb a0 3d 6e 6d 80 3b 41 9d 52 3d
       -0.030062594 0.07851318 0.003919295 0.0514195
000090 87 a9 3e bc d9 a8 b7 bc 38 0b 63 bc c8 82 0c bc
       -0.011637098 -0.02241938 -0.013857655 -0.008576103
0000a0 fa 30 8e 3d 91 b8 30 be 14 7f d1 bb 35 0e 82 bd
       0.06942935 -0.17257906 -0.0063933227 -0.06350366
0000b0 e7 47 65 bd 18 e7 50 bd af 69 dc 3c 44 10 4f 3d
       -0.055976775 -0.05100164 0.026905863 0.05055262
0000c0 b2 ed 50 bd 44 7a 35 bd 9c b2 d1 bc 6c c9 df bc
       -0.051007934 -0.044306055 -0.025597863 -0.027317725
0000d0 bd 94 67 3e 16 ee aa bd 6c aa 47 bd 31 e2 8e bd
       0.22615333 -0.083461925 -0.04874651 -0.06976736
0000e0 76 c4 85 3d 26 3d 15 bd 8b 07 9c 3d 14 21 0b be
       0.065316126 -0.03643527 0.07618626 -0.13586837
0000f0 60 47 af bd d8 03 58 be f7 06 93 bc bd 80 35 bd
       -0.085585356 -0.21095216 -0.017947657 -0.044312228
000100 c0 c5 11 bd 3b 5e 0d be d8 86 0c be a7 5e 40 be
       -0.03558898 -0.13805477 -0.13723314 -0.18786107
000110 3a c7 71 bc 21 15 55 bd 6e 34 92 3d 4c 1e f3 3c
       -0.014756972 -0.052022103 0.071389064 0.029677533
000120 58 ec 92 bd 10 93 62 bd d2 c1 5b be 39 b7 ad bb
       -0.07173985 -0.05531603 -0.21460655 -0.005301383
000130 21 96 67 be 88 9a 51 be cc eb 57 be ae 24 0e be
       -0.22615863 -0.20469105 -0.21086043 -0.1388118
000140 7f ae 8a be 7e 1f 8b 3b d5 8e 96 bd fd 40 b0 3d
       -0.27086255 0.0042456975 -0.07351462 0.086061455
000150 ff b8 80 3d 61 c5 51 bd f0 6f c1 bd 2c b3 29 be
       0.06285285 -0.051213626 -0.094451785 -0.16572255
000160 a9 48 7d bd eb e2 95 be eb 5d 28 3d 9f 73 5f bb
       -0.061836872 -0.29274687 0.041105192 -0.0034096015
000170 5a 01 c4 bd 85 b4 28 be d1 e0 83 bd 1f 82 f7 bd
       -0.0957057 -0.16475113 -0.06439365 -0.120853655
000180 a4 6b a9 3d 7a c2 23 be 10 3d 32 bc 3d b8 4d bb
       0.08272484 -0.15992156 -0.010878816 -0.0031390332
000190 df fa de 3c 84 40 4b bd 1b 80 61 ba 18 64 8c 3c
       0.027219234 -0.049622074 -0.0008602158 0.017137572
0001a0 f7 b3 d9 bc bc 4d 92 3d 90 a5 e5 bd b2 a4 02 be
       -0.026575072 0.07143733 -0.11213219 -0.12758139
0001b0 a4 18 ff bd a9 71 6f bc b0 a6 40 3c 91 7f fc ba
       -0.12455872 -0.014614501 0.011758491 -0.0019264092
0001c0 8c 9a c4 3c bf fb e7 bd a4 fb e6 bd e5 9e 18 be
       0.023999475 -0.11327314 -0.112784654 -0.14904363
0001d0 e0 f2 11 bd a4 1a ad 3d be 09 27 bd d8 d8 a9 3b
       -0.035632014 0.08452347 -0.040780775 0.0051833205
0001e0 b0 87 0f bd 4d a2 20 bd a6 d1 9e bd 59 31 c1 bd
       -0.03504151 -0.039217282 -0.07754831 -0.094332404
0001f0 01 e0 a4 3c 93 b7 f9 bd c4 13 e3 bd ca 0b dc bd
       0.020126345 -0.12193217 -0.11087754 -0.10744436
000200 43 c3 31 bd 11 41 89 3b da 3a 19 3c 5e 83 09 3e
       -0.043399107 0.0041886647 0.00935241 0.13429019
000210 84 bd 27 3c a5 63 a5 bd ae bc e1 bd e6 3a 24 be
       0.010238055 -0.08075646 -0.11022316 -0.16038093
000220 b8 7d 1b bd 6c 36 0a bc 64 a4 ff 3d c1 a8 5d bd
       -0.03796169 -0.008435827 0.12482527 -0.054116014
000230 97 e2 17 bd 29 6a 60 3d 0e d3 1e be 3c 56 90 3d
       -0.037081327 0.054788742 -0.15510198 0.07047698
000240 c4 62 87 bd 7c 86 e5 3d 63 97 48 bd c9 55 b5 bd
       -0.06610635 0.112072915 -0.0489725 -0.08854253
000250 b3 c3 e3 bb 52 0f f4 3d 07 26 36 bd 23 1c 7a 3b
       -0.0069508194 0.119169846 -0.04446986 0.0038163743
000260 af 09 70 bd 4c f6 ad 3c b7 09 c0 3c e4 62 26 bd
       -0.058602985 0.021235608 0.023442132 -0.040621653
000270 1a 59 f8 3a 26 d6 2b bc 19 78 72 3d 6e 9b 01 3d
       0.0018947453 -0.010488069 0.059196565 0.03164237
000280 3d 64 4c bd 1b ac cb bc 8e 6c 26 3c a8 88 88 3d
       -0.049900282 -0.02486234 0.010157717 0.0666669
000290 7c 79 51 3d 87 4e 59 bd 16 3c 74 3d a0 01 d5 3d
       0.051141247 -0.053053405 0.059627615 0.104007006
0002a0 dd ba a9 3d 85 7a be 3d 14 18 ed bc 26 11 2d bb
       0.082875945 0.093007125 -0.028942145 -0.0026407926
0002b0 07 d7 80 bd 83 36 b9 bc 68 26 c5 bd fc e4 ea 3c
       -0.06291013 -0.022609001 -0.09626466 0.028673641
0002c0 ff a5 38 3d c8 82 b6 bc 70 b9 9c 3c cf e6 d8 bc
       0.04508018 -0.022279158 0.019131392 -0.026477246
0002d0 d9 5c b4 bc ab 89 88 bc f6 f1 13 be cb 2e e3 bd
       -0.02201693 -0.016667208 -0.1444777 -0.110929094
0002e0 8a 5a f7 3d f4 76 e2 3c 42 16 e1 bc 50 ab 19 bd
       0.12077816 0.027644612 -0.027476434 -0.037516892
0002f0 f9 05 59 3c d7 7c ce bd f4 bc 8c bd 24 b5 0c 3d
       0.013246053 -0.10082405 -0.068719774 0.034352437
000300 f2 40 43 3e 81 73 8a bd 5b 90 c8 3d 18 80 f7 3d
       0.19067743 -0.06760312 0.097931586 0.12084979
000310 01 83 82 bd 07 01 c2 bc 37 45 83 3e 52 65 32 3d
       -0.06372643 -0.02368213 0.25638744 0.043553658
000320 bc b4 12 be 26 6c 99 bd 3b b5 db 3c d2 23 73 3d
       -0.14326757 -0.07491331 0.026819816 0.059360333
000330 3f 36 a7 bd c0 7e 9e bd 4c 0f 21 be 7b 8a c8 bd
       -0.081646435 -0.077390194 -0.15728492 -0.09792038
000340 f5 2a 0f 3c 74 2a a5 bb 9b b8 d2 3d 00 8a 02 bd
       0.008738269 -0.005040461 0.10289117 -0.03186989
000350 01 ae a4 bd e0 c9 0f be aa 98 74 bd 77 b4 ff 3d
       -0.08041001 -0.14041853 -0.059715904 0.12485593
000360 3c 72 81 be 7a d6 1e bd 8d 5e ff 3b 2e c3 ea bd
       -0.25282466 -0.03877876 0.0077932538 -0.11463009
000370 b9 c9 09 bd 12 c5 e4 bd 4a 9d b5 bb 0b f9 8e be
       -0.033639643 -0.11170401 -0.005542432 -0.2792438
000380 4d 20 43 3d 78 e8 7e bd 8f f2 99 bd 90 60 27 bd
       0.047638226 -0.06223342 -0.075169675 -0.040863574
000390 e3 82 e8 bd 8c ed a2 3c 1c 04 dc bc 8b 50 75 3d
       -0.1135309 0.019888662 -0.026857428 0.059891265
0003a0 f6 c9 b1 3d c8 4d d2 3d ea 69 40 3d b0 11 a3 3b
       0.08681099 0.10268742 0.046976008 0.0049764737
0003b0 80 a6 5e 3d dd c3 85 be 04 f7 7d bd e6 d4 39 3d
       0.054358006 -0.26125994 -0.06200315 0.04536905
0003c0 48 3c 6f bc e8 96 18 3c d5 9f 43 3d 00 4a 43 3d
       -0.0146017745 0.009313323 0.04775985 0.047677994
0003d0 aa 08 dc 3d 0f ba d1 3d 20 cc 86 3d 65 33 61 3d
       0.1074384 0.10240566 0.065819025 0.054980654
0003e0 37 25 8b bd d7 a1 28 3d 0f 7e 69 bd 9b 99 83 3d
       -0.067942075 0.041169968 -0.057004984 0.06425782
0003f0 94 62 85 3d 67 24 c9 3c b3 b6 50 bd bf b4 ab bd
       0.06512943 0.02455349 -0.050955486 -0.08384084

weight f4 [64, 64, 3, 3]
000000 a3 69 11 3d eb cb bd bc c9 4c 73 3e b1 74 06 bd
       0.035501134 -0.023168525 0.2375976 -0.03282613
000010 a5 8e ea be 83 65 6c 3d 29 dd 0a bd 1f 16 25 be
       -0.45811954 0.057713997 -0.03390232 -0.1612172
000020 6e 28 b2 3d 02 62 9d bc 11 e0 cf 3b 83 97 d8 3d
       0.086991176 -0.019211773 0.0063438495 0.105757736
000030 e6 df be 3c 1a a7 d5 bd bb 49 26 bc 92 fc 94 3d
       0.023300122 -0.10432263 -0.010149415 0.072747365
000040 e9 d6 93 bd 07 a8 0a 3d f2 04 8c 3e 2b a6 8d 3d
       -0.07218725 0.03385165 0.27347523 0.0691646
000050 44 6e d5 3d 72 e5 a0 bd 50 e6 29 3e 8a 4e b8 be
       0.10421422 -0.07856263 0.16591763 -0.3599742
000060 de 4e f9 3c b5 77 00 bd a2 53 ba 3d 11 2c ec bb
       0.030433115 -0.03136416 0.09097983 -0.0072074016
000070 22 ba 3b be fd 77 3f 3e 17 37 1f be 42 8e 21 be
       -0.18332723 0.18698116 -0.15548359 -0.15776923
000080 de 7c 0f 3e 08 11 a6 3e 36 62 7e 3d a3 54 00 bf
       0.14012477 0.3243487 0.06210538 -0.50129145
000090 93 ec 7c bd ad f4 df 3b 19 f7 87 bd 5b c2 b8 3d
       -0.061749052 0.0068345875 -0.06638927 0.09021445
0000a0 94 7c 98 bc 1e 64 3b bd 55 bc 7e b9 af c5 34 bd
       -0.018614091 -0.045749776 -0.00024293487 -0.04413384
0000b0 65 aa 40 bd 5a 11 9d 3c 45 9a 5f bd 1e d6 7b bb
       -0.0470375 0.019173313 -0.054590482 -0.0038427184
0000c0 45 35 c0 bd 9a 26 ac bc b3 a2 a4 3d 4f 44 fc 3b
       -0.0938516 -0.0210145 0.08038845 0.0076985727
0000d0 24 2a 2f bd 20 ce 39 bd 25 fb 53 3c 76 78 2a 3d
       -0.042764798 -0.04536259 0.0129382955 0.041618787
0000e0 ff 83 bd bd 70 d9 e7 bc 5b 88 0a 3d 65 03 2a bd
       -0.09253692 -0.028301924 0.033821445 -0.041507144
0000f0 a0 20 b9 3d 5f cb 85 3c b9 72 f5 bd 33 35 26 bd
       0.09039426 0.016332326 -0.11984772 -0.04057808
000100 92 3b 5d 3c ff 5d 83 be 58 05 05 be 8a 83 87 be
       0.013502972 -0.2565765 -0.1299032 -0.26467544
000110 8a 99 f5 3e e2 b3 85 be fa 8a 3d 3c 6e 94 5b be
       0.47968704 -0.26113802 0.011568779 -0.2144334
000120 29 65 4d 3e 34 8a 84 3d 9f ad 11 bb c8 cf 02 bd
       0.20058121 0.06471673 -0.002222873 -0.031936437
000130 b6 86 20 3f 3e 75 12 3f b6 5e e5 bd 00 bf b0 bd
       0.6270555 0.5721015 -0.11199705 -0.0863018
000140 0e a8 77 3c cf ee d6 ba e8 f6 4f bd 8a 5f 35 be
       0.015115751 -0.0016398075 -0.050772578 -0.17712227
000150 a9 9d fd bc 90 24 80 bd 9b ff 39 be 4b 61 b0 bd
       -0.030958967 -0.06256974 -0.18163912 -0.08612307
000160 87 ec 29 bb 3d fa ec bd ab 0c 0f bd 0e 3a 7c 3d
       -0.0025928335 -0.11571167 -0.03492419 0.061578803
000170 dd 65 9f 3c a4 70 10 3c 01 4a 88 3d 31 d7 d0 bd
       0.019457752 0.008815918 0.0665474 -0.101972945
000180 f7 73 d4 3d e0 92 d4 3d 4c ff f3 bd 84 76 a3 3d
       0.10373681 0.10379577 -0.119139284 0.079815894
000190 7e 20 3f bd 6f 87 dc bc b3 54 03 3d 9c 59 b0 3c
       -0.046661846 -0.026920049 0.032063197 0.021527104
0001a0 11 36 31 3d 70 e3 74 3d d2 a2 98 bd 88 10 f0 bc
       0.043264452 0.059787214 -0.074529305 -0.029304758
0001b0 56 b9 a4 3c ad 1f 37 3d a6 db 0d 3d 20 8f bd bc
       0.020107906 0.044707943 0.0346333 -0.023139536
0001c0 67 1f 04 bd 7f e3 66 be 29 32 c9 3c 07 1f 4f bd
       -0.03225651 -0.2254772 0.024560051 -0.0505667
0001d0 3c b2 bb 3d c8 04 2d 3d 43 58 d2 bd ba f5 fe bd
       0.09164855 0.042240888 -0.10270741 -0.12449212
0001e0 4f ad 98 3c b3 67 24 be 1d 00 0f be 6a d2 5e 3d
       0.018637327 -0.16055183 -0.13964887 0.054399885
0001f0 3a b7 af 3d dd cd 57 3e 8d 87 ae bb 9b 04 44 be
       0.085798696 0.21074624 -0.0053262175 -0.19142382
000200 2f 7b 62 3e 14 5c 5a 3d 30 bb 72 be 79 97 ba 3e
       0.22117303 0.05331047 -0.23704219 0.3644369
000210 10 ab 68 bd 84 43 ca 3d c5 3e 5b be 9b c2 80 bd
       -0.056803763 0.09876159 -0.21410663 -0.06287118
000220 5e 62 43 3d 53 f2 d4 3d f7 4b 82 bb ed 6e ef bc
       0.047701232 0.10397782 -0.003976341 -0.029227698
000230 0b ec b6 bc d6 f6 d6 3c d4 0c bd bd ff 14 7b 3c
       -0.022329351 0.026240747 -0.092309624 0.01532483
000240 f7 4f 18 bd 71 2d 37 be 75 7f 88 bd f3 33 17 bd
       -0.037185635 -0.17888428 -0.066649355 -0.036914777
000250 22 5f eb bd c6 21 94 3e a4 b9 98 3d fd 56 fc bc
       -0.114927545 0.28932017 0.07457283 -0.030803198
000260 9a ac 30 be e6 66 c7 bd 3b 8a 3d be a6 33 de bb
       -0.17253342 -0.09736423 -0.18509762 -0.0067810593
000270 6c d7 0c be bc a1 8a bd 68 89 86 3d 1f b4 76 bd
       -0.13754052 -0.0676913 0.06569177 -0.06023037
000280 26 ce ca 3d e0 a8 74 bd 1b 37 37 38 69 1e 85 bd
       0.09902601 -0.059731364 4.368192e-05 -0.06499941
000290 90 cb 59 be 36 bc 51 bd e2 b4 98 bd 1f 9b 29 3c
       -0.21269059 -0.051204883 -0.07456376 0.010351925
0002a0 af 7c 69 bd 19 2f d3 bc a9 12 a0 be 8f 42 21 3e
       -0.057003673 -0.025779294 -0.31264237 0.15748046
0002b0 df 93 bf 3d 63 a2 be 3c 94 26 7b 3e dc 8d 8d be
       0.09354376 0.023270791 0.24526435 -0.27647293
0002c0 ae fe 2b bd 48 7a e6 bd 58 b9 46 3d 0b 89 76 bc
       -0.04199093 -0.11253792 0.0485166 -0.015047322
0002d0 c0 2c e8 3c 0e 37 dd 3c 10 ff 40 bc ff 27 85 3d
       0.028341651 0.027003791 -0.011779562 0.06501769
0002e0 64 8b 99 bc cc 0f 1d 3b 0c fe eb bc f0 29 5c 3d
       -0.018743224 0.0023965714 -0.028807662 0.053750932
0002f0 9e a0 0f bc 47 83 c6 be 4c f0 14 be e1 c6 d5 3e
       -0.008766321 -0.38772032 -0.14544791 0.41753295
000300 83 1d b0 bd d2 e0 38 3e a6 6d ba 3c d7 ca f8 bd
       -0.08599379 0.18054512 0.022757363 -0.12148064
000310 21 63 1c bd ea 9f 21 be 1f a3 1d bd e8 1f 96 bc
       -0.038180474 -0.15783659 -0.038485643 -0.018325761
000320 12 26 f3 bc e2 e5 fa 3c 08 ca 43 3d 4a 0b 36 3d
       -0.02968124 0.030627195 0.047800094 0.04444436
000330 1b a2 7d bd e9 af b0 3b 6a 4f c6 3d 60 2e 98 3d
       -0.061922174 0.005392064 0.09683116 0.0743072
000340 94 db d2 bc fe ef 22 be 3a 9e 21 3d f0 b6 89 bd
       -0.025739469 -0.15911862 0.039457537 -0.06724346
000350 0b 27 03 bd 80 5b 88 3d cc 2d 03 bc 3e 8c 72 bd
       -0.032019656 0.06658077 -0.008006524 -0.059215777
000360 d7 14 e8 bd 15 28 a9 3d d6 ea 1f bd b2 12 0d be
       -0.113321 0.08259598 -0.039042316 -0.13776663
000370 87 60 04 3e b4 5f f1 be 31 54 78 bd 00 d9 3d 3d
       0.12927447 -0.47143328 -0.060627166 0.046349525
000380 ab 83 ac bd 04 2a 11 3d cb e2 cf bb 0f bb 02 bd
       -0.08423551 0.03544046 -0.0063441745 -0.031916674
000390 29 9a 48 3d 0c 31 88 3d e6 d9 f8 bc 6e 46 b5 3d
       0.048975144 0.0664998 -0.03037734 0.08851324
0003a0 9b c5 e8 bc 6e ea aa bc a5 a5 d5 bc 94 f7 05 bd
       -0.028414538 -0.020863738 -0.026079962 -0.032706812
0003b0 5a 6c 38 3d b2 ac 7a bc 64 46 a0 bd 62 86 bc 3c
       0.045025207 -0.015299963 -0.07825926 0.023013297
0003c0 27 f9 cd bd 59 50 6e bc 0a 6f 8b bd f8 b4 a1 bc
       -0.10057288 -0.014545524 -0.068082884 -0.019739613
0003d0 10 82 76 be 1d 44 51 3b b8 0c d9 3c 86 b3 ff 3d
       -0.24073052 0.0031931468 0.026495323 0.12485413
0003e0 2a 80 ca be ed 17 83 3d 4a 01 21 3e 5c 26 9a bc
       -0.39550906 0.06401048 0.15723148 -0.01881712
0003f0 9a 01 99 bd 4a 77 d1 bc 80 fb 91 3c b4 c6 a2 bd
       -0.074710086 -0.025569577 0.01782012 -0.07948056

bias f4 [64]
000000 3b ea bb 3d 1b da 7e 3d ae bb c2 3d 16 31 93 bd
       0.09175535 0.06221972 0.09508453 -0.07187097
000010 11 a0 36 bd 69 68 02 bd de 0f 18 3e fc c2 b9 3c
       -0.044586245 -0.031837855 0.14849803 0.022675984
000020 db f5 f3 3d 54 5e f9 3d 52 40 8d 3d f6 d3 5c bc
       0.119121276 0.12176195 0.06897034 -0.01347827
000030 64 88 f9 3a 6d fe 2a 3b 69 bb bd 3d 46 d4 2e be
       0.001903784 0.002609159 0.09264261 -0.17073163
000040 5c 4f 95 39 d4 08 28 3c e7 e6 e4 3d 5d f7 69 bd
       0.00028478622 0.010256011 0.111768536 -0.05712067
000050 f4 d6 4e bc 34 cb cb bc 5f 31 27 3e bb 3b 39 bd
       -0.012624491 -0.024877168 0.16327427 -0.04522298
000060 2d ab 0d 3e a7 5a e8 3d 5b c5 15 3b fa 27 dd 3c
       0.1383483 0.113454156 0.0022853229 0.026996601
000070 32 85 2b 3e 4d f9 dd bc dc a2 31 b9 0c 81 31 bd
       0.16750029 -0.027096415 -0.00016940705 -0.04333596
000080 05 a4 cb 3c 22 7c 41 3e 14 4c 47 bb 0d 18 2b bc
       0.024858484 0.18895009 -0.0030410336 -0.010442746
000090 3c 02 0a 3d 76 77 ab 3d 01 91 28 3c 85 de f2 b9
       0.033693537 0.08372395 0.010288478 -0.00046323627
0000a0 27 ad 78 bd e8 77 0f 3c 81 0c 01 3f 73 1a c2 3d
       -0.060712006 0.008756615 0.50409704 0.09477701
0000b0 a1 79 6f b9 24 8b f2 3d f1 86 81 3c 9c b8 13 bd
       -0.00022838126 0.11842945 0.015811415 -0.03606473
0000c0 3d 00 82 b9 c9 37 74 bd 72 39 b5 3d d3 bd e8 b9
       -0.0002479571 -0.059623513 0.088488474 -0.00044391918
0000d0 e8 59 c4 3d a0 7c 9d bd 64 6d 3b bd b5 af 7d 3e
       0.09587461 -0.07689786 -0.04575862 0.24774058
0000e0 ef 00 84 3c 40 3f 44 bc a1 3a 15 bc f8 cd b2 ba
       0.016113726 -0.011977971 -0.0091082165 -0.0013641706
0000f0 85 00 31 3d 3e c9 be bc 75 17 a0 ba d9 bd c6 bd
       0.043213386 -0.02328932 -0.0012214022 -0.09704179

weight f4 [64, 64, 3, 3]
000000 70 8f 39 bc fe f0 09 3d 60 f8 75 3d ed ba 24 3d
       -0.011325702 0.033677094 0.060051322 0.04021733
000010 60 e1 b6 be a6 10 48 be 68 d0 c2 3c 5a fd 45 be
       -0.35718822 -0.19537601 0.023781016 -0.19334927
000020 cb dd 8b bc 5d b3 05 3c aa ea 5d 3d 78 d8 5f 3e
       -0.017073533 0.008160439 0.05417887 0.2185992
000030 48 61 03 be e6 14 35 3e 2c e6 52 be 24 54 52 3e
       -0.12830079 0.17683753 -0.20595616 0.2053991
000040 b0 aa 80 be 47 96 09 be 53 69 5b 3d e8 cd 1d 3e
       -0.25130224 -0.13436233 0.053567242 0.15410578
000050 30 b4 0c 3e 2a ca e1 3d 81 3a ec bd 07 2a 19 be
       0.13740611 0.11024888 -0.11534596 -0.14957438
000060 22 e7 6f bd 74 ea b5 bd 26 9e 48 bd 4c 5c c4 3d
       -0.058570035 -0.08882609 -0.048978947 0.09587917
000070 7a 50 c2 bc cd 0c 19 3c fb c8 5c bd ea 6e e0 bc
       -0.023720015 0.009341431 -0.053902607 -0.027396638
000080 4f 42 3e 3d de 7f 9c bd ba bb ba bc 30 f7 4a bd
       0.046449956 -0.07641576 -0.022794593 -0.049552143
000090 7a e5 1a 3d 99 db a3 3d 3e bc 50 3d f1 9f b3 bd
       0.037816502 0.08000869 0.05096077 -0.08770741
0000a0 3e 56 92 bd 78 ab fa bd 44 b8 36 3c f9 e9 f7 3c
       -0.07145356 -0.12239736 0.011152331 0.030262934
0000b0 fd fa 7d bd bb d4 94 bd 0c 28 80 3d b8 df 5d 3d
       -0.06200694 -0.072671376 0.06257638 0.054168433
0000c0 ce 66 83 3d 35 2f d3 bd cf 4e 99 3d d3 e6 37 bd
       0.06416093 -0.103117384 0.07485735 -0.044897866
0000d0 a0 eb f0 bc 05 57 6c 3d d0 6f 7e be dc ef e2 3d
       -0.02940923 0.057700176 -0.2484734 0.11080906
0000e0 c5 5d 54 bd 28 67 f2 bd 7f 5b f4 3d dc 34 a4 3d
       -0.051847238 -0.11836082 0.11931514 0.080178946
0000f0 c5 6f 17 bd 78 33 1f be 7a 82 9b bd c2 63 9d 3e
       -0.036971826 -0.15546978 -0.07593246 0.30740172
000100 1f 29 fb 3c ef 1e ec 3c 79 ff e9 bd b9 02 56 bc
       0.030659257 0.028823344 -0.11425681 -0.013062173
000110 9d 4f 18 bf 10 fc 7d 3d 1f dd ba bc 38 c8 04 be
       -0.5949648 0.062007964 -0.022810517 -0.12967002
000120 64 a4 7b bd 35 48 a9 3c 08 a3 a2 3c ac b4 6b 3d
       -0.061436072 0.020664314 0.01985313 0.05754535
000130 92 c4 8d bb 67 12 56 3e ee 59 57 3c e7 53 90 be
       -0.0043264115 0.20905457 0.0131439995 -0.28189012
000140 38 d3 6e be 05 89 19 be 4a 06 1c be df 0f 13 3d
       -0.23322761 -0.14993675 -0.15236774 0.035903808
000150 8a 3f 76 3d 41 01 b9 3d f9 83 ca bd 9f 9c 88 bd
       0.06011919 0.09033442 -0.09888453 -0.06670498
000160 9f 29 2a 3d c9 a7 49 be 56 a4 db bd dd de 74 bc
       0.0415436 -0.19692911 -0.10724704 -0.014945713
000170 0f 33 87 be ed 44 27 3d 16 d8 b3 3c 2a 44 3c 3e
       -0.26406142 0.040837217 0.021953624 0.18385378
000180 ff 3c 0e be e8 7e d3 bd eb 80 62 bd 60 ac 00 3d
       -0.13890456 -0.1032694 -0.055298727 0.03141439
000190 ef 0b 26 bc 65 6b d7 3d 85 fd dc bd ee ae 56 be
       -0.010134681 0.10518531 -0.107905425 -0.20965168
0001a0 ab f3 2d 3e b4 72 72 be 01 39 03 be f1 76 e2 bd
       0.16987483 -0.23676568 -0.12814714 -0.110578425
0001b0 56 3e 03 3d 26 10 70 3d ee fc 03 bb 7f 24 d4 bd
       0.03204187 0.05860915 -0.0020139772 -0.103585236
0001c0 3b 26 c0 bd 73 01 eb bd 31 b0 ab 3d 63 ea ff bc
       -0.09382292 -0.11474886 0.08383215 -0.031239694
0001d0 2f e0 6d be be c8 69 bc ed a0 d0 3c 4a 14 6d 3d
       -0.2323005 -0.014269052 0.02546736 0.057880677
0001e0 f7 b1 0a 3b a7 02 9d bd 46 6a ae 3c 49 ca 92 3d
       0.0021163204 -0.076665215 0.02129091 0.07167489
0001f0 2b 86 5f bd ac 0d d0 bd d2 16 fa bc 9a 83 2b 3d
       -0.054571312 -0.10158858 -0.03052846 0.041873552
000200 93 a1 aa 3d 7a 6a c0 3b 65 e7 b0 bb 55 f8 9e 3d
       0.08331599 0.005872068 -0.005398678 0.07762209
000210 a1 70 25 3c 75 9c 02 be a2 e5 86 bd ad 30 0f bd
       0.010097654 -0.12754996 -0.06586768 -0.03495853
000220 c4 4b 24 bc e7 88 5d 3d 73 2f 06 bd c2 39 52 be
       -0.01002783 0.05408564 -0.032760095 -0.20529845
000230 9c 09 12 3e 14 be 3d 3b ce a7 02 bc fc 41 ba 3d
       0.14261478 0.0028952407 -0.007974578 0.09094617
000240 b7 12 7d bd 6c c5 a0 bd 2a c6 22 be f8 16 a4 3d
       -0.061785426 -0.07850155 -0.15895906 0.080121934
000250 52 11 3f 3c b4 e6 98 3e ce 3b de bd b7 79 13 be
       0.011661844 0.29863513 -0.108512506 -0.144019
000260 65 03 f2 bc 5c 84 1c bd df ef 05 3e 9c 05 80 bd
       -0.029542634 -0.038212165 0.13079785 -0.0625107
000270 26 3f 92 3b 7d 41 3c 3d 87 48 9b bc 7a 4c 35 3d
       0.0044630943 0.045960892 -0.018955482 0.044262387
000280 7e 4a 6d bd 00 2c 93 bd 9d df 24 3e fe dc d2 3d
       -0.05793237 -0.07186127 0.16100927 0.10296057
000290 88 30 0e be e6 b1 a6 3d a0 a9 45 3c 40 52 38 bd
       -0.138857 0.081394 0.0120643675 -0.045000315
0002a0 77 e9 ca bd 6f 5d 8e bd 1f f2 a9 bd fa c4 0d be
       -0.09907811 -0.06951415 -0.08298134 -0.13844672
0002b0 b3 e0 9b 3d eb 78 07 3e ec 3e e7 3d fb 08 d9 3d
       0.07611217 0.1322972 0.11291298 0.10597416
0002c0 23 b6 4e 3d d9 f1 bb 3c 2c 8c 7f bc 95 e3 05 bd
       0.050466668 0.02294247 -0.015597384 -0.032687742
0002d0 95 80 1c ba 96 37 ab 3d e3 24 ac bb fb 9e a2 3d
       -0.0005970088 0.083602116 -0.0052534207 0.07940479
0002e0 0e 17 ca bd 44 43 5a 3c f1 3b eb 3d 82 d4 8b 3c
       -0.098676786 0.013321701 0.11486042 0.017069105
0002f0 27 a6 60 bd a9 52 14 3d 3b 5c 84 3d 04 6f a0 3d
       -0.054845955 0.036211643 0.06462904 0.078336746
000300 b6 2f ab 3d d2 c6 6f bb d6 04 d7 3d bb 2b 90 3e
       0.083587095 -0.0036587012 0.10498969 0.28158364
000310 a6 91 96 3d 0b 96 c4 3b b9 4c d9 3d b5 50 44 3e
       0.07351999 0.005999332 0.10610337 0.19171412
000320 77 f6 04 3d 68 b3 eb bd 20 45 81 bd ff c6 5a be
       0.03246161 -0.115088284 -0.06312013 -0.21364973
000330 cf d4 3a bd a7 5e b6 bd 7e 35 5c bc 47 74 80 bd
       -0.045613106 -0.08904772 -0.013440488 -0.06272178
000340 93 da 97 3d f1 cc bf 3d 2b 99 9c bd 38 78 11 be
       0.074147366 0.09365261 -0.07646402 -0.14206016
000350 00 51 82 bd 97 b5 86 bd c8 b2 98 bd 5a 53 06 bd
       -0.06363106 -0.06577604 -0.07455975 -0.032794334
000360 49 31 1e be 0b 3b f0 3d f4 24 4a 3e ea dc a7 3d
       -0.15448488 0.117300116 0.19740659 0.08196433
000370 25 20 7b bd 4e 78 12 be 90 02 fc bd 01 6d 71 bd
       -0.061309952 -0.14303705 -0.12305176 -0.058941845
000380 77 0e 30 be 10 b1 e4 3d 1f 41 f4 3c a8 74 cb bd
       -0.17193018 0.111665845 0.029816208 -0.0993436
000390 70 78 89 3d c9 90 19 3e 60 fc 61 3e aa 35 bb be
       0.06712425 0.14996637 0.2206893 -0.3656438
0003a0 f0 7f d1 3d 0c fa 74 be 8f 6f b9 bc 8c 89 71 3e
       0.1022948 -0.2392351 -0.022636203 0.23587626
0003b0 80 1a a8 3d 37 03 26 be 81 be 0a be 78 22 0d be
       0.082081795 -0.16212164 -0.13549234 -0.1378268
0003c0 c5 54 a9 bc 8a 60 c0 3d b5 f7 75 bc 8d 1e e6 bc
       -0.020670304 0.09393413 -0.015012671 -0.02809074
0003d0 4c c8 7e bd 35 34 d2 3d f5 bf 01 bd 20 bd 4e be
       -0.062202737 0.10263864 -0.031677205 -0.20189333
0003e0 c0 b7 96 be 82 d6 3d bc 19 33 8d bd a9 60 8e be
       -0.29437065 -0.011586787 -0.06894512 -0.2780812
0003f0 c5 39 1d be fa 7c f9 3c c3 08 9a be 88 35 1b 3e
       -0.15354069 0.030455101 -0.3008481 0.1515714

bias f4 [64]
000000 07 1b fb 3c d7 a3 1d 3e d4 29 58 bc b9 28 0b bd
       0.030652536 0.15394531 -0.013193566 -0.033974383
000010 5a aa 10 be 72 1b 85 bd af 45 26 bd 90 d1 2b bd
       -0.14127484 -0.064993754 -0.0405938 -0.0419479
000020 53 e1 34 bc 91 d8 2b bd 86 b5 a8 3d b9 29 38 bd
       -0.01104005 -0.04195458 0.08237748 -0.044961665
000030 74 dc 04 3d b7 97 67 bd 4c 4c b3 3d 3b e1 78 bc
       0.032436803 -0.05654117 0.08754787 -0.015190418
000040 7b 94 ff bc 07 d4 1a 3e d8 79 88 bb 27 e0 60 3d
       -0.03119873 0.15119945 -0.0041649155 0.05490127
000050 b1 52 bf 3d bc bb f9 bc 3f e7 9f 3e c4 3a da 3d
       0.09341944 -0.030485027 0.31231114 0.1065574
000060 7a 33 b3 bc 3a fa 0a 3d 96 b2 af bd 44 eb 3c bc
       -0.021875132 0.03393004 -0.085789844 -0.011530701
000070 59 74 90 bd 86 41 32 bb 13 2d 8b bc 5c 3b e9 bd
       -0.070534416 -0.00271997 -0.016989266 -0.11388275
000080 10 06 39 3d 2a b5 31 bd dd 87 9b 3d f3 c1 32 bc
       0.045171797 -0.043385662 0.07594273 -0.010910499
000090 9e 0b df bc a5 e0 1e bd d5 94 5b bd 7d 80 ed 3b
       -0.02722722 -0.038788456 -0.053608734 0.007247983
0000a0 eb 2b 73 bd d4 51 0d bd 31 d9 1d 3e b9 19 c9 3b
       -0.059368055 -0.034501866 0.15414883 0.0061370996
0000b0 a8 d7 41 bd ea 73 7d bd 67 e7 64 bd cd 28 b0 bc
       -0.047324806 -0.061878122 -0.055884745 -0.02150383
0000c0 43 84 81 3d f5 03 84 39 2a d5 43 bd dd f8 65 bd
       0.06324055 0.0002517995 -0.04781071 -0.056145538
0000d0 d3 3d 12 3e a4 2c 08 3f 74 b0 c8 3e 06 f2 a5 bc
       0.14281397 0.53193116 0.39197123 -0.020257007
0000e0 c8 87 4b bd cd 13 6b bd 64 0a 20 bd 61 7b 0f 3e
       -0.049690038 -0.05739193 -0.03907241 0.14011909
0000f0 fd 21 93 bd eb 45 69 bd 47 64 7e bd 8b 03 45 3d
       -0.07184217 -0.056951445 -0.06210735 0.048099082

weight f4 [64, 64, 3, 3]
000000 0a 63 c7 bc e8 50 09 3c 9c 55 5d bd 8c 6a 6c 3d
       -0.024339218 0.008381106 -0.05403672 0.0577188
000010 80 5b b8 bd 53 35 81 bd d5 8e ed bd c9 2e b5 3c
       -0.09001827 -0.06308999 -0.11599509 0.022117035
000020 82 06 c6 3c 50 93 6a 3d 4e 0c 9d bc 04 ec 39 3d
       0.024173025 0.057269394 -0.019170906 0.045391098
000030 82 9d ee 3b 6d 6d 67 bc 29 91 43 bd 4c 38 84 bc
       0.00728196 -0.01412521 -0.047745857 -0.016140126
000040 4b 65 26 3d 30 3b b7 bd 88 f2 d8 bd 12 b8 84 3c
       0.040623944 -0.08946836 -0.10593134 0.016201053
000050 3a 34 b2 3d 26 81 c1 bc 71 c1 ba bb db 71 79 ba
       0.08701368 -0.023621153 -0.0056993295 -0.0009515562
000060 b2 06 e1 bc 22 5c 9f 3c 70 1f 84 bd 2c 09 15 3c
       -0.027469013 0.019453112 -0.06451309 0.009096425
000070 6f 90 42 bd 4e 2e 92 3c 44 41 6f bd d5 b8 9a bc
       -0.047501024 0.017844345 -0.05841185 -0.018886963
000080 79 af 63 3d d3 a6 76 3d 18 59 81 bd 8d 9f 15 bd
       0.055587266 0.06021769 -0.063158214 -0.036529113
000090 53 d7 2c 3c 50 9c 2f 3c 26 0a 11 3d 6e d1 f4 bb
       0.010549384 0.01071842 0.03541007 -0.007471255
0000a0 6f 82 00 3d f8 50 36 bc 5d 10 bc 3c df 70 15 3d
       0.03137439 -0.011127703 0.022957021 0.036484595
0000b0 8c ba 1f 3c 52 d9 d1 3c f6 8e 6d 3c ff ad 41 bd
       0.009749066 0.025616322 0.014499417 -0.047285076
0000c0 64 c6 b5 bb 3c 4f a5 3a e1 13 6f bb 51 22 83 bd
       -0.0055473316 0.0012612115 -0.0036480355 -0.0640303
0000d0 10 f0 23 bd e1 dd bf bd 78 52 f7 bc 69 16 c3 3c
       -0.040023863 -0.09368492 -0.030190691 0.023814397
0000e0 91 6f e4 bc 34 e9 db bd 4e cb 8a bd 1a 2a c0 3d
       -0.02788523 -0.10737839 -0.067770585 0.0938303
0000f0 f5 97 88 3d f5 a0 a3 bb 2c bc 02 bd df fc a5 3c
       0.066696085 -0.004993553 -0.031917736 0.02026218
000100 af 4f b9 bd fd ea 66 3d dc 9a 0f 3d 23 23 8b 3c
       -0.090484016 0.056376446 0.035059795 0.016984528
000110 a8 59 88 bc a8 c4 d0 bc 42 ed 05 3c 2a 1c 6c bd
       -0.016644314 -0.025484398 0.008174242 -0.057644047
000120 95 23 07 bd c9 20 b9 bd c5 7c 10 be ea 0b 07 be
       -0.032992918 -0.090394564 -0.14110096 -0.13188139
000130 36 5b 12 3c 74 8c bf bd af f2 f8 bc 30 96 74 3c
       0.008932879 -0.09352961 -0.030389158 0.014928386
000140 dc 54 f2 bb 70 09 1c 3d 60 66 ef 3c 2b 56 e2 bc
       -0.00739537 0.038094938 0.02922362 -0.027628979
000150 36 05 05 bd 4e 70 ff bc 50 33 71 bc b0 d9 c4 bd
       -0.032475673 -0.03118148 -0.0147217065 -0.09611833
000160 24 93 0b 3d 78 ff 92 bd 74 49 f1 3c ed f5 d8 bc
       0.03407587 -0.07177633 0.02945397 -0.026484454
000170 40 8d 9c bd e3 85 da 3c 12 fe 26 be 5b 90 ae bd
       -0.07644129 0.02667517 -0.16307858 -0.08523627
000180 1c 28 99 bd f8 42 a2 3c c8 3a 18 3b ab cd d7 bb
       -0.074783534 0.019807324 0.0023228396 -0.006585797
000190 ad e6 0f bc 95 fa e0 bd 01 47 12 bd 90 24 1c bc
       -0.008783025 -0.10985295 -0.035712246 -0.009530202
0001a0 db f2 7d bd e7 5f c2 bb 70 0c 2d 3c f2 80 e9 bc
       -0.061999183 -0.0059318426 0.010562047 -0.028503869
0001b0 b8 2c 64 bd a1 37 11 bc 9f 27 a5 3d 93 30 99 bd
       -0.05570671 -0.008863361 0.08064198 -0.07479968
0001c0 39 44 c2 bd d2 28 44 bd 1d 75 1e bc 39 a9 15 bd
       -0.09485669 -0.04789049 -0.009671477 -0.036538336
0001d0 ca 92 3c bc 7c 92 05 3c f3 a5 9b 3d 15 85 2a bc
       -0.011509607 0.0081526 0.07600012 -0.010407706
0001e0 c0 63 36 bd 04 d0 5f 3d 0c 30 c0 bc 01 64 14 3c
       -0.044528723 0.05464174 -0.02346041 0.009057046
0001f0 8c ad 7e bc 93 98 10 bd 0b 8e d8 bd 70 b5 82 bc
       -0.0155443065 -0.035301756 -0.105739675 -0.015955657
000200 26 93 a5 3d 04 d9 62 3d e2 a5 b2 bd 27 95 2b 3d
       0.08084707 0.055382743 -0.08723046 0.04189029
000210 2c 09 84 bd 8f be 3f bd 2b bd 47 bd a0 ce 25 bd
       -0.06447062 -0.04681259 -0.04876439 -0.040480256
000220 44 79 1f 3d 8b fa 99 3d 33 14 50 bc b8 9f 25 3c
       0.038934007 0.075184904 -0.012700128 0.010108881
000230 2e 76 d1 bc b4 f4 9f bd e9 c5 01 3e 91 5e 02 be
       -0.025569048 -0.07810345 0.12673153 -0.12731387
000240 00 86 5c 3d a8 75 b2 bd 6f 9f 8a 3d ce dd e4 3c
       0.05383873 -0.087138474 0.06768691 0.027937796
000250 b7 fa 3b bd c8 ac 77 bc 33 c6 2e bd f0 a3 af bc
       -0.045893397 -0.015116878 -0.042669486 -0.021440476
000260 09 1d c0 bc 2d ee ea bc 83 f0 a3 bd a1 29 99 bd
       -0.023451345 -0.028678024 -0.08004858 -0.07478643
000270 f5 9b ef bd 02 68 93 bd 71 bc ba 3c 03 4d 80 3d
       -0.11699668 -0.07197572 0.022794934 0.06264689
000280 5a 85 d5 3d fc e2 38 3c fe db e6 bc 47 26 04 3d
       0.104258254 0.011284586 -0.028181072 0.032263067
000290 01 38 8d bd d5 4f bd 3d f9 75 98 3b e1 80 17 3d
       -0.068954475 0.092437424 0.0046527353 0.036988143
0002a0 e2 21 ec 3d 9d 25 9f bc c3 db 7f 3d 31 85 de bc
       0.115299 -0.019427115 0.06246544 -0.02716312
0002b0 7f 44 53 3d dc 4a 32 be 43 43 21 bd fd 38 b3 bd
       0.051578995 -0.17411369 -0.039370786 -0.08751104
0002c0 91 03 53 3c 42 35 ad 3d 4e 56 7c bc 67 1a a3 3c
       0.012879268 0.08457424 -0.015401436 0.01991005
0002d0 03 8c 06 bd c9 7e 4f bc 77 c2 24 bc 5e 91 1f bd
       -0.03284837 -0.012664505 -0.01005613 -0.038956992
0002e0 10 87 64 3c 7d cc 2a bd ac aa b5 3d b7 f3 24 bd
       0.013948217 -0.04169892 0.08870444 -0.040271487
0002f0 1c 1c 05 3d b6 2c 4e 3d 60 1a b1 bc 6a dc 2d bd
       0.03249751 0.05033561 -0.021619022 -0.04244653
000300 6b 65 52 bd 74 70 2f 3c d4 22 b5 3d 5b a1 85 bd
       -0.05136625 0.010707963 0.088445336 -0.06524917
000310 7f cd 60 3d 65 80 05 3e 1e 4b c2 3c e7 a6 96 3c
       0.054883476 0.1303726 0.02371746 0.018390132
000320 b7 09 08 3d 5c eb 14 bd 22 47 e3 bc 40 5a 73 bd
       0.03321239 -0.03635727 -0.02774388 -0.05941224
000330 be b4 95 3d 68 0a 37 3d 34 5c d9 3c 7d 8d d9 bd
       0.073098645 0.04468766 0.026533224 -0.1062269
000340 50 81 0d 3d 8c bf 13 be 40 86 11 3e 10 bb f1 bc
       0.03454715 -0.14428538 0.14211369 -0.029508144
000350 39 71 a1 bc 3b 6e ba 3d 6a 80 08 3e 6d 16 21 3d
       -0.01970731 0.09103056 0.13330236 0.039328028
000360 41 12 dc 3b 64 25 2e 3b ba a7 6b bd 80 2a 33 3d
       0.006716043 0.002657258 -0.057533003 0.043741703
000370 96 be 56 bd a8 25 1b bd 45 50 ed 3c b5 81 18 3d
       -0.05242785 -0.03787771 0.02896894 0.037233073
000380 93 dc a9 bd 7f da a1 bc ce 1c c0 bd 60 59 7f 3d
       -0.08294024 -0.019757507 -0.09380494 0.062341094
000390 87 d2 42 3c 14 62 37 bc 32 12 78 ba 62 c9 9d 3d
       0.011891014 -0.011192817 -0.00094631605 0.07704426
0003a0 00 ae 98 3d 80 6d 27 bd 50 ea 19 bd 5b 47 77 3c
       0.07455063 -0.04087591 -0.037576973 0.015092696
0003b0 f7 bd 50 bd 4c 7e 2d bd 5a 55 37 bd b5 14 6b ba
       -0.050962415 -0.042356774 -0.044759132 -0.0008967624
0003c0 13 4c 90 3c b7 c3 87 bd 17 17 82 3d af a8 ed 3b
       0.0176144 -0.066291265 0.0635206 0.0072527747
0003d0 bc 05 82 3c 8b 7a af 3b 16 c6 a0 bc 30 79 ac bc
       0.015871875 0.0053551844 -0.019625705 -0.02105388
0003e0 ad 07 11 bd 2b 7b 2a 3d 9a f7 49 be 38 ce b0 bd
       -0.03540771 0.04162137 -0.19723359 -0.08633083
0003f0 3e ad 23 3d 0a 0f 65 bd be e7 15 bd 3f 04 b9 bd
       0.03996014 -0.055922545 -0.03659796 -0.09034013

bias f4 [64]
000000 6b a2 05 bd 97 e5 be bc 43 02 8c bd 92 b6 48 bc
       -0.032625597 -0.023302836 -0.06836369 -0.012250559
000010 01 8b 48 bd 1e 66 fc bd ae 85 aa 3c 5c 60 b8 3b
       -0.04896069 -0.12324165 0.020815697 0.0056267213
000020 17 e2 92 bc a6 54 72 3c 45 ac 72 bc 70 2f 0b 3d
       -0.017930074 0.01479069 -0.01481158 0.033980787
000030 2c 04 63 bc b0 4a 02 bc ef 12 bf 3c 93 0b 35 3c
       -0.013855975 -0.007952377 0.023324458 0.011050123
000040 aa ac b5 bd 90 51 93 3d 7a f0 47 3c 27 c4 28 bd
       -0.08870824 0.07193291 0.01220333 -0.04120269
000050 d0 f2 74 3b 5d 58 b3 3d a8 a0 26 bd 6b 44 46 3b
       0.0037376173 0.08757088 -0.040680557 0.0030253183
000060 cc 39 89 3b d7 3c 44 3d f2 00 8d bd 89 b3 52 bd
       0.004187798 0.047909584 -0.06884946 -0.05144075
000070 b5 7a 6f bd 40 cb de bc a1 9e 96 bc 75 a4 f7 3c
       -0.058466632 -0.027196527 -0.018386187 0.030229786
000080 80 9f f5 bb 4f 57 82 bc fc 31 ed bc 77 42 68 bd
       -0.0074958205 -0.015910773 -0.028954498 -0.05670401
000090 d3 b4 79 bd 7f bc 70 3a de 6f 59 3b 90 7d f4 bc
       -0.060963463 0.00091833615 0.003317825 -0.02984503
0000a0 36 45 91 bc e9 d4 89 3d 2c 06 26 3d db c7 a2 bb
       -0.017733198 0.067300625 0.04053323 -0.0049676723
0000b0 49 a4 c2 3b d0 0d 8b 3c 9b 11 5f bd 5a 16 94 bc
       0.0059399945 0.01697436 -0.05446015 -0.018077064
0000c0 46 04 7e bd 8c 2f 0f 3d 39 01 54 bd 7d 80 c6 3b
       -0.062015794 0.034957454 -0.05175898 0.0060577975
0000d0 a7 5a 70 3d b2 e0 65 bd 79 23 b5 bd 5e e9 63 bc
       0.058680203 -0.05612249 -0.088446565 -0.01391062
0000e0 7e 11 ee bb 9b 7d 2d be 78 94 5f bd 66 dd f1 3c
       -0.007265269 -0.16942446 -0.05458495 0.029524516
0000f0 f2 b7 30 bd cb 01 08 bd 0d 81 5f bd ca bc 81 3b
       -0.043144174 -0.033204835 -0.05456643 0.003959273

weight f4 [12, 64, 3, 3]
000000 63 2a b2 bc 93 91 3f 3c e7 83 00 3d 00 2c fd bc
       -0.021748727 0.011692422 0.031375792 -0.03090477
000010 10 49 37 3c a9 94 5c 3c 51 3b 00 bd ef 61 a7 3a
       0.011186853 0.013463178 -0.03130657 0.0012770275
000020 be e9 e1 3a bd af 8b bd fb 3c bd 3c 59 e2 bd 3c
       0.0017235798 -0.06820629 0.023100367 0.02317922
000030 b4 84 61 bd 72 be 3a 3d eb 9c 7e 3b b2 40 e2 3c
       -0.055058196 0.04559178 0.0038850855 0.02761874
000040 eb d7 a8 3b 19 22 71 bc 37 17 18 3c ca b4 4a 3b
       0.0051526926 -0.014717602 0.009282879 0.0030930513
000050 86 20 62 bd 21 74 8e bc ad 3f e5 3d 3c 00 ce 3b
       -0.055206798 -0.017389359 0.11193786 0.006286649
000060 ba 08 3d bb 91 e0 37 3c 7a 1f 21 bc 9a 16 d2 3d
       -0.0028844313 0.011222974 -0.009834165 0.10258217
000070 18 68 f5 bc de 99 95 3d 1a d8 34 3e e3 bb 01 bd
       -0.029956862 0.073047385 0.17660561 -0.031673323
000080 ac 61 59 3e b6 2c 22 bd 10 a2 a9 bc c3 93 07 3f
       0.21228665 -0.03959342 -0.02070716 0.5295984
000090 45 f4 b5 39 cc cd f9 3b f1 53 0d 3b 98 12 2b 3c
       0.00034705005 0.00762341 0.0021564926 0.010441445
0000a0 86 1b 17 bc 0d 2a 00 bd 73 e9 44 3c 09 d1 74 3b
       -0.009222871 -0.031290103 0.012018549 0.003735604
0000b0 0b b7 a8 3b d4 c4 c2 3b ed 09 21 bc d9 93 f6 3a
       0.0051487735 0.005943874 -0.009829027 0.0018812373
0000c0 19 a2 f8 bc 6b a6 bd 3d f3 c3 9a 3b de 35 91 3c
       -0.030350732 0.09260257 0.004723066 0.017725881
0000d0 2a 23 1f bd 70 93 b3 bc 0a 51 88 3c df 7a 3e 3d
       -0.038851894 -0.02192089 0.016640205 0.046503898
0000e0 5b 41 93 bc b4 cb a8 bd 0e 2a 3d be f8 f0 fe bc
       -0.0179755 -0.08241978 -0.18473074 -0.031120762
0000f0 32 bc 10 3e 0a bb a8 3d 60 a5 a1 bc b6 80 fe bc
       0.14134291 0.082388 -0.019732177 -0.031067234
000100 9a 6c 24 3d 4b c6 8a bc 72 6f 3f bb 68 ba b0 3d
       0.040142633 -0.016940257 -0.0029210714 0.08629304
000110 23 08 cf 3c 7d 8f 0f bd 57 92 16 3d a4 7e 15 bd
       0.025272435 -0.03504895 0.036760654 -0.036497727
000120 96 c0 87 bc 67 6f 0a 3c 99 1d 00 bd c3 db be 3d
       -0.016571324 0.008449412 -0.031278227 0.0931926
000130 3e 29 9f 3c d4 6f 5c bd f2 14 c7 3d 63 a0 ee bc
       0.019428845 -0.053817585 0.09720792 -0.029129213
000140 08 68 13 bd b8 0b b1 bc 01 93 56 bd 31 7e 07 bc
       -0.035987884 -0.021612033 -0.052386288 -0.0082698325
000150 94 76 65 bd d8 80 2d 3d 07 da cf bc 3f c7 8a 3c
       -0.056021288 0.042359203 -0.025372518 0.016940711
000160 c9 bf 59 3d 8d 2f 64 3d b4 e2 52 ba f9 27 bd bb
       0.053161416 0.05570941 -0.00080446457 -0.0057725874
000170 09 5e 0f bd 41 3e 61 ba 2a d0 3e bd 28 ce 22 3b
       -0.03500179 -0.00085923454 -0.04658524 0.0024842117
000180 ae b9 5d 3c a2 34 31 3d 48 59 ef 3c dc 26 2d bc
       0.013533039 0.043263085 0.029217377 -0.010568347
000190 98 f1 4c 3b af 78 6b 3c 42 ad 3e 3b 4c c6 e1 bc
       0.003127193 0.014372035 0.002909497 -0.027560376
0001a0 f2 eb 39 3d 44 e8 03 3b 9d f3 c4 3b 29 c6 43 bb
       0.04539103 0.0020127455 0.0060104863 -0.0029872751
0001b0 16 b6 76 bb 3e 52 46 bd 9c de 27 bd 7e e5 ad 3c
       -0.0037645153 -0.048418276 -0.04098378 0.021227594
0001c0 46 8e f0 ba a8 aa 90 3c bd 19 62 3c 37 9f 69 3d
       -0.0018352948 0.0176595 0.013800082 0.057036605
0001d0 7f 87 d1 bc b2 20 c8 3d 60 1a 00 3d 08 b1 6a 3c
       -0.025577305 0.09771861 0.031275153 0.014324434
0001e0 ad 4e 19 3d 50 73 2f 3d 9f 31 5d bd 6b f0 26 bc
       0.037428547 0.04283458 -0.0540024 -0.010189156
0001f0 cc 89 53 bd ef c7 c5 bd 22 21 9e bd 5d 34 67 3b
       -0.051645085 -0.09657275 -0.07721163 0.0035279014
000200 54 9e 01 3d 8f b5 85 bd 08 eb d9 ba ab da b4 3d
       0.031645134 -0.0652877 -0.0016625831 0.0883077
000210 45 9d 1b bc 2b c4 3d 3d 90 03 c5 3c 6b de 9a bc
       -0.009497945 0.04632966 0.02404955 -0.018904885
000220 c3 36 34 3d 68 22 8b bc fd fe 34 bd 3a 05 fa bb
       0.043997537 -0.01698418 -0.04418849 -0.0076300176
000230 da d1 c7 bc 85 1d b8 3c 89 27 a8 3c bd 65 bd 3c
       -0.024392057 0.022475014 0.020526664 0.023119802
000240 32 ea ff bc 31 00 98 3d 98 64 a0 3d 73 f1 b2 3b
       -0.031239603 0.074219115 0.07831687 0.005460912
000250 be 8a 41 3e bb e0 6e be 34 f7 97 3d 35 a5 1a 3e
       0.18900582 -0.23327915 0.07420197 0.15102084
000260 1b ac e0 bd 2d 55 22 3d 9c ee 93 bc c3 4a 1d 3d
       -0.109703265 0.03963201 -0.018058114 0.038401376
000270 44 7d 36 bc 9f cd 25 bd 68 e6 c7 bd d0 b2 5c 3b
       -0.011138264 -0.0404793 -0.097607434 0.0033675916
000280 8e 72 c6 bd 31 8a d7 bd 37 c3 e2 ba 91 05 5a 3c
       -0.09689818 -0.10524405 -0.001730061 0.013306991
000290 33 90 86 3d 99 33 6a bc ab aa 9b 3c 4f bf 27 3c
       0.065704726 -0.014294528 0.01900228 0.010238483
0002a0 26 55 b2 bd 6b 4c f4 bb 1d 33 0e 3b 27 b9 a9 bd
       -0.08707647 -0.007455399 0.0021697946 -0.08287268
0002b0 07 b4 03 bd a7 f8 d3 3a df b4 89 3d cc 69 c4 3d
       -0.03215411 0.0016172127 0.067239515 0.09590492
0002c0 e9 d5 23 bd 2b 39 4d 3d 29 c3 ae bb f1 b9 5b 3c
       -0.039998922 0.050103348 -0.0053333235 0.013411031
0002d0 79 bd 47 3c c0 8c 60 3d f5 9a 95 bc 28 5c da bc
       0.01219117 0.05482173 -0.018262366 -0.026655272
0002e0 74 b9 86 bd d4 d7 36 3d f1 a8 dd bc b9 8a af 3c
       -0.06578341 0.044639423 -0.027058097 0.021428453
0002f0 01 af 98 ba 84 9e 1b 3d b3 19 8c bc 60 13 93 bc
       -0.0011648835 0.03799297 -0.017102098 -0.017953575
000300 c1 7e 7a 3d 2e 9c 67 bc a4 f5 ef bc c7 c9 a2 3b
       0.06115604 -0.014136357 -0.029291935 0.0049679014
000310 be 7d 6e bc 6e 6f 46 3b bd 15 8e 3c 4d ac 6f bc
       -0.014556346 0.003027882 0.01734435 -0.014628482
000320 c2 56 a5 3b 84 d9 5a 3c 5a f9 05 3b ba 49 41 bd
       0.0050457427 0.013357524 0.0020442815 -0.04718945
000330 a2 91 88 3c 58 6c b3 3c 29 43 d4 b9 99 44 5d 3c
       0.016671006 0.021902248 -0.0004048583 0.0135051245
000340 03 42 f6 bc 73 59 19 bc b4 4d 8b 3b 0f ba 82 3d
       -0.030060774 -0.009359705 0.0042512063 0.06383144
000350 68 c0 7e bc d5 f3 8d bc 32 09 be 39 ba 00 43 3c
       -0.015548803 -0.017328182 0.00036246475 0.011902029
000360 dd 1b 7a 3d 62 0d 95 bc b0 75 98 bd a9 d7 ae 3d
       0.06106173 -0.018194858 -0.07444322 0.08537228
000370 de cb b2 3c f7 81 a5 bd f0 3c a5 bb 8d 55 0e 3c
       0.021825727 -0.080814295 -0.0050426647 0.008687389
000380 70 2a 50 bd 08 64 ff 3b 72 fb 2e bd ab cd f6 bc
       -0.05082172 0.007793907 -0.042720266 -0.030127367
000390 f2 66 46 3d 2c 63 14 bd f3 7e c4 3d 43 53 7b bb
       0.04843802 -0.03622739 0.09594526 -0.0038349188
0003a0 b1 cf a3 bc 2e ad 42 3c 32 69 e2 3c ce b9 b6 3c
       -0.019996496 0.01188211 0.027638052 0.022305395
0003b0 d7 20 ac 3c a2 40 3e bc c8 14 b4 bd b1 6f a6 bd
       0.021011753 -0.011612089 -0.08793026 -0.08126772
0003c0 1c 5f 5b 3d 96 a4 76 3d 10 31 3b 3c 52 1b b0 bd
       0.0535575 0.060215555 0.011425272 -0.08598961
0003d0 a3 e9 6f 3d 62 20 8e bc e5 b7 2f bc e5 bc 02 3e
       0.058572423 -0.017349426 -0.010724996 0.1276737
0003e0 ab b1 b7 3c ed 6b 30 bd 03 34 91 bc 32 c4 e9 bc
       0.022423586 -0.043071676 -0.017724996 -0.028535936
0003f0 c7 81 91 bb b4 3b 9b 3c ba a8 5f 3d e6 b5 36 bd
       -0.0044405195 0.018949367 0.05460427 -0.044607066

bias f4 [12]
000000 ce 91 70 3c d1 a3 76 3c dd 89 25 3c 2c be d1 3b
       0.0146832 0.015053705 0.01010367 0.006400844
000010 41 cf 55 bb b0 c4 60 3c fc 48 43 3c 30 bd 97 3c
       -0.0032624754 0.013718769 0.011919256 0.018522829
000020 f5 92 8c 3a 75 73 c2 3b 96 14 68 3c cf 3f ed 3b
       0.0010724949 0.0059341737 0.014165064 0.0072402726
