train_weight_sr3/model_epoch_18.pth (torch_old, 667646 bytes, 10 tensors)

weight f4 [12, 3, 13, 13]
000000 7b 8c bb 3c 4a ad 83 bd eb b1 5d 3d 87 f8 51 3c
       0.022894135 -0.06429537 0.054124754 0.012815601
000010 b9 5e 1c bd 99 15 86 bd 2d 68 5a 3d af 8c 83 3d
       -0.038176272 -0.06547088 0.053322006 0.06423318
000020 ae 9a ee bd 84 26 c7 3d 21 4c 9f bc 52 19 0f 3d
       -0.116505966 0.09724143 -0.01944548 0.034936257
000030 20 b3 0b bc 0b 00 b9 3c b0 7a 87 bd 19 b7 19 bd
       -0.008526593 0.022583028 -0.06615198 -0.03752813
000040 f9 d0 48 bd b9 3d c3 3d 46 25 25 3d 03 01 3d 3d
       -0.049027417 0.09533257 0.04031875 0.046143543
000050 8d 2d af bd 78 67 9c bc 94 af 0e bd e8 4e 03 bc
       -0.0855361 -0.019092306 -0.034835413 -0.008014418
000060 ce 9a fa 3c 91 6e 4b bc 5d 15 d2 bc e3 80 45 bd
       0.030591395 -0.012416498 -0.025644952 -0.04821862
000070 50 31 9f 3d d2 d0 6f 3d b4 b8 dc bc 86 7e 7a bd
       0.077730775 0.058548756 -0.026943542 -0.06115582
000080 1d cc 93 3d d4 ed d5 bc f2 cd 6e bc 32 b3 61 3d
       0.07216666 -0.026114382 -0.014575468 0.055102535
000090 a4 ef f3 ba 88 40 d6 bc d9 06 0c 3c 2e 83 9d 3c
       -0.0018610847 -0.026153818 0.0085465545 0.01922759
0000a0 37 8e c3 bd 0e 4c 05 bd ca db d4 3c 22 5b 83 3d
       -0.0954861 -0.032543235 0.02598371 0.064138666
0000b0 0b 21 a0 3d 90 19 70 bc b6 9b b9 bd 23 bc 6a 3c
       0.078188024 -0.014654532 -0.09062903 0.014327082
0000c0 51 77 6a bd f7 a3 6a 3d 50 69 ce 3d b6 fa 64 bd
       -0.057242695 0.057285275 0.100786805 -0.05590316
0000d0 03 fa 70 bd 0b cd c5 3c 07 8c 1c be 21 3a 58 be
       -0.05883218 0.024145624 -0.15287791 -0.21115924
0000e0 6f e0 64 be f5 17 bb bd 98 77 0a be b8 c2 8b bc
       -0.2235124 -0.09135429 -0.13522184 -0.017060623
0000f0 d8 6d 74 3d 77 9e 75 3d e6 3d 94 3c 99 0c c1 3c
       0.059675068 0.059965577 0.018095922 0.023565577
000100 5e 16 80 3d 69 dc 6a 3d 7a 03 93 3d 6b 53 04 3e
       0.06254266 0.057339106 0.071783975 0.12922446
000110 aa 3d b2 3c 54 57 6d bc 2b c4 a7 3d b8 a2 99 bd
       0.02175792 -0.014486153 0.08191713 -0.07501739
000120 9d 0e f2 3c 5f 97 20 be a6 fb 5f be 02 77 10 be
       0.029547984 -0.15682743 -0.2187334 -0.14107898
000130 e2 ec 01 be 0f 19 04 be 22 33 98 bd 8c 4b 40 3d
       -0.1268802 -0.12900184 -0.07431628 0.046947047
000140 ae 7e e2 bd 66 17 20 3a f1 ca 87 bc 8b 21 c6 3d
       -0.110593185 0.0006107002 -0.016576262 0.096743666
000150 f9 d7 03 3e ec 48 e7 3d 26 f0 10 3e d3 72 c5 3d
       0.12875356 0.112932056 0.1415411 0.096410416
000160 e1 b9 34 3e 75 6b 90 3d 73 a1 da 3c be ad ac 3c
       0.17649032 0.07051746 0.026688313 0.02107894
000170 fa 5d fa bd 65 a9 30 be b4 62 11 be 95 6b ab be
       -0.12224956 -0.17252119 -0.14197809 -0.33480516
000180 bb 36 7d be 55 6a a2 bd 00 11 78 bd 01 99 d4 bc
       -0.2472791 -0.079304375 -0.060563087 -0.025951864
000190 40 fe 43 bd d9 7e 94 3d c8 cc d8 bc 73 84 7b 3d
       -0.047849894 0.07250757 -0.026464835 0.06140561
0001a0 76 b5 e4 bc 54 86 a4 bc 18 98 14 bc 2e 0a cc bd
       -0.027918559 -0.020083584 -0.009069465 -0.09962879
0001b0 46 a1 8f bd 64 e5 21 be 9c 53 7e bd 4c b8 6a 3d
       -0.07013182 -0.15810162 -0.062091455 0.057304665
0001c0 fa d9 1c be e0 16 85 bd 21 3f a6 be d8 93 55 be
       -0.15317526 -0.06498504 -0.3247004 -0.20857179
0001d0 53 21 9d be b4 f2 a4 3d 90 f4 a5 bd 38 36 7c 3d
       -0.30689487 0.080541044 -0.08103287 0.061575145
0001e0 88 f0 35 bd 8c a9 62 be d6 8d 15 bd e8 e5 09 bd
       -0.04441884 -0.2213499 -0.03651222 -0.03366652
0001f0 8a 38 37 bd e3 12 c2 bb ec 54 61 bd 11 e7 e4 bc
       -0.044731654 -0.0059226616 -0.05501263 -0.027942212
000200 0e 7a 9a bd e9 96 95 bc 06 a1 9e bd ed c3 ec bc
       -0.07542811 -0.018260436 -0.077455565 -0.028902018
000210 9f ac 0b bd 6a 96 89 3d 8a 35 b4 bd 0f d3 58 3c
       -0.03410017 0.06718142 -0.08799274 0.013233914
000220 18 0e d3 bd 19 ae 0e 3d d4 f8 a8 bd 0b e9 de 3c
       -0.103054225 0.034834 -0.08250585 0.027210733
000230 b0 cc 7d 3c a1 2f 82 3d ce 1d b5 ba dd de ce 3c
       0.015490696 0.06356741 -0.0013818087 0.025252754
000240 44 e8 42 3d f5 2a 14 bd 68 5a 0d be e3 88 8b bd
       0.047584787 -0.03617378 -0.13804018 -0.068132184
000250 cb e6 c5 3c 76 8c d2 3c 39 bb 1e 3d 04 45 d6 bd
       0.024157902 0.025701743 0.03875277 -0.104623824
000260 7d 98 58 bb 56 3e 47 bc 49 45 a0 3c ed 51 3e bd
       -0.0033049874 -0.012160858 0.019564288 -0.04646485
000270 a5 7c 75 bd 99 a9 7f 3c b6 25 d7 bd ba 98 bf bd
       -0.059933323 0.0156044 -0.1050524 -0.09355302
000280 b9 50 53 3c 66 77 c6 bd 2b 2a 0e be 80 1f 85 3c
       0.012897664 -0.09690742 -0.13883273 0.016250372
000290 95 8e 66 bd 56 c6 08 3a a6 6a b2 3a ba 54 82 bd
       -0.05628832 0.00052175426 0.0013612106 -0.063638166
0002a0 31 e8 03 3d bc 5f 5a bc 5e 7a a7 3c 9c f9 dd bc
       0.032203857 -0.013328489 0.020444091 -0.027096562
0002b0 1b d7 81 3c b3 aa 8f bc 17 58 86 3d ca 5e 5d bd
       0.01584964 -0.01753745 0.065597706 -0.054045476
0002c0 2a 94 66 3d 97 dd 88 3b 52 20 a4 bd 16 7e 9b bd
       0.056293644 0.004176806 -0.08013977 -0.07592408
0002d0 4f cd 79 3c 32 82 41 3c 71 54 6f 3d d5 e8 02 bd
       0.015246703 0.011810826 0.05843014 -0.031960327
0002e0 5e 13 fc 3d e3 b0 f5 bc 2e 8d c2 3c 3a 57 68 bd
       0.123083815 -0.029991573 0.02374896 -0.05672381
0002f0 18 ae 0e bd c7 3d 8b bd fc 27 1f 3d 29 e3 f9 3b
       -0.034833997 -0.067988925 0.03885649 0.0076259566
000300 9c 8f 55 3d 63 a1 bc bd c8 18 e0 bc 0e 6e 86 bd
       0.05213891 -0.092104696 -0.027355567 -0.0656396
000310 f6 c1 ed 3d 2e f5 de bd 31 7f 05 be 85 c8 93 bd
       0.11609261 -0.10886608 -0.13036801 -0.072159804
000320 49 c6 d6 3d 2c a6 54 3c 1d 75 35 3d 43 33 e6 3c
       0.10487039 0.012979072 0.04430114 0.028100615
000330 41 36 3e bd 48 21 47 bd 25 0b f1 3c be 32 94 bb
       -0.04643846 -0.048615724 0.02942426 -0.0045226505
000340 f2 49 b0 3c 61 99 3f 3d c3 d6 a3 3d 02 11 0a 3e
       0.021519635 0.046777133 0.07999947 0.1348305
000350 98 bf 55 3d b0 c9 1d 3d 18 2b 55 3d 94 2b 5f 3d
       0.05218467 0.038522422 0.05204305 0.05448492
000360 6c 67 4d 3b 46 d5 01 3d 4f 8c 0b be 0f 96 1e be
       0.0031342162 0.031697534 -0.13627742 -0.1548693
000370 63 cd 47 3d 0c 7d c2 3d 82 ff 87 bd 4f 0e 3b be
       0.048779856 0.09496507 -0.06640531 -0.18267177
000380 fd 44 30 be 8d 4a ee bd ce 1a 65 bd 82 70 cc bd
       -0.17213817 -0.11635313 -0.055933766 -0.09982397
000390 1e 8d 76 3d 96 e0 43 3c be ec 6a 3d 5d ae b8 bd
       0.060193174 0.011955401 0.05735468 -0.09017632
0003a0 2e 58 8b 3d 1b 28 6f 3d c4 af 81 bd 66 b2 d5 3d
       0.06803928 0.058387857 -0.06332353 0.104344174
0003b0 db 05 70 bc c3 ed 9b 3d 34 86 2f bd 96 c2 25 3c
       -0.014649834 0.07613709 -0.042852595 0.010117194
0003c0 70 ef ec bc c7 78 58 bd 10 1c d1 bd f3 36 81 bd
       -0.028922766 -0.052849557 -0.102104306 -0.06309309
0003d0 1e d1 fa bd 79 75 7c bd 4f d4 7b 3c a3 b9 ce bd
       -0.12246917 -0.06163547 0.0153704425 -0.10094001
0003e0 4c 96 0d be 5c e4 c8 bd 46 c7 64 3d 4f 76 0c 3d
       -0.13826865 -0.09809181 0.055854104 0.034292515
0003f0 68 ce 28 3d d2 a9 4b bd 61 1b 3d 3c 36 8c 10 3e
       0.04121247 -0.0497225 0.011542172 0.14115986

weight f4 [64, 12, 7, 7]
000000 86 24 3e 3d db 3e 90 bd 8e 7e 0b bc 54 8f 54 3c
       0.04642155 -0.07043239 -0.00851406 0.012973625
000010 bf ae 0d bd 08 04 88 3c 29 d4 c4 bd 7f e2 19 3c
       -0.03459048 0.016603485 -0.09610779 0.00939238
000020 2f fc 56 bc 38 b9 cc b9 a1 92 d4 3a 07 e4 70 3d
       -0.013121649 -0.0003904791 0.0016218015 0.058811214
000030 b7 6a 4e bc 92 ab 14 3d fa dc 62 3b 59 cd 4e bd
       -0.012598685 0.036296435 0.0034616576 -0.050488804
000040 ae 72 da 39 a2 95 92 bd 91 7f bb bd 2c b5 2f 3d
       0.00041665643 -0.071574464 -0.09155191 0.04289739
000050 24 cf fb ba a1 8e a6 bd 69 2c 15 bd b7 33 28 bd
       -0.0019211513 -0.08132673 -0.036419306 -0.041064944
000060 8f 4c 6e 3d 41 0b 03 bd 4a 56 40 3d c5 95 f2 bd
       0.05817848 -0.031993154 0.04695729 -0.118449725
000070 94 52 8f bc aa 91 4c bc fd f4 19 3d 35 09 84 bc
       -0.017495431 -0.012485901 0.037587155 -0.016117672
000080 be b8 f8 bc b3 f2 9f 3d 7d cc 7c 3b e8 ff 51 3d
       -0.03036153 0.07809963 0.0038574033 0.05126944
000090 ff f5 41 bc fd 42 b9 bc 2a 2b 6e bc fd 48 0f bc
       -0.011838435 -0.02261495 -0.014536658 -0.008745429
0000a0 8e 8f 8d 3d 2a bd 30 be 5c 0e d5 bb 7c 54 82 bd
       0.069121465 -0.1725966 -0.006501956 -0.0636377
0000b0 50 ca 65 bd 2e 92 4d bd f7 b2 da 3c 5d 46 4e 3d
       -0.056101143 -0.050188236 0.026696665 0.050360072
0000c0 58 1f 51 bd 00 da 52 bd d7 8d a8 bc be a0 db bc
       -0.051055282 -0.051477432 -0.020575447 -0.026810046
0000d0 af d6 69 3e 76 8c a2 bd e3 db 3c bd 96 29 89 bd
       0.22835802 -0.07936947 -0.046108138 -0.06697385
0000e0 2d e9 85 3d be 25 0b bd 4e 1f 98 3d f7 2c 19 be
       0.065386154 -0.03397154 0.07427846 -0.14958559
0000f0 b1 08 a1 bd 58 ff 50 be fc 41 4c bc ce 8d 25 bd
       -0.07862986 -0.20409906 -0.012466904 -0.04041844
000100 a9 3d d5 bc b9 1b 0b be 12 eb 0c be a9 72 37 be
       -0.026030378 -0.13584794 -0.13761547 -0.17914833
000110 23 69 6c bc c6 b0 44 bd 21 fa 9a 3d 8b 0f 03 3d
       -0.014429363 -0.048020147 0.075672396 0.031997245
000120 23 95 9c bd 3b 67 80 bd d1 9b 5c be 97 61 f2 bb
       -0.07645633 -0.0626969 -0.21543814 -0.0073968875
000130 49 eb 66 be ae 80 31 be 8d 55 3d be d9 61 05 be
       -0.22550692 -0.17334244 -0.18489666 -0.13025607
000140 55 a8 98 be 47 9e 3b 3b 55 98 99 bd 50 32 ae 3d
       -0.29815927 0.0028628276 -0.07499758 0.0850569
000150 5c d1 9b 3d 8a ea 21 bd b8 62 d9 bd a9 67 41 be
       0.076082915 -0.039530315 -0.10614532 -0.188872
000160 d0 d7 7d bd 74 e6 95 be 0b 8a 26 3d 17 53 aa 3c
       -0.061973393 -0.29277384 0.04065899 0.020791573
000170 a2 c1 90 bd 86 77 30 be 0e 8a cc bd dc bf f8 bd
       -0.070681825 -0.17233095 -0.09987269 -0.12145969
000180 c1 c2 a8 3d d0 16 24 be 70 b8 31 bc 6d fe 50 bb
       0.08240271 -0.16024327 -0.010847196 -0.003188993
000190 e1 c7 de 3c cb 26 4b bd 95 20 37 ba 3f 1f 8d 3c
       0.027194919 -0.049597543 -0.0006985751 0.017226813
0001a0 b8 ac d9 bc ca e9 91 3d 85 a7 e5 bd 47 a4 02 be
       -0.026571617 0.0712467 -0.112135924 -0.1275798
0001b0 c9 13 ff bd eb 77 65 bc 90 ae 3f 3c 29 0b fd ba
       -0.124549456 -0.014005641 0.011699334 -0.0019305694
0001c0 3b e2 c2 3c ee 06 e8 bd e5 fe e6 bd 29 ac 18 be
       0.023789516 -0.11329447 -0.11279086 -0.14909424
0001d0 cb cd 11 bd de 00 ad 3d 7b 0c 27 bd 61 3a a9 3b
       -0.03559665 0.08447431 -0.040783387 0.00516443
0001e0 81 7e 0f bd 0e be 20 bd fc e1 9e bd 0f af c1 bd
       -0.035032753 -0.03924375 -0.07757947 -0.09457218
0001f0 b1 9d a5 3c 3b b9 f9 bd fb 17 e3 bd 9e 19 dc bd
       0.020216795 -0.12193533 -0.11088558 -0.107470736
000200 ad d3 31 bd cd 4d 89 3b 10 ef 16 3c 2b 80 09 3e
       -0.04341476 0.004190183 0.00921227 0.13427798
000210 e4 a4 27 3c 37 64 a5 bd 14 bc e1 bd 57 3b 24 be
       0.010232184 -0.08075755 -0.11022201 -0.16038261
000220 d2 81 1b bd 38 04 0b bc 86 a1 ff 3d 74 ae 5d bd
       -0.037965603 -0.008484893 0.1248198 -0.05412145
000230 4f c8 17 bd c5 ce 5f 3d bd d3 1e be 92 43 90 3d
       -0.037056264 0.05464055 -0.15510459 0.07044138
000240 7b 6d 87 bd 4b 87 e5 3d e6 9e 48 bd 48 56 b5 bd
       -0.066126786 0.11207446 -0.048979662 -0.088543475
000250 04 cf e3 bb 00 0d f4 3d 03 26 36 bd 3d 2b 7a 3b
       -0.0069521684 0.11916542 -0.044469845 0.0038172745
000260 b5 09 70 bd 20 ff ad 3c f6 01 c0 3c f5 63 26 bd
       -0.058603007 0.021239817 0.023438435 -0.04062267
000270 04 72 f7 3a b2 e9 2b bc 4d 74 72 3d 4e 96 01 3d
       0.0018878584 -0.010492729 0.059192944 0.031637482
000280 8e 61 4c bd a3 ae cb bc 5d 75 26 3c 78 87 88 3d
       -0.049897723 -0.024863547 0.0101598175 0.066664636
000290 ab 76 51 3d f7 51 59 bd cd 38 74 3d 41 03 d5 3d
       0.05113856 -0.053056683 0.059624482 0.10401011
0002a0 67 b9 a9 3d cb 77 be 3d 08 28 ed bc 68 59 2d bb
       0.08287316 0.093001924 -0.028949752 -0.0026450995
0002b0 6b d8 80 bd 26 47 b9 bc bb 29 c5 bd 17 e0 ea 3c
       -0.062912785 -0.022616934 -0.096271 0.028671307
0002c0 16 a3 38 3d a4 81 b6 bc 57 b3 9c 3c f7 f0 d8 bc
       0.045077406 -0.022278614 0.019128485 -0.026482088
0002d0 d1 69 b4 bc 9f 9a 88 bc 5b f2 13 be c6 2f e3 bd
       -0.022023113 -0.016675292 -0.1444792 -0.110930964
0002e0 f0 58 f7 3d 6c 73 e2 3c a1 1a e1 bc f1 ac 19 bd
       0.1207751 0.027642928 -0.027478518 -0.037518445
0002f0 45 f5 58 3c f2 7c ce bd 10 be 8c bd f3 ae 0c 3d
       0.013242071 -0.10082425 -0.06872189 0.034346532
000300 b3 3f 43 3e 8d 74 8a bd 91 8f c8 3d 59 7e f7 3d
       0.19067268 -0.067605115 0.09793008 0.12084646
000310 63 c6 89 bd 37 c4 e1 bc bd 35 84 3e a6 44 3f 3d
       -0.067272924 -0.027559383 0.2582225 0.046696328
000320 a8 16 0a be d8 bd 93 bd 85 b1 de 3c b0 c0 81 3d
       -0.13485205 -0.07213944 0.027184257 0.0633558
000330 97 d6 9d bd b8 d2 96 bd 0f bf 17 be c0 60 ca bd
       -0.077069454 -0.0736441 -0.14818977 -0.09881735
000340 73 18 30 3c 82 6b a6 bb b8 4a da 3d d2 10 0f bd
       0.010748017 -0.005078734 0.10658783 -0.03492815
000350 de db 9e bd d4 0a 0c be be e3 40 bd b1 76 02 3e
       -0.0775678 -0.13676006 -0.047092192 0.1274059
000360 3c ad 7c be 6a 93 25 bd fc 9c 33 3c 24 2b f4 bd
       -0.24675459 -0.040423788 0.010962721 -0.11922291
000370 8f 8a 06 bd e8 f3 cc bd a7 95 2c ba 1e 38 8c be
       -0.032846984 -0.10007459 -0.0006583579 -0.27386564
000380 fb b1 55 3d 98 62 63 bd 2f e6 7e bd b6 b2 16 bd
       0.05217169 -0.05551395 -0.06223124 -0.036791526
000390 43 3a ef bd 26 c5 9b 3c 45 e9 e1 bc cb 94 89 3d
       -0.116810344 0.019014906 -0.027577052 0.06717833
0003a0 89 8a c6 3d cd dc ef 3d e0 28 61 3d 8a 9b 7c 3b
       0.09694392 0.11712036 0.054970622 0.0038544857
0003b0 09 26 5d 3d 78 f1 85 be 61 c5 5d bd 82 0f 5f 3d
       0.05399135 -0.2616079 -0.054143313 0.05445815
0003c0 e7 d1 90 b9 f9 7f 84 3c 77 42 41 3d 3e a8 41 3d
       -0.0002762221 0.016174303 0.047182526 0.04727959
0003d0 28 b6 da 3d 62 bd d1 3d 3f c9 86 3d 84 3a 61 3d
       0.10679275 0.102412 0.065813534 0.054987445
0003e0 c5 23 8b bd 12 a0 28 3d 2b 84 69 bd 61 8b 83 3d
       -0.06793932 0.04116828 -0.05701081 0.06423069
0003f0 21 63 85 3d a6 19 c9 3c 1d be 50 bd 41 b5 ab bd
       0.06513048 0.024548363 -0.050962556 -0.08384181

weight f4 [64, 64, 3, 3]
000000 da 10 14 3d b3 d1 06 bd 8f ec 6f 3e 59 0a 07 bd
       0.036148883 -0.03291483 0.23430084 -0.032968853
000010 38 dd e6 be 9f 5c 88 3d 57 a1 05 bd 18 e1 23 be
       -0.45090652 0.06658291 -0.03262457 -0.16003835
000020 8a 3c 99 3d f0 48 9e bc f1 55 90 bb c8 17 cc 3d
       0.0748225 -0.019321889 -0.0044047763 0.099654734
000030 61 2f 09 3d 56 44 e9 bd 00 96 95 bc b0 eb 8c 3d
       0.03349245 -0.11389987 -0.018260002 0.06880891
000040 53 e9 9c bd c6 16 17 3d 63 76 8a 3e b5 2c 89 3d
       -0.076616906 0.036886953 0.27043447 0.0669798
000050 08 88 d0 3d 6c e3 a6 bd 1f aa 25 3e 08 1d b4 be
       0.10182196 -0.08148846 0.16178177 -0.351784
000060 e8 cd d3 3c 69 78 08 bd 06 55 ad 3d 8a ec 8e bc
       0.02585502 -0.033317957 0.084634826 -0.017446775
000070 00 21 30 be 0c 96 43 3e 4a 6c 11 be e0 12 1c be
       -0.17200089 0.19100207 -0.14201465 -0.15241575
000080 fb 8c 16 3e a6 34 aa 3e a9 46 dd 3d ef 6c 00 bf
       0.14702217 0.33243293 0.10804493 -0.5016622
000090 c8 24 7e bd 3c 73 d2 3b 3e 2d 88 bd db 88 b8 3d
       -0.062046796 0.0064224284 -0.06649254 0.09010478
0000a0 e9 8f 9b bc 3f 78 3c bd 98 60 5c ba 38 97 35 bd
       -0.01898952 -0.046013113 -0.00084067276 -0.044333667
0000b0 4a 66 41 bd 8c 09 c3 3c 20 59 51 bd dd a1 b8 bb
       -0.04721669 0.023808263 -0.051110387 -0.00563453
0000c0 1b 64 c5 bd 12 3f 8a bc b2 7b ba 3d 4e 6a 1e 3c
       -0.09638234 -0.016875777 0.09105624 0.0096689
0000d0 f2 f8 4f bd f3 2b 7a bd 5f 2b 53 3c d5 3d 2a 3d
       -0.050774522 -0.06107707 0.012888758 0.041562874
0000e0 45 a0 bd bd 42 2a e8 bc d9 52 0a 3d b9 39 2a bd
       -0.092590846 -0.028340463 0.033770416 -0.041558955
0000f0 0d 16 b9 3d e3 06 85 3c 6a 99 f5 bd 22 55 33 bd
       0.09037409 0.016238635 -0.11992152 -0.04378236
000100 5c 52 c3 3c 8c 9c 86 be 2a 76 0a be 78 80 80 be
       0.023842983 -0.2629131 -0.13521639 -0.25098014
000110 53 aa f6 3e dc f9 87 be f7 20 d4 3c df 89 64 be
       0.48176822 -0.26557815 0.025894625 -0.22318219
000120 db d5 4b 3e eb 10 88 3d 50 e1 06 bc bb a4 05 bd
       0.19905798 0.06643852 -0.00823243 -0.032627802
000130 bf 38 1f 3f b4 b4 0d 3f c6 91 e5 bd 41 c0 ca bd
       0.6219596 0.55353856 -0.11209445 -0.09899951
000140 07 84 f8 3c c1 a4 d6 ba 4e f3 4f bd 14 60 35 be
       0.030336393 -0.0016376005 -0.050769143 -0.17712432
000150 99 a3 fd bc 40 25 80 bd 54 00 3a be 9d 61 b0 bd
       -0.030961799 -0.06257105 -0.18164188 -0.08612368
000160 0d d9 29 bb 40 f9 ec bd cc a5 44 bd 80 2d 6a 3d
       -0.0025916726 -0.11570978 -0.04800968 0.0571723
000170 17 3d 86 3c 63 28 0a bc d8 03 9c 3d ef 08 da bd
       0.016386552 -0.0084324805 0.07617921 -0.10646235
000180 f4 b4 8e 3d 4d cc f7 3d a6 07 1a be 66 67 a8 3d
       0.06968108 0.12099514 -0.1504198 0.08222847
000190 2b 19 00 bd 25 1c 99 bc fc 20 1b 3d 82 5c 07 3d
       -0.031274002 -0.018690178 0.037873253 0.033047207
0001a0 80 2d 30 3d 74 f4 6e 3d 2a df 8e bd 6c ea 0a bd
       0.043012142 0.058338597 -0.06976159 -0.03391497
0001b0 d0 5f 9b 3c 55 3e 2d 3d 18 4d 0f 3d 1c f6 a3 bc
       0.018966585 0.042295773 0.03498563 -0.020014815
0001c0 ca 16 f4 bc 53 94 63 be 3b 12 c9 3c 35 f3 4c bd
       -0.029796023 -0.2222455 0.024544826 -0.050036628
0001d0 73 a0 bb 3d 6f a7 52 3d 0d b9 bf bd dd a5 eb bd
       0.09161463 0.05142921 -0.093614675 -0.11506245
0001e0 3a 2c ba 3c 07 ce 25 be 9a 48 0f be d1 28 61 3d
       0.022726167 -0.16191874 -0.13992539 0.054970566
0001f0 5a 45 ac 3d b5 a7 4d 3e 71 e6 2d bc 2b 85 40 be
       0.08411665 0.20083506 -0.010614024 -0.188008
000200 44 e2 62 3e 9d 11 56 3d f4 78 76 be 07 c5 ba 3e
       0.22156626 0.05226289 -0.24069577 0.36478445
000210 29 98 61 bd d2 f7 c4 3d 53 8a 55 be d8 c4 80 bd
       -0.05507675 0.096175805 -0.20853548 -0.06287545
000220 78 85 43 3d 08 f9 d4 3d 43 9a 81 bb 82 3d ef bc
       0.047734708 0.103990614 -0.003955157 -0.029204134
000230 f6 6a b7 bc 42 04 d7 3c f4 08 bd bd 2a 81 7a 3c
       -0.02238987 0.026247147 -0.09230223 0.015289584
000240 39 91 18 bd 7b 3e 37 be b7 93 88 bd dd 6b 17 bd
       -0.03724787 -0.17894928 -0.06668799 -0.0369681
000250 4d 81 eb bd 5c 1d 94 3e ee 92 98 3d 76 58 fd bc
       -0.114992715 0.2892865 0.074498996 -0.03092597
000260 8f ca 30 be d9 ee e7 bd c7 89 34 be 1a b5 cf 3b
       -0.1726477 -0.113248535 -0.17630683 0.0063387277
000270 6e f8 0d be cf d7 82 bd dc 96 9c 3d b2 2e 34 bd
       -0.138643 -0.063888185 0.07645962 -0.043989845
000280 d7 a8 67 3d a4 7f 45 bd 77 fe 4d bc 42 b9 6a bd
       0.056557503 -0.04821743 -0.012572876 -0.057305582
000290 13 15 43 be 67 33 ad bc b9 d7 74 bd 62 cd 7c 3c
       -0.19051008 -0.021142675 -0.05977604 0.015429826
0002a0 38 b6 66 bd 83 d9 0d bd 70 bc 99 be b2 2f 21 3e
       -0.05632612 -0.034631263 -0.3002658 0.1574085
0002b0 12 27 bc 3d 97 e0 9e 3c 71 2f 7d 3e 56 50 91 be
       0.091871396 0.019394202 0.24725129 -0.28381604
0002c0 65 44 f3 bc 2a b5 e6 bd 57 31 53 3d ae 67 09 bc
       -0.029695699 -0.11265023 0.051560726 -0.008386536
0002d0 64 87 e7 3c 8b 88 dc 3c 44 ae 41 bc 05 e7 84 3d
       0.028262801 0.026920578 -0.011821333 0.06489376
0002e0 01 3a 99 bc 3e 8d 1c 3b 47 b7 ec bc 48 b6 5b 3d
       -0.018704416 0.0023887898 -0.028895987 0.053640634
0002f0 31 05 11 bc 10 11 c9 be 83 33 07 be 98 63 d7 3e
       -0.008851335 -0.3927083 -0.13203244 0.42068172
000300 cb 51 b2 bd 62 07 2f 3e b1 26 3d 3c c9 9b 04 be
       -0.08707007 0.1709266 0.011544869 -0.12950052
000310 01 7c 35 bd b1 7a 1a be 55 ad 1d bd 2b 10 96 bc
       -0.044307712 -0.15085866 -0.03849538 -0.018318256
000320 12 41 f3 bc 39 96 fa 3c ba bc 43 3d dd e6 35 3d
       -0.029694114 0.03058921 0.047787406 0.04440962
000330 d5 b4 7d bd bf e4 af 3b 41 44 c6 3d b1 23 9a 3d
       -0.061940033 0.005367845 0.09680987 0.07526339
000340 83 8d d2 bc 38 0c 23 be 9f 20 94 3d c0 18 5c bd
       -0.025702244 -0.1592263 0.072327845 -0.05373454
000350 b1 19 93 bc 47 f4 bb 3d d7 a9 ec bc 40 b5 bc bd
       -0.017956587 0.091774516 -0.02888958 -0.09214258
000360 7e ab 03 be f1 a4 88 3d 77 14 3c bd ff 42 21 be
       -0.12858388 0.06672085 -0.045917954 -0.15748213
000370 86 e3 00 3e ea a2 dd be 46 d0 42 bd 79 79 22 3d
       0.12586793 -0.43288356 -0.047561906 0.039666627
000380 ac 3c a8 bd be 1c 11 3d dc ce cf bb 2f cd 02 bd
       -0.08214697 0.0354278 -0.006341798 -0.03193396
000390 27 98 48 3d 69 35 88 3d c4 f5 f8 bc b8 48 b5 3d
       0.04897323 0.06650812 -0.030390628 0.088517606
0003a0 f8 af e8 bc 5d d9 aa bc 16 47 fc bc cb 9f 25 bd
       -0.028404221 -0.0208556 -0.030795615 -0.040435594
0003b0 e4 e8 30 3d 53 8f a1 bc 27 92 9c bd f6 11 02 3d
       0.04319085 -0.019721663 -0.07645064 0.03175541
0003c0 e0 66 da bd 8b a5 62 bc f9 0c a3 bd a7 cf 57 bc
       -0.10664153 -0.013833414 -0.07961459 -0.013172067
0003d0 35 b5 79 be 12 d2 a1 bb 52 2e cb 3c 08 5f 08 3e
       -0.24385531 -0.0049383724 0.02480236 0.13317502
0003e0 ab 05 c4 be 70 5c 8a 3d be a9 29 3e a6 fc be bc
       -0.38285574 0.06755912 0.16568658 -0.023313832
0003f0 63 99 96 bd e6 f3 d1 bc 1c 4d 8f 3c 0c b3 a1 bd
       -0.07353475 -0.025628995 0.017492823 -0.078954786

bias f4 [64]
000000 bc 77 ae 3d 91 cb 7c 3d 35 48 ba 3d 16 31 93 bd
       0.08518931 0.061717574 0.09095804 -0.07187097
000010 53 56 2b bd 69 68 02 bd ab f4 2a 3e d4 5f c0 3c
       -0.041830372 -0.031837855 0.16694896 0.023483194
000020 42 8b f8 3d 04 9c fe 3d 3a 5c 8c 3d ad e2 68 bc
       0.12135936 0.12432101 0.06853528 -0.0142142
000030 55 63 22 3b 89 ae bc 3a 2e 13 ca 3d 1b 65 35 be
       0.0024778445 0.0014395277 0.098669395 -0.1771435
000040 6f 2c 19 3a b5 e4 96 3c a5 bf f2 3d 5d f7 69 bd
       0.0005843108 0.018419603 0.118529595 -0.05712067
000050 f4 d6 4e bc fd 83 b9 bc 34 bf 2d 3e bb 3b 39 bd
       -0.012624491 -0.022645945 0.1696747 -0.04522298
000060 7f 60 12 3e a9 3e e6 3d 46 03 7f 3b ea f5 db 3c
       0.14294623 0.1124242 0.0038911863 0.02685066
000070 ff cf 2e 3e 4d f9 dd bc a4 a6 51 ba 0c 81 31 bd
       0.17071532 -0.027096415 -0.00079975487 -0.04333596
000080 ee 54 ce 3c cd ff 4a 3e e5 54 fc ba 07 21 ed bb
       0.025186982 0.19824143 -0.0019251375 -0.007236603
000090 0c 24 e6 3c 08 82 9b 3d cd b7 39 3c 84 74 9a ba
       0.02809336 0.07593161 0.011335325 -0.0011783992
0000a0 e6 5d 81 bd 2c 46 34 3c 87 4c 03 3f c0 46 b9 3d
       -0.06316738 0.011003058 0.51288646 0.090466976
0000b0 3c b4 a6 38 da e6 fa 3d 59 08 4c 3c af 01 42 bd
       7.949068e-05 0.12251063 0.012453162 -0.047364887
0000c0 73 ed e5 b9 c9 37 74 bd da 5f b9 3d 0a 5e b9 3b
       -0.00043855197 -0.059623513 0.09051485 0.0056569623
0000d0 57 73 c9 3d f6 1e 92 bd 64 6d 3b bd 00 67 86 3e
       0.098364525 -0.071348116 -0.04575862 0.26250458
0000e0 2c f8 64 3c b2 20 52 bc 4b 61 24 bc e3 22 ab ba
       0.013975184 -0.012825178 -0.010032962 -0.0013056662
0000f0 c8 27 27 3d e6 74 8b bc 27 37 b7 bb e0 91 c6 bd
       0.040809423 -0.017023515 -0.0055912915 -0.09695792

weight f4 [64, 64, 3, 3]
000000 6e c7 58 bc 88 05 32 3d 39 5b 6d 3d 01 92 3b 3d
       -0.0132311415 0.043462306 0.057948325 0.045793537
000010 ce a1 bd be c1 8b 43 be 2c fa ff 3c fe 30 48 be
       -0.3703751 -0.1909628 0.031247221 -0.19549939
000020 05 d2 91 bc 45 b1 9f 3a 67 ce 47 3d 4f f4 85 3e
       -0.01780034 0.0012183568 0.048780825 0.26162955
000030 ab 20 e5 bd 12 f8 46 3e c7 be 57 be 6a 38 50 3e
       -0.111878715 0.19430569 -0.2106887 0.2033402
000040 27 fb 94 be f1 a3 08 be 79 fe 3f 3d c5 be 1d 3e
       -0.29097864 -0.13343789 0.046873543 0.15404804
000050 45 e9 0d 3e ee aa de 3d 43 51 e0 bd 7a f2 1e be
       0.13858517 0.10872446 -0.109529994 -0.15522185
000060 6c f2 80 bd 8f cb ac bd 8e b5 5f bd f7 a2 d2 3d
       -0.06296238 -0.08437263 -0.054616503 0.10284989
000070 aa a7 ce bc e1 0d 19 3c 6c 0f 71 bd de 7c da bc
       -0.025226433 0.009341688 -0.058852598 -0.02667087
000080 05 44 3e 3d a4 5f 9c bd 76 bd b9 bc 30 f7 4a bd
       0.046451587 -0.076354295 -0.02267335 -0.049552143
000090 da a5 16 3d 99 be a4 3d 95 52 30 3d 77 db ad bd
       0.036779262 0.08044166 0.043047506 -0.08489125
0000a0 07 b8 a1 bd 85 94 13 be 47 2c dc b8 00 ce d9 3c
       -0.078964286 -0.14412124 -0.00010498665 0.026587486
0000b0 a8 23 83 bd 77 5d 96 bd 75 5f 9f 3d 1e 00 09 3d
       -0.06403285 -0.07342046 0.07781879 0.033447377
0000c0 8d d8 70 3d 3a b8 ab bd b6 ea bd 3d 9e 5b 29 bd
       0.05880027 -0.08384748 0.09273283 -0.04134714
0000d0 37 6f fc bc 8b f7 65 3d f9 97 7a be 39 b8 f5 3d
       -0.03081475 0.05614428 -0.24472035 0.11998028
0000e0 67 64 d1 bc 4c 68 ed bd de b1 f5 3d 79 3d f3 3d
       -0.02556057 -0.11592159 0.11996816 0.11876959
0000f0 ba 74 17 bd 08 38 1f be 7a 82 9b bd 51 5e 9c 3e
       -0.036976553 -0.15548718 -0.07593246 0.30540708
000100 2e 7a eb 3c 77 24 05 3d 79 12 07 be 88 45 7d bc
       0.028744783 0.03250548 -0.1319064 -0.015458472
000110 68 16 27 bf 4a b7 77 3d 9a a8 be bc 38 c8 04 be
       -0.65268564 0.060477532 -0.023273755 -0.12967002
000120 32 86 81 bd 0b 5e be 3c 5d 5f b3 3c 36 47 72 3d
       -0.06324424 0.023238203 0.021896059 0.059149943
000130 e1 04 09 bb 09 5d 58 3e 9b 98 41 3c ac 5c 94 be
       -0.002090745 0.2112924 0.011816169 -0.28976953
000140 05 0d 71 be 97 8f 19 be 1a bc 0b be 35 dc 0a 3d
       -0.23540123 -0.14996181 -0.13645974 0.033901412
000150 bf 66 46 3d 61 ef b4 3d ef 08 b4 bd 48 0e 9c bd
       0.04843783 0.088347204 -0.087907664 -0.076199114
000160 ad 2b 3a 3d a2 3d 4b be 81 b3 d1 bd f0 f0 8a bc
       0.04545181 -0.1984773 -0.10239316 -0.016960591
000170 c8 a8 8b be f3 39 36 3d f4 54 a3 3c 1c c2 44 3e
       -0.27277207 0.04448886 0.01993797 0.19214672
000180 07 49 11 be 8a 52 f0 bd ba 0e 60 bd 83 1a aa 3c
       -0.14188014 -0.11734493 -0.054701544 0.020764595
000190 83 40 25 bc 79 1b ec 3d ee 2c f2 bd f2 e9 64 be
       -0.010086182 0.115286775 -0.11824976 -0.22354868
0001a0 1d 3a 19 3e 16 83 87 be 00 36 10 be a1 7f e5 bd
       0.14963575 -0.26467198 -0.140831 -0.11205984
0001b0 31 3a 0e 3d dc e0 74 3d 7c 8c d6 ba df 5e d5 bd
       0.034723464 0.059784755 -0.0016368772 -0.10418486
0001c0 6b 45 c0 bd 3f 04 ed bd 60 c5 af 3d f7 b5 ea bc
       -0.093882404 -0.115730755 0.08582568 -0.02865122
0001d0 40 8b 73 be c5 3f 89 bc 92 f5 ca 3c 10 19 60 3d
       -0.23783588 -0.01675404 0.0247753 0.0547114
0001e0 dc 7f 40 3a c6 32 a1 bd 81 ff a1 3c de 97 9b 3d
       0.0007343271 -0.078710124 0.019775154 0.07597326
0001f0 a8 81 85 bd 96 ec d6 bd 2f 29 01 bd 9e fe 34 3d
       -0.065188706 -0.10494344 -0.031533416 0.044188134
000200 3b 4d b1 3d 0b fc 20 3b ad e9 00 bb cf 31 9e 3d
       0.08657309 0.0024564292 -0.0019670532 0.07724344
000210 35 f4 50 3c aa d6 01 be e2 bb 89 bd b9 4e fd bc
       0.012753536 -0.12679544 -0.06725289 -0.030921327
000220 5d ab 61 3a 7a 4e 86 3d 07 63 10 bd ff d3 50 be
       0.0008608604 0.06557937 -0.03525069 -0.2039337
000230 90 1c 12 3e 24 33 a9 3b 7f 63 4c bc fc 41 ba 3d
       0.14268708 0.005163567 -0.012474894 0.09094617
000240 61 11 4e bd 99 0c ad bd 21 0d 1a be 4a 03 b0 3d
       -0.050309543 -0.084496684 -0.15044071 0.08594377
000250 33 07 4e 3c 52 8c 9b 3e fa 6b e4 bd 12 70 12 be
       0.012574959 0.30380493 -0.111534074 -0.14300564
000260 77 2e f2 bc 5b 3c 43 bd b0 6c e9 3d 16 1f a2 bd
       -0.029563172 -0.04766498 0.113976836 -0.079160854
000270 b1 65 7f bc 30 24 d4 3c 85 cb d7 bc 84 e8 2d 3d
       -0.01558821 0.025896162 -0.026342163 0.042458072
000280 1e e9 5c bd 00 2c 93 bd b1 19 1c 3e d7 28 cd 3d
       -0.053933255 -0.07186127 0.15244175 0.10017555
000290 7c bd 17 be 98 f1 9f 3d 6b 98 0a 3c 76 bb 6f bd
       -0.14818376 0.07809752 0.008459191 -0.058528386
0002a0 0f 3f bd bd 71 62 98 bd a9 46 b1 bd 9c e0 0b be
       -0.09240543 -0.07440651 -0.086560555 -0.136599
0002b0 61 98 a0 3d b5 b5 0a 3e c5 0b d9 3d c9 2e da 3d
       0.07841564 0.13545878 0.10597948 0.10653455
0002c0 72 d0 46 3d 72 5e b1 3c fc c5 c8 bb 7a 23 0c bd
       0.048538633 0.02165148 -0.006127117 -0.03421352
0002d0 ab 35 18 ba 36 39 ab 3d 0e fe ab bb d2 9d a2 3d
       -0.0005806337 0.083605215 -0.0052487915 0.07940258
0002e0 b2 16 ca bd 44 46 5a 3c f1 3b eb 3d 82 d4 8b 3c
       -0.0986761 0.013322417 0.11486042 0.017069105
0002f0 27 a6 60 bd ec fb 13 3d 2a c1 7e 3d 38 78 98 3d
       -0.054845955 0.036128923 0.062195934 0.07444805
000300 10 0f 9b 3d f1 e4 8f 3a 5a 33 cc 3d dd 83 92 3e
       0.07571232 0.0010978264 0.09970732 0.2861623
000310 a8 c5 c1 3d 7b a8 1f 3b 7e 64 d6 3d 0a 5c 4a 3e
       0.09461528 0.0024361897 0.10468386 0.19761673
000320 be e7 a6 3d 16 9f dd bd da 38 86 bd b1 b2 2c be
       0.0814967 -0.10821359 -0.06553812 -0.1686504
000330 6b d3 3a bd a7 5e b6 bd 7e 35 5c bc ae 50 80 bd
       -0.04561178 -0.08904772 -0.013440488 -0.062653884
000340 47 d7 97 3d 43 c5 bf 3d a2 42 aa bd 56 e2 10 be
       0.07414108 0.093637966 -0.083134905 -0.1414884
000350 cc 0e 1f bd a7 f0 85 bd 3f b9 a5 bd 5a 53 06 bd
       -0.03883247 -0.065400414 -0.080919735 -0.032794334
000360 3a d8 17 be ba 2e e8 3d 6f 84 4e 3e 95 30 a5 3d
       -0.14828578 0.113370374 0.20167707 0.08065907
000370 a5 10 83 bd 21 18 0d be 33 c2 f8 bd 83 d1 6c bd
       -0.06399659 -0.13778736 -0.121464156 -0.057816993
000380 38 7a 34 be 54 d8 d6 3d 88 67 09 3d af f5 cb bd
       -0.17624748 0.1049048 0.033546 -0.0995897
000390 e9 56 78 3d 49 76 14 3e 5a 24 6b 3e 82 f1 be be
       0.06062976 0.14498247 0.22963086 -0.3729363
0003a0 35 79 d8 3d 6f ee 7a be 2b c7 53 bc 21 f3 60 3e
       0.105699934 -0.24505018 -0.012925903 0.21967746
0003b0 4f d6 f3 3d 7a fc 1b be aa 71 03 be 3a 13 1a be
       0.119061105 -0.15233031 -0.12836328 -0.15046397
0003c0 65 7d 9b bc de ce d7 3d b5 f7 75 bc 5e d3 ad bc
       -0.018980691 0.10537504 -0.015012671 -0.021218952
0003d0 d9 0b 81 bd 19 93 f9 3d 5a 31 f9 bc 2a 6c 58 be
       -0.06301088 0.1218626 -0.03041904 -0.21135011
0003e0 d1 33 95 be c8 00 2f 3b f7 e3 8b bd cf 0a 8f be
       -0.29141095 0.0026703347 -0.0683059 -0.27937934
0003f0 98 1f 24 be 73 16 e6 3c 98 37 9c be 0a 60 17 3e
       -0.16027677 0.028086876 -0.30511165 0.1478273

bias f4 [64]
000000 50 e7 f2 3c 59 d8 22 3e 3f 82 62 bc b9 28 0b bd
       0.029651314 0.15902843 -0.013824998 -0.033974383
000010 db 2a 15 be 72 1b 85 bd af 45 26 bd c1 eb 27 bd
       -0.1456713 -0.064993754 -0.0405938 -0.040996317
000020 53 e1 34 bc 91 d8 2b bd 09 85 b2 3d 29 c1 3f bd
       -0.01104005 -0.04195458 0.08716781 -0.04681507
000030 f1 4a 12 3d b7 97 67 bd b8 f2 b6 3d 3b e1 78 bc
       0.035716 -0.05654117 0.08933014 -0.015190418
000040 7b 94 ff bc fd 78 1d 3e 43 1f 22 bb 01 bb 56 3d
       -0.03119873 0.15378185 -0.0024737872 0.052424435
000050 22 88 ca 3d 4d f9 c3 bc 7a b9 a1 3e d3 b5 d9 3d
       0.098892465 -0.023922587 0.3158682 0.10630383
000060 7a 33 b3 bc 4e 97 1d 3d 96 b2 af bd d7 3c 58 bc
       -0.021875132 0.038474374 -0.085789844 -0.013198099
000070 59 74 90 bd 86 41 32 bb b0 75 6a bc 30 71 e7 bd
       -0.070534416 -0.00271997 -0.014310285 -0.11300886
000080 73 7d 63 3d fb 26 2a bd b7 c0 9d 3d f3 c1 32 bc
       0.05553956 -0.04154108 0.07702773 -0.010910499
000090 9e 0b df bc a5 e0 1e bd ed 96 5f bd 7d 80 ed 3b
       -0.02722722 -0.038788456 -0.054587293 0.007247983
0000a0 eb 2b 73 bd d4 51 0d bd f8 c1 1e 3e a8 b4 f9 39
       -0.059368055 -0.034501866 0.1550368 0.0004762758
0000b0 a8 d7 41 bd ea 73 7d bd 67 e7 64 bd e2 23 c5 bc
       -0.047324806 -0.061878122 -0.055884745 -0.024064962
0000c0 36 5c 85 3d 44 1b e2 3a 99 45 42 bd dd f8 65 bd
       0.065117285 0.0017250557 -0.047429655 -0.056145538
0000d0 a2 6f 13 3e 76 81 09 3f 1a df ca 3e 06 f2 a5 bc
       0.14398053 0.53713167 0.39623338 -0.020257007
0000e0 67 09 4d bd cd 13 6b bd 64 0a 20 bd 99 b4 15 3e
       -0.050057795 -0.05739193 -0.03907241 0.14619674
0000f0 35 11 91 bd eb 45 69 bd 47 64 7e bd ef 47 4a 3d
       -0.0708336 -0.056951445 -0.06210735 0.049385007

weight f4 [64, 64, 3, 3]
000000 0a 63 c7 bc e8 50 09 3c 9c 55 5d bd 8c 6a 6c 3d
       -0.024339218 0.008381106 -0.05403672 0.0577188
000010 80 5b b8 bd 53 35 81 bd d5 8e ed bd c9 2e b5 3c
       -0.09001827 -0.06308999 -0.11599509 0.022117035
000020 82 06 c6 3c 50 93 6a 3d 4e 0c 9d bc 04 ec 39 3d
       0.024173025 0.057269394 -0.019170906 0.045391098
000030 82 9d ee 3b 6d 6d 67 bc 29 91 43 bd 4c 38 84 bc
       0.00728196 -0.01412521 -0.047745857 -0.016140126
000040 4b 65 26 3d 30 3b b7 bd 88 f2 d8 bd 12 b8 84 3c
       0.040623944 -0.08946836 -0.10593134 0.016201053
000050 3a 34 b2 3d 26 81 c1 bc 71 c1 ba bb db 71 79 ba
       0.08701368 -0.023621153 -0.0056993295 -0.0009515562
000060 b2 06 e1 bc 22 5c 9f 3c 70 1f 84 bd 2c 09 15 3c
       -0.027469013 0.019453112 -0.06451309 0.009096425
000070 6f 90 42 bd 4e 2e 92 3c 44 41 6f bd d5 b8 9a bc
       -0.047501024 0.017844345 -0.05841185 -0.018886963
000080 79 af 63 3d d3 a6 76 3d 18 59 81 bd 8d 9f 15 bd
       0.055587266 0.06021769 -0.063158214 -0.036529113
000090 53 d7 2c 3c 50 9c 2f 3c 26 0a 11 3d 6e d1 f4 bb
       0.010549384 0.01071842 0.03541007 -0.007471255
0000a0 6f 82 00 3d f8 50 36 bc 5d 10 bc 3c df 70 15 3d
       0.03137439 -0.011127703 0.022957021 0.036484595
0000b0 8c ba 1f 3c 52 d9 d1 3c f6 8e 6d 3c ff ad 41 bd
       0.009749066 0.025616322 0.014499417 -0.047285076
0000c0 64 c6 b5 bb 3c 4f a5 3a e1 13 6f bb 51 22 83 bd
       -0.0055473316 0.0012612115 -0.0036480355 -0.0640303
0000d0 10 f0 23 bd e1 dd bf bd 78 52 f7 bc 69 16 c3 3c
       -0.040023863 -0.09368492 -0.030190691 0.023814397
0000e0 91 6f e4 bc 34 e9 db bd 4e cb 8a bd 1a 2a c0 3d
       -0.02788523 -0.10737839 -0.067770585 0.0938303
0000f0 f5 97 88 3d f5 a0 a3 bb 2c bc 02 bd df fc a5 3c
       0.066696085 -0.004993553 -0.031917736 0.02026218
000100 af 4f b9 bd fd ea 66 3d dc 9a 0f 3d 23 23 8b 3c
       -0.090484016 0.056376446 0.035059795 0.016984528
000110 a8 59 88 bc a8 c4 d0 bc 42 ed 05 3c 2a 1c 6c bd
       -0.016644314 -0.025484398 0.008174242 -0.057644047
000120 95 23 07 bd c9 20 b9 bd c5 7c 10 be ea 0b 07 be
       -0.032992918 -0.090394564 -0.14110096 -0.13188139
000130 36 5b 12 3c 74 8c bf bd af f2 f8 bc 30 96 74 3c
       0.008932879 -0.09352961 -0.030389158 0.014928386
000140 dc 54 f2 bb 70 09 1c 3d 60 66 ef 3c 2b 56 e2 bc
       -0.00739537 0.038094938 0.02922362 -0.027628979
000150 36 05 05 bd 4e 70 ff bc 50 33 71 bc b0 d9 c4 bd
       -0.032475673 -0.03118148 -0.0147217065 -0.09611833
000160 24 93 0b 3d 78 ff 92 bd 74 49 f1 3c ed f5 d8 bc
       0.03407587 -0.07177633 0.02945397 -0.026484454
000170 40 8d 9c bd e3 85 da 3c 12 fe 26 be 5b 90 ae bd
       -0.07644129 0.02667517 -0.16307858 -0.08523627
000180 1c 28 99 bd f8 42 a2 3c c8 3a 18 3b ab cd d7 bb
       -0.074783534 0.019807324 0.0023228396 -0.006585797
000190 ad e6 0f bc 95 fa e0 bd 01 47 12 bd 90 24 1c bc
       -0.008783025 -0.10985295 -0.035712246 -0.009530202
0001a0 db f2 7d bd e7 5f c2 bb 70 0c 2d 3c f2 80 e9 bc
       -0.061999183 -0.0059318426 0.010562047 -0.028503869
0001b0 b8 2c 64 bd a1 37 11 bc 9f 27 a5 3d 93 30 99 bd
       -0.05570671 -0.008863361 0.08064198 -0.07479968
0001c0 39 44 c2 bd d2 28 44 bd 1d 75 1e bc 39 a9 15 bd
       -0.09485669 -0.04789049 -0.009671477 -0.036538336
0001d0 ca 92 3c bc 7c 92 05 3c f3 a5 9b 3d 15 85 2a bc
       -0.011509607 0.0081526 0.07600012 -0.010407706
0001e0 c0 63 36 bd 04 d0 5f 3d 0c 30 c0 bc 01 64 14 3c
       -0.044528723 0.05464174 -0.02346041 0.009057046
0001f0 8c ad 7e bc 93 98 10 bd 0b 8e d8 bd 70 b5 82 bc
       -0.0155443065 -0.035301756 -0.105739675 -0.015955657
000200 26 93 a5 3d 04 d9 62 3d e2 a5 b2 bd 27 95 2b 3d
       0.08084707 0.055382743 -0.08723046 0.04189029
000210 2c 09 84 bd 8f be 3f bd 2b bd 47 bd a0 ce 25 bd
       -0.06447062 -0.04681259 -0.04876439 -0.040480256
000220 44 79 1f 3d 8b fa 99 3d 33 14 50 bc b8 9f 25 3c
       0.038934007 0.075184904 -0.012700128 0.010108881
000230 2e 76 d1 bc b4 f4 9f bd e9 c5 01 3e 91 5e 02 be
       -0.025569048 -0.07810345 0.12673153 -0.12731387
000240 00 86 5c 3d a8 75 b2 bd 6f 9f 8a 3d ce dd e4 3c
       0.05383873 -0.087138474 0.06768691 0.027937796
000250 b7 fa 3b bd c8 ac 77 bc 33 c6 2e bd f0 a3 af bc
       -0.045893397 -0.015116878 -0.042669486 -0.021440476
000260 09 1d c0 bc 2d ee ea bc 83 f0 a3 bd a1 29 99 bd
       -0.023451345 -0.028678024 -0.08004858 -0.07478643
000270 f5 9b ef bd 02 68 93 bd 71 bc ba 3c 03 4d 80 3d
       -0.11699668 -0.07197572 0.022794934 0.06264689
000280 5a 85 d5 3d fc e2 38 3c fe db e6 bc 47 26 04 3d
       0.104258254 0.011284586 -0.028181072 0.032263067
000290 01 38 8d bd d5 4f bd 3d f9 75 98 3b e1 80 17 3d
       -0.068954475 0.092437424 0.0046527353 0.036988143
0002a0 e2 21 ec 3d 9d 25 9f bc c3 db 7f 3d 31 85 de bc
       0.115299 -0.019427115 0.06246544 -0.02716312
0002b0 7f 44 53 3d dc 4a 32 be 43 43 21 bd fd 38 b3 bd
       0.051578995 -0.17411369 -0.039370786 -0.08751104
0002c0 91 03 53 3c 42 35 ad 3d 4e 56 7c bc 67 1a a3 3c
       0.012879268 0.08457424 -0.015401436 0.01991005
0002d0 03 8c 06 bd c9 7e 4f bc 77 c2 24 bc 5e 91 1f bd
       -0.03284837 -0.012664505 -0.01005613 -0.038956992
0002e0 10 87 64 3c 7d cc 2a bd ac aa b5 3d b7 f3 24 bd
       0.013948217 -0.04169892 0.08870444 -0.040271487
0002f0 1c 1c 05 3d b6 2c 4e 3d 60 1a b1 bc 6a dc 2d bd
       0.03249751 0.05033561 -0.021619022 -0.04244653
000300 6b 65 52 bd 74 70 2f 3c d4 22 b5 3d 5b a1 85 bd
       -0.05136625 0.010707963 0.088445336 -0.06524917
000310 7f cd 60 3d 65 80 05 3e 1e 4b c2 3c e7 a6 96 3c
       0.054883476 0.1303726 0.02371746 0.018390132
000320 b7 09 08 3d 5c eb 14 bd 22 47 e3 bc 40 5a 73 bd
       0.03321239 -0.03635727 -0.02774388 -0.05941224
000330 be b4 95 3d 68 0a 37 3d 34 5c d9 3c 7d 8d d9 bd
       0.073098645 0.04468766 0.026533224 -0.1062269
000340 50 81 0d 3d 8c bf 13 be 40 86 11 3e 10 bb f1 bc
       0.03454715 -0.14428538 0.14211369 -0.029508144
000350 39 71 a1 bc 3b 6e ba 3d 6a 80 08 3e 6d 16 21 3d
       -0.01970731 0.09103056 0.13330236 0.039328028
000360 41 12 dc 3b 64 25 2e 3b ba a7 6b bd 80 2a 33 3d
       0.006716043 0.002657258 -0.057533003 0.043741703
000370 96 be 56 bd a8 25 1b bd 45 50 ed 3c b5 81 18 3d
       -0.05242785 -0.03787771 0.02896894 0.037233073
000380 93 dc a9 bd 7f da a1 bc ce 1c c0 bd 60 59 7f 3d
       -0.08294024 -0.019757507 -0.09380494 0.062341094
000390 87 d2 42 3c 14 62 37 bc 32 12 78 ba 62 c9 9d 3d
       0.011891014 -0.011192817 -0.00094631605 0.07704426
0003a0 00 ae 98 3d 80 6d 27 bd 50 ea 19 bd 5b 47 77 3c
       0.07455063 -0.04087591 -0.037576973 0.015092696
0003b0 f7 bd 50 bd 4c 7e 2d bd 5a 55 37 bd b5 14 6b ba
       -0.050962415 -0.042356774 -0.044759132 -0.0008967624
0003c0 13 4c 90 3c b7 c3 87 bd 17 17 82 3d af a8 ed 3b
       0.0176144 -0.066291265 0.0635206 0.0072527747
0003d0 bc 05 82 3c 8b 7a af 3b 16 c6 a0 bc 30 79 ac bc
       0.015871875 0.0053551844 -0.019625705 -0.02105388
0003e0 ad 07 11 bd 2b 7b 2a 3d 9a f7 49 be 38 ce b0 bd
       -0.03540771 0.04162137 -0.19723359 -0.08633083
0003f0 3e ad 23 3d 0a 0f 65 bd be e7 15 bd 3f 04 b9 bd
       0.03996014 -0.055922545 -0.03659796 -0.09034013

bias f4 [64]
000000 6b a2 05 bd 5a e9 d1 bc 43 02 8c bd e6 e2 54 bc
       -0.032625597 -0.025623966 -0.06836369 -0.01299355
000010 01 8b 48 bd fc 74 00 be c8 f2 c3 3c 5c 60 b8 3b
       -0.04896069 -0.12544626 0.023919478 0.0056267213
000020 c1 cb a0 bc 56 ee 9f 3c 45 ac 72 bc de cb 04 3d
       -0.019628407 0.019522827 -0.01481158 0.032420985
000030 67 ec 60 bc b0 4a 02 bc 5a 53 c5 3c 93 0b 35 3c
       -0.013728238 -0.007952377 0.024087597 0.011050123
000040 aa ac b5 bd 1e 50 8f 3d 26 eb 40 3c 27 c4 28 bd
       -0.08870824 0.06997703 0.011774814 -0.04120269
000050 d0 f2 74 3b 5f 95 b7 3d a8 a0 26 bd 87 df 68 3b
       0.0037376173 0.08964037 -0.040680557 0.0035533623
000060 cc 39 89 3b bd 60 41 3d f2 00 8d bd 23 8c 4d bd
       0.004187798 0.047211397 -0.06884946 -0.050182473
000070 b5 7a 6f bd 40 cb de bc 07 8b 9b bc 6c 53 f2 3c
       -0.058466632 -0.027196527 -0.018987192 0.029580794
000080 b9 b1 95 bb 4f 57 82 bc ea 37 cd bc 77 42 68 bd
       -0.0045683053 -0.015910773 -0.025051076 -0.05670401
000090 d3 b4 79 bd 7f bc 70 3a bc 4f b5 3b 90 7d f4 bc
       -0.060963463 0.00091833615 0.0055331867 -0.02984503
0000a0 36 45 91 bc 69 3b 8c 3d 1e ff 13 3d db c7 a2 bb
       -0.017733198 0.06847269 0.03613197 -0.0049676723
0000b0 49 a4 c2 3b d0 0d 8b 3c 9b 11 5f bd 5a 16 94 bc
       0.0059399945 0.01697436 -0.05446015 -0.018077064
0000c0 46 04 7e bd b5 18 19 3d 39 01 54 bd 7d 80 c6 3b
       -0.062015794 0.037377078 -0.05175898 0.0060577975
0000d0 78 6a 78 3d b2 e0 65 bd 4e 7c b3 bd 5e e9 63 bc
       0.06064841 -0.05612249 -0.087639436 -0.01391062
0000e0 7e 11 ee bb 5e 0a 2c be 78 94 5f bd a7 b2 e2 3c
       -0.007265269 -0.1680083 -0.05458495 0.027673079
0000f0 f2 b7 30 bd cb 01 08 bd 0d 81 5f bd ca bc 81 3b
       -0.043144174 -0.033204835 -0.05456643 0.003959273

weight f4 [12, 64, 3, 3]
000000 b9 d3 da bc 9c 8c 7e 3c 2a 25 f9 3c 2d b5 02 bd
       -0.026712285 0.015536454 0.030413229 -0.031911064
000010 f8 09 2a 3c a9 6c 81 3c bd 0e fd bc 85 42 2b 3b
       0.010378353 0.015798884 -0.030890817 0.0026132178
000020 7a 47 d1 3a cc da 85 bd 53 2a be 3c fb 97 c1 3c
       0.0015966736 -0.06535873 0.023213541 0.02363204
000030 a2 81 61 bd 39 fa 32 3d 86 b3 b3 3b b3 45 e6 3c
       -0.055055268 0.043695662 0.0054840473 0.028109407
000040 1a d9 01 3c 7f e8 6a bc 2e 5a 26 3b b9 84 98 3b
       0.007925296 -0.014337658 0.002538334 0.0046544936
000050 53 d6 61 bd 8b 7c 8e bc f3 16 e1 3d 98 eb a5 3b
       -0.055136036 -0.017393371 0.10990705 0.0050634854
000060 0c 3e b0 bb 02 99 33 3c 0f 4d 2d bc 14 6d d7 3d
       -0.0053784903 0.010961773 -0.010577454 0.10518852
000070 60 44 18 bd 29 b1 a0 3d 74 5c 38 3e 38 e1 05 bd
       -0.037174582 0.078462906 0.18004018 -0.03268549
000080 fc bb 50 3e ff 33 12 bd 2b 26 c3 bc d0 89 04 3f
       0.2038421 -0.03569412 -0.02382191 0.51772785
000090 31 3d 0b 3a 2a a7 12 3c f7 3f 66 3a 21 74 4b 3c
       0.00053115474 0.008950988 0.0008783335 0.012417824
0000a0 e2 a6 e7 bb 5b 88 05 bd 4a e4 46 3c a2 84 2c 3b
       -0.0070694545 -0.03260074 0.012139389 0.0026324173
0000b0 4e 5e d1 3b de 87 b1 3b 21 2e 17 bc 77 0c 53 3b
       0.006389416 0.005417808 -0.009227307 0.0032203475
0000c0 26 dc fc bc 9d 99 c1 3d 91 b2 3e 3b ce 6c 92 3c
       -0.030866694 0.094531275 0.0029098133 0.017874148
0000d0 13 92 1c bd 32 af ae bc 24 90 03 3d 69 d4 7b 3d
       -0.038225245 -0.021323774 0.032119885 0.061481867
0000e0 b2 d5 15 bd 99 2d 94 bd 31 fd 2c be 89 21 12 bb
       -0.03658075 -0.072352596 -0.1689346 -0.002229782
0000f0 74 6d c8 3d f0 f3 96 3d 1e 97 b2 bb 83 0d 09 bd
       0.097865015 0.07370746 -0.0054501435 -0.03346015
000100 fa 61 10 3d d9 2a 68 bc 36 c6 6d bb 6e 37 a9 3d
       0.035249688 -0.014170372 -0.0036281473 0.082625255
000110 2d 30 c0 3c 50 83 09 bd cb db fa 3c f0 f8 14 bd
       0.023460472 -0.033572495 0.030622384 -0.036370218
000120 9d 59 6f bc d6 ac 12 3c 55 aa f9 bc 56 47 b8 3d
       -0.014608768 0.00895234 -0.030476728 0.08997981
000130 ce 08 af 3c 7a 1b 54 bd d0 42 c6 3d a4 04 bf bc
       0.021366503 -0.051784016 0.09680712 -0.023317643
000140 88 dc 11 bd 6a c0 95 bc c0 a0 39 bd 19 d2 dd 38
       -0.035610706 -0.018280227 -0.04531932 0.00010577235
000150 c5 2d 65 bd bb 09 13 3d d0 88 dd bc c4 5f 59 3c
       -0.055951852 0.03589795 -0.027042776 0.013267461
000160 12 15 65 3d 07 99 26 3d 37 bb 47 bb e4 cf da bb
       0.055928297 0.040673282 -0.003047658 -0.0066776145
000170 96 59 b8 bc be ee 44 bb 15 82 39 bd 91 1d 97 ba
       -0.022503655 -0.0030049528 -0.04529007 -0.0011529197
000180 4f 69 15 3c cb f9 3d 3d 35 00 f4 3c d0 7d 30 bc
       0.009119346 0.0463808 0.029785255 -0.010772184
000190 40 fa 6a 3b 19 40 73 3c 2b e2 3a 3b 3f 29 e6 bc
       0.0035854727 0.014846825 0.0028516154 -0.02809584
0001a0 7b 26 39 3d fb 4a d3 3a e6 34 b2 3b 70 58 6f bb
       0.045202713 0.0016120368 0.005438435 -0.0036521219
0001b0 41 9c a8 bb 6c 58 47 bd f5 5f 28 bd 2d 59 ab 3c
       -0.00514558 -0.04866831 -0.041107137 0.020916546
0001c0 f3 19 22 bb a3 b2 82 3c 8e ed 58 3c 09 fb 63 3d
       -0.0024734705 0.015954321 0.013240231 0.055659328
0001d0 34 03 d1 bc 31 5b d2 3d 01 7a 06 3d 0a 5d 76 3c
       -0.025514223 0.102713 0.032831196 0.015036831
0001e0 dd db 13 3d cf d7 30 3d 22 8e 5d bd 94 a8 39 bc
       0.03609835 0.04317456 -0.054090627 -0.011331696
0001f0 f3 7c 63 bd 95 37 c3 bd e1 ce 9b bd f8 56 9a 3b
       -0.055539083 -0.09532086 -0.076078184 0.0047100745
000200 87 2c e7 3c 5f a3 89 bd 00 45 bf 39 c1 52 af 3d
       0.028219474 -0.06720614 0.00036481768 0.08560706
000210 57 e3 40 bc 0c be 3e 3d 9f 00 bd 3c 8a 3e 81 bc
       -0.011772952 0.04656796 0.023071585 -0.015776891
000220 4b b7 27 3d 19 09 8a bc c9 8a 2f bd 53 d9 b6 bb
       0.040946286 -0.016850041 -0.042856965 -0.0055801063
000230 d7 cd d3 bc 27 4c b1 3c f3 cd 9f 3c 49 14 bc 3c
       -0.025854988 0.021642758 0.019507384 0.022958891
000240 33 e6 0a bd 81 5e ac 3d e2 cb b2 3d 0e 75 3e 3c
       -0.03391094 0.08416463 0.08730294 0.011624588
000250 e0 0f 44 3e 66 44 88 be c6 b9 8c 3d d8 06 1c 3e
       0.19146681 -0.26614684 0.06871371 0.15236986
000260 f5 67 c9 bd e9 0e 25 3d 57 68 ae bc be a0 1b 3d
       -0.09834281 0.040297423 -0.021289987 0.037995093
000270 1e 09 cb bb 35 9f 25 bd 48 4d cc bd 97 90 94 3b
       -0.006196155 -0.040435035 -0.09975678 0.004533838
000280 df d3 c8 bd 73 34 cf bd e1 32 14 39 8b e0 45 3c
       -0.09806036 -0.10117426 0.00014133334 0.012077461
000290 1f 89 83 3d f3 c7 79 bc de 54 b3 3c 0f 7f 03 3c
       0.06422638 -0.0152454255 0.021891054 0.008025899
0002a0 15 b9 b2 bd 02 ae 17 bc 67 f0 47 3b ee 95 a9 bd
       -0.08726708 -0.009257795 0.0030508281 -0.0828055
0002b0 19 27 ee bc 75 a7 2a 3b 1c e9 8c 3d c4 e3 cb 3d
       -0.029071378 0.0026039754 0.068803996 0.09955552
0002c0 83 aa 24 bd d1 0b 44 3d 14 d3 e5 bb 82 76 8f 3c
       -0.040201675 0.04786283 -0.007013688 0.017512564
0002d0 bc 4a 65 3c 56 ec 58 3d 84 50 85 bc 08 6c d9 bc
       0.013994869 0.052959763 -0.016273744 -0.026540771
0002e0 1b 56 92 bd a5 df 35 3d 99 fa d6 bc dc 86 e0 3c
       -0.071453296 0.044402737 -0.026242541 0.027408056
0002f0 37 0a c8 ba b6 93 10 3d 59 9a 8e bc 7e 5f 83 bc
       -0.0015261833 0.035297118 -0.017407583 -0.016036745
000300 50 4f 82 3d f5 b2 8d bc a2 85 df bc 0e 83 b8 3a
       0.06362784 -0.017297247 -0.0272854 0.0014077143
000310 c6 d3 53 bc 1a 63 80 3b 17 a7 99 3c 34 22 86 bc
       -0.012928909 0.003918064 0.018756432 -0.016373731
000320 d1 81 0a 3c 9f ed 68 3c 96 10 82 3a 72 aa 42 bd
       0.008453802 0.0142168095 0.0009923156 -0.04752583
000330 8e 50 89 3c 1b be 9b 3c 2b c0 6e 3a b3 00 67 3c
       0.016762044 0.019011548 0.0009107615 0.014099288
000340 16 fc f6 bc 12 64 e6 bb 0c 66 98 3b 81 45 86 3d
       -0.0301495 -0.0070309723 0.004650837 0.065562256
000350 82 10 87 bc d1 56 92 bc d4 a4 43 ba fc 38 4e 3c
       -0.016487364 -0.017863663 -0.0007463221 0.012586828
000360 22 6a 83 3d 16 cf a1 bc a6 75 99 bd bf 1b ae 3d
       0.064167276 -0.019752067 -0.07493143 0.08501386
000370 99 4a ad 3c 13 60 a4 bd 5e ef ba bb 58 eb 2c 3c
       0.021153735 -0.08026137 -0.0057048043 0.010554157
000380 9e 61 46 bd 85 c4 07 3c 39 de 2c bd 02 5d e5 bc
       -0.04843294 0.0082866 -0.042204116 -0.027998451
000390 f3 c3 4f 3d c5 ff 1f bd 0d 7d be 3d 1f c1 8f bb
       0.05072398 -0.03906228 0.09301195 -0.0043870355
0003a0 e5 e9 a6 bc b9 25 61 3c 07 e3 c6 3c 96 dc e6 3c
       -0.020375201 0.013741904 0.024278177 0.028181355
0003b0 de c7 c7 3c 86 a9 82 bc b0 72 b8 bd 38 44 a9 bd
       0.024387296 -0.015949976 -0.0900625 -0.08264965
0003c0 98 22 55 3d e5 f9 64 3d 87 bd 88 3c 85 da ac bd
       0.052034944 0.05590238 0.016691936 -0.08440117
0003d0 25 be 76 3d d0 c0 8f bc a9 60 62 bc be 3a ff 3d
       0.06023993 -0.017547995 -0.013816991 0.12462376
0003e0 8e b1 bf 3c 78 d7 1c bd 2b 9a 99 bc fc 48 d7 bc
       0.023400094 -0.038291425 -0.01875027 -0.026279919
0003f0 60 2b 72 bb 07 fe a1 3c be 8d 61 3d 40 dc 32 bd
       -0.0036952123 0.01977445 0.055066817 -0.043667078

bias f4 [12]
000000 98 06 81 3c 31 4b 81 3c 07 cf 42 3c 7e 18 f8 3b
       0.015750214 0.015782924 0.0118901795 0.007571279
000010 26 ff c4 ba 90 60 63 3c 1d f8 60 3c ba b1 9e 3c
       -0.0015029653 0.013878003 0.01373103 0.019371856
000020 3c fc 0d 3b 42 bf cd 3b 2f 61 80 3c 95 48 17 3c
       0.0021665236 0.006278903 0.01567134 0.0092336135
