train_weight_sr3/model_epoch_13.pth (torch_old, 667646 bytes, 10 tensors)

weight f4 [12, 3, 13, 13]
000000 56 2b a5 3c 09 94 8a bd aa a5 6c 3d 9d a8 62 3c
       0.020162266 -0.06766517 0.057775177 0.013834146
000010 2f 93 15 bd 28 a5 64 bd 57 e8 78 3d 0d ba 8e 3d
       -0.03651732 -0.055821568 0.06076845 0.0696908
000020 d0 e5 fa bd 92 71 c3 3d 00 f6 9c bc 13 a3 0d 3d
       -0.122508645 0.09543146 -0.01916027 0.034579348
000030 62 c7 1c bc 82 5b 94 3c a0 26 9b bd 31 6c 14 bd
       -0.009569021 0.01811004 -0.075757265 -0.036235992
000040 f7 0b 33 bd 62 81 ca 3d 25 78 43 3d 22 03 58 3d
       -0.043712582 0.09887959 0.047722 0.052737363
000050 78 ea a0 bd 74 52 b6 bc a7 43 08 bd 15 ed 7a bb
       -0.07857221 -0.022256114 -0.033267643 -0.0038288285
000060 63 5d 06 3d f9 c5 02 bc ab de 03 bd 0b fd 54 bd
       0.032803904 -0.007981771 -0.032194775 -0.051999133
000070 dc e0 b5 3d 48 64 82 3d 4d 4c a2 bc 4c e0 68 bd
       0.08880779 0.063667834 -0.019811774 -0.05685453
000080 7b e9 78 3d 40 35 9a bc d8 9d 94 bc e6 c0 75 3d
       0.06076954 -0.01882422 -0.018141672 0.059998415
000090 25 0e d1 3b 9e a4 f4 bc 3d 9d 24 3c 05 4a 2d 3c
       0.00637986 -0.029863652 0.010047254 0.01057673
0000a0 f3 d9 dc bd 90 34 03 bd 3c e6 ca 3c ca f1 7b 3d
       -0.10783758 -0.03203255 0.024767987 0.061509885
0000b0 cf 72 9e 3d bd 36 ed bc 56 b1 c8 bd a4 f4 5a 3b
       0.07736742 -0.028956765 -0.09799449 0.0033409977
0000c0 55 7c 89 bd 81 60 4b 3d c2 ff ab 3d 73 a1 86 bd
       -0.067131676 0.04965258 0.08398391 -0.06573763
0000d0 d5 c8 6d bd 75 5c 98 3c d8 14 21 be 0b 55 57 be
       -0.058052856 0.018598774 -0.15730608 -0.21028535
0000e0 c4 fd 67 be f1 2f b7 bd e8 44 14 be 77 41 f1 bc
       -0.22655398 -0.08944691 -0.1447941 -0.029450161
0000f0 7f 5b 47 3d 61 80 4d 3d 2a e2 1a 3c 15 7a 70 3c
       0.04867124 0.05017126 0.009453336 0.014677544
000100 9f 48 8b 3d cf 34 76 3d 5d f2 94 3d 12 f6 02 3e
       0.06800961 0.060108956 0.072727896 0.12789181
000110 7f b8 b4 3c 69 3d 8a bc 00 3d b1 3d b5 ae 94 bd
       0.02206063 -0.016874986 0.08654213 -0.07259885
000120 87 58 11 3d eb 28 19 be 80 ab 50 be 0c 8f 01 be
       0.035484817 -0.14957015 -0.20377922 -0.12652224
000130 35 c0 00 be 0a 4f 01 be f3 4c 90 bd f5 a5 5f 3d
       -0.12573321 -0.12627807 -0.07045927 0.05460163
000140 db 8f d0 bd 01 25 05 3c fa 36 25 bc c9 f4 d4 3d
       -0.10183688 0.008126498 -0.010083908 0.103982516
000150 d0 19 05 3e 20 b7 e7 3d a9 75 0e 3e 07 f8 d0 3d
       0.12998128 0.11314225 0.13912071 0.102035575
000160 b8 9f 3b 3e 95 32 99 3d 43 81 02 3d 93 bd ff 3b
       0.18322647 0.07480351 0.031861555 0.0078045814
000170 90 09 08 be c4 bd 25 be 94 6a 06 be 0f c4 a3 be
       -0.13284898 -0.16185671 -0.13126594 -0.31985518
000180 fa 43 6e be d7 b9 a2 bd d5 a4 87 bd 82 65 06 bd
       -0.23268119 -0.079456024 -0.06623236 -0.03281165
000190 e8 f0 4a bd 42 ef 8e 3d 31 af ed bc d8 9b 6a 3d
       -0.049546152 0.069792286 -0.029014202 0.05727753
0001a0 23 ac 17 bd 39 5b e6 bc 14 f3 4f bc 9e c0 d7 bd
       -0.037029397 -0.02811967 -0.012692232 -0.10534786
0001b0 5d d7 90 bd 8e ba 20 be ba dd 81 bd 68 a5 68 3d
       -0.07072327 -0.15696165 -0.06341119 0.05679837
0001c0 35 84 1b be 5e dc 85 bd 47 fb a4 be b2 ba 4f be
       -0.15187152 -0.06536172 -0.3222296 -0.20286062
0001d0 87 73 93 be f9 f7 a0 3d c4 7d ac bd be eb 77 3d
       -0.28799078 0.07859797 -0.084224254 0.060527556
0001e0 64 2f 33 bd b9 53 5e be 6c 87 1f bd a8 2a 41 bd
       -0.043746367 -0.21711625 -0.038947508 -0.04715982
0001f0 81 32 64 bd d3 ef f6 bb b0 c6 5e bd 2f d9 bb bc
       -0.055712227 -0.0075359135 -0.054388702 -0.02293071
000200 ba 8b a1 bd ab 8f b8 bc 21 c9 b1 bd 9e 1e 14 bd
       -0.07887979 -0.022529444 -0.086809404 -0.03616201
000210 52 28 15 bd 4d 40 98 3d 08 fd a3 bd 29 28 54 3c
       -0.036415406 0.074341394 -0.08007246 0.012949028
000220 4e 4c df bd e0 be ee 3c f2 0e aa bd c9 fe d8 3c
       -0.10903226 0.02914375 -0.08303632 0.026488679
000230 d0 e8 77 3c 29 dc 6c 3d d8 2e 1f bc 7b 78 37 3c
       0.01513119 0.05782715 -0.009715758 0.011198158
000240 49 8d 1a 3d 74 10 0f bd f5 54 07 be 90 aa 80 bd
       0.037732396 -0.0349278 -0.13216002 -0.06282532
000250 81 59 03 3d 3e d0 f4 3c 45 c4 2d 3d 3f 77 d5 bd
       0.03206778 0.029884454 0.042423505 -0.10423135
000260 33 eb 5f bb 90 b8 51 bc 5f 42 67 3c 7d 08 52 bd
       -0.003416729 -0.012800351 0.014114945 -0.051277626
000270 02 5e 9d bd 08 1d 97 3b 3d 17 da bd ab c5 b8 bd
       -0.07683946 0.004611615 -0.106489636 -0.09022077
000280 f3 12 90 3c 36 57 b5 bd 5f 81 09 be a3 b8 97 3c
       0.01758716 -0.08854525 -0.13428257 0.018520659
000290 63 e5 54 bd d2 a4 d8 3b 50 9b b1 3b 69 90 8c bd
       -0.051976573 0.006611445 0.005420126 -0.068634816
0002a0 17 3f e1 3c b9 fd 3d bc 85 5c 8d 3c 35 47 b0 bc
       0.027495904 -0.011596137 0.01725603 -0.02151833
0002b0 fa 77 84 3c 03 62 a8 bc 1b 35 8d 3d 12 83 50 bd
       0.01617049 -0.020554548 0.06894895 -0.05090625
0002c0 c3 d6 71 3d 3a c8 f1 bb a6 67 b1 bd 68 40 b0 bd
       0.059042703 -0.007378605 -0.086623475 -0.086060345
0002d0 54 7a 3b 3c 64 4f 1b 3c 4b 59 87 3d de cb 0e bd
       0.0114427395 0.009479377 0.06608828 -0.03486239
0002e0 ad 10 03 3e b3 30 df bc c0 5d bd 3c 2b b5 54 bd
       0.1279933 -0.027244901 0.023115993 -0.051930588
0002f0 4d 4a d6 bc e7 f3 77 bd ca 1b 0f 3d 49 b0 e0 3b
       -0.026158476 -0.060535338 0.03493861 0.0068569523
000300 3c 25 3c 3d d6 6f c2 bd d6 f7 d2 bc f8 c0 6a bd
       0.045933947 -0.09493987 -0.025752943 -0.057312936
000310 18 e9 f9 3d 51 ac b7 bd eb 53 fd bd 85 6d 89 bd
       0.12202662 -0.089684136 -0.12369522 -0.06710342
000320 f8 b4 da 3d db 8b c6 3b f7 6b 72 3d 65 96 12 3d
       0.10679048 0.0060591525 0.059184995 0.03578796
000330 b1 0b 0b bd 6c f5 2d bd 31 bf b2 3c 80 37 f7 ba
       -0.033946697 -0.04247038 0.021819683 -0.0018861145
000340 ac a8 04 3d 9e 3f 3f 3d 70 e7 b7 3d 00 bc 10 3e
       0.03238742 0.04669153 0.0897969 0.14134216
000350 5e 2a 55 3d 8c 26 07 3d ef f6 17 3d e7 d7 6d 3d
       0.052042358 0.032995746 0.03710073 0.05806723
000360 f2 33 b0 3b 8d 6d 0f 3d 0b 02 0d be c9 a9 2d be
       0.005377286 0.035016585 -0.1377031 -0.16959299
000370 5d e6 4a 3d 6b 92 d2 3d 9c c9 9b bd fa 0c 42 be
       0.049536098 0.10281833 -0.07606813 -0.18950263
000380 ee 82 2d be 0c 84 02 be ef d6 8b bd 1d 76 00 be
       -0.16944477 -0.12745684 -0.06828105 -0.12545057
000390 3f ab 3f 3d fb 66 27 3b 6b 3a 3e 3d fc 30 d6 bd
       0.046794172 0.002554356 0.04644243 -0.10458562
0003a0 74 e1 73 3d cd 04 97 3d ab 23 7a bd 3a 15 d1 3d
       0.05954118 0.073739626 -0.061069172 0.10209127
0003b0 0e 5f 9c bc f7 93 9a 3d 1b 3f 58 bd 4d 1d 8b 3b
       -0.019088294 0.07547753 -0.052794557 0.0042454363
0003c0 01 6c 1b bd d8 87 67 bd e9 fd d1 bd c0 95 7f bd
       -0.037944797 -0.056526035 -0.10253508 -0.062398672
0003d0 0a ae 00 be c1 1c 97 bd 3e 85 99 3c d1 4b e7 bd
       -0.1256639 -0.07378531 0.018740293 -0.11293758
0003e0 b5 88 18 be 0f 8c d9 bd 37 7b 5f 3d a3 24 01 3d
       -0.148959 -0.10622417 0.054560866 0.03152908
0003f0 28 5a 1f 3d 26 ee 5b bd 0f b1 2c 3c 82 36 0e 3e
       0.03890434 -0.053693913 0.010540261 0.1388798

weight f4 [64, 12, 7, 7]
000000 01 f9 3e 3d da e3 8e bd c2 b4 06 bc 12 94 58 3c
       0.046624187 -0.06977053 -0.008221807 0.013218896
000010 07 cd 0a bd b1 91 89 3c fb 19 c4 bd 3f a0 1c 3c
       -0.033886936 0.016793104 -0.09575268 0.00955969
000020 1a 21 4d bc 36 09 50 3a 65 e7 9d 3b ea 30 7b 3d
       -0.012520099 0.0007935943 0.004818844 0.061325945
000030 e3 52 40 bc cc fd 16 3d 5d ad 68 3b 21 44 50 bd
       -0.011738512 0.036863133 0.0035503723 -0.050846223
000040 6a 6c f0 39 56 37 91 bd 5c 73 bd bd cd 62 2d 3d
       0.00045857142 -0.070906326 -0.09250519 0.042330552
000050 36 ad cb ba 28 13 aa bd 4e b7 18 bd 74 75 30 bd
       -0.0015539292 -0.08304435 -0.037284188 -0.043080762
000060 f0 42 7f 3d f7 61 e2 bc 04 fd 39 3d 7c 82 f2 bd
       0.062319696 -0.027634604 0.04540731 -0.11841294
000070 9e f6 8a bc a8 fb 4b bc 80 8f 1a 3d be 5e 82 bc
       -0.0169633 -0.012450136 0.03773451 -0.015914317
000080 29 a4 f4 bc 95 bb a1 3d 24 16 80 3b 5c a2 52 3d
       -0.029863434 0.078971066 0.0039088894 0.05142437
000090 dd ac 3c bc ee 48 b7 bc 96 6c 5c bc a0 fd 0b bc
       -0.011515823 -0.022373643 -0.013453623 -0.008544356
0000a0 d5 8b 8e 3d 5c b3 30 be de fe cf bb 70 0a 82 bd
       0.069602646 -0.1725592 -0.006347521 -0.06349647
0000b0 42 4e 65 bd 52 a0 51 bd 0b 05 de 3c 4d f2 4e 3d
       -0.055982836 -0.051178284 0.027102014 0.050524045
0000c0 2c af 50 bd 49 f4 1f bd 80 c6 f4 bc 95 57 df bc
       -0.050948307 -0.039051328 -0.029879808 -0.027263442
0000d0 4c 34 64 3e e3 74 a1 bd a4 0f 44 bd 63 05 8d bd
       0.22285575 -0.078836225 -0.04786648 -0.06885793
0000e0 a7 85 81 3d 21 ec 13 bd e3 36 a0 3d 78 5d f6 bd
       0.0632432 -0.036113862 0.07822969 -0.120295465
0000f0 c9 d8 b2 bd 46 cf 5c be 46 50 a6 bc 7e c8 3e bd
       -0.08732755 -0.21563444 -0.02030195 -0.046577923
000100 33 b0 25 bd 10 03 0d be ba 89 0a be 43 0c 41 be
       -0.04045124 -0.137707 -0.13529101 -0.18852334
000110 01 03 60 bc f9 67 5d bd 88 28 8e 3d 80 d3 f6 3c
       -0.013672591 -0.054054234 0.069413245 0.030130148
000120 23 be 88 bd da d5 3b bd 73 3a 52 be ef 80 87 bb
       -0.06676891 -0.04585824 -0.20530109 -0.004135243
000130 0b 3a 68 be 79 23 59 be f1 fe 56 be e7 8c 02 be
       -0.22678392 -0.21204938 -0.2099569 -0.12749062
000140 a1 bd 86 be 06 e6 9b 3b a2 43 95 bd 4c f9 b0 3d
       -0.2631655 0.0047576455 -0.072882906 0.086412996
000150 ef a7 50 3d f4 c1 78 bd ec b8 bd bd eb 49 27 be
       0.050941404 -0.060731843 -0.09263787 -0.16336791
000160 ea 70 7d bd b7 e7 95 be 4a b6 28 3d c4 18 ad bc
       -0.06187526 -0.29278347 0.04118947 -0.021129973
000170 bb 12 f0 bd 6c 5d 2a be 7b 04 6f bd 27 14 f7 bd
       -0.117223226 -0.166372 -0.058353882 -0.12064391
000180 54 1f a9 3d 16 d5 23 be 63 a5 31 bc e4 81 4b bb
       0.082579285 -0.15999255 -0.010842654 -0.0031052763
000190 b6 f9 de 3c 47 63 4b bd f1 f2 6b ba 51 63 8c 3c
       0.02721868 -0.049655225 -0.00090007397 0.017137202
0001a0 a2 af d9 bc 4a 63 92 3d 31 a4 e5 bd e6 a5 02 be
       -0.026573006 0.07147844 -0.11212958 -0.12758598
0001b0 36 1b ff bd 23 a3 71 bc da 60 40 3c 5f 46 fc ba
       -0.12456362 -0.0147483675 0.011741841 -0.0019247046
0001c0 de 16 c5 3c bf f2 e7 bd 03 fb e6 bd 38 9d 18 be
       0.024058755 -0.11325597 -0.112783454 -0.14903724
0001d0 40 1c 12 bd d3 2b ad 3d af 08 27 bd 12 b3 a9 3b
       -0.035671473 0.084556244 -0.040779766 0.0051788175
0001e0 fa 83 0f bd 2c 93 20 bd 6a c7 9e bd a1 15 c1 bd
       -0.035037972 -0.039202854 -0.07752879 -0.094279535
0001f0 82 f3 a4 3c 32 b6 f9 bd 36 13 e3 bd fa 04 dc bd
       0.020135645 -0.12192954 -0.110876486 -0.10743137
000200 cf bb 31 bd 7f 26 89 3b e3 97 19 3c f7 87 09 3e
       -0.043392 0.0041854973 0.0093745915 0.13430773
000210 72 d2 27 3c 6f 65 a5 bd 08 ba e1 bd ea 3a 24 be
       0.010243045 -0.080759875 -0.11021811 -0.16038099
000220 31 7b 1b bd 47 32 0a bc df a6 ff 3d 7b a5 5d bd
       -0.03795928 -0.008434839 0.12483 -0.054112893
000230 eb ea 17 bd 70 82 60 3d 5c d2 1e be 8d 63 90 3d
       -0.03708927 0.054811895 -0.15509933 0.07050238
000240 df 60 87 bd 47 8a e5 3d 88 93 48 bd 9f 55 b5 bd
       -0.066102736 0.11208015 -0.04896882 -0.088542216
000250 4d c4 e3 bb 64 10 f4 3d bd 25 36 bd ea d5 79 3b
       -0.006950891 0.11917189 -0.044469584 0.0038121887
000260 1f 0a 70 bd 8b f1 ad 3c 5d 0b c0 3c f0 62 26 bd
       -0.058603402 0.02123334 0.023442918 -0.040621698
000270 11 ea f8 3a 37 cb 2b bc d0 79 72 3d f1 9e 01 3d
       0.0018990656 -0.010485462 0.0591982 0.03164572
000280 68 67 4c bd 54 ac cb bc 4d 5f 26 3c 6e 88 88 3d
       -0.049903303 -0.024862446 0.010154557 0.06666647
000290 ca 7a 51 3d 5d 4c 59 bd 2c 3e 74 3d 63 01 d5 3d
       0.05114249 -0.05305134 0.059629604 0.10400655
0002a0 24 bb a9 3d f0 7c be 3d 41 15 ed bc 64 db 2c bb
       0.08287647 0.09301174 -0.028940799 -0.0026375884
0002b0 bb d5 80 bd 0e 2a b9 bc 01 23 c5 bd dd e7 ea 3c
       -0.06290766 -0.022603061 -0.09625817 0.028675014
0002c0 1c a5 38 3d ea 86 b6 bc bc bc 9c 3c 00 e2 d8 bc
       0.045079336 -0.022281129 0.019132964 -0.026474953
0002d0 3b 54 b4 bc 25 79 88 bc cb f1 13 be a0 2e e3 bd
       -0.02201282 -0.016659329 -0.14447705 -0.110928774
0002e0 fd 5a f7 3d 7f 79 e2 3c 36 14 e1 bc a2 a8 19 bd
       0.120779015 0.027645824 -0.027475458 -0.037514336
0002f0 58 1a 59 3c 94 7c ce bd 25 bc 8c bd eb b8 0c 3d
       0.01325091 -0.10082355 -0.06871823 0.03435604
000300 0a 42 43 3e 64 72 8a bd 99 91 c8 3d 3e 82 f7 3d
       0.1906816 -0.067600995 0.097933955 0.120853886
000310 84 3d 78 bd 71 c2 9f bc d1 45 82 3e 11 a7 2d 3d
       -0.06060554 -0.019501897 0.2544389 0.042395655
000320 6c e4 13 be c8 23 94 bd 0f 0a e6 3c 40 16 6a 3d
       -0.14442605 -0.07233387 0.028080968 0.057150126
000330 2f 16 ad bd 0b 1b 9d bd 51 42 27 be a6 d9 b5 bd
       -0.08451497 -0.07671174 -0.16333891 -0.08879404
000340 b9 41 2a 3c 20 e5 6f bb 82 05 c8 3d d1 08 ee bc
       0.010391646 -0.0036605075 0.097666755 -0.029056938
000350 f4 e4 a4 bd 9e a9 13 be 39 04 81 bd dd f5 00 3e
       -0.08051482 -0.14420173 -0.062996335 0.1259379
000360 fc b5 83 be 02 ca 1d bd 20 ef ab 3b b8 b7 e0 bd
       -0.2572478 -0.038522728 0.005247012 -0.109725416
000370 04 0f 0e bd d7 9a ed bd cc d0 ec bb 9f ab 90 be
       -0.03468229 -0.11601799 -0.007227039 -0.28255937
000380 1f 50 43 3d 65 60 84 bd d2 c9 ad bd b4 6e 28 bd
       0.04768383 -0.06463698 -0.0848576 -0.0411212
000390 7f 79 e3 bd b1 ff a5 3c 3d 02 da bc 5d 77 78 3d
       -0.11107158 0.020263525 -0.026612395 0.06066071
0003a0 3e b3 a7 3d 1a ec bf 3d 3f e9 22 3d d1 56 b2 3b
       0.081884846 0.09371205 0.039773222 0.005442478
0003b0 53 40 5f 3d 46 c2 85 be cd 5d 77 bd 46 66 36 3d
       0.054504704 -0.2612478 -0.06039219 0.04453113
0003c0 13 e6 ab bc 98 72 5d 3b 75 46 43 3d 75 57 42 3d
       -0.020983731 0.0033790227 0.047674615 0.047446687
0003d0 ec 7c db 3d 9e b5 d1 3d d5 ca 86 3d 0e 2a 61 3d
       0.10717186 0.10239719 0.06581656 0.054971747
0003e0 b3 28 8b bd 77 a1 28 3d 81 78 69 bd 67 a5 83 3d
       -0.06794872 0.04116961 -0.056999687 0.06428032
0003f0 a2 5f 85 3d 49 17 c9 3c f2 b2 50 bd a8 b4 ab bd
       0.06512381 0.024547236 -0.050951906 -0.08384067

weight f4 [64, 64, 3, 3]
000000 9f f5 0e 3d be 86 df 39 bd bd 7e 3e 99 f6 0a bd
       0.03490221 0.00042634265 0.24877067 -0.03392658
000010 59 de e1 be d8 c5 5c 3d b5 29 08 bd 09 17 23 be
       -0.4411495 0.053899616 -0.0332429 -0.15926756
000020 e2 5c c4 3d 81 59 9b bc 95 dd 4e 3c ef 3d dc 3d
       0.095880285 -0.018963577 0.012626071 0.107540004
000030 47 ab 4e 3c 98 76 be bd 98 bd 33 3b 17 3d 9a 3d
       0.012614078 -0.09299964 0.002742624 0.07531183
000040 98 10 8e bd d8 8e f4 3c 6f f8 8d 3e c8 aa 91 3d
       -0.06936759 0.02985327 0.27728602 0.07112652
000050 bc e8 d6 3d 7c 93 9b bd c6 2a 2f 3e 90 c3 bd be
       0.10493609 -0.0759649 0.1710616 -0.37063265
000060 d0 0e c2 3c 7f a6 13 bd ec 2d b3 3d f3 46 1b 3c
       0.023688704 -0.036047455 0.08748993 0.009477365
000070 90 cc 42 be 65 d5 46 3e 15 7e 33 be 23 69 32 be
       -0.19023347 0.19417341 -0.17528565 -0.17422919
000080 d8 f7 fe 3d 14 5d 9f 3e de 3b c1 3c d1 51 00 bf
       0.12449616 0.311257 0.023588117 -0.5012484
000090 b2 26 7c bd 4e 3f e7 3b ad 08 88 bd b6 ed b8 3d
       -0.06156034 0.007057107 -0.0664228 0.09029715
0000a0 18 52 96 bc 5b db 3a bd 43 44 5c 39 1d 91 34 bd
       -0.018349692 -0.04561935 0.00021006264 -0.044083703
0000b0 a8 34 40 bd 43 7f 54 3c 74 50 5e bd cb d6 24 bb
       -0.046925217 0.012969795 -0.054275945 -0.002515244
0000c0 22 c8 b1 bd 2f 74 b1 bc 88 0f 8b 3d 23 66 67 bb
       -0.086807504 -0.021661846 0.06790072 -0.003530868
0000d0 89 69 2c bd ca 2c ff bc 43 1c 55 3c e0 cb 2a 3d
       -0.042092834 -0.031149287 0.013007226 0.041698337
0000e0 04 5b bd bd b3 71 e7 bc bf c3 0a 3d c6 bc 29 bd
       -0.092458755 -0.028252458 0.033878084 -0.041439794
0000f0 21 36 b9 3d 3f 93 86 3c 61 41 f5 bd 76 6e 18 bd
       0.090435274 0.016427634 -0.11975361 -0.03721472
000100 3b 39 f9 3a 63 06 7d be 7c 14 ff bd fb d4 8e be
       0.0019014248 -0.24709468 -0.12455079 -0.27896866
000110 8a 86 f3 3e b0 e3 82 be a1 27 bf bb 4e 8c 4f be
       0.47563583 -0.25564337 -0.0058335816 -0.20268366
000120 d0 d6 4c 3e 29 53 8b 3d 3e aa e1 3b 2a 4c f1 bc
       0.2000382 0.06802971 0.0068867495 -0.029455263
000130 76 af 22 3f 3c 7c 1a 3f 35 2d e3 bd 0d f3 88 bd
       0.6354898 0.60345817 -0.11092607 -0.06686983
000140 37 29 d5 bb a5 04 d7 ba 43 fb 4f bd 0a 5f 35 be
       -0.0065051573 -0.0016404582 -0.05077673 -0.17712036
000150 89 93 fd bc ac 23 80 bd 17 fe 39 be f9 61 b0 bd
       -0.03095414 -0.06256804 -0.18163334 -0.08612437
000160 56 25 2a bb 30 fa ec bd 41 f6 d7 bc 89 35 93 3d
       -0.0025962195 -0.11571157 -0.02636254 0.071879454
000170 cd c4 41 3d 91 29 96 3c e8 3c 8f 3d f0 1c ae bd
       0.047306824 0.018330367 0.06994039 -0.08501613
000180 84 ed e2 3d ba 21 b6 3d 32 7e cb bd 36 97 8f 3d
       0.11080459 0.088931516 -0.09936179 0.07011263
000190 5d 2a 85 bd 87 01 3a bd c1 4b d2 3c 6f 6a 3e 3c
       -0.06502221 -0.045411613 0.025670888 0.011622055
0001a0 9f 35 2a 3d 89 ca 70 3d 44 e0 a6 bd 68 8e e3 bc
       0.041555043 0.058786903 -0.08148244 -0.027777866
0001b0 4c d2 ae 3c 3d 20 45 3d d9 d6 13 3d 9e b2 c9 bc
       0.021340512 0.048126448 0.036093567 -0.024621304
0001c0 4e d0 05 bd da 88 67 be 8a c5 c3 3c 42 92 4f bd
       -0.032669358 -0.22610798 0.023897905 -0.05067659
0001d0 1d 26 bc 3d d4 99 0f 3d ca a4 e1 bd 77 43 08 be
       0.09186957 0.03505881 -0.11017759 -0.13306986
0001e0 ff 18 6e 3c 6d af 22 be 04 bf 0e be 2b 51 61 3d
       0.014532327 -0.15887232 -0.13940054 0.05500905
0001f0 10 92 b1 3d 8b a4 5d 3e e9 29 fe 3a fe 12 46 be
       0.08670437 0.216448 0.0019391152 -0.19343182
000200 84 94 63 3e c6 7c 5e 3d a1 9c 6f be 4c c3 b9 3e
       0.22224623 0.054318212 -0.23399593 0.36281812
000210 25 a8 6d bd 2e d3 d1 3d 58 f3 62 be 7f b5 80 bd
       -0.058021683 0.102453575 -0.22163141 -0.06284618
000220 46 4d 43 3d ba e5 d4 3d e6 5d 82 bb 97 91 ef bc
       0.047681116 0.10395379 -0.0039784787 -0.029244227
000230 87 93 b6 bc 7e f6 d6 3c 36 17 bd bd 75 56 7b 3c
       -0.022287143 0.026240584 -0.09232943 0.015340437
000240 ce 1b 18 bd 7c 1f 37 be d0 71 88 bd be 0d 17 bd
       -0.03713589 -0.17883104 -0.06662333 -0.03687834
000250 96 45 eb bd ea 24 94 3e 0c f1 98 3d 73 31 fb bc
       -0.11487882 0.28934413 0.07467851 -0.030663228
000260 cc 8e 30 be 57 eb 80 bd 5a 16 36 be ab 0e 3f bc
       -0.17241973 -0.062948875 -0.17781964 -0.011661212
000270 ca 0b e9 bd 23 ac 71 bd ae 9c 58 3d 41 87 74 bd
       -0.11379202 -0.059002053 0.052883796 -0.0596993
000280 a4 3f 15 3e c7 5a 93 bd ce d8 90 3c 67 b5 b0 bd
       0.14575058 -0.07195049 0.017681506 -0.0862835
000290 3a 40 6c be b7 dc 56 bd b4 ed 45 bd 73 9e 00 3c
       -0.23071375 -0.052456584 -0.048322394 0.007850277
0002a0 6e 56 62 bd 81 f7 98 bc c3 bd a4 be 79 62 21 3e
       -0.055258207 -0.018672707 -0.32176027 0.1576022
0002b0 8d 16 c0 3d 21 fc f2 3c aa 1e 77 3e b4 0b 8a be
       0.09379301 0.02966124 0.24132791 -0.26962054
0002c0 4b 33 67 bd 4f 5d e4 bd b3 f6 34 3d f7 2d d9 bc
       -0.0564454 -0.1115061 0.044180583 -0.026511176
0002d0 2c 0d e9 3c f0 d6 dd 3c fe 3c 40 bc fc 6c 85 3d
       0.028448664 0.02708003 -0.011733292 0.06514928
0002e0 ac ea 99 bc d4 d9 1e 3b 50 3f eb bc 3b 8a 5c 3d
       -0.018788658 0.0024238722 -0.028716713 0.053842764
0002f0 db 6b 0e bc 87 2d c9 be a3 3c 1f be a0 02 d4 3e
       -0.008692707 -0.39292547 -0.15550475 0.41408253
000300 6e ec af bd 96 18 42 3e 73 e9 1b 3d 04 18 f2 bd
       -0.08590017 0.18954691 0.03806443 -0.11820987
000310 40 5d 23 bd 0e b2 25 be 1e 9c 1d bd 2e 27 96 bc
       -0.039883852 -0.16181204 -0.038478963 -0.01832923
000320 d2 0c f3 bc b3 1d fb 3c b1 ce 43 3d 1a 27 36 3d
       -0.0296692 0.03065381 0.04780454 0.044470884
000330 43 96 7d bd 7b 50 b1 3b 19 58 c6 3d 2d 6e 97 3d
       -0.06191088 0.0054112053 0.09684772 0.07394061
000340 99 77 d2 bc 9d 3d 22 be a1 72 4b 3c fb f1 a6 bd
       -0.025691794 -0.15843816 0.012417466 -0.08151623
000350 6d fe 45 bd 88 e1 7e 3d 9c 2a 7d 3c db 9b bf bc
       -0.048338342 0.062226802 0.015452053 -0.023389747
000360 ad 71 cb bd 73 7c c4 3d 25 37 e6 bc 68 71 01 be
       -0.09933791 0.09594049 -0.028102467 -0.12640917
000370 e4 b8 06 3e e5 6e 00 bf ed 01 89 bd 2f 1d 3c 3d
       0.13156468 -0.5016921 -0.066898204 0.04592627
000380 65 a7 ba bd d3 45 11 3d c1 d5 cf bb db b3 02 bd
       -0.09113959 0.03546698 -0.00634262 -0.031909805
000390 15 a3 48 3d f1 2b 88 3d 2e e7 f8 bc e6 48 b5 3d
       0.048983652 0.06649006 -0.030383673 0.08851795
0003a0 f4 e1 e8 bc 76 10 ab bc 5b 76 c1 bc 20 6a e6 bc
       -0.028428055 -0.020881873 -0.023616007 -0.028126776
0003b0 6c 8f 18 3d eb 73 3e bc 62 ef a2 bd da 92 22 3c
       0.037246153 -0.011624317 -0.07955815 0.009922707
0003c0 bf dc bf bd 63 16 ac bc 30 30 76 bd ba d2 b0 bc
       -0.09368276 -0.021006769 -0.06010455 -0.021584857
0003d0 9e a6 6e be d2 b7 c4 3c f1 f2 fe 3c 0c 76 f0 3d
       -0.23305747 0.024013434 0.031121703 0.11741266
0003e0 f4 e9 c9 be 99 af 79 3d 96 10 19 3e 06 f8 49 bc
       -0.39436305 0.06095848 0.14947733 -0.0123272
0003f0 e3 99 99 bd fa 0c d2 bc a5 42 93 3c 52 48 a3 bd
       -0.07500055 -0.025640953 0.017976115 -0.079727784

bias f4 [64]
000000 30 cf c7 3d 0d 56 7a 3d 0f 49 c3 3d 16 31 93 bd
       0.09756315 0.06111722 0.09535419 -0.07187097
000010 81 e5 3a bd 69 68 02 bd 6e ff 09 3e 5a a8 b1 3c
       -0.04562903 -0.031837855 0.13476345 0.021686722
000020 be 70 ec 3d 63 3a f0 3d 11 3d 8f 3d 7e c9 7b bc
       0.11544941 0.117298864 0.06994069 -0.015367864
000030 c4 0a ec 3a 23 65 4e 3b 80 d7 b1 3d aa 74 29 be
       0.001800858 0.0031493388 0.086836815 -0.1654841
000040 bf 32 0a 3a 91 8f 15 3c e8 21 d6 3d 5d f7 69 bd
       0.0005271844 0.009128467 0.10455686 -0.05712067
000050 f4 d6 4e bc 96 c7 d7 bc 8d cc 1e 3e bb 3b 39 bd
       -0.012624491 -0.026340287 0.15507717 -0.04522298
000060 aa 8f 06 3e 46 52 e7 3d c2 af b8 ba 3c 18 e1 3c
       0.13140741 0.11294989 -0.0014090466 0.027477376
000070 0d 15 2a 3e 4d f9 dd bc a5 73 ac ba 0c 81 31 bd
       0.16609593 -0.027096415 -0.0013157023 -0.04333596
000080 45 67 bd 3c 46 87 38 3e 24 b3 9c bb 2b 5d 46 bc
       0.023120532 0.18020353 -0.0047820974 -0.012107174
000090 2e 71 15 3d 1b f4 b4 3d c5 05 2a 3c 50 4c a6 ba
       0.03648489 0.08835622 0.010377352 -0.0012687538
0000a0 49 eb 5f bd e1 ba ec 3b 60 39 fd 3e db 70 ca 3d
       -0.054667745 0.007224426 0.49457836 0.09884807
0000b0 34 4f 3e ba 66 9a e2 3d 70 ba 98 3c 85 49 e7 bc
       -0.0007259727 0.110646054 0.018643588 -0.028233299
0000c0 8c 94 ee b9 c9 37 74 bd 43 8c ab 3d 59 3e ba ba
       -0.00045505574 -0.059623513 0.08376362 -0.0014209255
0000d0 30 8d bf 3d 91 04 a7 bd 64 6d 3b bd 22 bb 6e 3e
       0.09353101 -0.08155168 -0.04575862 0.23313573
0000e0 e7 c1 90 3c f2 23 5a bc 99 b9 ec bb 67 01 3d b8
       0.017670585 -0.013314234 -0.0072242734 -4.5062417e-05
0000f0 bf ac 34 3d 46 a6 02 bd 9a a1 e1 ba 36 e8 c3 bd
       0.044110056 -0.031896852 -0.0017214299 -0.09565775

weight f4 [64, 64, 3, 3]
000000 80 79 92 bc a6 04 f1 3c c1 ce 64 3d 4e ad 1b 3d
       -0.017880201 0.029421162 0.05586124 0.038007073
000010 f3 0f b3 be 5d 2f 49 be d4 22 af 3c 27 b8 36 be
       -0.34973106 -0.19646974 0.021378912 -0.17843686
000020 e0 40 82 bc d2 a8 7e 3c d3 86 7c 3d b9 07 3d 3e
       -0.015900075 0.01554318 0.061652016 0.18459977
000030 99 f9 0a be 75 cc 1b 3e d0 ea 44 be bc 10 41 3e
       -0.13571776 0.15214713 -0.19230199 0.1885404
000040 26 e4 57 be 1d 83 04 be 7e 47 79 3d 8c 08 1d 3e
       -0.21083125 -0.12940641 0.060859196 0.15335292
000050 4c 16 0a 3e f3 c1 d8 3d 86 4e ff bd 81 ab 15 be
       0.13485068 0.10583868 -0.12466149 -0.14616205
000060 a0 ce 75 bd 92 77 c1 bd 34 bc 2e bd 83 60 b8 3d
       -0.060011506 -0.09446634 -0.042659953 0.09002783
000070 2b d0 b1 bc 4f 76 21 3c 90 44 2a bd 9e bf e7 bc
       -0.021705708 0.009854867 -0.041569293 -0.028289612
000080 e0 41 3e 3d ec 6b 9c bd 2d ab bc bc 30 f7 4a bd
       0.046449542 -0.07637772 -0.023030842 -0.049552143
000090 60 1a 2d 3d 50 ae a5 3d 05 b6 8d 3d 5a 63 b8 bd
       0.04226148 0.08089888 0.06919483 -0.09003325
0000a0 70 58 88 bd 92 fa d0 bd 33 69 ac 3c ca de f0 3c
       -0.06657493 -0.102040425 0.021046257 0.02940311
0000b0 1f 5c 73 bd ac f5 88 bd dd 44 01 3d d7 51 81 3d
       -0.059414025 -0.06687483 0.031559814 0.06314438
0000c0 cb 3c 82 3d f9 db 01 be 9f a0 0e 3d 9c 90 3d bd
       0.063592516 -0.12681569 0.03482115 -0.04628049
0000d0 c0 ce d0 bc 1e 11 7a 3d 64 b1 7a be 8d 21 cf 3d
       -0.025489211 0.06105148 -0.24481732 0.10113821
0000e0 fa 1e 98 bd c3 9f ee bd 53 c6 f7 3d cf 41 3e 3d
       -0.07427783 -0.11651566 0.12098374 0.04644948
0000f0 e2 68 17 bd 68 30 1f be 7a 82 9b bd 90 51 9c 3e
       -0.03696526 -0.1554581 -0.07593246 0.30530977
000100 59 48 17 3d a8 b3 ea 3c 18 8f c8 bd 9f 05 2c bc
       0.03693423 0.02865012 -0.09792918 -0.010499387
000110 a4 bf 08 bf 3d 46 81 3d 7a e4 a0 bc 38 c8 04 be
       -0.5341742 0.06312225 -0.019640196 -0.12967002
000120 71 bc 6e bd f2 df 7f 3c b7 39 99 3c 43 17 63 3d
       -0.05828518 0.015617358 0.018704278 0.055442106
000130 6b 8d f8 bb fc 8f 50 3e 86 07 47 3c 87 c8 8c be
       -0.0075852177 0.20367426 0.01214779 -0.2749674
000140 d8 5a 68 be 41 7d 15 be 32 17 2b be 6b 53 14 3d
       -0.22690904 -0.14598562 -0.16708067 0.036212366
000150 c7 82 83 3d 4e 1b ba 3d d8 ef d4 bd 36 b2 62 bd
       0.06421428 0.09087239 -0.10397309 -0.055345736
000160 e8 39 20 3d 14 2f 44 be d0 76 e2 bd 4f 4d 73 bc
       0.039117724 -0.19158584 -0.11057818 -0.014849975
000170 a4 64 83 be f9 ee 29 3d 24 32 d0 3c 02 f3 34 3e
       -0.2566272 0.041487668 0.025414534 0.17670825
000180 ea b5 0c be 9f ad c3 bd 78 c2 60 bd 67 58 07 3d
       -0.1374127 -0.095546 -0.05487296 0.03304329
000190 36 37 21 bc 42 8b c9 3d 22 62 c1 bd 7f 5f 4c be
       -0.0098398235 0.098410144 -0.094425455 -0.19958304
0001a0 6a 63 3e 3e 03 bd 4f be 9b 11 f5 bd ea 4d da bd
       0.18592611 -0.20286946 -0.119662486 -0.10659392
0001b0 73 e4 e8 3c 30 d2 67 3d 7b 2a 26 bb 48 70 d5 bd
       0.028429246 0.056596935 -0.002535491 -0.104218066
0001c0 ed 07 c2 bd de db e8 bd 5d dc a2 3d 94 ff 10 bd
       -0.09474168 -0.11370061 0.07952187 -0.03539999
0001d0 f3 e4 62 be 6b 08 4d bc ef 48 d2 3c 85 46 7f 3d
       -0.2215765 -0.012514214 0.025669543 0.062323112
0001e0 ba 3d 68 3b a6 12 9b bd f4 52 b2 3c 69 bd 87 3d
       0.0035437183 -0.07571916 0.02176807 0.06627924
0001f0 bb 17 48 bd 0e 1a c3 bd 5c ea fe bc de eb 1c 3d
       -0.048850756 -0.09526454 -0.03111761 0.038310878
000200 22 97 9e 3d 78 2e 22 3c c9 78 22 bc 62 2e a0 3d
       0.0774367 0.009898774 -0.009916493 0.07821347
000210 30 9d e1 3b 7a 7d 01 be 94 c8 7c bd a1 47 06 bd
       0.0068851933 -0.12645522 -0.061714724 -0.032783154
000220 50 ec 6d bc c0 a3 43 3d 8b 93 2f bd 7e e1 58 be
       -0.014521673 0.047763586 -0.042865317 -0.21179768
000230 9d 0e 12 3e 5c 8a 71 bc 89 64 7e bc fc 41 ba 3d
       0.14263387 -0.01474246 -0.015526899 0.09094617
000240 7d e8 9e bd ea 1c a4 bd de 76 30 be 50 3e 95 3d
       -0.07759187 -0.080133274 -0.17232844 0.07287276
000250 fc a2 3b 3c 04 4d 9a 3e 80 be d4 bd fe c4 17 be
       0.011452433 0.30136883 -0.103878975 -0.1482124
000260 1c df f1 bc dd 3d ee bc 66 1c 12 3e a0 49 2d bd
       -0.029525332 -0.029082233 0.14268646 -0.042306542
000270 22 ff a5 3c eb 36 7f 3d 39 74 b1 bb 2f b0 40 3d
       0.020263258 0.062308233 -0.005415466 0.04704302
000280 54 32 7c bd 00 2c 93 bd 46 ab 28 3e 31 17 d4 3d
       -0.061571434 -0.07186127 0.16471586 0.10355986
000290 85 ba 04 be d2 72 a8 3d 6a 2a 6a 3c e4 17 13 bd
       -0.12961777 0.08225025 0.014292339 -0.035911456
0002a0 ae f5 d1 bd 52 4b 6c bd 4c 19 a1 bd 45 7f 11 be
       -0.10251938 -0.05768902 -0.07866153 -0.14208706
0002b0 58 69 93 3d 8d c2 03 3e e2 dd f5 3d 05 95 d7 3d
       0.07197827 0.12867184 0.120052114 0.1052647
0002c0 74 0d 54 3d fb 88 e3 3c 56 33 e2 bc 1c 97 f9 bc
       0.051770642 0.027775278 -0.02761237 -0.030467562
0002d0 c8 d6 1f ba 83 36 ab 3d 46 3c ac bb a6 a0 a2 3d
       -0.00060973736 0.08360007 -0.0052562086 0.079407975
0002e0 0d 17 ca bd 1b 40 5a 3c f1 3b eb 3d 82 d4 8b 3c
       -0.09867678 0.013320948 0.11486042 0.017069105
0002f0 27 a6 60 bd d4 c5 07 3d 67 36 87 3d 73 0a a2 3d
       -0.054845955 0.033147648 0.06602173 0.07912149
000300 8e af b4 3d 5c 87 27 bc 4b a8 d6 3d af 11 90 3e
       0.08822547 -0.010225143 0.10481318 0.28138492
000310 53 bc 4e 3d 48 15 2e 3c 73 e4 e8 3d 5c 5f 53 3e
       0.05047257 0.010625191 0.11371698 0.20641845
000320 57 6d be bb 02 80 e3 bd bd d0 3d bd dd c5 78 be
       -0.005811374 -0.111084 -0.046341646 -0.24294229
000330 bd de 3a bd a7 5e b6 bd 7e 35 5c bc 9f a1 80 bd
       -0.045622576 -0.08904772 -0.013440488 -0.06280827
000340 31 bf 97 3d fe c1 bf 3d 5b 65 8d bd 3e d6 0a be
       0.07409514 0.09363173 -0.06904098 -0.1355829
000350 fc 59 88 bd 04 1f 87 bd 03 61 90 bd 5a 53 06 bd
       -0.06657788 -0.06597713 -0.070497535 -0.032794334
000360 e6 95 24 be 2f db f3 3d 92 54 46 3e 73 c6 a9 3d
       -0.16072807 0.1190704 0.19368199 0.08289804
000370 89 56 7b bd 6e 5e 1b be fc fd f7 bd fb 26 85 bd
       -0.061361823 -0.15172741 -0.121089906 -0.065015756
000380 fc 1e 2a be 91 4f eb 3d 6b b0 d5 3c 2c 74 ce bd
       -0.16613382 0.114897855 0.0260851 -0.10080752
000390 4b 6e 91 3d 93 10 1a 3e e2 be 59 3e 67 56 b6 be
       0.07101115 0.15045385 0.21264222 -0.35612795
0003a0 ca e3 c4 3d 1b 56 6b be 10 84 0a bd 13 ca 7c 3e
       0.0961376 -0.22982065 -0.03381735 0.2468646
0003b0 ec c2 85 3d 5e 5b 38 be 50 6d 1b be c9 6d 0c be
       0.06531319 -0.18003604 -0.15178418 -0.13713755
0003c0 ed db ca bc 76 ab 8e 3d b5 f7 75 bc 19 ae 0c bd
       -0.024763072 0.06966297 -0.015012671 -0.03434572
0003d0 41 db 7a bd ba d6 b2 3d 2c ac 13 bd 55 f6 44 be
       -0.061244253 0.08732362 -0.036052868 -0.19234593
0003e0 28 9c 93 be 42 b7 00 bd 17 83 90 bd 41 2b 8d be
       -0.28830075 -0.03142477 -0.070562534 -0.27572063
0003f0 49 a9 1a be d2 8b ed 3c 28 ed 98 be 99 2f 1f 3e
       -0.1510364 0.028997336 -0.29868436 0.15545501

bias f4 [64]
000000 15 83 f6 3c 86 5b 18 3e 27 1d 40 bc b9 28 0b bd
       0.030091802 0.14878663 -0.0117257 -0.033974383
000010 da 7a 0b be 72 1b 85 bd af 45 26 bd 6d c6 2c bd
       -0.13621083 -0.064993754 -0.0405938 -0.04218142
000020 53 e1 34 bc 91 d8 2b bd 01 57 9d 3d 6d 83 31 bd
       -0.01104005 -0.04195458 0.0768261 -0.043338228
000030 34 a1 fa 3c b7 97 67 bd 79 56 ad 3d 3b e1 78 bc
       0.030594446 -0.05654117 0.08463759 -0.015190418
000040 8a 8d f8 bc 9f 5f 18 3e 39 ea f6 bb e1 f1 62 3d
       -0.030340929 0.14880227 -0.0075352457 0.055406455
000050 0b ef b3 3d b7 39 2c bd b1 58 9e 3e ec 7f d9 3d
       0.08785828 -0.04204723 0.3092704 0.10620102
000060 7a 33 b3 bc e7 3a f4 3c 96 b2 af bd 6f 27 18 bc
       -0.021875132 0.029813243 -0.085789844 -0.009286745
000070 59 74 90 bd 86 41 32 bb d4 ed 9c bc 80 09 eb bd
       -0.070534416 -0.00271997 -0.019156374 -0.11476421
000080 45 ce 20 3d a9 e1 38 bd 11 9f 98 3d f3 c1 32 bc
       0.039259214 -0.04513708 0.074522145 -0.010910499
000090 9e 0b df bc a5 e0 1e bd 36 55 59 bd 7d 80 ed 3b
       -0.02722722 -0.038788456 -0.05305978 0.007247983
0000a0 eb 2b 73 bd d4 51 0d bd 98 a8 1d 3e bf aa 1f 3c
       -0.059368055 -0.034501866 0.15396345 0.009745299
0000b0 a8 d7 41 bd ea 73 7d bd 67 e7 64 bd b4 13 96 bc
       -0.047324806 -0.061878122 -0.055884745 -0.018319942
0000c0 f8 d8 7b 3d 9d fd a9 3a 3b a6 42 bd dd f8 65 bd
       0.061486214 0.0012969259 -0.04752181 -0.056145538
0000d0 52 5d 10 3e 22 3d 07 3f 48 d8 c5 3e 06 f2 a5 bc
       0.14098099 0.52827656 0.38641572 -0.020257007
0000e0 33 f8 48 bd cd 13 6b bd 64 0a 20 bd 2e fe 07 3e
       -0.049064826 -0.05739193 -0.03907241 0.13280556
0000f0 76 7a 93 bd eb 45 69 bd 47 64 7e bd 2b b2 48 3d
       -0.07201092 -0.056951445 -0.06210735 0.04899804

weight f4 [64, 64, 3, 3]
000000 0a 63 c7 bc e8 50 09 3c 9c 55 5d bd 8c 6a 6c 3d
       -0.024339218 0.008381106 -0.05403672 0.0577188
000010 80 5b b8 bd 53 35 81 bd d5 8e ed bd c9 2e b5 3c
       -0.09001827 -0.06308999 -0.11599509 0.022117035
000020 82 06 c6 3c 50 93 6a 3d 4e 0c 9d bc 04 ec 39 3d
       0.024173025 0.057269394 -0.019170906 0.045391098
000030 82 9d ee 3b 6d 6d 67 bc 29 91 43 bd 4c 38 84 bc
       0.00728196 -0.01412521 -0.047745857 -0.016140126
000040 4b 65 26 3d 30 3b b7 bd 88 f2 d8 bd 12 b8 84 3c
       0.040623944 -0.08946836 -0.10593134 0.016201053
000050 3a 34 b2 3d 26 81 c1 bc 71 c1 ba bb db 71 79 ba
       0.08701368 -0.023621153 -0.0056993295 -0.0009515562
000060 b2 06 e1 bc 22 5c 9f 3c 70 1f 84 bd 2c 09 15 3c
       -0.027469013 0.019453112 -0.06451309 0.009096425
000070 6f 90 42 bd 4e 2e 92 3c 44 41 6f bd d5 b8 9a bc
       -0.047501024 0.017844345 -0.05841185 -0.018886963
000080 79 af 63 3d d3 a6 76 3d 18 59 81 bd 8d 9f 15 bd
       0.055587266 0.06021769 -0.063158214 -0.036529113
000090 53 d7 2c 3c 50 9c 2f 3c 26 0a 11 3d 6e d1 f4 bb
       0.010549384 0.01071842 0.03541007 -0.007471255
0000a0 6f 82 00 3d f8 50 36 bc 5d 10 bc 3c df 70 15 3d
       0.03137439 -0.011127703 0.022957021 0.036484595
0000b0 8c ba 1f 3c 52 d9 d1 3c f6 8e 6d 3c ff ad 41 bd
       0.009749066 0.025616322 0.014499417 -0.047285076
0000c0 64 c6 b5 bb 3c 4f a5 3a e1 13 6f bb 51 22 83 bd
       -0.0055473316 0.0012612115 -0.0036480355 -0.0640303
0000d0 10 f0 23 bd e1 dd bf bd 78 52 f7 bc 69 16 c3 3c
       -0.040023863 -0.09368492 -0.030190691 0.023814397
0000e0 91 6f e4 bc 34 e9 db bd 4e cb 8a bd 1a 2a c0 3d
       -0.02788523 -0.10737839 -0.067770585 0.0938303
0000f0 f5 97 88 3d f5 a0 a3 bb 2c bc 02 bd df fc a5 3c
       0.066696085 -0.004993553 -0.031917736 0.02026218
000100 af 4f b9 bd fd ea 66 3d dc 9a 0f 3d 23 23 8b 3c
       -0.090484016 0.056376446 0.035059795 0.016984528
000110 a8 59 88 bc a8 c4 d0 bc 42 ed 05 3c 2a 1c 6c bd
       -0.016644314 -0.025484398 0.008174242 -0.057644047
000120 95 23 07 bd c9 20 b9 bd c5 7c 10 be ea 0b 07 be
       -0.032992918 -0.090394564 -0.14110096 -0.13188139
000130 36 5b 12 3c 74 8c bf bd af f2 f8 bc 30 96 74 3c
       0.008932879 -0.09352961 -0.030389158 0.014928386
000140 dc 54 f2 bb 70 09 1c 3d 60 66 ef 3c 2b 56 e2 bc
       -0.00739537 0.038094938 0.02922362 -0.027628979
000150 36 05 05 bd 4e 70 ff bc 50 33 71 bc b0 d9 c4 bd
       -0.032475673 -0.03118148 -0.0147217065 -0.09611833
000160 24 93 0b 3d 78 ff 92 bd 74 49 f1 3c ed f5 d8 bc
       0.03407587 -0.07177633 0.02945397 -0.026484454
000170 40 8d 9c bd e3 85 da 3c 12 fe 26 be 5b 90 ae bd
       -0.07644129 0.02667517 -0.16307858 -0.08523627
000180 1c 28 99 bd f8 42 a2 3c c8 3a 18 3b ab cd d7 bb
       -0.074783534 0.019807324 0.0023228396 -0.006585797
000190 ad e6 0f bc 95 fa e0 bd 01 47 12 bd 90 24 1c bc
       -0.008783025 -0.10985295 -0.035712246 -0.009530202
0001a0 db f2 7d bd e7 5f c2 bb 70 0c 2d 3c f2 80 e9 bc
       -0.061999183 -0.0059318426 0.010562047 -0.028503869
0001b0 b8 2c 64 bd a1 37 11 bc 9f 27 a5 3d 93 30 99 bd
       -0.05570671 -0.008863361 0.08064198 -0.07479968
0001c0 39 44 c2 bd d2 28 44 bd 1d 75 1e bc 39 a9 15 bd
       -0.09485669 -0.04789049 -0.009671477 -0.036538336
0001d0 ca 92 3c bc 7c 92 05 3c f3 a5 9b 3d 15 85 2a bc
       -0.011509607 0.0081526 0.07600012 -0.010407706
0001e0 c0 63 36 bd 04 d0 5f 3d 0c 30 c0 bc 01 64 14 3c
       -0.044528723 0.05464174 -0.02346041 0.009057046
0001f0 8c ad 7e bc 93 98 10 bd 0b 8e d8 bd 70 b5 82 bc
       -0.0155443065 -0.035301756 -0.105739675 -0.015955657
000200 26 93 a5 3d 04 d9 62 3d e2 a5 b2 bd 27 95 2b 3d
       0.08084707 0.055382743 -0.08723046 0.04189029
000210 2c 09 84 bd 8f be 3f bd 2b bd 47 bd a0 ce 25 bd
       -0.06447062 -0.04681259 -0.04876439 -0.040480256
000220 44 79 1f 3d 8b fa 99 3d 33 14 50 bc b8 9f 25 3c
       0.038934007 0.075184904 -0.012700128 0.010108881
000230 2e 76 d1 bc b4 f4 9f bd e9 c5 01 3e 91 5e 02 be
       -0.025569048 -0.07810345 0.12673153 -0.12731387
000240 00 86 5c 3d a8 75 b2 bd 6f 9f 8a 3d ce dd e4 3c
       0.05383873 -0.087138474 0.06768691 0.027937796
000250 b7 fa 3b bd c8 ac 77 bc 33 c6 2e bd f0 a3 af bc
       -0.045893397 -0.015116878 -0.042669486 -0.021440476
000260 09 1d c0 bc 2d ee ea bc 83 f0 a3 bd a1 29 99 bd
       -0.023451345 -0.028678024 -0.08004858 -0.07478643
000270 f5 9b ef bd 02 68 93 bd 71 bc ba 3c 03 4d 80 3d
       -0.11699668 -0.07197572 0.022794934 0.06264689
000280 5a 85 d5 3d fc e2 38 3c fe db e6 bc 47 26 04 3d
       0.104258254 0.011284586 -0.028181072 0.032263067
000290 01 38 8d bd d5 4f bd 3d f9 75 98 3b e1 80 17 3d
       -0.068954475 0.092437424 0.0046527353 0.036988143
0002a0 e2 21 ec 3d 9d 25 9f bc c3 db 7f 3d 31 85 de bc
       0.115299 -0.019427115 0.06246544 -0.02716312
0002b0 7f 44 53 3d dc 4a 32 be 43 43 21 bd fd 38 b3 bd
       0.051578995 -0.17411369 -0.039370786 -0.08751104
0002c0 91 03 53 3c 42 35 ad 3d 4e 56 7c bc 67 1a a3 3c
       0.012879268 0.08457424 -0.015401436 0.01991005
0002d0 03 8c 06 bd c9 7e 4f bc 77 c2 24 bc 5e 91 1f bd
       -0.03284837 -0.012664505 -0.01005613 -0.038956992
0002e0 10 87 64 3c 7d cc 2a bd ac aa b5 3d b7 f3 24 bd
       0.013948217 -0.04169892 0.08870444 -0.040271487
0002f0 1c 1c 05 3d b6 2c 4e 3d 60 1a b1 bc 6a dc 2d bd
       0.03249751 0.05033561 -0.021619022 -0.04244653
000300 6b 65 52 bd 74 70 2f 3c d4 22 b5 3d 5b a1 85 bd
       -0.05136625 0.010707963 0.088445336 -0.06524917
000310 7f cd 60 3d 65 80 05 3e 1e 4b c2 3c e7 a6 96 3c
       0.054883476 0.1303726 0.02371746 0.018390132
000320 b7 09 08 3d 5c eb 14 bd 22 47 e3 bc 40 5a 73 bd
       0.03321239 -0.03635727 -0.02774388 -0.05941224
000330 be b4 95 3d 68 0a 37 3d 34 5c d9 3c 7d 8d d9 bd
       0.073098645 0.04468766 0.026533224 -0.1062269
000340 50 81 0d 3d 8c bf 13 be 40 86 11 3e 10 bb f1 bc
       0.03454715 -0.14428538 0.14211369 -0.029508144
000350 39 71 a1 bc 3b 6e ba 3d 6a 80 08 3e 6d 16 21 3d
       -0.01970731 0.09103056 0.13330236 0.039328028
000360 41 12 dc 3b 64 25 2e 3b ba a7 6b bd 80 2a 33 3d
       0.006716043 0.002657258 -0.057533003 0.043741703
000370 96 be 56 bd a8 25 1b bd 45 50 ed 3c b5 81 18 3d
       -0.05242785 -0.03787771 0.02896894 0.037233073
000380 93 dc a9 bd 7f da a1 bc ce 1c c0 bd 60 59 7f 3d
       -0.08294024 -0.019757507 -0.09380494 0.062341094
000390 87 d2 42 3c 14 62 37 bc 32 12 78 ba 62 c9 9d 3d
       0.011891014 -0.011192817 -0.00094631605 0.07704426
0003a0 00 ae 98 3d 80 6d 27 bd 50 ea 19 bd 5b 47 77 3c
       0.07455063 -0.04087591 -0.037576973 0.015092696
0003b0 f7 bd 50 bd 4c 7e 2d bd 5a 55 37 bd b5 14 6b ba
       -0.050962415 -0.042356774 -0.044759132 -0.0008967624
0003c0 13 4c 90 3c b7 c3 87 bd 17 17 82 3d af a8 ed 3b
       0.0176144 -0.066291265 0.0635206 0.0072527747
0003d0 bc 05 82 3c 8b 7a af 3b 16 c6 a0 bc 30 79 ac bc
       0.015871875 0.0053551844 -0.019625705 -0.02105388
0003e0 ad 07 11 bd 2b 7b 2a 3d 9a f7 49 be 38 ce b0 bd
       -0.03540771 0.04162137 -0.19723359 -0.08633083
0003f0 3e ad 23 3d 0a 0f 65 bd be e7 15 bd 3f 04 b9 bd
       0.03996014 -0.055922545 -0.03659796 -0.09034013

bias f4 [64]
000000 6b a2 05 bd 36 97 b7 bc 43 02 8c bd ee 99 28 bc
       -0.032625597 -0.02241097 -0.06836369 -0.010290606
000010 01 8b 48 bd 1f be f6 bd ff 94 ae 3c 5c 60 b8 3b
       -0.04896069 -0.120479815 0.021311281 0.0056267213
000020 60 57 80 bc f1 eb 19 3c 45 ac 72 bc 6a a1 14 3d
       -0.015666664 0.009394632 -0.01481158 0.03628675
000030 c6 06 5c bc b0 4a 02 bc 20 70 9e 3c 93 0b 35 3c
       -0.013429349 -0.007952377 0.019340575 0.011050123
000040 aa ac b5 bd 14 d5 9a 3d 0e ed 4f 3c 27 c4 28 bd
       -0.08870824 0.07560173 0.012690796 -0.04120269
000050 d0 f2 74 3b 4a a9 ae 3d a8 a0 26 bd 2c 89 c7 3a
       0.0037376173 0.08528383 -0.040680557 0.0015223376
000060 cc 39 89 3b e1 df 3b 3d f2 00 8d bd f3 cd 4f bd
       0.004187798 0.045867804 -0.06884946 -0.050733518
000070 b5 7a 6f bd 40 cb de bc 69 c0 96 bc 0d d9 f7 3c
       -0.058466632 -0.027196527 -0.018402295 0.030254865
000080 bc 2f 1b bc 4f 57 82 bc cd dd 00 bd 77 42 68 bd
       -0.00947183 -0.015910773 -0.031461526 -0.05670401
000090 d3 b4 79 bd 7f bc 70 3a d0 a7 1a 3b 90 7d f4 bc
       -0.060963463 0.00091833615 0.002359856 -0.02984503
0000a0 36 45 91 bc 88 d9 87 3d ff 9b 37 3d db c7 a2 bb
       -0.017733198 0.06633288 0.044826504 -0.0049676723
0000b0 49 a4 c2 3b d0 0d 8b 3c 9b 11 5f bd 5a 16 94 bc
       0.0059399945 0.01697436 -0.05446015 -0.018077064
0000c0 46 04 7e bd 94 9d 09 3d 39 01 54 bd 7d 80 c6 3b
       -0.062015794 0.033597544 -0.05175898 0.0060577975
0000d0 c9 1b 6f 3d b2 e0 65 bd f0 be b4 bd 5e e9 63 bc
       0.058376107 -0.05612249 -0.08825481 -0.01391062
0000e0 7e 11 ee bb 62 8c 2d be 78 94 5f bd fb a0 f9 3c
       -0.007265269 -0.16948083 -0.05458495 0.03047227
0000f0 f2 b7 30 bd cb 01 08 bd 0d 81 5f bd ca bc 81 3b
       -0.043144174 -0.033204835 -0.05456643 0.003959273

weight f4 [12, 64, 3, 3]
000000 7a b7 9c bc b6 71 07 3c b1 dc 01 3d 8f 5d f1 bc
       -0.019130457 0.008266857 0.03170461 -0.029463558
000010 d7 91 5f 3c a9 90 19 3c 3c 95 08 bd d7 5e 80 3a
       0.013645611 0.009372869 -0.033345446 0.000979389
000020 b2 ec 3e 3b af 79 91 bd a1 9f c1 3c d6 30 bf 3c
       0.002913278 -0.071032874 0.023635687 0.023338716
000030 4d e7 62 bd 59 4f 3e 3d b0 bf 24 3b 33 d7 dc 3c
       -0.055396367 0.04646239 0.0025138669 0.026958084
000040 dc 3e 2d 3b bb a4 6d bc f0 49 15 3c ac 1f c9 ba
       0.0026435172 -0.014504607 0.009111866 -0.0015344522
000050 fc 3b 6b bd 82 24 8a bc 0f bd e3 3d 82 e7 c7 3b
       -0.057430252 -0.016863111 0.111200444 0.006100596
000060 db 09 bd ba dc 47 36 3c c8 14 1d bc ca ab d4 3d
       -0.0014422493 0.011125531 -0.009587474 0.10384329
000070 df 46 d4 bc 77 4c 93 3d 40 d6 34 3e 7b 30 ee bc
       -0.0259127 0.07192319 0.17659855 -0.029075852
000080 e4 f7 5b 3e d0 36 18 bd 63 91 a9 bc eb 34 09 3f
       0.21481282 -0.03716165 -0.020699209 0.5359637
000090 20 f2 31 ba 7f 24 d8 3b 4d 4c 4e 3b 80 f9 25 3c
       -0.00067880936 0.0065961475 0.0031478584 0.010130286
0000a0 44 20 2c bc 9f dd ea bc 69 ba 59 3c 7c a9 6d 3b
       -0.01050574 -0.02867013 0.013289073 0.003626435
0000b0 1d be 72 3b 2c ae e7 3b 56 c3 26 bc a4 76 92 3b
       0.0037039586 0.0070703235 -0.010178408 0.0044697095
0000c0 c4 ad 05 bd d2 19 bc 3d 20 fa 48 3b 0f 88 9a 3c
       -0.03263642 0.09184612 0.0030666664 0.018863706
0000d0 df a8 1a bd 14 01 b5 bc 3d ce df 3b b7 3a 27 3d
       -0.037758704 -0.02209524 0.0068300054 0.04082748
0000e0 26 0c 13 bc 92 f7 b1 bd e8 f1 3f be 8c f2 3b bd
       -0.008975064 -0.086897984 -0.18744624 -0.045885608
0000f0 40 e0 1e 3e 77 bc b1 3d 53 51 df bc 47 49 ea bc
       0.15515232 0.08678525 -0.027260458 -0.028599394
000100 9c fc 2f 3d 47 75 8a bc 5d a3 89 bb 22 de b4 3d
       0.042965516 -0.016901625 -0.0042003826 0.08831431
000110 62 2f d3 3c fe 13 14 bd 7f b6 23 3d 09 a3 23 bd
       0.02577943 -0.03615188 0.039968964 -0.039950404
000120 c6 6b 99 bc 9d dd 00 3c 4e 0a 01 bd 4e 04 c2 3d
       -0.018728148 0.007865337 -0.031503968 0.09473477
000130 76 ca 8a 3c 37 e8 61 bd 35 fc c6 3d 63 9d 0b bd
       0.016942244 -0.055153098 0.097160734 -0.034085643
000140 2c e9 12 bd 32 21 8d bc 12 a3 61 bd 50 6d 36 bc
       -0.0358669 -0.017227743 -0.055087157 -0.011134461
000150 d7 66 66 bd 97 96 3d 3d 67 2b c8 bc 6e e7 b6 3c
       -0.05625042 0.04628619 -0.024434758 0.022327151
000160 d2 34 54 3d 35 d1 86 3d a6 c5 37 3b 57 b9 8a bb
       0.051808186 0.06582872 0.0028041392 -0.00423352
000170 32 c3 3e bd 15 d2 97 3a f7 b1 45 bd 97 8c d1 3b
       -0.04657287 0.0011582995 -0.048265424 0.0063949334
000180 d2 6b 9a 3c 7c 5a 28 3d 24 16 e6 3c de fd 41 bc
       0.01885024 0.041101918 0.02808673 -0.011840312
000190 14 dc c8 3a 31 b6 80 3c 68 64 83 3b 7a 30 e5 bc
       0.0015324377 0.015711876 0.004009772 -0.027977217
0001a0 f9 53 3d 3d f7 63 78 3a 19 de cb 3b 58 1e 72 bb
       0.04622266 0.0009475345 0.0062215445 -0.0036944356
0001b0 12 36 37 bb 0a 6b 45 bd c6 27 27 bd dc e8 ad 3c
       -0.0027955812 -0.048197784 -0.040809415 0.0212292
0001c0 16 29 c4 ba 2d aa 9c 3c 04 db 63 3c 85 95 6d 3d
       -0.0014965858 0.019124115 0.013907198 0.05800392
0001d0 6c b8 d3 bc f2 53 bf 3d 66 a8 f6 3c 7f e6 67 3c
       -0.025844775 0.09342183 0.030109596 0.014154076
0001e0 ae dc 1d 3d e1 a0 30 3d 2e cf 5a bd 63 2a 12 bc
       0.038540535 0.043122176 -0.05342024 -0.008921239
0001f0 29 e9 44 bd ef 64 c7 bd 3d 2d a0 bd 17 0e 1d 3b
       -0.04807392 -0.097360484 -0.078211285 0.0023964697
000200 ab 83 0c 3d 19 3e 83 bd d4 45 66 bb a0 b0 b8 3d
       0.034305256 -0.064083286 -0.0035136836 0.090180635
000210 32 44 0f bc be d3 3a 3d d1 da cc 3c d0 8f b6 bc
       -0.008744286 0.04561209 0.025006684 -0.022285372
000220 6f 36 3b 3d e9 4f 86 bc 86 70 32 bd c5 0a 1c bc
       0.04570621 -0.016395526 -0.043564342 -0.009524052
000230 d6 fe b7 bc 85 e9 c9 3c 8a 0b b2 3c 4b 94 c2 3c
       -0.022460382 0.024647484 0.021734018 0.023752352
000240 fa 17 eb bc 53 50 84 3d b9 04 a2 3d c8 dd e6 3a
       -0.028697956 0.06460633 0.07911057 0.0017613703
000250 b1 37 42 3e 7f 9c 49 be c6 0c 9e 3d 06 d1 14 3e
       0.18966557 -0.19688605 0.0771728 0.14532861
000260 3d 6f e2 bd 21 8b 23 3d b1 5f 5d bc eb c4 09 3d
       -0.11056373 0.039927606 -0.013511584 0.03363506
000270 1e 75 65 bc b0 42 25 bd d2 02 b9 bd 37 d6 37 3b
       -0.014004974 -0.0403468 -0.09033741 0.0028051266
000280 ee b4 c5 bd cc 93 d4 bd e7 4e 4d bb 67 9e 6f 3c
       -0.0965365 -0.103797525 -0.0031327547 0.014625168
000290 b5 8f 86 3d 2f 57 7c bc 67 26 8c 3c eb a4 41 3c
       0.06570379 -0.015401646 0.017108155 0.011819105
0002a0 52 96 b2 bd fb e6 f3 bb c2 32 32 3b d1 69 a9 bd
       -0.087200776 -0.0074433065 0.0027190899 -0.08272136
0002b0 45 32 0f bd 49 3d a3 3a 3f 7b 86 3d 6c c5 bd 3d
       -0.03496005 0.0012454177 0.06566476 0.09266171
0002c0 8a 76 22 bd 56 62 53 3d 85 95 9d bb 97 43 18 3c
       -0.03966383 0.051607452 -0.004809084 0.009293458
0002d0 bd 67 3a 3c db 93 6a 3d 47 a7 99 bc 9d a7 e4 bc
       0.011377272 0.057269912 -0.018756522 -0.027911955
0002e0 7f dc 71 bd 59 0a 33 3d ac 8f d8 bc d8 2c 92 3c
       -0.059048172 0.04371104 -0.026435696 0.017843649
0002f0 87 3e aa b9 30 73 26 3d 53 61 83 bc 44 5f 9d bc
       -0.00032471513 0.040637195 -0.016037619 -0.019210465
000300 3a 90 76 3d b9 26 59 bc de f0 f5 bc fc 4f f2 3b
       0.06019614 -0.013253861 -0.030022081 0.007394789
000310 65 c0 83 bc 49 37 33 3b c0 29 9d 3c 5f bc 76 bc
       -0.016082952 0.0027346185 0.019184947 -0.01505956
000320 90 9f a1 3b 0b e3 3c 3c 3d 62 74 3b a3 ad 40 bd
       0.0049323514 0.011528741 0.003729 -0.047040593
000330 65 1a 97 3c 4d 44 a7 3c 2a 79 ea ba 11 4e 5e 3c
       0.018445203 0.02041831 -0.0017888893 0.013568417
000340 78 3c f7 bc f2 65 1a bc 26 0a c5 3b 7a 58 82 3d
       -0.030180201 -0.00942372 0.0060131727 0.06364532
000350 dc fa 7c bc 3d 55 95 bc 0a 96 89 3b d1 d4 42 3c
       -0.015440669 -0.018229121 0.0041987943 0.01189156
000360 cf 39 70 3d 1b 77 89 bc 15 83 96 bd 84 7e af 3d
       0.05864888 -0.016780427 -0.07349221 0.08569053
000370 29 ce b7 3c 75 a6 a6 bd ac 69 a5 bb 38 bc d9 3b
       0.022437172 -0.08137218 -0.0050479975 0.006644752
000380 1f 01 59 bd bb 8b e0 3b 5d 03 30 bd e1 3e 03 bd
       -0.052979585 0.0068525947 -0.042971957 -0.032042388
000390 c1 15 3d 3d ad f4 09 bd 0a 28 c9 3d 3c 67 9c bb
       0.046163324 -0.033680607 0.0982209 -0.0047730487
0003a0 45 8b a5 bc 2f 40 11 3c f5 1f fa 3c 5c eb 7d 3c
       -0.02020801 0.0088654 0.030532816 0.015498009
0003b0 d0 8a 7b 3c e5 1b d1 bb 95 74 b0 bd f6 39 9a bd
       0.01535292 -0.006381499 -0.08615986 -0.075305864
0003c0 97 6c 60 3d b5 ec 7d 3d 9f ad 77 3b 3d fa b2 bd
       0.05479106 0.06199332 0.0037792695 -0.087391354
0003d0 b5 b9 6b 3d 61 e5 96 bc 00 60 08 bc 07 d0 04 3e
       0.05755015 -0.018419923 -0.008323669 0.12969981
0003e0 41 be af 3c 50 bc 3c bd bf 64 8a bc 55 17 f6 bc
       0.021453025 -0.046078026 -0.016893743 -0.030040422
0003f0 e2 a2 a2 bb 13 a4 9b 3c 3b a6 5e 3d d7 15 3e bd
       -0.004963265 0.018999135 0.05435775 -0.046407547

bias f4 [12]
000000 a7 1e 5e 3c e8 23 63 3c b3 89 0b 3c 8b 7e a2 3b
       0.013557113 0.013863541 0.008516717 0.0049589328
000010 30 9f 9d bb e4 1d 53 3c 8e 28 28 3c 5d 8c 8d 3c
       -0.0048102364 0.012885544 0.010263575 0.017278844
000020 e1 20 b9 39 c2 f7 ac 3b 4d aa 5c 3c 3f 37 ac 3b
       0.00035310446 0.0052785585 0.013468337 0.0052556093
