train_weight_sr7/model_epoch_11.pth (torch_old, 667646 bytes, 10 tensors)

weight f4 [12, 3, 13, 13]
000000 b5 36 d6 3c ee 4b f1 bc 0e 2f b8 3d 6e bd c5 ba
       0.026149133 -0.029455151 0.0899335 -0.0015086362
000010 5a 9d 23 bd 25 e3 94 bd 50 20 2d 3d 1d 44 67 bd
       -0.039944984 -0.07269887 0.042267144 -0.056461442
000020 81 96 27 be 44 6f 9e 3d cb 24 46 bd 88 96 28 3d
       -0.16366006 0.07736066 -0.048374932 0.041159183
000030 87 37 92 bc 3a 1f 0f 3d 0f 39 26 bd ac 69 66 bc
       -0.017848743 0.03494189 -0.04058176 -0.01406328
000040 f3 13 54 bd 8f 1b 75 3d b2 98 40 3c 65 96 53 3d
       -0.051776838 0.059840735 0.011755155 0.0516571
000050 7a f5 0a be 93 a9 15 3a ad 70 2d bd eb 51 76 bc
       -0.13570204 0.00057091675 -0.042343784 -0.015034179
000060 7e 72 37 3d 1a 7e fc 3a a7 9f c6 bc 42 0e 4f bd
       0.044786923 0.0019263655 -0.02424605 -0.050550707
000070 d8 20 9f 3d cd 8a 03 3d 49 9f 59 bd 99 c9 b8 bd
       0.07769936 0.032114793 -0.05313042 -0.09022827
000080 2d 3c 62 3d 1c 95 cf bd 3f a2 e4 ba f7 39 88 3d
       0.05523317 -0.10135862 -0.0017443373 0.06651681
000090 a0 72 b5 3c 91 41 2c 3b 96 35 67 3c 49 3b 62 3d
       0.022149384 0.0026284198 0.014111897 0.05523232
0000a0 ce bd a9 bd c4 ba db bc 9e 36 0f 3d 84 43 47 3d
       -0.082881555 -0.026822455 0.034964196 0.048648372
0000b0 59 93 7c 3d c2 38 01 3d c7 70 29 be 23 bd 41 3c
       0.06166396 0.03154827 -0.16546927 0.011824879
0000c0 20 86 a5 bd 7a e6 b8 3c 57 3f c4 3d 12 c4 75 bd
       -0.08082223 0.022570837 0.095823936 -0.06000144
0000d0 39 68 a2 bd 16 dc 22 3d 23 bc 94 bd 9b d6 91 bd
       -0.07930035 0.03976067 -0.07262447 -0.07121011
0000e0 1a 72 f2 bd 00 c2 8a 3c 9f 42 81 3b f4 43 32 be
       -0.118381694 0.01693821 0.0039447094 -0.17408735
0000f0 9b 23 87 3c ea cb 18 3d 26 b6 ee bc 9e 72 e2 3c
       0.01649647 0.037303843 -0.02913959 0.027642544
000100 04 82 65 3d 66 f0 33 3d b0 69 58 3d ab c2 11 3e
       0.056032196 0.043930434 0.052835166 0.14234416
000110 c2 75 cf 3c 7c c7 99 bc 8c 02 ac 3d 9d b6 96 3c
       0.025324706 -0.01877188 0.08398923 0.018397624
000120 57 2b 6c bc 0e d1 c1 bd 68 24 00 be 04 5e d6 bd
       -0.01441463 -0.09463702 -0.12513888 -0.10467151
000130 63 19 04 be e0 bf f8 bd 34 23 84 bd a5 10 d5 3c
       -0.1290031 -0.12145972 -0.06452027 0.026008913
000140 06 80 db bd b9 77 b4 bc bb 84 a7 bc b7 3c 91 3d
       -0.10717778 -0.022029744 -0.020449033 0.070916586
000150 c0 54 49 3e f9 b3 27 3b 36 c5 99 3d 71 32 bb 3d
       0.19661236 0.002558945 0.07508318 0.0914048
000160 c0 e2 2f 3e bb 7d 9d 3d 01 f4 28 3d 2a a0 4e 3d
       0.17176342 0.07689997 0.041248325 0.050445713
000170 8d b9 b5 bd 7c 30 0e be 59 06 1c be ef be b4 be
       -0.08873282 -0.13885683 -0.15236796 -0.3530192
000180 ba 57 88 be 5f 67 fc bd c4 ee 3d bd 34 ca 5f 3c
       -0.2662943 -0.12324404 -0.046370283 0.013659049
000190 bf 0c 8b bc 22 d4 a0 3d 71 6c f7 bb 71 51 8d 3d
       -0.016973851 0.07852961 -0.007550769 0.06900299
0001a0 82 a6 4a bc 52 79 98 bc 5e ff fb bb fa 37 4a bd
       -0.0123688 -0.018612538 -0.0076903543 -0.04936979
0001b0 ff 16 cc 3c f2 32 13 bd fe 66 e1 bc 2e d6 8d 3d
       0.02491331 -0.035937257 -0.02751493 0.06925617
0001c0 6b bf d5 bd 98 99 89 bc 3a d3 68 be bb 9e 76 bd
       -0.10436901 -0.016796872 -0.22736827 -0.06020997
0001d0 25 51 36 be 1c 08 95 3d 8b 66 d8 bd b3 f7 0d 3d
       -0.17804392 0.07276937 -0.105664335 0.034660053
0001e0 49 b6 b4 bc d7 f0 26 be 43 ba 21 3d 8f 41 38 bd
       -0.022059577 -0.1630281 0.039484274 -0.044984397
0001f0 74 fa 8f bd c8 7b ed bb cd 0d 49 bc f3 6b 8c 3b
       -0.07030192 -0.007247422 -0.012271357 0.0042853295
000200 ff 1d 81 bd 5f e9 af bc a4 db b4 bd 98 33 80 bd
       -0.063045494 -0.021473585 -0.088309556 -0.06259841
000210 4e 57 dd bd 54 7b 2c 3d 17 f8 dc bd ab c6 16 bc
       -0.10807668 0.042109802 -0.10789507 -0.00920264
000220 fe 69 2a be e3 5a ef bc 48 63 0b be a6 b3 96 3c
       -0.16641995 -0.029218143 -0.13612092 0.01839621
000230 16 03 ae bc be b7 ba bb d6 31 b1 bd bf 23 cf 3c
       -0.021241706 -0.0056981733 -0.086520836 0.0252856
000240 94 f7 f6 3c f4 b8 d1 bd 0d eb 3c be 08 83 c7 bd
       0.030147351 -0.10240355 -0.1844904 -0.09741789
000250 ed 22 83 3d db cb 9d 3c 80 ff 6c 3c d7 05 10 be
       0.06403146 0.019262245 0.014465213 -0.14064728
000260 4a ac 92 bc 80 09 31 bd 21 09 61 bc 41 60 c4 bd
       -0.01790442 -0.04322195 -0.013735087 -0.095886715
000270 ca 34 82 bd e0 38 db 3b 5b ff 1c be 29 48 d9 bd
       -0.06357725 0.0066901296 -0.15331785 -0.106094666
000280 d4 12 4b 3c 39 95 ea bc 7d 3c 05 be 70 39 ee bb
       0.012394626 -0.028635608 -0.13011356 -0.0072700307
000290 8a 74 9d bd 65 54 be bc 43 4c 70 ba 66 25 f9 bd
       -0.07688244 -0.023233602 -0.00091666373 -0.12165336
0002a0 cd ec 2d bc 51 12 c7 bc 01 28 ae bb 46 46 13 bd
       -0.01061554 -0.024300726 -0.0053148274 -0.03595569
0002b0 5c 22 5c 3c af 93 0c 3d 65 f8 8b 3d 4c 6b 33 bd
       0.013435926 0.03432053 0.06834487 -0.0438035
0002c0 58 ca d4 3c a2 58 2e 3b 61 41 4e bd 52 e9 e2 bd
       0.025975391 0.0026603122 -0.05035532 -0.110796586
0002d0 98 e9 4a 3d 68 95 7e 3c ef 60 19 3d 93 50 8f bd
       0.04953918 0.015538551 0.03744596 -0.0699779
0002e0 1f 61 e2 3d 4e e1 ce bc 85 d1 2f 3d ef e9 b9 bd
       0.11053681 -0.025253918 0.042924423 -0.090778224
0002f0 56 cd 0b bd b3 32 2d bd 3c 43 9c 3d b3 31 d6 3b
       -0.03413137 -0.04228468 0.076300114 0.0065366863
000300 a1 b2 8d bc 83 98 a8 bd 1a 0c a2 bc 47 cb 53 bd
       -0.017297091 -0.08232214 -0.019781161 -0.051707532
000310 6a 60 06 3e bc f0 97 bd b8 7d 12 be c6 31 67 bd
       0.13122717 -0.07418963 -0.1430577 -0.056443952
000320 b3 c7 a4 3d 49 1e 41 bc 5e d3 0a 3d 68 e9 22 3d
       0.08045902 -0.011787006 0.03389298 0.039773375
000330 71 ee 0c bd 56 4a 95 bd 41 37 eb 3c db d9 ba bc
       -0.034407083 -0.07289569 0.02871287 -0.02280896
000340 a1 c9 d7 3c 97 4f 1b 3d 3e 15 e0 3d f4 36 d6 3d
       0.026341261 0.0379177 0.109415516 0.104597
000350 9a 01 3b 3d cf f0 af 3b 48 35 7e 3d ba a3 29 3d
       0.045655824 0.005369283 0.06206253 0.041415907
000360 e7 05 3f 3c 93 4d 40 3d d5 45 f5 bd fc ad 0c be
       0.011659122 0.04694898 -0.1197621 -0.13738245
000370 1e a1 69 3d 02 de 82 3d 00 74 a3 bd 5d da cc bd
       0.05703842 0.06390001 -0.079811096 -0.10002587
000380 16 aa 25 bd 4d ff 1a bc ba 52 8a 3b c0 fa 80 bd
       -0.04044541 -0.0094602825 0.0042212876 -0.06297827
000390 f2 c7 1b bc 1b 44 e3 bc 86 25 ad 3c 9a 0f 01 be
       -0.00950812 -0.027742436 0.021136057 -0.12603608
0003a0 a6 73 6b 3d ad 21 7f 3d 80 2a 7c bd c4 a6 ca 3d
       0.057483338 0.062287975 -0.06156397 0.09895089
0003b0 46 eb fa 3b 57 92 76 3d 6a d9 82 bd 40 73 af bc
       0.0076574413 0.060198154 -0.06389125 -0.02141726
0003c0 d4 97 81 39 8c 26 dd bd 36 cb e4 bd 28 65 19 bd
       0.00024717918 -0.10798368 -0.11171572 -0.037449986
0003d0 b4 9a 0f be ae 3b 00 be 8f cc 2a bd 38 bb 37 bd
       -0.14023858 -0.12522766 -0.04169899 -0.04485628
0003e0 6c c1 ac bd 93 c8 64 bc 74 bb 7d 3d a8 99 5b 3d
       -0.0843533 -0.013963836 0.061946347 0.053613335
0003f0 bf 33 9a bc e3 62 1c bc b7 0e 60 bd 39 d6 b9 3d
       -0.018823503 -0.009545061 -0.054701533 0.09074063

weight f4 [64, 12, 7, 7]
000000 35 57 3a 3e 55 8c 3f bd b5 c1 80 bd e1 40 9a bc
       0.1819733 -0.04676469 -0.06286947 -0.018829765
000010 43 5a a0 bc 49 60 f5 3c b5 6c db bd fb 63 4c bd
       -0.01957429 0.029953139 -0.107140936 -0.049900036
000020 ff de 24 3a 77 2f 58 3d a2 a9 80 3d aa c0 04 3e
       0.00062893325 0.05277964 0.06282355 0.1296412
000030 0c 2e 9c 3d 9d d5 20 3e 8f d9 6e 3c 07 0f 07 be
       0.0762597 0.15706487 0.014578237 -0.13189326
000040 8e a5 77 bd e1 43 0e be be e4 40 be de f4 30 be
       -0.06046062 -0.13893081 -0.18837258 -0.1728091
000050 a4 b4 2f be 55 db 6c be d0 0b b1 bd 80 24 a5 3c
       -0.17158753 -0.23130544 -0.08644831 0.020159006
000060 31 49 9a 3e a1 5f 58 3e 86 d2 01 be e7 d1 1c 3e
       0.30133966 0.2113023 -0.12677965 0.15314446
000070 41 59 5b 3d 06 1d d2 3c df e8 76 3d 5d 75 c5 3c
       0.053551916 0.025648605 0.060280677 0.024103815
000080 c6 10 c2 bc 8a e2 29 3d 88 41 84 bd 77 25 c6 bd
       -0.023689639 0.04147581 -0.064578116 -0.096751146
000090 8b 34 72 be 3f 7d 16 be 7f 4c 22 3e d9 00 06 be
       -0.23652856 -0.14696215 0.15849493 -0.13086261
0000a0 2f 55 72 3e 5d a0 2a be 4d 19 8b bd bd 94 15 be
       0.23665307 -0.16662736 -0.06791935 -0.1460752
0000b0 cf 6c ad bd 60 9d c3 3d a6 3d 18 be 3c 7a cd bc
       -0.08468019 0.09551501 -0.14867267 -0.0250827
0000c0 5d 07 17 be d9 5e 30 bd 22 a8 be 3a 6c 04 b0 bd
       -0.14748903 -0.043059204 0.0014545957 -0.085945934
0000d0 b0 de 2f 3e 09 4e 92 bc a8 c7 e3 bb 7f 5a fa bc
       0.17174792 -0.017859476 -0.006951291 -0.03056073
0000e0 e3 fc 29 3c 4a 85 e4 3b 23 3b fb 3d 68 6b 23 3d
       0.010375234 0.006973897 0.12267139 0.039897352
0000f0 40 7a 80 be 60 74 4f bd 1e 00 f2 3d 82 ad ef bc
       -0.2509327 -0.050648093 0.118164286 -0.02925754
000100 5f 9b 12 bc b4 0d c9 3d 6f b7 9f be a5 6e a3 3b
       -0.008948176 0.09817067 -0.31194636 0.004987555
000110 09 f0 98 3e b0 cc 32 bc 48 44 70 3d c1 38 db bc
       0.29870632 -0.010913059 0.058658868 -0.02676046
000120 74 02 0f bd 55 cc d7 bd d9 c6 58 3d bb 19 ec 3d
       -0.03491445 -0.1053702 0.05292401 0.11528345
000130 cd 96 2f be ea 7b 0f bd 6d 0c 0b bc 69 36 6b 3e
       -0.1714737 -0.035030283 -0.008486849 0.22969975
000140 10 76 b3 be cb 60 6c 3e 82 d2 20 bc 52 d8 a0 3c
       -0.35051012 0.23083799 -0.009815814 0.0196344
000150 dd e7 4c 3c ba 19 f3 3d 1e 05 bb bd d3 00 98 bd
       0.012506452 0.11870141 -0.091318354 -0.07422032
000160 e2 4e f9 3d 12 ec 82 be 57 90 0c 3e fe 75 9e bc
       0.12173249 -0.25570732 0.13726936 -0.019343372
000170 2b ab 52 3d 45 72 a7 bd 3d f4 00 3e db c2 62 be
       0.05143277 -0.08176092 0.1259317 -0.22144644
000180 e0 a4 63 3e 9c e1 88 bd b9 9d 1d bc 8c 74 71 bc
       0.22230864 -0.066836566 -0.009620124 -0.01473726
000190 8a 71 f1 3c a5 d7 5a 3d 07 1b 15 3d 57 48 5b 3d
       0.029473085 0.05342831 0.03640273 0.053535786
0001a0 63 5a 87 bb 4a 65 90 3d 0d 4c 08 be f7 2a fc bd
       -0.004130648 0.07050569 -0.13310261 -0.123128824
0001b0 78 04 f3 bc b2 05 8d 3d 56 73 1c 3d 7e 80 0c 3d
       -0.029665217 0.06885852 0.03819593 0.034302227
0001c0 ce 44 e0 3a 29 8a 1a be 17 80 1b be 1c 94 84 bc
       0.0017110349 -0.15091766 -0.15185581 -0.016183905
0001d0 e2 a0 14 3d 13 9b af 3d a9 91 c2 bc 91 db 00 bd
       0.036286242 0.085745 -0.023751097 -0.031459395
0001e0 8c 81 7a bd 15 84 94 bd 20 4a 3d 3b 79 39 b6 bb
       -0.0611587 -0.07251755 0.0028883293 -0.0055610505
0001f0 b0 1c b1 3c 96 04 f3 bd 4e 29 0e be ed 65 10 be
       0.021620125 -0.11866109 -0.13882944 -0.14101382
000200 1f 45 a7 bd 5e 52 a2 3d 14 62 68 3d 0e 6a f3 3d
       -0.08167481 0.079258665 0.05673416 0.11885463
000210 9a 2b d3 3c 6e ff af bd 4e 5e 07 be fe 8b 6e be
       0.025777627 -0.08593641 -0.13219568 -0.2329559
000220 f0 b5 7b 3d f7 71 79 3d 5a 85 c0 3d d2 c2 c6 bc
       0.061452806 0.0608997 0.09400435 -0.02426282
000230 53 fc 55 bd 60 c9 5a 3c 3c af 59 be f0 ae 46 3e
       -0.05224259 0.013353676 -0.21258253 0.19402671
000240 f7 76 e7 3c cd 98 eb 3d 8d 25 02 3b ed d7 bc bd
       0.028254969 0.11503754 0.0019858808 -0.09220872
000250 f9 d8 7b 3c e4 62 c4 3d c4 65 19 3d 77 52 32 bc
       0.0153715545 0.095891744 0.037450567 -0.010883919
000260 a0 ed eb bd a9 25 04 bd 86 49 95 3c 04 bb c5 bc
       -0.11519933 -0.032262478 0.018223535 -0.024137028
000270 2c b8 31 bd a9 bd b4 3d d7 b7 7a 3c ad e0 57 bd
       -0.04338853 0.08825237 0.01530262 -0.052704502
000280 ce 24 a3 bd 0f 82 88 bd 09 fe 8e 3c e0 84 67 3b
       -0.07966004 -0.06665432 0.017455118 0.0035327002
000290 9e cf d7 3d 8e 97 bd bd b2 03 5e bc e3 f5 89 3d
       0.10537647 -0.092574224 -0.013550686 0.06736352
0002a0 02 3a 9d 3d 6f c8 d6 3d 3d 68 aa bd 83 4e 8d bc
       0.0767708 0.104874484 -0.08320663 -0.017249351
0002b0 44 73 9a bd b2 21 55 bd c4 41 dc bd dc 41 4c 3c
       -0.075415164 -0.052034087 -0.10754731 0.012466874
0002c0 b7 3f 18 3d 6c f2 c5 bd f4 60 bb 3b b9 a4 97 bd
       0.03717014 -0.09665379 0.005718345 -0.07404465
0002d0 f4 37 c4 bd 14 73 3e bd eb 45 3b be a6 65 c0 bd
       -0.09580985 -0.046496466 -0.1828839 -0.09394388
0002e0 74 5b 43 3d 1c a3 07 bd 16 da 93 bd 0d 6d 17 be
       0.04769464 -0.033114538 -0.07219331 -0.14787693
0002f0 fd 31 1e bd bb 64 14 be 41 94 1a bd 9e 64 8e bd
       -0.03862189 -0.1449155 -0.037739042 -0.06952785
000300 a6 49 f0 3d eb 43 13 be 9a e4 1b 3b ff 46 be 3d
       0.11732797 -0.14381377 0.002378738 0.09290885
000310 0e 1c be bd 04 b5 50 3a 39 bd 9f 3d 20 10 82 3d
       -0.09282695 0.0007961544 0.07799763 0.06350732
000320 ad ec 30 be 8b 84 8c 3d c1 d9 2f bc 60 2d a1 3d
       -0.17277785 0.06861218 -0.010733069 0.07869983
000330 ae 3d 03 bd 73 c1 bd 3b 83 58 1a be f8 f2 d8 3c
       -0.032041244 0.005790883 -0.15072827 0.026483044
000340 43 83 77 3e cb e0 03 bd 17 13 c2 3d c8 eb bf 3b
       0.24171166 -0.0321968 0.09476297 0.0058569647
000350 40 04 8f bc d2 88 86 bd db b3 5e 3e 94 b2 00 3e
       -0.017458081 -0.06569065 0.21748297 0.12568122
000360 6c 23 96 be c8 a2 97 bd 37 8b 05 bd 75 3f 6f 3d
       -0.293239 -0.07404095 -0.03260347 0.058410127
000370 95 db 23 bc 85 68 4e 3c ca cc 91 be 52 b3 1f 3c
       -0.010001083 0.012598162 -0.28476554 0.009747343
000380 14 c2 f4 3c ec f5 71 bc 7b 5a bc bd e7 b1 63 3d
       0.0298777 -0.014768105 -0.09196945 0.055589583
000390 5e ae 1b be ff 4e 19 3e 2a 59 45 3e cf 06 81 3c
       -0.15203235 0.14971541 0.19272295 0.015750317
0003a0 78 76 f7 3c 16 1d 86 3d 98 b4 62 bd c2 a1 fc 3d
       0.030207857 0.065485165 -0.05534801 0.1233554
0003b0 dc 96 86 bc 32 e3 46 be 6a f2 03 bd 1e ac 12 3d
       -0.016429357 -0.19422606 -0.032213606 0.035808675
0003c0 f8 d5 24 bd 63 02 8c bd bc c9 96 3d 69 43 02 be
       -0.04024312 -0.06836393 0.073626965 -0.12721027
0003d0 bd 52 13 3e e5 4c 7b 3d 01 3c 0b bd 5e 69 26 bb
       0.14387031 0.06135263 -0.03399277 -0.0025392394
0003e0 41 01 d2 bd f7 cf 97 bc b8 0f 82 bd 03 25 e6 3c
       -0.102541454 -0.018531783 -0.06350654 0.02809382
0003f0 63 76 aa 3d 6b f1 93 bd d2 47 ae bd a2 bb f7 bd
       0.08323362 -0.07223781 -0.085097924 -0.12096335

weight f4 [64, 64, 3, 3]
000000 6c 04 a6 be f4 cb 15 3e 58 1a 22 3e 51 ac cf bc
       -0.3242525 0.14628583 0.15830362 -0.025350722
000010 82 9b c0 3d ba dd 51 bc 02 0d b9 3d 1d 51 6c 3d
       0.09404661 -0.012809211 0.09035684 0.057694543
000020 15 84 06 3e b3 0e 3e 3d 21 89 7c 3c 02 20 95 3d
       0.13136323 0.046400737 0.015413553 0.07281496
000030 23 87 10 3c ac 18 bb 3d ad 1d 85 3a 62 ab c4 3d
       0.008821282 0.09135565 0.0010155939 0.09603001
000040 d0 30 57 bd 91 9b cf bd de aa 6e 3c d4 b1 42 bd
       -0.052536786 -0.10137094 0.014567105 -0.04753287
000050 b8 7e bd bd 18 84 bd bd ad 2e 4d 3e 48 f8 0e bd
       -0.09252685 -0.092537105 0.20037337 -0.03490475
000060 8f e2 83 be 7e 14 25 be 8c d4 1c bd 3d e6 f4 3d
       -0.25758788 -0.16121098 -0.038288638 0.11957977
000070 07 93 84 3d 9f 36 83 bd b5 3d a1 bc e6 2a 37 3c
       0.06473356 -0.064069025 -0.019682745 0.011179661
000080 f4 99 55 3d 1a 4f 33 bc 6c 3a d1 bc a2 8e 49 3d
       0.052148774 -0.010944152 -0.025540553 0.04920829
000090 e6 5b 76 bd d5 13 17 3c 2b 21 87 bd 7e ac c8 3d
       -0.060146235 0.009221037 -0.06598123 0.09798525
0000a0 df e2 38 bc cb 02 28 bd f3 41 04 3b c5 d9 29 bd
       -0.011284559 -0.04101829 0.002018091 -0.041467447
0000b0 0d 0f 30 bd 6f 49 c6 bd 86 80 86 bc 6b f3 a4 bc
       -0.042983104 -0.09681975 -0.016418707 -0.020135602
0000c0 5f 16 43 3e 17 63 70 3d 40 a3 cb bc a7 18 49 3d
       0.19051503 0.05868825 -0.024858117 0.049095776
0000d0 50 f9 07 3c 98 bc 7e bd f0 e7 57 3c a3 a5 10 3d
       0.008299187 -0.062191576 0.013177857 0.035314213
0000e0 2a 6a 8c bd ac 01 c7 bc b0 3f 03 3d 5f 97 9f bc
       -0.06856187 -0.02429279 0.03204316 -0.019481359
0000f0 96 92 bb 3d 87 44 93 3c 4c 58 cc bd c5 a0 7d bd
       0.091588184 0.017977012 -0.09977779 -0.0619209
000100 5c 29 a2 3b 6f 4e a4 3c cd fd c0 bc a6 c4 01 3d
       0.004948778 0.020056931 -0.023558522 0.03168168
000110 cc 49 54 3d 00 17 9c bd fd 0b 67 3d 6f 87 14 bd
       0.05182819 -0.076215744 0.056407917 -0.036261972
000120 51 9b 89 bd 9b a2 9f bd 9c 68 b1 38 28 be b5 be
       -0.067190774 -0.077946864 8.459503e-05 -0.3549664
000130 ce 41 46 be c1 43 b7 3c ce 5d fb bd ed e0 22 bc
       -0.1936104 0.022371175 -0.12273751 -0.009941322
000140 29 11 ce bc 4c 58 c7 bc fb 31 87 bd 79 09 4c be
       -0.025154667 -0.024334095 -0.0660133 -0.19925489
000150 cb 2c 56 bd e5 06 9f bd 7d 18 4f be 54 b1 e4 bd
       -0.05228881 -0.07764987 -0.20224185 -0.11166635
000160 30 58 a6 bc e3 11 0a be 43 e0 88 bc 5e 38 b1 3c
       -0.020305723 -0.13483386 -0.016708499 0.021633323
000170 73 bb 0d 3d 4b 57 52 bd da 16 a0 ba a4 bd f8 bd
       0.034602594 -0.05135278 -0.0012213842 -0.12145546
000180 92 31 c3 3c 29 6b 1e 3e 75 c0 e4 bc c9 11 ef 3b
       0.023827348 0.15470566 -0.027923802 0.0072958213
000190 11 b4 c3 3b 6f a7 0c 3d af 19 30 bd 87 03 e3 ba
       0.0059723933 0.034339365 -0.042993244 -0.0017319777
0001a0 eb 3b ac 3d 41 18 a2 3d b2 b6 3c bd e1 06 87 3d
       0.08409866 0.07914782 -0.04607267 0.06593109
0001b0 5c e2 93 bb 5e 12 ba 3d 3f 2e eb bd b1 2c 92 bc
       -0.004513068 0.090855345 -0.1148343 -0.017843576
0001c0 ed da cf 3c 5c 84 a0 be 7a 74 c9 ba 48 33 4b bd
       0.025372947 -0.31350982 -0.0015369796 -0.049609452
0001d0 ac b5 34 be 92 89 0e be 7f b8 11 3a 58 ea 02 be
       -0.17647427 -0.13919666 0.0005558803 -0.12784708
0001e0 28 21 f2 3d d0 d7 b2 bd 20 f0 ab bd 9b 43 99 3c
       0.1182273 -0.08732569 -0.083954096 0.018708995
0001f0 a6 ac 5e be 8e cf df bc 57 68 ca 3d 03 d5 a1 bd
       -0.21745548 -0.02732065 0.098831825 -0.07901957
000200 6c a8 68 be 2b db 20 3c e4 5f e5 be c6 12 5d be
       -0.22720498 0.009817879 -0.4479972 -0.21589193
000210 53 ca 87 be 7d e3 c9 bd 5d bc 7c be 6d e7 a9 bc
       -0.2652155 -0.09857843 -0.2468123 -0.020740235
000220 d7 78 09 3e e7 53 50 3d 10 42 ce 3d c9 0e 1d 3c
       0.13425003 0.050861266 0.10071194 0.009586045
000230 e3 95 6e bd 19 b5 c0 ba 45 2f 3f bc 26 a7 84 ba
       -0.058248412 -0.0014702409 -0.011668985 -0.0010120615
000240 f1 25 12 bd 83 0b 1d be 58 cc aa 3b 74 cd be be
       -0.035680715 -0.15336423 0.005212348 -0.37266123
000250 ec 5e 5a bd 4a a9 a1 bc c4 8d f8 bd b9 15 77 3d
       -0.05331318 -0.019734044 -0.12136415 0.06032345
000260 dd e3 3a bd 8b d9 04 3c 00 99 9b bd ea eb cb bb
       -0.045627464 0.008108507 -0.07597542 -0.0062231915
000270 a5 0d 96 bc e9 43 ab bc 3d 1d 55 3d 40 c8 6e 3d
       -0.018317053 -0.020906406 0.052029837 0.058296442
000280 da d8 87 3c fb 54 a2 bd 04 f1 c1 bd 20 a5 5b bd
       0.016582895 -0.07926365 -0.09469798 -0.053624272
000290 fd 06 9e bd 70 c2 4a 39 0b 60 8b bc 57 19 09 bd
       -0.07716177 0.00019336655 -0.01701357 -0.03347143
0002a0 2f 0a b3 bd fa 53 01 bd 53 03 35 3d 7b 96 84 bd
       -0.08742177 -0.031574227 0.044192623 -0.06474014
0002b0 7f 01 0f be 9c d9 95 be 25 d8 24 be df 3e d4 3d
       -0.13965414 -0.29267585 -0.16098078 0.10363554
0002c0 1b 49 94 be 87 6a 54 be 6c 20 5d 3e 15 04 95 be
       -0.28962025 -0.20743762 0.21594399 -0.29104677
0002d0 1a dd 03 3d df 3a b1 3c d6 99 49 bd 1f 3b 61 3d
       0.03219328 0.021634517 -0.049218975 0.054988023
0002e0 da 63 8f bc d5 1b a5 bb df 34 5f bd 7e b6 42 3d
       -0.017503668 -0.005038718 -0.05449378 0.04753732
0002f0 9c 59 a1 3a dc 9c f9 bd 5c ee d6 bc 47 d5 d2 bd
       0.0012310031 -0.12188122 -0.026236705 -0.10294586
000300 4c 78 de bd d2 a6 4a bd 3b 3c 7a be b8 77 23 be
       -0.108627886 -0.0494755 -0.24437039 -0.15963638
000310 5b 11 9f 3d 3b 80 2d bc 88 65 2b bd 4c a1 25 bd
       0.07766982 -0.010589655 -0.041844875 -0.040437028
000320 84 33 f2 bc 47 14 f8 3c 71 9b 17 3d 1f bd 4b 3d
       -0.02956558 0.030283106 0.037013475 0.049740907
000330 69 43 73 bd 63 5b de 3b 22 87 c8 3d 0a 9c 11 3e
       -0.05939046 0.0067857965 0.097913995 0.1421968
000340 52 77 21 3d cf 9b 0c be 5b 27 e1 3c 43 d5 e9 bd
       0.039420433 -0.13731311 0.027484586 -0.114176296
000350 87 f1 24 3d 30 4f ae 3c 92 d9 39 3d 2a ce 1b 3b
       0.0402694 0.021277994 0.045373507 0.0023774006
000360 d9 b2 5f 3c ea 5a 2f 3d 25 2c 1f 3d e6 66 1c be
       0.01365348 0.04281131 0.03886046 -0.15273628
000370 aa c2 05 be 46 a4 2b 3d 6d 21 81 bd a5 a1 db bd
       -0.1306254 0.04190471 -0.063052036 -0.107241906
000380 39 d1 2c 3d 8d 6c e8 bd 1f d2 da 3c 02 18 89 bd
       0.042191718 -0.113488294 0.026711522 -0.06694032
000390 16 6b bb 3d 3d 02 de 3d a4 5c c8 bd 4d 45 28 3d
       0.091512844 0.10840271 -0.09783295 0.041081715
0003a0 a3 3c bd 3c fa 37 f7 bc a3 37 11 be f9 96 e6 bd
       0.023100203 -0.030178059 -0.1418138 -0.112592645
0003b0 e7 a3 da bc 22 60 0b be 16 91 b0 bd 69 fa 1e bd
       -0.026689483 -0.1361089 -0.08621423 -0.03881303
0003c0 2f 9b 3e be 68 f7 c8 bd 5a 03 96 3d 4c 54 b6 bb
       -0.18613885 -0.09812814 0.07324858 -0.005564248
0003d0 f8 a2 19 3d 98 c7 55 38 68 ce da 3d a6 47 38 3d
       0.037508935 5.0969044e-05 0.106839 0.044990204
0003e0 47 06 d9 3d 3a 3f 67 bc d3 35 e5 3c 1d 74 ad 3d
       0.105969004 -0.0141141955 0.027979767 0.084694125
0003f0 d7 27 d6 bd 37 0d 50 bd 06 1a b9 3a 7f 55 db bd
       -0.104568176 -0.050793853 0.0014122135 -0.107096665

bias f4 [64]
000000 40 7d 1b bc 86 f2 a8 3c 43 86 1b bd 12 df 7a bd
       -0.009490311 0.020623457 -0.03796984 -0.061247893
000010 37 14 08 3e 65 b4 0a 3b 31 53 3b bd 60 fa 0d 3e
       0.13288961 0.0021164652 -0.045733634 0.13865042
000020 7c 41 e2 3d 2f cf fd 3d e1 e9 03 3d b8 2d 2e 3c
       0.110476464 0.12393033 0.032205466 0.010631017
000030 7d d7 5d 3c b9 5d 8c 3b 1d 83 f0 bb 25 aa b2 bb
       0.013540146 0.0042836335 -0.0073398487 -0.0054524117
000040 93 8f b0 bc 5e ae 04 bc 46 c4 43 bd ed 4e 6b bd
       -0.021552837 -0.008098213 -0.047794603 -0.057448316
000050 36 62 b3 3d 27 e3 95 bc f9 55 11 3c 4e 0a 66 bd
       0.087589666 -0.018296791 0.008870595 -0.05616217
000060 5e 0f 0a bd f6 5c 15 bc 4f a8 ce 3d 6b 7d 45 3d
       -0.03370606 -0.009116402 0.10090696 0.04821531
000070 8d 48 5a 3e fe c6 c7 bc 23 1a 02 3b b1 8a 95 bc
       0.21316738 -0.024386879 0.0019852004 -0.01825461
000080 1d 01 e4 3b 34 4c 07 3e 30 36 5b bd 2b 1b 0a bd
       0.0069581405 0.13212663 -0.053518474 -0.033717316
000090 1e 31 b1 3c fe c5 14 3e b0 22 7c bd 8c 3d 96 bc
       0.021629866 0.14528653 -0.061556518 -0.018339895
0000a0 51 f4 10 3e 7e 4e 6b bc d0 58 b0 3e 5a cb 3c bf
       0.141557 -0.014361976 0.3444276 -0.7374779
0000b0 bf 29 11 3b 69 20 a0 3d c1 4f d1 3a 8c 4e b7 3c
       0.0022150127 0.07818682 0.0015969203 0.022376321
0000c0 85 95 47 3a 39 c1 40 bd a6 c2 08 3d 1e db fa 3b
       0.00076135277 -0.04705927 0.033388756 0.0076555153
0000d0 d0 2d 28 bc 7a 37 a1 3c b3 e9 42 bb 4e b4 6e 3d
       -0.010264829 0.019679774 -0.0029741346 0.05827742
0000e0 4f f4 14 3d c7 6c 96 bd 6e 31 4c 3d 7f f9 df 3c
       0.036365803 -0.073449664 0.049851827 0.027340649
0000f0 bb c4 8f 3d b2 ec 68 3c 03 fc b6 bb b5 d5 2a bd
       0.07019945 0.014216589 -0.0055842414 -0.041707713

weight f4 [64, 64, 3, 3]
000000 8a 4c 41 bb 7e 26 80 3d c7 c1 5e bd cb 09 9d bd
       -0.0029495084 0.06257342 -0.05438402 -0.076678835
000010 96 6e 4a be 39 b6 f9 3c e5 70 9b bb b4 3f e9 bd
       -0.19768748 0.030482398 -0.0047436827 -0.113891035
000020 f0 f1 a7 3b 40 83 f3 3a a6 f9 28 bc 1e da dd 3b
       0.0051252767 0.0018578544 -0.010313427 0.0067703864
000030 22 91 86 3c 5b fe dc bc 4b a1 61 bd 3a 6b 89 3c
       0.016426627 -0.026976755 -0.05508546 0.016774762
000040 87 ea 41 bd 1c 30 33 3c b1 e9 59 3d 68 c3 80 3c
       -0.047342803 0.010936763 0.05320138 0.015718177
000050 97 0f e6 3d 5f 61 1c 3c 61 12 7c 3d 2c f7 ac bd
       0.11233442 0.009544699 0.061540965 -0.08445582
000060 4a 4d 52 bd 4c 76 80 bd 01 18 6c bc f6 4f 9e 3d
       -0.05134324 -0.06272563 -0.01441002 0.07730095
000070 ad 45 c1 3a 4c ca ee 3c 4e 5a dc bb 22 b9 b4 bc
       0.0014745496 0.029149197 -0.0067246323 -0.022060934
000080 1c 3e 57 3d e2 d4 9c bd 7f 67 ce bc 8e bd 4a bd
       0.052549466 -0.07657792 -0.025195835 -0.04949718
000090 f0 37 2b 3c b9 16 eb 3c e7 ca 88 bc 42 36 9a bd
       0.010450348 0.028697358 -0.016698314 -0.0752988
0000a0 39 32 a3 bd e0 be 7e bd 51 92 90 bc b9 ea f5 bb
       -0.079685636 -0.06219375 -0.017647894 -0.0075047878
0000b0 83 f6 91 bc d3 31 f5 bd 62 c9 98 3d 16 43 f5 3c
       -0.017817741 -0.11972394 0.07460286 0.029939216
0000c0 66 e9 3e 3d f4 3e 80 bc 5d b6 e9 3c 02 7a a8 bd
       0.046609305 -0.015655018 0.02852934 -0.08226396
0000d0 c4 e7 4f bd 44 8e c7 3c 5b cc 9b bd 1f 44 4a 3c
       -0.05075814 0.02435983 -0.07607337 0.012345343
0000e0 aa 7c 9f 3c 3e da 4c 3c 89 db d1 3c 60 d4 7a bc
       0.019468624 0.012503205 0.025617378 -0.015309423
0000f0 48 b2 cc 3c 76 85 3c bd 8f ac 07 3c de 99 5f 3d
       0.024987355 -0.046025716 0.008280887 0.0545901
000100 7a 95 9b ba 39 95 2c bc 5a 28 a2 3c 77 0c be bc
       -0.0011870109 -0.010533624 0.019794632 -0.023199303
000110 93 96 a6 3d a0 a7 8d 3c 49 cc b8 bd 23 b7 1a be
       0.081341885 0.017291844 -0.09023339 -0.15108924
000120 b3 bc 92 bd 49 58 51 3c 24 f0 26 3d 6f c9 c9 ba
       -0.07164898 0.0127773965 0.04075636 -0.0015395115
000130 63 93 23 bd 3a 91 8b 3d d7 2b dd bb d9 df 8b bd
       -0.03993548 0.06814809 -0.006749611 -0.06829805
000140 87 0d b2 bc 24 27 77 bd 8e df ee bc bd 5f 72 bd
       -0.021734966 -0.06034006 -0.029159334 -0.059173334
000150 29 18 3d 3e e9 bd 72 3c 06 03 bd 3c 37 fa eb bb
       0.18466248 0.014815786 0.02307273 -0.007201459
000160 d3 46 82 3d 05 b1 2a bd 0e 01 85 bb 7b 18 99 bd
       0.06361165 -0.041672725 -0.0040589636 -0.074753724
000170 18 82 47 bc 97 2c e7 3c 9a 4c 01 3e 32 c7 3b 3d
       -0.012177013 0.028219504 0.12626877 0.045844264
000180 64 59 22 bd 75 86 61 bd 9f 84 47 bb 23 e2 0b 3d
       -0.03963603 -0.05505987 -0.0030444039 0.034151208
000190 95 43 8a bd 85 fb 21 3d 14 5b b2 3d ec fa 9c 3c
       -0.067511715 0.03954651 0.08708778 0.019162618
0001a0 3f 82 de 3b 17 36 7e bc 59 eb 6a 3d 45 06 0e bd
       0.006790429 -0.015515826 0.05735335 -0.034673948
0001b0 26 8b 67 bd af bc 4a bc 8d 97 37 bd 6d 57 b1 bd
       -0.056529187 -0.012374087 -0.044822264 -0.08659253
0001c0 40 cf 7f bd 78 37 08 bd 4b 65 8c bb 19 08 cc bd
       -0.06245351 -0.033256024 -0.004284536 -0.09962482
0001d0 84 80 94 bd fb 38 4d bd e6 44 e7 3c b7 59 28 3d
       -0.07251075 -0.05010317 0.028231096 0.041101184
0001e0 9a cb 83 bd 69 33 e8 bd c8 d0 53 bd 97 66 03 3d
       -0.06435318 -0.11337931 -0.05171278 0.03208026
0001f0 31 45 42 3c ac a3 2f bd 3e 00 0c 3c be 88 21 bd
       0.011857317 -0.0428807 0.00854498 -0.039437048
000200 8a c6 d2 ba 65 65 07 be 0b 96 34 3c 9f 72 2e 3c
       -0.0016080898 -0.13222273 0.011022101 0.010647445
000210 9a 62 d0 bd 60 08 0e 3c 89 98 ab 3d 38 65 2f bc
       -0.10175057 0.008668989 0.08378703 -0.010705285
000220 1b 2e c6 bd e1 3b 9a bd f1 0a cc 3c e2 7d 8e bd
       -0.09676763 -0.07530952 0.024907561 -0.06957604
000230 df a6 f3 bc 4c 41 cf bc b2 f6 c5 bd 74 af 9f 3d
       -0.029742656 -0.02529969 -0.09666194 0.07797137
000240 c4 13 08 3d b1 d9 78 bd 17 93 9e 3c 21 22 9f bd
       0.033221975 -0.06075448 0.019357247 -0.077701814
000250 59 46 0b bb 43 e9 8f bd 2b 16 52 bd a4 83 e0 bc
       -0.0021251647 -0.07026913 -0.051290672 -0.027406521
000260 f9 c0 dd 39 39 35 d4 bc 8b 39 b1 bc d9 bd 7e 3d
       0.0004229618 -0.025904285 -0.021633884 0.06219277
000270 f2 7b 12 3d f7 39 3d 3c 5d 1a 8b bc 57 89 57 3d
       0.035762735 0.011549464 -0.016980344 0.05262121
000280 08 9f f2 bb fd d5 64 bd e5 84 f7 bb e6 56 b9 bb
       -0.007404212 -0.055868138 -0.007553684 -0.005656111
000290 a6 29 fc bd 17 b2 d1 3b a1 72 d2 bc 91 94 64 bd
       -0.12312631 0.006399404 -0.025689425 -0.055805746
0002a0 f0 3f bd 3c a0 76 cd bc 0f 49 6f bc f6 d6 cb 3c
       0.023101777 -0.025080979 -0.014604821 0.024882775
0002b0 ac eb 1a bd 20 18 4a 3c c4 41 02 3d 3b 70 4e 3d
       -0.03782241 0.012334853 0.031801 0.0504
0002c0 17 d4 a3 b9 d2 bb 2a 3d f2 60 f6 bd f4 08 7e bc
       -0.00031247802 0.041683026 -0.120302096 -0.015505064
0002d0 06 b2 ba 3c b6 ed c1 3c 15 58 a8 bd e6 f4 85 3d
       0.022789966 0.02367292 -0.08219925 0.06540851
0002e0 08 50 03 be 65 a0 11 bc e2 f5 e5 3d 15 66 29 3b
       -0.12823498 -0.008888339 0.11228539 0.00258482
0002f0 27 ce 8c bd 2a bf 34 bc ab 31 a5 bc 2f 25 16 bd
       -0.06875258 -0.011031905 -0.020165285 -0.036656555
000300 bd d9 17 bc a9 70 c3 bc ff e6 00 bd ba 6e c4 3d
       -0.009268221 -0.023857431 -0.031470295 0.09591432
000310 9f f8 95 bd 31 66 7a bc 91 86 79 3d f6 03 c7 3b
       -0.07322811 -0.015283153 0.06091935 0.00607347
000320 cd 73 e5 bc 76 fa de 3c 00 53 2c 3b 96 3f c7 ba
       -0.02800932 0.027219038 0.002629459 -0.0015201445
000330 ef 66 bd bc a9 83 bf bc fd 7c bb 3c 30 0b 8f bd
       -0.023120372 -0.02337821 0.022886747 -0.06984556
000340 81 19 9b 3d eb 4b b8 3d 14 c3 3a bc 96 88 88 bb
       0.07573224 0.08998855 -0.011399049 -0.004166673
000350 07 a2 81 3d 22 d3 86 bd 71 33 8e bd 02 ac e6 bc
       0.063297324 -0.06583239 -0.069434054 -0.028158192
000360 97 ae 40 bd 73 3c 9f bd 67 be 49 3d 3c 3f fc 3b
       -0.0470415 -0.07775202 0.049253847 0.007697968
000370 c5 85 3b bd cd 2b b7 bd 00 d2 4e bd 2a d0 e9 bc
       -0.04578187 -0.08943901 -0.05049324 -0.028541643
000380 2e 27 13 bd 8a f8 95 bd 23 01 bd 3d a4 dd d5 bc
       -0.035926037 -0.07322796 0.092287324 -0.026106663
000390 05 37 f5 3c 8f be 98 3d 0d 2e 9a bc 92 2d 4a bd
       0.029933462 0.07458221 -0.018820787 -0.049359865
0003a0 c5 86 07 bd 14 92 29 bd 97 cf 3f 3c 48 4d de bc
       -0.03308751 -0.041399077 0.011707208 -0.02713646
0003b0 a4 a6 ca bc 02 0e 88 3c 84 57 86 bd d4 f0 82 bd
       -0.024737664 0.016608242 -0.06559661 -0.063935906
0003c0 a1 f7 2d bd 8a e3 85 bd 56 f2 f9 bc 0e 93 7b bd
       -0.042472485 -0.0653754 -0.030511063 -0.06141954
0003d0 79 18 ec bd 62 69 ab bd 00 b3 b2 bd 13 95 4e be
       -0.11528105 -0.083697096 -0.08725548 -0.20174055
0003e0 90 a6 c5 bd 27 bb 5b bc 3e c7 19 be 4c 57 38 be
       -0.0965091 -0.01341132 -0.15017411 -0.18002051
0003f0 03 b0 80 3c 62 e2 24 3d 3e ea 12 be b4 2b 79 bc
       0.015708929 0.040254958 -0.14347169 -0.015208174

bias f4 [64]
000000 e4 fa 4e 3d 80 1e 8b 3d 80 be 8d bc 69 7a 97 bc
       0.050532237 0.06792927 -0.017302752 -0.018490987
000010 f9 a7 93 3d d9 2f 64 bd 3f e7 6b bc b3 da 08 bd
       0.072097726 -0.055709694 -0.014398395 -0.033411693
000020 40 6f 87 ba 23 3d a4 3c 91 b5 43 3d d3 04 b0 bc
       -0.0010332838 0.020048684 0.047780577 -0.021486675
000030 31 26 16 bd bf 36 52 bd b9 5d 98 3d ae ee f2 bd
       -0.036657516 -0.05132174 0.07439751 -0.11861931
000040 16 50 59 bd 2b 19 8c bc 18 8d d7 bc 24 7f 39 bd
       -0.05305489 -0.017101845 -0.026312396 -0.045287266
000050 75 d0 b0 3d 5b 63 8a bd d4 e1 01 bd 97 58 1f bc
       0.0863351 -0.06757232 -0.031709507 -0.009725711
000060 e4 e8 17 bd 42 82 7e 3d 99 d6 9e bd 27 20 47 3d
       -0.037087336 0.062135942 -0.07755775 0.048614647
000070 11 ce 74 bd 8b fa f7 3a 45 b0 36 bc b7 40 71 3d
       -0.059766833 0.0018919272 -0.011150424 0.058899608
000080 ee 91 8e 3b ce 8b db bb ae cc 28 3c d4 67 6f 3b
       0.0043508923 -0.0067000156 0.010302706 0.0036530392
000090 67 fc f4 bc 62 79 01 3c 83 a6 dd bd 5f e3 04 bc
       -0.029905511 0.007902475 -0.10822775 -0.00811085
0000a0 96 c7 cf 3c 7b c6 93 bc f9 02 41 3e 8f 76 36 be
       0.025363725 -0.018038979 0.1884879 -0.17818664
0000b0 53 d5 90 bc 01 f2 6f bd f5 8c 53 bd 75 63 d8 3c
       -0.017679846 -0.058580402 -0.0516481 0.026414612
0000c0 cb b8 6a 3d 95 34 bd 3d 1c 58 fd bc 70 f9 f2 bc
       0.05730514 0.09238545 -0.030925803 -0.029659957
0000d0 52 ea 4d 3d 76 f4 c2 3e a3 e4 23 3e f4 cd a8 b9
       0.050272293 0.38077134 0.16005187 -0.00032196904
0000e0 d8 ec 61 3d bc d8 d4 3c f5 76 f3 bc 58 c7 82 3d
       0.055157512 0.025982253 -0.02971981 0.06385678
0000f0 47 25 97 bd 22 2c c3 3d f5 b2 80 bd 3d f3 7d 3d
       -0.07380157 0.09529902 -0.06284133 0.06199955

weight f4 [64, 64, 3, 3]
000000 12 6a f8 bc 7a 40 c2 3b ff ee 5c bd eb 88 36 3d
       -0.030324016 0.0059280964 -0.053938862 0.04456417
000010 a5 5d c2 bd ca 97 81 bd 89 2e f8 bd 9f dc b5 3c
       -0.094905175 -0.063277796 -0.12118251 0.022199927
000020 fe 44 c6 3c 2b 1a 3f 3d 3b 59 02 bd f9 c9 35 3d
       0.02420282 0.046655815 -0.031823378 0.04438207
000030 7e 48 a8 3a 7b 42 a3 bc bd ca 4a bd dc 6f 8b bc
       0.0012838987 -0.019929161 -0.049509753 -0.017021112
000040 f9 e6 29 3d 21 6b b4 bd c5 09 de bd 21 e7 5b 3c
       0.04148004 -0.08809496 -0.10841707 0.013421805
000050 f3 e4 ad 3d 9c 51 ca bc f5 de 03 bc a5 09 54 bb
       0.08490934 -0.024697118 -0.008048763 -0.0032354381
000060 eb 57 eb bc 53 9e 94 3c 3c 3b 88 bd b5 75 18 3c
       -0.028728446 0.018141901 -0.06651923 0.009305407
000070 40 38 41 bd b5 8d 91 3c dd 3c 6f bd 3e b1 9a bc
       -0.047172785 0.017767766 -0.058407653 -0.018883344
000080 d7 ae 63 3d de a6 76 3d e9 5c 81 bd ca b0 15 bd
       0.055586662 0.06021773 -0.06316549 -0.036545552
000090 3c e3 46 3a e0 60 c8 3b ea b7 0e 3d ab 92 10 bc
       0.0007586961 0.006115064 0.034843363 -0.008824031
0000a0 54 9f 0e 3d 0a 3f 3c bc 9f 92 ad 3c ae 12 27 3d
       0.034819916 -0.011489639 0.021188078 0.0407893
0000b0 bc 24 60 3c b3 fd da 3c 5e d3 75 3c 63 41 3e bd
       0.013680633 0.026732301 0.015004007 -0.046449076
0000c0 19 18 96 bb 02 e8 cd 3a 87 84 79 bb 31 46 83 bd
       -0.0045805094 0.0015709403 -0.0038073377 -0.06409872
0000d0 d4 28 24 bd 69 d8 bf bd bd 19 e8 bc 0b f4 ff 3c
       -0.040078 -0.09367449 -0.028332585 0.031244298
0000e0 06 6a e4 bc dc e7 db bd 31 69 83 bd 91 2b c0 3d
       -0.027882587 -0.10737583 -0.06416548 0.0938331
0000f0 a7 98 88 3d 70 90 a3 bb c6 b9 02 bd 10 33 e5 3c
       0.06669741 -0.0049915835 -0.03191545 0.02797845
000100 4a 54 b0 bd 0b f3 4e 3d f7 12 20 3d 93 ae 8d 3c
       -0.08609827 0.050524753 0.039080586 0.017295158
000110 27 a9 9f bc 4a 50 b8 bc a4 65 2f ba 12 88 71 bd
       -0.019489838 -0.022499222 -0.0006690866 -0.058967657
000120 df ef 16 bd dd 20 00 be e7 e5 2a be 3a 99 08 be
       -0.036849853 -0.12512536 -0.16689263 -0.13339701
000130 9f c0 00 bd d8 21 dd bd 19 08 34 bd 7c 24 c4 3b
       -0.031433698 -0.10797471 -0.043953035 0.0059857946
000140 47 2c 5b bc bc bb 30 3d d0 c5 05 3d 7e 1a e7 bc
       -0.013377256 0.043147787 0.03265935 -0.028210875
000150 d2 a2 b1 bc 63 6f d3 bc 18 92 ba bc fc e7 be bd
       -0.021684084 -0.02580995 -0.022774741 -0.09321591
000160 65 e8 03 3d 54 82 99 bd da 1a c8 3c 11 43 f0 bc
       0.03220405 -0.07495561 0.024426866 -0.029328855
000170 d5 f4 92 bd 45 9b db 3c 20 c0 21 be 6f 95 af bd
       -0.07175604 0.026807437 -0.15795946 -0.08573424
000180 6d a4 90 bd e1 3e d2 3c 23 46 5f 3b 4c d0 06 3c
       -0.07062612 0.025664749 0.0034068904 0.008228373
000190 35 88 7a 38 9a 71 da bd 2d 19 ed bc f6 75 f2 3a
       5.9731497e-05 -0.10666199 -0.028942669 0.001849829
0001a0 a8 d1 69 bd 94 88 71 bb 12 ea a6 3c a1 a5 77 bc
       -0.05708471 -0.0036855089 0.020375285 -0.015115173
0001b0 ab af 72 bd 50 46 9a bc e4 78 6e 3d fe 66 9d bd
       -0.05924956 -0.018832356 0.05822076 -0.0768566
0001c0 72 6c cc bd 01 a4 86 bd fc 99 1f bc 1f 65 1e bd
       -0.09981622 -0.0657425 -0.009741303 -0.038670655
0001d0 35 72 d2 bc 2b bd 80 bb c1 5b 85 3d 94 54 98 bc
       -0.025689224 -0.0039288006 0.06511641 -0.018595017
0001e0 37 97 5b bd d7 d0 53 3d fa 16 fb bc 66 9e b7 3b
       -0.053611007 0.051712837 -0.030650605 0.0056035994
0001f0 f1 26 87 bc d7 3b 18 bd 56 2d ca bd c5 eb 83 bc
       -0.01649806 -0.037166443 -0.098719284 -0.016103635
000200 f7 ef 8b 3d 88 78 6a 3d cb e0 ba bd bf b1 07 3d
       0.06832879 0.057243854 -0.09124907 0.033128496
000210 8f eb 82 bd 78 fd 63 bd 55 f8 72 bd 57 db fd bc
       -0.063925855 -0.05566165 -0.05931886 -0.030988378
000220 bc 7c 3d 3d ac f1 99 3d 02 97 9f bb 7f 01 4f 3c
       0.046261534 0.075167984 -0.0048702965 0.012634634
000230 50 df 94 bc 6a c5 99 bd 92 9c 0a 3e a2 3a 00 be
       -0.01817289 -0.07508357 0.1353629 -0.12522367
000240 fb e2 5c 3d bd f2 b2 bd 92 32 88 3d 7f 44 ee 3c
       0.053927403 -0.08737705 0.066502705 0.029085396
000250 67 a9 37 bd d1 f3 79 bc 8a 7c 2f bd 8a 42 ac bc
       -0.04483929 -0.015255884 -0.04284338 -0.021027822
000260 7f 44 cb bc 9a e1 e5 bc 35 4a a2 bd e1 84 97 bd
       -0.024812935 -0.028061677 -0.0792431 -0.073983915
000270 bc b7 ed bd 09 a3 91 bd 07 25 c4 3c 5b 4e 83 3d
       -0.1160731 -0.071111746 0.023943437 0.064114295
000280 77 83 d9 3d 1f f6 4a 3c ee 05 cc bc da 4d 17 3d
       0.10620778 0.012387781 -0.024905171 0.03693948
000290 b5 b2 8f bd 42 30 ba 3d 85 c2 3e 3c ab 4a 0f 3d
       -0.070165075 0.09091236 0.011643057 0.03498332
0002a0 87 20 e7 3d b9 d5 47 bc 8e c3 5e 3d 6e f2 f5 bc
       0.11285501 -0.012196952 0.054385714 -0.030022826
0002b0 b3 bf 42 3d a1 92 39 be 62 92 36 bd a2 46 b4 bd
       0.0475461 -0.1812234 -0.044573195 -0.08802535
0002c0 11 fb 57 3c 3d 66 a3 3d 3a f1 9b bc 31 76 b5 3c
       0.0131824175 0.07978485 -0.019035924 0.022151085
0002d0 cf 7f ba bc 09 f8 7f bc b4 78 bd bc 88 c0 08 bd
       -0.022766022 -0.015623101 -0.023128845 -0.033386737
0002e0 90 3e b1 3b 04 cd 2e bd cf b0 bd 3d d9 d0 28 bd
       0.0054090694 -0.042675987 0.09262239 -0.041214798
0002f0 cb cb c7 3c 14 55 53 3d 6e fd 7d bc 8b 2b 21 bd
       0.024389168 0.05159481 -0.015502317 -0.039348166
000300 e9 d9 5a bd c7 51 6a 3c 5e 3d c5 3d aa cd 7f bd
       -0.05343047 0.014301724 0.096308455 -0.062451996
000310 d5 1b 86 3d db 61 08 3e 3c 93 fa 3c 83 fd 9b 3c
       0.06548277 0.13318579 0.030587785 0.019041782
000320 b0 7a 0a 3d 98 ea 11 bd 77 2b de bc dc ac 72 bd
       0.03380841 -0.035624117 -0.027120335 -0.059246883
000330 56 d0 97 3d 43 85 37 3d ad a3 da 3c 87 18 da bd
       0.07412784 0.044804823 0.026689375 -0.106492095
000340 9a f2 3a 3d f8 d7 13 be cc 7b 11 3e df 18 90 bc
       0.04564152 -0.14437854 0.14207381 -0.017589984
000350 22 55 a1 bc 04 6e ba 3d 82 4f 14 3e a8 db 22 3d
       -0.019693915 0.09103015 0.14483455 0.03976026
000360 e6 d2 11 3c 0a b7 80 3b 14 48 7a bd 59 37 27 3d
       0.00890038 0.00392807 -0.061103895 0.040824268
000370 25 5b 5d bd 3f 6f 1c bd e9 15 be 3c a9 53 37 3d
       -0.054042 -0.03819203 0.023203807 0.04475752
000380 e4 b3 a4 bd 77 c4 1a bd bc 8d ca bd 8c 6e 7d 3d
       -0.08042124 -0.03778502 -0.09890315 0.061873004
000390 46 1b 8e 3c 4d fa b2 bc 59 3f af bc 34 ba 75 3d
       0.01734699 -0.021847868 -0.021392511 0.05999203
0003a0 02 4f 67 3d 03 81 46 bd 46 8a 28 bd 9f 31 8d 3c
       0.056471832 -0.04846288 -0.041147493 0.017235575
0003b0 3c 9b 52 bd 93 db 24 bd d4 52 10 bd cf f9 ee 3a
       -0.051417574 -0.040248465 -0.03523524 0.0018232408
0003c0 f4 14 ac 3c 39 ad 63 bd 56 92 8c 3d da 40 5f bc
       0.021006085 -0.05558512 0.06863849 -0.013626302
0003d0 a8 7c 5e 3c 69 7f 80 bc 63 1d bc bc 10 bf 9e bc
       0.013579525 -0.015685754 -0.022963231 -0.019378215
0003e0 01 e5 30 bd 1a 3d 38 3d 24 cb 33 be a8 f3 83 bd
       -0.043187145 0.044980146 -0.17557961 -0.06442958
0003f0 31 6a 27 3d 70 34 72 bd 78 68 4c bd 89 94 b3 bd
       0.040872756 -0.05913204 -0.049904317 -0.08768565

bias f4 [64]
000000 5c 3a 44 bd f5 e6 8a bc af 3b 89 bd 81 6c fd bc
       -0.04790722 -0.016955832 -0.06700837 -0.030935528
000010 90 a5 92 bd 84 dc f5 bd 31 8c 50 3c 36 59 f5 3b
       -0.07160485 -0.12004951 0.012728737 0.0074874414
000020 29 d5 05 3c d6 a8 2a bd a4 09 8e bc e8 d6 05 bd
       0.008168497 -0.04166492 -0.017338581 -0.032675654
000030 4e d5 2c bd 1c 19 08 3e 30 6c 7c bc 13 b9 18 3d
       -0.04219561 0.13290828 -0.015406653 0.037285876
000040 dd 28 82 bd 0f f6 61 bd 92 e2 bb bb a7 78 e8 bc
       -0.0635545 -0.0551663 -0.0057337964 -0.028377844
000050 01 bf 25 bc b2 dd e8 bd 58 ff 21 bd 77 1a fe 3c
       -0.01011634 -0.1137041 -0.039550155 0.031018479
000060 f0 71 95 bb 77 02 ed 3c a0 9f 90 bd 0c a8 fb 3c
       -0.0045607015 0.02893184 -0.07061696 0.03071978
000070 8c d0 18 bd 78 d9 fa bc 54 b4 be bb f8 40 77 3d
       -0.03730826 -0.030621275 -0.0058198366 0.060364693
000080 c1 16 6d bc 5b 6a 82 bc cc 07 74 bd 03 b4 85 bd
       -0.014470757 -0.015919855 -0.05957775 -0.06528475
000090 70 4a 90 bd cb 8b 25 3c 60 26 9d 3b d4 b1 82 bc
       -0.07045448 0.01010413 0.0047958344 -0.015953936
0000a0 85 63 8f bc 83 79 b6 3d c7 d3 f8 3d 7a 8c c4 bc
       -0.01750351 0.08909895 0.12149768 -0.023992766
0000b0 7b 1d d4 3a 21 93 c5 3c 7a ca 75 bd c9 cd dd bc
       0.0016183102 0.024118008 -0.06000755 -0.027075665
0000c0 cb 94 5d bd 74 01 86 bc 53 45 5f bd b9 4f 90 3b
       -0.05409698 -0.016358115 -0.054509472 0.004404035
0000d0 ef 00 80 bc 9f 0c 5c bd 60 af c9 bd f9 f7 17 3b
       -0.015625445 -0.053722974 -0.09847903 0.0023188575
0000e0 ee 0b 06 bd ea 71 06 be 50 9c 5b bd 9a d4 25 bd
       -0.03272622 -0.13129392 -0.053615868 -0.040485956
0000f0 d1 25 3a bd c2 6e bd bc c7 e0 22 bd 0a b0 0e 3b
       -0.04544622 -0.023124103 -0.039765146 0.0021772408

weight f4 [12, 64, 3, 3]
000000 5d 6e 44 bd 6e a7 45 3b dd 91 6b 3c a2 95 89 3c
       -0.047956813 0.003015961 0.014378038 0.016794983
000010 c1 78 bf 3c 88 85 8f bc 18 59 be 3b 16 3a 3f bc
       0.02337301 -0.017519727 0.0058089606 -0.011671564
000020 33 22 63 3c 10 46 48 bd 83 8f b2 3d f9 d8 6e 3c
       0.013863134 -0.04889494 0.08718779 0.0145780975
000030 1b 9b 88 bd 8b 58 0d 3d be 6c db 3b 71 0c 47 3b
       -0.06670209 0.03450827 0.0066963127 0.0030372406
000040 85 51 79 bc 5d 23 12 bd 9d 0f af bc 82 65 f1 3c
       -0.01521719 -0.035678256 -0.02136975 0.029467348
000050 fb ac 9b bd 92 29 90 3c 6e 74 9c 3d a4 21 9e bd
       -0.07601353 0.017597947 0.07639395 -0.0772126
000060 75 cb 4f 3d d7 3e 4b 3d 86 b2 2c 3d 9a ab 3b 3c
       0.05073114 0.049620476 0.04216244 0.011454487
000070 96 7a 94 3d eb 43 f5 bc f9 7b 0e 3c b3 a2 b7 bd
       0.07249944 -0.029939612 0.00869655 -0.08966579
000080 b7 21 b0 3e ee 41 f8 bb 4a fe 67 3c ea ba 40 be
       0.34400722 -0.007576219 0.014159748 -0.18821302
000090 cd 80 c4 3d 41 82 3f 3c 1f 28 55 bd 85 a2 73 3d
       0.09594879 0.01168877 -0.052040216 0.059481163
0000a0 30 a4 41 3d 53 8d a4 bd 28 76 fa ba 50 47 f4 bc
       0.047275722 -0.08034768 -0.00191087 -0.02981916
0000b0 0d 2f f3 bc 3a 6b b7 bb 45 6a a4 ba e5 8b 23 bb
       -0.029685521 -0.005597499 -0.0012543878 -0.002495521
0000c0 84 19 46 bb 13 72 b4 3d 7d 3b 79 3a 29 5e 09 3c
       -0.003022761 0.088108204 0.00095074606 0.008384266
0000d0 67 f1 26 bd 54 2f 67 3b 0c a8 bd 3c 92 38 35 bd
       -0.040757563 0.0035276012 0.02315142 -0.044243403
0000e0 b2 3b be 3b 8a 25 54 3d 63 cf 53 bd 9d b0 07 3d
       0.005805456 0.051793613 -0.05171145 0.033127416
0000f0 4b 8b 84 3d 28 ca dc 3b 03 2f 7b 3c a3 aa fe 3c
       0.064718805 0.006737966 0.015331033 0.031087225
000100 0f ea 09 bb 51 a5 08 3b 1f ae 2c bc d0 1a e2 3d
       -0.002104405 0.002085049 -0.010539561 0.1104027
000110 02 3d 9c bc 44 08 e8 3c 5e 22 59 bd c3 01 6b 3c
       -0.01907206 0.028324254 -0.05301129 0.014343682
000120 37 73 66 bd b3 60 50 bc 92 73 b2 bc 6f 19 f5 3d
       -0.05626222 -0.012718367 -0.021783624 0.11967742
000130 ca 79 9a ba 83 69 1d bd 27 76 04 3e 37 b4 c0 bd
       -0.0011785564 -0.038430702 0.12935697 -0.09409373
000140 e3 ac 06 bd f9 4b 01 3d d0 dd ac bd fa 6d 98 3b
       -0.03287972 0.031566594 -0.08440745 0.004651782
000150 ae cf 4d bd 77 9f 50 3d 96 b4 2a bd 03 94 00 3d
       -0.050246887 0.050933328 -0.041676126 0.031391155
000160 9e 52 06 3d cc 06 32 3d a0 88 7f 3d 34 15 47 3a
       0.032793634 0.043463513 0.062386155 0.0007594407
000170 de 2c 44 bd fd 7d 53 bc 5e c4 0e bd ca 9a 23 bc
       -0.04789435 -0.012908456 -0.03485524 -0.009985635
000180 75 c5 f6 3c dd 8d 6d 3c d6 7e fe bc 00 68 b8 3c
       0.030123452 0.014499155 -0.03106634 0.022510529
000190 06 2a 0c bb 05 03 a5 3c 74 a2 e3 bc 0d d7 3a 3c
       -0.0021387353 0.020143041 -0.027787425 0.011403811
0001a0 46 ca ae bc 05 85 43 bd 8b e3 3d 3d 9c fa 90 bd
       -0.021336686 -0.04773428 0.04635958 -0.0707905
0001b0 2b f7 8f bb b2 cd 46 bd fb 1b 22 bd 55 50 b9 3c
       -0.0043934784 -0.04853601 -0.039577466 0.022621313
0001c0 df 50 1a 3c e3 91 0a 3d 9a 2e 2e 3c 13 69 70 3d
       0.009418695 0.033830535 0.010631228 0.058693957
0001d0 be 0a 0b bd db 97 e6 3c fd 8e 5a 3c f4 8b 4f bb
       -0.03394579 0.028148582 0.013339755 -0.0031669112
0001e0 b9 b1 eb 3c 6b 8a 8e 3d 31 14 be bc fa c1 47 3c
       0.028771268 0.06959995 -0.023202987 0.012192244
0001f0 9d d6 a8 bc 92 87 af bd 03 88 87 bd 70 cd dd 3c
       -0.020610148 -0.0857078 -0.06617739 0.0270755
000200 68 e1 22 3d 79 4d cc bc 46 d4 c4 bb a1 13 b8 3d
       0.039765745 -0.024939286 -0.0060067503 0.08988119
000210 63 7e 0a bd 6f d2 4c bc 43 0c 61 3c 46 83 c8 3a
       -0.033811938 -0.012501343 0.013735834 0.0015297912
000220 45 35 73 bc 0c 03 c5 3b be 4c d0 3d ab ab 9d bb
       -0.014844243 0.006012326 0.101708874 -0.004811724
000230 43 fb fd bc 0a f1 0e bd 56 e3 b4 3c a8 b4 3d ba
       -0.0310036 -0.03489784 0.022081058 -0.0007236698
000240 0f a4 fa bc 8f 2f 83 3c 99 a4 13 3b 6d 10 f7 3c
       -0.030595807 0.016013889 0.0022528528 0.0301592
000250 df 4d 19 3d 28 1c 8b bc 1a 81 4c 3c 78 82 8b 3c
       0.03742778 -0.0169812 0.012481952 0.017029986
000260 7f 59 ea bc b0 fe 9f 39 a8 48 78 3b 00 92 86 bc
       -0.028607128 0.000305166 0.0037885103 -0.01642704
000270 1a b6 8d bb 8b 73 a3 bd 0f d9 c7 bb 42 08 b8 3b
       -0.0043246867 -0.079810224 -0.0060988734 0.005616219
000280 7c d6 03 3d 68 50 f8 3c 86 1b fd 3c d1 cd 3d 3d
       0.03218697 0.030311778 0.030896913 0.04633886
000290 53 17 74 3c bd b6 87 bd 6a a6 d5 b9 6a 7c 55 bd
       0.014898139 -0.066266514 -0.00040750514 -0.052120604
0002a0 79 3f a8 bd b7 95 6c 3b d5 ec 87 3b ad 95 a0 bd
       -0.082152314 0.003609998 0.0041481056 -0.078410484
0002b0 dd 6c 26 bd 5a f0 29 bb 7e 12 7a 3d 92 af d4 3d
       -0.040631164 -0.0025930614 0.06105279 0.1038505
0002c0 56 df 33 bd b9 6f 5b 3d 5f 96 3c 3c f4 17 96 bc
       -0.04391416 0.053573344 0.011510461 -0.018321969
0002d0 74 77 8d bd 2f 33 d6 3c f6 23 f9 3c ad b2 b7 b9
       -0.069075495 0.026147453 0.030412655 -0.00035037604
0002e0 2b c8 ab bc 29 bc a2 ba 6f fa 05 bc 4c 6b d7 3c
       -0.020969471 -0.0012415695 -0.008177384 0.02629628
0002f0 67 b5 22 3c 20 f0 da bb 7f c3 f2 3b fc 38 2c bb
       0.009930945 -0.006681457 0.007408559 -0.0026279083
000300 f2 ee 0f 3d e7 bb 5c bc 9e bc 2b 3c 34 fd cd 3b
       0.035139985 -0.013472534 0.010481982 0.0062862877
000310 f4 67 9d bc 00 77 45 3b 0d 17 be 3c ac 9e 2c b9
       -0.019214608 0.0030130744 0.02320435 -0.00016462308
000320 76 c8 a1 bd 91 a3 76 3d 79 9e 83 3d b0 70 8d 3c
       -0.07899563 0.060214583 0.06426711 0.017265648
000330 b9 0d 94 bc 5e ce 38 3d 43 0e db bd 7f 2b 4c bd
       -0.01807295 0.045118682 -0.106960796 -0.04984617
000340 28 db 3c bd 93 9b 1f 3c 1f b9 16 bd 8c 05 dc 3b
       -0.04610744 0.009741682 -0.03679764 0.0067145284
000350 ed 41 90 3c 3d 18 79 3c 2d 2b e8 3c b0 db a9 3d
       0.01760956 0.015203533 0.0283409 0.08293855
000360 a7 2a 4f 3d 2f 12 a5 bd 19 b7 81 bd 69 9b 3b 3d
       0.050577786 -0.08060109 -0.06333751 0.045802508
000370 c7 72 11 3e ce f5 53 be 65 79 a0 3c 4b f6 2c 3d
       0.1420394 -0.20699236 0.019589135 0.04222707
000380 24 fb d2 bd 2c 91 81 3c d3 ac e7 bc cd bf 42 bc
       -0.103018075 0.015816294 -0.028280651 -0.011886549
000390 2f 7b b3 3c 90 e8 3a bc 6d 28 8c 3d b6 7a f9 bc
       0.021909324 -0.011407986 0.06843648 -0.030454021
0003a0 67 a6 bc bb be 2c 3d bc 78 61 da bc 10 c0 ec 3c
       -0.0057571414 -0.011546312 -0.026657805 0.028900176
0003b0 69 63 50 3c 42 43 2d bc 50 da f3 bb ae 12 2d 3d
       0.012719014 -0.010575118 -0.0074417964 0.042254142
0003c0 df 0c 4e bd 9c ee fe 3c 7b 54 88 bc 06 de 89 bd
       -0.050305244 0.031119637 -0.016641846 -0.06731801
0003d0 91 f9 91 3d 7f f2 ad bc 3c 0e 5c bc 50 5a ec 3d
       0.07127679 -0.021233795 -0.013431128 0.11540663
0003e0 41 15 19 bb 96 26 5a bd e5 ae ac 3c cf ca 2a bd
       -0.0023358616 -0.053259455 0.02107949 -0.04169732
0003f0 d0 cd e9 bc 6b 88 72 3d 64 ea 84 3d 63 8b a0 bc
       -0.028540522 0.05921213 0.06490019 -0.019597715

bias f4 [12]
000000 97 07 a7 ba 7f 93 1f 3c 0e bc b5 3b 86 49 2d 3c
       -0.0012743351 0.009739756 0.0055460995 0.010576611
000010 16 79 9a 3b 87 80 84 3c 55 03 95 3b 3d 31 66 39
       0.0047141416 0.016174568 0.0045475163 0.00021952852
000020 21 b5 87 3b 00 41 16 3b 9a 39 56 3c 95 e8 34 ba
       0.0041414653 0.0022926927 0.013075257 -0.00069011125
