train_weight_sr7/model_epoch_13.pth (torch_old, 667646 bytes, 10 tensors)

weight f4 [12, 3, 13, 13]
0.022709979 -0.028685765 0.0909592 -0.002052825 -0.04128679 -0.07097708 0.045249086 -0.053071994
-0.1631045 0.07612034 -0.04768274 0.038008947 -0.020414967 0.03583117 -0.041465286 -0.01296211
-0.04796624 0.056626797 0.008992819 0.049473215 -0.13465217 8.2876366e-05 -0.044316538 -0.013076626
0.043542232 -0.0017334778 -0.025807189 -0.05241291 0.07923603 0.033082046 -0.05407843 -0.094677605
0.04920033 -0.11194684 -0.009234042 0.05741925 0.016464908 0.00092553336 0.009948945 0.054265402
-0.08278166 -0.022151839 0.035139777 0.049803294 0.055061836 0.029426906 -0.1634317 0.010256427
-0.08390422 0.018819733 0.096622415 -0.06338279 -0.0825129 0.03327245 -0.071726546 -0.06674824
-0.116904326 0.008099456 0.0039606853 -0.17869803 0.015361214 0.03874806 -0.023764528 0.03953178
0.048874512 0.044426885 0.04864871 0.13795343 0.0250528 -0.024337692 0.07298402 0.020877268
-0.014004534 -0.09201525 -0.1248296 -0.10165198 -0.12003895 -0.12179892 -0.05681423 0.028648142
-0.10646148 -0.018173894 -0.020573437 0.06282832 0.20356087 -0.00033087525 0.074289665 0.09088351
0.17078678 0.07542291 0.040521566 0.047813646 -0.084922835 -0.13837957 -0.14924099 -0.34956053
-0.26577315 -0.11905281 -0.047020033 0.01287901 -0.020406766 0.074657746 -0.008521888 0.06544067
-0.013758121 -0.01362157 -0.003510074 -0.043179058 0.026255194 -0.03812063 -0.029442582 0.065440305
-0.105574176 -0.02122934 -0.23294069 -0.06309736 -0.18652245 0.06937599 -0.098436534 0.041584134
-0.024481362 -0.16424344 0.031315327 -0.044917826 -0.06460679 -0.0024954625 -0.008071959 0.0035371587
-0.06209068 -0.02028106 -0.084852226 -0.05534549 -0.10139913 0.043563165 -0.098860204 -0.00054463476
-0.1590361 -0.02382933 -0.13411382 0.018025236 -0.016207708 -0.0043950207 -0.086817876 0.028007274
0.033185296 -0.10039199 -0.18357724 -0.093374476 0.06740267 0.02653897 0.01974813 -0.13961259
-0.01796579 -0.040554516 -0.013060149 -0.09603945 -0.061450694 0.008507137 -0.14786114 -0.10276404
0.018294556 -0.023846673 -0.12513198 -0.0033029122 -0.078256115 -0.02316536 0.0023677447 -0.1226572
-0.00745422 -0.029263092 -0.006820385 -0.037269607 0.009963825 0.02843031 0.065681495 -0.040870115
0.027463006 0.0021581806 -0.05261905 -0.114600964 0.044624805 0.014822917 0.03945765 -0.07419728
0.11001974 -0.021266108 0.04019968 -0.09108186 -0.034888364 -0.04418764 0.073231764 0.0023694718
-0.019248083 -0.08321898 -0.02024575 -0.051093526 0.12957937 -0.07196787 -0.14223838 -0.05354952
0.08330359 -0.013847306 0.021481847 0.031156866 -0.04146309 -0.080138214 0.028124925 -0.024085835
0.026692357 0.039240945 0.11358276 0.096445404 0.048892774 0.010259515 0.069934376 0.039650425
0.0076976907 0.04278995 -0.12541859 -0.13688095 0.05409834 0.0620281 -0.08412426 -0.096007906
-0.041254085 -0.00047896424 0.011637116 -0.053844944 -0.01692683 -0.03337409 0.014686629 -0.13120839
0.06325916 0.05334353 -0.061962236 0.09124358 -5.0756396e-05 0.05200113 -0.06748314 -0.025354406
0.006449537 -0.109572366 -0.11170735 -0.041420106 -0.14674626 -0.12238217 -0.048674885 -0.03216747
-0.07907129 -0.011948483 0.06276745 0.057057507 -0.024722673 -0.0021545412 -0.06140969 0.08239995
00000000: 470a ba3c 69fe eabc d148 ba3d b088 06bb
00000010: 561c 29bd 6e5c 91bd 1b57 393d 0562 59bd
00000020: de04 27be fbe4 9b3d fa4e 43bd 45af 1b3d
00000030: 4a3d a7bc b4c3 123d 81d7 29bd 085f 54bc
00000040: 4078 44bd 80f1 673d 9e56 133c 6da4 4a3d
00000050: 42e2 09be e9cd ad38 4285 35bd 583f 56bc
00000060: 5759 323d dd35 e3ba 9969 d3bc ebae 56bd
00000070: 8046 a23d 0a81 073d 5881 5dbd 55e6 c1bd
00000080: 4986 493d 6344 e5bd 614a 17bc 7330 6b3d
00000090: 6ae1 863c 7e9f 723a e600 233c 6645 5e3d
000000a0: 6e89 a9bd c677 b5bc baee 0f3d 8afe 4b3d
000000b0: 8588 613d b210 f13c a45a 27be 930a 283c
000000c0: fad5 abbd d72b 9a3c f9e1 c53d d6ce 81bd
000000d0: 86fc a8bd b148 083d 5ee5 92bd 4db3 88bd
000000e0: 896b efbd 95b3 043c a3c8 813b 9efc 36be
000000f0: 9aad 7b3c 49b6 1e3d d4ad c2bc 13ec 213d
00000100: a430 483d f7f8 353d df43 473d aa43 0d3e
00000110: 883b cd3c d75f c7bc a578 953d ce06 ab3c
00000120: 4673 65bc 7e72 bcbd a9a6 ffbd ea2e d0bd
00000130: fbd6 f5bd b671 f9bd 0ab6 68bd 82af ea3c
00000140: 7a08 dabd 6be1 94bc a089 a8bc 22ac 803d
00000150: 4372 503e 5379 adb9 2e25 983d 2221 ba3d
00000160: bbe2 2e3e 5477 9a3d f1f9 253d 3ed8 433d
00000170: 06ec adbd 60b3 0dbe a1d2 18be 99f9 b2be
00000180: 6b13 88be f6d1 f3bd 1498 40bd 7c02 533c
00000190: 172c a7bc 29e6 983d 649f 0bbc c205 863d
000001a0: be69 61bc 012d 5fbc 4509 66bb 86dc 30bd
000001b0: 2215 d73c 6124 1cbd 9231 f1bc 9105 863d
000001c0: 4637 d8bd 27e9 adbc 0188 6ebe 3039 81bd
000001d0: beff 3ebe 0015 8e3d 1899 c9bd 2054 2a3d
000001e0: 238d c8bc 6f2f 28be 8044 003d c1fb 37bd
000001f0: 9150 84bd ea8a 23bb 4040 04bc adcf 673b
00000200: cc52 7ebd 7724 a6bc 01c7 adbd f4b1 62bd
00000210: 59aa cfbd 4a6f 323d 3877 cabd d2c5 0eba
00000220: 5cda 22be ba35 c3bc 2255 09be a9a9 933c
00000230: 07c6 84bc 1b04 90bb 92cd b1bd 836f e53c
00000240: 4eed 073d 519a cdbd acfb 3bbe 1e3b bfbd
00000250: 690a 8a3d 4168 d93c d5c6 a13c 9af6 0ebe
00000260: fe2c 93bc 7e1c 26bd 3cfa 55bc 55b0 c4bd
00000270: b9b3 7bbd 8561 0b3c e968 17be f475 d2bd
00000280: 77de 953c 195a c3bc 9922 00be ac75 58bb
00000290: be44 a0bd 48c5 bdbc 2a2c 1b3b b333 fbbd
000002a0: 8842 f4bb 27b9 efbc 897d dfbb 04a8 18bd
000002b0: 503f 233c aee6 e83c 0584 863d 6c67 27bd
000002c0: 19fa e03c 4370 0d3b 1387 57bd e9b3 eabd
000002d0: 80c8 363d d2db 723c 589e 213d bef4 97bd
000002e0: 0852 e13d 4336 aebc 6ba8 243d 2089 babd
000002f0: 1ae7 0ebd 19fe 34bd 89fa 953d 2449 1b3b
00000300: 28ae 9dbc b66e aabd 6ada a5bc 7247 51bd
00000310: 74b0 043e e463 93bd f0a6 11be be56 5bbd
00000320: 139b aa3d d0df 62bc b3fa af3c af3c ff3c
00000330: 33d5 29bd 811f a4bd 3e66 e63c a84f c5bc
00000340: eea9 da3c 1dbb 203d 149e e83d 2b85 c53d
00000350: ca43 483d 8617 283c c139 8f3d 7c68 223d
00000360: e93c fc3b 8444 2f3d bb6d 00be 852a 0cbe
00000370: 3996 5d3d 2d11 7e3d 5749 acbd cb9f c4bd
00000380: 0bfa 28bd 7e1d fbb9 9aa9 3e3c 848c 5cbd
00000390: 23aa 8abc 45b3 08bd 30a0 703c 7e5b 06be
000003a0: 058e 813d bf7e 5a3d 1dcc 7dbd eadd ba3d
000003b0: 44e3 54b8 23ff 543d 9a34 8abd 0bb4 cfbc
000003c0: a356 d33b 7a67 e0bd d3c6 e4bd 21a8 29bd
000003d0: a744 16be 81a3 fabd 515f 47bd 09c2 03bd
000003e0: 21f0 a1bd 92c3 43bc 398c 803d 22b5 693d
000003f0: 3487 cabc 3433 0dbb ba88 7bbd 4ec1 a83d

weight f4 [64, 12, 7, 7]
0.17168492 -0.06030604 -0.069731705 -0.013290407 -0.0141434595 0.040386267 -0.10125582 -0.039590042
0.01180406 0.06557921 0.07280247 0.13434629 0.078565724 0.1552295 0.018013222 -0.13116942
-0.05976944 -0.13279578 -0.18578616 -0.17194961 -0.1825769 -0.24586998 -0.09853472 0.023933701
0.33327806 0.23646043 -0.11647277 0.15689121 0.0603286 0.03713926 0.0719682 0.04698455
-0.01401186 0.046029285 -0.060957287 -0.1036135 -0.234895 -0.14427389 0.16625492 -0.14103012
0.25406623 -0.17658514 -0.07313678 -0.14783876 -0.08951348 0.11200578 -0.17482014 -0.016360668
-0.15325491 -0.042161252 0.00047454672 -0.08450304 0.17434026 -0.014253443 -0.0076439143 -0.029594587
0.010811903 0.0018827537 0.12750666 0.04059497 -0.25539958 -0.047877762 0.12217117 -0.025205005
-0.006937138 0.10257591 -0.31668127 0.0048236465 0.29662043 -0.018742958 0.05777118 -0.028155122
-0.02894155 -0.105174765 0.05950022 0.11633255 -0.17358811 -0.035863504 -0.006096767 0.22887932
-0.35390064 0.23901632 -0.010824279 0.016034786 0.010102304 0.11948674 -0.09245034 -0.072152086
0.120567404 -0.25774175 0.1363576 -0.017990988 0.049121305 -0.07630128 0.12621926 -0.2237146
0.22324695 -0.06784398 -0.0095418375 -0.01998814 0.02957923 0.057404462 0.03623777 0.053786688
-0.003913588 0.07024048 -0.12939428 -0.12362207 -0.026891463 0.067341894 0.038401134 0.034283802
-0.0049792854 -0.15219738 -0.1548433 -0.0083313575 0.034555487 0.08648226 -0.023690727 -0.028476113
-0.061476942 -0.07155358 0.017251272 -0.00841917 0.021823537 -0.11852769 -0.13929768 -0.13772467
-0.08203273 0.07756037 0.052674998 0.11953999 0.026685506 -0.088039674 -0.13200296 -0.2389617
0.05151475 0.059151597 0.09457046 -0.022806058 -0.052973025 0.01316857 -0.21324682 0.18794432
0.028170656 0.11528246 0.0041066683 -0.09197688 0.015406634 0.095518686 0.027807588 -0.004538145
-0.115925595 -0.040795524 0.018825209 -0.02393395 -0.04326535 0.112453476 0.00769325 -0.052822012
-0.07910448 -0.06640275 0.017577033 0.003640848 0.117719464 -0.10850938 -0.007917889 0.06817155
0.07648427 0.1044321 -0.08362786 -0.012356212 -0.065335475 -0.05161324 -0.12632018 0.012463896
0.037302464 -0.09632239 0.010522449 -0.086949185 -0.09870536 -0.04263047 -0.18293202 -0.09394377
0.047768667 -0.02823952 -0.07294573 -0.14899495 -0.038223475 -0.14490587 -0.037629947 -0.06975964
0.11588069 -0.1441393 0.0028433525 0.09028958 -0.09013245 0.0004993231 0.07967803 0.06634996
-0.17180555 0.06550303 -0.01314959 0.083263956 -0.03215953 0.0038424775 -0.1610911 0.025152447
0.2473271 -0.026635759 0.09559908 0.0067259283 -0.018399127 -0.06302444 0.22710514 0.12265915
-0.2922054 -0.073450245 -0.030734958 0.051864553 -0.0038976192 0.0116529865 -0.2958189 0.016760634
0.030774655 -0.015278204 -0.092197746 0.056651335 -0.15559952 0.15240057 0.19625394 0.01619631
0.029554894 0.067587025 -0.054238036 0.124614775 -0.017956441 -0.18968208 -0.032092076 0.038419455
-0.041198287 -0.06550122 0.07362048 -0.13009618 0.1455111 0.037249416 -0.03583907 -0.0047638207
-0.09777874 -0.015881153 -0.05997677 0.030197216 0.06974848 -0.07563425 -0.08610844 -0.11561411
00000000: 2cce 2f3e 7703 77bd 7fcf 8ebd 02c0 59bc
00000010: f8b9 67bc 126c 253d 365f cfbd 2b29 22bd
00000020: d165 413c 654e 863d 7619 953d 1392 093e
00000030: 11e7 a03d 7bf4 1e3e 7790 933c 4751 06be
00000040: cdd0 74bd 9efb 07be ba3e 3ebe 8f13 30be
00000050: 70f5 3abe 57c5 7bbe 92cc c9bd 9c10 c43c
00000060: 6ca3 aa3e af22 723e 4789 eebd 17a8 203e
00000070: 1f1b 773d 561f 183d 1064 933d df72 403d
00000080: 0092 65bc 3489 3c3d 59ae 79bd 5133 d4bd
00000090: 5188 70be 89bc 13be bb3e 2a3e 336a 10be
000000a0: f814 823e bcd2 34be bcc8 95bd 0b63 17be
000000b0: d852 b7bd 4963 e53d 0d04 33be cf06 86bc
000000c0: dbee 1cbe 47b1 2cbd 95cc f839 ee0f adbd
000000d0: 4186 323e 4687 69bc cd79 fabb 5970 f2bc
000000e0: 6824 313c bbc6 f63a 1b91 023e e946 263d
000000f0: bcc3 82be 791b 44bd e134 fa3d ba7a cebc
00000100: ee50 e3bb 5213 d23d 0c24 a2be ae0f 9e3b
00000110: a2de 973e d58a 99bc 79a1 6c3d 92a5 e6bc
00000120: d416 edbc de65 d7bd 81b6 733d c33f ee3d
00000130: 15c1 31be 9ce5 12bd 63c7 c7bb 575f 6a3e
00000140: 7732 b5be b2c0 743e 5158 31bc 625b 833c
00000150: 2284 253c 77b5 f43d 9b56 bdbd 79c4 93bd
00000160: 0bec f63d baf6 83be 54a1 0b3e d661 93bc
00000170: 6c33 493d d843 9cbd 9f3f 013e 7115 65be
00000180: d99a 643e c9f1 8abd 5e55 1cbc 2bbe a3bc
00000190: 2450 f23c f120 6b3d 0e6e 143d 6e4f 5c3d
000001a0: 8e3d 80bb 3eda 8f3d ef7f 04be 912d fdbd
000001b0: 7c4b dcbc 8cea 893d 824a 1d3d 2c6d 0c3d
000001c0: 4629 a3bb a1d9 1bbe 3e8f 1ebe 3f80 08bc
000001d0: 0e8a 0d3d 9c1d b13d 0e13 c2bc bd46 e9bc
000001e0: 3fcf 7bbd af8a 92bd 8a52 8d3c 8ff0 09bc
000001f0: 46c7 b23c a5be f2bd 0da4 0ebe b207 0dbe
00000200: c700 a8bd f9d7 9e3d bdc1 573d 62d1 f43d
00000210: 909b da3c 254e b4bd c92b 07be 60b2 74be
00000220: 2101 533d f248 723d 28ae c13d c5d3 babc
00000230: 3efa 58bd fcc0 573c 605d 5abe 7a74 403e
00000240: 26c6 e63c 3619 ec3d 3b91 863b 605e bcbd
00000250: 1b6c 7c3c 4d9f c33d bdcc e33c b8b4 94bb
00000260: 666a edbd 3519 27bd 5337 9a3c 2211 c4bc
00000270: 0237 31bd 024e e63d a917 fc3b e55b 58bd
00000280: 8801 a2bd 2afe 87bd b6fd 8f3c 4b9b 6e3b
00000290: e716 f13d 2a3a debd 09ba 01bc 879d 8b3d
000002a0: c9a3 9c3d 7fe0 d53d 1545 abbd b671 4abc
000002b0: 9bce 85bd 6868 53bd 145a 01be 5e35 4c3c
000002c0: 78ca 183d ac44 c5bd 5a66 2c3c 6a12 b2bd
000002d0: 0926 cabd 4a9d 2ebd 8852 3bbe 9765 c0bd
000002e0: 14a9 433d 9156 e7bc 9264 95bd 2292 18be
000002f0: 3890 1cbd 3462 14be dc21 1abd 24de 8ebd
00000300: db52 ed3d 4199 13be 8a57 3a3b bee9 b83d
00000310: 5d97 b8bd 02e5 023a 3c2e a33d 7de2 873d
00000320: cbed 2fbe 7426 863d 6171 57bc 4b86 aa3d
00000330: b6b9 03bd 13d2 7b3b 11f5 24be 810c ce3c
00000340: 5143 7d3e 3c33 dabc 73c9 c33d 2d65 dc3b
00000350: c4b9 96bc f512 81bd 408e 683e b834 fb3d
00000360: f29b 95be 156d 96bd e1c7 fbbc ed6f 543d
00000370: 336f 7fbb 2bec 3e3c 9375 97be 994d 893c
00000380: 211b fc3c 6f51 7abc 2cd2 bcbd 3b0b 683d
00000390: 7b55 1fbe e50e 1c3e cbf6 483e 20ae 843c
000003a0: 1b1d f23c 116b 8a3d b428 5ebd 0836 ff3d
000003b0: 6319 93bc 053c 42be fb72 03bd b85d 1d3d
000003c0: 89bf 28bd 8125 86bd 56c6 963d ef37 05be
000003d0: dd00 153e d892 183d fdcb 12bd d319 9cbb
000003e0: 3840 c8bd 3119 82bc 34aa 75bd 2760 f73c
000003f0: 4bd8 8e3d 21e6 9abd 9f59 b0bd 17c7 ecbd

weight f4 [64, 64, 3, 3]
-0.32830396 0.16061744 0.15831167 -0.030485777 0.102909975 -0.012856488 0.07354393 0.06179951
0.1313599 0.04633091 0.02046025 0.07281496 0.008681891 0.09161404 0.0010155939 0.095974974
-0.050817795 -0.10137094 -0.0029380182 -0.05711739 -0.09255503 -0.04573791 0.2292568 -0.034903523
-0.2554296 -0.15702745 -0.038288638 0.11957977 0.06473356 -0.064069025 -0.019684643 0.011179661
0.052148774 -0.0109437145 -0.025540553 0.04920829 -0.060146235 0.009221037 -0.06598123 0.09798525
-0.011284559 -0.04101829 0.002018091 -0.041467447 -0.042983104 -0.09681975 -0.016418707 -0.020135602
0.19051503 0.05868825 -0.024858117 0.049095776 0.008299187 -0.062191576 0.013178143 0.035314213
-0.06856187 -0.024293214 0.03204316 -0.019481359 0.0915849 0.017975679 -0.09977779 -0.061708745
0.004093214 0.020056931 -0.022811146 0.02693645 0.05182819 -0.07622299 0.056096263 -0.036261972
-0.06736527 -0.077946864 8.459503e-05 -0.35944694 -0.201121 0.022371175 -0.10343909 -0.005528277
-0.025154667 -0.02407266 -0.06588484 -0.19925489 -0.05175296 -0.07767606 -0.20224185 -0.11131664
-0.0205059 -0.13483386 -0.021290211 0.041469548 0.034599554 -0.047652867 -0.0014180269 -0.12147615
0.024014771 0.163486 -0.027905919 0.007015704 0.0054551293 0.034339365 -0.043317575 -0.000602419
0.08409866 0.07875172 -0.048157863 0.06593109 -0.0074133845 0.09293025 -0.114892274 -0.022931423
0.025029184 -0.31362462 -0.0063141882 -0.04997681 -0.17645861 -0.13739415 -0.022585753 -0.1278735
0.12923351 -0.10289077 -0.08397832 0.010777213 -0.23988846 -0.02732065 0.115781665 -0.06190894
-0.22721314 0.027301611 -0.42540133 -0.21589187 -0.24701792 -0.08234406 -0.24680755 -0.019577093
0.13433444 0.050861266 0.1007006 0.009458585 -0.058248412 -0.0014702409 -0.011671586 -0.0010120615
-0.03622548 -0.15330228 0.005212348 -0.37993404 -0.055577744 -0.019734098 -0.12444992 0.09546103
-0.045627464 0.008108507 -0.07597542 -0.0062231915 -0.018317053 -0.020906406 0.052029837 0.058296442
0.016582895 -0.07926365 -0.09469798 -0.053624272 -0.07716177 0.00019336655 -0.01701357 -0.03347143
-0.08742177 -0.031574227 0.044192623 -0.054794017 -0.13033903 -0.29271454 -0.13764477 0.11048993
-0.28970626 -0.19463514 0.21453348 -0.29104698 0.030854097 0.020620832 -0.049222164 0.05498571
-0.015597846 -0.0050396826 -0.055803034 0.047107507 0.0012306094 -0.123380825 -0.045692086 -0.10294586
-0.12384063 -0.06117867 -0.24438822 -0.11902149 0.10094185 -0.010589821 -0.041845493 -0.040437028
-0.02956558 0.03028308 0.037234798 0.049740907 -0.05939046 0.0067367777 0.097913995 0.14101881
0.0735044 -0.1373148 0.022740224 -0.111438185 0.04028759 0.012092002 0.037006438 0.002398975
0.04062205 0.059081092 0.03886046 -0.12620856 -0.14416084 0.04190471 -0.03951891 -0.1042785
0.042191718 -0.11021212 0.036840353 -0.06694032 0.06767726 0.098385744 -0.09783295 0.031172244
-0.003819113 -0.030178059 -0.14181495 -0.107937425 -0.02669408 -0.13611618 -0.08921134 -0.03881971
-0.1861892 -0.09890119 0.07324737 -0.005564248 0.037508935 5.0969044e-05 0.106839 0.044990204
0.105969004 -0.0141141955 0.027979767 0.084694125 -0.104568176 -0.050793853 0.0014122135 -0.107096665
00000000: 7517 a8be e678 243e 741c 223e 4fbd f9bc
00000010: 77c2 d23d 05a4 52bc 339e 963d 7c21 7d3d
00000020: 3683 063e 7bc5 3d3d 419c a73c 0220 953d
00000030: 7d3e 0e3c 24a0 bb3d ad1d 853a 878e c43d
00000040: 5226 50bd 919b cfbd c48b 40bb edf3 69bd
00000050: 7e8d bdbd ad57 3bbd 4bc2 6a3e fff6 0ebd
00000060: abc7 82be cecb 20be 8cd4 1cbd 3de6 f43d
00000070: 0793 843d 9f36 83bd b041 a1bc e62a 373c
00000080: f499 553d 444d 33bc 6c3a d1bc a28e 493d
00000090: e65b 76bd d513 173c 2b21 87bd 7eac c83d
000000a0: dfe2 38bc cb02 28bd f341 043b c5d9 29bd
000000b0: 0d0f 30bd 6f49 c6bd 8680 86bc 6bf3 a4bc
000000c0: 5f16 433e 1763 703d 40a3 cbbc a718 493d
000000d0: 50f9 073c 98bc 7ebd 23e9 573c a3a5 103d
000000e0: 2a6a 8cbd 9002 c7bc b03f 033d 5f97 9fbc
000000f0: dd90 bb3d bb41 933c 4c58 ccbd 4fc2 7cbd
00000100: 5e20 863b 6f4e a43c 71de babc d4a9 dc3c
00000110: cc49 543d cd1a 9cbd 32c5 653d 6f87 14bd
00000120: cdf6 89bd 9ba2 9fbd 9c68 b138 6e09 b8be
00000130: aaf2 4dbe c143 b73c e0d7 d3bd 8c26 b5bb
00000140: 2911 cebc 0734 c5bc a2ee 86bd 7909 4cbe
00000150: e9fa 53bd a014 9fbd 7d18 4fbe fbf9 e3bd
00000160: fdfb a7bc e311 0abe cf68 aebc f9db 293d
00000170: 43b8 0d3d a72f 43bd 16dd b9ba 7dc8 f8bd
00000180: a0ba c43c e068 273e f49a e4bc fee3 e53b
00000190: f1c0 b23b 6fa7 0c3d c56d 31bd a8eb 1dba
000001a0: eb3b ac3d 9548 a13d 2e41 45bd e106 873d
000001b0: faeb f2bb 3752 be3d a44c ebbd aeda bbbc
000001c0: 010a cd3c 6893 a0be 40e7 cebb 7cb4 4cbd
000001d0: 91b1 34be 0db1 0cbe c205 b9bc 45f1 02be
000001e0: ca55 043e 65b8 d2bd d3fc abbd e892 303c
000001f0: 52a5 75be 8ecf dfbc f01e ed3d 3b94 7dbd
00000200: 90aa 68be a1a7 df3c 34ce d9be c212 5dbe
00000210: 44f2 7cbe 01a4 a8bd 1ebb 7cbe 2460 a0bc
00000220: f88e 093e e753 503d 1e3c ce3d 2ef8 1a3c
00000230: e395 6ebd 19b5 c0ba 2e3a 3fbc 26a7 84ba
00000240: 2b61 14bd 46fb 1cbe 58cc aa3b b786 c2be
00000250: 7da5 63bd 67a9 a1bc 9adf febd 1381 c33d
00000260: dde3 3abd 8bd9 043c 0099 9bbd eaeb cbbb
00000270: a50d 96bc e943 abbc 3d1d 553d 40c8 6e3d
00000280: dad8 873c fb54 a2bd 04f1 c1bd 20a5 5bbd
00000290: fd06 9ebd 70c2 4a39 0b60 8bbc 5719 09bd
000002a0: 2f0a b3bd fa53 01bd 5303 353d b16f 60bd
000002b0: 9877 05be aede 95be c0f2 0cbe 8b48 e23d
000002c0: 6154 94be 6f4e 47be aaae 5b3e 1c04 95be
000002d0: bbc1 fc3c 05ed a83c 2e9d 49bd b238 613d
000002e0: 1c8e 7fbc ec23 a5bb b991 64bd cdf3 403d
000002f0: 664c a13a 16af fcbd a027 3bbd 47d5 d2bd
00000300: 28a0 fdbd 7c96 7abd e840 7abe 8ac1 f3bd
00000310: 9aba ce3d ee80 2dbc 2e66 2bbd 4ca1 25bd
00000320: 8433 f2bc 3914 f83c 8483 183d 1fbd 4b3d
00000330: 6943 73bd 30c0 dc3b 2287 c83d 3c67 103e
00000340: 7a89 963d 409c 0cbe b549 ba3c b439 e4bd
00000350: 9a04 253d 881d 463c 1094 173d 1f38 1d3b
00000360: 4f63 263d 04ff 713d 252c 1f3d d13c 01be
00000370: e69e 13be 46a4 2b3d 95de 21bd f78f d5bd
00000380: 39d1 2c3d e4b6 e1bd e9e5 163d 0218 89bd
00000390: 609a 8a3d 777e c93d a45c c8bd ef5c ff3c
000003a0: 154a 7abb fa37 f7bc f037 11be 4c0e ddbd
000003b0: 8bad dabc 0a62 0bbe 6fb4 b6bd 6b01 1fbd
000003c0: 62a8 3ebe b58c cabd b802 963d 4c54 b6bb
000003d0: f8a2 193d 98c7 5538 68ce da3d a647 383d
000003e0: 4706 d93d 3a3f 67bc d335 e53c 1d74 ad3d
000003f0: d727 d6bd 370d 50bd 061a b93a 7f55 dbbd

bias f4 [64]
-0.008499087 0.020467585 -0.034969315 -0.061247893 0.13730818 0.001629765 -0.045733634 0.13358192
0.11446928 0.13187662 0.032527674 0.010213881 0.013240781 0.0040166117 -0.005996712 -0.0128642265
-0.023909714 -0.008645971 -0.05239828 -0.057448316 0.09216885 -0.014488199 0.008974291 -0.05616217
-0.033791903 -0.010681581 0.096771926 0.04410235 0.22285305 -0.02416878 0.00295015 -0.018188678
0.0138409445 0.13662106 -0.053518474 -0.032555357 0.023259183 0.14385203 -0.066819586 -0.018869134
0.14453623 -0.013817537 0.34837636 -0.7603822 0.0018677462 0.08009644 0.00089395803 0.021748243
0.0018743427 -0.046930533 0.033424158 0.014055284 -0.015425634 0.020511549 -0.000103443 0.074558966
0.039518863 -0.073449664 0.04845328 0.026606638 0.07219674 0.014777962 -0.0035216166 -0.034881607
00000000: c13f 0bbc a3ab a73c fc3b 0fbd 12df 7abd
00000010: 849a 0c3e d79d d53a 3153 3bbd b3c9 083e
00000020: df6e ea3d aa0a 073e bd3b 053d 1f58 273c
00000030: dcef 583c c89d 833b 1180 c4bb 7ac4 52bc
00000040: 4ede c3bc d5a7 0dbc 949f 56bd ed4e 6bbd
00000050: 06c3 bc3d e95f 6dbc e808 133c 4e0a 66bd
00000060: 6169 0abd cc01 2fbc 5c30 c63d aaa4 343d
00000070: 9733 643e 9bfd c5bc 4e57 413b 6c00 95bc
00000080: 21c5 623c 64e6 0b3e 3036 5bbd c458 05bd
00000090: 0b8a be3c f24d 133e b5d8 88bd 7193 9abc
000000a0: 4e01 143e f362 62bc 635e b23e 68a8 42bf
000000b0: 2acf f43a 9a09 a43d 8258 6a3a 5f29 b23c
000000c0: 81ac f53a 3b3a 40bd c5e7 083d 2248 663c
000000d0: ccbb 7cbc d607 a83c 8aef d8b8 5fb2 983d
000000e0: 88de 213d c76c 96bd f276 463d 2af6 d93c
000000f0: e2db 933d 441f 723c ecca 66bb 04e0 0ebd

weight f4 [64, 64, 3, 3]
-0.0029495084 0.06257342 -0.05438402 -0.076678835 -0.19768748 0.030482398 -0.0047436827 -0.113891035
0.0051252767 0.0018578544 -0.010313427 0.0067703864 0.016426627 -0.026976755 -0.05508546 0.016774762
-0.047342803 0.010936763 0.05320138 0.015718177 0.11233442 0.009544699 0.061540965 -0.08445582
-0.05134324 -0.06272563 -0.01441002 0.07730095 0.0014745496 0.029149197 -0.0067246323 -0.022060934
0.052549466 -0.07657792 -0.025195835 -0.04949718 0.010450348 0.028697358 -0.016698314 -0.0752988
-0.079685636 -0.06219375 -0.017647894 -0.0075047878 -0.017817741 -0.11972394 0.07460286 0.029939216
0.046609305 -0.015655018 0.02852934 -0.08226396 -0.05075814 0.02435983 -0.07607337 0.012345343
0.019468624 0.012503205 0.025617378 -0.015309423 0.024987355 -0.046025716 0.008280887 0.0545901
-0.0011870109 -0.010533624 0.019794632 -0.023199303 0.081341885 0.017291844 -0.09023339 -0.15108924
-0.07164898 0.0127773965 0.04075636 -0.0015395115 -0.03993548 0.06814809 -0.006749611 -0.06829805
-0.021734966 -0.06034006 -0.029159334 -0.059173334 0.18466248 0.014815786 0.02307273 -0.007201459
0.06361165 -0.041672725 -0.0040589636 -0.074753724 -0.012177013 0.028219504 0.12626877 0.045844264
-0.03963603 -0.05505987 -0.0030444039 0.034151208 -0.067511715 0.03954651 0.08708778 0.019162618
0.006790429 -0.015515826 0.05735335 -0.034673948 -0.056529187 -0.012374087 -0.044822264 -0.08659253
-0.06245351 -0.033256024 -0.004284536 -0.09962482 -0.07251075 -0.05010317 0.028231096 0.041101184
-0.06435318 -0.11337931 -0.05171278 0.03208026 0.011857317 -0.0428807 0.00854498 -0.039437048
-0.0016080898 -0.13222273 0.011022101 0.010647445 -0.10175057 0.008668989 0.08378703 -0.010705285
-0.09676763 -0.07530952 0.024907561 -0.06957604 -0.029742656 -0.02529969 -0.09666194 0.07797137
0.033221975 -0.06075448 0.019357247 -0.077701814 -0.0021251647 -0.07026913 -0.051290672 -0.027406521
0.0004229618 -0.025904285 -0.021633884 0.06219277 0.035762735 0.011549464 -0.016980344 0.05262121
-0.007404212 -0.055868138 -0.007553684 -0.005656111 -0.12312631 0.006399404 -0.025689425 -0.055805746
0.023101777 -0.025080979 -0.014604821 0.024882775 -0.03782241 0.012334853 0.031801 0.0504
-0.00031247802 0.041683026 -0.120302096 -0.015505064 0.022789966 0.02367292 -0.08219925 0.06540851
-0.12823498 -0.008888339 0.11228539 0.00258482 -0.06875258 -0.011031905 -0.020165285 -0.036656555
-0.009268221 -0.023857431 -0.031470295 0.09591432 -0.07322811 -0.015283153 0.06091935 0.00607347
-0.02800932 0.027219038 0.002629459 -0.0015201445 -0.023120372 -0.02337821 0.022886747 -0.06984556
0.07573224 0.08998855 -0.011399049 -0.004166673 0.063297324 -0.06583239 -0.069434054 -0.028158192
-0.0470415 -0.07775202 0.049253847 0.007697968 -0.04578187 -0.08943901 -0.05049324 -0.028541643
-0.035926037 -0.07322796 0.092287324 -0.026106663 0.029933462 0.07458221 -0.018820787 -0.049359865
-0.03308751 -0.041399077 0.011707208 -0.02713646 -0.024737664 0.016608242 -0.06559661 -0.063935906
-0.042472485 -0.0653754 -0.030511063 -0.06141954 -0.11528105 -0.083697096 -0.08725548 -0.20174055
-0.0965091 -0.01341132 -0.15017411 -0.18002051 0.015708929 0.040254958 -0.14347169 -0.015208174
00000000: 8a4c 41bb 7e26 803d c7c1 5ebd cb09 9dbd
00000010: 966e 4abe 39b6 f93c e570 9bbb b43f e9bd
00000020: f0f1 a73b 4083 f33a a6f9 28bc 1eda dd3b
00000030: 2291 863c 5bfe dcbc 4ba1 61bd 3a6b 893c
00000040: 87ea 41bd 1c30 333c b1e9 593d 68c3 803c
00000050: 970f e63d 5f61 1c3c 6112 7c3d 2cf7 acbd
00000060: 4a4d 52bd 4c76 80bd 0118 6cbc f64f 9e3d
00000070: ad45 c13a 4cca ee3c 4e5a dcbb 22b9 b4bc
00000080: 1c3e 573d e2d4 9cbd 7f67 cebc 8ebd 4abd
00000090: f037 2b3c b916 eb3c e7ca 88bc 4236 9abd
000000a0: 3932 a3bd e0be 7ebd 5192 90bc b9ea f5bb
000000b0: 83f6 91bc d331 f5bd 62c9 983d 1643 f53c
000000c0: 66e9 3e3d f43e 80bc 5db6 e93c 027a a8bd
000000d0: c4e7 4fbd 448e c73c 5bcc 9bbd 1f44 4a3c
000000e0: aa7c 9f3c 3eda 4c3c 89db d13c 60d4 7abc
000000f0: 48b2 cc3c 7685 3cbd 8fac 073c de99 5f3d
00000100: 7a95 9bba 3995 2cbc 5a28 a23c 770c bebc
00000110: 9396 a63d a0a7 8d3c 49cc b8bd 23b7 1abe
00000120: b3bc 92bd 4958 513c 24f0 263d 6fc9 c9ba
00000130: 6393 23bd 3a91 8b3d d72b ddbb d9df 8bbd
00000140: 870d b2bc 2427 77bd 8edf eebc bd5f 72bd
00000150: 2918 3d3e e9bd 723c 0603 bd3c 37fa ebbb
00000160: d346 823d 05b1 2abd 0e01 85bb 7b18 99bd
00000170: 1882 47bc 972c e73c 9a4c 013e 32c7 3b3d
00000180: 6459 22bd 7586 61bd 9f84 47bb 23e2 0b3d
00000190: 9543 8abd 85fb 213d 145b b23d ecfa 9c3c
000001a0: 3f82 de3b 1736 7ebc 59eb 6a3d 4506 0ebd
000001b0: 268b 67bd afbc 4abc 8d97 37bd 6d57 b1bd
000001c0: 40cf 7fbd 7837 08bd 4b65 8cbb 1908 ccbd
000001d0: 8480 94bd fb38 4dbd e644 e73c b759 283d
000001e0: 9acb 83bd 6933 e8bd c8d0 53bd 9766 033d
000001f0: 3145 423c aca3 2fbd 3e00 0c3c be88 21bd
00000200: 8ac6 d2ba 6565 07be 0b96 343c 9f72 2e3c
00000210: 9a62 d0bd 6008 0e3c 8998 ab3d 3865 2fbc
00000220: 1b2e c6bd e13b 9abd f10a cc3c e27d 8ebd
00000230: dfa6 f3bc 4c41 cfbc b2f6 c5bd 74af 9f3d
00000240: c413 083d b1d9 78bd 1793 9e3c 2122 9fbd
00000250: 5946 0bbb 43e9 8fbd 2b16 52bd a483 e0bc
00000260: f9c0 dd39 3935 d4bc 8b39 b1bc d9bd 7e3d
00000270: f27b 123d f739 3d3c 5d1a 8bbc 5789 573d
00000280: 089f f2bb fdd5 64bd e584 f7bb e656 b9bb
00000290: a629 fcbd 17b2 d13b a172 d2bc 9194 64bd
000002a0: f03f bd3c a076 cdbc 0f49 6fbc f6d6 cb3c
000002b0: aceb 1abd 2018 4a3c c441 023d 3b70 4e3d
000002c0: 17d4 a3b9 d2bb 2a3d f260 f6bd f408 7ebc
000002d0: 06b2 ba3c b6ed c13c 1558 a8bd e6f4 853d
000002e0: 0850 03be 65a0 11bc e2f5 e53d 1566 293b
000002f0: 27ce 8cbd 2abf 34bc ab31 a5bc 2f25 16bd
00000300: bdd9 17bc a970 c3bc ffe6 00bd ba6e c43d
00000310: 9ff8 95bd 3166 7abc 9186 793d f603 c73b
00000320: cd73 e5bc 76fa de3c 0053 2c3b 963f c7ba
00000330: ef66 bdbc a983 bfbc fd7c bb3c 300b 8fbd
00000340: 8119 9b3d eb4b b83d 14c3 3abc 9688 88bb
00000350: 07a2 813d 22d3 86bd 7133 8ebd 02ac e6bc
00000360: 97ae 40bd 733c 9fbd 67be 493d 3c3f fc3b
00000370: c585 3bbd cd2b b7bd 00d2 4ebd 2ad0 e9bc
00000380: 2e27 13bd 8af8 95bd 2301 bd3d a4dd d5bc
00000390: 0537 f53c 8fbe 983d 0d2e 9abc 922d 4abd
000003a0: c586 07bd 1492 29bd 97cf 3f3c 484d debc
000003b0: a4a6 cabc 020e 883c 8457 86bd d4f0 82bd
000003c0: a1f7 2dbd 8ae3 85bd 56f2 f9bc 0e93 7bbd
000003d0: 7918 ecbd 6269 abbd 00b3 b2bd 1395 4ebe
000003e0: 90a6 c5bd 27bb 5bbc 3ec7 19be 4c57 38be
000003f0: 03b0 803c 62e2 243d 3eea 12be b42b 79bc

bias f4 [64]
0.050532237 0.076254055 -0.020328382 -0.018490987 0.07851419 -0.055709694 -0.014398395 -0.031429864
-0.0010332838 0.02219441 0.042494062 -0.021486675 -0.031000001 -0.05132174 0.07798006 -0.11471329
-0.053618807 -0.017101845 -0.02555071 -0.045287266 0.08615792 -0.06757232 -0.030911217 -0.009725711
-0.037087336 0.06587811 -0.07755775 0.048826844 -0.059766833 0.004517664 -0.006426094 0.052873712
0.0043508923 -0.003892879 0.011058311 0.0036530392 -0.029905511 0.007902475 -0.11400896 -0.00811085
0.023823136 -0.018038979 0.1915593 -0.19203341 -0.020328695 -0.058722865 -0.0516481 0.029497102
0.06042019 0.09289151 -0.02990222 -0.029659957 0.0494703 0.38235405 0.15898225 0.022603355
0.06001117 0.043334004 -0.02971981 0.06486589 -0.07380157 0.09358551 -0.06284133 0.06745332
00000000: e4fa 4e3d 162b 9c3d b587 a6bc 697a 97bc
00000010: 0ccc a03d d92f 64bd 3fe7 6bbc 9abc 00bd
00000020: 406f 87ba 0dd1 b53c 410e 2e3d d304 b0bc
00000030: b7f3 fdbc bf36 52bd 02b4 9f3d cdee eabd
00000040: 659f 5bbd 2b19 8cbc b94f d1bc 247f 39bd
00000050: 9073 b03d 5b63 8abd 8539 fdbc 9758 1fbc
00000060: e4e8 17bd 1aeb 863d 99d6 9ebd a8fe 473d
00000070: 11ce 74bd ea08 943b fc91 d2bb 1b92 583d
00000080: ee91 8e3b ac1f 7fbb eb2d 353c d467 6f3b
00000090: 67fc f4bc 6279 013c 887d e9bd 5fe3 04bc
000000a0: bd28 c33c 7bc6 93bc 1f28 443e 68a4 44be
000000b0: 5d88 a6bc 6387 70bd f58c 53bd e8a3 f13c
000000c0: 297b 773d e73d be3d 80f5 f4bc 70f9 f2bc
000000d0: 5fa1 4a3d e9c3 c33e 3ecc 223e ac2a b93c
000000e0: 46ce 753d ff7e 313d f576 f3bc 68d8 843d
000000f0: 4725 97bd c3a9 bf3d f5b2 80bd f724 8a3d

weight f4 [64, 64, 3, 3]
-0.030324016 0.0059280964 -0.053938862 0.04456417 -0.094905175 -0.063277796 -0.12118251 0.022199927
0.02420282 0.046655815 -0.031823378 0.04438207 0.0012838987 -0.019929161 -0.049509753 -0.017021112
0.04148004 -0.08809496 -0.10841707 0.013421805 0.08490934 -0.024697118 -0.008048763 -0.0032354381
-0.028728446 0.018141901 -0.06651923 0.009305407 -0.047172785 0.017767766 -0.058407653 -0.018883344
0.055586662 0.06021773 -0.06316549 -0.036545552 0.0007586961 0.006115064 0.034843363 -0.008824031
0.034819916 -0.011489639 0.021188078 0.0407893 0.013680633 0.026732301 0.015004007 -0.046449076
-0.0045805094 0.0015709403 -0.0038073377 -0.06409872 -0.040078 -0.09367449 -0.028332585 0.031244298
-0.027882587 -0.10737583 -0.06416548 0.0938331 0.06669741 -0.0049915835 -0.03191545 0.02797845
-0.08609827 0.050524753 0.039080586 0.017295158 -0.019489838 -0.022499222 -0.0006690866 -0.058967657
-0.036849853 -0.12512536 -0.16689263 -0.13339701 -0.031433698 -0.10797471 -0.043953035 0.0059857946
-0.013377256 0.043147787 0.03265935 -0.028210875 -0.021684084 -0.02580995 -0.022774741 -0.09321591
0.03220405 -0.07495561 0.024426866 -0.029328855 -0.07175604 0.026807437 -0.15795946 -0.08573424
-0.07062612 0.025664749 0.0034068904 0.008228373 5.9731497e-05 -0.10666199 -0.028942669 0.001849829
-0.05708471 -0.0036855089 0.020375285 -0.015115173 -0.05924956 -0.018832356 0.05822076 -0.0768566
-0.09981622 -0.0657425 -0.009741303 -0.038670655 -0.025689224 -0.0039288006 0.06511641 -0.018595017
-0.053611007 0.051712837 -0.030650605 0.0056035994 -0.01649806 -0.037166443 -0.098719284 -0.016103635
0.06832879 0.057243854 -0.09124907 0.033128496 -0.063925855 -0.05566165 -0.05931886 -0.030988378
0.046261534 0.075167984 -0.0048702965 0.012634634 -0.01817289 -0.07508357 0.1353629 -0.12522367
0.053927403 -0.08737705 0.066502705 0.029085396 -0.04483929 -0.015255884 -0.04284338 -0.021027822
-0.024812935 -0.028061677 -0.0792431 -0.073983915 -0.1160731 -0.071111746 0.023943437 0.064114295
0.10620778 0.012387781 -0.024905171 0.03693948 -0.070165075 0.09091236 0.011643057 0.03498332
0.11285501 -0.012196952 0.054385714 -0.030022826 0.0475461 -0.1812234 -0.044573195 -0.08802535
0.0131824175 0.07978485 -0.019035924 0.022151085 -0.022766022 -0.015623101 -0.023128845 -0.033386737
0.0054090694 -0.042675987 0.09262239 -0.041214798 0.024389168 0.05159481 -0.015502317 -0.039348166
-0.05343047 0.014301724 0.096308455 -0.062451996 0.06548277 0.13318579 0.030587785 0.019041782
0.03380841 -0.035624117 -0.027120335 -0.059246883 0.07412784 0.044804823 0.026689375 -0.106492095
0.04564152 -0.14437854 0.14207381 -0.017589984 -0.019693915 0.09103015 0.14483455 0.03976026
0.00890038 0.00392807 -0.061103895 0.040824268 -0.054042 -0.03819203 0.023203807 0.04475752
-0.08042124 -0.03778502 -0.09890315 0.061873004 0.01734699 -0.021847868 -0.021392511 0.05999203
0.056471832 -0.04846288 -0.041147493 0.017235575 -0.051417574 -0.040248465 -0.03523524 0.0018232408
0.021006085 -0.05558512 0.06863849 -0.013626302 0.013579525 -0.015685754 -0.022963231 -0.019378215
-0.043187145 0.044980146 -0.17557961 -0.06442958 0.040872756 -0.05913204 -0.049904317 -0.08768565
00000000: 126a f8bc 7a40 c23b ffee 5cbd eb88 363d
00000010: a55d c2bd ca97 81bd 892e f8bd 9fdc b53c
00000020: fe44 c63c 2b1a 3f3d 3b59 02bd f9c9 353d
00000030: 7e48 a83a 7b42 a3bc bdca 4abd dc6f 8bbc
00000040: f9e6 293d 216b b4bd c509 debd 21e7 5b3c
00000050: f3e4 ad3d 9c51 cabc f5de 03bc a509 54bb
00000060: eb57 ebbc 539e 943c 3c3b 88bd b575 183c
00000070: 4038 41bd b58d 913c dd3c 6fbd 3eb1 9abc
00000080: d7ae 633d dea6 763d e95c 81bd cab0 15bd
00000090: 3ce3 463a e060 c83b eab7 0e3d ab92 10bc
000000a0: 549f 0e3d 0a3f 3cbc 9f92 ad3c ae12 273d
000000b0: bc24 603c b3fd da3c 5ed3 753c 6341 3ebd
000000c0: 1918 96bb 02e8 cd3a 8784 79bb 3146 83bd
000000d0: d428 24bd 69d8 bfbd bd19 e8bc 0bf4 ff3c
000000e0: 066a e4bc dce7 dbbd 3169 83bd 912b c03d
000000f0: a798 883d 7090 a3bb c6b9 02bd 1033 e53c
00000100: 4a54 b0bd 0bf3 4e3d f712 203d 93ae 8d3c
00000110: 27a9 9fbc 4a50 b8bc a465 2fba 1288 71bd
00000120: dfef 16bd dd20 00be e7e5 2abe 3a99 08be
00000130: 9fc0 00bd d821 ddbd 1908 34bd 7c24 c43b
00000140: 472c 5bbc bcbb 303d d0c5 053d 7e1a e7bc
00000150: d2a2 b1bc 636f d3bc 1892 babc fce7 bebd
00000160: 65e8 033d 5482 99bd da1a c83c 1143 f0bc
00000170: d5f4 92bd 459b db3c 20c0 21be 6f95 afbd
00000180: 6da4 90bd e13e d23c 2346 5f3b 4cd0 063c
00000190: 3588 7a38 9a71 dabd 2d19 edbc f675 f23a
000001a0: a8d1 69bd 9488 71bb 12ea a63c a1a5 77bc
000001b0: abaf 72bd 5046 9abc e478 6e3d fe66 9dbd
000001c0: 726c ccbd 01a4 86bd fc99 1fbc 1f65 1ebd
000001d0: 3572 d2bc 2bbd 80bb c15b 853d 9454 98bc
000001e0: 3797 5bbd d7d0 533d fa16 fbbc 669e b73b
000001f0: f126 87bc d73b 18bd 562d cabd c5eb 83bc
00000200: f7ef 8b3d 8878 6a3d cbe0 babd bfb1 073d
00000210: 8feb 82bd 78fd 63bd 55f8 72bd 57db fdbc
00000220: bc7c 3d3d acf1 993d 0297 9fbb 7f01 4f3c
00000230: 50df 94bc 6ac5 99bd 929c 0a3e a23a 00be
00000240: fbe2 5c3d bdf2 b2bd 9232 883d 7f44 ee3c
00000250: 67a9 37bd d1f3 79bc 8a7c 2fbd 8a42 acbc
00000260: 7f44 cbbc 9ae1 e5bc 354a a2bd e184 97bd
00000270: bcb7 edbd 09a3 91bd 0725 c43c 5b4e 833d
00000280: 7783 d93d 1ff6 4a3c ee05 ccbc da4d 173d
00000290: b5b2 8fbd 4230 ba3d 85c2 3e3c ab4a 0f3d
000002a0: 8720 e73d b9d5 47bc 8ec3 5e3d 6ef2 f5bc
000002b0: b3bf 423d a192 39be 6292 36bd a246 b4bd
000002c0: 11fb 573c 3d66 a33d 3af1 9bbc 3176 b53c
000002d0: cf7f babc 09f8 7fbc b478 bdbc 88c0 08bd
000002e0: 903e b13b 04cd 2ebd cfb0 bd3d d9d0 28bd
000002f0: cbcb c73c 1455 533d 6efd 7dbc 8b2b 21bd
00000300: e9d9 5abd c751 6a3c 5e3d c53d aacd 7fbd
00000310: d51b 863d db61 083e 3c93 fa3c 83fd 9b3c
00000320: b07a 0a3d 98ea 11bd 772b debc dcac 72bd
00000330: 56d0 973d 4385 373d ada3 da3c 8718 dabd
00000340: 9af2 3a3d f8d7 13be cc7b 113e df18 90bc
00000350: 2255 a1bc 046e ba3d 824f 143e a8db 223d
00000360: e6d2 113c 0ab7 803b 1448 7abd 5937 273d
00000370: 255b 5dbd 3f6f 1cbd e915 be3c a953 373d
00000380: e4b3 a4bd 77c4 1abd bc8d cabd 8c6e 7d3d
00000390: 461b 8e3c 4dfa b2bc 593f afbc 34ba 753d
000003a0: 024f 673d 0381 46bd 468a 28bd 9f31 8d3c
000003b0: 3c9b 52bd 93db 24bd d452 10bd cff9 ee3a
000003c0: f414 ac3c 39ad 63bd 5692 8c3d da40 5fbc
000003d0: a87c 5e3c 697f 80bc 631d bcbc 10bf 9ebc
000003e0: 01e5 30bd 1a3d 383d 24cb 33be a8f3 83bd
000003f0: 316a 273d 7034 72bd 7868 4cbd 8994 b3bd

bias f4 [64]
-0.04790722 -0.013893671 -0.06700837 -0.02997406 -0.07160485 -0.123962976 0.012728737 0.0074874414
0.010944196 -0.04166492 -0.017338581 -0.032675654 -0.04219561 0.12153556 -0.015406653 0.036465228
-0.0635545 -0.055495184 -0.0057337964 -0.028377844 -0.01011634 -0.11609389 -0.039550155 0.04271575
-0.0045607015 0.02893184 -0.07061696 0.03274134 -0.03730826 -0.030621275 -0.0041035595 0.052735
-0.016248172 -0.015919855 -0.05957775 -0.06528475 -0.07045448 0.01010413 0.0047958344 -0.015953936
-0.01750351 0.0906908 0.11969287 -0.024654262 0.0016183102 0.024118008 -0.06000755 -0.027075665
-0.05409698 -0.01716736 -0.054509472 0.004404035 -0.018087763 -0.053722974 -0.106524214 0.0023188575
-0.03272622 -0.13638279 -0.053615868 -0.040485956 -0.04544622 -0.023414725 -0.039765146 0.0021772408
00000000: 5c3a 44bd 48a2 63bc af3b 89bd 298c f5bc
00000010: 90a5 92bd 4de0 fdbd 318c 503c 3659 f53b
00000020: 494f 333c d6a8 2abd a409 8ebc e8d6 05bd
00000030: 4ed5 2cbd a3e7 f83d 306c 7cbc 905c 153d
00000040: dd28 82bd eb4e 63bd 92e2 bbbb a778 e8bc
00000050: 01bf 25bc a2c2 edbd 58ff 21bd b6f6 2e3d
00000060: f071 95bb 7702 ed3c a09f 90bd c91b 063d
00000070: 8cd0 18bd 78d9 fabc 2777 86bb a800 583d
00000080: e31a 85bc 5b6a 82bc cc07 74bd 03b4 85bd
00000090: 704a 90bd cb8b 253c 6026 9d3b d4b1 82bc
000000a0: 8563 8fbc 19bc b93d 8921 f53d bcf7 c9bc
000000b0: 7b1d d43a 2193 c53c 7aca 75bd c9cd ddbc
000000c0: cb94 5dbd 90a2 8cbc 5345 5fbd b94f 903b
000000d0: ca2c 94bc 9f0c 5cbd 5e29 dabd f9f7 173b
000000e0: ee0b 06bd eea7 0bbe 509c 5bbd 9ad4 25bd
000000f0: d125 3abd 3dd0 bfbc c7e0 22bd 0ab0 0e3b

weight f4 [12, 64, 3, 3]
-0.04622164 -0.0006039399 0.016211066 0.014818499 0.021155987 -0.013671854 0.0006841364 -0.011345526
0.012385322 -0.04665217 0.083581 0.012207572 -0.06515683 0.031955652 0.010967259 0.003895288
-0.010477365 -0.03537535 -0.027449971 0.030668875 -0.09536883 0.023767814 0.08322826 -0.07982386
0.04532896 0.051627565 0.042425606 0.0037668012 0.06833675 -0.039266523 0.014965641 -0.08484766
0.3271717 -0.00722958 0.013836348 -0.15520458 0.090974264 0.010081944 -0.05000736 0.05710096
0.05037631 -0.07915038 -0.002029377 -0.0289811 -0.024137039 -0.0037945746 -0.0024354414 -0.0009191832
-0.0028734028 0.087174565 0.00012150911 0.00808634 -0.04156026 0.0024926905 0.023200536 -0.04407585
0.0060434127 0.050560042 -0.052392554 0.032067236 0.06264219 0.0048655327 0.014020016 0.03336206
0.00041765903 0.0022274647 -0.013622967 0.11263773 -0.018427854 0.03220285 -0.050124835 0.014569891
-0.055831622 -0.013098968 -0.022821063 0.12221026 0.00054196786 -0.034951117 0.12828128 -0.09602334
-0.033278666 0.026668048 -0.07578011 0.0075519015 -0.04786127 0.053967565 -0.037088927 0.027221259
0.030566478 0.039217804 0.06360217 -0.0019675493 -0.04542545 -0.011336638 -0.029970715 -0.010712447
0.029217498 0.013886726 -0.029083373 0.018840713 0.00044373353 0.02449808 -0.030539839 0.01250234
-0.026428452 -0.04848938 0.050026026 -0.077578776 -0.0058767963 -0.049230713 -0.04000255 0.021592252
0.009193529 0.032276466 0.011059601 0.05813333 -0.034115627 0.028680662 0.01775026 -0.0024718195
0.028988179 0.07386292 -0.024223909 0.012386212 -0.019207839 -0.08595401 -0.06265781 0.023586
0.03802623 -0.015580993 0.000108730375 0.08646557 -0.032910965 -0.013331073 0.010584266 0.0025745651
-0.013203816 0.0060409475 0.10091712 -0.0055135353 -0.029920852 -0.032184366 0.02416754 -0.0017879882
-0.026778601 0.014146857 0.0019572848 0.024304679 0.030538423 -0.0205716 0.013748294 0.018342247
-0.027870195 -0.0008479524 0.0003904259 -0.016215827 -0.0049079107 -0.0808305 -0.010421319 0.007861234
0.0322884 0.0315107 0.035912175 0.042219315 0.013984959 -0.06409032 0.0004982125 -0.056029726
-0.084204294 0.0007872392 0.004594118 -0.079464726 -0.03703655 -0.0038017188 0.06370003 0.108840935
-0.044680852 0.05115952 0.011400674 -0.016746476 -0.068495624 0.028218018 0.030565571 -0.002466315
-0.02129703 -0.00013651483 -0.009413216 0.025791356 0.008536496 -0.007489705 0.009123016 -0.0020393091
0.036002673 -0.013817369 0.0120402295 0.003556993 -0.018726502 0.002721519 0.023388451 -0.0031222438
-0.07509552 0.058766063 0.06042225 0.020823989 -0.014517263 0.04691452 -0.09796775 -0.047417775
-0.046920586 0.00982616 -0.03854005 0.0049480917 0.022383258 0.019902993 0.029279176 0.07562571
0.052048963 -0.08536509 -0.052539717 0.04239611 0.14060804 -0.21411051 0.016208775 0.039240915
-0.10091794 0.015368712 -0.027102556 -0.011744466 0.025715694 -0.01137436 0.06522726 -0.031214321
-0.002591614 -0.011844615 -0.026962819 0.026398748 0.008761575 -0.010792889 -0.0068179416 0.035844233
-0.052256197 0.03220797 -0.01506494 -0.066572055 0.07219259 -0.01998588 -0.010600391 0.11337194
-0.0056359624 -0.05241114 0.020602373 -0.03931435 -0.031442836 0.05751249 0.06604507 -0.023139326
00000000: e752 3dbd b851 1eba 12cd 843c 4ac9 723c
00000010: 524f ad3c e9ff 5fbc 9e57 333a 96e2 39bc
00000020: ceeb 4a3c 5916 3fbd 842c ab3d 4502 483c
00000030: f270 85bd eee3 023d 05b0 333c 1748 7f3b
00000040: 41a9 2bbc bee5 10bd c3de e0bc 4b3d fb3c
00000050: bc50 c3bd b8b4 c23c 9473 aa3d b17a a3bd
00000060: dcaa 393d 6d77 533d 79c6 2d3d 70dc 763b
00000070: 23f4 8b3d efd5 20bd 7332 753c 9cc4 adbd
00000080: 0d83 a73e 1de6 ecbb dab1 623c f3ed 1ebe
00000090: b750 ba3d bd2e 253c 84d4 4cbd b2e2 693d
000000a0: 6457 4e3d 9819 a2bd 4cff 04bb c669 edbc
000000b0: 0abb c5bc 66ae 78bb ed9b 1fbb 57f5 70ba
000000c0: b34f 3cbb 9488 b23d b5d2 fe38 917c 043c
000000d0: 173b 2abd 685c 233b 0d0f be3c e188 34bd
000000e0: d207 c63b 0c18 4f3d 9399 56bd ef58 033d
000000f0: 8c4a 803d 0c6f 9f3b 36b4 653c a8a6 083d
00000100: 3ff9 da39 a8fa 113b dd32 5fbc 9cae e63d
00000110: 03f6 96bc 23e7 033d b34f 4dbd 8db6 6e3c
00000120: b3af 64bd 0e9d 56bc 3df3 babc 5f49 fa3d
00000130: d912 0e3a e728 0fbd 2b5c 033e e3a7 c4bd
00000140: 364f 08bd f376 da3c 9a32 9bbd f175 f73b
00000150: 2e0a 44bd 180d 5d3d 8fea 17bd 1eff de3c
00000160: 8d66 fa3c d9a2 203d db41 823d 00f2 00bb
00000170: 0910 3abd 4ebd 39bc 2585 f5bc 4283 2fbc
00000180: 8959 ef3c 2785 633c 4140 eebc d757 9a3c
00000190: e8a4 e839 33b0 c83c af2e fabc 9dd6 4c3c
000001a0: 7b80 d8bc cd9c 46bd 17e8 4c3d 9fe1 9ebd
000001b0: 2492 c0bb 25a6 49bd b7d9 23bd 3ce2 b03c
000001c0: 75a0 163c 5434 043d 5433 353c 371d 6e3d
000001d0: d4bc 0bbd b5f3 ea3c fe68 913c 40fe 21bb
000001e0: 9e78 ed3c 7145 973d 3871 c6bc 8aef 4a3c
000001f0: c259 9dbc a808 b0bd bd52 80bd 6d37 c13c
00000200: 64c1 1b3d 6c47 7fbc 2d06 e438 dc14 b13d
00000210: a6cd 06bd 936a 5abc a169 2d3c 09ba 283b
00000220: d154 58bc 24f3 c53b a3ad ce3d e3aa b4bb
00000230: 931c f5bc c1d3 03bd 01fb c53c ee5a eaba
00000240: cc5e dbbc 38c8 673c ca45 003b 9b1a c73c
00000250: b72b fa3c c685 a8bc 8640 613c 7b42 963c
00000260: 0950 e4bc 1f49 5eba 14b2 cc39 0ed7 84bc
00000270: 8ad2 a0bb 768a a5bd 2ebe 2abc 68cc 003c
00000280: d740 043d 5d11 013d a518 133d 29ee 2c3d
00000290: 2b21 653c c941 83bd 7a9a 023a 6d7f 65bd
000002a0: 4d73 acbd ba5e 4e3a 418a 963b 67be a2bd
000002b0: a3b3 17bd 4226 79bb 2975 823d ffe7 de3d
000002c0: 4503 37bd a58c 513d e4c9 3a3c e82f 89bc
000002d0: 6f47 8cbd 7929 e73c a664 fa3c e6a1 21bb
000002e0: 1c77 aebc 6c25 0fb9 e439 1abc 6548 d33c
000002f0: a9dc 0b3c 336c f5bb b478 153c eea5 05bb
00000300: 8a77 133d 3f62 62bc 6244 453c 711c 693b
00000310: 5268 99bc 835b 323b 2399 bf3c 8f9e 4cbb
00000320: aecb 99bd afb4 703d 527d 773d 1297 aa3c
00000330: d0d9 6dbc 7129 403d 51a3 c8bd 2439 42bd
00000340: cd2f 40bd e7fd 203c 2cdc 1dbd 9a23 a23b
00000350: 185d b73c 9a0b a33c e2da ef3c a7e1 9a3d
00000360: 4b31 553d e4d3 aebd e333 57bd 8ba7 2d3d
00000370: 8efb 0f3e c93f 5bbe 44c8 843c 15bb 203d
00000380: 11ae cebd 0dcd 7b3c 2e06 debc dc6b 40bc
00000390: b8a9 d23c 865b 3abc df95 853d 2db5 ffbc
000003a0: 11d8 29bb eb0f 42bc 21e1 dcbc 3042 d83c
000003b0: b68c 0f3c a8d4 30bc 0a69 dfbb 67d1 123d
000003c0: 980a 56bd 81ec 033d f0d2 76bc ee56 88bd
000003d0: b5d9 933d 6eb9 a3bc 43ad 2dbc 8c2f e83d
000003e0: e1ad b8bb 10ad 56bd 4fc6 a83c 1508 21bd
000003f0: 34ca 00bd 3792 6b3d a342 873d af8e bdbc

bias f4 [12]
0.00010872479 0.01341866 0.0069332398 0.012025778 0.00683892 0.01902779 0.0071039973 0.0019959451
0.006887226 0.0053442097 0.015022985 0.0009345825
00000000: 2d03 e438 f0d9 5b3c 3b30 e33b c507 453c
00000010: 0519 e03b 2be0 9b3c a6c8 e83b 67ce 023b
00000020: 3dae e13b 7b1e af3b f722 763c c5fe 743a
