train_weight_sr7/model_epoch_18.pth (torch_old, 667646 bytes, 10 tensors)

weight f4 [12, 3, 13, 13]
00000000: 36a1 be3c df44 e7bc dd3a ab3d 4319 2fbc
00000010: fb4d 31bd 76bd 8dbd a161 493d 5804 28bd
00000020: 5b06 21be 9d7a a03d 9c54 4cbd c279 b13c
00000030: 359f afbc dac8 203d deee 11bd 7011 6abc
00000040: 4ad8 41bd 909c 6d3d 0b72 5e3c 8e5f 5a3d
00000050: 0570 f7bd c040 823b b733 2cbd 6823 afbb
00000060: d613 123d 1149 7ebb aa21 fbbc a3b7 54bd
00000070: c23f a83d 6c78 0f3d 8796 50bd 614b c3bd
00000080: a626 3a3d e299 d8bd 5472 d8bb b088 663d
00000090: 9fa7 903c 2370 a1bb 8d60 273b 7c5f 563d
000000a0: fd5d a1bd 0df5 6fbc 8e03 0d3d fc73 703d
000000b0: dced 453d 2908 a93c e8d7 18be fa35 5d3c
000000c0: e530 b0bd 703c 8e3c cb38 c53d a406 84bd
000000d0: 2c23 b5bd e38a ac3c 4f81 95bd 77e1 78bd
000000e0: 7c5b debd 6860 51bb 9b02 85bb 29b3 33be
000000f0: d3ed 163c a97f 163d b532 a3bc 8162 3b3d
00000100: d514 433d d00e 4a3d f7db 383d 5a5f 083e
00000110: 877f d43c eac2 ecbc cac7 6d3d c689 e53c
00000120: 8c68 19bc b812 b3bd 7144 00be 3ad5 ccbd
00000130: 0f4b e6bd 95d1 f0bd 31f2 42bd 44fc eb3c
00000140: ad56 e4bd b797 a3bc 9f38 c7bc 3bf6 373d
00000150: bc37 5b3e bd29 3ebb 9cf2 993d 3f78 bb3d
00000160: a3e6 2d3e 9d5b 983d d951 2e3d f697 573d
00000170: 0081 7fbd d904 02be 2ec1 0dbe dc1c adbe
00000180: a2a1 85be 6166 e7bd e9d7 49bd ae16 373c
00000190: c752 b2bc 8ae4 933d e8f4 cebb 12af 873d
000001a0: 8784 a4bb e2bc 0a3c e7de 2d3c 54d5 febc
000001b0: fc1f 193d f10a fcbc f4f2 b6bc 5995 763d
000001c0: 7b49 ebbd 6905 f0bc f046 7ebe 0362 9dbd
000001d0: 89d0 50be e4d6 8c3d d764 b3bd 3e04 3d3d
000001e0: 010b 13bd 101c 28be 7fa2 ea3c 45d9 1cbd
000001f0: af45 4cbd 6bdb 9e3b adf8 adbb c984 fcbb
00000200: 69e9 85bd 174d b1bc 87fe a1bd 23d6 42bd
00000210: 9b0f b7bd 4b51 263d 00f1 bbbd 7b7c b13b
00000220: d4ce 1abe 5375 94bc 35b7 08be 9096 693c
00000230: fdd0 3cbc c594 593a eb1e abbd ddda 053d
00000240: 5308 053d 0579 c0bd f608 40be 5ea5 b6bd
00000250: 8138 8b3d 543a 0f3d 690f c43c 5842 10be
00000260: dc7c 9cbc 06f2 15bd 0e0f 1ebc 57d6 bcbd
00000270: 1e72 62bd 41d7 033c f614 11be 978e d9bd
00000280: 03ed ed3c 62e1 a3bc 90c6 efbd 059d 183b
00000290: a895 a5bd b0fa bdbc 8198 083c 1763 efbd
000002a0: 1743 9d3b 74e8 01bd 16ca 96bb ce94 2bbd
000002b0: a1b5 ab3a f6c1 c43c 4e0e 843d b51e 0ebd
000002c0: a606 053d 9ea0 833a 90ae 2bbd 2857 d3bd
000002d0: ca12 163d dbaa 943c 8ab1 303d ffda 91bd
000002e0: a10f dd3d 1732 9cbc 4922 3a3d 0218 adbd
000002f0: ea54 0dbd 7a7c 1fbd ccdf 8b3d fcec 523c
00000300: 464d 9b3b 3b31 a7bd 48a0 a0bc d8e5 6dbd
00000310: cc72 003e 7ec3 93bd 92ef 12be 8f7c 4abd
00000320: 00e3 b13d 61f3 b5bc d146 913c 0f62 a23c
00000330: 1939 2bbd 5e11 86bd 8006 0f3d 99d8 d7bc
00000340: 2956 be3c 9f87 373d 603d f03d 692f a43d
00000350: 9b67 623d a10e 433c 9618 833d 3933 273d
00000360: 9b78 a83a 4d10 0c3d d00f f0bd c74a 04be
00000370: 88dc 573d 5444 773d ef82 b4bd 47f2 babd
00000380: b3b6 38bd 6553 4f3c a10f 8f3c d21c 69bd
00000390: b9cd bdbc 6c0c 46bd 13b1 a9ba 7afb 00be
000003a0: 9692 893d d919 393d f240 77bd d856 aa3d
000003b0: ba80 f0bb 8e12 293d 1762 93bd c325 f2bc
000003c0: 7ef9 853c 735c d3bd 11da dbbd 7ba3 33bd
000003d0: 4a7c 12be a6e8 e8bd c81f 58bd 1741 a7bc
000003e0: 2a5c 9cbd b594 33bc 9d5f 7b3d f95c 733d
000003f0: f02e 1bbd 5c3b 2c3c 9cd0 80bd f1c9 a83d
0.02327023 -0.028231082 0.08360837 -0.010687175 -0.04328726 -0.069209024 0.04916537 -0.041019768
-0.1572508 0.078358866 -0.049885377 0.021664504 -0.02143822 0.039254047 -0.035628192 -0.014286384
-0.04732541 0.058010638 0.013576995 0.053313784 -0.12081913 0.003975004 -0.042041507 -0.005344797
0.03566345 -0.0038800875 -0.0306557 -0.051932942 0.08215286 0.035026953 -0.050924804 -0.09535862
0.045447014 -0.10576226 -0.006605426 0.0562827 0.017658053 -0.004926698 0.0025539726 0.052337155
-0.07879255 -0.014645827 0.03442722 0.05870436 0.048322544 0.020633774 -0.14926112 0.013501639
-0.08603076 0.017362803 0.09629973 -0.06446579 -0.08844599 0.02106232 -0.07300054 -0.060761895
-0.10857293 -0.0031948332 -0.0040591485 -0.17548813 0.009211975 0.03674284 -0.01992164 0.045748238
0.04762729 0.049330533 0.04513165 0.13317624 0.025939716 -0.028901536 0.05805186 0.028019797
-0.009363305 -0.08743805 -0.12526108 -0.10001607 -0.11244785 -0.117587246 -0.047594253 0.028806813
-0.111493446 -0.019969804 -0.024318991 0.044912558 0.2140798 -0.0029016577 0.07516977 0.091537945
0.16982512 0.07439349 0.042558525 0.052635156 -0.062378883 -0.12697162 -0.13843223 -0.3381108
-0.2609988 -0.11298824 -0.049278174 0.011174841 -0.021767987 0.07221325 -0.006315816 0.06625189
-0.0050206813 0.008467885 0.010612226 -0.031107582 0.03738402 -0.030766936 -0.022332646 0.060201023
-0.11488625 -0.029299455 -0.24831748 -0.0768471 -0.2039205 0.06876925 -0.08759468 0.046146624
-0.035899166 -0.16416955 0.028641937 -0.038293142 -0.049871143 0.004847934 -0.0053091855 -0.007706259
-0.0653866 -0.021643205 -0.07909875 -0.047567498 -0.089385234 0.04060487 -0.091768265 0.0054164506
-0.15117961 -0.01812235 -0.13351138 0.014257088 -0.011524436 0.00083000615 -0.083555065 0.032679427
0.03247864 -0.09398083 -0.18753418 -0.0891826 0.06797887 0.034967735 0.02393313 -0.14087808
-0.019102506 -0.036607765 -0.009647144 -0.092205696 -0.055284612 0.008046926 -0.14168152 -0.106229
0.02904368 -0.020004932 -0.11707795 0.002328695 -0.08085185 -0.023190826 0.008337141 -0.11688822
0.0047992575 -0.031715825 -0.0046017272 -0.041889958 0.0013100394 0.024018269 0.06448041 -0.034697253
0.032477044 0.0010042374 -0.041914523 -0.10319358 0.036639012 0.018147876 0.043138064 -0.07121848
0.107939966 -0.019066853 0.045442853 -0.08451845 -0.03450481 -0.03893707 0.06829795 0.012873884
0.0047394363 -0.08163687 -0.019607678 -0.058080524 0.12543792 -0.072150216 -0.14349201 -0.049435195
0.08685875 -0.022210779 0.017733963 0.019822149 -0.0418025 -0.06546281 0.03491831 -0.026348399
0.023234444 0.044807073 0.11730456 0.08016855 0.055274587 0.011905343 0.06401174 0.040820334
0.0012853326 0.034195233 -0.11721766 -0.1291915 0.05270055 0.060367897 -0.08814036 -0.09128242
-0.04509611 0.01265416 0.017463507 -0.05691225 -0.023169385 -0.04835169 -0.0012946449 -0.1259593
0.06717412 0.045190666 -0.06036467 0.083173454 -0.007339564 0.04127746 -0.071964435 -0.029559022
0.016354319 -0.10320368 -0.10734952 -0.04385708 -0.14305225 -0.11372499 -0.052764684 -0.02041678
-0.076347664 -0.0109607475 0.06137048 0.059414838 -0.03788656 0.010512199 -0.06289789 0.08241642

weight f4 [64, 12, 7, 7]
00000000: 6241 263e ca46 97bd 3617 98bd 2743 43bb
00000010: 9a04 babb 3805 653d 933a bcbd d2ed b9bb
00000020: 4edc 303d 4e88 bc3d 9dad b83d f07b 153e
00000030: 001f b33d e22b 1b3e 4770 8d3c a768 05be
00000040: 5365 5cbd 3982 f6bd c93c 37be 5c28 2bbe
00000050: dc07 4abe 4cba 85be 3065 02be afaf 43ba
00000060: b2bb ab3e 4bda 823e ac41 f5bd c641 173e
00000070: 0895 7e3d f0cb 093d 8a54 853d 2f54 3c3d
00000080: b1f0 2abc aa97 b53c 4f1b a4bd 0251 edbd
00000090: 4028 6fbe 6a60 11be 4f86 303e f411 24be
000000a0: f839 903e 250e 2ebe a923 95bd 59b3 19be
000000b0: 2cb1 c5bd 52a5 0b3e efac 5cbe 3812 ebbb
000000c0: 1eb8 2ebe 0db7 27bd 11cf d1ba 80b6 aabd
000000d0: 8690 343e be04 3ebc 13b7 16bc 675d e6bc
000000e0: 35ec 2c3c a238 ccbb 2d3e 063e dd9f 293d
000000f0: fdcb 84be 4b32 38bd 8a7d 013e 60d6 bebc
00000100: b667 c0bb 1001 d83d 4551 a5be 2144 7e3b
00000110: be5a 953e c772 e0bc 0f11 623d 560a f9bc
00000120: 3654 b8bc cd3a d5bd 588e 8b3d a2c3 f13d
00000130: 63a0 32be 0a3f 20bd d344 83bb aef8 673e
00000140: 05ab b6be e455 7e3e ffe7 5dbc e106 443c
00000150: 17ea cf3b 99af f43d 9068 c1bd 7ac5 8abd
00000160: bbb0 f53d a3f6 84be e7b2 0b3e 68fb 93bc
00000170: a447 363d d8e9 92bd b923 013e 3b2c 66be
00000180: 2c45 623e 39a3 8ebd 3485 a0bb e5e8 03bd
00000190: ce5f f73c 5058 733d 01d6 133d 799d 603d
000001a0: b414 52bb 4e1b a13d bbf7 03be a826 f8bd
000001b0: 7aa5 acbc eed7 873d 04bd 1f3d 0703 0d3d
000001c0: 0ead 75bc 4e6f 1fbe a905 25be 77c5 d13b
000001d0: 2bd8 053d 255e b23d a2b0 c0bc 568d f6bc
000001e0: a7ba 68bd 5679 88bd c713 113d d661 41bc
000001f0: 06b1 b53c ee79 f2bd e956 12be 7cb6 0abe
00000200: 8b0f a8bd 8121 9e3d a68d 483d fb70 f93d
00000210: 0352 f23c 2a79 bfbd d36a 0abe d448 7bbe
00000220: 92ff 253d 5087 663d 9447 c43d ed41 a6bc
00000230: cef4 5fbd b20a 203c 4a27 5dbe 6332 333e
00000240: 7ba0 db3c 07cf ed3d 1b1f de3b 3d12 bcbd
00000250: c242 713c 9bc0 be3d d365 2dbd 67dd 943c
00000260: c43f 00be 6d72 54bd d025 a73c 2fec b9bc
00000270: 89f6 2bbd a825 263e 0f70 e73b e2e3 69bd
00000280: 4671 a7bd 9a23 87bd 0fba 8c3c 6b61 583b
00000290: 8f05 1c3e edea 12be 70cd 77bc 1830 443d
000002a0: cf10 9b3d 423b d63d c254 aabd 4efa 1bbd
000002b0: aae7 4ebd 08d3 52bd 529f 26be 6261 553c
000002c0: c7a4 213d 662b c0bd 6cf9 993c 5f0b d5bd
000002d0: f2b7 adbd b438 42bd ac60 3bbe 6496 c0bd
000002e0: 0114 433d 1105 d3bc 12d3 93bd 3e9a 1abe
000002f0: 4bca 2cbd f249 14be e259 1abd 69ad 8ebd
00000300: 35e0 db3d e7e3 13be c1c1 243b 0cea b03d
00000310: de9e b2bd 922e 8239 3af0 a43d 6f4b 903d
00000320: 84ac 2fbe 4fc0 763d 72fc 85bc 8bf2 b03d
00000330: a541 0bbd a518 0e3a cf81 30be 3ee6 c13c
00000340: ac07 813e 3c32 aabc 77bf c03d 4b2a e53b
00000350: ce18 a1bc 47a2 74bd 1dd2 723e b4a2 f13d
00000360: b2dd 94be 6f7a 99bd 2f54 e9bc 1dbd 2e3d
00000370: f239 b03b b0a8 303c 5aa2 9dbe f0c2 c43c
00000380: 8c17 f23c 1fa5 94bc 9b9d babd 3307 713d
00000390: 1013 24be c7b6 1d3e 6977 4b3e e56e 7d3c
000003a0: cbae dd3c 3cd3 8e3d 366f 52bd 14a1 013e
000003b0: ad58 99bc 19be 3cbe 7768 09bd e83c 233d
000003c0: 17c5 2fbd bfcb 78bd e963 923d 7dee 09be
000003d0: 8d15 133e 10b0 2c3d 8420 22bd 7e76 8dbb
000003e0: 968c afbd 0dd4 44bc 438a 5cbd 2b23 1f3d
000003f0: 2dc3 b63d 95df acbd 6847 b0bd 6771 c7bd
0.16235879 -0.07386549 -0.07426302 -0.0029794665 -0.005676818 0.05591318 -0.0919086 -0.0056741023
0.04317885 0.092056856 0.09017489 0.1459806 0.08746147 0.15153459 0.017265452 -0.13028203
-0.053807568 -0.12036557 -0.17894281 -0.16714615 -0.1972956 -0.26118696 -0.12733912 -0.00074648386
0.33541638 0.2555717 -0.119754165 0.14771184 0.062153846 0.033641756 0.06510265 0.04597872
-0.010433362 0.022167046 -0.08013021 -0.11587717 -0.23355198 -0.14196935 0.17238735 -0.16022474
0.28169227 -0.16997583 -0.07282192 -0.15009822 -0.096529335 0.13637283 -0.21550344 -0.0071738027
-0.17062423 -0.040946055 -0.0016007145 -0.0833559 0.17633256 -0.01159781 -0.009198922 -0.02812071
0.010554363 -0.006232337 0.13109656 0.041412223 -0.2593688 -0.044969838 0.12645546 -0.023295581
-0.0058717383 0.10547078 -0.32288566 0.0038797932 0.29170793 -0.02739848 0.05519205 -0.030400436
-0.022501092 -0.10411606 0.06814259 0.11804892 -0.17443995 -0.03912262 -0.004006007 0.22653458
-0.35677353 0.24837452 -0.013544082 0.011964531 0.0063450444 0.11947555 -0.09443772 -0.06775947
0.11996599 -0.2596942 0.13642465 -0.018064216 0.044501916 -0.071735084 0.12611283 -0.2247781
0.220967 -0.06964726 -0.0048986915 -0.032204527 0.03019705 0.059410393 0.036092762 0.054837678
-0.0032055797 0.07866536 -0.1288747 -0.12116748 -0.021075 0.06632982 0.03899862 0.034426715
-0.014994873 -0.15569803 -0.1611544 0.0064017135 0.032676857 0.08709363 -0.023521725 -0.030096691
-0.05681863 -0.06663768 0.03541925 -0.011803111 0.022179138 -0.118396625 -0.14290966 -0.13546175
-0.082060896 0.07721234 0.04896321 0.121797524 0.029580122 -0.09349282 -0.13517313 -0.245395
0.040526934 0.056281388 0.09583965 -0.020295108 -0.054676823 0.009768175 -0.21597019 0.1749969
0.026809921 0.11611753 0.0067786104 -0.09183166 0.014725389 0.0931408 -0.042333435 0.01817198
-0.12524325 -0.051866937 0.020403773 -0.022695629 -0.04198316 0.16225302 0.007062919 -0.05710209
-0.08175902 -0.06598587 0.017178563 0.003301705 0.15236495 -0.1434743 -0.015124664 0.04789743
0.07571565 0.10460521 -0.083169475 -0.038080506 -0.0505139 -0.051470786 -0.16271713 0.013023706
0.039463785 -0.093832776 0.018795691 -0.104025595 -0.084823504 -0.047417358 -0.18298596 -0.09403685
0.0476265 -0.025759252 -0.07217993 -0.15097901 -0.04218511 -0.14481333 -0.037683375 -0.06966669
0.107361235 -0.14442407 0.00251399 0.08638391 -0.08721708 0.0002483023 0.08053632 0.07045638
-0.17155653 0.060241994 -0.016355727 0.086400114 -0.03399815 0.00054205424 -0.17237018 0.023669358
0.25201166 -0.020775907 0.09411519 0.006993567 -0.019665148 -0.059725072 0.23712964 0.11798611
-0.2907539 -0.074940555 -0.028482525 0.04266082 0.0053780014 0.010782406 -0.30787927 0.024018735
0.029552244 -0.018145142 -0.09112092 0.058844756 -0.16022897 0.15401755 0.1986977 0.015468334
0.027060887 0.069738835 -0.05137559 0.12659103 -0.018719042 -0.18431892 -0.03354689 0.039853007
-0.04291257 -0.060741182 0.071479626 -0.13469882 0.1436369 0.042160094 -0.03958179 -0.004317104
-0.085717365 -0.0120134475 -0.053842794 0.0388519 0.089239456 -0.084410824 -0.0860737 -0.09738427

weight f4 [64, 64, 3, 3]
00000000: 9c83 abbe 7c68 393e 9290 223e 276a 02bd
00000010: b9e8 e83d b6bc 4dbc 0684 403d 9014 803d
00000020: 3683 063e 7b8e 3d3d a83e 0c3d 0220 953d
00000030: 210f 0e3c 2f44 aa3d ad1d 853a cd76 c43d
00000040: 5335 4cbd 919b cfbd 024f 9dbc 46a1 42bd
00000050: 5a65 bdbd 5c8a 0d3b 832c 833e 708a 0dbd
00000060: 3d96 78be 16a8 1bbe 8cd4 1cbd 3de6 f43d
00000070: 0793 843d 9f36 83bd 4445 a1bc e62a 373c
00000080: d670 563d 4f64 33bc 6c3a d1bc a28e 493d
00000090: e65b 76bd d513 173c 2b21 87bd 7eac c83d
000000a0: dfe2 38bc cb02 28bd f341 043b c5d9 29bd
000000b0: 0d0f 30bd 6f49 c6bd 8680 86bc 6bf3 a4bc
000000c0: 5f16 433e 1763 703d 40a3 cbbc a718 493d
000000d0: 50f9 073c 98bc 7ebd b4e9 573c a3a5 103d
000000e0: 2a6a 8cbd 9002 c7bc b03f 033d 5f97 9fbc
000000f0: a58e bb3d 5f40 933c 4c58 ccbd 93bb 7bbd
00000100: 4149 ce38 6f4e a43c 9a6d a6bc fc26 ba3c
00000110: cc49 543d cd1a 9cbd b1c5 663d 6f87 14bd
00000120: 5bc9 8abd 9ba2 9fbd 9c68 b138 bd33 b6be
00000130: c974 54be c143 b73c c8c5 8ebd 7f29 8dbb
00000140: 2911 cebc ed4a bbbc d394 86bd 7909 4cbe
00000150: 6020 57bd 3f09 9fbd 7d18 4fbe c9ff e1bd
00000160: b5b6 a8bc e311 0abe 8041 f1bc ba4b 2b3d
00000170: 00d9 0b3d f06e 27bd 82f5 eaba 7dc8 f8bd
00000180: 1d8d 243d 6643 2b3e a5b5 e4bc 8bcb e73b
00000190: 327d ba3c 6fa7 0c3d 236b 31bd 53f6 8b3c
000001a0: eb3b ac3d cf3d a13d 2fe1 1abd e106 873d
000001b0: 4970 71bc 1933 bd3d 7425 ecbd 4fb3 fcbc
000001c0: 8bcf ba3c 6525 a0be 40f3 66bc 0bd6 58bd
000001d0: 2d69 33be eb7e 00be d5fe 15bd 76e3 02be
000001e0: dc78 123e 5d22 eebd d69c abbd 3f74 663a
000001f0: 4a97 85be 26d1 dfbc fe8c 073e e375 4cbd
00000200: 0647 68be 874b 1d3d f3a7 c5be 3391 5bbe
00000210: 66ff 69be 8dad 95bd 6edc 7bbe 75f4 f3bb
00000220: 6cb8 0b3e e753 503d 10f7 cd3d b7ac 1a3c
00000230: e395 6ebd 19b5 c0ba a843 3fbc 26a7 84ba
00000240: 1d66 09bd 69eb 1cbe bf8f b53b 8229 c4be
00000250: a5c5 66bd 8674 a0bc 642e fcbd 198a fe3d
00000260: dde3 3abd 8bd9 043c 0099 9bbd eaeb cbbb
00000270: a50d 96bc e943 abbc 3d1d 553d 40c8 6e3d
00000280: dad8 873c fb54 a2bd 04f1 c1bd 20a5 5bbd
00000290: fd06 9ebd 70c2 4a39 0b60 8bbc 5719 09bd
000002a0: 2f0a b3bd fa53 01bd 5303 353d 9e7f 27bd
000002b0: d468 d1bd bfd1 95be 9586 e0bd 997c 0c3e
000002c0: 7a44 94be a2f5 3ebe cb8e 523e 82c3 94be
000002d0: f52e d73c 7de2 863c ea9e 49bd 48bf 633d
000002e0: d64a 45bc ec23 a5bb 3846 80bd 0b2f 3d3d
000002f0: f051 a13a 6ce8 00be 70b1 9bbd 47d5 d2bd
00000300: 4121 08be 1bdc 5bbd 05e7 78be e447 a0bd
00000310: 1bdb e73d d680 2dbc 0e61 2bbd 63cd 25bd
00000320: 8433 f2bc 4e36 f83c 3eba 1d3d 7bbb 4b3d
00000330: 6943 73bd 1a01 db3b 3b87 c83d ac84 193e
00000340: fdd9 0d3e aa9f 0cbe a37f d23c 64c7 a6bd
00000350: 3a9f 253d f4cc ab3b 85ae a33c 14e0 183b
00000360: c340 8b3d 1493 8e3d 252c 1f3d 20c2 a3bd
00000370: ea73 09be 648e 2b3d 9b3c c4b8 e178 d4bd
00000380: 39d1 2c3d db25 01be 236d 643d bc18 89bd
00000390: 3f14 9d3d 0b38 f33d a45c c8bd eca8 cf3c
000003a0: a6ef 13bc fa37 f7bc 943d 11be a3fe afbd
000003b0: 8bad dabc 4153 0bbe 604f a9bd 6301 1fbd
000003c0: a49f 3ebe 7cb6 b8bd b802 963d 4c54 b6bb
000003d0: f8a2 193d 98c7 5538 68ce da3d a647 383d
000003e0: 4706 d93d 3a3f 67bc d335 e53c 1d74 ad3d
000003f0: d727 d6bd 370d 50bd 061a b93a 7f55 dbbd
-0.33498847 0.18106264 0.15875462 -0.031839516 0.11372513 -0.012557199 0.047000907 0.06253922
0.1313599 0.046278458 0.03423944 0.07281496 0.008670599 0.08313786 0.0010155939 0.09592972
-0.04985554 -0.10137094 -0.019202713 -0.047517084 -0.09247847 0.0021597361 0.25619897 -0.034555852
-0.24276061 -0.15200838 -0.038288638 0.11957977 0.06473356 -0.064069025 -0.019686349 0.011179661
0.052353702 -0.010949208 -0.025540553 0.04920829 -0.060146235 0.009221037 -0.06598123 0.09798525
-0.011284559 -0.04101829 0.002018091 -0.041467447 -0.042983104 -0.09681975 -0.016418707 -0.020135602
0.19051503 0.05868825 -0.024858117 0.049095776 0.008299187 -0.062191576 0.013178278 0.035314213
-0.06856187 -0.024293214 0.03204316 -0.019481359 0.09158067 0.01797503 -0.09977779 -0.06145818
9.83649e-05 0.020056931 -0.020315934 0.022723667 0.05182819 -0.07622299 0.056340877 -0.036261972
-0.06776687 -0.077946864 8.459503e-05 -0.35586348 -0.20747675 0.022371175 -0.069713175 -0.0043079252
-0.025154667 -0.022862876 -0.06571355 -0.19925489 -0.05252111 -0.077654354 -0.20224185 -0.11035115
-0.020594934 -0.13483386 -0.029450178 0.041820265 0.034142494 -0.040877283 -0.001792595 -0.12147615
0.04017364 0.16724929 -0.027918646 0.0070738248 0.022764776 0.034339365 -0.043315064 0.01708523
0.08409866 0.07873117 -0.037812408 0.06593109 -0.0147362435 0.09238262 -0.11530581 -0.03084722
0.022804042 -0.3127853 -0.014096081 -0.052938502 -0.1752059 -0.12548415 -0.03661998 -0.12782082
0.14303917 -0.11627648 -0.083795235 0.0008791126 -0.26091987 -0.02732141 0.13237378 -0.049917113
-0.22683343 0.038402107 -0.38604698 -0.21442108 -0.22851333 -0.07308493 -0.24595806 -0.007444913
0.1364457 0.050861266 0.10056889 0.0094405925 -0.058248412 -0.0014702409 -0.011673845 -0.0010120615
-0.03354465 -0.15324177 0.0055408175 -0.38312918 -0.056340832 -0.019586813 -0.12313536 0.12428684
-0.045627464 0.008108507 -0.07597542 -0.0062231915 -0.018317053 -0.020906406 0.052029837 0.058296442
0.016582895 -0.07926365 -0.09469798 -0.053624272 -0.07716177 0.00019336655 -0.01701357 -0.03347143
-0.08742177 -0.031574227 0.044192623 -0.04089319 -0.102250725 -0.29261586 -0.109631695 0.13719405
-0.28958493 -0.18648389 0.20562284 -0.2905541 0.026267508 0.01646542 -0.049223818 0.055602342
-0.012041768 -0.0050396826 -0.06263393 0.04618744 0.0012307744 -0.12588662 -0.07602203 -0.10294586
-0.13293935 -0.053676706 -0.24306877 -0.07826212 0.11321088 -0.010589799 -0.041840605 -0.040479075
-0.02956558 0.030299332 0.038507693 0.049739342 -0.05939046 0.006683481 0.09791418 0.14992017
0.13852687 -0.13732782 0.025695628 -0.081434995 0.040435053 0.005242938 0.019980678 0.002332692
0.06799462 0.06961647 0.03886046 -0.07996011 -0.13423124 0.04188384 -9.357297e-05 -0.10374618
0.042191718 -0.12612097 0.055768143 -0.06694171 0.07669877 0.11875924 -0.09783295 0.025349103
-0.009029305 -0.030178059 -0.14183646 -0.0859349 -0.02669408 -0.13605978 -0.08267093 -0.03881968
-0.18615586 -0.09019181 0.07324737 -0.005564248 0.037508935 5.0969044e-05 0.106839 0.044990204
0.105969004 -0.0141141955 0.027979767 0.084694125 -0.104568176 -0.050793853 0.0014122135 -0.107096665

bias f4 [64]
00000000: e7cb 15bc dce5 933c 0ed7 f5bc 12df 7abd
00000010: b79e 0e3e 8d5b 8d3a 3153 3bbd 7c87 033e
00000020: ad03 f83d f4ef 133e 83b3 f93c 98a1 1b3c
00000030: 7293 2d3c b1cf b23b dcf8 fbbb c32b b6bc
00000040: cdaa bdbc 9a90 16bc 0ea4 74bd ed4e 6bbd
00000050: 6ccd c23d 3282 3dbc 1266 0f3c 4e0a 66bd
00000060: fea2 14bd 2265 34bc 3723 b43d 17db 1d3d
00000070: a1f9 6f3e fc5f cbbc 278a a93b fbb6 5fbc
00000080: b5ba 033d e415 153e 3036 5bbd 6b16 03bd
00000090: 1b85 ce3c 679e 0a3e c17d 8fbd 2fac 9dbc
000000a0: f4d0 133e a3f6 71bc a192 b23e be68 49bf
000000b0: b84e f73a 608f ae3d 72d6 123b 19f8 b13c
000000c0: de29 2339 679e 4cbd ffbc 0f3d 5b1d d13c
000000d0: b5af a6bc 2da1 e33c 6656 3338 bf67 b03d
000000e0: 3c24 2e3d c76c 96bd e0df 483d 0992 d83c
000000f0: 011a 9e3d 70cd 4f3c da3d eabb bd01 f7bc
-0.009142852 0.018053941 -0.030009773 -0.061247893 0.13927732 0.001078473 -0.045733634 0.12844652
0.12110076 0.14447004 0.030481106 0.009498976 0.010594236 0.0054568877 -0.0076895785 -0.022237664
-0.023152733 -0.009189749 -0.059726767 -0.057448316 0.09511837 -0.0115666855 0.008752363 -0.05616217
-0.036288254 -0.01101044 0.08795779 0.03853902 0.2343507 -0.024826042 0.0051739397 -0.013654466
0.03216048 0.14559132 -0.053518474 -0.0320038 0.025209954 0.13536988 -0.070064075 -0.019247143
0.14435178 -0.014768275 0.34877494 -0.7867545 0.0018868065 0.0852344 0.0022405651 0.021724747
0.00015560488 -0.04995575 0.03509235 0.025526693 -0.020347456 0.027786816 4.275739e-05 0.08613538
0.042515025 -0.073449664 0.04904163 0.026436822 0.077198036 0.012683257 -0.0071484866 -0.030152196

weight f4 [64, 64, 3, 3]
00000000: 8a4c 41bb 7e26 803d c7c1 5ebd cb09 9dbd
00000010: 966e 4abe 39b6 f93c e570 9bbb b43f e9bd
00000020: f0f1 a73b 4083 f33a a6f9 28bc 1eda dd3b
00000030: 2291 863c 5bfe dcbc 4ba1 61bd 3a6b 893c
00000040: 87ea 41bd 1c30 333c b1e9 593d 68c3 803c
00000050: 970f e63d 5f61 1c3c 6112 7c3d 2cf7 acbd
00000060: 4a4d 52bd 4c76 80bd 0118 6cbc f64f 9e3d
00000070: ad45 c13a 4cca ee3c 4e5a dcbb 22b9 b4bc
00000080: 1c3e 573d e2d4 9cbd 7f67 cebc 8ebd 4abd
00000090: f037 2b3c b916 eb3c e7ca 88bc 4236 9abd
000000a0: 3932 a3bd e0be 7ebd 5192 90bc b9ea f5bb
000000b0: 83f6 91bc d331 f5bd 62c9 983d 1643 f53c
000000c0: 66e9 3e3d f43e 80bc 5db6 e93c 027a a8bd
000000d0: c4e7 4fbd 448e c73c 5bcc 9bbd 1f44 4a3c
000000e0: aa7c 9f3c 3eda 4c3c 89db d13c 60d4 7abc
000000f0: 48b2 cc3c 7685 3cbd 8fac 073c de99 5f3d
00000100: 7a95 9bba 3995 2cbc 5a28 a23c 770c bebc
00000110: 9396 a63d a0a7 8d3c 49cc b8bd 23b7 1abe
00000120: b3bc 92bd 4958 513c 24f0 263d 6fc9 c9ba
00000130: 6393 23bd 3a91 8b3d d72b ddbb d9df 8bbd
00000140: 870d b2bc 2427 77bd 8edf eebc bd5f 72bd
00000150: 2918 3d3e e9bd 723c 0603 bd3c 37fa ebbb
00000160: d346 823d 05b1 2abd 0e01 85bb 7b18 99bd
00000170: 1882 47bc 972c e73c 9a4c 013e 32c7 3b3d
00000180: 6459 22bd 7586 61bd 9f84 47bb 23e2 0b3d
00000190: 9543 8abd 85fb 213d 145b b23d ecfa 9c3c
000001a0: 3f82 de3b 1736 7ebc 59eb 6a3d 4506 0ebd
000001b0: 268b 67bd afbc 4abc 8d97 37bd 6d57 b1bd
000001c0: 40cf 7fbd 7837 08bd 4b65 8cbb 1908 ccbd
000001d0: 8480 94bd fb38 4dbd e644 e73c b759 283d
000001e0: 9acb 83bd 6933 e8bd c8d0 53bd 9766 033d
000001f0: 3145 423c aca3 2fbd 3e00 0c3c be88 21bd
00000200: 8ac6 d2ba 6565 07be 0b96 343c 9f72 2e3c
00000210: 9a62 d0bd 6008 0e3c 8998 ab3d 3865 2fbc
00000220: 1b2e c6bd e13b 9abd f10a cc3c e27d 8ebd
00000230: dfa6 f3bc 4c41 cfbc b2f6 c5bd 74af 9f3d
00000240: c413 083d b1d9 78bd 1793 9e3c 2122 9fbd
00000250: 5946 0bbb 43e9 8fbd 2b16 52bd a483 e0bc
00000260: f9c0 dd39 3935 d4bc 8b39 b1bc d9bd 7e3d
00000270: f27b 123d f739 3d3c 5d1a 8bbc 5789 573d
00000280: 089f f2bb fdd5 64bd e584 f7bb e656 b9bb
00000290: a629 fcbd 17b2 d13b a172 d2bc 9194 64bd
000002a0: f03f bd3c a076 cdbc 0f49 6fbc f6d6 cb3c
000002b0: aceb 1abd 2018 4a3c c441 023d 3b70 4e3d
000002c0: 17d4 a3b9 d2bb 2a3d f260 f6bd f408 7ebc
000002d0: 06b2 ba3c b6ed c13c 1558 a8bd e6f4 853d
000002e0: 0850 03be 65a0 11bc e2f5 e53d 1566 293b
000002f0: 27ce 8cbd 2abf 34bc ab31 a5bc 2f25 16bd
00000300: bdd9 17bc a970 c3bc ffe6 00bd ba6e c43d
00000310: 9ff8 95bd 3166 7abc 9186 793d f603 c73b
00000320: cd73 e5bc 76fa de3c 0053 2c3b 963f c7ba
00000330: ef66 bdbc a983 bfbc fd7c bb3c 300b 8fbd
00000340: 8119 9b3d eb4b b83d 14c3 3abc 9688 88bb
00000350: 07a2 813d 22d3 86bd 7133 8ebd 02ac e6bc
00000360: 97ae 40bd 733c 9fbd 67be 493d 3c3f fc3b
00000370: c585 3bbd cd2b b7bd 00d2 4ebd 2ad0 e9bc
00000380: 2e27 13bd 8af8 95bd 2301 bd3d a4dd d5bc
00000390: 0537 f53c 8fbe 983d 0d2e 9abc 922d 4abd
000003a0: c586 07bd 1492 29bd 97cf 3f3c 484d debc
000003b0: a4a6 cabc 020e 883c 8457 86bd d4f0 82bd
000003c0: a1f7 2dbd 8ae3 85bd 56f2 f9bc 0e93 7bbd
000003d0: 7918 ecbd 6269 abbd 00b3 b2bd 1395 4ebe
000003e0: 90a6 c5bd 27bb 5bbc 3ec7 19be 4c57 38be
000003f0: 03b0 803c 62e2 243d 3eea 12be b42b 79bc
-0.0029495084 0.06257342 -0.05438402 -0.076678835 -0.19768748 0.030482398 -0.0047436827 -0.113891035
0.0051252767 0.0018578544 -0.010313427 0.0067703864 0.016426627 -0.026976755 -0.05508546 0.016774762
-0.047342803 0.010936763 0.05320138 0.015718177 0.11233442 0.009544699 0.061540965 -0.08445582
-0.05134324 -0.06272563 -0.01441002 0.07730095 0.0014745496 0.029149197 -0.0067246323 -0.022060934
0.052549466 -0.07657792 -0.025195835 -0.04949718 0.010450348 0.028697358 -0.016698314 -0.0752988
-0.079685636 -0.06219375 -0.017647894 -0.0075047878 -0.017817741 -0.11972394 0.07460286 0.029939216
0.046609305 -0.015655018 0.02852934 -0.08226396 -0.05075814 0.02435983 -0.07607337 0.012345343
0.019468624 0.012503205 0.025617378 -0.015309423 0.024987355 -0.046025716 0.008280887 0.0545901
-0.0011870109 -0.010533624 0.019794632 -0.023199303 0.081341885 0.017291844 -0.09023339 -0.15108924
-0.07164898 0.0127773965 0.04075636 -0.0015395115 -0.03993548 0.06814809 -0.006749611 -0.06829805
-0.021734966 -0.06034006 -0.029159334 -0.059173334 0.18466248 0.014815786 0.02307273 -0.007201459
0.06361165 -0.041672725 -0.0040589636 -0.074753724 -0.012177013 0.028219504 0.12626877 0.045844264
-0.03963603 -0.05505987 -0.0030444039 0.034151208 -0.067511715 0.03954651 0.08708778 0.019162618
0.006790429 -0.015515826 0.05735335 -0.034673948 -0.056529187 -0.012374087 -0.044822264 -0.08659253
-0.06245351 -0.033256024 -0.004284536 -0.09962482 -0.07251075 -0.05010317 0.028231096 0.041101184
-0.06435318 -0.11337931 -0.05171278 0.03208026 0.011857317 -0.0428807 0.00854498 -0.039437048
-0.0016080898 -0.13222273 0.011022101 0.010647445 -0.10175057 0.008668989 0.08378703 -0.010705285
-0.09676763 -0.07530952 0.024907561 -0.06957604 -0.029742656 -0.02529969 -0.09666194 0.07797137
0.033221975 -0.06075448 0.019357247 -0.077701814 -0.0021251647 -0.07026913 -0.051290672 -0.027406521
0.0004229618 -0.025904285 -0.021633884 0.06219277 0.035762735 0.011549464 -0.016980344 0.05262121
-0.007404212 -0.055868138 -0.007553684 -0.005656111 -0.12312631 0.006399404 -0.025689425 -0.055805746
0.023101777 -0.025080979 -0.014604821 0.024882775 -0.03782241 0.012334853 0.031801 0.0504
-0.00031247802 0.041683026 -0.120302096 -0.015505064 0.022789966 0.02367292 -0.08219925 0.06540851
-0.12823498 -0.008888339 0.11228539 0.00258482 -0.06875258 -0.011031905 -0.020165285 -0.036656555
-0.009268221 -0.023857431 -0.031470295 0.09591432 -0.07322811 -0.015283153 0.06091935 0.00607347
-0.02800932 0.027219038 0.002629459 -0.0015201445 -0.023120372 -0.02337821 0.022886747 -0.06984556
0.07573224 0.08998855 -0.011399049 -0.004166673 0.063297324 -0.06583239 -0.069434054 -0.028158192
-0.0470415 -0.07775202 0.049253847 0.007697968 -0.04578187 -0.08943901 -0.05049324 -0.028541643
-0.035926037 -0.07322796 0.092287324 -0.026106663 0.029933462 0.07458221 -0.018820787 -0.049359865
-0.03308751 -0.041399077 0.011707208 -0.02713646 -0.024737664 0.016608242 -0.06559661 -0.063935906
-0.042472485 -0.0653754 -0.030511063 -0.06141954 -0.11528105 -0.083697096 -0.08725548 -0.20174055
-0.0965091 -0.01341132 -0.15017411 -0.18002051 0.015708929 0.040254958 -0.14347169 -0.015208174

bias f4 [64]
00000000: e4fa 4e3d 2446 b13d a52b dabc 697a 97bc
00000010: b379 b23d d92f 64bd 9218 4ebc a696 e7bc
00000020: 1220 2cbb 32d0 d93c b620 1c3d d304 b0bc
00000030: 664b 3bbc bf36 52bd 99db ac3d afaa ddbd
00000040: cce6 4fbd 2b19 8cbc 626a d1bc 247f 39bd
00000050: bf5d a93d 5b63 8abd 61c4 b4bc 9758 1fbc
00000060: e4e8 17bd c4cc 953d 99d6 9ebd eb10 543d
00000070: 11ce 74bd 1c60 a8bb de73 723b 66b4 3b3d
00000080: ee91 8e3b e271 09bb d9e7 6b3c d467 6f3b
00000090: 67fc f4bc 6279 013c 4e0d fdbd 5fe3 04bc
000000a0: 46b0 c73c 7bc6 93bc a612 483e 7c8d 58be
000000b0: 5d88 a6bc f26b 75bd f58c 53bd c076 0c3d
000000c0: 57c0 853d 7056 c13d 35e3 f7bc 70f9 f2bc
000000d0: 1cad 503d 6cdf c33e 90f2 223e 9f29 323d
000000e0: 7982 883d c098 2b3d f576 f3bc 88a2 8a3d
000000f0: ace0 99bd 36fe bc3d f5b2 80bd 8b87 963d
0.050532237 0.086559564 -0.02663214 -0.018490987 0.087146185 -0.055709694 -0.0125791 -0.028270077
-0.0026264233 0.026588533 0.038117133 -0.021486675 -0.011431551 -0.05132174 0.084403224 -0.10823571
-0.050757214 -0.017101845 -0.025563423 -0.045287266 0.08269834 -0.06757232 -0.022066297 -0.009725711
-0.037087336 0.073144466 -0.07755775 0.051773947 -0.059766833 -0.0051384103 0.0036995332 0.04582634
0.0043508923 -0.002097242 0.0143985385 0.0036530392 -0.029905511 0.007902475 -0.12356053 -0.00811085
0.024376046 -0.018038979 0.19538364 -0.21147722 -0.020328695 -0.059917398 -0.0516481 0.034292936
0.065308265 0.09440315 -0.030259708 -0.029659957 0.05094634 0.38256395 0.15912843 0.043496724
0.06665511 0.04189372 -0.02971981 0.067692816 -0.07513556 0.092281744 -0.06284133 0.073500715

weight f4 [64, 64, 3, 3]
00000000: 126a f8bc 7a40 c23b ffee 5cbd eb88 363d
00000010: a55d c2bd ca97 81bd 892e f8bd 9fdc b53c
00000020: fe44 c63c 2b1a 3f3d 3b59 02bd f9c9 353d
00000030: 7e48 a83a 7b42 a3bc bdca 4abd dc6f 8bbc
00000040: f9e6 293d 216b b4bd c509 debd 21e7 5b3c
00000050: f3e4 ad3d 9c51 cabc f5de 03bc a509 54bb
00000060: eb57 ebbc 539e 943c 3c3b 88bd b575 183c
00000070: 4038 41bd b58d 913c dd3c 6fbd 3eb1 9abc
00000080: d7ae 633d dea6 763d e95c 81bd cab0 15bd
00000090: 3ce3 463a e060 c83b eab7 0e3d ab92 10bc
000000a0: 549f 0e3d 0a3f 3cbc 9f92 ad3c ae12 273d
000000b0: bc24 603c b3fd da3c 5ed3 753c 6341 3ebd
000000c0: 1918 96bb 02e8 cd3a 8784 79bb 3146 83bd
000000d0: d428 24bd 69d8 bfbd bd19 e8bc 0bf4 ff3c
000000e0: 066a e4bc dce7 dbbd 3169 83bd 912b c03d
000000f0: a798 883d 7090 a3bb c6b9 02bd 1033 e53c
00000100: 4a54 b0bd 0bf3 4e3d f712 203d 93ae 8d3c
00000110: 27a9 9fbc 4a50 b8bc a465 2fba 1288 71bd
00000120: dfef 16bd dd20 00be e7e5 2abe 3a99 08be
00000130: 9fc0 00bd d821 ddbd 1908 34bd 7c24 c43b
00000140: 472c 5bbc bcbb 303d d0c5 053d 7e1a e7bc
00000150: d2a2 b1bc 636f d3bc 1892 babc fce7 bebd
00000160: 65e8 033d 5482 99bd da1a c83c 1143 f0bc
00000170: d5f4 92bd 459b db3c 20c0 21be 6f95 afbd
00000180: 6da4 90bd e13e d23c 2346 5f3b 4cd0 063c
00000190: 3588 7a38 9a71 dabd 2d19 edbc f675 f23a
000001a0: a8d1 69bd 9488 71bb 12ea a63c a1a5 77bc
000001b0: abaf 72bd 5046 9abc e478 6e3d fe66 9dbd
000001c0: 726c ccbd 01a4 86bd fc99 1fbc 1f65 1ebd
000001d0: 3572 d2bc 2bbd 80bb c15b 853d 9454 98bc
000001e0: 3797 5bbd d7d0 533d fa16 fbbc 669e b73b
000001f0: f126 87bc d73b 18bd 562d cabd c5eb 83bc
00000200: f7ef 8b3d 8878 6a3d cbe0 babd bfb1 073d
00000210: 8feb 82bd 78fd 63bd 55f8 72bd 57db fdbc
00000220: bc7c 3d3d acf1 993d 0297 9fbb 7f01 4f3c
00000230: 50df 94bc 6ac5 99bd 929c 0a3e a23a 00be
00000240: fbe2 5c3d bdf2 b2bd 9232 883d 7f44 ee3c
00000250: 67a9 37bd d1f3 79bc 8a7c 2fbd 8a42 acbc
00000260: 7f44 cbbc 9ae1 e5bc 354a a2bd e184 97bd
00000270: bcb7 edbd 09a3 91bd 0725 c43c 5b4e 833d
00000280: 7783 d93d 1ff6 4a3c ee05 ccbc da4d 173d
00000290: b5b2 8fbd 4230 ba3d 85c2 3e3c ab4a 0f3d
000002a0: 8720 e73d b9d5 47bc 8ec3 5e3d 6ef2 f5bc
000002b0: b3bf 423d a192 39be 6292 36bd a246 b4bd
000002c0: 11fb 573c 3d66 a33d 3af1 9bbc 3176 b53c
000002d0: cf7f babc 09f8 7fbc b478 bdbc 88c0 08bd
000002e0: 903e b13b 04cd 2ebd cfb0 bd3d d9d0 28bd
000002f0: cbcb c73c 1455 533d 6efd 7dbc 8b2b 21bd
00000300: e9d9 5abd c751 6a3c 5e3d c53d aacd 7fbd
00000310: d51b 863d db61 083e 3c93 fa3c 83fd 9b3c
00000320: b07a 0a3d 98ea 11bd 772b debc dcac 72bd
00000330: 56d0 973d 4385 373d ada3 da3c 8718 dabd
00000340: 9af2 3a3d f8d7 13be cc7b 113e df18 90bc
00000350: 2255 a1bc 046e ba3d 824f 143e a8db 223d
00000360: e6d2 113c 0ab7 803b 1448 7abd 5937 273d
00000370: 255b 5dbd 3f6f 1cbd e915 be3c a953 373d
00000380: e4b3 a4bd 77c4 1abd bc8d cabd 8c6e 7d3d
00000390: 461b 8e3c 4dfa b2bc 593f afbc 34ba 753d
000003a0: 024f 673d 0381 46bd 468a 28bd 9f31 8d3c
000003b0: 3c9b 52bd 93db 24bd d452 10bd cff9 ee3a
000003c0: f414 ac3c 39ad 63bd 5692 8c3d da40 5fbc
000003d0: a87c 5e3c 697f 80bc 631d bcbc 10bf 9ebc
000003e0: 01e5 30bd 1a3d 383d 24cb 33be a8f3 83bd
000003f0: 316a 273d 7034 72bd 7868 4cbd 8994 b3bd
-0.030324016 0.0059280964 -0.053938862 0.04456417 -0.094905175 -0.063277796 -0.12118251 0.022199927
0.02420282 0.046655815 -0.031823378 0.04438207 0.0012838987 -0.019929161 -0.049509753 -0.017021112
0.04148004 -0.08809496 -0.10841707 0.013421805 0.08490934 -0.024697118 -0.008048763 -0.0032354381
-0.028728446 0.018141901 -0.06651923 0.009305407 -0.047172785 0.017767766 -0.058407653 -0.018883344
0.055586662 0.06021773 -0.06316549 -0.036545552 0.0007586961 0.006115064 0.034843363 -0.008824031
0.034819916 -0.011489639 0.021188078 0.0407893 0.013680633 0.026732301 0.015004007 -0.046449076
-0.0045805094 0.0015709403 -0.0038073377 -0.06409872 -0.040078 -0.09367449 -0.028332585 0.031244298
-0.027882587 -0.10737583 -0.06416548 0.0938331 0.06669741 -0.0049915835 -0.03191545 0.02797845
-0.08609827 0.050524753 0.039080586 0.017295158 -0.019489838 -0.022499222 -0.0006690866 -0.058967657
-0.036849853 -0.12512536 -0.16689263 -0.13339701 -0.031433698 -0.10797471 -0.043953035 0.0059857946
-0.013377256 0.043147787 0.03265935 -0.028210875 -0.021684084 -0.02580995 -0.022774741 -0.09321591
0.03220405 -0.07495561 0.024426866 -0.029328855 -0.07175604 0.026807437 -0.15795946 -0.08573424
-0.07062612 0.025664749 0.0034068904 0.008228373 5.9731497e-05 -0.10666199 -0.028942669 0.001849829
-0.05708471 -0.0036855089 0.020375285 -0.015115173 -0.05924956 -0.018832356 0.05822076 -0.0768566
-0.09981622 -0.0657425 -0.009741303 -0.038670655 -0.025689224 -0.0039288006 0.06511641 -0.018595017
-0.053611007 0.051712837 -0.030650605 0.0056035994 -0.01649806 -0.037166443 -0.098719284 -0.016103635
0.06832879 0.057243854 -0.09124907 0.033128496 -0.063925855 -0.05566165 -0.05931886 -0.030988378
0.046261534 0.075167984 -0.0048702965 0.012634634 -0.01817289 -0.07508357 0.1353629 -0.12522367
0.053927403 -0.08737705 0.066502705 0.029085396 -0.04483929 -0.015255884 -0.04284338 -0.021027822
-0.024812935 -0.028061677 -0.0792431 -0.073983915 -0.1160731 -0.071111746 0.023943437 0.064114295
0.10620778 0.012387781 -0.024905171 0.03693948 -0.070165075 0.09091236 0.011643057 0.03498332
0.11285501 -0.012196952 0.054385714 -0.030022826 0.0475461 -0.1812234 -0.044573195 -0.08802535
0.0131824175 0.07978485 -0.019035924 0.022151085 -0.022766022 -0.015623101 -0.023128845 -0.033386737
0.0054090694 -0.042675987 0.09262239 -0.041214798 0.024389168 0.05159481 -0.015502317 -0.039348166
-0.05343047 0.014301724 0.096308455 -0.062451996 0.06548277 0.13318579 0.030587785 0.019041782
0.03380841 -0.035624117 -0.027120335 -0.059246883 0.07412784 0.044804823 0.026689375 -0.106492095
0.04564152 -0.14437854 0.14207381 -0.017589984 -0.019693915 0.09103015 0.14483455 0.03976026
0.00890038 0.00392807 -0.061103895 0.040824268 -0.054042 -0.03819203 0.023203807 0.04475752
-0.08042124 -0.03778502 -0.09890315 0.061873004 0.01734699 -0.021847868 -0.021392511 0.05999203
0.056471832 -0.04846288 -0.041147493 0.017235575 -0.051417574 -0.040248465 -0.03523524 0.0018232408
0.021006085 -0.05558512 0.06863849 -0.013626302 0.013579525 -0.015685754 -0.022963231 -0.019378215
-0.043187145 0.044980146 -0.17557961 -0.06442958 0.040872756 -0.05913204 -0.049904317 -0.08768565

bias f4 [64]
00000000: 5c3a 44bd c182 48bc af3b 89bd b12a d5bc
00000010: 90a5 92bd 097a 05be 318c 503c 3659 f53b
00000020: 610d 6b3c 032c 2fbd a409 8ebc e8d6 05bd
00000030: 4ed5 2cbd 76aa e43d 306c 7cbc 9845 0e3d
00000040: dd28 82bd c427 66bd 92e2 bbbb a778 e8bc
00000050: 01bf 25bc 3684 f2bd 58ff 21bd 9330 573d
00000060: f071 95bb 7702 ed3c a09f 90bd 18fe 063d
00000070: 8cd0 18bd 78d9 fabc 4278 fb3a 7b1c 323d
00000080: 8eab 70bc 5b6a 82bc cc07 74bd 03b4 85bd
00000090: 16f7 93bd cb8b 253c 6026 9d3b d4b1 82bc
000000a0: 8563 8fbc 8216 ba3d e503 ef3d ce62 f5bc
000000b0: 1045 0d3a 2193 c53c 7aca 75bd c9cd ddbc
000000c0: cb94 5dbd 236b fabb 5345 5fbd b94f 903b
000000d0: 0b8a 95bc 9f0c 5cbd 2931 ecbd f9f7 173b
000000e0: ee0b 06bd 0bc6 10be 509c 5bbd 9ad4 25bd
000000f0: d125 3abd 070d bbbc c7e0 22bd 0ab0 0e3b
-0.04790722 -0.012238205 -0.06700837 -0.026021333 -0.07160485 -0.13034834 0.012728737 0.0074874414
0.0143464515 -0.042766582 -0.017338581 -0.032675654 -0.04219561 0.11165325 -0.015406653 0.03473434
-0.0635545 -0.056190267 -0.0057337964 -0.028377844 -0.01011634 -0.118416235 -0.039550155 0.05253656
-0.0045607015 0.02893184 -0.07061696 0.032957166 -0.03730826 -0.030621275 0.001918562 0.043484192
-0.014689339 -0.015919855 -0.05957775 -0.06528475 -0.07224862 0.01010413 0.0047958344 -0.015953936
-0.01750351 0.09086324 0.11670665 -0.02995434 0.0005389014 0.024118008 -0.06000755 -0.027075665
-0.05409698 -0.007642166 -0.054509472 0.004404035 -0.0182543 -0.053722974 -0.11532814 0.0023188575
-0.03272622 -0.14138047 -0.053615868 -0.040485956 -0.04544622 -0.02283336 -0.039765146 0.0021772408

weight f4 [12, 64, 3, 3]
00000000: 37f5 32bd 0adb a1bb 5ba2 cb3c 83b0 8b3c
00000010: a65a 9e3c 2861 33bc 0ee9 96bb 1678 5ebc
00000020: 05bd 5f3c b568 22bd 428a 9a3d cb38 f73b
00000030: d0f0 76bd b83d bd3c 737d 9d3c 0586 e43b
00000040: 18c4 e3b8 162f 10bd 4a00 33bd e569 df3c
00000050: 1406 f5bd 40cc 143d 3517 b53d 6a63 a9bd
00000060: 3eb9 0d3d f4a0 573d 3f45 253d 4712 4dbb
00000070: c39c 7e3d 15e3 5cbd 253b 9e3c c5cb a8bd
00000080: ba16 9b3e b4d8 efbb e06c 493c 3624 e9bd
00000090: b9ce a93d f790 1c3c 14e5 4fbd e3aa 5f3d
000000a0: 4f66 543d d2bd a0bd 1996 01bb e453 e4bc
000000b0: 3cfd 9dbc bf78 f0bb 08b0 6bbb 4c8c e0ba
000000c0: 9e5c 7cb8 a8da b03d 805f b43a fd53 223c
000000d0: 6b2f 18bd 5f39 ac3a 323b c13c f2f4 33bd
000000e0: 7f1d db3b 9ba0 483d 6e45 5cbd 4daf f83c
000000f0: 8b52 783d a3a2 393b 9901 4f3c 69ce 0a3d
00000100: 3d11 0b3b 39ad 6a3b f5b4 5dbc bf91 ea3d
00000110: a42c 7dbc 458d 093d 6cfa 51bd 6ce0 9e3c
00000120: 8c90 49bd f69b 54bc 365e b3bc 64e7 003e
00000130: 8f53 893b 0284 f2bc 756d 033e 3d9f c5bd
00000140: 3a23 01bd 489f 833c 8a29 7bbd 0935 393c
00000150: ec87 1ebd 5c02 763d 6832 09bd 1aeb 923c
00000160: 8537 a73c f112 013d 314f 883d e427 ebbb
00000170: b71f 2fbd ad74 13bc 21b4 a6bc e21e 49bc
00000180: f526 fa3c a218 1c3c 2763 debc fb95 be3c
00000190: 081d 9638 aed0 e03c bfb0 dcbc 2f52 273c
000001a0: 160c f0bc f760 35bd 43c6 513d d0ca aebd
000001b0: a4c7 12bc f294 4fbd e8a1 27bd be44 9b3c
000001c0: 434b f83b f853 e73c c9ab 2f3c fcde 673d
000001d0: 4f01 0fbd 2428 d83c 8408 093d 4426 15bb
000001e0: cf4f f93c 933e c13d 0c87 d2bc dacd 5a3c
000001f0: ad07 02bc 74f5 9ebd c9cc 5bbd e2a0 833c
00000200: 2d92 073d 16ce 283b b45e 223c e627 9e3d
00000210: b09a f1bc fb44 6abc 94e9 673b 35c2 313b
00000220: 2755 36bc a33d ce3b 869e ce3d 5c24 b2bb
00000230: 044c d7bc 3034 f3bc c829 e23c 79f2 f8ba
00000240: de24 76bc abc0 5e3c 6572 e23a 149f 783c
00000250: a6c7 bb3c 79d6 a2bc d446 953c c58e ac3c
00000260: e576 d5bc 3b67 84b7 7e0b 52bb 6ccc 58bc
00000270: 3a85 54bb 92cf afbd b59f 3abc 9ac8 ca3b
00000280: 00d5 fb3c f223 fb3c 3372 1d3d dff7 303d
00000290: b1c3 083c be49 81bd 5de5 bf3b 8484 66bd
000002a0: abe7 b4bd cc76 27bb e363 cb3a 53b0 a6bd
000002b0: e02f 07bd 4e22 a2bb 63cc 8c3d 58ff ee3d
000002c0: e85d 3bbd c668 493d 38bd 3b3c 7c72 5abc
000002d0: c901 8ebd 7b83 0a3d fe1b f93c 0a0b 13bc
000002e0: 9708 c6bc 156e 043a f85a 2abc bc8f c33c
000002f0: a25d c93b 2e68 40bc bcd1 693c ae20 f7ba
00000300: 6ee4 0f3d eddb 10bc 629c 523c 942b cb3a
00000310: 6a57 93bc 205f 0c3b e5f7 a23c 478f d6bb
00000320: 88ca 96bd 35bf 563d 7e50 843d c622 e83c
00000330: 7823 c9bb bd72 5b3d 73f8 c1bd a89a 3ebd
00000340: fc26 3dbd 2bcd 2f3c f668 24bd f932 5a3b
00000350: 77f8 033d 65b3 ca3c da32 f83c 70bf 903d
00000360: ea9b 483d de24 ccbd 2141 0ebd 1d64 083d
00000370: da00 083e 5b5d 5fbe 534c fd3b 309d 053d
00000380: d5d2 c0bd 346b 733c ec1d d2bc 7233 20bc
00000390: 4b90 f33c 86c3 29bc 9405 7d3d d490 0abd
000003a0: e12a 0a3b 38ca 3cbc 8f17 d1bc 831c f43c
000003b0: d64f 413b 08d6 0abc 8ab1 b6ba 7157 0d3d
000003c0: 526b 4abd 4fee 003d 8df3 61bc 5efc 83bd
000003d0: 40a8 9a3d 3192 a7bc 99bd 0fbc a5fb de3d
000003e0: 72e6 2fbc e317 4cbd ad2f 9f3c 30df 13bd
000003f0: 3561 0cbd dcd3 573d 2c78 893d 009e e6bc
-0.043690886 -0.0049394416 0.02485769 0.01705194 0.019330334 -0.010948457 -0.004605419 -0.013578435
0.013655906 -0.039650638 0.07545902 0.007544612 -0.06028825 0.023100719 0.019224858 0.006973984
-0.00010860729 -0.035201155 -0.043701448 0.027272174 -0.1196405 0.0363276 0.08842317 -0.08270915
0.03460049 0.05264373 0.04034924 -0.0031291412 0.06216122 -0.0539275 0.019315312 -0.08241991
0.30290776 -0.007319534 0.012294024 -0.1138386 0.08291382 0.009556047 -0.050755575 0.05460633
0.05185538 -0.07848705 -0.0019773303 -0.027872033 -0.01928579 -0.007338613 -0.0035963077 -0.0017131655
-6.016774e-05 0.08635455 0.0013761371 0.00990772 -0.037154596 0.0013139657 0.023587797 -0.04393477
0.006686866 0.04898129 -0.05377715 0.030357027 0.060625594 0.0028325699 0.012634658 0.033888254
0.0021219992 0.0035808815 -0.013531913 0.1145358 -0.015452538 0.03358199 -0.05126421 0.019394122
-0.049210116 -0.012976637 -0.02189551 0.12588269 0.004190869 -0.029603962 0.12834723 -0.09649513
-0.031527735 0.016067162 -0.06131891 0.0113041485 -0.038703844 0.060060844 -0.033495337 0.01793437
0.020412216 0.031512205 0.066557296 -0.007176386 -0.042754855 -0.008999986 -0.020349564 -0.012275429
0.030536154 0.009527357 -0.027146889 0.023264876 7.157965e-05 0.027443256 -0.026939748 0.010212465
-0.029302638 -0.044281926 0.051214468 -0.08534777 -0.008958731 -0.050679155 -0.04092589 0.018953677
0.0075773313 0.028238282 0.010722109 0.05660914 -0.034913357 0.026386328 0.033455387 -0.0022758404
0.030433564 0.09435763 -0.025699161 0.013354743 -0.0079364 -0.0776166 -0.053662095 0.016067926
0.03309839 0.0025757602 0.009910274 0.07722454 -0.029492706 -0.014298673 0.0035387026 0.0027123813
-0.0111287 0.0062939688 0.1008883 -0.0054364633 -0.026281364 -0.02968797 0.027607813 -0.0018993161
-0.015023438 0.01359574 0.0017276524 0.015174646 0.022922348 -0.01987766 0.01822225 0.021064172
-0.02605767 -1.5783697e-05 -0.0032050307 -0.013232332 -0.0032428042 -0.08584513 -0.011390616 0.0061884644
0.030741215 0.030656788 0.038438987 0.04320514 0.008347438 -0.06312893 0.0058561997 -0.05627872
-0.0883325 -0.0025552986 0.001551744 -0.081391 -0.03300464 -0.004947937 0.06874921 0.11669797
-0.045743853 0.049172185 0.0114586875 -0.013332959 -0.06933934 0.033816796 0.030408856 -0.0089748
-0.024174018 0.0005051804 -0.010397665 0.023872249 0.006145195 -0.011743588 0.014271196 -0.0018854344
0.035129957 -0.008841497 0.012854667 0.0015500658 -0.017986018 0.0021419004 0.019893596 -0.0065478417
-0.073628485 0.052428443 0.06460665 0.028336894 -0.0061382614 0.05357622 -0.09471216 -0.04653421
-0.046179757 0.010730068 -0.04013916 0.0033294542 0.032219376 0.024743745 0.030297685 0.07067764
0.048976816 -0.09967969 -0.03473008 0.0332986 0.13281575 -0.21812956 0.007730046 0.03262061
-0.09415213 0.014857102 -0.025649033 -0.0097778905 0.02973189 -0.010361558 0.061772898 -0.033829525
0.0021082687 -0.011522822 -0.025523929 0.029798752 0.0029497049 -0.008473881 -0.0013938409 0.03450722
-0.049418755 0.03147727 -0.013790977 -0.064446196 0.075516224 -0.020455452 -0.008773231 0.10887841
-0.010736095 -0.049827468 0.019431913 -0.03610152 -0.03427239 0.05269228 0.06712374 -0.028151512

bias f4 [12]
00000000: e257 6a3b 3db4 9d3c 3091 0e3c b9ff 663c
00000010: 7bac 383c 974a cc3c b43c 453c 3567 d23b
00000020: 1bd9 533c 670b 3d3c 2ddf 913c bee6 9b3b
0.0035757949 0.019250983 0.008701608 0.014099055 0.011271591 0.024937911 0.0120383985 0.0064209946
0.01293018 0.011538363 0.017806614 0.004757731
