train_weight_sr4/model_epoch_9.pth (torch_old, 667646 bytes, 10 tensors)

weight f4 [12, 3, 13, 13]
000000 ca a8 57 3c 5f 55 15 be 27 19 48 3d 58 5e 8e 3b
       0.013162801 -0.14583348 0.048852112 0.0043447427
000010 29 b6 16 bd 7d 50 78 bd b4 40 2f 3d f8 24 1f 3d
       -0.036794815 -0.060623635 0.042786315 0.038853616
000020 3a 0f 13 be 79 0b f3 3d 05 1f 51 bd c3 00 42 bd
       -0.14361277 0.118674226 -0.051054973 -0.047364008
000030 85 09 8c bc fc 91 be 3c c9 89 ff bd 89 d2 d6 bc
       -0.017094383 0.02326297 -0.12477452 -0.026223438
000040 86 f5 42 bd a0 e1 83 3d 15 cb c6 3a 36 31 c3 ba
       -0.04759743 0.06439519 0.0015166724 -0.0014891985
000050 4d 91 d0 bd 71 5d 4d bd 66 d5 4d bd 65 7e a6 bc
       -0.10183964 -0.05013794 -0.05025234 -0.020323941
000060 1b 95 d1 bc ab fd b1 3b 44 7e 7e bd 59 d0 fc bd
       -0.025583794 0.005431851 -0.062132135 -0.12344427
000070 00 8c ab 3d 17 0f 6c 3d 8b 01 35 bc 16 9e 03 bd
       0.08376312 0.05763158 -0.011047731 -0.032133184
000080 d3 ec 78 3d 38 76 e8 bc 07 e8 0c bd fc 65 67 3d
       0.06077273 -0.028376684 -0.034400966 0.056493744
000090 1f 49 a2 3b 35 f0 85 bd cc 46 b7 3c 5a c6 12 3d
       0.0049525644 -0.065399565 0.022372626 0.035833694
0000a0 74 ee 00 be 89 56 8c bd 92 b5 ed 3b a7 33 64 3d
       -0.12590963 -0.06852443 0.007254311 0.055713322
0000b0 69 f8 cd 3d 84 1b 0e bd ad 64 07 be 23 6d 00 bd
       0.10057146 -0.03469421 -0.13221999 -0.03135408
0000c0 db b7 83 bd 82 44 67 3d 1e 96 fb 3c c0 13 71 bd
       -0.06431552 0.05646182 0.03071123 -0.058856726
0000d0 86 f5 e0 bd 9f ff 0e bd 59 bb 56 be 2c 5c 84 be
       -0.1098433 -0.034911748 -0.20969905 -0.25851572
0000e0 fa b7 92 be f9 82 c4 bd 72 60 0f be dd 9f f6 bc
       -0.28655988 -0.095952936 -0.14001635 -0.030105526
0000f0 84 01 9a 3c 63 7d 32 3d 57 83 90 3c 6b 08 a0 bc
       0.01879955 0.04357661 0.017640753 -0.019535264
000100 9f 27 e0 3d 02 a6 5f 3d d0 ea 9e 3d 8a af 04 3e
       0.10945057 0.054601677 0.07759631 0.12957588
000110 c9 4b e5 3c a9 e9 9f bb 5e ec a1 3d 07 53 48 bd
       0.027990239 -0.0048801494 0.079064116 -0.048907306
000120 a6 61 29 3d 87 b6 06 be 1d af 27 be f5 30 a9 bd
       0.04135289 -0.13155566 -0.16375394 -0.08261291
000130 82 ea 43 be 8e a0 15 be b6 fe f0 bc 2d 59 9d 3d
       -0.19132426 -0.14612028 -0.02941833 0.076830246
000140 33 e5 cc bd f8 88 45 bc 08 76 6d bc 87 e8 88 3d
       -0.10004654 -0.012056582 -0.014493473 0.06684976
000150 fd 9c 9e 3d 12 15 a0 3d df 7a b4 3d ff 4f 9f 3d
       0.07744787 0.07816519 0.08812498 0.0777893
000160 a6 af 26 3e c9 5f 7d 3d c4 db 70 3c fd 03 ca 3c
       0.16277942 0.061858926 0.014700834 0.024660105
000170 f2 63 02 be fb cd 34 be eb 52 e9 bd e9 c5 8a be
       -0.12733439 -0.176567 -0.113927685 -0.27104118
000180 03 b8 39 be 5d 78 79 bd 1f c8 2b bd 08 bd 9e bc
       -0.18136601 -0.060905803 -0.041938897 -0.019377246
000190 f6 7b 3a bd 86 56 9a 3d e4 9c c4 bc 37 31 80 3d
       -0.045528375 0.07536034 -0.024000593 0.06259387
0001a0 27 43 24 bd 0f dd 8f bd a0 7a ae bd 87 9f d4 bd
       -0.040103104 -0.070245855 -0.085194826 -0.1038199
0001b0 5c d8 79 bd 63 f9 0c be 00 ab 4c bd bf ed 9e 3d
       -0.060997352 -0.13767008 -0.049967766 0.0776019
0001c0 9f 49 db bd 4c 18 a6 bc 35 77 68 be 03 5e b6 bd
       -0.107074015 -0.020275258 -0.22701724 -0.0890465
0001d0 3b 58 1c be 10 61 e0 3d 93 dc f0 bd 87 40 de bc
       -0.15268032 0.10956013 -0.11760821 -0.027130378
0001e0 a4 f3 98 bd 92 5d 79 be 9a ff 5b bd 59 53 74 bd
       -0.07468346 -0.243521 -0.053710558 -0.0596498
0001f0 eb fe ac bd 71 53 2f bc 7f 5f 8b bc 12 6f 53 3c
       -0.08447059 -0.010701046 -0.01701331 0.012904899
000200 4f dc 83 bd 8e c5 fe bc 7a bc a6 bd 60 a8 51 bd
       -0.06438505 -0.03110006 -0.08141418 -0.051185966
000210 3b 59 0d be ae 95 b0 3b 77 2e 0a be e1 57 8b bd
       -0.1380357 0.005388937 -0.13494287 -0.06803871
000220 2d 9d 3d be db 94 d1 bc 75 27 ef bd d5 d3 85 3c
       -0.18516989 -0.025583675 -0.11677448 0.016336361
000230 49 3b a3 bc e3 fe 77 bc a1 d7 ab bd 20 3f 0e 3c
       -0.01992573 -0.015136453 -0.08390737 0.008682042
000240 bc 91 06 bb cf e1 fa bd 62 84 51 be 59 2f 01 be
       -0.0020533642 -0.12250101 -0.20460656 -0.12615718
000250 11 1c b9 bc 55 5d 0e bd 87 2b 94 bc b8 63 0c be
       -0.02259639 -0.034756977 -0.018087162 -0.13709915
000260 9a d4 21 bc 60 1a 8b bd 94 33 08 bd 7b 04 da bd
       -0.009877348 -0.0679214 -0.033252314 -0.10645386
000270 4a fc 75 bd 97 f8 23 bd 47 6a 4d be 18 83 33 be
       -0.060055055 -0.040031996 -0.20060073 -0.17530477
000280 3f b8 3d bd b4 3d 2c be c4 b2 59 be c2 07 5c bd
       -0.04631829 -0.16820413 -0.212596 -0.053718336
000290 69 3d c7 bd 45 19 6c bc 45 58 37 bd e9 30 ff bd
       -0.0972851 -0.014410322 -0.044761915 -0.12460501
0002a0 a6 a5 30 bd 99 c1 29 3b e1 f7 c4 bc 8e 2d 49 bd
       -0.043126725 0.0025902747 -0.02404398 -0.04911571
0002b0 f6 a2 bc 3b 5e 2b 24 bb 19 d0 9e 3d bc 03 5b bd
       0.005756731 -0.0025050263 0.07754535 -0.05347036
0002c0 61 08 7b 3d a7 fa 36 bd 9e 97 18 bd 02 40 87 bd
       0.061287288 -0.044672634 -0.03725397 -0.066040054
0002d0 d0 e3 91 bc 6e 70 ae 3c 92 80 89 3d af 9d 49 bd
       -0.017808825 0.021293845 0.06713976 -0.049222644
0002e0 5a 3c 11 3e 26 1d 35 bd d1 c3 3c bc 55 fc f7 bd
       0.14183179 -0.04421725 -0.011521296 -0.121086754
0002f0 be 86 a2 bd 4d 82 87 bd 9f 11 ff 39 22 b7 ba bb
       -0.07935856 -0.0661665 0.0004865052 -0.0056981007
000300 81 82 3d 3d fb 49 0d be 67 4d dc bc 3b 1a 4e bd
       0.046267036 -0.13797753 -0.026892377 -0.050317984
000310 22 9b 03 3e 64 e1 43 bd 9a c2 f2 bd 7b bc 7c bd
       0.12852147 -0.04782237 -0.118535236 -0.061703186
000320 bd ac a8 3d 68 e3 46 bc 07 a7 3c 3d 99 4c 98 bb
       0.08236072 -0.012139179 0.046057727 -0.004647803
000330 15 64 6c bd b8 8c 02 bd ed de 93 bc 11 b6 17 bd
       -0.057712633 -0.03187248 -0.018050635 -0.037038866
000340 83 2d 8d 3d 26 0b 8b 3d 12 aa da 3d 4d b4 20 3e
       0.06893446 0.06789236 0.106769696 0.1569378
000350 6b a1 95 3d 60 f9 ba 3c 70 44 d5 3c 5b 01 60 3d
       0.07306179 0.02282399 0.02603361 0.054688793
000360 4b 67 8c 3c b5 d7 89 3d 24 f2 b4 bd 06 44 54 be
       0.017139098 0.06730596 -0.08835247 -0.20729074
000370 95 0a 08 3d 87 c9 b0 3d aa 29 c7 bd fa 70 40 be
       0.033213217 0.08632188 -0.09724744 -0.18793097
000380 96 56 1a be fe a4 ea bd ba cd 83 bd 04 6c f1 bd
       -0.15072092 -0.11457251 -0.064357236 -0.117881805
000390 af 19 91 3d d6 7a 81 3c b9 db 84 3d 64 8b 8c bd
       0.07084977 0.015805643 0.06487221 -0.06862524
0003a0 68 a5 87 3c 8e a3 8b 3d 82 19 26 bd c1 6b 04 3e
       0.016558364 0.06818305 -0.04055167 0.1293173
0003b0 b7 e6 4d 3c dc be e7 3d 5a dc 47 bc cc 84 63 3c
       0.012567214 0.113157004 -0.012198532 0.013886642
0003c0 8d f7 a2 3c 1e a7 1d bd 5b 10 d3 bd 1b 05 55 bd
       0.019893432 -0.038489453 -0.10305854 -0.052006822
0003d0 29 af ae bd a3 09 40 be 48 46 7d bd 84 4c e8 bd
       -0.08529503 -0.18753676 -0.061834604 -0.11342719
0003e0 19 87 0e be 08 2d f1 bd 39 b4 62 3c 7c 40 a4 3b
       -0.13918723 -0.11776167 0.013836914 0.00501257
0003f0 7b b2 54 bc ad 77 8f bd bc 1b 9a 3c 1a 35 e9 3d
       -0.012982006 -0.07005248 0.018812053 0.113870814

weight f4 [64, 12, 7, 7]
000000 02 dc 59 bd 26 e0 03 be 26 ed 8e bd a7 de e1 bc
       -0.05318833 -0.12878475 -0.06978826 -0.02757199
000010 1e 36 ec bd 25 7f c6 bd d2 8c 1f be dd c5 c4 3c
       -0.115337595 -0.0969222 -0.15581062 0.02402013
000020 b2 15 db bb 9b d1 33 3c 76 d7 9a bc e0 98 0d 3d
       -0.006685936 0.010975267 -0.018901568 0.03456962
000030 a4 a0 74 bd 5d e6 87 39 6c 02 82 3c 3e d5 a3 bd
       -0.05972351 0.0002592084 0.015870295 -0.07999657
000040 c2 0e b8 bd 2b bb 4d be 55 e0 55 be 3e b4 1b be
       -0.0898719 -0.2009093 -0.20886357 -0.15205476
000050 24 1c 2f be 0c 7f f4 bc 2c 8e ed 3b c4 68 33 bc
       -0.17100579 -0.029845737 0.007249614 -0.010950271
000060 90 08 05 3e 8f 66 b4 3c 19 43 fe bc cf 36 14 be
       0.12991548 0.02202156 -0.031037854 -0.14474033
000070 28 9d 72 3d c4 6d dc 3c ac 86 e3 3d c1 2b 53 bd
       0.059231907 0.02690781 0.11109671 -0.0515554
000080 a8 e1 9f bb 63 58 92 bc 11 5e 32 bd a4 f7 31 bd
       -0.0048791952 -0.017864412 -0.04354674 -0.04344906
000090 62 91 de bd 17 9a e0 bc ef ca 86 bd d5 a1 5b bc
       -0.10867573 -0.027417226 -0.06581675 -0.013405283
0000a0 be 3c 5e be 08 ab fa bd 97 ca 05 3e b6 21 bc bd
       -0.21702859 -0.12239653 0.13065563 -0.09186117
0000b0 ad 37 9b 3b e5 ab 40 bd cd a9 ad 39 28 da 1f be
       0.0047368617 -0.04703893 0.00033123643 -0.15610564
0000c0 25 7e 27 be e9 ee 14 3c 19 fd cc 3c 3e d3 c8 bd
       -0.16356714 0.009090164 0.02502303 -0.09805916
0000d0 f3 ba e3 3c ef f6 e1 3c 3c f2 e2 bc e9 11 74 3c
       0.027799105 0.027583567 -0.027703397 0.014896848
0000e0 6b 59 0b bd d5 ec 13 3d 0f 86 ac 3d 3f d9 a7 bd
       -0.034020822 0.036114533 0.08424007 -0.08195733
0000f0 8a 62 7e 3d 9e ab 1b be 27 bc c5 bc 5b 8b af bc
       0.062105693 -0.15202186 -0.02413757 -0.021428755
000100 fb be b6 3c 4c e6 88 3c ac b0 70 3d 51 e1 6d 3d
       0.022307863 0.016711377 0.058762237 0.058076207
000110 4a 39 a5 bd c0 69 80 3b a1 6d 06 bd 3b 71 d8 3c
       -0.08067568 0.0039188564 -0.032819394 0.02642118
000120 ca 5f ba 3d 3f 46 4f be 70 89 46 3e 7c 21 08 3d
       0.091003016 -0.2024164 0.19388366 0.03323506
000130 b1 45 b5 bc c3 2c 88 3c 8d 46 ef bc 8c 0a 23 3d
       -0.022127958 0.016622907 -0.029208446 0.03980498
000140 d7 e7 58 bd 69 7d 0e be 3b f1 a3 be 36 84 62 bd
       -0.052955475 -0.13915028 -0.32019982 -0.055301867
000150 93 39 15 bd f3 1e 62 3d 3b 90 fe 3c 4e 6d a4 bc
       -0.03643186 0.055205297 0.031074634 -0.020071652
000160 de 0b 52 3d e1 c7 8b be b2 b4 e0 3d 00 ba b9 39
       0.05128085 -0.27300933 0.10971965 0.0003542453
000170 2c cc 45 bd 5c f0 f8 3d 67 34 6f bd f2 ee 83 3d
       -0.048290417 0.1215522 -0.058399584 0.064420596
000180 b2 0a ea bd fa a3 81 3e b2 24 de bb 3a 72 a5 3c
       -0.11427821 0.25320417 -0.0067792768 0.020196069
000190 d0 c9 36 3b 78 06 cc 3c bf 17 93 bb a5 e3 91 3c
       0.0027891286 0.024905428 -0.0044889147 0.017808745
0001a0 39 68 06 bc 38 4e 13 3d c0 f4 92 bd b6 22 41 be
       -0.00820356 0.035963267 -0.071755886 -0.18860897
0001b0 fe fb 89 bd 57 6c 9d ba 1c 18 40 bd 88 33 04 3d
       -0.06737517 -0.0012010437 -0.046897992 0.032275707
0001c0 d4 13 21 3d f7 06 e7 bc 17 6a 53 bd 4b aa a1 bd
       0.03932555 -0.028201563 -0.051614847 -0.07893809
0001d0 db b6 a4 3a 74 91 00 be 20 79 2b 3b 6c 6f 99 bc
       0.0012566702 -0.12555486 0.0026164725 -0.018729888
0001e0 13 7f 89 bd 49 4d 0b be 01 11 8a bc ec 88 3e bd
       -0.067136906 -0.136037 -0.016853811 -0.046517298
0001f0 b0 51 c1 bd 71 56 d7 bc d4 b0 ee bd a0 04 99 bd
       -0.09439409 -0.026286336 -0.11654821 -0.07471585
000200 27 1e 0a bd 14 f1 f3 3c a3 e7 17 3c 40 ce 52 3d
       -0.03372016 0.029778041 0.009271535 0.051466227
000210 0a 01 cf 3d 5c 7b a6 bd 0f 6d bd bd c3 ac 05 be
       0.1010762 -0.08128998 -0.09249317 -0.13054185
000220 12 fd 32 3d 3b 59 12 3d 90 7d 2f 3d fa 99 6e bb
       0.043698378 0.035729628 0.042844355 -0.0036407695
000230 cb dd 08 be 6c ec 0f bd c4 07 80 be 8a 04 d9 3d
       -0.13365857 -0.03513758 -0.25005925 0.10596569
000240 be 54 c3 3d 97 68 00 bc 1f 6a eb bc 73 2d 9b bd
       0.09537648 -0.007837436 -0.028737126 -0.07577028
000250 16 17 42 3d 8d a7 09 3e 0c 4a f2 bc 9a 9f d3 bc
       0.047385298 0.13442822 -0.029576324 -0.02583294
000260 85 1d d1 bd 98 04 42 3d a6 fc 4f 3c 16 d2 54 bb
       -0.102107085 0.047367662 0.012694513 -0.0032473854
000270 18 4c 2e bd 3d b0 b1 bc 85 b0 44 bd 78 36 2e bd
       -0.042553037 -0.021690482 -0.048019905 -0.042532414
000280 15 d7 98 bd 3c 14 9d bd fb bb b1 3c 44 4e 80 3c
       -0.07462899 -0.07669875 0.021696081 0.01566232
000290 e2 1d 3b 3c 17 9b 1a bd 53 c7 3c ba bf f7 d0 3d
       0.011420699 -0.03774556 -0.00072013325 0.10203504
0002a0 e6 49 be 3b 7e 7b de 3d 9c 66 4b bd 3c a8 4a bd
       0.005807149 0.10863398 -0.049658403 -0.049476847
0002b0 74 ab 26 3d 01 2d 81 bd c5 4c d0 bd ac 60 99 3c
       0.040690854 -0.06307412 -0.101708926 0.018722855
0002c0 12 4a 70 3d 04 08 07 bd 9a 4f f9 bc 13 ff b5 3b
       0.05866439 -0.03296663 -0.030433465 0.005554089
0002d0 0c b4 97 bd ee 9b 5b bd c8 23 1b be c0 f9 87 bd
       -0.07407388 -0.053615503 -0.15150368 -0.06639433
0002e0 40 80 c5 3d f8 00 14 3d a1 2e ba bc 7a da 8f bc
       0.09643602 0.036133736 -0.022727313 -0.017560232
0002f0 fb 62 e7 3d d2 4f dc bd c5 e9 a0 bb 55 93 e1 bc
       0.11298176 -0.10757412 -0.00491068 -0.027536074
000300 43 99 38 3d a1 5e 4b be d5 d3 82 bd b0 29 18 3e
       0.045068037 -0.19860317 -0.0638806 0.14859653
000310 c1 31 38 bd 5e fc 00 3d 9b a7 3a 3d 9e d2 e4 bb
       -0.044969324 0.031490676 0.045569997 -0.0069831153
000320 54 66 21 be 5b 9c 48 be 8e a4 cc 3d e4 b2 90 3d
       -0.15761691 -0.19590895 0.09992324 0.07065371
000330 c2 bf 1f bd 41 dc 5f bc 6c 48 42 3b 21 52 7d 3d
       -0.039001234 -0.0136633525 0.0029645218 0.061845902
000340 11 7e 86 be bf 2d 40 3e aa 7b 80 bc 73 58 df 3b
       -0.26268056 0.18767451 -0.015683968 0.006815964
000350 30 9b 00 3d 25 c7 81 bd 68 2c 0c be a5 d9 c8 be
       0.031398 -0.06336812 -0.13688815 -0.3922855
000360 ce cd 38 be 8c 62 14 3d 3d 97 f0 3c 5f 59 f2 bd
       -0.18047258 0.036226794 0.029368991 -0.118334524
000370 f0 9d 14 3e 8f a2 a0 bd 77 55 9a bf 70 90 cb be
       0.14513373 -0.078435056 -1.2057332 -0.39758635
000380 6f ed ae bb b5 31 26 bd fe d4 9d 3d 68 32 51 bd
       -0.005338363 -0.040574748 0.07706641 -0.05107346
000390 09 17 01 3d bf a9 92 bd d7 69 c2 bd 0e 1f 77 bc
       0.03151611 -0.07161283 -0.094928436 -0.015083088
0003a0 fa 67 ce bc 59 77 ce 3d 0b c6 bf 3d 29 ea b2 bd
       -0.025196064 0.100813575 0.093639456 -0.08736069
0003b0 10 66 32 3e ab 52 3e be 96 d1 bf bc de fb 16 3d
       0.17421746 -0.18586223 -0.023415368 0.036861293
0003c0 b9 51 c5 bc 94 e5 6a bc 4e ac a5 3a 8a d7 3c 3e
       -0.02408682 -0.014336962 0.0012639852 0.18441597
0003d0 68 f0 38 be 81 45 cf 3d ce 45 53 3c fe ba cc 3c
       -0.18060458 0.10120679 0.012895061 0.024991509
0003e0 a4 4b 7b bd 70 e0 fe bc ad 02 af bd 34 d9 10 bd
       -0.061351433 -0.03111288 -0.08545432 -0.03536339
0003f0 92 f1 28 bd 00 99 34 bd 6c 57 da bd ef a6 03 be
       -0.041246004 -0.044091225 -0.10661206 -0.12856649

weight f4 [64, 64, 3, 3]
000000 22 17 27 bd 93 e6 87 3d 49 43 2b 3e b7 59 8a be
       -0.040793546 0.066357754 0.16724886 -0.27021572
000010 87 1f 4e 3d ae 7c 9e 3d 44 84 c7 3c 6b 90 04 be
       0.050323036 0.077386245 0.024355061 -0.12945716
000020 a8 b9 a4 3e 8c be bc 3b e4 93 69 3c 88 06 da 3d
       0.32172894 0.0057600196 0.014256451 0.10645777
000030 7c 71 aa bc 96 2a 41 3e 98 17 eb 3c 8a 5b b9 3d
       -0.020806067 0.18863901 0.028697774 0.09050663
000040 58 db 47 b8 88 8d 9d bd 35 98 b7 3d d4 40 cc 3d
       -4.7649577e-05 -0.076930106 0.08964578 0.099733025
000050 dd 05 42 bd 03 bf 43 be 90 c6 9c 3e 2b 63 48 3d
       -0.047368873 -0.19115834 0.3062024 0.0489227
000060 79 42 10 be d3 b3 2c be c3 51 21 3e 5a 4a 98 3d
       -0.14087857 -0.16865472 0.15753846 0.074360564
000070 a4 e9 1e 3d 97 91 a6 bd e8 93 ed bd d5 ce c7 bd
       0.038797036 -0.08133238 -0.116004765 -0.09756247
000080 e9 cb 0c 3d 7e 85 2d bc 19 7e 1e bd 73 cb 19 3d
       0.03437415 -0.010590909 -0.038694475 0.03754754
000090 d7 b3 8f bd 69 b7 65 bb db 26 9a bd 81 b7 b2 3d
       -0.070167236 -0.0035051948 -0.07526942 0.08726407
0000a0 90 f5 bb bc db 19 39 bd 80 83 95 bc 70 b4 65 bd
       -0.022944242 -0.045190673 -0.01825118 -0.05608028
0000b0 d6 3b 40 bd b0 9d b0 bd 3f 18 a4 bc 39 76 0e 3d
       -0.046932064 -0.086238265 -0.020031093 0.034780715
0000c0 dd 06 71 3d 44 0b 57 3d 67 e7 25 3d 9b 31 19 be
       0.058844436 0.052500978 0.040503886 -0.14960329
0000d0 ea a7 8f bd 88 ac 83 bc cc df 7c 3d 78 3d ab 3d
       -0.07014449 -0.01607348 0.061736867 0.083613336
0000e0 a9 6a 87 bd 71 26 24 ba ac 4d 6d 3d 0d 8c 02 bd
       -0.06612141 -0.0006261832 0.0579354 -0.031871844
0000f0 ea ce dd 3d be 75 1d 3d 65 22 dd bd 55 e0 e8 bc
       0.10830481 0.038442366 -0.10797576 -0.028427282
000100 47 b1 5f 3d 4e f9 4a 3d a9 8b 1f bd da a6 b0 3c
       0.054612424 0.04955416 -0.03895155 0.021563936
000110 6f 9c 4a 3d 9c 79 a6 bd df 6e ac 3c 54 3e f8 bc
       0.049465593 -0.08128664 0.021048961 -0.030303158
000120 65 5d d0 bd 68 f3 f6 bc 27 67 ae bd 64 5a 0b 3c
       -0.101740636 -0.030145362 -0.085157685 0.0085054375
000130 a6 ad 08 3e 6c 15 1f 3d 11 a3 21 3d f5 8e 6f 3d
       0.13347492 0.03883879 0.039462153 0.058485944
000140 1b b7 48 bd 3a 1d fc ba d0 33 a9 bc 36 49 dd bd
       -0.049002748 -0.0019234784 -0.020654589 -0.108049795
000150 79 2b 85 bc 08 68 4f bd 4b ea 05 be d8 9a 16 bd
       -0.016256081 -0.05063632 -0.13077657 -0.036768764
000160 b9 5c 6a 3d 90 d4 0a bd 38 4b bd bd 35 6b 28 bc
       0.057217333 -0.03389412 -0.092428625 -0.010279466
000170 d9 83 80 3d 96 aa b6 bd bd 1f bc 3c 7b f4 80 bd
       0.06275148 -0.089192554 0.022964353 -0.06296631
000180 0d 40 25 b9 60 71 60 bd c8 f7 13 3d 94 82 ad 3c
       -0.00015759487 -0.054795623 0.036124974 0.021180429
000190 a7 b8 24 bc ce 18 3b bd fc 39 76 bd 80 8d a7 bc
       -0.01005379 -0.045677952 -0.060113892 -0.020453215
0001a0 ea 27 c4 bb f8 9d 9c 3d db a8 24 bd 17 6e 13 bd
       -0.0059862034 0.07647318 -0.040200096 -0.03599366
0001b0 48 6f 69 bd e6 29 55 3b ed ef 12 bd 4e d3 60 bd
       -0.05699089 0.0032526194 -0.035873342 -0.054889016
0001c0 d5 bc 7e 3b 7b a5 2a be 22 ea af bc ee f4 9e bd
       0.0038869877 -0.16664688 -0.021473948 -0.077615604
0001d0 15 e9 a0 3c 14 7c 1a bd 4b 76 ef bc bd b2 be bc
       0.019642392 -0.037715986 -0.029231211 -0.023278588
0001e0 d4 8f a5 3d ec a9 d6 bd a0 09 18 be 88 b6 9a 3c
       0.08084074 -0.10481629 -0.14847422 0.018885866
0001f0 16 2f a8 3d 8e 48 b9 bd 99 f7 2e 3d b6 7d be bd
       0.08212106 -0.09047042 0.042716596 -0.09301321
000200 e5 38 b1 3b 87 82 d0 bd 24 5b c4 be 67 2d 02 be
       0.0054083937 -0.10181146 -0.38350785 -0.12712632
000210 87 ce 19 be ef 74 ce bc 72 70 b1 3d e3 36 90 bd
       -0.1502019 -0.025202243 0.08664025 -0.07041719
000220 c1 76 f8 3c 12 02 b5 3d 00 29 7c 3a 22 f7 8a bd
       0.030330064 0.088382855 0.00096191466 -0.06785418
000230 2e 6a a2 bc fb 0c 0d 3d d4 25 ba bd 6b 60 8f 3c
       -0.019826021 0.034436207 -0.090892464 0.01750203
000240 9b c4 59 bd 1b ae 55 be 4e c2 a4 b9 95 26 95 bd
       -0.053166013 -0.20867197 -0.00031425286 -0.072827496
000250 8e 01 4f be 34 62 16 bc 9c 8f 55 bd 03 8e d1 bd
       -0.20215437 -0.009178687 -0.05213891 -0.10232165
000260 58 94 0d be dd d5 07 bd 2e 55 39 be 60 85 db bc
       -0.1382612 -0.03316294 -0.180989 -0.026796997
000270 08 a3 ef 3b 00 84 15 3d ea 29 1d bd 4f e3 97 bd
       0.007313136 0.036502838 -0.03837005 -0.074164025
000280 12 ca f9 bd 77 02 95 bd c2 00 ca bd 45 b4 81 bd
       -0.12196745 -0.07275861 -0.09863426 -0.06333212
000290 b1 87 a4 bd b0 10 48 bc 6a 52 1f bd ea 10 21 bd
       -0.080336936 -0.01221101 -0.038896956 -0.03932277
0002a0 f8 4c ab bd 2d c1 19 bd e9 a7 3b 3d 1e bd cb bd
       -0.0836429 -0.037537742 0.04581443 -0.099481806
0002b0 6f 6a 84 bd 49 1e e9 bc 1d 60 5e 3d 6f 27 8f 3c
       -0.06465613 -0.028456824 0.05429088 0.017474858
0002c0 02 de 8e bd bb 8e c1 3b b8 dc 1e bd 90 8c 7c bb
       -0.069759384 0.0059069074 -0.038784713 -0.003853593
0002d0 a9 8e 14 bb be 7b cd bb 0a 40 0c bd b1 8c 3f 3d
       -0.002266804 -0.0062708547 -0.03424076 0.046765033
0002e0 f6 74 33 bd be 77 8b 3c 5b 70 77 bd e4 88 33 3d
       -0.043812715 0.017024871 -0.060409885 0.04383172
0002f0 a4 54 e3 3c 70 68 88 bd a1 45 d1 3d 7f 6c b9 3d
       0.02775032 -0.06660545 0.10218359 0.09053897
000300 93 a5 b5 bd 7a 00 fd bd 97 2f ca ba 18 da 40 be
       -0.088694714 -0.123536065 -0.001542556 -0.18833196
000310 fe 1f 55 bb e3 d6 9a 3e 12 e1 25 bd 7d 42 2b bd
       -0.003252029 0.3024207 -0.040497847 -0.041811455
000320 02 64 ea bc 71 d1 f3 3c d9 3b 08 3d 9f a4 49 3d
       -0.02861214 0.029762955 0.0332602 0.04922926
000330 33 a6 62 bd 57 06 af 3b 04 f7 c8 3d 20 70 28 3d
       -0.05533428 0.005341332 0.098127395 0.041122556
000340 14 d1 d0 bd 97 4b a6 bd c9 00 14 be 54 c4 25 3e
       -0.101961285 -0.08119886 -0.14453425 0.16188174
000350 ff 13 de 3d 31 e9 89 bd 24 58 51 bd 21 47 cf 3d
       0.10843658 -0.06733931 -0.051109448 0.10120989
000360 88 3a cb 3d 53 81 0b bd df 65 22 bd e2 d8 ff bd
       0.09923273 -0.03405888 -0.039647933 -0.12492539
000370 3b ce 22 be 84 f3 26 bd 30 42 57 3b b9 c9 cc bd
       -0.15898983 -0.04075958 0.0032845847 -0.09999413
000380 f3 70 88 bb ab 0d 65 bd c2 79 27 3b f8 90 1b bd
       -0.004163855 -0.055921238 0.002555475 -0.03798005
000390 f5 df 80 bb bc 8e 13 3e 3d 6a cd 3c 82 42 00 3e
       -0.0039329478 0.14409918 0.025075072 0.1252537
0003a0 b2 bd c8 3c a0 81 02 3e b0 8e d0 bd d3 b0 32 be
       0.024504516 0.1274476 -0.101834655 -0.17450266
0003b0 db 46 18 be ca 22 18 be 4c 51 37 bc 47 61 ed 3d
       -0.14870779 -0.14857021 -0.011188816 0.1159082
0003c0 eb 4c 82 bd 6c f4 74 be c8 c4 9b 3d 21 13 db bc
       -0.06362327 -0.23921365 0.076058924 -0.02674252
0003d0 74 01 29 bd 2f 87 05 bc 9c 6e 1a 3d c3 ea 85 bd
       -0.04126115 -0.008149906 0.03770314 -0.06538918
0003e0 85 bb 35 3d 8b bd 54 bc 49 de b0 bd 56 65 12 3e
       0.044368286 -0.012984644 -0.086361475 0.14296469
0003f0 7a b4 9a bd 73 60 df bc b8 be 8d 3c 9a 53 a3 bd
       -0.075539544 -0.02726767 0.017302856 -0.0797493

bias f4 [64]
000000 a8 dd bd 3c 72 93 04 3d 86 8a 75 bc 47 d1 c6 bd
       0.023176983 0.032367177 -0.01498664 -0.09707885
000010 15 88 42 bd 93 29 3d bd 3f 0d 0c bb 01 9e 30 3d
       -0.04749306 -0.046182226 -0.00213702 0.043119434
000020 8d 8f db 3d 8e 46 e6 3d 18 bf c5 3d 99 4c da 3e
       0.107207395 0.11243926 0.09655589 0.42636564
000030 70 dc 67 3b cd 4e 38 bb b7 b0 f0 b9 8b 79 e5 bd
       0.0035379194 -0.002812314 -0.0004590803 -0.11204823
000040 33 30 00 3c a0 c7 f2 3b dd a6 b4 bd 86 39 ff 3d
       0.007823992 0.007409051 -0.08820889 0.124621436
000050 2a 59 b6 3d 29 fe 37 3c 75 ed 0b 3d 38 94 39 bd
       0.089037254 0.01123003 0.034162004 -0.045307368
000060 a6 42 b5 3d 68 c4 8d 3d 6c ba d1 3b d4 2d 2e 3d
       0.08850603 0.06922227 0.006400397 0.042524174
000070 bf 5d f7 3d cc b3 b2 3c 69 ab df ba 93 53 28 bd
       0.120784275 0.02181425 -0.0017064634 -0.041095328
000080 62 5e 9b 3d ec fa 00 3e 7d 13 bb bc ce e9 b3 bc
       0.075863615 0.12595719 -0.022836441 -0.021962073
000090 09 40 4c 3d f8 f7 6f bb 7b 4d b0 bb 41 84 c8 bd
       0.049865756 -0.0036616307 -0.00538033 -0.097908504
0000a0 9c ed f1 3c 26 bb b5 3c 66 4f 4e 3e 63 03 19 3c
       0.029532246 0.022183966 0.20147476 0.009339186
0000b0 d1 0a 9b 3d fa b8 b4 3d 1f e8 0f bc 8a ee 5d bc
       0.075704224 0.08824344 -0.008783369 -0.013545642
0000c0 35 db 29 3b 7b 65 bf ba 2b 65 60 bc 98 36 29 bd
       0.002591801 -0.0014602387 -0.013695995 -0.04131183
0000d0 ec 85 a3 3d 6c e2 0c bd 5d 10 45 3d ed 77 ae 3c
       0.07984528 -0.03439562 0.04811131 0.02129742
0000e0 2b 5b 0a 3d 1e 03 a3 bd bc f0 91 3b 0d ac c4 3d
       0.03377835 -0.07959579 0.0044537466 0.096031286
0000f0 e3 13 7a bb 40 02 63 bd 16 c7 04 bb 10 8d 06 bc
       -0.0038158826 -0.055422068 -0.0020260266 -0.008212343

weight f4 [64, 64, 3, 3]
000000 75 fa 4d 3c 3d c8 78 3d 69 2a 42 bd 58 e2 cb bd
       0.012571921 0.060737837 -0.047403727 -0.09955281
000010 08 0d 20 be 46 64 7c 3d 30 b0 ab bc 3e 9b ec bd
       -0.15629971 0.061619066 -0.020958036 -0.115530476
000020 04 b6 a2 bb 44 7f 06 3b b6 89 fc bc 5a e7 43 3b
       -0.0049655456 0.0020522634 -0.030827384 0.0029892535
000030 5e 2e f8 bb 5f db 8e bd 09 2f c3 bd b6 91 98 3c
       -0.007573887 -0.069754355 -0.095304556 0.018624168
000040 ea 95 57 bd 33 0f c7 bb eb 24 3d 3d 04 c6 68 3c
       -0.052633204 -0.00607481 0.046177786 0.014207367
000050 65 cd 03 3e 43 c8 f5 bc 4d 8d be 3c 69 db bb bd
       0.1287132 -0.030002719 0.023260737 -0.091727085
000060 5e f3 8b bd 59 8e a4 bd d2 83 f1 bc f3 97 9e 3d
       -0.06833528 -0.08034963 -0.029481802 0.07743826
000070 60 f1 cf 3a ea 74 f0 3c 43 6b 34 bc ca 7c e1 bc
       0.0015864782 0.029352624 -0.011011901 -0.027525324
000080 94 48 42 3d a0 3f 9d bd fa f1 cd bc 3e 09 4b bd
       0.047432497 -0.07678151 -0.025139797 -0.04956936
000090 4a 25 69 bc 6f ae b8 3c d5 1b da 3a ce c7 a8 bd
       -0.014230082 0.022544114 0.0016640375 -0.08241235
0000a0 10 13 a3 bd 22 f5 5c bd cc 41 d8 bc a0 4d 9d bc
       -0.0796262 -0.053944714 -0.026398562 -0.019202054
0000b0 65 97 87 bc 84 d6 d6 bd b1 7b bb 3d 2d 36 31 3d
       -0.016551683 -0.10490134 0.09154452 0.043264557
0000c0 61 c0 38 3d 2f d8 1c 3c 18 7e 55 3d 28 34 89 bd
       0.04510534 0.009573027 0.052122205 -0.06699401
0000d0 89 50 14 bd d3 7d 19 3d 6d e5 9b bd bb 43 51 3c
       -0.036209617 0.03747351 -0.07612119 0.012772496
0000e0 71 12 9e 3c 1b 4b 4d 3c d4 65 d3 3c ad 08 7b bc
       0.019295903 0.012530114 0.025805391 -0.015321893
0000f0 a7 15 ce 3c 39 23 3c bd 87 76 0f 3c dd 77 92 3d
       0.025156809 -0.04593203 0.008756286 0.07151768
000100 2d a4 75 3b cb 31 39 bc 01 f1 01 3d e0 d8 54 bc
       0.003748189 -0.0113033755 0.03172398 -0.01299116
000110 1c 45 83 3d b1 7c 46 3d 72 af 7b bd 04 da 07 be
       0.06409666 0.04845876 -0.061446615 -0.1326676
000120 7d 31 83 bd bc a1 aa 3c 7f 93 70 3d 6c 53 58 3c
       -0.064059235 0.020829074 0.058734413 0.013203483
000130 0c 3f 88 bd 0b f4 3e 3d 75 f2 8c 3c 05 2e 38 bd
       -0.0665265 0.046619456 0.017205456 -0.044965763
000140 ef c5 82 bc 70 bc fd bd 97 f0 86 bd d8 ae 06 be
       -0.015963523 -0.12389457 -0.065888576 -0.13152635
000150 af 08 03 3e 8d b7 30 bd b8 ec e0 bc d9 6c 3c bc
       0.12796281 -0.043143798 -0.027456626 -0.011500561
000160 d4 97 4a 3d 1c b8 94 bd d4 11 79 bd ef c6 02 be
       0.0494612 -0.072616786 -0.060808018 -0.127712
000170 af 68 94 bd 82 6f 84 3a 42 76 a2 3d 91 98 86 bb
       -0.07246529 0.0010104033 0.07932712 -0.004107543
000180 43 87 0f bd a2 fb 87 bd 11 11 9e bc 03 99 a7 3c
       -0.035041105 -0.06639792 -0.019295247 0.020458704
000190 33 88 b9 bd da 22 dc 3c 86 13 71 3d 18 75 40 bc
       -0.09059181 0.026872087 0.05885651 -0.011746667
0001a0 b5 87 ef bc 82 25 0d bd 99 52 14 3d 86 5a 86 bd
       -0.029239515 -0.0344596 0.036211584 -0.06560235
0001b0 7a 68 b6 bd 3a 4b c0 bc e2 be 80 bd 64 33 07 be
       -0.08906646 -0.02347337 -0.06286408 -0.13203198
0001c0 f6 57 c8 bd ee dc 6a bd 12 fd 25 bd b3 fb 04 be
       -0.09782402 -0.0573396 -0.04052455 -0.1298664
0001d0 b7 da ce bd 14 1c 15 bd 62 c9 82 3d 93 07 9b 3d
       -0.1010031 -0.03640373 0.06386067 0.07569804
0001e0 0a 42 80 bd 63 33 d1 bd ef 37 e3 bc c0 fa 02 3d
       -0.06262596 -0.10214879 -0.027736632 0.031977415
0001f0 97 bc 1d 3b cd 8b 00 bd e6 ac bb 3c ad 95 43 bd
       0.0024068707 -0.031383324 0.022909593 -0.047750164
000200 26 26 86 bc d7 31 10 be b6 38 c7 3c 2f 7d 14 3c
       -0.016375612 -0.14081512 0.024319034 0.009063049
000210 8e 74 b8 bd 69 72 99 3c e8 77 aa 3d 81 83 8f bc
       -0.09006606 0.018731313 0.083236516 -0.01751876
000220 45 bd c4 bd 97 eb 3e bd 46 66 a1 3c b0 22 61 bd
       -0.09606413 -0.046611395 0.019702088 -0.05496472
000230 2a 61 90 bc 95 1c 0e bd fe 84 b7 bd 97 51 90 3d
       -0.017624456 -0.034695227 -0.08960913 0.07046812
000240 b7 c5 14 3d aa a5 cf bd 1d 6f a3 bc 46 bb 3f bd
       0.036321368 -0.1013902 -0.019950444 -0.046809457
000250 7a c8 9e bc ff b6 95 bd 49 a5 de bc 97 1b 07 bc
       -0.019382704 -0.07310294 -0.027178423 -0.008246324
000260 3b b7 44 3c 3d 95 a7 bb d5 4a 17 bb fd 1c 9d 3d
       0.012006576 -0.005114226 -0.0023085375 0.07671545
000270 16 93 f7 3c d6 10 85 bc f6 ea 34 bd 25 8e ba 3d
       0.030221503 -0.01624338 -0.04416939 0.09109143
000280 ba 52 74 3c b0 2a 37 bd 82 b6 8b 3a 54 bf 47 3b
       0.014912302 -0.044718444 0.001065925 0.003047903
000290 6d b9 0c be 4c b8 57 b9 48 c2 8b bc 42 2c aa bd
       -0.1374261 -0.00020572654 -0.017060414 -0.08309223
0002a0 9f af 78 3d 93 55 41 bb 7b 7c a6 ba d7 89 8d 3d
       0.06071436 -0.002950047 -0.0012701893 0.069110565
0002b0 64 0f 5f 3c a8 49 23 3c c3 e0 75 3d 03 35 ce 3d
       0.013614509 0.0099662915 0.060028803 0.10068705
0002c0 3a c3 00 3c 35 fe 08 3d dd b9 fa bd f7 48 73 bc
       0.007859046 0.033445556 -0.12242482 -0.014848939
0002d0 3d 67 58 3c e9 37 3d 3d 2e 5a 9c bd dc 9f 29 3d
       0.013208208 0.0461959 -0.07634388 0.04141222
0002e0 94 0f 1a be d4 c3 e5 bb ce fa 91 3d bf a6 d2 bc
       -0.15045005 -0.00701187 0.07127915 -0.025714276
0002f0 5b 49 c3 bd 79 77 27 3c 29 f7 a9 bb b2 32 81 bd
       -0.09535476 0.010221356 -0.0051869345 -0.063084975
000300 94 b0 29 bc 02 f8 aa 3c 03 d1 85 bc ab dc ba 3d
       -0.010357041 0.020870212 -0.016335016 0.0912412
000310 86 b8 a0 bd 73 d5 ba bc 84 23 75 3d 2c 92 d9 3b
       -0.07847695 -0.022806859 0.059848323 0.0066397395
000320 85 46 f8 bc e9 15 f3 3c d2 cb 2f 3b a2 cd 56 bb
       -0.030307064 0.029673534 0.0026824367 -0.0032776375
000330 6c ce ba bc 09 d8 bd bc 6e de b8 3c 60 01 81 bd
       -0.022803508 -0.023174303 0.022567 -0.062990904
000340 26 89 a0 3d c3 74 be 3d 38 57 03 bd d2 32 a9 bc
       0.07838659 0.09299614 -0.0320656 -0.020654116
000350 71 64 f9 3c ab 04 82 bd 92 6a 87 bd 96 bd ed bc
       0.030443402 -0.063485466 -0.066121235 -0.029021066
000360 78 ef 87 bd ef b4 d3 bd 67 38 f8 3a 4d 83 4f bc
       -0.06637472 -0.10337245 0.0018937708 -0.012665582
000370 35 c5 82 bd c6 3a ff bd fa 58 4a bd 4d 19 fa bc
       -0.063852705 -0.12462382 -0.04940126 -0.030529642
000380 61 ca 65 bd 46 29 b6 bd 32 46 8b 3d c3 53 53 bd
       -0.056101207 -0.08894591 0.06800498 -0.051593553
000390 01 1c 2a 3c bc 45 ed 3c b2 fd 9a bd 51 79 a8 bc
       0.010382653 0.028963916 -0.0756792 -0.02056566
0003a0 4e e8 d4 bc 0d 05 41 bd b9 22 11 bd 79 71 67 bd
       -0.025989678 -0.047123957 -0.035433505 -0.0565047
0003b0 c6 85 8c bd 5d 14 84 bc cd 7e ce bd c6 e7 c9 bd
       -0.06861453 -0.016122991 -0.10082779 -0.098586604
0003c0 69 dc 60 bd 25 98 a7 bd 1e 07 80 bd 28 db 60 bd
       -0.0548977 -0.08183316 -0.062513575 -0.054896504
0003d0 2b 36 f4 bd 5f a2 4c bd d9 85 b9 bd 7a bd 60 be
       -0.11924394 -0.049959537 -0.090587325 -0.2194728
0003e0 62 d9 d2 bd 77 c9 16 3d 20 cf 08 be 8c ea 27 be
       -0.10295369 0.036813226 -0.13360262 -0.16398066
0003f0 b3 54 03 bd b2 52 54 bc e1 18 4f be 75 53 8f bd
       -0.032063197 -0.012959169 -0.20224334 -0.0699834

bias f4 [64]
000000 dd e0 c9 bc 49 61 22 3e d2 fe f9 bc f2 83 f9 bc
       -0.024643356 0.15857424 -0.030517016 -0.030458424
000010 0f 23 bd 3d 0a 86 a7 bc 43 43 84 bc 31 ac 7f be
       0.092352025 -0.020449657 -0.016145354 -0.2496803
000020 bc b2 a6 bb 77 e3 e7 bc 3b 39 7c 3d 70 1d 54 3d
       -0.0050872248 -0.028306706 0.061578017 0.051785886
000030 b1 33 4a bd 8d 41 6c bd db 66 00 3d ae 55 ee bd
       -0.049365703 -0.0576797 0.03134809 -0.11637436
000040 7d 20 fe bc a4 46 67 3d ab 68 ff 3d 7c 8b 74 3e
       -0.031021351 0.056463853 0.12471136 0.23881334
000050 ea 6a b7 3d c5 8f 6a bd ec 97 23 3d 61 ea 2a 3c
       0.08955939 -0.057266016 0.039939806 0.010431857
000060 10 41 bb bc 44 9a c5 3d 2c 7b dc 3b 2b f7 81 3c
       -0.022858173 0.096485645 0.0067285504 0.01586493
000070 88 2b 7e bd c5 db 48 3c 5d c9 34 bd 6a 67 95 3c
       -0.062053233 0.012259428 -0.044137347 0.018237788
000080 22 bf 30 3d 56 d1 92 bd 2b c5 df bc a0 2f b7 3a
       0.04315103 -0.07168834 -0.027315697 0.0013975985
000090 9a 38 0f bd 71 8c c0 3d 84 50 12 bd a1 50 f4 bb
       -0.03496609 0.09401787 -0.035721317 -0.007455901
0000a0 09 e2 84 bd 15 dc da bc 8e 6d 5d 3e 30 ba 5f 3d
       -0.06488425 -0.026716271 0.21623823 0.05462092
0000b0 71 7b 7f bc 46 e4 62 bd 20 6b 4d bd b5 75 93 3d
       -0.015593396 -0.05539348 -0.05015099 0.07200185
0000c0 23 a4 b9 bc be e5 9f bc f1 04 74 3c 6c 07 62 bd
       -0.022661274 -0.01951873 0.014893756 -0.05518286
0000d0 14 0b 0c be 57 0a c8 3e 13 12 36 3c 01 82 00 bd
       -0.13676101 0.3907039 0.011112708 -0.03137398
0000e0 13 7c 4f 3d eb a3 78 bd c1 38 48 bd c6 42 34 be
       0.050655436 -0.0607032 -0.04888225 -0.17603597
0000f0 1b 79 3a bd ed 49 7a 3d 28 0e ad bd 93 39 ff 3d
       -0.04552565 0.061105657 -0.08449966 0.12462153

weight f4 [64, 64, 3, 3]
000000 d7 84 c1 bc 3d a0 09 3c 65 5a 5d bd 73 49 6e 3d
       -0.023622913 0.00840002 -0.054041285 0.058175515
000010 a3 1a b8 bd 9e 10 82 bd 5b 1a ec bd 1a ad b5 3c
       -0.089894556 -0.06350826 -0.115284644 0.022177268
000020 96 49 c7 3c ec 07 73 3d 82 db 94 bc 00 ff 42 3d
       0.02432708 0.059333727 -0.018171076 0.04760647
000030 11 86 2a 3c 50 98 3f bc b2 3e 35 bd 89 28 3d bc
       0.0104079405 -0.011694029 -0.044249244 -0.011545309
000040 c5 ba 34 3d 85 fb b1 bd 02 53 e0 bd b7 7d 42 3c
       0.04412343 -0.08690552 -0.109533325 0.011870793
000050 a9 d6 aa 3d 87 b0 b8 bc f3 8e 9f bb b5 8d 82 b9
       0.083417244 -0.022545112 -0.004869336 -0.00024901112
000060 9b 9e d6 bc 50 c2 a2 3c b0 50 84 bd 32 7b 18 3c
       -0.026198676 0.019868046 -0.064607024 0.009306716
000070 ec 72 40 bd 84 29 92 3c 30 40 6f bd a7 b4 9a bc
       -0.046984598 0.017842062 -0.058410823 -0.01888497
000080 93 ad 63 3d b7 a7 76 3d fe 59 81 bd 2c ac 15 bd
       0.055585455 0.06021854 -0.06315993 -0.03654115
000090 2e d9 3f 3c db b2 1a 3c 80 76 00 3d aa f2 ac bb
       0.0117094945 0.0094420565 0.03136301 -0.0052779512
0000a0 b9 f9 e3 3c 5c 90 68 bc 62 8f b8 3c 6e 09 0b 3d
       0.027829038 -0.014194574 0.022529308 0.03394454
0000b0 5c ab 05 3c fb f7 da 3c 4f 09 76 3c 3f 46 3e bd
       0.008158531 0.026729574 0.015016868 -0.04645371
0000c0 7b 7b 96 bb 5d 74 cb 3a dc 88 7b bb 14 20 83 bd
       -0.0045923567 0.001552235 -0.0038381135 -0.06402603
0000d0 6b f4 23 bd a1 c4 bf bd 82 1c e8 bc e1 ee ff 3c
       -0.040028017 -0.09363676 -0.028333906 0.031241836
0000e0 77 6f e4 bc ca e8 db bd 69 6a 83 bd 59 2a c0 3d
       -0.027885182 -0.1073776 -0.064167805 0.09383077
0000f0 f3 98 88 3d 3e 9f a3 bb 06 bc 02 bd b1 06 ef 3c
       0.06669798 -0.0049933484 -0.031917594 0.029177995
000100 e1 71 ae bd a4 ff 6f 3d de 14 29 3d 9d 40 a0 3c
       -0.085178144 0.058593407 0.041279666 0.01956206
000110 3f 1f 79 bc a4 52 6b bc 03 4e 82 3c c9 7e 51 bd
       -0.015205204 -0.014362965 0.01590634 -0.051146302
000120 d2 6b a1 bc 5e 4e e1 bd ef 8a 21 be 47 81 e6 bd
       -0.019704733 -0.110012755 -0.15775655 -0.112551264
000130 83 7e 04 bd 3e ab cc bd 87 84 ec bc 28 3b b6 3b
       -0.032347213 -0.09993599 -0.028871788 0.005561251
000140 04 68 7a 3a ed 94 58 3d 47 e8 14 3d c6 da d5 bc
       0.00095522427 0.0528764 0.03635433 -0.026105296
000150 99 e0 ba bc c3 5f c1 bc 67 e0 7d bc 8e f5 af bd
       -0.022812175 -0.023605233 -0.015495396 -0.08591758
000160 ed 1a 28 3d 6a b9 90 bd 9f de 12 3d ae ce b1 bc
       0.041041303 -0.07066615 0.03585684 -0.021704998
000170 eb 4f 97 bd fc 46 0a 3d 3c 03 23 be 59 e8 b4 bd
       -0.0738829 0.033759102 -0.15919203 -0.08833379
000180 9d 3a 91 bd ba 42 96 3c 53 a6 9c 3b 15 98 e0 3b
       -0.07091258 0.018342365 0.0047805696 0.006854067
000190 bd f7 34 ba a9 60 dc bd ec 72 ec bc 02 6f ad 3a
       -0.0006903371 -0.10760624 -0.028863393 0.0013231935
0001a0 67 ca 72 bd e6 0d 82 bb 6c e2 9a 3c b4 88 87 bc
       -0.059275057 -0.003968942 0.018906794 -0.016544677
0001b0 28 12 48 bd 78 5f b2 bb 80 ef 90 3d 7c ac 7e bd
       -0.04884544 -0.0054435097 0.07076931 -0.062176213
0001c0 f0 70 ad bd 26 fc 5c bd 51 63 25 3c 70 07 ac bc
       -0.08468807 -0.053951405 0.01009448 -0.02099964
0001d0 06 18 60 bc f8 06 0e 3c 33 26 8a 3d 17 e6 a5 bc
       -0.013677603 0.008668654 0.06745567 -0.020251317
0001e0 35 3a 24 bd 7e 55 54 3d b1 b4 01 bd 9f fc 8c 3c
       -0.040094573 0.051839344 -0.03166646 0.017210303
0001f0 34 82 89 bc ca 81 29 bd 43 f1 cb bd 77 74 3c bc
       -0.016785719 -0.041383542 -0.099581264 -0.011502377
000200 fc df 9e 3d 9c 11 81 3d 9e 8d ae bd 1b 07 2b 3d
       0.077575654 0.06302187 -0.08523105 0.041754823
000210 86 73 65 bd 67 4a 2b bd 32 3a 4f bd af 74 11 bd
       -0.056018375 -0.041819002 -0.05059261 -0.03551167
000220 5f f5 26 3d 69 cf 8f 3d 68 dd 33 bc 28 a5 e8 3b
       0.040761348 0.07021982 -0.01097808 0.0070997663
000230 21 3e c6 bc 1e 32 a5 bd 46 c4 05 3e 36 1e 05 be
       -0.024199547 -0.080662 0.13063154 -0.12999806
000240 1d 66 56 3d 7a 0e b8 bd e9 87 86 3d a4 cb e0 3c
       0.052343477 -0.08987136 0.065688916 0.027440853
000250 83 4f 45 bd cf 68 8e bc 04 ef 25 bd 25 be bd bc
       -0.04817153 -0.017383961 -0.040511146 -0.023161957
000260 56 0a d2 bc 31 f5 02 bd af bc b1 bd ae a2 9c bd
       -0.025639694 -0.031972114 -0.08678567 -0.07648216
000270 70 4d f5 bd 4a 83 a1 bd b1 fc a5 3c 44 96 79 3d
       -0.11977661 -0.078863695 0.020262094 0.06093432
000280 40 ed c9 3d 64 93 0d 3c 39 2c b0 bc c4 ce 29 3d
       0.09859705 0.008641098 -0.021505462 0.041456953
000290 db 2b 8b bd c9 fc cb 3d 28 10 91 3c cf 5a 21 3d
       -0.06795474 0.09960324 0.0177079 0.039393242
0002a0 e3 33 fa 3d d5 a5 8f bb 6e 5e 84 3d fb b3 b0 bc
       0.12216928 -0.0043837824 0.064633235 -0.021570196
0002b0 b6 a9 68 3d 16 ce 2e be 4a 1d 07 bd 28 ef ac bd
       0.056802474 -0.17070803 -0.032986917 -0.08444053
0002c0 f7 b2 8f 3c c2 48 bc 3d 9a ab 2b bc d1 06 e2 3c
       0.017541392 0.09193565 -0.010477925 0.027591141
0002d0 6b 6d d3 bc 27 18 53 bc 94 df 43 bc 73 c7 fa bc
       -0.02580901 -0.012884176 -0.011955161 -0.030612683
0002e0 6d 58 4c 3c 2f 35 33 bd 9c 56 cb 3d 56 ee 26 bd
       0.012472254 -0.04375189 0.09928629 -0.04075464
0002f0 ea cb f1 3c a6 9a 55 3d 24 6b 7e bc e2 39 21 bd
       0.02951618 0.052149437 -0.015528474 -0.039361842
000300 e4 04 2f bd f4 3b 69 3c 49 e4 c3 3d 4f a8 75 bd
       -0.042729273 0.014235485 0.09565026 -0.059974965
000310 bd eb 88 3d 4c c7 07 3e 33 aa e8 3c 70 ba 3c 3c
       0.066855885 0.1325962 0.02840147 0.01151906
000320 ca 52 02 3d 3b 3a 12 bd 2c 73 03 bd 15 40 73 bd
       0.031817235 -0.035700064 -0.03209226 -0.059387285
000330 a0 be 97 3d c3 86 25 3d 97 05 da 3c 9b 93 d7 bd
       0.07409406 0.040411722 0.026613994 -0.105262004
000340 d2 83 3e 3d a7 92 13 be 2a fb 11 3e 55 1a 90 bc
       0.046512432 -0.14411412 0.14255968 -0.017590681
000350 4f 51 a1 bc 30 6d ba 3d ca 48 14 3e 16 e0 22 3d
       -0.019692091 0.09102857 0.14480892 0.039764486
000360 03 e2 76 3c 1b d1 79 3b 77 ae 85 bd 7f d8 4c 3d
       0.015068534 0.0038119021 -0.06527417 0.050011154
000370 fb 17 5b bd 0c b2 24 bd 8d f0 11 3d 22 4f 20 3d
       -0.053489666 -0.04020886 0.035629798 0.039137967
000380 7b 25 aa bd 1a 5f 1b bd 4c 3c cd bd 1d 76 87 3d
       -0.0830793 -0.037932493 -0.10021266 0.06614325
000390 88 f2 17 3c 56 0d ba bc ab fb 21 bc 65 65 9e 3d
       0.009274133 -0.022711437 -0.0098866625 0.07734183
0003a0 73 d2 94 3d 2c 68 33 bd be 48 0b bd 60 f9 d1 3c
       0.072667025 -0.043800518 -0.03400492 0.025631607
0003b0 7f db 3a bd 6f 00 1a bd e6 ae 08 bd 44 bf a6 3b
       -0.045619484 -0.03759807 -0.03336992 0.0050887186
0003c0 23 bf b2 3c 9d 68 60 bd 1c 0b 8e 3d f9 0a cb bc
       0.021819657 -0.054787267 0.06935713 -0.024785506
0003d0 58 03 ec 3c 78 d2 63 bc a2 ef c5 bc 3c 5e d3 bb
       0.028810188 -0.01390516 -0.024162117 -0.0064504426
0003e0 f2 de 56 bd 1b a3 5f 3d 4d 96 27 be 02 be 93 bd
       -0.05245871 0.05459891 -0.16365929 -0.072139755
0003f0 0d 56 31 3d 40 32 51 bd 35 14 1f bd c2 4d b2 bd
       0.043294955 -0.051073313 -0.03883763 -0.087062374

bias f4 [64]
000000 8e 21 2d bd 0b 81 93 bd ea 2d 88 bd a6 84 37 be
       -0.04226833 -0.07202347 -0.066493824 -0.17921695
000010 cc b8 77 bd da 04 4c bd 9e d0 48 3b e9 68 23 3b
       -0.06047897 -0.049809314 0.0030641924 0.0024934357
000020 9f b1 a1 bd c4 25 77 bc 2e b0 c1 bc 2c f8 97 3e
       -0.07895207 -0.015084688 -0.02364358 0.29681528
000030 38 b4 17 bd b3 f0 fc 3b bc 94 fe 3b 91 ec 85 3c
       -0.037037104 0.0077191233 0.0077691954 0.016348155
000040 09 2d 74 bd 11 1d 8f 3a d4 de 5a 3c 03 e1 77 bd
       -0.05961326 0.0010918697 0.01335879 -0.060517322
000050 e7 36 a1 3c 64 58 e1 3c 15 e5 2d 3d 56 04 76 bd
       0.0196795 0.027507968 0.042454798 -0.06006273
000060 e4 d9 34 bc ca bc 6e bc 8e 6d 92 bd ac d5 44 bd
       -0.011038277 -0.014571378 -0.07149802 -0.048055336
000070 2c 7b 4d bd 8e a8 14 3c e8 8e 56 bd 89 63 9a 3d
       -0.050166294 0.00907339 -0.05238238 0.07538516
000080 70 77 70 3d fa 51 c9 bc ec 28 4a bd a5 c7 97 bd
       0.058707654 -0.024575222 -0.049355432 -0.07411126
000090 cf a9 70 bd 8a a2 84 ba 33 42 de 3d 09 6c 8a bc
       -0.058755692 -0.0010119241 0.1085247 -0.016897218
0000a0 6a bc 48 bb e5 ba 22 3d 8a 0b 99 bc bd a9 cd 3c
       -0.0030629882 0.039729018 -0.01868226 0.025105352
0000b0 55 38 0c bc 2e a3 f6 3c 26 22 6d bd 40 a0 8d bc
       -0.0085583525 0.030107107 -0.057893895 -0.017288327
0000c0 a4 be ab bd 39 f8 ca 3d 7d 0c 8a bd 02 03 02 bc
       -0.08385971 0.09910626 -0.06740663 -0.007935287
0000d0 63 a5 72 bd fe 65 88 bd 9b 11 7d be 9f 5d 7a bc
       -0.059239756 -0.066600785 -0.24713747 -0.01528111
0000e0 ba ca 01 3d e0 05 45 bc 35 a7 42 bd 58 bf 8e bd
       0.031687476 -0.0120253265 -0.047522742 -0.0697009
0000f0 d3 2c 4d bd 4e 3a e5 bc 34 03 27 bd 43 94 1b bc
       -0.050091576 -0.027981903 -0.04077454 -0.009495798

weight f4 [12, 64, 3, 3]
000000 9f 37 e8 3d 24 fa 12 bd 35 30 07 bd 9a 39 b5 3b
       0.11338734 -0.035883084 -0.03300496 0.0055305483
000010 c5 29 d6 3d 56 9b 46 3d ef bd 96 3c d6 54 22 3d
       0.10457186 0.048487984 0.018401114 0.039631687
000020 e7 a1 17 3d 60 48 40 bc ab 26 d7 bc e5 8e b9 3b
       0.037019636 -0.011736006 -0.026263556 0.0056627863
000030 9e aa 70 bb 81 10 83 bd 68 99 a4 bb f5 32 c3 ba
       -0.003672279 -0.06399632 -0.0050231703 -0.0014892506
000040 13 ef 01 3d c6 64 12 3c 2e 04 58 3c 99 f3 1d 3d
       0.03172214 0.008935159 0.01318459 0.03856239
000050 99 52 af bc e6 6a 8d b9 23 73 37 3d 5a 69 4a 3c
       -0.02140169 -0.0002697326 0.044787537 0.012354219
000060 4c 2a 4f bb 7d a4 31 3d a1 92 04 3c 92 10 07 bd
       -0.0031610904 0.04336976 0.0080916 -0.032974787
000070 2d 24 e2 3d ce c4 8a bb 74 fc 0b bc 11 99 b7 bd
       0.11042056 -0.0042348867 -0.008544076 -0.08964742
000080 f5 5e 85 3b f4 49 1f 3b ee 26 cb 3c d0 76 a0 bb
       0.0040701577 0.0024305554 0.024798837 -0.004896976
000090 e0 65 09 3d 2a 10 60 3d 4f 1d 46 bc be 0e 28 3d
       0.03354442 0.054702915 -0.012091949 0.041029684
0000a0 9a 99 d3 3c 23 71 42 bd c7 6f 66 bb c6 29 e8 bb
       0.025830079 -0.047471177 -0.003516184 -0.007085058
0000b0 b0 bb ae bc 72 1b a3 ba b7 40 81 bc b0 50 dd 3c
       -0.02132973 -0.0012444092 -0.015777929 0.027016014
0000c0 31 07 45 bb c7 f7 e4 3d 33 d9 2c bc 9f 08 01 3c
       -0.00300641 0.11180072 -0.010549831 0.007875591
0000d0 40 2d 0a bc 3e 3e 9a bc 68 42 eb bd d6 8f 13 be
       -0.00843364 -0.018828508 -0.11487275 -0.14410338
0000e0 74 36 4d 3e c1 f3 4b bc 82 1a aa be f1 de 67 3e
       0.20040303 -0.012448252 -0.3322335 0.22643639
0000f0 a0 c1 ae bd 1d 1a 57 bd 48 3d 4d 3c 4c fc 63 3c
       -0.08533025 -0.052515138 0.012526818 0.013915133
000100 75 b7 53 3d f4 7d 97 bb 3b ff bc bb fd 82 cb bc
       0.05168863 -0.004623169 -0.0057677305 -0.024842734
000110 22 b8 c3 bc f8 19 d6 bc 9a db d8 bc 11 46 8f bc
       -0.023891512 -0.02613543 -0.026471902 -0.017489465
000120 3c 1d 63 bd da fb 5a 3c 14 43 27 bc 6c 6d 65 3d
       -0.055447802 0.01336571 -0.010208864 0.056012556
000130 58 0b 63 ba 1d 86 73 bd f4 d4 de 3d 69 3c 4d bd
       -0.0008661053 -0.059454072 0.10880461 -0.05010644
000140 7f 64 9b bb 5d 94 5e 3d 25 ef c4 bd a3 1e ee bb
       -0.0047422047 0.05434071 -0.09615926 -0.007266836
000150 45 c9 6a bd d5 4a 94 3d b6 29 30 bd 4b 5a 54 3c
       -0.05732085 0.072408356 -0.04300853 0.012960981
000160 1a df a4 3b 0d ec 60 3d c3 e9 b2 3d f9 6e 64 3d
       0.0050314786 0.054912616 0.08735993 0.055769894
000170 ca d4 67 bd ae 9f 1a bc ca ac 77 bb 7f 67 2b bd
       -0.056599416 -0.009437485 -0.00377922 -0.04184675
000180 8a 85 8b bb 79 f5 09 bd b0 fc 39 bd 62 8b ad b9
       -0.0042578625 -0.033681367 -0.045406997 -0.0003310098
000190 22 8e 51 39 f2 d3 50 bb a1 cc f9 bc 00 dc db 3c
       0.00019984742 -0.003186461 -0.030493082 0.026838303
0001a0 ae fb c5 3c 29 7e 45 bb 23 83 b6 3a ac 2e d5 3a
       0.024167862 -0.0030135012 0.001392458 0.001626452
0001b0 17 54 db ba 61 52 26 bd bf e8 10 bd 0d b1 ec 3c
       -0.0016733435 -0.040605906 -0.035378214 0.028893018
0001c0 c4 db 3a 3c dc 45 de 3c 64 33 14 3c 32 cb 41 3d
       0.011404935 0.02713292 0.009045456 0.047312923
0001d0 1d a1 2a bd 5f 74 19 3d 79 dd 58 bc 62 b8 b7 bc
       -0.041657556 0.037464496 -0.013236397 -0.022426788
0001e0 e1 81 78 3d b3 d5 c6 3d 0b 45 73 bc 78 8f a5 39
       0.060670737 0.09708729 -0.014848004 0.00031578145
0001f0 3e b9 10 bd 31 b5 cf bd 5c 0d 86 bd 24 80 f4 3c
       -0.03533291 -0.101419814 -0.06545517 0.029846258
000200 28 63 58 3d 70 65 84 bd 4d 7c 5e bc 0b 59 92 3d
       0.052828938 -0.0646466 -0.01357944 0.0714589
000210 8d 91 0b bd 87 33 c6 3b 83 ca fb 3c 1e 3d 59 bc
       -0.034074355 0.006048623 0.030736214 -0.0132592
000220 a2 36 af bc 51 a7 e8 bc 3b 86 66 3d e5 ae d4 3c
       -0.021388356 -0.028400095 0.056280356 0.025962302
000230 8d e5 20 bd 63 a5 4b bc 3e 53 f4 3b 2a 01 52 3b
       -0.039281417 -0.012429568 0.0074562123 0.003204415
000240 e4 71 5f bc 25 6f bc 3c e7 9f 06 3d da ae 91 bc
       -0.0136379935 0.023002217 0.03286734 -0.017783571
000250 f4 a5 83 3d 36 81 9f bc f7 33 3a bc 1e bf 43 bd
       0.064281374 -0.019470792 -0.011364928 -0.047789685
000260 cb 99 8d bb 3c d5 c1 3c c4 e6 96 3c 02 b7 ab 3c
       -0.004321312 0.023661248 0.018420584 0.020961288
000270 32 cc 56 bc 12 66 c7 3b 46 cc 4b bd f4 08 10 bc
       -0.013110207 0.006085166 -0.049755357 -0.008791197
000280 8d c1 15 3d d7 f3 23 3d 16 8b 1b 3c 6d 26 8b 3c
       0.036561538 0.040027466 0.00949361 0.016986096
000290 c8 f9 b0 3c c7 0a 98 3a 98 08 be 3c c9 c9 22 bc
       0.02160348 0.0011599892 0.023197457 -0.009935805
0002a0 eb ce 40 bd 34 8a 8a 3c 94 cc 8c bc c5 6d 9f bc
       -0.047072332 0.016911604 -0.017187394 -0.019461522
0002b0 7b 7e 2c 3b 19 ba e5 3b b5 3d 5e 3d a8 36 66 bd
       0.0026320505 0.00701071 0.054258067 -0.056204468
0002c0 1a b7 b0 3c 87 93 75 3b bb 39 22 bc b0 95 e7 ba
       0.021571685 0.0037471966 -0.009901459 -0.0017668512
0002d0 19 9e c8 bc 4a 35 62 3d 48 53 c4 3b 01 8b 21 bd
       -0.02448945 0.0552266 0.005991373 -0.039439205
0002e0 fa 4c 38 bd 74 ef 7d bb 54 e8 e2 bb 9e bc d8 3c
       -0.044995286 -0.0038747462 -0.0069246683 0.026457127
0002f0 5d d9 0e 3d dc 9f cc 3c fc 86 f1 3c cb a3 65 bc
       0.034875263 0.02497857 0.02948331 -0.014016102
000300 06 6d 48 3d 0d ba 85 bd 35 6d 1e bd 4b 09 b1 39
       0.048932098 -0.06529627 -0.038678367 0.00033766995
000310 42 82 a4 bc 79 3a 31 3c 37 06 d7 3c b7 97 ee 3d
       -0.020081643 0.010817164 0.02624808 0.11650031
000320 87 7a ee 3c 23 72 bb bc bc 1b 68 3e f7 47 45 be
       0.02911116 -0.022881573 0.2266683 -0.19265734
000330 e7 93 5c bd 63 c6 28 3e 06 a8 03 be cd ef cc bd
       -0.05385199 0.16481929 -0.12857065 -0.10006676
000340 5b 27 71 3d ed 01 94 ba 50 33 95 3c 69 3e 11 3d
       0.058875423 -0.0011292078 0.018212944 0.03545991
000350 23 e6 c6 3c 2a 66 9a bc de 42 e4 bc 6f 6e 1f 3d
       0.02427966 -0.018847544 -0.027863916 0.038923677
000360 34 6e 48 3d 78 b4 ae 3c 74 62 27 bd 10 2d bc 3d
       0.048933223 0.021326289 -0.040865377 0.091882825
000370 bd 96 27 3d 1b df e1 bd 9c d6 08 bd e9 9c f8 3b
       0.04091524 -0.11028882 -0.033407792 0.0075870645
000380 19 98 6c bd 41 05 44 3d dd f4 3b bd 8b 59 19 bd
       -0.05776224 0.047856573 -0.045887817 -0.03743891
000390 b5 2f 46 3d 42 6d 2e bc 53 2c e8 3d 57 e1 9e 3c
       0.04838534 -0.010646166 0.11336579 0.01939456
0003a0 47 63 9f bd c7 f5 44 bc 0a 52 67 bc a0 11 09 3d
       -0.077826075 -0.0120214885 -0.014118681 0.033464074
0003b0 8f 24 15 ba 14 29 b5 3c 07 56 00 3d a8 5c 10 bd
       -0.00056893466 0.022114314 0.031332042 -0.035244614
0003c0 33 fb 25 bc dc 2b 50 bd dd 5c 7a 3c 78 f5 9e bd
       -0.010130691 -0.050823078 0.015280929 -0.07761663
0003d0 85 25 4e 3d d7 97 08 bd 58 fa d8 bc bf 76 1e 3e
       0.05032875 -0.03334793 -0.02648656 0.15474986
0003e0 13 ee fa 3a e8 b1 3e bd 4a 8a 4b 3b 77 f9 51 bd
       0.0019144438 -0.046556383 0.0031057769 -0.0512633
0003f0 09 19 18 3d b2 0e e3 3c de 80 17 3d b1 c1 75 bb
       0.03713325 0.027716968 0.03698813 -0.0037499482

bias f4 [12]
000000 29 52 ac bb 84 26 70 bb 1a 5e 28 3c cc 5b a1 bb
       -0.0052588177 -0.003664405 0.010276342 -0.004924273
000010 41 2c b7 bb 9b 2c 15 bc 21 f2 42 3c 0b 4c ff 3b
       -0.0055899923 -0.009104873 0.011898548 0.0077910475
000020 6b 64 33 3a 23 e4 83 3b 19 a9 d6 3a 84 25 c6 b7
       0.00068432715 0.0040249988 0.0016377299 -2.3620909e-05
