train_weight_sr4/model_epoch_20.pth (torch_old, 667646 bytes, 10 tensors)

weight f4 [12, 3, 13, 13]
000000 9c 90 f0 3c 56 aa de bd 13 ac 89 3d f7 ef 42 3c
       0.02936583 -0.10872333 0.06722274 0.011898032
000010 2e 77 24 bd e2 60 2e bd e7 6c 10 3d c6 4f 72 3c
       -0.04015272 -0.042572863 0.035260107 0.014789527
000020 1e 6f fc bd 77 49 f1 3d 27 12 4d bd 23 ab 8e bc
       -0.123258814 0.117815904 -0.05006614 -0.017415589
000030 cf f7 93 bc 47 bc fd 3c 1b f5 b4 bd cf 03 7b bc
       -0.0180625 0.030973567 -0.08835813 -0.015320732
000040 5e de ee bc 72 89 97 3d 97 a4 2f 3d c9 f4 50 3c
       -0.029158767 0.073992625 0.042881574 0.012753674
000050 9a 41 a6 bd b2 f6 60 bc 8a 08 22 bd d0 16 d1 bc
       -0.08117981 -0.013730692 -0.039558925 -0.025523573
000060 28 4e 24 3c 60 82 90 bb 58 28 50 bd 97 ed fa bd
       0.0100283995 -0.004410073 -0.050819725 -0.12252348
000070 51 86 9f 3d db d0 91 3d a3 1b d4 bb 55 1f 81 bc
       0.07789291 0.07119914 -0.006473021 -0.01576201
000080 d9 00 5c 3d f3 8e ea bc 86 d5 85 bc ed 4a 70 3d
       0.053711746 -0.028632617 -0.016337167 0.058665205
000090 e3 94 9d b9 17 af 8a bc 79 4c ba 3c 4e b3 4b 3d
       -0.00030056303 -0.016929192 0.022741543 0.049731545
0000a0 97 f8 03 be 57 76 a8 bd fb a5 33 bc 9f 4b 27 3d
       -0.12887798 -0.082256965 -0.010964866 0.040843602
0000b0 ee 47 e6 3d a0 80 3b bd bb b6 1d be 2e 44 e3 bc
       0.11244188 -0.045776963 -0.15401737 -0.027742472
0000c0 3f 01 96 bd 5b 49 58 3d 2f 24 a8 3d 89 60 58 bd
       -0.073244564 0.052804332 0.082100265 -0.052826438
0000d0 45 3c b2 bd 5d 2b c5 bc 3b 06 5e be af 90 8c be
       -0.08702902 -0.024068529 -0.21682064 -0.27454135
0000e0 ae aa 99 be 49 7d e6 bd c3 94 06 be 3d a9 11 bd
       -0.3001303 -0.11254365 -0.13142686 -0.03556179
0000f0 88 52 99 3c 89 04 18 3d 31 77 74 3c da 5c 2e 3c
       0.018716112 0.0371137 0.014920996 0.010642255
000100 5c a4 a2 3d 0d 37 53 3d 3a 8d a0 3d 13 24 06 3e
       0.07941505 0.051566172 0.07839437 0.13099699
000110 a8 58 e2 3c eb 1d 8b bb 77 50 9b 3d 5b b7 50 bd
       0.027630165 -0.00424551 0.07583707 -0.05095611
000120 cd 7f ca 3c 47 34 09 be 53 6b 30 be eb c4 a6 bd
       0.024719143 -0.13398848 -0.17228441 -0.08143028
000130 ff cb 21 be a1 97 d4 bd a2 dd 1a bd 20 eb 90 3d
       -0.15800475 -0.103804834 -0.03780902 0.070760965
000140 3a 79 cd bd 3b d6 a4 bb 7a ea 32 bc 2f d4 98 3d
       -0.10032888 -0.005030421 -0.010920161 0.07462346
000150 6e e1 9e 3d 07 b5 97 3d 8e 53 c2 3d b2 42 7a 3d
       0.07757841 0.07407575 0.09488593 0.06109876
000160 53 49 1c 3e c9 08 6c 3d bb 50 5a 3c 7d 17 3b 3d
       0.15262346 0.057625566 0.013324912 0.045676697
000170 c8 84 03 be a5 f9 4b be 0d 0e fe bd a9 c2 8e be
       -0.12843621 -0.1991945 -0.12405024 -0.2788289
000180 5a 68 45 be 12 16 8e bd a0 c3 13 bd 87 52 80 bc
       -0.19278088 -0.06937803 -0.036075234 -0.015664352
000190 a9 f8 67 bd 84 93 6a 3d ea 0f 2c bd 0a e5 25 3d
       -0.056633625 0.057269588 -0.042007364 0.04050163
0001a0 79 02 f0 bc 08 c8 83 bd f3 1f a7 bd 88 7f b6 bd
       -0.029298054 -0.06434637 -0.08160391 -0.089110434
0001b0 5d aa 3c bd 7a 7a 00 be bd 7a 41 bd de 1a a9 3d
       -0.04606091 -0.12546721 -0.047236193 0.08257078
0001c0 07 e8 db bd 15 0e 05 bd a7 f9 6c be bb 23 ca bd
       -0.10737615 -0.032484133 -0.2314211 -0.09870096
0001d0 a8 25 3b be 4e 5b d5 3d a8 72 dc bd 48 31 85 bc
       -0.18276083 0.104178056 -0.107640564 -0.01625885
0001e0 fe 4a 5f bd 31 c9 60 be 0c 31 fc bc c5 84 2f bd
       -0.054514877 -0.21951748 -0.030785106 -0.04285123
0001f0 a4 fe 83 bd 4d 80 07 bc bb f9 db bc f4 9f c9 3c
       -0.06445053 -0.008270335 -0.02685248 0.024612404
000200 c1 c4 6a bd 1b f0 25 bd a6 31 93 bd 40 25 dd bc
       -0.057316545 -0.040512186 -0.07187204 -0.026995301
000210 57 7d 06 be 73 ed 00 3c 73 22 09 be 17 4d 8f bd
       -0.13133751 0.007869112 -0.13392048 -0.069971256
000220 4b 45 45 be 29 49 03 bd f4 ae 02 be c6 28 ad 3b
       -0.19264714 -0.032052193 -0.12762052 0.0052844016
000230 89 5c 9f bc 65 4e 9f bc ea c7 c7 bd b1 5a f1 3c
       -0.019453304 -0.019446561 -0.097549275 0.02946219
000240 76 ff c0 3c b7 54 f0 bd 87 f9 52 be e0 73 05 be
       0.023559313 -0.11734908 -0.20603 -0.13032484
000250 b8 3a 00 bd b8 5e 26 bd 61 ef c2 bc a5 36 12 be
       -0.031306 -0.040617675 -0.023795785 -0.14278658
000260 17 b2 3d bc 04 bd 84 bd af 2f f4 bc c6 1e d2 bd
       -0.011578104 -0.06481364 -0.029807894 -0.10259776
000270 c7 a0 49 bd 8c a5 a6 bc f9 99 44 be be 03 32 be
       -0.049225595 -0.02034261 -0.19199361 -0.1738424
000280 af a5 3d bd d0 4a 32 be 88 7f 62 be 8e 8f 6f bd
       -0.046300586 -0.17411351 -0.22118962 -0.058486514
000290 44 3a c8 bd 33 5a 14 bc 29 38 0e bd 28 5f e1 bd
       -0.09776738 -0.009054708 -0.034721527 -0.11004478
0002a0 17 da e4 bc 87 f8 fa bb 19 5b 4e bc 72 cd 4f bd
       -0.027936025 -0.0076590213 -0.012594962 -0.050733037
0002b0 ee bc a0 bb db 78 6e bc c4 d6 c3 3d bf 06 61 bd
       -0.0049053347 -0.014555181 0.09562448 -0.054938074
0002c0 d3 f4 38 3d eb 57 25 bd 1a 3b ec bc 6a 24 4b bd
       0.045155358 -0.04036705 -0.028836776 -0.049595274
0002d0 71 6e 87 3c 14 e1 c7 3c 9a 09 47 3d 9c 3b 34 bd
       0.016532155 0.024399318 0.04859314 -0.04400216
0002e0 90 00 f7 3d c6 b1 58 bd 95 92 9f bc 45 25 b8 bd
       0.12060654 -0.052903913 -0.019479075 -0.089914836
0002f0 52 0a 99 bd 0e 80 63 bd 6a 6f 61 3c e3 3c ae 3a
       -0.074726716 -0.055542044 0.013759473 0.0013293292
000300 8f fb 4b 3d 77 63 d5 bd 2d e5 0d bd f5 63 82 bd
       0.04980045 -0.10419362 -0.034642387 -0.063667215
000310 86 94 f8 3d a0 18 8a bd fe 53 f0 bd 4d f7 7d bd
       0.121377036 -0.06742978 -0.1173477 -0.062003423
000320 56 62 c4 3d aa 33 78 bc a8 72 23 3d 70 ea c0 bb
       0.095890686 -0.015149036 0.039904267 -0.005887322
000330 ff 57 66 bd 1c d9 a5 bc 33 32 12 3d 6c 4c da bc
       -0.056236263 -0.020245127 0.035692405 -0.026647769
000340 74 02 69 3d 03 6d 73 3d a8 ca b9 3d 1f 84 14 3e
       0.056887105 0.059430134 0.09071857 0.14503525
000350 a1 3a 92 3d a3 ce 47 3d e2 7f 0d 3d 0a e6 01 3d
       0.07140089 0.04878105 0.034545787 0.031713523
000360 34 06 c3 3b d1 d7 59 3d 8b d2 aa bd db 1f 27 be
       0.005951667 0.053184334 -0.08340939 -0.16320746
000370 d7 b6 09 3d 88 d0 cd 3d 54 94 9b bd 5f 6f 43 be
       0.033621635 0.1004954 -0.07596651 -0.19085453
000380 d6 d7 21 be 97 f6 ed bd 3b 64 84 bd 6b 01 ca bd
       -0.15804991 -0.11619299 -0.0646443 -0.09863552
000390 5a bf 82 3d c8 9f 69 3c 2f d5 63 3d 46 8f 9c bd
       0.06384154 0.014259286 0.05562323 -0.07644515
0003a0 07 30 0f 3d fc 83 18 3d b8 1c 44 bd 9f 09 05 3e
       0.03495791 0.037235245 -0.04787895 0.12991951
0003b0 a5 7d 95 3c c7 f2 ea 3d ab 15 37 bb f3 fb ba 3c
       0.018248389 0.11472087 -0.00279365 0.022825217
0003c0 77 45 02 3d b3 33 39 bd e3 a8 ce bd c9 2d 6d bd
       0.031804528 -0.04521532 -0.10090806 -0.057904992
0003d0 6c 55 9e bd 71 71 20 be 62 32 fd bc 72 4f e1 bd
       -0.07731137 -0.15668274 -0.030907813 -0.11001481
0003e0 b7 43 0e be 7d b7 de bd 75 6e d8 3c 56 2a 8b 3c
       -0.13893019 -0.10874841 0.026419858 0.01698796
0003f0 a0 ea 98 3b 06 1c 85 bd a6 81 a7 3c 40 c6 06 3e
       0.0046666414 -0.06499486 0.020447563 0.13161564

weight f4 [64, 12, 7, 7]
000000 72 39 72 bd 61 64 05 be 5c 23 94 bd ee 6e 04 bd
       -0.059136815 -0.13026573 -0.07233307 -0.032332353
000010 5a 06 f4 bd af 45 f2 bd bb f8 29 be 37 f3 6d 3d
       -0.11915274 -0.11829697 -0.1659879 0.058093276
000020 20 24 76 3c 7f a4 01 3d a6 9f 1b bc b5 b6 dc 3c
       0.015023261 0.031651016 -0.009498512 0.02694259
000030 2d be 96 bd 32 74 56 bc 0f 28 cb bc 19 34 b4 bd
       -0.07360492 -0.013089227 -0.024799375 -0.08798999
000040 b1 67 9e bd b8 1a 43 be 5e 96 70 be cb 57 15 be
       -0.07734621 -0.19053161 -0.2349486 -0.14584272
000050 2b 41 17 be 92 1e 44 bc 70 c1 ad 3c a2 e0 75 bb
       -0.14770953 -0.011970179 0.021210402 -0.0037517925
000060 ec 79 ee 3d ca 6e 20 bc b5 cd 2e bd a9 a6 17 be
       0.116443485 -0.009792039 -0.042676646 -0.1480967
000070 d2 72 95 3d 63 e7 ec 3c 1c f3 1e 3e 79 0c 8e bd
       0.07297291 0.028918928 0.15522426 -0.06935973
000080 a2 41 14 bc 80 33 5b bd 01 94 94 bd a0 87 49 bd
       -0.009048851 -0.05351591 -0.07254792 -0.049201608
000090 0d 59 bc bd 3b 64 93 36 32 47 04 bd b5 9d 0d 3d
       -0.091966726 4.3926098e-06 -0.03229446 0.03457423
0000a0 59 d1 60 be 5b e8 06 be 5d 9a c4 3d 84 41 17 be
       -0.2195486 -0.13174574 0.09599755 -0.14771086
0000b0 9b d3 4e 3c bd 10 9e bd fd 95 5d bc c7 3d 2d be
       0.012623693 -0.07718036 -0.0135245295 -0.16918097
0000c0 bd 27 37 be 81 40 81 3c d4 b7 34 3b c4 15 9f bd
       -0.17886253 0.015777828 0.002757539 -0.07767823
0000d0 30 1b 28 3d 19 9c 97 3c 4d 0a ac bb af 7d 03 3d
       0.041041553 0.01850705 -0.0052502514 0.032102283
0000e0 91 3b 11 bd 13 d8 73 3c c7 66 d3 3d 42 42 cc bd
       -0.035457198 0.014883059 0.103223376 -0.09973575
0000f0 32 c9 8a 3d ec b7 0b be 88 d0 22 bc 51 46 10 3c
       0.06776656 -0.1364438 -0.009937413 0.008805827
000100 c7 c7 b7 b9 84 0f d1 3c 0e 5a 4f 3d 58 a9 00 3c
       -0.00035053326 0.025520094 0.050622992 0.007852875
000110 95 43 cc bd 64 5e 11 bc ad 87 3e bd 11 ef fa 3b
       -0.09973828 -0.008872602 -0.04651611 0.0076578935
000120 2c 1a e0 3d 81 09 21 be e2 48 60 3e 33 79 24 bc
       0.10942492 -0.15726282 0.21902803 -0.010038662
000130 58 20 81 bd 08 ad dd 3c 57 2c 3d bd 1f 5c 7f 3d
       -0.06304997 0.027060047 -0.046184864 0.062343713
000140 c8 10 6b bc f6 6d 3e be 30 28 a8 be c8 fd 11 3d
       -0.014347263 -0.18596634 -0.3284316 0.035642415
000150 1b 29 ea bc 29 87 d7 3c 4e 44 1e 3d d2 be 86 bc
       -0.028584054 0.026309567 0.03863936 -0.016448412
000160 97 fc 14 3d 9f e6 87 be ef c5 15 3e ae b7 33 3c
       0.0363737 -0.26543137 0.14626287 0.010969086
000170 17 20 9f bd 70 f1 df 3d dd f1 25 bd b1 96 81 3d
       -0.077697925 0.109347224 -0.040513862 0.0632757
000180 9c 2d d8 bd bc 66 79 3e b9 8e eb bb 93 3f a5 3c
       -0.10555574 0.24355596 -0.0071886447 0.020171916
000190 cf 9f 32 bc 17 b1 95 3c 35 7d 9b bb 21 e1 91 3c
       -0.010902359 0.01827292 -0.0047451505 0.017807545
0001a0 47 5d 06 bc 0e af 04 3d c8 c7 92 bd 22 ae 4f be
       -0.00820095 0.032393508 -0.071670115 -0.2028127
0001b0 b7 18 92 bd dc 60 54 bb 9b 17 40 bd 31 2c 04 3d
       -0.0713362 -0.0032406365 -0.046897512 0.032268707
0001c0 31 56 1c 3d 6f 5e e9 bc 53 93 89 bd 41 2b b1 bd
       0.038168136 -0.028487412 -0.06717553 -0.08650828
0001d0 5e 42 a4 ba 95 92 00 be ca 94 2a 3b fd dc a3 bc
       -0.0012531986 -0.12555917 0.0026028627 -0.020002836
0001e0 ae fb 89 bd bd f9 24 be 40 1f c6 bc 13 d9 51 bd
       -0.06737457 -0.16110893 -0.024184823 -0.05123241
0001f0 b4 54 c1 bd b0 6b d7 bc 6c 55 f2 bd 72 a2 99 bd
       -0.09439984 -0.026296467 -0.11832699 -0.07501687
000200 2f a9 4e bd 11 bd fa 3c d6 fe 26 3b 95 e2 52 3d
       -0.050454315 0.030607732 0.0025481484 0.051485617
000210 91 01 cf 3d 77 43 a7 bd 2c 35 c1 bd 91 e1 16 be
       0.10107721 -0.08167165 -0.0943397 -0.14734484
000220 9e e7 45 3d 62 e7 1a 3d 6f a0 2f 3d 82 9c 71 bb
       0.04831659 0.03781832 0.04287761 -0.0036866968
000230 5d ba 09 be dd 55 08 bd 80 13 86 be 51 9c d7 3d
       -0.13449998 -0.03328501 -0.26186752 0.10527862
000240 dd 56 d0 3d dd 12 00 bc e2 89 eb bc b1 40 9b bd
       0.10172818 -0.007816997 -0.028752271 -0.07580698
000250 0a ae 42 3d c9 88 09 3e 79 8c 16 bd 95 06 b0 bc
       0.047529258 0.13431086 -0.03675506 -0.021487514
000260 58 31 d1 bd 18 ca 41 3d 0d d8 52 3c 24 38 3b bb
       -0.1021449 0.047311872 0.012868893 -0.0028567398
000270 9a 26 2e bd a8 c6 03 bd 2c a4 2b bd be 8d 2e bd
       -0.042517282 -0.032171875 -0.041904613 -0.042615645
000280 02 fa 98 bd 84 1f 9d bd fb d0 b1 3c 6f 90 80 3c
       -0.0746956 -0.07672027 0.021706095 0.015693871
000290 77 0a 13 3c 5f b2 3d bd fb ce 3f ba a4 d6 d0 3d
       0.008974663 -0.046312686 -0.0007316914 0.101971895
0002a0 93 a8 b7 3b 7a f5 dd 3d 6b ad 4b bd d8 4b 5b bd
       0.0056048124 0.108378366 -0.04972593 -0.053539127
0002b0 b9 37 41 3d 50 39 81 bd e7 b8 d0 bd 4e ab 97 3c
       0.047172282 -0.063097596 -0.10191517 0.018514302
0002c0 4c 00 6f 3d d4 f6 08 bd 6c 46 28 bd 31 42 33 3c
       0.058349892 -0.03343852 -0.041082785 0.010941074
0002d0 5a ae 97 bd 6c c6 5b bd 83 2a 1b be c5 dc 87 bd
       -0.07406302 -0.053656027 -0.15152936 -0.06633905
0002e0 cb 8b c5 3d 24 c2 09 3d 58 d0 c1 bc f0 89 90 bc
       0.09645804 0.033632413 -0.023658916 -0.017643899
0002f0 81 3a e7 3d 70 38 dc bd 18 53 9d bb 44 29 e1 bc
       0.112904556 -0.10752952 -0.0048011653 -0.027485497
000300 91 bc 2d 3d 2d cf 49 be 90 d6 82 bd 4a e9 17 3e
       0.04241616 -0.19707938 -0.06388581 0.14835086
000310 72 fd 2d bd bd 55 24 3c 95 ae 94 3c b9 26 fe 3c
       -0.042478032 0.010030207 0.018149653 0.031024324
000320 5e e0 0d be 0b 2e 46 be c4 b7 a1 3d 6a ce 8a 3d
       -0.1385512 -0.19353501 0.07896379 0.067776516
000330 86 7d 82 bc 24 c0 22 bd 5c 1d d8 3c 02 3b 81 3d
       -0.015928995 -0.03973402 0.026381187 0.06310083
000340 52 98 72 be 65 88 08 3e f8 54 03 bd 25 36 c1 3c
       -0.23690918 0.1333328 -0.032063454 0.023585388
000350 e9 1a 64 3d 16 82 73 bd 14 06 06 be 5f 01 9c be
       0.055689726 -0.05945023 -0.13088256 -0.30469796
000360 6e 41 23 be 42 a3 ea 3c df 88 41 3d 92 e2 1c be
       -0.15942928 0.0286423 0.04724967 -0.15320805
000370 df 4d 3a 3e 9d 24 c0 bd e9 24 94 bf 63 90 c2 be
       0.18193768 -0.093819834 -1.1573764 -0.38000783
000380 3a 7d c9 bc 4f 63 31 bc c0 c3 72 3d 63 26 44 bd
       -0.024595845 -0.0108269 0.059268713 -0.04788817
000390 7c d8 31 3c 73 2b 42 bd d3 da 2b bd fd 85 af bb
       0.010854837 -0.047404718 -0.041956734 -0.005356549
0003a0 b6 9a 13 bd 5a 33 95 3d d7 b2 f6 3d 46 77 d8 bd
       -0.036036216 0.07285185 0.1204583 -0.105696246
0003b0 0d 43 1c 3e 1f b1 0f be 88 0c 97 bc 56 14 02 3d
       0.15259953 -0.1403241 -0.018438593 0.031757675
0003c0 9a 34 63 bc 72 a9 a7 bc 26 63 46 bc b8 13 08 3e
       -0.013867522 -0.02046654 -0.0121086 0.13288772
0003d0 0f 46 78 be 66 32 e7 3d c6 b2 88 3c 80 f5 cc 3c
       -0.24245475 0.112889096 0.016686808 0.025019407
0003e0 d1 39 7b bd cb 18 ff bc 48 04 af bd 7d df 12 bd
       -0.061334435 -0.031139752 -0.085457385 -0.035857666
0003f0 31 86 33 bd c0 70 31 bd 83 56 da bd 6e a7 03 be
       -0.043829147 -0.043320417 -0.10661032 -0.12856838

weight f4 [64, 64, 3, 3]
000000 9e be 95 bd e1 3e a7 3d 2e 13 e3 bc c6 c4 9e be
       -0.07311748 0.0816629 -0.027719107 -0.310095
000010 0c 91 06 3e a8 9d d3 3b f7 9b d5 bd c3 bc 54 be
       0.13141268 0.006458003 -0.104301386 -0.20775132
000020 9e 35 5c 3e d5 07 03 3c 6d d4 8a 3c ea fa d4 3d
       0.21504828 0.007997473 0.016946996 0.103994206
000030 ec 00 9c bc ff 5a 19 3e 8a 4c e9 3c d8 ed bd 3d
       -0.019043408 0.14976119 0.02847888 0.09273881
000040 14 50 38 3b fe 5f 9b bd f6 78 5e 3d 0e 86 da 3d
       0.0028123902 -0.075866684 0.054314576 0.106701
000050 f6 5a a9 bd 43 59 3c be ec 9c b3 3e ea 5d d6 bc
       -0.082693025 -0.18393426 0.3508066 -0.026167829
000060 fd 21 24 be 8a 92 3b be 65 bc b2 3d 71 de 97 3d
       -0.1602859 -0.18317619 0.0872734 0.07415474
000070 74 e6 1b 3d 88 bd a6 bd c7 f4 ec bd f8 97 c8 bd
       0.038061574 -0.08141619 -0.11570125 -0.09794611
000080 09 b4 0b 3d 35 c5 2d bc d2 15 20 bd de 36 18 3d
       0.03410724 -0.0106061 -0.03908331 0.0371617
000090 b5 37 8f bd b4 77 86 bc 85 e5 d4 bd 4c 85 ae 3d
       -0.06993047 -0.0164145 -0.1039534 0.08521518
0000a0 bc 6b e4 bc 17 22 a9 bd 90 45 f1 bc 62 c0 c6 bd
       -0.027883403 -0.08258455 -0.029452115 -0.09704663
0000b0 ec 0c 7d bd a7 a5 3c bd a8 86 80 bd fd 5a 14 3c
       -0.0617799 -0.046056416 -0.06275684 0.009054896
0000c0 34 a9 1d bd 28 98 7d bd 8d 12 b8 bc 22 6b 12 bd
       -0.038491443 -0.061912686 -0.022469783 -0.0357467
0000d0 39 d5 6a bc 3f dd c7 bb 4b 6d 81 3d 8b ae aa 3d
       -0.014333063 -0.0060993726 0.06319674 0.08334073
0000e0 d1 4c 8c bd 49 aa 99 ba 60 c1 66 3d d8 c0 0a bd
       -0.06850589 -0.0011723723 0.05633676 -0.033875316
0000f0 f4 e0 db 3d e1 f7 11 3d fd fb dd bd 8e a6 cd bc
       0.10736266 0.035636786 -0.108390786 -0.025103834
000100 a3 15 8f 3d 77 77 53 3d d0 23 ff bc 38 dd d7 3c
       0.06986549 0.051627602 -0.031145006 0.026350603
000110 47 cb 7c 3d e6 30 ab bd 1d 09 36 3c 57 84 5f bd
       0.061717298 -0.08358936 0.011110571 -0.05456957
000120 c5 0d 8d bd 3b 3e 51 3c cf b4 ed bc 41 4d 98 bc
       -0.06887392 0.012771185 -0.02901688 -0.018591525
000130 5f 15 b5 3d 90 bb 0f 3d a3 19 16 3d e0 86 62 3d
       0.08841967 0.035090983 0.036645543 0.055304408
000140 ad b8 4d bd d4 fb 24 bd 44 31 1b bd 5b c6 6c bb
       -0.05022495 -0.040279225 -0.03788878 -0.0036128971
000150 77 91 28 bd 21 28 10 bd ff 4e e5 bd 47 6a 51 3c
       -0.04115435 -0.03519452 -0.11196708 0.012781686
000160 9c 7e cd 3d ff bb f8 3d a5 3c a6 bd 80 89 0d bd
       0.100339144 0.121452324 -0.08117036 -0.03455496
000170 fc 23 5a bc ae e9 43 bd 5a 90 e1 bd da 24 41 bd
       -0.013314243 -0.047830276 -0.11013861 -0.047154285
000180 84 d0 69 bd 9c 4b 52 be 9f 20 c0 3c eb ea ae 3c
       -0.05708362 -0.20536655 0.023453055 0.021352252
000190 a8 70 29 bc be 7b 3b bd d9 f9 75 bd 7c a2 aa bc
       -0.010341801 -0.045772307 -0.060052726 -0.020829432
0001a0 1d e1 cb bb 24 82 9c 3d ee 04 26 bd 14 7e 14 bd
       -0.006221904 0.0764201 -0.040532045 -0.03625305
0001b0 26 1b b1 bc a7 8c 04 3c b0 60 23 bd e3 d2 e2 bc
       -0.02161939 0.008090175 -0.03988713 -0.02768845
0001c0 8b 2f 03 3c 86 7d 28 be d2 ee 85 3b 2f 88 d8 bd
       0.008006941 -0.16454133 0.0040873075 -0.1057285
0001d0 2a 60 1a 3c fd 9d 3c 3b 76 3d ac bb de 8e c9 3d
       0.009422341 0.0028780692 -0.00525635 0.09841703
0001e0 03 03 84 3d 1b c4 f1 bd ca 4a 26 bc 42 50 8a bd
       0.06445887 -0.11804982 -0.010149667 -0.06753589
0001f0 61 71 9c 3c 5e 22 00 bd 33 57 95 3d 77 1c 7c bd
       0.019097032 -0.031282775 0.072920226 -0.061550584
000200 57 c4 c4 bb e7 67 9c bd f2 0d 97 be a3 9e 25 be
       -0.006004851 -0.07637005 -0.29502827 -0.16173796
000210 26 20 46 bc 45 6f 82 bc 90 ec 33 3e 3f ba 90 bd
       -0.012092626 -0.015922198 0.1757071 -0.070667736
000220 cc 7a f5 3c 1e b1 b4 3d 1e 68 10 3a 69 c6 8b bd
       0.02996578 0.08822845 0.0005508679 -0.06824953
000230 46 0f a2 bc ff 82 0c 3d 7a 4f bb bd 8a a5 8d 3c
       -0.019782674 0.034304615 -0.09146018 0.01729085
000240 0e 6d 60 bd 18 34 56 be 4c 6c 5b bb 1d 21 8c bd
       -0.054791503 -0.2091831 -0.0033481298 -0.06842253
000250 58 e7 49 be 80 94 87 bc 80 51 8e bd 4b 53 c2 bd
       -0.19717157 -0.016550303 -0.06949139 -0.09488543
000260 62 5c 07 be a5 73 c0 bc 91 61 4c be e7 4b ea bc
       -0.13218835 -0.023492644 -0.19959094 -0.028600646
000270 11 2c f5 39 86 8f 5e bc 81 ac fd bd 9a 07 5b bc
       0.00046762874 -0.013584023 -0.12386418 -0.013368512
000280 59 ff 0f be d0 f1 39 bd 45 df fc bd 14 c6 bb bd
       -0.14062251 -0.045396626 -0.12347273 -0.0916864
000290 0d c7 c2 bd c1 19 d9 bc cc 10 61 bd d0 70 b8 bc
       -0.09510622 -0.026501538 -0.05494766 -0.02251473
0002a0 5c ad c7 bd d4 33 58 bd 87 ff 2f 3d 04 8b ca 3b
       -0.097498626 -0.052783802 0.0429683 0.0061811227
0002b0 dd a4 c8 3c 6a 4b 53 3d c6 7a 4f 3d 82 58 60 bd
       0.024492675 0.051585592 0.050654195 -0.054771908
0002c0 44 b7 fe b9 fe 52 a5 bc 07 6c eb bd 6b 96 99 3d
       -0.000485832 -0.020181175 -0.11495214 0.07499393
0002d0 79 d6 84 bb cd 57 0e bc c7 e9 12 bd 0e 64 3a 3d
       -0.0040538874 -0.0086879255 -0.03586748 0.045505576
0002e0 22 ee 3b bd d9 e7 7d 3c 47 48 7a bd 5e 6c 2c 3d
       -0.045881398 0.015497171 -0.061104085 0.042095535
0002f0 7c ec d6 3c f2 69 9b bd fb d5 ba 3c fc 4a c7 3d
       0.026235811 -0.07588567 0.022807112 0.09731099
000300 c0 60 df bd 09 5f ed bd 96 dd 1a bd 64 2b 12 be
       -0.109071255 -0.11590392 -0.037808977 -0.14274365
000310 80 26 9f 3b c3 59 81 3e 9b b1 45 bd 59 80 3d bd
       0.0048568845 0.25263795 -0.04826508 -0.04626498
000320 df 3a e3 bc 02 6e 4d 3d f2 4e a7 3c 93 63 51 3d
       -0.027738033 0.05015374 0.020423386 0.051120352
000330 88 85 71 bd c4 56 30 bb f7 c2 c9 3d 0a a3 c2 3d
       -0.058965236 -0.0026907185 0.0985164 0.095037535
000340 dc 82 d9 bd c0 3b 8f bd 6c 81 d6 bc ba 12 37 3e
       -0.106206626 -0.06993818 -0.02618476 0.17878237
000350 1b 8d a2 3d 22 9a 0d bb fd d2 80 bd 93 f0 32 3d
       0.0793707 -0.0021606763 -0.06290243 0.04368646
000360 cd a0 da 3d d1 43 8f bd 63 51 92 bc ff c7 e3 bd
       0.106752016 -0.06995357 -0.017861074 -0.111221306
000370 42 ce 34 be 10 4b ad 3d 60 20 e2 3d 98 5c 03 3d
       -0.17656806 0.08461583 0.11041331 0.032070726
000380 f8 c3 ab 3d 54 03 67 bd a6 c4 fc 3a 67 84 1c bd
       0.083869874 -0.05639966 0.001928468 -0.038212206
000390 78 00 84 bb ea dc 12 3e 50 79 cc 3c 67 3c 00 3e
       -0.004028376 0.14342085 0.02496019 0.12523042
0003a0 cc e4 c3 3c 20 29 02 3e 13 5d d7 bd 53 63 3c be
       0.02391281 0.12711 -0.105157994 -0.18397264
0003b0 86 84 1b be 5f ec 0b be d4 01 d5 bc 3b a8 3a 3e
       -0.15187272 -0.13664387 -0.026001848 0.18228237
0003c0 1e 02 54 bd 61 ae 77 be cc b3 a2 3d d1 f4 8b bc
       -0.05175983 -0.24187614 0.0794445 -0.017084511
0003d0 2d fd 98 bd f5 a7 b0 bc 5b da 8f 3d 98 98 c3 bd
       -0.074701644 -0.021564463 0.0702407 -0.09550589
0003e0 6b 9b df 3c fe df 6d bb 2a 5d ba bd 9f d9 e8 3d
       0.027295789 -0.003629684 -0.09099801 0.11369633
0003f0 d6 6b 9b bd ca 88 e1 bc c2 14 8b 3c e7 bf a3 bd
       -0.075889274 -0.027531046 0.016977672 -0.07995587

bias f4 [64]
000000 e9 a0 93 3c a3 6d ca 3c 67 fe 8b bc 47 d1 c6 bd
       0.018021064 0.024710482 -0.017089082 -0.09707885
000010 82 89 08 bd 93 29 3d bd da a1 a3 ba 63 0a f7 3c
       -0.033334263 -0.046182226 -0.0012484149 0.03015632
000020 b6 a3 15 3e 33 5a 0e 3e 32 19 ff 3d a3 c0 01 3f
       0.14613232 0.13901596 0.124559775 0.50684565
000030 21 82 48 3b 47 46 46 bb 8d 8d 0a 3b 0e 80 39 be
       0.003059514 -0.003025429 0.00211415 -0.18115255
000040 8d a3 47 bc 1b b5 6c 3c c3 21 85 bd 5a 2d e4 3d
       -0.01218499 0.014447476 -0.0650058 0.111414626
000050 66 17 e1 3d 0c 48 7c 3c 5e 62 2f 3d 38 94 39 bd
       0.10990791 0.015398037 0.04281842 -0.045307368
000060 f7 20 e0 3d c8 cf ac 3d bc 5f 22 bb df 54 13 3d
       0.109437875 0.08438069 -0.00247763 0.03596961
000070 0c 73 0b 3e 50 4b 81 3c 57 8b 3f bb 5c 81 07 bd
       0.13618106 0.015782982 -0.002922734 -0.03308235
000080 9b 46 ec 3d 6d 50 fe 3d f7 8d ab b9 c5 a8 d0 bc
       0.115369044 0.12417684 -0.00032721434 -0.0254711
000090 0b 18 a2 3c 74 b4 62 3d b8 24 09 bc ed be 9a bd
       0.019786855 0.055347875 -0.008370571 -0.075559475
0000a0 5b 9f 0c 3d 1e 92 df 3c 49 e6 6e 3e e5 7d ec 3b
       0.03433166 0.027291354 0.23330034 0.0072171562
0000b0 8b 7f 29 3d cb 08 df 3d b2 c8 45 bc 5d ff 72 bc
       0.0413814 0.10890349 -0.012071775 -0.014831391
0000c0 29 89 59 3a 1c cb 3f ba 61 17 18 bb 51 4f 3b bd
       0.00082983315 -0.00073163374 -0.0023207294 -0.04572994
0000d0 2e 98 06 3e 11 47 97 bd c4 13 0f 3d f9 e2 73 3c
       0.1314399 -0.07386602 0.03493096 0.0148856575
0000e0 e4 5a b2 3c 1e 03 a3 bd 14 c2 74 3b cc b0 ed 3d
       0.021771856 -0.07959579 0.0037347125 0.11605987
0000f0 18 10 c1 bc 66 c5 d3 bc c5 93 24 bc c9 25 06 b7
       -0.023567244 -0.025850963 -0.010044997 -7.99582e-06

weight f4 [64, 64, 3, 3]
000000 75 fa 4d 3c 3d c8 78 3d 69 2a 42 bd 58 e2 cb bd
       0.012571921 0.060737837 -0.047403727 -0.09955281
000010 08 0d 20 be 46 64 7c 3d 30 b0 ab bc 3e 9b ec bd
       -0.15629971 0.061619066 -0.020958036 -0.115530476
000020 04 b6 a2 bb 44 7f 06 3b b6 89 fc bc 5a e7 43 3b
       -0.0049655456 0.0020522634 -0.030827384 0.0029892535
000030 5e 2e f8 bb 5f db 8e bd 09 2f c3 bd b6 91 98 3c
       -0.007573887 -0.069754355 -0.095304556 0.018624168
000040 ea 95 57 bd 33 0f c7 bb eb 24 3d 3d 04 c6 68 3c
       -0.052633204 -0.00607481 0.046177786 0.014207367
000050 65 cd 03 3e 43 c8 f5 bc 4d 8d be 3c 69 db bb bd
       0.1287132 -0.030002719 0.023260737 -0.091727085
000060 5e f3 8b bd 59 8e a4 bd d2 83 f1 bc f3 97 9e 3d
       -0.06833528 -0.08034963 -0.029481802 0.07743826
000070 60 f1 cf 3a ea 74 f0 3c 43 6b 34 bc ca 7c e1 bc
       0.0015864782 0.029352624 -0.011011901 -0.027525324
000080 94 48 42 3d a0 3f 9d bd fa f1 cd bc 3e 09 4b bd
       0.047432497 -0.07678151 -0.025139797 -0.04956936
000090 4a 25 69 bc 6f ae b8 3c d5 1b da 3a ce c7 a8 bd
       -0.014230082 0.022544114 0.0016640375 -0.08241235
0000a0 10 13 a3 bd 22 f5 5c bd cc 41 d8 bc a0 4d 9d bc
       -0.0796262 -0.053944714 -0.026398562 -0.019202054
0000b0 65 97 87 bc 84 d6 d6 bd b1 7b bb 3d 2d 36 31 3d
       -0.016551683 -0.10490134 0.09154452 0.043264557
0000c0 61 c0 38 3d 2f d8 1c 3c 18 7e 55 3d 28 34 89 bd
       0.04510534 0.009573027 0.052122205 -0.06699401
0000d0 89 50 14 bd d3 7d 19 3d 6d e5 9b bd bb 43 51 3c
       -0.036209617 0.03747351 -0.07612119 0.012772496
0000e0 71 12 9e 3c 1b 4b 4d 3c d4 65 d3 3c ad 08 7b bc
       0.019295903 0.012530114 0.025805391 -0.015321893
0000f0 a7 15 ce 3c 39 23 3c bd 87 76 0f 3c dd 77 92 3d
       0.025156809 -0.04593203 0.008756286 0.07151768
000100 2d a4 75 3b cb 31 39 bc 01 f1 01 3d e0 d8 54 bc
       0.003748189 -0.0113033755 0.03172398 -0.01299116
000110 1c 45 83 3d b1 7c 46 3d 72 af 7b bd 04 da 07 be
       0.06409666 0.04845876 -0.061446615 -0.1326676
000120 7d 31 83 bd bc a1 aa 3c 7f 93 70 3d 6c 53 58 3c
       -0.064059235 0.020829074 0.058734413 0.013203483
000130 0c 3f 88 bd 0b f4 3e 3d 75 f2 8c 3c 05 2e 38 bd
       -0.0665265 0.046619456 0.017205456 -0.044965763
000140 ef c5 82 bc 70 bc fd bd 97 f0 86 bd d8 ae 06 be
       -0.015963523 -0.12389457 -0.065888576 -0.13152635
000150 af 08 03 3e 8d b7 30 bd b8 ec e0 bc d9 6c 3c bc
       0.12796281 -0.043143798 -0.027456626 -0.011500561
000160 d4 97 4a 3d 1c b8 94 bd d4 11 79 bd ef c6 02 be
       0.0494612 -0.072616786 -0.060808018 -0.127712
000170 af 68 94 bd 82 6f 84 3a 42 76 a2 3d 91 98 86 bb
       -0.07246529 0.0010104033 0.07932712 -0.004107543
000180 43 87 0f bd a2 fb 87 bd 11 11 9e bc 03 99 a7 3c
       -0.035041105 -0.06639792 -0.019295247 0.020458704
000190 33 88 b9 bd da 22 dc 3c 86 13 71 3d 18 75 40 bc
       -0.09059181 0.026872087 0.05885651 -0.011746667
0001a0 b5 87 ef bc 82 25 0d bd 99 52 14 3d 86 5a 86 bd
       -0.029239515 -0.0344596 0.036211584 -0.06560235
0001b0 7a 68 b6 bd 3a 4b c0 bc e2 be 80 bd 64 33 07 be
       -0.08906646 -0.02347337 -0.06286408 -0.13203198
0001c0 f6 57 c8 bd ee dc 6a bd 12 fd 25 bd b3 fb 04 be
       -0.09782402 -0.0573396 -0.04052455 -0.1298664
0001d0 b7 da ce bd 14 1c 15 bd 62 c9 82 3d 93 07 9b 3d
       -0.1010031 -0.03640373 0.06386067 0.07569804
0001e0 0a 42 80 bd 63 33 d1 bd ef 37 e3 bc c0 fa 02 3d
       -0.06262596 -0.10214879 -0.027736632 0.031977415
0001f0 97 bc 1d 3b cd 8b 00 bd e6 ac bb 3c ad 95 43 bd
       0.0024068707 -0.031383324 0.022909593 -0.047750164
000200 26 26 86 bc d7 31 10 be b6 38 c7 3c 2f 7d 14 3c
       -0.016375612 -0.14081512 0.024319034 0.009063049
000210 8e 74 b8 bd 69 72 99 3c e8 77 aa 3d 81 83 8f bc
       -0.09006606 0.018731313 0.083236516 -0.01751876
000220 45 bd c4 bd 97 eb 3e bd 46 66 a1 3c b0 22 61 bd
       -0.09606413 -0.046611395 0.019702088 -0.05496472
000230 2a 61 90 bc 95 1c 0e bd fe 84 b7 bd 97 51 90 3d
       -0.017624456 -0.034695227 -0.08960913 0.07046812
000240 b7 c5 14 3d aa a5 cf bd 1d 6f a3 bc 46 bb 3f bd
       0.036321368 -0.1013902 -0.019950444 -0.046809457
000250 7a c8 9e bc ff b6 95 bd 49 a5 de bc 97 1b 07 bc
       -0.019382704 -0.07310294 -0.027178423 -0.008246324
000260 3b b7 44 3c 3d 95 a7 bb d5 4a 17 bb fd 1c 9d 3d
       0.012006576 -0.005114226 -0.0023085375 0.07671545
000270 16 93 f7 3c d6 10 85 bc f6 ea 34 bd 25 8e ba 3d
       0.030221503 -0.01624338 -0.04416939 0.09109143
000280 ba 52 74 3c b0 2a 37 bd 82 b6 8b 3a 54 bf 47 3b
       0.014912302 -0.044718444 0.001065925 0.003047903
000290 6d b9 0c be 4c b8 57 b9 48 c2 8b bc 42 2c aa bd
       -0.1374261 -0.00020572654 -0.017060414 -0.08309223
0002a0 9f af 78 3d 93 55 41 bb 7b 7c a6 ba d7 89 8d 3d
       0.06071436 -0.002950047 -0.0012701893 0.069110565
0002b0 64 0f 5f 3c a8 49 23 3c c3 e0 75 3d 03 35 ce 3d
       0.013614509 0.0099662915 0.060028803 0.10068705
0002c0 3a c3 00 3c 35 fe 08 3d dd b9 fa bd f7 48 73 bc
       0.007859046 0.033445556 -0.12242482 -0.014848939
0002d0 3d 67 58 3c e9 37 3d 3d 2e 5a 9c bd dc 9f 29 3d
       0.013208208 0.0461959 -0.07634388 0.04141222
0002e0 94 0f 1a be d4 c3 e5 bb ce fa 91 3d bf a6 d2 bc
       -0.15045005 -0.00701187 0.07127915 -0.025714276
0002f0 5b 49 c3 bd 79 77 27 3c 29 f7 a9 bb b2 32 81 bd
       -0.09535476 0.010221356 -0.0051869345 -0.063084975
000300 94 b0 29 bc 02 f8 aa 3c 03 d1 85 bc ab dc ba 3d
       -0.010357041 0.020870212 -0.016335016 0.0912412
000310 86 b8 a0 bd 73 d5 ba bc 84 23 75 3d 2c 92 d9 3b
       -0.07847695 -0.022806859 0.059848323 0.0066397395
000320 85 46 f8 bc e9 15 f3 3c d2 cb 2f 3b a2 cd 56 bb
       -0.030307064 0.029673534 0.0026824367 -0.0032776375
000330 6c ce ba bc 09 d8 bd bc 6e de b8 3c 60 01 81 bd
       -0.022803508 -0.023174303 0.022567 -0.062990904
000340 26 89 a0 3d c3 74 be 3d 38 57 03 bd d2 32 a9 bc
       0.07838659 0.09299614 -0.0320656 -0.020654116
000350 71 64 f9 3c ab 04 82 bd 92 6a 87 bd 96 bd ed bc
       0.030443402 -0.063485466 -0.066121235 -0.029021066
000360 78 ef 87 bd ef b4 d3 bd 67 38 f8 3a 4d 83 4f bc
       -0.06637472 -0.10337245 0.0018937708 -0.012665582
000370 35 c5 82 bd c6 3a ff bd fa 58 4a bd 4d 19 fa bc
       -0.063852705 -0.12462382 -0.04940126 -0.030529642
000380 61 ca 65 bd 46 29 b6 bd 32 46 8b 3d c3 53 53 bd
       -0.056101207 -0.08894591 0.06800498 -0.051593553
000390 01 1c 2a 3c bc 45 ed 3c b2 fd 9a bd 51 79 a8 bc
       0.010382653 0.028963916 -0.0756792 -0.02056566
0003a0 4e e8 d4 bc 0d 05 41 bd b9 22 11 bd 79 71 67 bd
       -0.025989678 -0.047123957 -0.035433505 -0.0565047
0003b0 c6 85 8c bd 5d 14 84 bc cd 7e ce bd c6 e7 c9 bd
       -0.06861453 -0.016122991 -0.10082779 -0.098586604
0003c0 69 dc 60 bd 25 98 a7 bd 1e 07 80 bd 28 db 60 bd
       -0.0548977 -0.08183316 -0.062513575 -0.054896504
0003d0 2b 36 f4 bd 5f a2 4c bd d9 85 b9 bd 7a bd 60 be
       -0.11924394 -0.049959537 -0.090587325 -0.2194728
0003e0 62 d9 d2 bd 77 c9 16 3d 20 cf 08 be 8c ea 27 be
       -0.10295369 0.036813226 -0.13360262 -0.16398066
0003f0 b3 54 03 bd b2 52 54 bc e1 18 4f be 75 53 8f bd
       -0.032063197 -0.012959169 -0.20224334 -0.0699834

bias f4 [64]
000000 dd e0 c9 bc 73 95 46 3e 6f c5 9d bc f2 83 f9 bc
       -0.024643356 0.19392948 -0.019259183 -0.030458424
000010 4c 90 af 3d 3e f1 15 3d ef 40 90 bc 70 80 84 be
       0.08572444 0.03660702 -0.017609088 -0.2587924
000020 54 06 21 3b 7f 4c f1 bb 9c 6d ad 3d 9f 36 87 3d
       0.0024570422 -0.0073638554 0.08468172 0.06602215
000030 b1 33 4a bd 8d 41 6c bd 65 ff dd 3c 4c af d2 bd
       -0.049365703 -0.0576797 0.02709932 -0.102873415
000040 7d 20 fe bc fc 5d f9 3d 9d a0 1a 3e 54 4e 89 3e
       -0.031021351 0.12176129 0.15100332 0.26817572
000050 a9 b7 aa 3d c5 8f 6a bd 43 65 52 3d 61 ea 2a 3c
       0.08335812 -0.057266016 0.051366102 0.010431857
000060 10 41 bb bc 12 0a e4 3d f9 73 b5 3c fd 53 a4 bb
       -0.022858173 0.11134733 0.022150027 -0.005014895
000070 88 2b 7e bd c5 db 48 3c 20 4e 28 bd 6a 67 95 3c
       -0.062053233 0.012259428 -0.04109013 0.018237788
000080 d5 97 95 3d 56 d1 92 bd e4 08 65 bc a0 2f b7 3a
       0.0730435 -0.07168834 -0.0139791705 0.0013975985
000090 34 b9 ac bc 72 26 de 3d 84 50 12 bd a1 50 f4 bb
       -0.021084405 0.108471766 -0.035721317 -0.007455901
0000a0 09 e2 84 bd 29 d0 da bc 6a 19 78 3e d9 b2 9e 3d
       -0.06488425 -0.026710587 0.24228445 0.07748956
0000b0 96 ff d4 bb 46 e4 62 bd 20 6b 4d bd 5d 22 b8 3d
       -0.006500195 -0.05539348 -0.05015099 0.08990929
0000c0 a2 26 dd bc be e5 9f bc 63 70 12 3d 6c 07 62 bd
       -0.02699596 -0.01951873 0.03575171 -0.05518286
0000d0 d6 83 3f be d6 c4 d1 3e 26 97 e8 3c 01 82 00 bd
       -0.18702635 0.40970486 0.028392386 -0.03137398
0000e0 c9 6e 6d 3d b5 cc 62 bd c1 38 48 bd d8 ff 24 be
       0.05796698 -0.055371005 -0.04888225 -0.16113222
0000f0 1b 79 3a bd e8 74 b1 3d 28 0e ad bd 6c 2c 33 3e
       -0.04552565 0.08664876 -0.08449966 0.17497414

weight f4 [64, 64, 3, 3]
000000 d7 84 c1 bc 3d a0 09 3c 65 5a 5d bd 73 49 6e 3d
       -0.023622913 0.00840002 -0.054041285 0.058175515
000010 a3 1a b8 bd 9e 10 82 bd 18 41 ec bd d1 d4 b4 3c
       -0.089894556 -0.06350826 -0.11535853 0.022074135
000020 96 49 c7 3c ec 07 73 3d 82 db 94 bc 00 ff 42 3d
       0.02432708 0.059333727 -0.018171076 0.04760647
000030 11 86 2a 3c 50 98 3f bc b2 3e 35 bd fb 29 44 bc
       0.0104079405 -0.011694029 -0.044249244 -0.0119729
000040 c5 ba 34 3d 85 fb b1 bd 02 53 e0 bd b7 7d 42 3c
       0.04412343 -0.08690552 -0.109533325 0.011870793
000050 a9 d6 aa 3d 87 b0 b8 bc f3 8e 9f bb b5 8d 82 b9
       0.083417244 -0.022545112 -0.004869336 -0.00024901112
000060 9b 9e d6 bc 36 c2 a2 3c b0 50 84 bd 32 7b 18 3c
       -0.026198676 0.019867998 -0.064607024 0.009306716
000070 ec 72 40 bd 84 29 92 3c 30 40 6f bd a7 b4 9a bc
       -0.046984598 0.017842062 -0.058410823 -0.01888497
000080 93 ad 63 3d b7 a7 76 3d fe 59 81 bd 2c ac 15 bd
       0.055585455 0.06021854 -0.06315993 -0.03654115
000090 2e d9 3f 3c db b2 1a 3c 80 76 00 3d 60 23 bb bb
       0.0117094945 0.0094420565 0.03136301 -0.005711004
0000a0 5e 78 e2 3c 5c 90 68 bc 0e 26 b2 3c 35 91 09 3d
       0.027645286 -0.014194574 0.021746662 0.033585746
0000b0 5c ab 05 3c fb f7 da 3c 4f 09 76 3c 3f 46 3e bd
       0.008158531 0.026729574 0.015016868 -0.04645371
0000c0 51 db 97 bb af 7c c5 3a dc 88 7b bb 14 20 83 bd
       -0.004634299 0.0015067066 -0.0038381135 -0.06402603
0000d0 6b f4 23 bd a1 c4 bf bd 82 1c e8 bc e1 ee ff 3c
       -0.040028017 -0.09363676 -0.028333906 0.031241836
0000e0 77 6f e4 bc ca e8 db bd 69 6a 83 bd 59 2a c0 3d
       -0.027885182 -0.1073776 -0.064167805 0.09383077
0000f0 f3 98 88 3d 3e 9f a3 bb 06 bc 02 bd b1 06 ef 3c
       0.06669798 -0.0049933484 -0.031917594 0.029177995
000100 e1 71 ae bd a4 ff 6f 3d 69 92 28 3d 56 a0 9f 3c
       -0.085178144 0.058593407 0.041155253 0.019485634
000110 3f 1f 79 bc 0d 2f 7d bc ca ad 81 3c c9 7e 51 bd
       -0.015205204 -0.015453112 0.01582994 -0.051146302
000120 d2 6b a1 bc 5e 4e e1 bd ef 8a 21 be fb 2a e7 bd
       -0.019704733 -0.110012755 -0.15775655 -0.11287495
000130 c3 c4 05 bd 3e ab cc bd 58 3e ee bc 15 ce aa 3b
       -0.03265835 -0.09993599 -0.029082462 0.005212555
000140 04 68 7a 3a ed 94 58 3d 47 e8 14 3d c6 da d5 bc
       0.00095522427 0.0528764 0.03635433 -0.026105296
000150 c1 a8 bd bc 00 8b c3 bc 67 e0 7d bc 0f 71 b0 bd
       -0.023151757 -0.023869991 -0.015495396 -0.08615314
000160 cd b0 26 3d 6a b9 90 bd 9f de 12 3d ae ce b1 bc
       0.040695954 -0.07066615 0.03585684 -0.021704998
000170 eb 4f 97 bd bb f7 07 3d 83 62 23 be 59 e8 b4 bd
       -0.0738829 0.03319524 -0.15955548 -0.08833379
000180 bd 7b 92 bd 59 89 93 3c 53 a6 9c 3b 15 98 e0 3b
       -0.071525075 0.018009828 0.0047805696 0.006854067
000190 bd f7 34 ba a9 60 dc bd 54 66 f3 bc 62 b1 05 3a
       -0.0006903371 -0.10760624 -0.02971188 0.00050999795
0001a0 67 ca 72 bd 4c 07 a0 bb 28 af 94 3c b4 88 87 bc
       -0.059275057 -0.0048836824 0.018149927 -0.016544677
0001b0 28 12 48 bd 78 5f b2 bb 80 ef 90 3d 3b a1 7f bd
       -0.04884544 -0.0054435097 0.07076931 -0.06240962
0001c0 19 be ad bd 26 fc 5c bd 16 eb 1e 3c f1 e4 ac bc
       -0.08483524 -0.053951405 0.009699604 -0.021105262
0001d0 06 18 60 bc f8 06 0e 3c 33 26 8a 3d 17 e6 a5 bc
       -0.013677603 0.008668654 0.06745567 -0.020251317
0001e0 b3 9f 24 bd 71 dd 53 3d b1 b4 01 bd 9f fc 8c 3c
       -0.040191364 0.051724855 -0.03166646 0.017210303
0001f0 34 82 89 bc ca 81 29 bd 43 f1 cb bd 77 74 3c bc
       -0.016785719 -0.041383542 -0.099581264 -0.011502377
000200 fc df 9e 3d 66 0a 80 3d 53 e4 ae bd 1b 07 2b 3d
       0.077575654 0.06251983 -0.08539643 0.041754823
000210 5d fa 67 bd 73 bd 2b bd 32 3a 4f bd af 74 11 bd
       -0.05663525 -0.04192872 -0.05059261 -0.03551167
000220 5f f5 26 3d 69 cf 8f 3d 13 c5 35 bc 28 a5 e8 3b
       0.040761348 0.07021982 -0.011094349 0.0070997663
000230 21 3e c6 bc 1e 32 a5 bd 62 75 05 3e 36 1e 05 be
       -0.024199547 -0.080662 0.13033059 -0.12999806
000240 1d 66 56 3d 7a 0e b8 bd e9 87 86 3d a4 cb e0 3c
       0.052343477 -0.08987136 0.065688916 0.027440853
000250 83 4f 45 bd cf 68 8e bc 02 0d 26 bd 25 be bd bc
       -0.04817153 -0.017383961 -0.04053975 -0.023161957
000260 56 0a d2 bc 31 f5 02 bd af bc b1 bd ae a2 9c bd
       -0.025639694 -0.031972114 -0.08678567 -0.07648216
000270 70 4d f5 bd 4a 83 a1 bd b1 fc a5 3c e1 3f 76 3d
       -0.11977661 -0.078863695 0.020262094 0.060119513
000280 40 ed c9 3d 64 93 0d 3c 39 2c b0 bc c4 ce 29 3d
       0.09859705 0.008641098 -0.021505462 0.041456953
000290 db 2b 8b bd c9 fc cb 3d 28 10 91 3c cf 5a 21 3d
       -0.06795474 0.09960324 0.0177079 0.039393242
0002a0 e3 33 fa 3d d5 a5 8f bb 6e 5e 84 3d fb b3 b0 bc
       0.12216928 -0.0043837824 0.064633235 -0.021570196
0002b0 b6 a9 68 3d 16 ce 2e be c0 85 09 bd ac 05 ae bd
       0.056802474 -0.17070803 -0.03357482 -0.084971756
0002c0 f7 b2 8f 3c 2c 51 ba 3d 17 f1 2d bc d1 06 e2 3c
       0.017541392 0.090975136 -0.010616562 0.027591141
0002d0 6b 6d d3 bc 27 18 53 bc 94 df 43 bc a5 be fd bc
       -0.02580901 -0.012884176 -0.011955161 -0.030974695
0002e0 be e8 46 3c 2f 35 33 bd e5 c2 c9 3d 77 0a 28 bd
       0.012140451 -0.04375189 0.09851626 -0.041025605
0002f0 ea cb f1 3c a6 9a 55 3d 24 6b 7e bc e2 39 21 bd
       0.02951618 0.052149437 -0.015528474 -0.039361842
000300 f3 2c 2f bd 30 aa 66 3c 49 e4 c3 3d 4f a8 75 bd
       -0.042767476 0.014078662 0.09565026 -0.059974965
000310 bd eb 88 3d 4c c7 07 3e 33 aa e8 3c 70 ba 3c 3c
       0.066855885 0.1325962 0.02840147 0.01151906
000320 ca 52 02 3d 3b 3a 12 bd 2c 73 03 bd 15 40 73 bd
       0.031817235 -0.035700064 -0.03209226 -0.059387285
000330 a0 be 97 3d c3 86 25 3d 97 05 da 3c 9b 93 d7 bd
       0.07409406 0.040411722 0.026613994 -0.105262004
000340 d2 83 3e 3d a7 92 13 be 49 da 11 3e 3f 95 90 bc
       0.046512432 -0.14411412 0.14243425 -0.017649291
000350 4f 51 a1 bc 30 6d ba 3d f7 3a 14 3e 16 e0 22 3d
       -0.019692091 0.09102857 0.14475618 0.039764486
000360 03 e2 76 3c 1b d1 79 3b 77 ae 85 bd 0a 80 4b 3d
       0.015068534 0.0038119021 -0.06527417 0.049682654
000370 d6 f0 5b bd 0c b2 24 bd 8d f0 11 3d d9 fd 1e 3d
       -0.053696476 -0.04020886 0.035629798 0.038816307
000380 7b 25 aa bd 1a 5f 1b bd 4c 3c cd bd 1d 76 87 3d
       -0.0830793 -0.037932493 -0.10021266 0.06614325
000390 82 ed 0e 3c 3c 67 bd bc ab fb 21 bc a6 52 9c 3d
       0.008723618 -0.023120515 -0.0098866625 0.076329514
0003a0 98 2c 94 3d 2c 68 33 bd be 48 0b bd 60 f9 d1 3c
       0.07235068 -0.043800518 -0.03400492 0.025631607
0003b0 7f db 3a bd 6f 00 1a bd c7 b4 08 bd 44 bf a6 3b
       -0.045619484 -0.03759807 -0.033375528 0.0050887186
0003c0 23 bf b2 3c 2f 74 60 bd 1c 0b 8e 3d f9 0a cb bc
       0.021819657 -0.0547983 0.06935713 -0.024785506
0003d0 58 03 ec 3c 78 d2 63 bc 2c 77 c7 bc 9e 9d de bb
       0.028810188 -0.01390516 -0.024348818 -0.006793692
0003e0 f2 de 56 bd c6 ef 5d 3d d4 d0 27 be 02 be 93 bd
       -0.05245871 0.054183744 -0.16388255 -0.072139755
0003f0 0d 56 31 3d 40 32 51 bd 35 14 1f bd c5 16 b3 bd
       0.043294955 -0.051073313 -0.03883763 -0.08744577

bias f4 [64]
000000 6f ad 32 bd 44 24 93 bd ff 7e 8f bd d3 03 33 be
       -0.04362243 -0.071846515 -0.070066445 -0.17481928
000010 cc b8 77 bd d1 60 3d bd 9e d0 48 3b e9 68 23 3b
       -0.06047897 -0.04623491 0.0030641924 0.0024934357
000020 66 8f 98 bd c4 25 77 bc d1 e8 4d 3a 66 7c 9c 3e
       -0.07449226 -0.015084688 0.0007854822 0.30563658
000030 38 b4 17 bd 4c c0 7d 3c bc 94 fe 3b 90 82 f9 3b
       -0.037037104 0.015487742 0.0077691954 0.007614441
000040 09 2d 74 bd 11 1d 8f 3a d4 de 5a 3c 20 e1 99 bd
       -0.05961326 0.0010918697 0.01335879 -0.07513642
000050 f6 81 92 3c d1 a1 fb 3c a5 14 22 3d 56 04 76 bd
       0.017884236 0.030716809 0.03957047 -0.06006273
000060 e4 d9 34 bc b2 96 70 bc 78 ed 9b bd 7e 6a 67 bd
       -0.011038277 -0.014684366 -0.07613653 -0.056498043
000070 2c 7b 4d bd b2 22 16 3c 17 54 68 bd af 05 9c 3d
       -0.050166294 0.009163545 -0.05672082 0.076182716
000080 9a 33 93 3d fa 51 c9 bc ec 28 4a bd a6 45 6b bd
       0.071875766 -0.024575222 -0.049355432 -0.05743947
000090 65 56 65 bd 33 aa b3 ba a3 fd fb 3d 09 6c 8a bc
       -0.055990595 -0.001370734 0.12304237 -0.016897218
0000a0 6a bc 48 bb d8 52 56 3d 26 69 e8 3b 6b 37 6f 3d
       -0.0030629882 0.0523251 0.007092613 0.05840246
0000b0 55 38 0c bc 2e a3 f6 3c 26 22 6d bd 40 a0 8d bc
       -0.0085583525 0.030107107 -0.057893895 -0.017288327
0000c0 a4 be ab bd d1 17 09 3e 7d 0c 8a bd 02 03 02 bc
       -0.08385971 0.13387991 -0.06740663 -0.007935287
0000d0 1c 46 10 bd fe 65 88 bd 34 34 72 be 9f 5d 7a bc
       -0.03522311 -0.066600785 -0.23652726 -0.01528111
0000e0 53 fc 20 3d e0 05 45 bc 35 a7 42 bd 58 bf 8e bd
       0.039303135 -0.0120253265 -0.047522742 -0.0697009
0000f0 d3 2c 4d bd 4e 3a e5 bc 34 03 27 bd 43 94 1b bc
       -0.050091576 -0.027981903 -0.04077454 -0.009495798

weight f4 [12, 64, 3, 3]
000000 60 4b 03 3e 77 56 6b bc d5 b4 00 bd a6 e8 8c 3c
       0.12821722 -0.014363877 -0.031422455 0.01720078
000010 5a b5 e2 3d 94 1e 94 3d de c2 1b bc 5c a9 e4 3c
       0.11069746 0.07232395 -0.009506909 0.027912788
000020 c6 17 c7 3c 24 e5 2c bc a8 77 e5 bc c4 f4 91 3b
       0.024303328 -0.010552678 -0.028011158 0.004454227
000030 70 91 05 3a 5c f0 71 bd 4a c4 79 bb fc b3 0b bb
       0.0005095219 -0.059067115 -0.0038111382 -0.0021316996
000040 ae 24 ca 3c 02 e9 9a 3b 1f 15 af 3c 6d 16 a1 3d
       0.024675693 0.0047274837 0.021372376 0.078656055
000050 e3 d6 d5 bc 32 32 13 3d 8d 01 1d 3d 52 1f 1d bb
       -0.026103443 0.03593654 0.038331557 -0.0023974967
000060 d3 7e 84 3a 23 e9 06 3d 7e c1 06 3c 33 85 c2 bc
       0.0010108597 0.03293718 0.008224843 -0.023745155
000070 5f de e8 3d 98 88 07 bc ed c6 9e bc 38 b3 95 bd
       0.11370539 -0.008272313 -0.019381965 -0.07309574
000080 c3 2a 22 bb 0a ec 79 3a da a5 8f 3c fb 13 bb bb
       -0.0024744726 0.0009533769 0.017535139 -0.005709169
000090 49 0e df 3c 15 fc 7a 3d 2b 81 84 bc c0 f9 2b 3d
       0.027228491 0.06127556 -0.016174873 0.041986227
0000a0 81 3e ec 3c fa c3 4d bd 94 5d e7 3a cf 1b 91 bc
       0.028838398 -0.050235726 0.001765179 -0.017713455
0000b0 1f 27 12 3c 8b 36 4e ba 2e a6 3c bc dc bc af 3c
       0.00892046 -0.0007866404 -0.01151423 0.02145236
0000c0 c9 e4 a4 bb 6a bd cb 3d bb 73 95 bc b6 8b 1e 3c
       -0.005032156 0.09948237 -0.018243661 0.009676864
0000d0 19 1d e3 bb 6c 7d 68 bc c1 04 e9 bd a0 f6 1e be
       -0.006930959 -0.014190059 -0.1137786 -0.15523767
0000e0 23 ad 5a 3e 7e 2f 8e bd a5 53 c4 be 5f 62 8f 3e
       0.21355109 -0.06942652 -0.38345066 0.2800474
0000f0 95 f2 53 bd ac 4e 7e bd 74 63 00 3e c1 10 6d 3c
       -0.051745016 -0.062086746 0.12537938 0.0144693265
000100 9c 58 19 3d d8 f5 c5 bb 90 7f 6e bc 5f 8a 9d bc
       0.03743802 -0.0060412697 -0.01455678 -0.01923102
000110 e9 d2 63 bc d8 29 a4 bc e5 24 ae bc e3 eb 80 bc
       -0.013905265 -0.020039484 -0.021257827 -0.01573748
000120 90 0e 5e bd d1 b7 bd ba 8d 3b 0c 3b 31 62 80 bc
       -0.054213107 -0.0014474337 0.00213978 -0.015671821
000130 9d c4 3d bc 61 52 05 bd b9 01 f7 3d b5 dc be bb
       -0.011582521 -0.032549266 0.120608754 -0.00582465
000140 dc 00 ee 3b c5 b5 0f 3d 04 3f a4 bd 93 f2 f0 bc
       0.007263286 0.03508546 -0.08019832 -0.029412543
000150 9e 7e 2a bd 8d fb 57 3d 74 e1 36 bd e6 9e 98 3c
       -0.041624658 0.052730132 -0.044648603 0.018630456
000160 e6 44 56 bc c6 3e f9 3c d1 94 ac 3d f0 ee a4 3d
       -0.01307795 0.03042544 0.08426822 0.08053386
000170 f7 db 89 bd 19 56 63 bb 00 5e 50 bc 08 19 58 bd
       -0.06731408 -0.003468877 -0.012717724 -0.052758247
000180 63 4b cd bc 70 cf 16 bd ff 74 ea bc e5 0b 6e 3b
       -0.025060361 -0.03681892 -0.028620241 0.0036323008
000190 e8 66 3d 3b e0 88 42 bb 45 4b f2 bc b2 44 a1 3c
       0.0028900448 -0.0029683635 -0.029576907 0.019686077
0001a0 b6 b1 c6 3c d9 0f ca ba e9 43 1f 3b 0f 26 bb ba
       0.024254661 -0.00154161 0.0024301952 -0.001427831
0001b0 77 07 6f bb 8a 0d 29 bd 30 c8 32 bd 27 2f e2 3c
       -0.0036472955 -0.041272677 -0.043647945 0.027610375
0001c0 33 03 38 3c ad 4e 9b 3c 4a 09 e8 b9 66 e6 29 3d
       0.0112312315 0.018958414 -0.0004425741 0.04147949
0001d0 9e 23 40 bd 87 97 78 3c 67 6a 02 3c f7 9d 94 bc
       -0.046908967 0.015172846 0.007959939 -0.01814173
0001e0 90 a2 7b 3d 65 e2 13 3e 14 8a 00 3c 7b ea 3f bc
       0.06143433 0.14441831 0.00784542 -0.011713619
0001f0 6d 23 4b bc 7c 20 68 bd a1 4e 4c bd df 03 0e 3d
       -0.012398583 -0.056671605 -0.049879674 0.03467166
000200 47 c8 59 3d 62 e4 86 bd 45 70 98 bc 2c 8e 8f 3d
       0.053169515 -0.06586529 -0.018608222 0.07009539
000210 35 82 10 bd 09 4f 73 3c e2 57 09 3d b8 69 5e bc
       -0.035280425 0.014850386 0.033531077 -0.01357501
000220 87 b6 d1 bc 05 e4 82 bc 69 78 67 3d e6 55 ed 3c
       -0.025599731 -0.015977869 0.056511316 0.028971624
000230 c3 1c 18 bd 6c 71 bf bc d1 2c 17 bc 6b 63 cb 3a
       -0.037136804 -0.023369513 -0.009226994 0.00155173
000240 ce 44 b3 bc 12 7b 11 3b b6 72 22 3d 17 cc 8d 3a
       -0.021883395 0.00221986 0.039660178 0.001081827
000250 ba 90 7a 3d b8 1f fc bc 4c fe 91 bc f7 d2 5c bd
       0.06117318 -0.030776843 -0.017821454 -0.05391213
000260 04 93 c6 3b ed 32 ac 3c 9f 1d 2e 3d 90 98 2f bc
       0.006060006 0.021020377 0.042508718 -0.010717526
000270 99 d8 a9 3b f6 9e b4 bc f0 9e ac 3c 13 db dc bb
       0.005183291 -0.022048455 0.021071881 -0.006739983
000280 cf c2 50 3c 29 e2 2c 3d a6 80 5e bc cb 74 26 3d
       0.0127417585 0.04220787 -0.013580477 0.040638726
000290 10 2a b1 3c 43 8f aa 3b a1 ed 06 3d 8a aa 52 bc
       0.021626502 0.0052050664 0.032941464 -0.0128580425
0002a0 a5 e8 2c bd ef 50 83 3c 56 2b 1b bc 95 87 97 bc
       -0.042214055 0.016029803 -0.009470781 -0.018497268
0002b0 34 74 55 3b 14 42 2d 3c 4f e1 5d 3d 01 ec 51 bd
       0.0032570483 0.010574836 0.05416995 -0.05125046
0002c0 91 a2 70 3c 4e 39 f6 3a 26 8d 97 bb 28 da 7e bb
       0.014687196 0.0018785389 -0.0046249805 -0.0038887355
0002d0 8e 93 c9 bc b9 19 4f 3d 86 e4 15 bb 9b 07 4e bd
       -0.024606492 0.05056164 -0.0022871806 -0.050300222
0002e0 65 b2 76 bd 03 c5 71 bb 29 47 30 bc ec 22 b3 3c
       -0.060228724 -0.003689111 -0.010759153 0.021867238
0002f0 b7 4c 83 3c 39 e5 ea 3c 12 d8 1d 3d e8 62 83 bc
       0.016027791 0.028673755 0.03853614 -0.016038373
000300 9a 81 15 3d 8e bf ac bd 9c 47 dd bc be c1 6b 3b
       0.03650055 -0.08434974 -0.027011685 0.0035973634
000310 d1 e8 8d bc 05 23 7e 3c 56 c8 b6 3c a6 06 be 3d
       -0.01732293 0.015511279 0.022312324 0.09278612
000320 d7 da 2e 3d f4 51 21 bd fa a6 7b 3e 01 49 1f be
       0.04268917 -0.039384797 0.24575415 -0.15555193
000330 c9 db 44 bd cd 8a 00 3e c7 4e da bd 5a 14 55 bd
       -0.048061166 0.12552948 -0.10659557 -0.052021362
000340 a0 1d 71 3d d9 7a c7 bc cd 74 03 3d 15 4b 83 3d
       0.058866143 -0.02435057 0.03209381 0.06410805
000350 2d cb a4 3c 98 71 09 bd db b1 76 bd 7a 85 45 3d
       0.020116413 -0.033555597 -0.06022821 0.048222996
000360 be ce 23 3d 8f d7 f5 3c 04 12 29 bd b9 b4 c9 3d
       0.039992087 0.030010013 -0.041276947 0.09848923
000370 28 91 05 3d 05 df f1 bd 17 57 21 bd 50 43 da 3b
       0.032609135 -0.11810116 -0.039389696 0.0066608563
000380 0f ec 68 bd 3e db 29 3d 0b 2b 00 bd 7d 63 09 bd
       -0.056865748 0.04146885 -0.03129105 -0.033542145
000390 ff 9d 2b 3d 58 e3 a4 bc b2 52 eb 3d 22 53 c3 3c
       0.041898724 -0.020127937 0.11490382 0.023843352
0003a0 be be 8b bd 20 aa 4e bc 34 be a9 bc df 59 e0 3c
       -0.068234906 -0.012613803 -0.020720579 0.027386604
0003b0 6f cf f3 3c a2 c5 a7 3c 0f 2c 33 3d e7 7e 7b bd
       0.029761998 0.02047998 0.04374319 -0.06140032
0003c0 29 1f d0 bb 05 b7 5e bd 22 b7 92 bb 7a d6 9d bd
       -0.006351371 -0.05437376 -0.0044773975 -0.07706924
0003d0 75 ac 11 3d d9 fa db bc 00 75 b9 bc 91 89 29 3e
       0.03556486 -0.026853012 -0.022638798 0.16556384
0003e0 43 f0 1d bc ba a2 f7 bc ac 0b 99 bc 62 20 0b bd
       -0.009639802 -0.030228961 -0.018682323 -0.03396643
0003f0 83 ad ba 3c c7 9c 90 3c 60 b6 0d 3d 32 ea 4b 3b
       0.022787815 0.017652882 0.034597754 0.0031114933

bias f4 [12]
000000 09 8c 01 3b 64 bc cc 3a 79 9b 7c 3c a9 a8 b5 bb
       0.0019767305 0.001562011 0.015417927 -0.0055437875
000010 14 86 39 bc aa 54 38 bc 08 d7 a3 3c 38 ba 0f 3c
       -0.011323471 -0.011250654 0.019999996 0.008772425
000020 b3 8c 2b 3c 87 90 0e 3c 31 e8 11 3c 62 86 24 3c
       0.010470557 0.00870145 0.008905456 0.010041805
