train_weight_sr4/model_epoch_3.pth (torch_old, 667646 bytes, 10 tensors)

weight f4 [12, 3, 13, 13]
000000 2b 7a 2f 3c 8e 88 0e be 09 df ad 3c bb 7e a2 bc
       0.010710279 -0.13919279 0.021224516 -0.01983582
000010 b3 25 64 bd f4 79 b1 bd 0a 86 b2 3c 93 4d 94 3c
       -0.055700015 -0.08665839 0.02179243 0.018103397
000020 3e c4 42 be fd b4 6f 3d ae 1d a8 bd 57 dc 99 bd
       -0.19020173 0.058522213 -0.08208786 -0.075127296
000030 df d9 88 bd ba 7f 8b 3c b7 51 0a be e5 cb 84 bd
       -0.066821806 0.017028678 -0.13507734 -0.06484202
000040 e3 2d 7d bd 8b be c0 3d f6 13 2f 3c ec c0 57 3c
       -0.06181134 0.09411343 0.010685911 0.013168555
000050 8e c6 e6 bd a8 6e ca bd c2 45 d7 bd 06 ff 8c bd
       -0.1126834 -0.09884387 -0.10511352 -0.06884579
000060 c5 a9 85 bd 68 7e 07 bd c6 54 84 bd 44 c0 da bd
       -0.065265216 -0.033079535 -0.06461482 -0.10681203
000070 ab 6c 58 3d 86 14 5c 3d 05 78 b1 ba 27 23 41 bd
       0.05283801 0.05373051 -0.0013539797 -0.047152665
000080 17 9a 80 3d 52 99 a5 bc 41 91 36 bd 52 14 5a 3d
       0.0627939 -0.02021471 -0.04457212 0.053242035
000090 5c c1 cb bb 80 4a 9c bd 7b 42 b5 3c 83 81 72 3b
       -0.0062181186 -0.07631397 0.022126427 0.0037003465
0000a0 46 b2 19 be 46 e3 e5 bd b1 60 22 bc e1 11 13 3d
       -0.15009412 -0.112249896 -0.009910748 0.035905723
0000b0 ff 1a 85 3d 01 9f 4a bd 64 7a 0b be 1b d4 59 bd
       0.0649929 -0.049468044 -0.13620907 -0.053180795
0000c0 4a a0 bd bd a7 c8 bd 3b 8b 5f b8 3a ac 4f 95 bd
       -0.09259088 0.005791742 0.001406656 -0.07290587
0000d0 81 05 b5 bd c0 70 ea 3c e4 c3 11 be 91 b9 38 be
       -0.088389404 0.028618217 -0.14234883 -0.18039538
0000e0 fe 69 55 be 85 d1 96 bc 6c 75 e2 bd 96 82 d2 bc
       -0.20841214 -0.018410454 -0.11057553 -0.025697034
0000f0 c9 be 1b bc 22 31 c5 bb 1e 27 3e bd ed 35 1e bd
       -0.009505936 -0.00601782 -0.046424024 -0.038625646
000100 48 f1 9c 3d 1e 9a 8e 3d ab be b8 3d 75 d2 0e 3e
       0.07663208 0.06962989 0.09020742 0.1394747
000110 39 e7 4c 3d 1e 2e 96 3c 08 79 ea 3d 27 96 a4 bc
       0.0500252 0.018332537 0.11448866 -0.02009113
000120 5e 15 b4 3d eb 90 c8 bd f1 25 e1 bd 04 eb ef bc
       0.08793138 -0.09793266 -0.10993565 -0.029286869
000130 1d 9a ea bd 87 b7 06 be 79 1f 11 bd 56 01 a3 3d
       -0.11455176 -0.13155948 -0.035430405 0.07959239
000140 e2 04 e8 bd 77 7d 6a bc c4 f8 a9 bb a9 21 aa 3d
       -0.11329056 -0.01431214 -0.005187126 0.083072014
000150 17 76 99 3d 0d 4b 81 3d e6 f5 9f 3d 34 d1 bc 3d
       0.07493227 0.06313143 0.07810573 0.0921959
000160 f2 94 41 3e 6b a2 ae 3d 74 30 5a 3d 2e 5f 57 bc
       0.18904474 0.085270725 0.053268865 -0.013145251
000170 83 60 9a bd fd 5f 67 bd 27 3d b3 bc 76 a6 4d be
       -0.075379394 -0.056488026 -0.021879746 -0.20083031
000180 17 8c 0a be 6c ff 0b bd a7 40 18 bd bd 17 70 bc
       -0.13530003 -0.034179136 -0.037171032 -0.014654097
000190 73 24 f2 bc 76 5c d0 3d 8b 6d 37 bc 2c 76 aa 3d
       -0.029558396 0.101738855 -0.011195551 0.08323321
0001a0 6f c1 88 bd 2d 0f 59 bd 86 cc 02 bd 9f 05 b7 bd
       -0.066775195 -0.05299299 -0.03193333 -0.08936619
0001b0 2b b6 0e bd ba 2e ea bd 24 b4 19 bd 9e e7 9a 3d
       -0.034841698 -0.11434694 -0.03752531 0.07563709
0001c0 1d d5 ec bd 4b 9f dd bb 2c 2b 4c be 75 92 83 bd
       -0.11564086 -0.006763374 -0.19938344 -0.06424419
0001d0 43 b2 ec bd c0 40 e5 3d 11 4d 03 be d8 65 3b 3b
       -0.11557438 0.11193991 -0.12822367 0.002859464
0001e0 3b d0 c3 bd f3 1e 85 be 3d 5e 99 bd f1 50 ae bd
       -0.09561201 -0.26000175 -0.07488678 -0.08511532
0001f0 85 ba f0 bd 9f d7 11 bd a7 ab 3a bd b9 ae 5e bc
       -0.11754326 -0.035606023 -0.045573857 -0.013591462
000200 82 6b aa bd 21 46 a0 bc eb 1b b4 bd f0 a4 ab bd
       -0.08321287 -0.01956469 -0.087943874 -0.08381069
000210 5b fb cc bd f6 ce 0d 3c 1a 9f 04 be 6b a4 7a bd
       -0.1000888 0.0086553 -0.12951317 -0.061191957
000220 38 08 2d be 52 89 ce bc e9 15 f8 bd ee cc d7 3a
       -0.16897666 -0.025211964 -0.12113554 0.0016464272
000230 9b a7 f6 bc 43 d5 05 bc 4d b4 63 bd c4 cb a8 bb
       -0.030109217 -0.008168521 -0.05559187 -0.005151244
000240 89 df 17 bd 5a f9 a7 bd af 62 3e be 30 23 e0 bd
       -0.037078414 -0.08201857 -0.18592332 -0.109442115
000250 22 e2 e9 bb 48 c0 b3 bc cb b4 4f bc 9c 69 0b be
       -0.007137553 -0.021942273 -0.012677382 -0.13614506
000260 02 74 5c bc e6 f3 8c bd a3 e4 fc bc 69 01 b7 bd
       -0.013455393 -0.068824574 -0.030870741 -0.08935816
000270 71 e4 9c bd 43 b7 96 bd 91 f4 2a be 9d e1 17 be
       -0.07660759 -0.07359173 -0.16694857 -0.14832158
000280 c6 7e bc bc 82 57 17 be d7 18 46 be 58 27 28 bd
       -0.023009669 -0.14779475 -0.19345413 -0.041053146
000290 71 5c b5 bd fc e5 0f bc 49 ae 0e bd 3e ec eb bd
       -0.088555224 -0.00878286 -0.03483418 -0.11519669
0002a0 d6 68 90 bc e4 bc 18 bc a0 8d 4e bd 0a 1c 1e bd
       -0.017628115 -0.009322379 -0.050428033 -0.03860096
0002b0 35 34 66 3c bd c0 64 bc 45 87 5e 3d 72 d5 99 bd
       0.014050533 -0.013961968 0.05432822 -0.075114146
0002c0 79 1a fa 3c 24 d8 85 bd 43 99 5f bd 06 05 84 bd
       0.030530201 -0.06535366 -0.05458952 -0.06446271
0002d0 fd 40 90 3c b5 68 e6 3c 12 7c 91 3d c0 58 ab bd
       0.017609114 0.0281261 0.07103743 -0.08366537
0002e0 50 12 0c 3e 69 96 13 bd c6 b5 87 3c d8 11 d8 bd
       0.1367886 -0.036032114 0.016566169 -0.105502784
0002f0 06 f3 81 bd 25 c1 a0 bd 09 90 85 bc 1a 65 2a bc
       -0.06345181 -0.078493394 -0.016304033 -0.010400081
000300 88 23 23 3d 1d 57 e2 bd d6 cd 9a bb 33 10 0e bd
       0.039828807 -0.11051772 -0.0047242446 -0.034683418
000310 7d 29 09 3e 7e c0 61 bd 32 06 ed bd bf de 83 bd
       0.13394733 -0.055115215 -0.11573447 -0.0643897
000320 e7 1c 93 3d 48 9c 88 bb 00 60 46 3d 03 09 b9 3a
       0.07183247 -0.004169021 0.048431396 0.0014117066
000330 28 12 24 bd 75 ad 1f bd fe 73 c4 b7 84 d4 cf 3b
       -0.040056378 -0.03898378 -2.3419034e-05 0.0063424725
000340 82 10 1f 3d d2 6b 92 3c 1b e2 6b 3d 12 61 f7 3d
       0.038834102 0.017873678 0.057588678 0.120790616
000350 ac ff c9 3c 9a 0a 0d bd 3d 3a 2f bc 78 51 2b 3d
       0.024658047 -0.03443394 -0.010695037 0.04182574
000360 ce 46 07 3c 8b 57 8f 3d 7b 01 d8 bd 1f 99 36 be
       0.008256627 0.06999119 -0.105471574 -0.17831849
000370 69 2a 97 3d c7 17 9e 3d bd 38 ba bd 07 2d 22 be
       0.07381136 0.07719379 -0.09092853 -0.15837489
000380 f2 93 f4 bd 4e 6b ce bd 4e 58 85 bd 8b d9 1c be
       -0.11942281 -0.100790605 -0.065109834 -0.15317361
000390 6d 6f 51 3d ed 51 54 bc cc f8 16 3d cd 33 d7 bd
       0.051131655 -0.012958986 0.036858365 -0.10507927
0003a0 dc 37 15 3d be db 8e 3d 74 47 4f bd 52 3e d7 3d
       0.036430225 0.06975506 -0.050605252 0.105099335
0003b0 5b e1 a1 bc cb 7d b3 3d 33 54 1f bd c2 49 78 ba
       -0.019760778 0.087642275 -0.038898658 -0.000947144
0003c0 98 59 f2 bb 81 88 11 bd 91 db c1 bd 2b a3 bb bc
       -0.0073959343 -0.03553057 -0.09465707 -0.022904953
0003d0 ce 4a 89 bd eb fb fd bd d7 af 99 bd 84 61 1a be
       -0.06703721 -0.12401565 -0.07504242 -0.15076262
0003e0 63 ba 3e be 65 6a 28 be aa 07 79 bc 52 6f c5 bb
       -0.18625788 -0.16446836 -0.015199581 -0.0060252333
0003f0 7b fd 11 bc fc 2a bc bd 50 ab ad bc fd 97 aa 3d
       -0.008910532 -0.09187886 -0.021199852 0.08329771

weight f4 [64, 12, 7, 7]
000000 25 26 d6 3a 32 ba ea bd ad 36 8d bd 23 ea aa bc
       0.0016338272 -0.11461295 -0.06895194 -0.020863598
000010 55 8e db bd 19 a5 8d bd a9 92 16 be cd 4a df bb
       -0.10720507 -0.069162555 -0.14704384 -0.006814337
000020 d8 48 70 bd 5b 81 2c bd ea 2e dc bc 6d 34 20 3d
       -0.05866322 -0.04211555 -0.02687784 0.039112497
000030 9f 0b 22 bd 5c 89 75 ba 3b 76 b2 bc 8a f9 ca bd
       -0.039561864 -0.00093664764 -0.021784892 -0.09910877
000040 82 14 9b bd ce 66 2d be 2e 0a 3a be 07 11 a0 bd
       -0.07572271 -0.16933748 -0.18167946 -0.07815748
000050 ad 5d f0 bd 8c 38 cc b9 61 75 21 3d c9 ed 28 bc
       -0.11736617 -0.00038952043 0.039418582 -0.010310599
000060 36 58 aa 3d 4b 51 b4 bd 87 e8 7f bc b9 fe 17 be
       0.08317606 -0.08804568 -0.015619404 -0.14843263
000070 8e f9 b7 3c 71 f6 93 3b 9b 10 87 3d 25 52 12 bd
       0.022457864 0.004515462 0.06594964 -0.03572287
000080 8d 18 b3 bc bf dd 92 3c 15 b8 09 bc b3 97 12 3d
       -0.021862293 0.017928002 -0.008405705 0.035789203
000090 af cf fd bd 2f a6 65 bc f3 d1 b4 bd d3 21 dc bd
       -0.12393128 -0.014016672 -0.08829107 -0.10748639
0000a0 19 a0 58 be f1 21 05 be be e4 fc 3c 1a b3 11 be
       -0.21154822 -0.13001229 0.030870792 -0.14228478
0000b0 da a4 2b bd 73 50 ba bd 00 71 99 bb d4 25 1c be
       -0.04190526 -0.09097376 -0.00468266 -0.15248805
0000c0 fb 1d 29 be 6e ff e8 3b 21 8d 49 3d e9 27 f9 bd
       -0.16515343 0.0071105277 0.049206857 -0.121658154
0000d0 7b 2f 5a 3d 6a 9a 7f bc 12 8c 9a bc 5c 28 b8 3c
       0.053267937 -0.01560078 -0.018865619 0.022480182
0000e0 18 e5 b8 bc 54 df 82 3d 53 dd 96 3d 30 d2 a8 bd
       -0.022570178 0.06390253 0.07366433 -0.08243215
0000f0 a6 c7 03 3d 7d 2c 10 be 6f 9c 9a bc 78 72 1d bd
       0.03217282 -0.14079471 -0.018873421 -0.038439244
000100 d2 ad ac 3b 95 22 b2 bc f4 fb 19 3d 04 fe 06 3e
       0.0052697444 -0.021745006 0.037593797 0.13182837
000110 0b 5c 23 ba 61 54 84 3d ee 45 e2 3c 89 50 17 3d
       -0.0006231672 0.064614065 0.027621236 0.03694204
000120 c4 92 d2 3b d0 0b 71 be 2d 1f ea 3d fe f5 99 3d
       0.006426187 -0.23539662 0.114317276 0.075176224
000130 a9 af a6 3c 97 28 fe 3b c0 3c 14 bc 0b 4f 0e bb
       0.020347433 0.0077563035 -0.009047687 -0.0021714594
000140 2f 64 af bd a0 3f d9 bd 01 82 5f be e1 0f fc bd
       -0.085640304 -0.10607839 -0.21826936 -0.12307716
000150 78 97 a0 bd ce ee 77 3d 24 a6 06 bc 38 51 cb bb
       -0.0784139 0.060530476 -0.008218322 -0.0062047504
000160 67 70 e1 3d 4d 48 6a be c5 4f a1 3c 43 0c 7d 3c
       0.11007767 -0.22879143 0.019691357 0.015444818
000170 c7 02 5e bc 8c d0 00 3e 02 ec a2 bd e7 e9 cc 3d
       -0.013550467 0.12579554 -0.07955171 0.10005551
000180 ec 02 d7 bd 4a 9e 4d 3d 85 10 c7 ba be 12 d1 3b
       -0.10498604 0.050199784 -0.0015187418 0.006380408
000190 54 c9 c4 3c 0a ca 25 3c 18 8b c8 bb 77 22 92 3c
       0.024021782 0.010118971 -0.006120097 0.0178387
0001a0 7b 90 05 bc 1b f9 2b 3d f3 48 b1 bd ee b6 2b be
       -0.008152123 0.041985612 -0.08656492 -0.16769001
0001b0 94 fb ae bd 0e 4e 05 bc ce c9 3f bd c5 d6 04 3d
       -0.085440785 -0.0081362855 -0.046823315 0.032431383
0001c0 64 ad 35 3d c7 35 2d bd ad aa fb bc 71 45 a3 bd
       0.04435481 -0.042287614 -0.030721033 -0.07972229
0001d0 89 eb 13 bc 97 86 00 be ab 91 2f 3b 2d 65 96 bc
       -0.009028324 -0.12551342 0.0026789706 -0.018358791
0001e0 d7 2e a2 bd 67 bf e8 bd b6 12 a9 bc a2 e6 88 bd
       -0.0791909 -0.11364632 -0.020638805 -0.06684615
0001f0 18 39 c1 bd ea d5 d6 bc fd 92 eb bd 54 59 a8 bd
       -0.09434718 -0.026225049 -0.11502645 -0.08220163
000200 8c f3 a8 bc bd 70 de 3c e9 06 8a bc 5d 0c 53 3d
       -0.020623945 0.027153367 -0.016848998 0.051525462
000210 43 44 cf 3d 7f 2a a3 bd f9 d0 bb bd 8d 1d f2 bd
       0.10120442 -0.0796709 -0.09170718 -0.118220426
000220 1f 51 08 3d 1f a3 40 3c 88 2f 30 3d a8 6d 62 bb
       0.033280488 0.011757641 0.04301408 -0.0034550223
000230 51 e8 07 be 42 5b 16 bd 58 75 78 be c7 aa c6 3d
       -0.13272215 -0.036708124 -0.24263513 0.09700542
000240 7b 9c 9e 3d 0e 4e fc bb fe 6c ea bc 43 c9 9a bd
       0.0774469 -0.0076997345 -0.028616425 -0.07557919
000250 2f d2 42 3d a7 2c 0b 3e 42 3a 28 bd fe c8 e9 bc
       0.047563728 0.13591252 -0.041071184 -0.028538223
000260 54 36 d0 bd 34 db 40 3d fa ef 50 3c a0 24 51 bb
       -0.10166612 0.04708405 0.012752527 -0.00319127
000270 6f dd 2c bd 4a 9b 0d bc b9 98 59 bd a0 3a 2b bd
       -0.042203363 -0.008642981 -0.053124163 -0.041803956
000280 ff da 8b bd 87 be 9c bd a4 75 b2 3c 0d 81 8c 3c
       -0.068288796 -0.07653528 0.021784611 0.01715138
000290 c1 fd e5 3c 65 0a 8d bc 4d c1 92 b9 49 6c e3 3d
       0.0280751 -0.01721687 -0.0002799131 0.11104638
0002a0 9e d2 c2 3b 7a 2e df 3d fa 10 4a bd 4b 9c 12 bd
       0.0059455177 0.108975366 -0.049332596 -0.035793584
0002b0 1f 42 a1 3c 4f ac 80 bd fc ab be bd ed b5 9d 3c
       0.01968485 -0.06282865 -0.09310147 0.019251788
0002c0 bb 3e 71 3d e4 12 01 bd e7 d1 8c 3b ed e1 b7 bb
       0.058897715 -0.031512156 0.0042974832 -0.0056116492
0002d0 d2 05 98 bd 3c 15 31 bd 5c f4 1a be 4a 24 86 bd
       -0.07422985 -0.04323314 -0.15132278 -0.0654989
0002e0 bb a6 c8 3d d9 a6 59 3d 4a f0 f5 bc c1 23 8f bc
       0.09797426 0.053137634 -0.030021805 -0.017473103
0002f0 3e 9d ea 3d 13 38 dc bd 63 be a0 bb 4e 99 e0 bc
       0.11455773 -0.10752883 -0.0049055084 -0.027416851
000300 d0 7d 6d 3d b0 3b 53 be a8 b3 82 bd be c4 1a 3e
       0.057981312 -0.20628238 -0.06381923 0.15114114
000310 bc fc 5b bd 9b 58 56 3d bd 64 bd 3d a6 84 73 bd
       -0.053707823 0.052330595 0.0924773 -0.059452675
000320 02 41 3c be d0 34 85 be 96 e3 f3 3d 3a ef 42 3d
       -0.18384174 -0.26016855 0.11908643 0.047591425
000330 04 47 6b bd 2c e9 51 3c 3f d0 5d 3c 2b 4d 51 3d
       -0.057440773 0.01281194 0.013538419 0.051098984
000340 e7 79 98 be 9d 3a 83 3e 93 73 6b 3b e7 c7 af 3b
       -0.29780504 0.25630656 0.0035927042 0.0053644064
000350 0c 96 3d bd 92 58 dd bb 6d 56 0f be 08 cd e9 be
       -0.046285674 -0.006754943 -0.13997813 -0.4566424
000360 9b 2e 8e be 89 b2 a9 3c 57 e8 c5 39 37 1a e2 bd
       -0.27769932 0.020715015 0.00037747875 -0.11040156
000370 15 7d eb 3d 38 09 8c bd 65 3b 55 bf b8 d1 43 be
       0.11498467 -0.06837696 -0.83293754 -0.1912297
000380 89 60 dd 3c 48 01 b8 bc 39 36 8c 3c b7 f6 35 bc
       0.02702357 -0.022461548 0.0171157 -0.011106185
000390 ca 3c 39 3d cb 0b 76 be 4e d4 21 3c ea 7a e8 3b
       0.04522399 -0.24027936 0.009877278 0.0070947306
0003a0 f2 48 74 bc 79 ee a4 3d 48 6f f0 3d 73 59 01 bd
       -0.01490997 0.080532975 0.11739975 -0.031579446
0003b0 8d 78 3e bc 94 1f ad bd 42 04 08 bd bd 97 ec 3c
       -0.011625421 -0.08453289 -0.033207186 0.028880948
0003c0 fb 52 5c bd 71 cc f7 3c 96 08 ab 3d fa 95 cf 3c
       -0.053790074 0.030248852 0.08351247 0.02534007
0003d0 64 45 e3 3a 8f 13 a5 3d 79 bf 86 3c 3f 43 cb 3c
       0.0017339406 0.08060371 0.016448723 0.024812339
0003e0 08 02 7c bd 67 eb fd bc f7 fa ae bd e4 41 0a bd
       -0.061525375 -0.030996038 -0.085439615 -0.033754244
0003f0 9b 6b 97 bc a2 3e 2f bd a1 98 db bd 25 e4 03 be
       -0.018483927 -0.04278434 -0.10722471 -0.12879999

weight f4 [64, 64, 3, 3]
000000 b8 d2 eb 3d 67 d4 86 3d d4 5b 33 3e fc ad 44 be
       0.11514801 0.06583481 0.17515498 -0.19206995
000010 69 60 8c 3d c7 cf 88 3c 1c 76 29 3e fe 65 49 bd
       0.06854326 0.016700638 0.16548961 -0.049169533
000020 66 e6 8e 3e f8 d9 a5 3b 48 ad 67 3c ee 33 d5 3d
       0.27910155 0.0050613843 0.014140435 0.104102954
000030 12 b7 ad bc 27 59 ab 3d 55 d4 f4 3c aa 6d b6 3d
       -0.021205459 0.08366614 0.029886404 0.089076355
000040 e6 cb db ba 81 01 a1 bd ff 4c 17 3e f3 8f 78 3d
       -0.001676914 -0.07861615 0.14775465 0.060684156
000050 6a 94 e6 bc 23 14 70 3d 4a 4f 9c 3e 89 e2 12 3e
       -0.028146941 0.058612954 0.30529243 0.14344229
000060 bc 93 4c bd e2 6b 93 bd 75 c4 2a 3e f1 4c 99 3d
       -0.049945578 -0.071983114 0.16676505 0.074853785
000070 cc 33 21 3d dc 59 a6 bd 5f 16 f0 bd e4 f6 c6 bd
       0.039356038 -0.08122608 -0.11723017 -0.097150594
000080 1d 97 0e 3d 9f 8d 2d bc 09 83 1d bd 29 dd 1c 3d
       0.03481208 -0.010592847 -0.038455043 0.038296852
000090 92 ae 8c bd b2 23 17 39 e2 48 93 bd c7 97 b5 3d
       -0.06869234 0.0001441378 -0.07191636 0.0886684
0000a0 b5 59 b1 bc bb b1 37 bd 09 8e 8d bc cb 05 5c bd
       -0.021649221 -0.04484723 -0.017279642 -0.053716462
0000b0 78 26 3e bd b0 50 14 be fb d9 1e bd e8 40 b5 3b
       -0.046423405 -0.14483905 -0.0387821 0.005531419
0000c0 c3 39 0c 3e e2 b2 e1 3c ad f1 76 bc fd ba f2 bb
       0.1369391 0.027551118 -0.015072268 -0.0074075446
0000d0 76 e0 8c bd b7 74 38 bd 9d 52 7c 3d dc 3f ab 3d
       -0.0687875 -0.045033183 0.061602224 0.083617896
0000e0 1a 1d 87 bd 3e d7 33 ba 63 1b 6d 3d 43 06 02 bd
       -0.065973476 -0.00068603817 0.057887446 -0.031744253
0000f0 3c 90 dd 3d 09 59 1d 3d 99 29 dd bd ce e6 ef bc
       0.10818526 0.03841499 -0.1079895 -0.029284861
000100 a0 a2 57 3d 6d 50 2c 3d 10 ff 2f bd 19 c7 97 3c
       0.052645326 0.042068888 -0.042967856 0.018527554
000110 f3 f7 3a 3d 94 ba 9b bd 32 63 28 3d 3d 55 f3 bc
       0.04564662 -0.07603946 0.041110225 -0.02970373
000120 7f 9b 84 bd bd 56 f2 bc 84 2e a8 bd 34 84 86 3c
       -0.06474971 -0.029582376 -0.08211997 0.016420461
000130 d3 74 05 3e bb e6 54 3d 6d 37 b4 3d db 34 d8 3d
       0.13032846 0.051977854 0.08799634 0.105569564
000140 63 4d 8e 3b 3f c6 09 3b 92 ac 4d bd 32 09 37 be
       0.0043427213 0.0021022705 -0.050213404 -0.17874601
000150 71 d2 09 bd a3 7a 6e bd c9 b3 35 be 6a b0 b0 bd
       -0.03364796 -0.058222424 -0.17744364 -0.08627398
000160 a1 1c fb 39 b7 12 e3 bd c6 0c bc bd af ad a5 3c
       0.0004789578 -0.11087554 -0.09182124 0.02022442
000170 cd 36 df 3d 74 2e 07 be 03 68 92 3d 14 4b 76 bd
       0.10899124 -0.13201314 0.07148745 -0.060130194
000180 88 76 2b bc 56 75 a7 3b 66 79 34 3d d7 29 ad 3c
       -0.010465272 0.005110423 0.044061087 0.021138115
000190 df 18 23 bc 9b e9 3a bd c0 39 76 bd 64 95 a6 bc
       -0.00995466 -0.04563294 -0.06011367 -0.020334907
0001a0 79 76 c3 bb e9 ad 9c 3d ff 4c 24 bd c9 61 13 bd
       -0.005965051 0.07650358 -0.04011249 -0.035981927
0001b0 5a a5 a6 bc 49 cc bd 3c 30 b5 10 ba ee 0c 30 3c
       -0.020342518 0.0231687 -0.0005520163 0.01074527
0001c0 44 5b d9 3c 0c 75 1e be 7b 5e e9 3c 4b b6 c3 bc
       0.026532777 -0.15474337 0.028487435 -0.023890635
0001d0 f7 f5 8e 3d 62 cc 34 be 19 a1 97 bd 36 29 48 be
       0.06980508 -0.17656091 -0.07403774 -0.1954697
0001e0 89 0f 84 bd 24 db df bd a4 d8 54 be 6a c3 59 3b
       -0.064482756 -0.1093047 -0.20785767 0.0033228048
0001f0 4c 18 61 3d 0b 70 df bd 52 e9 57 3d 42 b4 7d be
       0.054954812 -0.109100424 0.052712746 -0.24775794
000200 25 bd 86 bd ec 62 f8 bc b0 03 b8 be eb 6d 19 be
       -0.06579045 -0.030320607 -0.35940313 -0.14983337
000210 06 9d 5e be 38 51 21 3c af 50 e4 3c 31 55 90 bd
       -0.21739587 0.009846024 0.027870504 -0.07047499
000220 e6 2e f9 3c 67 fe b4 3d aa b0 67 3a db 02 8b bd
       0.03041787 0.08837586 0.00088382757 -0.06787654
000230 a8 74 a3 bc c2 78 0c 3d ff 58 ba bd 4d 15 8f 3c
       -0.019953087 0.03429485 -0.09099006 0.017466212
000240 d3 7a 60 bd a4 ad 57 be 12 5c 65 bb 5c ac 8a bd
       -0.054804634 -0.21062332 -0.0034997505 -0.06771156
000250 72 dc 3d be c5 48 21 3d ec 70 4e bd 4f a5 d7 bd
       -0.18541124 0.03937604 -0.05040066 -0.10529577
000260 c7 05 12 be 91 51 14 bd 4b 5f e9 bd 0d 4d ab bc
       -0.14260016 -0.0362106 -0.11395129 -0.020910764
000270 46 2e 05 bb d3 13 cb 3d 7f 1e 05 bd c3 78 cf bd
       -0.002032177 0.099158905 -0.032499786 -0.10130455
000280 52 e7 59 bd b8 24 a2 bd 12 35 c1 bd 01 bb 5c bd
       -0.05319912 -0.0791716 -0.094339505 -0.05388928
000290 56 cc a1 bd 38 d6 24 ba c2 c6 af bc 6b 1c 32 bd
       -0.07900302 -0.00062880246 -0.02145708 -0.043484133
0002a0 81 07 b5 bd 20 a9 07 bd 09 ed 27 3d d3 1e e5 bd
       -0.08839322 -0.033120275 0.04099754 -0.1118752
0002b0 e7 53 71 bd 04 28 28 bd a9 b9 9a bc a0 48 19 3d
       -0.058917906 -0.041053787 -0.018887358 0.037422776
0002c0 0c d6 c7 bd b8 d4 b7 3b e4 a4 f9 3c 2f 82 c6 bc
       -0.09757623 0.005610075 0.030474134 -0.024231998
0002d0 2f f5 a7 ba a5 55 a1 bb 85 86 06 bd f4 fd 43 3d
       -0.0012814159 -0.0049235397 -0.03284313 0.04784961
0002e0 c1 36 2d bd 7c bf 97 3c 39 ea 77 bd 63 c7 34 3d
       -0.042288546 0.018523924 -0.060526107 0.044135462
0002f0 e8 36 e6 3c 2f d3 6b bd d7 db 81 3d 53 3d b2 3d
       0.028102353 -0.057574447 0.06340759 0.08703103
000300 90 c6 0f 3d 3c cc a6 bd 7b e3 f2 bc b9 43 be bd
       0.035101473 -0.08144423 -0.029649487 -0.09290261
000310 a7 34 3a 3d 9b 5f af 3e 79 8e 24 bd 2b 84 26 bd
       0.04546037 0.3425263 -0.040174935 -0.04065339
000320 36 cd f8 bc df 8d f7 3c b0 9d 11 3d b9 c5 3f 3d
       -0.03037129 0.030219017 0.035550773 0.046819422
000330 b6 2a 6f bd 93 20 c8 3b b6 58 c4 3d 50 ee 1e 3d
       -0.05839034 0.006107399 0.09587233 0.03880149
000340 88 6a 92 bd 3c e0 2f 3c c5 1c eb bd 87 9a 11 3e
       -0.071492255 0.010734614 -0.11480097 0.14219104
000350 dd 40 57 3e 0f aa ee ba 3d 53 9d 3d f9 6e 81 3e
       0.21020837 -0.001820864 0.07681892 0.25279978
000360 d1 39 3d bd 88 a0 9a bc 5e 36 39 bd 36 0c 53 be
       -0.046197716 -0.018875375 -0.045217864 -0.20610127
000370 a6 a9 06 be 3d 69 8f bd 4d 28 55 bd 2e 11 d5 bd
       -0.13150653 -0.070024945 -0.052040387 -0.104036674
000380 3c ec 97 bc 75 04 65 bd 9a 2e 35 3b ad 71 1b bd
       -0.018545263 -0.055912454 0.0027646185 -0.037950207
000390 b4 46 83 bb 9a f7 13 3e 90 1a cd 3c b5 4a 00 3e
       -0.004006231 0.14449921 0.02503708 0.12528498
0003a0 37 cb ca 3c 3e b1 02 3e b0 86 c4 bd 47 ba c9 bd
       0.024755104 0.12762925 -0.09596002 -0.09849983
0003b0 7c b5 12 be 4b f7 0e be 85 cf a3 ba 08 ea 71 3d
       -0.14327043 -0.13961522 -0.0012497759 0.05906108
0003c0 f7 af 82 bd 4e 42 28 be ec a7 0e 3d c0 b4 2e bd
       -0.06381219 -0.16431543 0.03482811 -0.042652845
0003d0 8c 4a 25 3d 0b e6 76 3c 69 37 94 3c 3e 0b 28 3d
       0.040354297 0.015069495 0.018092828 0.041026346
0003e0 e8 74 98 3d d7 4a 1c bd d0 dd b8 3c 14 f7 34 3e
       0.07444173 -0.03815731 0.022566706 0.17672378
0003f0 77 fe 99 bd a2 6c dc bc 14 44 91 3c 33 c1 a2 bd
       -0.075192384 -0.026907269 0.017732657 -0.07947006

bias f4 [64]
000000 24 e0 ce 39 05 f2 a0 3a e1 db 29 bc 47 d1 c6 bd
       0.0003945838 0.0012279159 -0.010367365 -0.09707885
000010 89 ee 50 bd bd f4 2d bd 5f 31 8f bb 51 24 56 3c
       -0.051008735 -0.04246973 -0.004369899 0.013070182
000020 ad fe db 3d 56 ff d0 3d b8 b6 80 3d 96 30 95 3e
       0.10741935 0.102049515 0.06284851 0.2913863
000030 b2 fe 7c bb 2a 8d a7 3b b5 35 8a bb b1 e2 e5 bd
       -0.0038603959 0.0051132636 -0.004217828 -0.112248786
000040 d5 a2 97 3c 92 af 8f bc 57 ef ba bd 7d c5 7a 3d
       0.018510262 -0.017539773 -0.09127682 0.061223496
000050 20 e5 5a 3d 87 18 10 3c 1a 52 4e bb 38 94 39 bd
       0.053441167 0.00879491 -0.0031482042 -0.045307368
000060 79 71 7e 3d c6 62 86 3d c1 44 4c 3b cb 87 a0 3d
       0.062119935 0.06561808 0.003116891 0.078384005
000070 9f 0b d2 3d c3 7d f5 3c 5a 29 25 bc 51 04 63 3c
       0.10256123 0.029967194 -0.01008066 0.01385601
000080 5b b6 88 3d 00 d8 dd 3d 22 f1 11 bc ac b2 6f bc
       0.066754065 0.10832214 -0.008907588 -0.014630001
000090 51 26 43 3d 9a 14 a0 bb 63 36 cf bb 36 99 45 bd
       0.047643963 -0.0048852684 -0.006323622 -0.048241816
0000a0 bf 8c cb 3c 21 e1 99 3c fc ce 36 3e 5f a7 42 bb
       0.024847386 0.018784108 0.17852396 -0.0029701812
0000b0 77 71 32 3d b0 26 73 3d 5e 66 96 bc 95 15 3e bc
       0.04356524 0.059363067 -0.01835936 -0.011601825
0000c0 ed 10 14 3c ee 0c 88 3b a4 7f ba bc 62 35 24 bd
       0.009037239 0.004151932 -0.022765942 -0.040089972
0000d0 8b 7d 01 3d e5 0a a5 bc e3 bd dd 3c c9 4f 1c 3b
       0.031613868 -0.020146796 0.027068084 0.0023851267
0000e0 f1 09 cb 3c 1e 03 a3 bd ba c8 73 bb 0c d8 3b 3d
       0.024785014 -0.07959579 -0.00371985 0.045860335
0000f0 35 d4 83 3d 50 16 61 bb 78 51 2f bc 82 d8 aa bc
       0.0643696 -0.0034345575 -0.010700576 -0.020855192

weight f4 [64, 64, 3, 3]
000000 75 fa 4d 3c 3d c8 78 3d 69 2a 42 bd 58 e2 cb bd
       0.012571921 0.060737837 -0.047403727 -0.09955281
000010 08 0d 20 be 46 64 7c 3d 30 b0 ab bc 3e 9b ec bd
       -0.15629971 0.061619066 -0.020958036 -0.115530476
000020 04 b6 a2 bb 44 7f 06 3b b6 89 fc bc 5a e7 43 3b
       -0.0049655456 0.0020522634 -0.030827384 0.0029892535
000030 5e 2e f8 bb 5f db 8e bd 09 2f c3 bd b6 91 98 3c
       -0.007573887 -0.069754355 -0.095304556 0.018624168
000040 ea 95 57 bd 33 0f c7 bb eb 24 3d 3d 04 c6 68 3c
       -0.052633204 -0.00607481 0.046177786 0.014207367
000050 65 cd 03 3e 43 c8 f5 bc 4d 8d be 3c 69 db bb bd
       0.1287132 -0.030002719 0.023260737 -0.091727085
000060 5e f3 8b bd 59 8e a4 bd d2 83 f1 bc f3 97 9e 3d
       -0.06833528 -0.08034963 -0.029481802 0.07743826
000070 60 f1 cf 3a ea 74 f0 3c 43 6b 34 bc ca 7c e1 bc
       0.0015864782 0.029352624 -0.011011901 -0.027525324
000080 94 48 42 3d a0 3f 9d bd fa f1 cd bc 3e 09 4b bd
       0.047432497 -0.07678151 -0.025139797 -0.04956936
000090 4a 25 69 bc 6f ae b8 3c d5 1b da 3a ce c7 a8 bd
       -0.014230082 0.022544114 0.0016640375 -0.08241235
0000a0 10 13 a3 bd 22 f5 5c bd cc 41 d8 bc a0 4d 9d bc
       -0.0796262 -0.053944714 -0.026398562 -0.019202054
0000b0 65 97 87 bc 84 d6 d6 bd b1 7b bb 3d 2d 36 31 3d
       -0.016551683 -0.10490134 0.09154452 0.043264557
0000c0 61 c0 38 3d 2f d8 1c 3c 18 7e 55 3d 28 34 89 bd
       0.04510534 0.009573027 0.052122205 -0.06699401
0000d0 89 50 14 bd d3 7d 19 3d 6d e5 9b bd bb 43 51 3c
       -0.036209617 0.03747351 -0.07612119 0.012772496
0000e0 71 12 9e 3c 1b 4b 4d 3c d4 65 d3 3c ad 08 7b bc
       0.019295903 0.012530114 0.025805391 -0.015321893
0000f0 a7 15 ce 3c 39 23 3c bd 87 76 0f 3c dd 77 92 3d
       0.025156809 -0.04593203 0.008756286 0.07151768
000100 2d a4 75 3b cb 31 39 bc 01 f1 01 3d e0 d8 54 bc
       0.003748189 -0.0113033755 0.03172398 -0.01299116
000110 1c 45 83 3d b1 7c 46 3d 72 af 7b bd 04 da 07 be
       0.06409666 0.04845876 -0.061446615 -0.1326676
000120 7d 31 83 bd bc a1 aa 3c 7f 93 70 3d 6c 53 58 3c
       -0.064059235 0.020829074 0.058734413 0.013203483
000130 0c 3f 88 bd 0b f4 3e 3d 75 f2 8c 3c 05 2e 38 bd
       -0.0665265 0.046619456 0.017205456 -0.044965763
000140 ef c5 82 bc 70 bc fd bd 97 f0 86 bd d8 ae 06 be
       -0.015963523 -0.12389457 -0.065888576 -0.13152635
000150 af 08 03 3e 8d b7 30 bd b8 ec e0 bc d9 6c 3c bc
       0.12796281 -0.043143798 -0.027456626 -0.011500561
000160 d4 97 4a 3d 1c b8 94 bd d4 11 79 bd ef c6 02 be
       0.0494612 -0.072616786 -0.060808018 -0.127712
000170 af 68 94 bd 82 6f 84 3a 42 76 a2 3d 91 98 86 bb
       -0.07246529 0.0010104033 0.07932712 -0.004107543
000180 43 87 0f bd a2 fb 87 bd 11 11 9e bc 03 99 a7 3c
       -0.035041105 -0.06639792 -0.019295247 0.020458704
000190 33 88 b9 bd da 22 dc 3c 86 13 71 3d 18 75 40 bc
       -0.09059181 0.026872087 0.05885651 -0.011746667
0001a0 b5 87 ef bc 82 25 0d bd 99 52 14 3d 86 5a 86 bd
       -0.029239515 -0.0344596 0.036211584 -0.06560235
0001b0 7a 68 b6 bd 3a 4b c0 bc e2 be 80 bd 64 33 07 be
       -0.08906646 -0.02347337 -0.06286408 -0.13203198
0001c0 f6 57 c8 bd ee dc 6a bd 12 fd 25 bd b3 fb 04 be
       -0.09782402 -0.0573396 -0.04052455 -0.1298664
0001d0 b7 da ce bd 14 1c 15 bd 62 c9 82 3d 93 07 9b 3d
       -0.1010031 -0.03640373 0.06386067 0.07569804
0001e0 0a 42 80 bd 63 33 d1 bd ef 37 e3 bc c0 fa 02 3d
       -0.06262596 -0.10214879 -0.027736632 0.031977415
0001f0 97 bc 1d 3b cd 8b 00 bd e6 ac bb 3c ad 95 43 bd
       0.0024068707 -0.031383324 0.022909593 -0.047750164
000200 26 26 86 bc d7 31 10 be b6 38 c7 3c 2f 7d 14 3c
       -0.016375612 -0.14081512 0.024319034 0.009063049
000210 8e 74 b8 bd 69 72 99 3c e8 77 aa 3d 81 83 8f bc
       -0.09006606 0.018731313 0.083236516 -0.01751876
000220 45 bd c4 bd 97 eb 3e bd 46 66 a1 3c b0 22 61 bd
       -0.09606413 -0.046611395 0.019702088 -0.05496472
000230 2a 61 90 bc 95 1c 0e bd fe 84 b7 bd 97 51 90 3d
       -0.017624456 -0.034695227 -0.08960913 0.07046812
000240 b7 c5 14 3d aa a5 cf bd 1d 6f a3 bc 46 bb 3f bd
       0.036321368 -0.1013902 -0.019950444 -0.046809457
000250 7a c8 9e bc ff b6 95 bd 49 a5 de bc 97 1b 07 bc
       -0.019382704 -0.07310294 -0.027178423 -0.008246324
000260 3b b7 44 3c 3d 95 a7 bb d5 4a 17 bb fd 1c 9d 3d
       0.012006576 -0.005114226 -0.0023085375 0.07671545
000270 16 93 f7 3c d6 10 85 bc f6 ea 34 bd 25 8e ba 3d
       0.030221503 -0.01624338 -0.04416939 0.09109143
000280 ba 52 74 3c b0 2a 37 bd 82 b6 8b 3a 54 bf 47 3b
       0.014912302 -0.044718444 0.001065925 0.003047903
000290 6d b9 0c be 4c b8 57 b9 48 c2 8b bc 42 2c aa bd
       -0.1374261 -0.00020572654 -0.017060414 -0.08309223
0002a0 9f af 78 3d 93 55 41 bb 7b 7c a6 ba d7 89 8d 3d
       0.06071436 -0.002950047 -0.0012701893 0.069110565
0002b0 64 0f 5f 3c a8 49 23 3c c3 e0 75 3d 03 35 ce 3d
       0.013614509 0.0099662915 0.060028803 0.10068705
0002c0 3a c3 00 3c 35 fe 08 3d dd b9 fa bd f7 48 73 bc
       0.007859046 0.033445556 -0.12242482 -0.014848939
0002d0 3d 67 58 3c e9 37 3d 3d 2e 5a 9c bd dc 9f 29 3d
       0.013208208 0.0461959 -0.07634388 0.04141222
0002e0 94 0f 1a be d4 c3 e5 bb ce fa 91 3d bf a6 d2 bc
       -0.15045005 -0.00701187 0.07127915 -0.025714276
0002f0 5b 49 c3 bd 79 77 27 3c 29 f7 a9 bb b2 32 81 bd
       -0.09535476 0.010221356 -0.0051869345 -0.063084975
000300 94 b0 29 bc 02 f8 aa 3c 03 d1 85 bc ab dc ba 3d
       -0.010357041 0.020870212 -0.016335016 0.0912412
000310 86 b8 a0 bd 73 d5 ba bc 84 23 75 3d 2c 92 d9 3b
       -0.07847695 -0.022806859 0.059848323 0.0066397395
000320 85 46 f8 bc e9 15 f3 3c d2 cb 2f 3b a2 cd 56 bb
       -0.030307064 0.029673534 0.0026824367 -0.0032776375
000330 6c ce ba bc 09 d8 bd bc 6e de b8 3c 60 01 81 bd
       -0.022803508 -0.023174303 0.022567 -0.062990904
000340 26 89 a0 3d c3 74 be 3d 38 57 03 bd d2 32 a9 bc
       0.07838659 0.09299614 -0.0320656 -0.020654116
000350 71 64 f9 3c ab 04 82 bd 92 6a 87 bd 96 bd ed bc
       0.030443402 -0.063485466 -0.066121235 -0.029021066
000360 78 ef 87 bd ef b4 d3 bd 67 38 f8 3a 4d 83 4f bc
       -0.06637472 -0.10337245 0.0018937708 -0.012665582
000370 35 c5 82 bd c6 3a ff bd fa 58 4a bd 4d 19 fa bc
       -0.063852705 -0.12462382 -0.04940126 -0.030529642
000380 61 ca 65 bd 46 29 b6 bd 32 46 8b 3d c3 53 53 bd
       -0.056101207 -0.08894591 0.06800498 -0.051593553
000390 01 1c 2a 3c bc 45 ed 3c b2 fd 9a bd 51 79 a8 bc
       0.010382653 0.028963916 -0.0756792 -0.02056566
0003a0 4e e8 d4 bc 0d 05 41 bd b9 22 11 bd 79 71 67 bd
       -0.025989678 -0.047123957 -0.035433505 -0.0565047
0003b0 c6 85 8c bd 5d 14 84 bc cd 7e ce bd c6 e7 c9 bd
       -0.06861453 -0.016122991 -0.10082779 -0.098586604
0003c0 69 dc 60 bd 25 98 a7 bd 1e 07 80 bd 28 db 60 bd
       -0.0548977 -0.08183316 -0.062513575 -0.054896504
0003d0 2b 36 f4 bd 5f a2 4c bd d9 85 b9 bd 7a bd 60 be
       -0.11924394 -0.049959537 -0.090587325 -0.2194728
0003e0 62 d9 d2 bd 77 c9 16 3d 20 cf 08 be 8c ea 27 be
       -0.10295369 0.036813226 -0.13360262 -0.16398066
0003f0 b3 54 03 bd b2 52 54 bc e1 18 4f be 75 53 8f bd
       -0.032063197 -0.012959169 -0.20224334 -0.0699834

bias f4 [64]
000000 dd e0 c9 bc 07 ad a0 3c 09 b2 3c bd f2 83 f9 bc
       -0.024643356 0.019613756 -0.046068225 -0.030458424
000010 6b e5 da 3c 0c bb 4f bd 43 43 84 bc 51 e6 15 be
       0.026720723 -0.05071549 -0.016145354 -0.1463864
000020 1f d0 c4 bc 0b 51 cf bb 6f e0 14 3d c6 b5 38 bc
       -0.024025021 -0.0063267997 0.03634685 -0.011273807
000030 b1 33 4a bd 8d 41 6c bd 0e c9 bb 3c be 3a f8 bd
       -0.049365703 -0.0576797 0.022923019 -0.12120579
000040 46 51 08 bd 4c 26 14 3d 5a cc 4d 3d 99 27 5a 3d
       -0.033280633 0.036169335 0.050243713 0.05326042
000050 b5 b8 d7 3b ab e7 73 bd 5c 19 c3 bb 61 ea 2a 3c
       0.006583298 -0.059547108 -0.005953951 0.010431857
000060 53 6b bf bc 18 98 cc 3c fb dd f5 bc ec cc 44 3d
       -0.023366606 0.024974868 -0.030013075 0.04804699
000070 88 2b 7e bd c5 db 48 3c 35 81 bf bc 6a 67 95 3c
       -0.062053233 0.012259428 -0.02337704 0.018237788
000080 94 61 66 3d 56 d1 92 bd 7c 50 39 bc a0 2f b7 3a
       0.0562454 -0.07168834 -0.011310693 0.0013975985
000090 6c 51 08 bd e4 60 96 3d 31 4a b0 bc 3b 6f 34 3c
       -0.033280775 0.07342699 -0.021519752 0.011012848
0000a0 09 e2 84 bd 4a 72 93 bc 49 5a 09 3e 90 41 96 3c
       -0.06488425 -0.017998833 0.13413347 0.01834181
0000b0 ee df 4f bc 55 a7 6c bd 20 6b 4d bd ac 6d 82 3d
       -0.012687666 -0.057776768 -0.05015099 0.063685745
0000c0 70 d5 9f bc c3 20 4e bc 72 c1 51 bb 6c 07 62 bd
       -0.019510955 -0.012581053 -0.0032006172 -0.05518286
0000d0 03 4b 7a bc a8 1b 82 3e cb 53 f8 3c 01 82 00 bd
       -0.015276673 0.25411725 0.030313393 -0.03137398
0000e0 0e 65 bb 3c f5 7d 8b bd c1 38 48 bd a7 29 3e bd
       0.022875335 -0.06811134 -0.04888225 -0.04642644
0000f0 22 9c 16 bd a7 68 68 3d dc b3 9d bd ef 1a 66 3c
       -0.036769994 0.05674043 -0.07700321 0.014044507

weight f4 [64, 64, 3, 3]
000000 d7 84 c1 bc 3d a0 09 3c 65 5a 5d bd 73 49 6e 3d
       -0.023622913 0.00840002 -0.054041285 0.058175515
000010 a3 1a b8 bd 9e 10 82 bd 5b 1a ec bd 1a ad b5 3c
       -0.089894556 -0.06350826 -0.115284644 0.022177268
000020 96 49 c7 3c ec 07 73 3d 82 db 94 bc 00 ff 42 3d
       0.02432708 0.059333727 -0.018171076 0.04760647
000030 11 86 2a 3c 50 98 3f bc b2 3e 35 bd 89 28 3d bc
       0.0104079405 -0.011694029 -0.044249244 -0.011545309
000040 c5 ba 34 3d 85 fb b1 bd 02 53 e0 bd b7 7d 42 3c
       0.04412343 -0.08690552 -0.109533325 0.011870793
000050 a9 d6 aa 3d 87 b0 b8 bc f3 8e 9f bb b5 8d 82 b9
       0.083417244 -0.022545112 -0.004869336 -0.00024901112
000060 9b 9e d6 bc 50 c2 a2 3c b0 50 84 bd 32 7b 18 3c
       -0.026198676 0.019868046 -0.064607024 0.009306716
000070 ec 72 40 bd 84 29 92 3c 30 40 6f bd a7 b4 9a bc
       -0.046984598 0.017842062 -0.058410823 -0.01888497
000080 93 ad 63 3d b7 a7 76 3d fe 59 81 bd 2c ac 15 bd
       0.055585455 0.06021854 -0.06315993 -0.03654115
000090 2e d9 3f 3c 15 8a 4d 3c cd cb 08 3d aa f2 ac bb
       0.0117094945 0.012545128 0.033397485 -0.0052779512
0000a0 54 e3 fe 3c 24 d2 60 bc 62 8f b8 3c d1 e4 1b 3d
       0.031114258 -0.013721976 0.022529308 0.038060013
0000b0 f8 92 26 3c fb f7 da 3c 4f 09 76 3c 3f 46 3e bd
       0.010166876 0.026729574 0.015016868 -0.04645371
0000c0 7b 7b 96 bb 5d 74 cb 3a dc 88 7b bb 14 20 83 bd
       -0.0045923567 0.001552235 -0.0038381135 -0.06402603
0000d0 6b f4 23 bd a1 c4 bf bd 82 1c e8 bc e1 ee ff 3c
       -0.040028017 -0.09363676 -0.028333906 0.031241836
0000e0 77 6f e4 bc ca e8 db bd 69 6a 83 bd 59 2a c0 3d
       -0.027885182 -0.1073776 -0.064167805 0.09383077
0000f0 f3 98 88 3d 3e 9f a3 bb 06 bc 02 bd b1 06 ef 3c
       0.06669798 -0.0049933484 -0.031917594 0.029177995
000100 e1 71 ae bd a4 ff 6f 3d de 14 29 3d 9d 40 a0 3c
       -0.085178144 0.058593407 0.041279666 0.01956206
000110 3f 1f 79 bc a4 52 6b bc 03 4e 82 3c c9 7e 51 bd
       -0.015205204 -0.014362965 0.01590634 -0.051146302
000120 d2 6b a1 bc 00 d7 de bd 90 83 1f be 47 81 e6 bd
       -0.019704733 -0.10880852 -0.15577531 -0.112551264
000130 94 d7 f8 bc 6a f1 c6 bd 87 84 ec bc ed 23 e5 3b
       -0.030376233 -0.09714015 -0.028871788 0.006992808
000140 ad d4 3d 3b ed 94 58 3d 93 a6 20 3d c6 da d5 bc
       0.0028965876 0.0528764 0.039221358 -0.026105296
000150 99 e0 ba bc 24 af b2 bc 40 b7 78 bc 8e f5 af bd
       -0.022812175 -0.02181203 -0.015180409 -0.08591758
000160 5d fa 34 3d 23 6a 90 bd 9f de 12 3d 51 cb 95 bc
       0.044184078 -0.07051494 0.03585684 -0.018285425
000170 26 d5 96 bd fc 46 0a 3d 7d 3b 1f be 08 96 b4 bd
       -0.073648736 0.033759102 -0.15550037 -0.08817679
000180 9d 3a 91 bd d2 3f ae 3c fb 72 b1 3b 15 98 e0 3b
       -0.07091258 0.021270666 0.005415318 0.006854067
000190 bd f7 34 ba a9 60 dc bd ec 72 ec bc b8 f3 23 3b
       -0.0006903371 -0.10760624 -0.028863393 0.0025017094
0001a0 67 ca 72 bd e6 0d 82 bb 6c e2 9a 3c b4 88 87 bc
       -0.059275057 -0.003968942 0.018906794 -0.016544677
0001b0 28 12 48 bd 78 5f b2 bb 7e 63 96 3d 7c ac 7e bd
       -0.04884544 -0.0054435097 0.073431954 -0.062176213
0001c0 f0 70 ad bd d0 99 53 bd 51 63 25 3c 70 07 ac bc
       -0.08468807 -0.05166036 0.01009448 -0.02099964
0001d0 5b da 41 bc f8 06 0e 3c c2 10 96 3d 74 d8 75 bc
       -0.011831845 0.008668654 0.07327415 -0.01500522
0001e0 35 3a 24 bd f7 8c 6c 3d a7 08 dc bc 9f fc 8c 3c
       -0.040094573 0.057751622 -0.026859595 0.017210303
0001f0 fc f6 39 bc a9 ab 16 bd 43 f1 cb bd ba cc 38 bc
       -0.01135039 -0.0367848 -0.099581264 -0.011279279
000200 b9 f4 a3 3d 9c 11 81 3d 12 71 ac bd cf 7f 32 3d
       0.080056615 0.06302187 -0.08420004 0.04357892
000210 86 73 65 bd 67 4a 2b bd 4b 78 45 bd af 74 11 bd
       -0.056018375 -0.041819002 -0.048210423 -0.03551167
000220 8d 6d 27 3d 69 cf 8f 3d 68 dd 33 bc 28 a5 e8 3b
       0.04087596 0.07021982 -0.01097808 0.0070997663
000230 21 3e c6 bc 1e 32 a5 bd 46 c4 05 3e 36 1e 05 be
       -0.024199547 -0.080662 0.13063154 -0.12999806
000240 1d 66 56 3d 84 14 b7 bd e9 87 86 3d a4 cb e0 3c
       0.052343477 -0.0893946 0.065688916 0.027440853
000250 22 20 45 bd b6 60 8b bc 04 ef 25 bd e5 16 b1 bc
       -0.048126347 -0.017013889 -0.040511146 -0.021617362
000260 dd 75 ca bc 31 f5 02 bd 9d 62 aa bd ae a2 9c bd
       -0.024714405 -0.031972114 -0.0831959 -0.07648216
000270 70 4d f5 bd 46 12 9a bd b1 fc a5 3c 44 96 79 3d
       -0.11977661 -0.07523017 0.020262094 0.06093432
000280 c4 6e d0 3d 64 93 0d 3c 39 2c b0 bc c4 ce 29 3d
       0.10177377 0.008641098 -0.021505462 0.041456953
000290 db 2b 8b bd c9 fc cb 3d 28 10 91 3c cf 5a 21 3d
       -0.06795474 0.09960324 0.0177079 0.039393242
0002a0 e3 33 fa 3d 46 18 8e bb 6e 5e 84 3d fb b3 b0 bc
       0.12216928 -0.0043363897 0.064633235 -0.021570196
0002b0 b6 a9 68 3d 16 ce 2e be 4a 1d 07 bd 28 ef ac bd
       0.056802474 -0.17070803 -0.032986917 -0.08444053
0002c0 f7 b2 8f 3c c2 48 bc 3d 9a ab 2b bc d1 06 e2 3c
       0.017541392 0.09193565 -0.010477925 0.027591141
0002d0 6b 6d d3 bc 27 18 53 bc 2e e6 3e bc 73 c7 fa bc
       -0.02580901 -0.012884176 -0.011651559 -0.030612683
0002e0 f0 b2 55 3c 15 aa 2b bd 9c 56 cb 3d 56 ee 26 bd
       0.01304315 -0.04191025 0.09928629 -0.04075464
0002f0 bc 07 fe 3c a6 9a 55 3d 24 6b 7e bc e2 39 21 bd
       0.031009547 0.052149437 -0.015528474 -0.039361842
000300 e4 04 2f bd f4 3b 69 3c 49 e4 c3 3d 4f a8 75 bd
       -0.042729273 0.014235485 0.09565026 -0.059974965
000310 bd eb 88 3d 4c c7 07 3e 33 aa e8 3c 04 a2 8b 3c
       0.066855885 0.1325962 0.02840147 0.017045029
000320 ca 52 02 3d 3b 3a 12 bd a9 bf de bc 15 40 73 bd
       0.031817235 -0.035700064 -0.027191 -0.059387285
000330 a0 be 97 3d 3f 73 37 3d 97 05 da 3c 9b 93 d7 bd
       0.07409406 0.04478764 0.026613994 -0.105262004
000340 d2 83 3e 3d a7 92 13 be 2a fb 11 3e 55 1a 90 bc
       0.046512432 -0.14411412 0.14255968 -0.017590681
000350 4f 51 a1 bc 30 6d ba 3d ca 48 14 3e 16 e0 22 3d
       -0.019692091 0.09102857 0.14480892 0.039764486
000360 03 e2 76 3c 73 c2 1d 3c 38 5e 7e bd 7f d8 4c 3d
       0.015068534 0.00962888 -0.062101573 0.050011154
000370 81 05 47 bd ee 16 18 bd 8d f0 11 3d 36 ec 37 3d
       -0.048589233 -0.037131242 0.035629798 0.044903003
000380 07 83 a5 bd 1a 5f 1b bd 67 8a bd bd 6a 3e 95 3d
       -0.08081632 -0.037932493 -0.09254914 0.07287295
000390 88 f2 17 3c c4 b8 7b bc 8d 63 97 bb 65 65 9e 3d
       0.009274133 -0.015363876 -0.0046200217 0.07734183
0003a0 5b 57 a5 3d 4c 78 18 bd be 48 0b bd 60 f9 d1 3c
       0.08073302 -0.0372241 -0.03400492 0.025631607
0003b0 7f db 3a bd 6f 00 1a bd e6 ae 08 bd 44 bf a6 3b
       -0.045619484 -0.03759807 -0.03336992 0.0050887186
0003c0 23 bf b2 3c 9d 68 60 bd 1c 0b 8e 3d f9 0a cb bc
       0.021819657 -0.054787267 0.06935713 -0.024785506
0003d0 05 60 05 3d b6 1a 46 bc a2 ef c5 bc ba 24 62 bb
       0.032562274 -0.012091329 -0.024162117 -0.0034506754
0003e0 60 b4 52 bd 1b a3 5f 3d 47 c4 23 be 26 9f 8f bd
       -0.05144155 0.05459891 -0.15992843 -0.07012777
0003f0 0d 56 31 3d 40 32 51 bd cc 9e 14 bd c2 4d b2 bd
       0.043294955 -0.051073313 -0.036284253 -0.087062374

bias f4 [64]
000000 44 00 09 bd ae 89 5f bc 57 dd 67 bd a1 9d 05 be
       -0.03344752 -0.013643665 -0.05660757 -0.13048412
000010 a1 e6 3c bd 63 1d 52 bc 9e d0 48 3b 98 69 55 3c
       -0.046118382 -0.012824389 0.0030641924 0.013025664
000020 a3 03 a8 bd c4 25 77 bc 7f ee 89 bc c1 da d5 3d
       -0.08203819 -0.015084688 -0.016837357 0.104421146
000030 38 b4 17 bd aa ea c6 bc bc 94 fe 3b 9f a8 fc 3c
       -0.037037104 -0.024281818 0.0077691954 0.030842124
000040 09 2d 74 bd 11 1d 8f 3a d4 de 5a 3c 36 fd 07 3c
       -0.05961326 0.0010918697 0.01335879 0.008300116
000050 58 cb 88 3b ef cf 91 3c e8 9a 20 bd 56 04 76 bd
       0.004174631 0.017799346 -0.03921023 -0.06006273
000060 e4 d9 34 bc ca bc 6e bc 54 4a 8c bd 1c 90 07 bd
       -0.011038277 -0.014571378 -0.068501145 -0.033096418
000070 2c 7b 4d bd 5a f1 a0 bc c3 df 06 bd 35 f1 fc 3c
       -0.050166294 -0.019646335 -0.03292824 0.030876735
000080 12 e5 a4 3d fa 51 c9 bc ec 28 4a bd e8 91 7a bd
       0.08051504 -0.024575222 -0.049355432 -0.061174303
000090 cf 60 58 bd 03 e5 2a 3b 63 ed 97 3d 09 6c 8a bc
       -0.0528267 0.0026076443 0.07418325 -0.016897218
0000a0 6a bc 48 bb d6 c4 35 3d de 13 24 bd 78 ac 53 b8
       -0.0030629882 0.04437717 -0.04005801 -5.0466944e-05
0000b0 55 38 0c bc 2e a3 f6 3c 26 22 6d bd 40 a0 8d bc
       -0.0085583525 0.030107107 -0.057893895 -0.017288327
0000c0 a4 be ab bd 11 ee 00 3d 7d 0c 8a bd 02 03 02 bc
       -0.08385971 0.031477038 -0.06740663 -0.007935287
0000d0 9a 96 23 3d ec 87 82 bd 9d 6a 09 be 9f 5d 7a bc
       0.039938547 -0.06373581 -0.13419576 -0.01528111
0000e0 f8 bf 2e 3c e0 05 45 bc 35 a7 42 bd 58 bf 8e bd
       0.010665886 -0.0120253265 -0.047522742 -0.0697009
0000f0 d3 2c 4d bd 4e 3a e5 bc 34 03 27 bd 43 94 1b bc
       -0.050091576 -0.027981903 -0.04077454 -0.009495798

weight f4 [12, 64, 3, 3]
000000 3a 2a 46 bc ad b2 89 bd 14 cb 23 bb 72 40 ae bc
       -0.012095029 -0.06723533 -0.002499287 -0.021270964
000010 78 61 3a 3d 78 6a 4d 3d 8d a0 f6 bc 6d e7 4d bb
       0.04550311 0.050150365 -0.030105853 -0.0031418458
000020 ae bf e4 3c 4e 1a 69 bc 17 81 a2 3b 61 4f b1 bb
       0.027923431 -0.014227463 0.0049592364 -0.005411074
000030 90 a0 01 bb 00 7e 6e bd ff cc 81 3c 01 51 00 bc
       -0.001977954 -0.05822563 0.01584482 -0.007831813
000040 b9 00 44 3d e2 62 1d 3c 93 c8 06 3c 3e 68 7a 3b
       0.04785225 0.009606095 0.008226532 0.0038209106
000050 29 22 ad 3c a9 6f dd bc 3a 6d 5e 3c ca 99 5c bc
       0.021134453 -0.027030783 0.013575846 -0.013464401
000060 4f 13 99 3b 90 20 68 3d d7 ea 06 bd 67 df 48 bd
       0.004671491 0.05667168 -0.032938804 -0.049041178
000070 47 ee ee 3d 1e e1 80 bc c6 5a 48 bc 86 0f ee bd
       0.116665415 -0.015732344 -0.012228673 -0.116240546
000080 61 5f 53 3b 34 5c af 3c 26 d4 1b 3d 97 97 80 3b
       0.0032252895 0.02140627 0.038044117 0.003924321
000090 a7 b0 4f 3d cf fe 94 3d e4 59 2e bc 1e 4e 0d 3d
       0.05070558 0.072751634 -0.010641549 0.034498326
0000a0 8e b4 28 bb fe ff 69 bd 77 0c 05 bc a0 38 85 bc
       -0.0025742385 -0.0571289 -0.008120648 -0.016262352
0000b0 bf 71 43 bd 22 a6 04 bb 5c 32 6e bd 59 38 48 3d
       -0.0477159 -0.0020240624 -0.058153495 0.048881862
0000c0 dc 94 dc bc 5c a9 da 3d d7 61 b3 bc 7c ad a3 3b
       -0.02692645 0.10676834 -0.02189724 0.004995046
0000d0 66 19 de bc db 3a 01 bd a5 52 6a bd a9 53 04 be
       -0.02711172 -0.03155027 -0.057207722 -0.12922539
0000e0 24 8f c4 3d 60 99 a7 3c b5 16 2d be 8b 90 8a bd
       0.095976144 0.020458877 -0.16903193 -0.06765851
0000f0 b7 5a 8a bd 38 44 79 bc 37 fd 36 bd 41 9f 7f 3c
       -0.06755584 -0.0152140185 -0.04467508 0.015601934
000100 b8 02 4f 3d d0 9c 8e 3c 9b 91 0e bc bd 76 79 bd
       0.050539702 0.017408758 -0.008701707 -0.060904253
000110 20 50 cf bb 4f 16 34 bd f2 0f 11 bd 32 09 cd 3c
       -0.0063266903 -0.043966588 -0.035415597 0.025028799
000120 68 58 1b bd c1 64 c9 3b f7 77 13 bd bb 09 93 3d
       -0.037926108 0.006146044 -0.03600308 0.0717959
000130 86 df 86 bb 19 82 24 bd 80 f5 c5 3d 8f c7 58 bd
       -0.0041160015 -0.040163133 0.09665966 -0.05292469
000140 cc e6 15 bc 9b 4a 45 3d d9 e3 ef bd b9 e3 fc 3b
       -0.009149265 0.048166852 -0.1171338 0.0077175763
000150 b5 e1 86 bd e5 bc 8b 3d b8 d5 66 bd 61 de f7 3c
       -0.06586019 0.06823138 -0.05635616 0.030257406
000160 33 ea ed ba 99 b9 a2 3d 39 12 bc 3d e8 5e 19 3d
       -0.0018151462 0.07945556 0.09183163 0.037444025
000170 82 45 6a bd 2f 71 82 bc cf ba e2 bc a4 fe 8b bc
       -0.057195194 -0.01592311 -0.027676968 -0.017089196
000180 0e 3e 08 3d 38 07 95 bc b9 71 8c bd d2 5d 4e b9
       0.033262305 -0.018191919 -0.068576284 -0.00019680642
000190 16 4f ca bc d7 89 24 3c 9d e7 9f bc d1 c1 e6 3b
       -0.024695914 0.010042629 -0.019519622 0.0070421477
0001a0 dd 42 24 3d 7e 7a 3d 3c dc ff ee 39 b2 fd 47 bb
       0.04010283 0.011564849 0.00045585528 -0.0030516204
0001b0 8e b2 a4 bb 05 61 44 bd 0f 2f 25 bd 5e 6c be 3c
       -0.005026168 -0.047944088 -0.04032808 0.023245033
0001c0 95 9f aa 3b 95 4e e3 3c 47 17 9e 3c 55 73 61 3d
       0.005207012 0.027747432 0.019298209 0.05504163
0001d0 b4 ff 2d bd d4 27 59 3d 8c c0 ce 3b 47 9a 19 3c
       -0.042480186 0.0530165 0.0063095745 0.0093751615
0001e0 02 4c 58 3d 35 41 c0 3d 3e cb 57 bc 7d e6 1c 3d
       0.05280686 0.09387437 -0.013171015 0.03830575
0001f0 1a 74 65 3b d2 d2 95 bd 86 d2 88 bd 49 b4 ce 3c
       0.003501183 -0.073156014 -0.06680779 0.025232451
000200 ea 86 3e 3d 53 c0 42 bd 86 b0 12 bc f1 3b ab 3d
       0.046515383 -0.047546696 -0.008953219 0.08361042
000210 12 3a ed bc 08 07 37 bc ce ed c5 3c 61 1a 24 bd
       -0.028958354 -0.01117111 0.024161246 -0.04006422
000220 dd ff 7b bc f8 84 ab bc 7e 33 b5 3d 72 c6 a0 bc
       -0.015380827 -0.020937428 0.08847712 -0.019625876
000230 0a 9c 28 bd f3 76 80 3c 4f 86 25 3c 0c 85 33 bc
       -0.041164435 0.01568172 0.010102822 -0.010957014
000240 cf 0a 6d bc db 8b 20 bd 96 14 dd 3c 16 34 b3 ba
       -0.014467909 -0.039195877 0.026987355 -0.0013672139
000250 a3 fd b2 3d c7 2e 1b bc 31 05 68 3c 14 63 68 bd
       0.087397836 -0.009471602 0.014161394 -0.056735113
000260 ae 70 54 bd 4c 7e 2e bc 27 13 24 3b 20 c0 92 bd
       -0.051865272 -0.010650229 0.002503583 -0.07165551
000270 a0 9c 46 bc 65 88 ce bc 41 cb 38 bd a8 dd fe bc
       -0.012122303 -0.025211522 -0.045115713 -0.031111553
000280 91 db 44 3c 9e c5 35 bd 62 1e a2 3c 78 68 95 3b
       0.012015239 -0.044377916 0.019789878 0.004559573
000290 b0 d5 c8 3a b5 89 27 3c 9c 97 e3 3c e0 8c b0 bc
       0.0015322473 0.010225703 0.027782254 -0.02155155
0002a0 fb d0 3e bc ef 72 f5 3c 26 40 a4 bc 16 1a 15 bd
       -0.0116465045 0.029962031 -0.02005012 -0.03640183
0002b0 5c 4d c6 3c 47 8e 32 ba e7 4b 39 3d e1 6c aa bd
       0.02420681 -0.0006811362 0.0452384 -0.08321548
0002c0 85 c8 1b 3d 3a c9 d1 3c 8b 62 c4 bc 38 c8 ec 39
       0.038033027 0.025608648 -0.02397277 0.00045162602
0002d0 af a9 83 bc c9 13 5f 3d c1 31 89 3c e2 d5 e8 bb
       -0.016072122 0.054462228 0.016747357 -0.007105575
0002e0 35 74 42 bd 13 25 bd bb 5f a0 ea bb 3c ba c0 bb
       -0.047474105 -0.005772242 -0.007160231 -0.005881576
0002f0 c2 f3 19 3c 49 58 67 3d b0 61 b5 3c 7a 54 85 bc
       0.009396495 0.05648068 0.022141308 -0.016275633
000300 33 4c 89 3d 76 31 f3 bc f0 72 65 bd ed 97 99 bc
       0.06703987 -0.02968667 -0.056017816 -0.018749202
000310 86 99 17 bc a5 71 b8 bc 29 46 11 3d d7 30 da 3d
       -0.009252911 -0.022515127 0.0354673 0.10653847
000320 fc 1e 3b bd ce 7f 8f 3c 6a 81 3c 3e 01 f6 44 be
       -0.045683846 0.017516997 0.18408743 -0.19234468
000330 e6 e1 f4 bc 13 20 50 3e e4 07 fc bd 38 33 c1 bd
       -0.029892873 0.20324735 -0.123061925 -0.09433597
000340 a4 8b 79 3d 89 be 44 bc bc 52 53 bd b9 30 23 3d
       0.060924187 -0.012008318 -0.051592574 0.039841387
000350 96 84 ca bb 9e 9f 96 bd 95 18 3f 3d e8 4f aa 3c
       -0.0061803563 -0.07354663 0.046654303 0.020790055
000360 d7 26 fd 3c 18 14 a0 3a d3 e6 61 bd f4 49 a4 3d
       0.03090231 0.001221302 -0.05515177 0.08021918
000370 1e bb 38 3d 52 dc aa bd f8 0a a3 bc 96 29 a4 3b
       0.045100324 -0.08342804 -0.019902691 0.0050098402
000380 70 a5 85 bd cc 81 c4 3c 10 8c 24 bd 11 a5 b4 bc
       -0.06525695 0.023987673 -0.040172637 -0.022051366
000390 7c 34 5b 3d 5f e1 70 3c 01 e5 f7 3d b8 1b ef 3b
       0.05351685 0.01470217 0.12104226 0.0072970055
0003a0 a1 8d 63 bd 63 2c 30 bd dd 1a 4d bd 06 8f 11 bd
       -0.05555499 -0.04301108 -0.050074447 -0.03553679
0003b0 4e e7 67 bd a6 b1 1d 3d 40 68 c6 bc bd 49 93 bd
       -0.056617074 0.038499497 -0.024219632 -0.07191799
0003c0 8c e3 87 bd 6e bd fa bb 79 dd fa 3c fb 33 98 bd
       -0.06635198 -0.0076519763 0.030623185 -0.074317895
0003d0 31 08 7a 3d 96 4b 61 bc 80 e5 fd bc d8 e2 04 3e
       0.06104297 -0.013750931 -0.030993223 0.12977159
0003e0 a8 b7 23 3d 81 f5 79 bd 49 eb 29 bb 29 3a 7c bd
       0.03997007 -0.061025146 -0.0025927594 -0.061578903
0003f0 f1 fb 26 3c ad 03 9d 3c ff cc 36 3d d2 70 c8 bc
       0.010191903 0.019166792 0.044629093 -0.02446786

bias f4 [12]
000000 b3 e4 b6 bb f3 e4 a0 bb ca 15 00 3c fe 83 33 bb
       -0.0055814623 -0.0049101054 0.007817695 -0.0027391906
000010 77 9c 47 bc a3 f2 42 ba 89 cb 8b 3a 3f 9e 2e 3c
       -0.0121833 -0.00074366684 0.0010665517 0.010657846
000020 7b f8 8c bb 90 80 9a bb a4 6b bd bb b5 89 43 bb
       -0.004302082 -0.004715033 -0.005780654 -0.0029836718
