train_weight_sr4/model_epoch_12.pth (torch_old, 667646 bytes, 10 tensors)

weight f4 [12, 3, 13, 13]
0	0x3ca26214	0.019822158
1	0xbe072207	-0.13196574
2	0x3d852c20	0.06502557
3	0x3c57f163	0.01318011
4	0xbd123354	-0.03569348
5	0xbd777b91	-0.060420576
6	0x3d0dc8f9	0.03461549
7	0x3cd6cb63	0.02622003
8	0xbe023383	-0.12714963
9	0x3e0046c8	0.12527001
10	0xbd3053bc	-0.043048605
11	0xbcfa129d	-0.030526454
12	0xbc08925c	-0.008335676
13	0x3cde67c7	0.027149094
14	0xbde75e65	-0.11297301
15	0xbc8d608a	-0.017257947
16	0xbd068090	-0.03283745
17	0x3d9fca55	0.07802264
18	0x3c9f6ffe	0.019462582
19	0x3baff4c4	0.0053697545
20	0xbdbdc8a4	-0.09266785
21	0xbcdc0482	-0.026857618
22	0xbd115804	-0.03548433
23	0xbc6364cb	-0.013879011
24	0xbba180b3	-0.004928672
25	0x3c16e151	0.009208993
26	0xbd77a758	-0.060462326
27	0xbe08226b	-0.1329438
28	0x3da959dc	0.082690924
29	0x3d88cc04	0.06679538
30	0x39222202	0.00015462193
31	0xbc8ed97e	-0.017437693
32	0x3d84daf7	0.06487077
33	0xbcbe1a1b	-0.023205807
34	0xbc4d2a5a	-0.012522304
35	0x3d9057bf	0.07047986
36	0x3c83b4f4	0.016077496
37	0xbd02c864	-0.03192939
38	0x3d11cfba	0.035598494
39	0x3d344982	0.044015415
40	0xbe02c51c	-0.12770504
41	0xbd87a190	-0.066226125
42	0x3a801f79	0.0009775005
43	0x3d58c276	0.052919827
44	0x3ddda6a6	0.10822801
45	0xbd20ae08	-0.03922847
46	0xbe158a7c	-0.14603609
47	0xbcf17df1	-0.029478999
48	0xbd974068	-0.073853314
49	0x3d5667c6	0.05234506
50	0x3d4859fa	0.048913933
51	0xbd55a845	-0.052162427
52	0xbdb72485	-0.089425124
53	0xbcacf720	-0.021113932
54	0xbe493cc6	-0.1965209
55	0xbe819912	-0.25312096
56	0xbe933ff0	-0.28759718
57	0xbdd4b22e	-0.103855476
58	0xbe082cb2	-0.132983
59	0xbd0eddc6	-0.03487947
60	0x3cc5e6b8	0.024157867
61	0x3d204904	0.039132133
62	0x3c6f76bd	0.014615712
63	0xbc81e968	-0.015858367
64	0x3dc405df	0.09571432
65	0x3d4c8b6a	0.049937643
66	0x3d9cee31	0.07662619
67	0x3e080c4f	0.13285945
68	0x3ce8275f	0.028339086
69	0xbbe32f59	-0.0069331345
70	0x3d98bda6	0.074580476
71	0xbd58cb6d	-0.052928377
72	0x3d061b2d	0.03274076
73	0xbe02ab39	-0.12760629
74	0xbe2765d8	-0.16347444
75	0xbd9fb68d	-0.07798491
76	0xbe356011	-0.17712428
77	0xbdfa1155	-0.12210337
78	0xbd000a90	-0.031260073
79	0x3d9c5be0	0.07634711
80	0xbdbbcc15	-0.09169785
81	0xbaa49350	-0.001255611
82	0xbc399032	-0.011325883
83	0x3d89e6e7	0.06733494
84	0x3d9801ac	0.07422194
85	0x3d938603	0.07203295
86	0x3db52f40	0.08846903
87	0x3d8a7cd3	0.067620896
88	0x3e217a36	0.15769276
89	0x3d7cf67b	0.0617585
90	0x3c8da7f3	0.017291998
91	0x3d15a888	0.036537677
92	0xbe05ee4f	-0.13079189
93	0xbe3c1b6d	-0.18369837
94	0xbded99af	-0.116015784
95	0xbe8aea64	-0.2713195
96	0xbe3d8602	-0.18508151
97	0xbd845305	-0.06461147
98	0xbd2b5225	-0.041826386
99	0xbcb3392e	-0.021877851
100	0xbd5ce03b	-0.05392478
101	0x3d7f33b8	0.062305182
102	0xbd15b7e9	-0.036552344
103	0x3d42a30c	0.047518775
104	0xbd0b4c76	-0.034008466
105	0xbd89d654	-0.06730333
106	0xbda81bf9	-0.0820846
107	0xbdc7298e	-0.09724723
108	0xbd4e2a5c	-0.050333366
109	0xbe02c589	-0.12770666
110	0xbd2d4fd1	-0.042312447
111	0x3db22cab	0.08699926
112	0xbdcf4845	-0.10121206
113	0xbcb9d56b	-0.022684773
114	0xbe66fd8e	-0.22557661
115	0xbdb64387	-0.088995986
116	0xbe23cabd	-0.15995307
117	0x3dd446c1	0.10365058
118	0xbde32b6a	-0.11092265
119	0xbcacd2c1	-0.021096589
120	0xbd867534	-0.065653235
121	0xbe68e841	-0.22744848
122	0xbd1a6f00	-0.037703514
123	0xbd3f410f	-0.046692904
124	0xbd8fe90a	-0.070268705
125	0xbbe5ed35	-0.0070168027
126	0xbca4863b	-0.020083537
127	0x3cbdacc8	0.023153678
128	0xbd60afc2	-0.054855116
129	0xbcea4db0	-0.028601497
130	0xbd9b7bb0	-0.07591951
131	0xbd13c6ff	-0.03607845
132	0xbe0aa4ac	-0.1353938
133	0x3bcbfc00	0.006225109
134	0xbe0744a6	-0.13209781
135	0xbd896fda	-0.06710787
136	0xbe3f0cf7	-0.1865729
137	0xbcd33c45	-0.025785575
138	0xbdf5c924	-0.12001255
139	0x3c4c1eee	0.012458546
140	0xbc8d340e	-0.017236736
141	0xbc7c1e8a	-0.01538814
142	0xbdba33ad	-0.090918876
143	0x3ca07fc4	0.019592173
144	0x3c46647e	0.01210892
145	0xbdfb3802	-0.12266542
146	0xbe52903b	-0.20562832
147	0xbe032995	-0.12808831
148	0xbcdace4e	-0.026709702
149	0xbd17ae61	-0.037031535
150	0xbca4f04e	-0.020134117
151	0xbe0ea561	-0.13930275
152	0xbc2dd323	-0.010609421
153	0xbd861b2e	-0.06548153
154	0xbcfb912d	-0.030708874
155	0xbdd8e6f3	-0.10590925
156	0xbd5231e9	-0.05131713
157	0xbce50616	-0.027957004
158	0xbe4c49d6	-0.19950041
159	0xbe341b84	-0.17588621
160	0xbd43ab10	-0.04777056
161	0xbe301778	-0.17196453
162	0xbe5c99cd	-0.21543045
163	0xbd5d7fe7	-0.054077055
164	0xbdc5d47e	-0.0965967
165	0xbc45a7d4	-0.012063939
166	0xbd249cb8	-0.04018852
167	0xbdf14da8	-0.1178239
168	0xbd15c550	-0.036565125
169	0x399cc478	0.0002990102
170	0xbcbeb0ec	-0.023277722
171	0xbd559681	-0.052145485
172	0x3add0821	0.0016863385
173	0xbc1d432d	-0.0095985355
174	0x3d96f8b9	0.07371659
175	0xbd78bc8a	-0.06072668
176	0x3d5947b4	0.053046897
177	0xbd191420	-0.03737271
178	0xbcf11ddb	-0.029433182
179	0xbd65bffe	-0.0560913
180	0xbac92f80	-0.0015349239
181	0x3cd5bcb6	0.026090961
182	0x3d705753	0.05867703
183	0xbd5c4825	-0.05377974
184	0x3e038a4b	0.12845723
185	0xbd3e5ced	-0.04647534
186	0xbc228453	-0.009919244
187	0xbddf7611	-0.10911191
188	0xbda17680	-0.0788393
189	0xbd828fbc	-0.063750714
190	0x3bfb4383	0.00766796
191	0x3a09e066	0.0005259573
192	0x3d41e9f8	0.04734227
193	0xbe04323e	-0.12909791
194	0xbd039785	-0.032126922
195	0xbd818a72	-0.063252345
196	0x3deba282	0.11505605
197	0xbd7fa8f5	-0.06241699
198	0xbdf561b6	-0.119815275
199	0xbd6b944e	-0.05751448
200	0x3dbeb4e2	0.093118444
201	0xbc28014d	-0.010254216
202	0x3d34170d	0.043967295
203	0x3a134565	0.00056179456
204	0xbd51907f	-0.051163193
205	0xbca83b66	-0.020536136
206	0x3c0c7048	0.008571692
207	0xbce355b8	-0.027750835
208	0x3d810c0b	0.06301125
209	0x3d83c3e3	0.06433847
210	0x3dce782c	0.10081515
211	0x3e1ba8f7	0.15201174
212	0x3d9a19d9	0.07524461
213	0x3d19be47	0.03753498
214	0x3cfe774a	0.03106274
215	0x3d370ae2	0.044688113
216	0x3c76f82e	0.015073819
217	0x3d6ddbe8	0.058071047
218	0xbdb019d9	-0.0859868
219	0xbe4300d9	-0.19043292
220	0x3d15ee1f	0.036604043
221	0x3dca720d	0.09885035
222	0xbda7fc96	-0.08202474
223	0xbe3cd855	-0.18441899
224	0xbe18b8ce	-0.14914247
225	0xbdebdccf	-0.11516725
226	0xbd83aabc	-0.064290494
227	0xbdd3381f	-0.103134386
228	0x3d8aa5f2	0.06769933
229	0x3cb40916	0.021976989
230	0x3d800451	0.06250823
231	0xbd89435c	-0.06702301
232	0x3caa00eb	0.02075239
233	0x3d6a5b7e	0.05721616
234	0xbd3eb914	-0.046563223
235	0x3e011d82	0.12608913
236	0x3c718d90	0.014743224
237	0x3de72502	0.112863556
238	0xbc2c7671	-0.0105262855
239	0x3c8924da	0.016741205
240	0x3cac957b	0.021067372
241	0xbd43c5c9	-0.047796044
242	0xbdcc7429	-0.09983093
243	0xbd4cb4ec	-0.049977228
244	0xbd9bf064	-0.0761421
245	0xbe3385db	-0.1753153
246	0xbd334bf4	-0.043773606
247	0xbde66342	-0.11249401
248	0xbe0d751b	-0.13814203
249	0xbddde699	-0.10834999
250	0x3cef4d12	0.029211555
251	0x3c6bdbe8	0.014395691
252	0xbb6f1bda	-0.0036485107
253	0xbd8a6783	-0.067580245
254	0x3c8d2d21	0.017233433
255	0x3df874c2	0.12131645

weight f4 [64, 12, 7, 7]
0	0xbd6740c2	-0.056458242
1	0xbe053860	-0.13009787
2	0xbd9123e9	-0.070869274
3	0xbcf3abfc	-0.029745094
4	0xbdef9dc2	-0.11700012
5	0xbdd7519d	-0.105136134
6	0xbe20f03a	-0.15716639
7	0x3d2082e4	0.039187327
8	0x3b9b91c2	0.0047476003
9	0x3cdcab53	0.026937163
10	0xbc2984de	-0.010346619
11	0x3d05f602	0.032705314
12	0xbd85c40d	-0.06531534
13	0xbb1fb8cc	-0.0024371622
14	0xbbb6ba9c	-0.005576445
15	0xbdb8ed2d	-0.09029613
16	0xbdc160b5	-0.094422735
17	0xbe4eae7f	-0.20183752
18	0xbe61a8ec	-0.22037095
19	0xbe20e149	-0.1571094
20	0xbe299a55	-0.16562779
21	0xbcc6fc9b	-0.024290374
22	0x3c374ce9	0.01118777
23	0xbb04da5b	-0.0020271752
24	0x3e034282	0.1281834
25	0x3ca7d4ed	0.020487273
26	0xbd0ed269	-0.03486863
27	0xbe0febeb	-0.1405484
28	0x3d8d8dc9	0.06911809
29	0x3cfb6ca0	0.030691445
30	0x3e0b2c7c	0.13591188
31	0xbd75167c	-0.059835896
32	0xbb657eaf	-0.0035018136
33	0xbd0a9c48	-0.033840448
34	0xbd6de3b6	-0.05807849
35	0xbd33511e	-0.04377853
36	0xbdc62997	-0.096759014
37	0xbbca6a78	-0.006177243
38	0xbd2ed845	-0.04268672
39	0x3c725e4d	0.014792991
40	0xbe5eeae3	-0.2176929
41	0xbe011347	-0.1260501
42	0x3dd9bb95	0.106314816
43	0xbdf9a035	-0.1218876
44	0x3b60d754	0.0034308033
45	0xbd62d14b	-0.05537538
46	0xbbbd5fbc	-0.0057792347
47	0xbe24c064	-0.16089016
48	0xbe2d671e	-0.16933867
49	0x3c3b8a26	0.011446511
50	0x3c47e85d	0.012201396
51	0xbdb71cff	-0.089410774
52	0x3d0da348	0.034579545
53	0x3ccbe26d	0.024888242
54	0xbc9c7a76	-0.019101363
55	0x3cccaab0	0.024983734
56	0xbd051bf2	-0.032497354
57	0x3cc2dae8	0.023786023
58	0x3dbdd5ce	0.09269296
59	0xbdba2481	-0.09088994
60	0x3d88d8b8	0.06681961
61	0xbe150df4	-0.14556104
62	0xbc7e8966	-0.015535688
63	0xbbf5454f	-0.007485069
64	0x3c3d7c55	0.011565288
65	0x3cb604b0	0.022219032
66	0x3d58f6aa	0.052969612
67	0x3d1fbf24	0.039000645
68	0xbdbc2945	-0.09187559
69	0xbb296532	-0.002584767
70	0xbd231cfc	-0.039822564
71	0x3c770a7a	0.015078181
72	0x3dced4ed	0.10099206
73	0xbe3df561	-0.18550636
74	0x3e566f28	0.2094084
75	0x3c6b2a03	0.014353278
76	0xbd21930f	-0.039446887
77	0x3cc74030	0.0243226
78	0xbd1d7b25	-0.038447518
79	0x3d5108a8	0.051033646
80	0xbd1e027d	-0.03857659
81	0xbe1ef209	-0.15522017
82	0xbea34077	-0.3188512
83	0xbb59d9bd	-0.0033241354
84	0xbd07cab3	-0.033152293
85	0x3d21a8b6	0.039467536
86	0x3d12c61f	0.035833474
87	0xbccc915b	-0.024971655
88	0x3d390564	0.045171157
89	0xbe884622	-0.26616007
90	0x3e07c5e1	0.13259079
91	0x3b980686	0.0046394495
92	0xbd8304ab	-0.06397375
93	0x3ded6d35	0.11593095
94	0xbd5070ea	-0.050888933
95	0x3d8384cd	0.06421814
96	0xbdd85ca9	-0.105645485
97	0x3e7e276b	0.24819724
98	0xbbe251d5	-0.006906728
99	0x3ca53488	0.02016665
100	0xbac0dabc	-0.0014713625
101	0x3cd00d00	0.025396824
102	0xbb9df6c9	-0.004820679
103	0x3c91dca7	0.01780541
104	0xbc0680ad	-0.00820939
105	0x3d0f94ca	0.035054006
106	0xbd9300e4	-0.07177904
107	0xbe44b4e3	-0.19209628
108	0xbd855894	-0.065110356
109	0xbb474461	-0.0030405747
110	0xbd401905	-0.04689886
111	0x3d043022	0.032272466
112	0x3d1eeca3	0.038799893
113	0xbce6fe72	-0.0281975
114	0xbd679c06	-0.05654528
115	0xbd9dfc2b	-0.07714113
116	0xba589646	-0.00082621386
117	0xbe0091fc	-0.12555689
118	0x3b2b1e8c	0.0026110737
119	0xbc9ac381	-0.018892052
120	0xbd897e0a	-0.06713493
121	0xbe11f122	-0.14252141
122	0xbc769bb6	-0.015051773
123	0xbd48b03e	-0.048996203
124	0xbdc15393	-0.09439769
125	0xbcd76775	-0.02629445
126	0xbdefc79c	-0.11707994
127	0xbd98f610	-0.07468808
128	0xbd1e3b84	-0.038630977
129	0x3d1036c3	0.035208475
130	0x3bf804cd	0.0075689317
131	0x3d52cc80	0.051464558
132	0x3dcefe6a	0.101071194
133	0xbda6cd77	-0.08144658
134	0xbdbe64fb	-0.09296604
135	0xbe095678	-0.13411891
136	0x3d44dbcb	0.048061173
137	0x3d15343f	0.03642678
138	0x3d2f86af	0.042853054
139	0xbb700dcd	-0.003662932
140	0xbe092171	-0.13391663
141	0xbd0bca68	-0.034128577
142	0xbe815f0e	-0.25267833
143	0x3dde571a	0.10856457
144	0x3dc5bd33	0.096552275
145	0xbc002e54	-0.0078235455
146	0xbceb7891	-0.028744014
147	0xbd9b360b	-0.07578667
148	0x3d423947	0.047417905
149	0x3e09a0bf	0.13440226
150	0xbd0310e4	-0.03199853
151	0xbcc728e4	-0.02431149
152	0xbdd12431	-0.10211981
153	0x3d41e3ec	0.047336504
154	0x3c515299	0.0127760405
155	0xbb48e4bb	-0.0030653912
156	0xbd2e0239	-0.04248259
157	0xbcc92d60	-0.02455777
158	0xbd40c426	-0.04706206
159	0xbd2e4f07	-0.042555835
160	0xbd98e6ab	-0.074658714
161	0xbd9d1898	-0.076707065
162	0x3cb1bddb	0.021696975
163	0x3c808573	0.015688634
164	0x3c19b425	0.009381329
165	0xbd1c56ac	-0.038168594
166	0xba3e683b	-0.00072634564
167	0x3dd0e8ed	0.10200677
168	0x3bbc994c	0.005755579
169	0x3dde5906	0.108568236
170	0xbd4b5951	-0.049645726
171	0xbd5087d1	-0.050910775
172	0x3d260de0	0.040540576
173	0xbd813332	-0.06308593
174	0xbdd09539	-0.10184712
175	0x3c98d772	0.01865742
176	0x3d6fed20	0.05857575
177	0xbd072428	-0.032993466
178	0xbd00a057	-0.031402912
179	0x3bda8491	0.006668635
180	0xbd979e3f	-0.0740323
181	0xbd5b91fe	-0.053606026
182	0xbe1b282c	-0.15152043
183	0xbd87fb4d	-0.06639729
184	0x3dc58ec3	0.0964637
185	0x3d11d116	0.03559979
186	0xbcbc1fbe	-0.022964355
187	0xbc903de8	-0.017607644
188	0x3de75498	0.11295432
189	0xbddc4cba	-0.10756822
190	0xbb9fc789	-0.0048760814
191	0xbce18e43	-0.027533656
192	0x3d3896c4	0.045065656
193	0xbe4a7d6b	-0.19774406
194	0xbd82d52c	-0.063883156
195	0x3e181ce0	0.14854765
196	0xbd3d100f	-0.046157893
197	0x3ca2bf34	0.019866563
198	0x3d128b83	0.03577758
199	0x3c1a738f	0.009426965
200	0xbe193706	-0.14962396
201	0xbe42221e	-0.18958327
202	0x3dc01a1e	0.093799815
203	0x3d905326	0.07047109
204	0xbcf06fb9	-0.029350149
205	0xbcc4deb3	-0.024031973
206	0x3c81510e	0.01578572
207	0x3d81a92d	0.06331096
208	0xbe8300d9	-0.25586584
209	0x3e24b822	0.16085866
210	0xbccb696f	-0.024830548
211	0x3c46d90c	0.012136709
212	0x3d39ec34	0.045391276
213	0xbd7a33ce	-0.06108456
214	0xbe07df9a	-0.13268891
215	0xbeb607f4	-0.35552943
216	0xbe283ff6	-0.16430649
217	0x3d080e0a	0.033216514
218	0x3d1b41e6	0.037904643
219	0xbe071511	-0.1319163
220	0x3e2749ce	0.16336748
221	0xbdaf3f06	-0.08556943
222	0xbf93f8a5	-1.1560255
223	0xbecaff56	-0.3964793
224	0xbc45f9b9	-0.012083464
225	0xbcf07f9d	-0.029357726
226	0x3d91203b	0.070862256
227	0xbd51f63c	-0.051260218
228	0x3ca871df	0.02056211
229	0xbd5bdead	-0.053679157
230	0xbd8929c3	-0.066974185
231	0xbc4f25c3	-0.01264328
232	0xbcfcae78	-0.030844912
233	0x3db9d98a	0.090746954
234	0x3dd85403	0.10562899
235	0xbdce4490	-0.10071671
236	0x3e2c3ee3	0.16820864
237	0xbe22d001	-0.1589966
238	0xbccf7384	-0.025323637
239	0x3d051550	0.03249103
240	0xbcabde3a	-0.02097999
241	0xbc6e58ca	-0.014547536
242	0xbc4d5cda	-0.012534345
243	0x3e265b93	0.1624587
244	0xbe590e1b	-0.21196787
245	0x3dea0bb2	0.11428012
246	0x3c822417	0.01588635
247	0x3ccc7cad	0.024961794
248	0xbd7b4a09	-0.061349902
249	0xbcfeee14	-0.031119384
250	0xbdaf0289	-0.085454054
251	0xbd121727	-0.03566661
252	0xbd10aca1	-0.03532088
253	0xbd33e5a1	-0.043920163
254	0xbdda55fd	-0.10660932
255	0xbe03a6fc	-0.12856668

weight f4 [64, 64, 3, 3]
0	0xbd62e7f8	-0.055397004
1	0x3d98e083	0.07464697
2	0x3daed064	0.08535841
3	0xbe959ff9	-0.29223612
4	0x3da3a1bf	0.07989835
5	0x3d30befd	0.04315089
6	0xbd404bba	-0.04694722
7	0xbe218d3d	-0.15776534
8	0x3e8ad77c	0.27117527
9	0x3bedccdd	0.0072570876
10	0x3c7abccd	0.015303803
11	0x3dd8e520	0.10590577
12	0xbca240cb	-0.019806286
13	0x3e32b086	0.17450151
14	0x3cee1bd8	0.029066011
15	0x3dbc45bd	0.09192989
16	0x3acd3412	0.0015655777
17	0xbd9ccead	-0.07656608
18	0x3d98195b	0.07426711
19	0x3ddfb59a	0.109233096
20	0xbd8e5462	-0.069496885
21	0xbe4dad81	-0.20085718
22	0x3ea6eaa5	0.32600895
23	0x3b451ea1	0.003007807
24	0xbe19e50c	-0.1502878
25	0xbe360558	-0.17775476
26	0x3e0138b5	0.12619288
27	0x3d97eeb2	0.074185744
28	0x3d1d3e07	0.038389232
29	0xbda6c4ce	-0.08143006
30	0xbded0782	-0.115736976
31	0xbdc85d96	-0.09783475
32	0x3d0c1af9	0.03420541
33	0xbc2ea493	-0.010659355
34	0xbd1f8e1a	-0.038953878
35	0x3d18ab3b	0.037272673
36	0xbd906e9f	-0.07052349
37	0xbc06cf54	-0.008228142
38	0xbda75706	-0.08170895
39	0x3db04264	0.08606413
40	0xbcd3e54e	-0.025866177
41	0xbd4c4270	-0.049868047
42	0xbcab3e5b	-0.020903757
43	0xbd85a76c	-0.06526074
44	0xbd4d17f7	-0.050071683
45	0xbce971dd	-0.028496677
46	0xbd15d4a2	-0.036579736
47	0x3ccdd357	0.025125189
48	0x3bee82b5	0.007278765
49	0xbb34237a	-0.0027486966
50	0x3c294fc8	0.010333963
51	0xbda46101	-0.080263145
52	0xbcd2ef69	-0.025748925
53	0xbcfd0538	-0.030886278
54	0x3d7e61e1	0.062105063
55	0x3dab1c5a	0.08355017
56	0xbd8838ff	-0.06651496
57	0xba363f8b	-0.00069522177
58	0x3d6ae2b7	0.05734512
59	0xbd032177	-0.032014336
60	0x3dddc17d	0.108279206
61	0x3d19d45e	0.037556045
62	0xbddd0cd9	-0.10793466
63	0xbcde4fff	-0.027137754
64	0x3d74b87e	0.059746258
65	0x3d52fb15	0.05150898
66	0xbd12e4cc	-0.03586273
67	0x3ca6da91	0.020367892
68	0x3d5a32db	0.053271156
69	0xbda5ef61	-0.081022985
70	0x3cac6606	0.021044742
71	0xbd08b500	-0.03337574
72	0xbdbdfe52	-0.092770234
73	0xbc878bf5	-0.016546229
74	0xbd880833	-0.06642189
75	0x3ad1d88a	0.0016009968
76	0x3dfbd736	0.122969076
77	0x3d18d35a	0.037310936
78	0x3d25b799	0.040458295
79	0x3d733b21	0.05938256
80	0xbd46a2fe	-0.048495285
81	0xbc1170d4	-0.008876998
82	0xbce94a30	-0.028477758
83	0xbd374536	-0.04474374
84	0xbc8a359c	-0.016871266
85	0xbd415ed2	-0.04720957
86	0xbddb28f1	-0.10701168
87	0xbcd1f280	-0.025628328
88	0x3d864b60	0.065573454
89	0x3cef5f6c	0.029220305
90	0xbda19d88	-0.07891375
91	0xbd0208a0	-0.031746507
92	0x3cccf415	0.025018731
93	0xbd7c1307	-0.061541583
94	0xbd09fa5d	-0.03368603
95	0xbd1c90c6	-0.038224004
96	0xbc263973	-0.010145533
97	0xbddf1efd	-0.108945824
98	0x3d2e9e57	0.042631473
99	0x3cae5bf1	0.021284075
100	0xbc270d06	-0.010195976
101	0xbd3b4131	-0.04571647
102	0xbd76088c	-0.060066745
103	0xbca96cdd	-0.020681793
104	0xbbc7ab84	-0.0060934443
105	0x3d9ca457	0.07648533
106	0xbd2581f7	-0.040407147
107	0xbd13f6dc	-0.036124095
108	0xbd04441d	-0.03229152
109	0x3c38083a	0.01123243
110	0xbd5116b8	-0.051047057
111	0xbd2144c5	-0.039372224
112	0x3c0a0588	0.00842417
113	0xbe238e3e	-0.1597223
114	0xbbe08758	-0.0068520717
115	0xbdb3ff54	-0.08788934
116	0x3ce81fbb	0.028335443
117	0xbbcb2895	-0.006199906
118	0xbc48401d	-0.012222317
119	0x3d2ff4f4	0.042958215
120	0x3da407a8	0.08009273
121	0xbdc5d4a8	-0.096597016
122	0xbdac2580	-0.0840559
123	0xbbf030f4	-0.0073300544
124	0x3d74c559	0.059758518
125	0xbd4a749d	-0.049427617
126	0x3d8a8c2f	0.06765019
127	0xbd7d5668	-0.06184998
128	0x3ba68eac	0.005082926
129	0xbdd3282d	-0.10310397
130	0xbeae9a17	-0.34101936
131	0xbe20e2b5	-0.15711482
132	0xbda8c9c6	-0.0824161
133	0xbc56678f	-0.013086214
134	0x3e125133	0.14288788
135	0xbd907273	-0.070530795
136	0x3cf7272d	0.030170048
137	0x3db4e144	0.088320285
138	0x3a4fd09c	0.00079275086
139	0xbd8b51ca	-0.068027094
140	0xbca20d3c	-0.019781701
141	0x3d0cc1b5	0.03436442
142	0xbdbaa11f	-0.09112763
143	0x3c8e77e7	0.017391158
144	0xbd5a667f	-0.053320404
145	0xbe557a6f	-0.20847486
146	0xba8f55ee	-0.0010935643
147	0xbd914e86	-0.07095055
148	0xbe4c8648	-0.19973099
149	0xbc5477db	-0.012968029
150	0xbd75757f	-0.059926506
151	0xbdcbc7d2	-0.09950222
152	0xbe0911b7	-0.13385664
153	0xbcebf48f	-0.028803138
154	0xbe4ffec3	-0.20312028
155	0xbd171714	-0.036887243
156	0x3c4cf683	0.012509945
157	0x3c0f3273	0.008740055
158	0xbd9a861b	-0.0754511
159	0xbcf084b7	-0.029360158
160	0xbe0fb9e7	-0.1403576
161	0xbd710459	-0.058842037
162	0xbde87932	-0.11351241
163	0xbda1f524	-0.07908085
164	0xbdb1c93b	-0.0868096
165	0xbcabc691	-0.020968707
166	0xbd3720eb	-0.044709127
167	0xbcc156e2	-0.023601
168	0xbdb7b42b	-0.08969911
169	0xbd3ce584	-0.04611732
170	0x3d36b9df	0.044610854
171	0xbd7f9f62	-0.06240786
172	0xbd16ad20	-0.0367862
173	0x3b089971	0.0020843411
174	0x3d9dbacc	0.07701644
175	0xbc0a0571	-0.008424149
176	0xbcc02a60	-0.023457706
177	0x3b2de79b	0.0026535753
178	0xbd94f444	-0.072731525
179	0x3d02df77	0.031951394
180	0xbb49636e	-0.003072943
181	0xbbf25fd3	-0.007396677
182	0xbd104ad6	-0.03522762
183	0x3d3c8b00	0.046031
184	0xbd381800	-0.044944763
185	0x3c833075	0.016014317
186	0xbd790f8b	-0.06080584
187	0x3d2fe812	0.04294593
188	0x3cdcd719	0.026958035
189	0xbd927d5a	-0.07152815
190	0x3d90fdcc	0.07079658
191	0x3dc104c0	0.09424734
192	0xbdc1fcca	-0.09472044
193	0xbdf3c310	-0.119024396
194	0xbcad3b5e	-0.021146473
195	0xbe31c47e	-0.17360112
196	0xbc00ce1f	-0.007861643
197	0x3e8cb8d3	0.2748476
198	0xbd37aca2	-0.04484237
199	0xbd3609fb	-0.044443112
200	0xbce35df5	-0.027754763
201	0x3d29ec0a	0.04148487
202	0x3cf196fa	0.029490937
203	0x3d556224	0.052095547
204	0xbd6901d1	-0.056886498
205	0x391d84ad	0.00015022112
206	0x3dc96559	0.09833784
207	0x3dcfb4ca	0.10141905
208	0xbdae2f48	-0.08505112
209	0xbd560eb6	-0.052260123
210	0xbd919acd	-0.07109604
211	0x3e320cd9	0.17387713
212	0x3deee053	0.1166388
213	0xbd206de2	-0.039167292
214	0xbd8ee58e	-0.06977378
215	0x3d9da32f	0.076971404
216	0x3dd08b54	0.10182825
217	0xbd372d67	-0.044721033
218	0xbcd1f47c	-0.025629275
219	0xbe01cdce	-0.12676165
220	0xbe2a3231	-0.16620709
221	0x3d0f9d4b	0.035062116
222	0x3d818bb1	0.06325472
223	0xbd3cdcef	-0.046109136
224	0x3d58e70f	0.05295473
225	0xbd65bb21	-0.056086663
226	0x3b1218be	0.002229258
227	0xbd1bd82d	-0.03804796
228	0xbb81e3b1	-0.0039639105
229	0x3e1321bb	0.14368336
230	0x3cccc848	0.024997845
231	0x3e004680	0.12526894
232	0x3cc5cbff	0.024145124
233	0x3e025b82	0.1273022
234	0xbdd5f044	-0.10446218
235	0xbe391a91	-0.1807654
236	0xbe194d56	-0.14970908
237	0xbe15e30c	-0.14637393
238	0xbcb86327	-0.022508217
239	0x3e173996	0.14768061
240	0xbd7322af	-0.05935925
241	0xbe772bab	-0.24137752
242	0x3d9d03c5	0.076667346
243	0xbbdcdcab	-0.006740173
244	0xbd797fca	-0.060912885
245	0xbc8e233f	-0.017350791
246	0x3d8be6f8	0.06831163
247	0xbdb59775	-0.08866779
248	0x3d0a8514	0.03381832
249	0x3c8dd78e	0.017314699
250	0xbdc0ad08	-0.09408003
251	0x3dfe78e8	0.12425405
252	0xbd9b4388	-0.0758124
253	0xbce09d13	-0.027418649
254	0x3c8c53ec	0.01712986
255	0xbda3aea1	-0.07992292

bias f4 [64]
0	0x3ca209ee	0.019780125
1	0x3d040273	0.0322289
2	0xbc6ebd9a	-0.014571572
3	0xbdc6d147	-0.09707885
4	0xbd12840e	-0.03577047
5	0xbd3d2993	-0.046182226
6	0xbb0ba62f	-0.002130877
7	0x3d13fdc8	0.036130697
8	0x3df15506	0.11783795
9	0x3e017856	0.12643561
10	0x3dea8029	0.11450226
11	0x3eed7c24	0.46383774
12	0x3b8c7bbf	0.0042872126
13	0xbaed50ef	-0.0018105785
14	0x3b780547	0.0037844942
15	0xbe1aaa09	-0.15103926
16	0xbc0bbf9a	-0.008529568
17	0x3c2994cf	0.01035042
18	0xbd9cc928	-0.07655555
19	0x3df46373	0.11933031
20	0x3dd02ff6	0.10165398
21	0x3c4c0682	0.012452723
22	0x3d2c2727	0.042029526
23	0xbd399438	-0.045307368
24	0x3dc5dc8d	0.09661207
25	0x3d8d7e38	0.0690884
26	0xbb143b41	-0.0022618326
27	0x3d0b86e2	0.03406418
28	0x3e00ab2d	0.12565298
29	0x3c8641a8	0.01638873
30	0xbb99634f	-0.004681028
31	0xbd2179f2	-0.039422937
32	0x3dbd0a96	0.09230535
33	0x3e040e60	0.12896109
34	0xbc24f86d	-0.010068995
35	0xbcdc130a	-0.026864547
36	0x3d13cbd8	0.036083072
37	0x3ca73af5	0.020413855
38	0xbbd55fd5	-0.006511668
39	0xbdb0ae12	-0.08626951
40	0x3d08396f	0.033257898
41	0x3cbc1a4c	0.022961758
42	0x3e5c12ef	0.21491598
43	0x3be3a0ec	0.0069466736
44	0x3d72fdbd	0.059324015
45	0x3dc85b80	0.09783077
46	0xbc13f959	-0.009031617
47	0xbc806486	-0.015672933
48	0x3b55d597	0.003262853
49	0xbb54976c	-0.0032438887
50	0xbc07861d	-0.008271721
51	0xbd31a6c0	-0.043371916
52	0x3deaba8a	0.11461361
53	0xbd7d944c	-0.061909005
54	0x3d2dc44b	0.042423528
55	0x3c9e3de7	0.019316627
56	0x3cdd2476	0.026994925
57	0xbda3031e	-0.07959579
58	0x3b566175	0.0032711898
59	0x3ddc4f26	0.10757284
60	0xbc838091	-0.016052516
61	0xbd447b9e	-0.047969453
62	0xbb7b0cf2	-0.0038307277
63	0xbbff631e	-0.007793798

weight f4 [64, 64, 3, 3]
0	0x3c4dfa75	0.012571921
1	0x3d78c83d	0.060737837
2	0xbd422a69	-0.047403727
3	0xbdcbe258	-0.09955281
4	0xbe200d08	-0.15629971
5	0x3d7c6446	0.061619066
6	0xbcabb030	-0.020958036
7	0xbdec9b3e	-0.115530476
8	0xbba2b604	-0.0049655456
9	0x3b067f44	0.0020522634
10	0xbcfc89b6	-0.030827384
11	0x3b43e75a	0.0029892535
12	0xbbf82e5e	-0.007573887
13	0xbd8edb5f	-0.069754355
14	0xbdc32f09	-0.095304556
15	0x3c9891b6	0.018624168
16	0xbd5795ea	-0.052633204
17	0xbbc70f33	-0.00607481
18	0x3d3d24eb	0.046177786
19	0x3c68c604	0.014207367
20	0x3e03cd65	0.1287132
21	0xbcf5c843	-0.030002719
22	0x3cbe8d4d	0.023260737
23	0xbdbbdb69	-0.091727085
24	0xbd8bf35e	-0.06833528
25	0xbda48e59	-0.08034963
26	0xbcf183d2	-0.029481802
27	0x3d9e97f3	0.07743826
28	0x3acff160	0.0015864782
29	0x3cf074ea	0.029352624
30	0xbc346b43	-0.011011901
31	0xbce17cca	-0.027525324
32	0x3d424894	0.047432497
33	0xbd9d3fa0	-0.07678151
34	0xbccdf1fa	-0.025139797
35	0xbd4b093e	-0.04956936
36	0xbc69254a	-0.014230082
37	0x3cb8ae6f	0.022544114
38	0x3ada1bd5	0.0016640375
39	0xbda8c7ce	-0.08241235
40	0xbda31310	-0.0796262
41	0xbd5cf522	-0.053944714
42	0xbcd841cc	-0.026398562
43	0xbc9d4da0	-0.019202054
44	0xbc879765	-0.016551683
45	0xbdd6d684	-0.10490134
46	0x3dbb7bb1	0.09154452
47	0x3d31362d	0.043264557
48	0x3d38c061	0.04510534
49	0x3c1cd82f	0.009573027
50	0x3d557e18	0.052122205
51	0xbd893428	-0.06699401
52	0xbd145089	-0.036209617
53	0x3d197dd3	0.03747351
54	0xbd9be56d	-0.07612119
55	0x3c5143bb	0.012772496
56	0x3c9e1271	0.019295903
57	0x3c4d4b1b	0.012530114
58	0x3cd365d4	0.025805391
59	0xbc7b08ad	-0.015321893
60	0x3cce15a7	0.025156809
61	0xbd3c2339	-0.04593203
62	0x3c0f7687	0.008756286
63	0x3d9277dd	0.07151768
64	0x3b75a42d	0.003748189
65	0xbc3931cb	-0.0113033755
66	0x3d01f101	0.03172398
67	0xbc54d8e0	-0.01299116
68	0x3d83451c	0.06409666
69	0x3d467cb1	0.04845876
70	0xbd7baf72	-0.061446615
71	0xbe07da04	-0.1326676
72	0xbd83317d	-0.064059235
73	0x3caaa1bc	0.020829074
74	0x3d70937f	0.058734413
75	0x3c58536c	0.013203483
76	0xbd883f0c	-0.0665265
77	0x3d3ef40b	0.046619456
78	0x3c8cf275	0.017205456
79	0xbd382e05	-0.044965763
80	0xbc82c5ef	-0.015963523
81	0xbdfdbc70	-0.12389457
82	0xbd86f097	-0.065888576
83	0xbe06aed8	-0.13152635
84	0x3e0308af	0.12796281
85	0xbd30b78d	-0.043143798
86	0xbce0ecb8	-0.027456626
87	0xbc3c6cd9	-0.011500561
88	0x3d4a97d4	0.0494612
89	0xbd94b81c	-0.072616786
90	0xbd7911d4	-0.060808018
91	0xbe02c6ef	-0.127712
92	0xbd9468af	-0.07246529
93	0x3a846f82	0.0010104033
94	0x3da27642	0.07932712
95	0xbb869891	-0.004107543
96	0xbd0f8743	-0.035041105
97	0xbd87fba2	-0.06639792
98	0xbc9e1111	-0.019295247
99	0x3ca79903	0.020458704
100	0xbdb98833	-0.09059181
101	0x3cdc22da	0.026872087
102	0x3d711386	0.05885651
103	0xbc407518	-0.011746667
104	0xbcef87b5	-0.029239515
105	0xbd0d2582	-0.0344596
106	0x3d145299	0.036211584
107	0xbd865a86	-0.06560235
108	0xbdb6687a	-0.08906646
109	0xbcc04b3a	-0.02347337
110	0xbd80bee2	-0.06286408
111	0xbe073364	-0.13203198
112	0xbdc857f6	-0.09782402
113	0xbd6adcee	-0.0573396
114	0xbd25fd12	-0.04052455
115	0xbe04fbb3	-0.1298664
116	0xbdcedab7	-0.1010031
117	0xbd151c14	-0.03640373
118	0x3d82c962	0.06386067
119	0x3d9b0793	0.07569804
120	0xbd80420a	-0.06262596
121	0xbdd13363	-0.10214879
122	0xbce337ef	-0.027736632
123	0x3d02fac0	0.031977415
124	0x3b1dbc97	0.0024068707
125	0xbd008bcd	-0.031383324
126	0x3cbbace6	0.022909593
127	0xbd4395ad	-0.047750164
128	0xbc862626	-0.016375612
129	0xbe1031d7	-0.14081512
130	0x3cc738b6	0.024319034
131	0x3c147d2f	0.009063049
132	0xbdb8748e	-0.09006606
133	0x3c997269	0.018731313
134	0x3daa77e8	0.083236516
135	0xbc8f8381	-0.01751876
136	0xbdc4bd45	-0.09606413
137	0xbd3eeb97	-0.046611395
138	0x3ca16646	0.019702088
139	0xbd6122b0	-0.05496472
140	0xbc90612a	-0.017624456
141	0xbd0e1c95	-0.034695227
142	0xbdb784fe	-0.08960913
143	0x3d905197	0.07046812
144	0x3d14c5b7	0.036321368
145	0xbdcfa5aa	-0.1013902
146	0xbca36f1d	-0.019950444
147	0xbd3fbb46	-0.046809457
148	0xbc9ec87a	-0.019382704
149	0xbd95b6ff	-0.07310294
150	0xbcdea549	-0.027178423
151	0xbc071b97	-0.008246324
152	0x3c44b73b	0.012006576
153	0xbba7953d	-0.005114226
154	0xbb174ad5	-0.0023085375
155	0x3d9d1cfd	0.07671545
156	0x3cf79316	0.030221503
157	0xbc8510d6	-0.01624338
158	0xbd34eaf6	-0.04416939
159	0x3dba8e25	0.09109143
160	0x3c7452ba	0.014912302
161	0xbd372ab0	-0.044718444
162	0x3a8bb682	0.001065925
163	0x3b47bf54	0.003047903
164	0xbe0cb96d	-0.1374261
165	0xb957b84c	-0.00020572654
166	0xbc8bc248	-0.017060414
167	0xbdaa2c42	-0.08309223
168	0x3d78af9f	0.06071436
169	0xbb415593	-0.002950047
170	0xbaa67c7b	-0.0012701893
171	0x3d8d89d7	0.069110565
172	0x3c5f0f64	0.013614509
173	0x3c2349a8	0.0099662915
174	0x3d75e0c3	0.060028803
175	0x3dce3503	0.10068705
176	0x3c00c33a	0.007859046
177	0x3d08fe35	0.033445556
178	0xbdfab9dd	-0.12242482
179	0xbc7348f7	-0.014848939
180	0x3c58673d	0.013208208
181	0x3d3d37e9	0.0461959
182	0xbd9c5a2e	-0.07634388
183	0x3d299fdc	0.04141222
184	0xbe1a0f94	-0.15045005
185	0xbbe5c3d4	-0.00701187
186	0x3d91face	0.07127915
187	0xbcd2a6bf	-0.025714276
188	0xbdc3495b	-0.09535476
189	0x3c277779	0.010221356
190	0xbba9f729	-0.0051869345
191	0xbd8132b2	-0.063084975
192	0xbc29b094	-0.010357041
193	0x3caaf802	0.020870212
194	0xbc85d103	-0.016335016
195	0x3dbadcab	0.0912412
196	0xbda0b886	-0.07847695
197	0xbcbad573	-0.022806859
198	0x3d752384	0.059848323
199	0x3bd9922c	0.0066397395
200	0xbcf84685	-0.030307064
201	0x3cf315e9	0.029673534
202	0x3b2fcbd2	0.0026824367
203	0xbb56cda2	-0.0032776375
204	0xbcbace6c	-0.022803508
205	0xbcbdd809	-0.023174303
206	0x3cb8de6e	0.022567
207	0xbd810160	-0.062990904
208	0x3da08926	0.07838659
209	0x3dbe74c3	0.09299614
210	0xbd035738	-0.0320656
211	0xbca932d2	-0.020654116
212	0x3cf96471	0.030443402
213	0xbd8204ab	-0.063485466
214	0xbd876a92	-0.066121235
215	0xbcedbd96	-0.029021066
216	0xbd87ef78	-0.06637472
217	0xbdd3b4ef	-0.10337245
218	0x3af83867	0.0018937708
219	0xbc4f834d	-0.012665582
220	0xbd82c535	-0.063852705
221	0xbdff3ac6	-0.12462382
222	0xbd4a58fa	-0.04940126
223	0xbcfa194d	-0.030529642
224	0xbd65ca61	-0.056101207
225	0xbdb62946	-0.08894591
226	0x3d8b4632	0.06800498
227	0xbd5353c3	-0.051593553
228	0x3c2a1c01	0.010382653
229	0x3ced45bc	0.028963916
230	0xbd9afdb2	-0.0756792
231	0xbca87951	-0.02056566
232	0xbcd4e84e	-0.025989678
233	0xbd41050d	-0.047123957
234	0xbd1122b9	-0.035433505
235	0xbd677179	-0.0565047
236	0xbd8c85c6	-0.06861453
237	0xbc84145d	-0.016122991
238	0xbdce7ecd	-0.10082779
239	0xbdc9e7c6	-0.098586604
240	0xbd60dc69	-0.0548977
241	0xbda79825	-0.08183316
242	0xbd80071e	-0.062513575
243	0xbd60db28	-0.054896504
244	0xbdf4362b	-0.11924394
245	0xbd4ca25f	-0.049959537
246	0xbdb985d9	-0.090587325
247	0xbe60bd7a	-0.2194728
248	0xbdd2d962	-0.10295369
249	0x3d16c977	0.036813226
250	0xbe08cf20	-0.13360262
251	0xbe27ea8c	-0.16398066
252	0xbd0354b3	-0.032063197
253	0xbc5452b2	-0.012959169
254	0xbe4f18e1	-0.20224334
255	0xbd8f5375	-0.0699834

bias f4 [64]
0	0xbcc9e0dd	-0.024643356
1	0x3e352c05	0.17692573
2	0xbce08c83	-0.027410751
3	0xbcf983f2	-0.030458424
4	0x3db91d87	0.09038835
5	0x3b97dd07	0.004634503
6	0xbc844343	-0.016145354
7	0xbe823569	-0.25431374
8	0x3a2df333	0.0006635666
9	0xbcc7cd55	-0.024389902
10	0x3d9628d3	0.07332005
11	0x3d7a231e	0.061068647
12	0xbd4a33b1	-0.049365703
13	0xbd6c418d	-0.0576797
14	0x3cea73be	0.028619643
15	0xbddd8360	-0.108160734
16	0xbcfe207d	-0.031021351
17	0x3dc10aa6	0.09425859
18	0x3e11e92c	0.14249104
19	0x3e83c9c1	0.25739864
20	0x3dadcd74	0.08486453
21	0xbd6a8fc5	-0.057266016
22	0x3d28cc26	0.041210316
23	0x3c2aea61	0.010431857
24	0xbcbb4110	-0.022858173
25	0x3dd53639	0.10410733
26	0x3ca6d381	0.020364525
27	0x3b7c2e89	0.0038479886
28	0xbd7e2b88	-0.062053233
29	0x3c48dbc5	0.012259428
30	0xbd35c5d4	-0.044378117
31	0x3c95676a	0.018237788
32	0x3d6a1c4d	0.057155896
33	0xbd92d156	-0.07168834
34	0xbcb1954b	-0.021677634
35	0x3ab72fa0	0.0013975985
36	0xbc256a7f	-0.010096191
37	0x3dba7137	0.09103625
38	0xbd125084	-0.035721317
39	0xbbf450a1	-0.007455901
40	0xbd84e209	-0.06488425
41	0xbcdad029	-0.026710587
42	0x3e687249	0.22699846
43	0x3d7f848b	0.062382262
44	0xbc94ba7a	-0.018155325
45	0xbd62e446	-0.05539348
46	0xbd4d6b20	-0.05015099
47	0x3d9c0f6c	0.07620129
48	0xbcd63e55	-0.02615277
49	0xbc9fe5be	-0.01951873
50	0x3ce0e3a7	0.027452303
51	0xbd62076c	-0.05518286
52	0xbe26ffe6	-0.16308555
53	0x3ecd3ebc	0.40086925
54	0x3c8b4b59	0.017003702
55	0xbd008201	-0.03137398
56	0x3d679a66	0.05654373
57	0xbd6ae11e	-0.057343595
58	0xbd4838c1	-0.04888225
59	0xbe2f1ef5	-0.17101653
60	0xbd3a791b	-0.04552565
61	0x3d911437	0.07083934
62	0xbdad0e28	-0.08449966
63	0x3e1a99b8	0.15097702

weight f4 [64, 64, 3, 3]
0	0xbcc184d7	-0.023622913
1	0x3c09a03d	0.00840002
2	0xbd5d5a65	-0.054041285
3	0x3d6e4973	0.058175515
4	0xbdb81aa3	-0.089894556
5	0xbd82109e	-0.06350826
6	0xbdec1a5b	-0.115284644
7	0x3cb5ad1a	0.022177268
8	0x3cc74996	0.02432708
9	0x3d7307ec	0.059333727
10	0xbc94db82	-0.018171076
11	0x3d42ff00	0.04760647
12	0x3c2a8611	0.0104079405
13	0xbc3f9850	-0.011694029
14	0xbd353eb2	-0.044249244
15	0xbc3d2889	-0.011545309
16	0x3d34bac5	0.04412343
17	0xbdb1fb85	-0.08690552
18	0xbde05302	-0.109533325
19	0x3c427db7	0.011870793
20	0x3daad6a9	0.083417244
21	0xbcb8b087	-0.022545112
22	0xbb9f8ef3	-0.004869336
23	0xb9828db5	-0.00024901112
24	0xbcd69e9b	-0.026198676
25	0x3ca2c250	0.019868046
26	0xbd8450b0	-0.064607024
27	0x3c187b32	0.009306716
28	0xbd4072ec	-0.046984598
29	0x3c922984	0.017842062
30	0xbd6f4030	-0.058410823
31	0xbc9ab4a7	-0.01888497
32	0x3d63ad93	0.055585455
33	0x3d76a7b7	0.06021854
34	0xbd8159fe	-0.06315993
35	0xbd15ac2c	-0.03654115
36	0x3c3fd92e	0.0117094945
37	0x3c1ab2db	0.0094420565
38	0x3d007680	0.03136301
39	0xbbacf2aa	-0.0052779512
40	0x3ce3f9b9	0.027829038
41	0xbc68905c	-0.014194574
42	0x3cb88f62	0.022529308
43	0x3d0b096e	0.03394454
44	0x3c05ab5c	0.008158531
45	0x3cdaf7fb	0.026729574
46	0x3c76094f	0.015016868
47	0xbd3e463f	-0.04645371
48	0xbb967b7b	-0.0045923567
49	0x3acb745d	0.001552235
50	0xbb7b88dc	-0.0038381135
51	0xbd832014	-0.06402603
52	0xbd23f46b	-0.040028017
53	0xbdbfc4a1	-0.09363676
54	0xbce81c82	-0.028333906
55	0x3cffeee1	0.031241836
56	0xbce46f77	-0.027885182
57	0xbddbe8ca	-0.1073776
58	0xbd836a69	-0.064167805
59	0x3dc02a59	0.09383077
60	0x3d8898f3	0.06669798
61	0xbba39f3e	-0.0049933484
62	0xbd02bc06	-0.031917594
63	0x3cef06b1	0.029177995
64	0xbdae71e1	-0.085178144
65	0x3d6fffa4	0.058593407
66	0x3d2914de	0.041279666
67	0x3ca0409d	0.01956206
68	0xbc791f3f	-0.015205204
69	0xbc6b52a4	-0.014362965
70	0x3c824e03	0.01590634
71	0xbd517ec9	-0.051146302
72	0xbca16bd2	-0.019704733
73	0xbde14e5e	-0.110012755
74	0xbe218aef	-0.15775655
75	0xbde68147	-0.112551264
76	0xbd047e83	-0.032347213
77	0xbdccab3e	-0.09993599
78	0xbcec8487	-0.028871788
79	0x3bb63b28	0.005561251
80	0x3a7a6804	0.00095522427
81	0x3d5894ed	0.0528764
82	0x3d14e847	0.03635433
83	0xbcd5dac6	-0.026105296
84	0xbcbae099	-0.022812175
85	0xbcc15fc3	-0.023605233
86	0xbc7de067	-0.015495396
87	0xbdaff58e	-0.08591758
88	0x3d281aed	0.041041303
89	0xbd90b96a	-0.07066615
90	0x3d12de9f	0.03585684
91	0xbcb1ceae	-0.021704998
92	0xbd974feb	-0.0738829
93	0x3d0a46fc	0.033759102
94	0xbe23033c	-0.15919203
95	0xbdb4e859	-0.08833379
96	0xbd913a9d	-0.07091258
97	0x3c9642ba	0.018342365
98	0x3b9ca653	0.0047805696
99	0x3be09815	0.006854067
100	0xba34f7bd	-0.0006903371
101	0xbddc60a9	-0.10760624
102	0xbcec72ec	-0.028863393
103	0x3aad6f02	0.0013231935
104	0xbd72ca67	-0.059275057
105	0xbb820de6	-0.003968942
106	0x3c9ae26c	0.018906794
107	0xbc8788b4	-0.016544677
108	0xbd481228	-0.04884544
109	0xbbb25f78	-0.0054435097
110	0x3d90ef80	0.07076931
111	0xbd7eac7c	-0.062176213
112	0xbdad70f0	-0.08468807
113	0xbd5cfc26	-0.053951405
114	0x3c256351	0.01009448
115	0xbcac0770	-0.02099964
116	0xbc601806	-0.013677603
117	0x3c0e06f8	0.008668654
118	0x3d8a2633	0.06745567
119	0xbca5e617	-0.020251317
120	0xbd243a35	-0.040094573
121	0x3d54557e	0.051839344
122	0xbd01b4b1	-0.03166646
123	0x3c8cfc9f	0.017210303
124	0xbc898234	-0.016785719
125	0xbd2981ca	-0.041383542
126	0xbdcbf143	-0.099581264
127	0xbc3c7477	-0.011502377
128	0x3d9edffc	0.077575654
129	0x3d81119c	0.06302187
130	0xbdae8d9e	-0.08523105
131	0x3d2b071b	0.041754823
132	0xbd657386	-0.056018375
133	0xbd2b4a67	-0.041819002
134	0xbd4f3a32	-0.05059261
135	0xbd1174af	-0.03551167
136	0x3d26f55f	0.040761348
137	0x3d8fcf69	0.07021982
138	0xbc33dd68	-0.01097808
139	0x3be8a528	0.0070997663
140	0xbcc63e21	-0.024199547
141	0xbda5321e	-0.080662
142	0x3e05c446	0.13063154
143	0xbe051e36	-0.12999806
144	0x3d56661d	0.052343477
145	0xbdb80e7a	-0.08987136
146	0x3d8687e9	0.065688916
147	0x3ce0cba4	0.027440853
148	0xbd454f83	-0.04817153
149	0xbc8e68cf	-0.017383961
150	0xbd25ef04	-0.040511146
151	0xbcbdbe25	-0.023161957
152	0xbcd20a56	-0.025639694
153	0xbd02f531	-0.031972114
154	0xbdb1bcaf	-0.08678567
155	0xbd9ca2ae	-0.07648216
156	0xbdf54d70	-0.11977661
157	0xbda1834a	-0.078863695
158	0x3ca5fcb1	0.020262094
159	0x3d799644	0.06093432
160	0x3dc9ed40	0.09859705
161	0x3c0d9364	0.008641098
162	0xbcb02c39	-0.021505462
163	0x3d29cec4	0.041456953
164	0xbd8b2bdb	-0.06795474
165	0x3dcbfcc9	0.09960324
166	0x3c911028	0.0177079
167	0x3d215acf	0.039393242
168	0x3dfa33e3	0.12216928
169	0xbb8fa5d5	-0.0043837824
170	0x3d845e6e	0.064633235
171	0xbcb0b3fb	-0.021570196
172	0x3d68a9b6	0.056802474
173	0xbe2ece16	-0.17070803
174	0xbd071d4a	-0.032986917
175	0xbdacef28	-0.08444053
176	0x3c8fb2f7	0.017541392
177	0x3dbc48c2	0.09193565
178	0xbc2bab9a	-0.010477925
179	0x3ce206d1	0.027591141
180	0xbcd36d6b	-0.02580901
181	0xbc531827	-0.012884176
182	0xbc43df94	-0.011955161
183	0xbcfac773	-0.030612683
184	0x3c4c586d	0.012472254
185	0xbd33352f	-0.04375189
186	0x3dcb569c	0.09928629
187	0xbd26ee56	-0.04075464
188	0x3cf1cbea	0.02951618
189	0x3d559aa6	0.052149437
190	0xbc7e6b24	-0.015528474
191	0xbd2139e2	-0.039361842
192	0xbd2f04e4	-0.042729273
193	0x3c693bf4	0.014235485
194	0x3dc3e449	0.09565026
195	0xbd75a84f	-0.059974965
196	0x3d88ebbd	0.066855885
197	0x3e07c74c	0.1325962
198	0x3ce8aa33	0.02840147
199	0x3c3cba70	0.01151906
200	0x3d0252ca	0.031817235
201	0xbd123a3b	-0.035700064
202	0xbd03732c	-0.03209226
203	0xbd734015	-0.059387285
204	0x3d97bea0	0.07409406
205	0x3d2586c3	0.040411722
206	0x3cda0597	0.026613994
207	0xbdd7939b	-0.105262004
208	0x3d3e83d2	0.046512432
209	0xbe1392a7	-0.14411412
210	0x3e11fb2a	0.14255968
211	0xbc901a55	-0.017590681
212	0xbca1514f	-0.019692091
213	0x3dba6d30	0.09102857
214	0x3e1448ca	0.14480892
215	0x3d22e016	0.039764486
216	0x3c76e203	0.015068534
217	0x3b79d11b	0.0038119021
218	0xbd85ae77	-0.06527417
219	0x3d4cd87f	0.050011154
220	0xbd5b17fb	-0.053489666
221	0xbd24b20c	-0.04020886
222	0x3d11f08d	0.035629798
223	0x3d204f22	0.039137967
224	0xbdaa257b	-0.0830793
225	0xbd1b5f1a	-0.037932493
226	0xbdcd3c4c	-0.10021266
227	0x3d87761d	0.06614325
228	0x3c17f288	0.009274133
229	0xbcba0d56	-0.022711437
230	0xbc21fbab	-0.0098866625
231	0x3d9e6565	0.07734183
232	0x3d94d273	0.072667025
233	0xbd33682c	-0.043800518
234	0xbd0b48be	-0.03400492
235	0x3cd1f960	0.025631607
236	0xbd3adb7f	-0.045619484
237	0xbd1a006f	-0.03759807
238	0xbd08aee6	-0.03336992
239	0x3ba6bf44	0.0050887186
240	0x3cb2bf23	0.021819657
241	0xbd60689d	-0.054787267
242	0x3d8e0b1c	0.06935713
243	0xbccb0af9	-0.024785506
244	0x3cec0358	0.028810188
245	0xbc63d278	-0.01390516
246	0xbcc5efa2	-0.024162117
247	0xbbd35e3c	-0.0064504426
248	0xbd56def2	-0.05245871
249	0x3d5fa31b	0.05459891
250	0xbe27964d	-0.16365929
251	0xbd93be02	-0.072139755
252	0x3d31560d	0.043294955
253	0xbd513240	-0.051073313
254	0xbd1f1435	-0.03883763
255	0xbdb24dc2	-0.087062374

bias f4 [64]
0	0xbd2d218e	-0.04226833
1	0xbd9938e3	-0.074815534
2	0xbd8ed7f0	-0.069747806
3	0xbe3587bd	-0.17727561
4	0xbd77b8cc	-0.06047897
5	0xbd522a2e	-0.051309757
6	0x3b48d09e	0.0030641924
7	0x3b2368e9	0.0024934357
8	0xbd9d83d9	-0.076911636
9	0xbc7725c4	-0.015084688
10	0x3b924321	0.004463569
11	0x3e9ef302	0.31044775
12	0xbd17b438	-0.037037104
13	0x3bfcd46e	0.0077157533
14	0x3bfe94bc	0.0077691954
15	0x3c2c76f0	0.010526404
16	0xbd742d09	-0.05961326
17	0x3a8f1d11	0.0010918697
18	0x3c5aded4	0.01335879
19	0xbd8e4e4b	-0.06948527
20	0x3c9db5ac	0.019251667
21	0x3ce20487	0.02759005
22	0x3d3d5757	0.046225872
23	0xbd760456	-0.06006273
24	0xbc34d9e4	-0.011038277
25	0xbc6ebcca	-0.014571378
26	0xbd9bed78	-0.07613653
27	0xbd57019f	-0.05249178
28	0xbd4d7b2c	-0.050166294
29	0x3c1622b2	0.009163545
30	0xbd5fce02	-0.054639824
31	0x3d9e0899	0.077164836
32	0x3d8057d7	0.06266754
33	0xbcc951fa	-0.024575222
34	0xbd4a28ec	-0.049355432
35	0xbd398e60	-0.045301795
36	0xbd6d810e	-0.057984404
37	0xbab3aa33	-0.001370734
38	0x3df28215	0.118412174
39	0xbc8a6c09	-0.016897218
40	0xbb48bc6a	-0.0030629882
41	0x3d1c05ec	0.038091585
42	0xbb353689	-0.0027650914
43	0x3d27b85e	0.04094731
44	0xbc0c3855	-0.0085583525
45	0x3cf6a32e	0.030107107
46	0xbd6d2226	-0.057893895
47	0xbc8da040	-0.017288327
48	0xbdabbea4	-0.08385971
49	0x3de65ae7	0.11247807
50	0xbd8a0c7d	-0.06740663
51	0xbc020302	-0.007935287
52	0xbd547bef	-0.051876005
53	0xbd8865fe	-0.066600785
54	0xbe7adabd	-0.24497505
55	0xbc7a5d9f	-0.01528111
56	0x3d0e48cc	0.034737393
57	0xbc4505e0	-0.0120253265
58	0xbd42a735	-0.047522742
59	0xbd8ebf58	-0.0697009
60	0xbd4d2cd3	-0.050091576
61	0xbce53a4e	-0.027981903
62	0xbd270334	-0.04077454
63	0xbc1b9443	-0.009495798

weight f4 [12, 64, 3, 3]
0	0x3df22c86	0.118248984
1	0xbcfa3267	-0.030541612
2	0xbd170814	-0.03687294
3	0x3c2eca80	0.010668397
4	0x3de5a27b	0.11212631
5	0x3d81f2c5	0.06345133
6	0x3bd59daf	0.0065190415
7	0x3d080372	0.03320641
8	0x3d10d5b3	0.03536005
9	0xbc43dcf4	-0.011954535
10	0xbcd1b155	-0.025597254
11	0x3bb57ac5	0.005538317
12	0xbb4f8520	-0.0031665042
13	0xbd776b27	-0.060404923
14	0xbbe527f2	-0.0069932872
15	0xbaa3150f	-0.0012442189
16	0x3ce6ce2c	0.028174482
17	0x3bb90fbc	0.0056476276
18	0x3c565454	0.013081629
19	0x3d8449e1	0.06459404
20	0xbcf00da3	-0.029303377
21	0x3c7a6ca5	0.015284692
22	0x3d3768b3	0.044777583
23	0x3bc875f5	0.006117577
24	0x3adc902c	0.0016827635
25	0x3d1b2ed6	0.037886463
26	0x3c10a7e6	0.008829093
27	0xbced92d4	-0.029000677
28	0x3ddfb788	0.10923678
29	0xbbb2ab49	-0.0054525477
30	0xbc4be8c8	-0.012445636
31	0xbda1146a	-0.07865222
32	0x3a7336d1	0.00092778826
33	0x3b82a17a	0.0039865347
34	0x3ca5a97e	0.020222422
35	0xbbc5b0fc	-0.006033061
36	0x3d05ffcd	0.032714654
37	0x3d6ce80f	0.057838496
38	0xbc70d531	-0.014699266
39	0x3d215f5d	0.039397586
40	0x3cedebde	0.029043134
41	0xbd3ab6b1	-0.045584384
42	0xbb7d8546	-0.0038684173
43	0xbc4c2525	-0.012460028
44	0xbc1994fd	-0.0093739005
45	0x39bdd254	0.00036205596
46	0xbc6e93e2	-0.014561625
47	0x3ca1ee65	0.019766996
48	0xbb845193	-0.0040380447
49	0x3dd79e8e	0.10528289
50	0xbc740ad7	-0.014895163
51	0x3c020c85	0.007937555
52	0xbbe6b968	-0.007041145
53	0xbc847afb	-0.016171923
54	0xbdf73efa	-0.12072559
55	0xbe1899a1	-0.14902355
56	0x3e5c7c9b	0.21531908
57	0xbd2d7dd5	-0.04235633
58	0xbebd212a	-0.36939365
59	0x3e84eeea	0.25963527
60	0xbd8bdec4	-0.068295985
61	0xbd568474	-0.05237241
62	0x3d5528d2	0.052040882
63	0x3c77d36f	0.015126093
64	0x3d4776da	0.04869733
65	0xbc2896cf	-0.010289862
66	0xbbfd6464	-0.0077329148
67	0xbcac8929	-0.021061497
68	0xbcc84fb7	-0.024452073
69	0xbca37003	-0.019950872
70	0xbcccee95	-0.025016109
71	0xbc8cf149	-0.017204897
72	0xbd6a8bcf	-0.057262238
73	0x3c100b81	0.008791805
74	0xbacfa53b	-0.0015842089
75	0x3d08bfac	0.033385918
76	0xbb6a5619	-0.0035756885
77	0xbd4f68c0	-0.050637007
78	0x3dee3530	0.116312385
79	0xbd07d8f4	-0.033165887
80	0x3ae9d28c	0.0017839237
81	0x3d347324	0.04405512
82	0xbdb84ba0	-0.08998799
83	0xbca1b2be	-0.019738551
84	0xbd4e0fa6	-0.050307892
85	0x3d88ee8f	0.066861264
86	0xbd2a3375	-0.04155298
87	0x3c673902	0.014112713
88	0xba83cb52	-0.0010055101
89	0x3d3a5609	0.045492206
90	0x3dab5a3d	0.08366821
91	0x3d829366	0.0637577
92	0xbd78f10e	-0.060776763
93	0xbbfdacc7	-0.007741544
94	0xbbabdebe	-0.005245059
95	0xbd36de21	-0.044645432
96	0xbc679245	-0.0141339945
97	0xbd114be0	-0.03547275
98	0xbd1b720d	-0.037950564
99	0x3b2b19c8	0.0026107896
100	0x3b0996d6	0.0020994446
101	0xbb4f2dff	-0.003161311
102	0xbce9352f	-0.028467743
103	0x3cc909dc	0.024540834
104	0x3cc270ca	0.023735423
105	0xbb5cd29b	-0.0033694867
106	0x3ace0c9d	0.0015720312
107	0x39f06339	0.00045850294
108	0xbae86d12	-0.0017732701
109	0xbd24dadc	-0.040247783
110	0xbd1a5cf7	-0.037686314
111	0x3cee872c	0.02911719
112	0x3c47bb54	0.012190659
113	0x3cca5054	0.024696507
114	0x3bc1b5f8	0.005911585
115	0x3d3bce61	0.045851115
116	0xbd2bf826	-0.0419847
117	0x3d11d4d9	0.035603378
118	0xbc2bf38a	-0.010495076
119	0xbcaf9897	-0.021435065
120	0x3d8a26e3	0.06745698
121	0x3defb531	0.117044814
122	0xbbc5372f	-0.0060185413
123	0xbc3a4e48	-0.011371203
124	0xbceecb21	-0.029149594
125	0xbdc0e2ff	-0.09418296
126	0xbd737f4a	-0.059447564
127	0x3d04e72c	0.032447025
128	0x3d5a0510	0.053227484
129	0xbd87e53c	-0.0663552
130	0xbc8a3679	-0.016871678
131	0x3d92fb6d	0.07176862
132	0xbd0ea003	-0.034820568
133	0x3c356830	0.0110722035
134	0x3d0360aa	0.032074608
135	0xbc6be96d	-0.014398915
136	0xbcc36a46	-0.023854386
137	0xbcb46b8b	-0.022023937
138	0x3d63e74b	0.0556405
139	0x3ce52468	0.027971461
140	0xbd12c4b3	-0.03583212
141	0xbc94f552	-0.018183384
142	0xb7558b2e	-1.2728195e-05
143	0x3b2f3182	0.002673239
144	0xbc77e81a	-0.015131021
145	0x3c4c3017	0.012462637
146	0x3d28257e	0.04105138
147	0xbc4edcae	-0.012625856
148	0x3d6f35d4	0.058400944
149	0xbcc5f6bb	-0.024165502
150	0xbc1e31e5	-0.0096554505
151	0xbd50d183	-0.050981056
152	0x3bb3f44d	0.0054917694
153	0x3cb5acef	0.022177188
154	0x3d48b8ea	0.049004473
155	0x3bf93a7c	0.007605849
156	0x3b01773a	0.0019754902
157	0xbc74cdf9	-0.014941686
158	0x3c098413	0.008393305
159	0xbc20f30b	-0.009823571
160	0x3c78797d	0.015165684
161	0x3d3acf99	0.045608137
162	0x3a61875e	0.000860324
163	0x3d0538e1	0.032524947
164	0x3cbd6171	0.023117753
165	0x3bffcd84	0.007806482
166	0x3ce83be9	0.02834888
167	0xbc615ba2	-0.013754757
168	0xbd362b8e	-0.04447513
169	0x3c778f84	0.0151099
170	0xbc7fedbd	-0.015620646
171	0xbc9413dd	-0.018075878
172	0x3b47882c	0.0030446155
173	0x3bd2583e	0.0064192107
174	0x3d5be793	0.053687643
175	0xbd542df6	-0.051801644
176	0x3c888002	0.016662601
177	0x3b1311bb	0.0022440988
178	0xbb9d21ac	-0.0047952738
179	0xbb4968b0	-0.0030732565
180	0xbcd236d8	-0.025660917
181	0x3d65b88d	0.056084204
182	0xba913f7a	-0.001108154
183	0xbd3daa8f	-0.046305235
184	0xbd57dbd2	-0.05269987
185	0xbb3e2940	-0.0029016286
186	0xbc16f12e	-0.009212775
187	0x3cd2e812	0.025745425
188	0x3cdf1667	0.027232362
189	0x3cd80b90	0.0263727
190	0x3d0d6a9f	0.03452551
191	0xbc8e9463	-0.01740474
192	0x3d30df3f	0.043181654
193	0xbd90d7a0	-0.07072377
194	0xbd0ac891	-0.03388268
195	0x3b0a35d2	0.0021089208
196	0xbc9633ca	-0.018335242
197	0x3c461156	0.012089094
198	0x3ce2eefb	0.027701845
199	0x3dd722bf	0.10504674
200	0x3d5f9d06	0.05459311
201	0xbd0364d1	-0.032078568
202	0x3e7683f2	0.2407377
203	0xbe309bb7	-0.172469
204	0xbd4d39c3	-0.050103914
205	0x3e1c1d87	0.15245639
206	0xbe00d08b	-0.12579553
207	0xbd993b27	-0.074819855
208	0x3d5a9f0d	0.05337434
209	0xbc71f808	-0.014768608
210	0x3cfa1aeb	0.030530414
211	0x3d400dd1	0.046888176
212	0x3ce5d585	0.028055916
213	0xbce81ffe	-0.028335568
214	0xbd559915	-0.052147944
215	0x3d288804	0.04114534
216	0x3d425a9e	0.0474497
217	0x3cc6d447	0.024271144
218	0xbd2bfa8a	-0.04198698
219	0x3dc2cb3e	0.095114216
220	0x3d1c736c	0.038196012
221	0xbdeea894	-0.116532475
222	0xbd120e16	-0.035657965
223	0x3bfa1b0a	0.007632618
224	0xbd5eb7f9	-0.05437467
225	0x3d3d0e36	0.04615613
226	0xbd29eb07	-0.041483905
227	0xbd1639c9	-0.036676202
228	0x3d3810ed	0.044938017
229	0xbc7c2a4b	-0.015390943
230	0x3de7ed01	0.11324502
231	0x3cb041b8	0.021515712
232	0xbd992dc1	-0.0747943
233	0xbc2390d7	-0.009983263
234	0xbc8bc969	-0.017063813
235	0x3d307064	0.043075934
236	0x3c4c1bf6	0.012457838
237	0x3ca1b11d	0.019737775
238	0x3d0224f7	0.031773534
239	0xbd4c2549	-0.049840245
240	0xbc729247	-0.014805383
241	0xbd750736	-0.05982133
242	0x3c49d1f0	0.012318119
243	0xbd9ad2d2	-0.07559742
244	0x3d2ef88c	0.0427175
245	0xbcf48499	-0.029848384
246	0xbcd3f8f3	-0.025875544
247	0x3e23af24	0.1598478
248	0xbbbb3b2b	-0.0057138405
249	0xbd1e0e58	-0.038587898
250	0xbb8928e3	-0.0041857823
251	0xbd2db09b	-0.042404752
252	0x3cfb6c9c	0.030691437
253	0x3ccc3ceb	0.024931392
254	0x3d13fefc	0.036131844
255	0xbb045d2a	-0.0020197132

bias f4 [12]
0	0xbb016c98	-0.0019748565
1	0xba98a274	-0.0011645094
2	0x3c58d385	0.013234024
3	0xbb9c46a3	-0.0047691627
4	0xbbcea1d8	-0.0063059144
5	0xbc1f1e8a	-0.009711871
6	0x3c8828d9	0.01662104
7	0x3c01c788	0.007921107
8	0x3b875bad	0.0041308017
9	0x3bbaa123	0.0056954785
10	0x3b765ec2	0.00375931
11	0x3b65923e	0.0035029794
