train_weight_sr4/model_epoch_5.pth (torch_old, 667646 bytes, 10 tensors)

weight f4 [12, 3, 13, 13]
000000 f6 5d 29 3c 4d 84 28 be 5b 13 60 3c 98 b8 58 bc
       0.010337343 -0.16456719 0.01367649 -0.013227604
000010 ef 6f 6d bd b8 55 a7 bd 26 e6 da 3c d5 80 c3 3c
       -0.057968076 -0.081706464 0.026721071 0.023865143
000020 58 c5 40 be f4 c8 77 3d d6 97 9e bd 08 48 9b bd
       -0.1882528 0.06049438 -0.07743804 -0.07582098
000030 f1 57 61 bd ba 41 7b 3c 2a f5 17 be 05 46 63 bd
       -0.055015508 0.015335495 -0.14839616 -0.055486698
000040 fc c0 59 bd 37 52 a9 3d c0 85 06 3c 9d 0f e5 3b
       -0.05316256 0.08267634 0.008210599 0.0069903866
000050 7f 3b e3 bd 04 bf ad bd 22 7e b7 bd c9 cb 33 bd
       -0.11095332 -0.08483699 -0.08959605 -0.043895517
000060 7f 32 52 bd 3a df b4 bc f7 ec 71 bd d6 46 f1 bd
       -0.051317688 -0.022079099 -0.059063878 -0.11781089
000070 3b 9f 86 3d ee 2f 52 3d b8 0a 3d bc 45 63 7a bd
       0.065733396 0.05131524 -0.0115382 -0.061129827
000080 3e 09 2f 3d 1b ce 27 bd 20 58 39 bd 80 01 45 3d
       0.042733423 -0.040968042 -0.04525006 0.048097134
000090 5a 7d e1 3b 71 be 96 bd 31 de bd 3c aa 6e 9d 3c
       0.006881398 -0.073605426 0.023177238 0.019217808
0000a0 ed ac 16 be f9 af c0 bd b3 74 f1 ba a2 f6 34 3d
       -0.14714403 -0.09408564 -0.001842162 0.04418052
0000b0 73 c2 8e 3d 9b 5f 51 bd dc c7 08 be 88 99 34 bd
       0.06970682 -0.051116567 -0.1335749 -0.04409173
0000c0 54 2a 98 bd 7a a3 31 3d 8b 2f a8 3c 1e a6 7d bd
       -0.074299484 0.043368794 0.020530483 -0.061926
0000d0 5b b7 01 be 7f 4d d1 bc b7 1a 4c be 50 f7 71 be
       -0.12667601 -0.025549648 -0.19932066 -0.23629498
0000e0 5b 95 84 be ba 2e 5a bd 68 ed 00 be f8 44 13 bd
       -0.258952 -0.05326722 -0.12590563 -0.035954446
0000f0 8b ef 7f bb 13 96 c4 3c 9c 22 17 bb 78 80 0e bd
       -0.003905269 0.023997342 -0.00230614 -0.034790486
000100 e8 ac c5 3d 74 8c 56 3d f7 9c 98 3d 2b 4e f4 3d
       0.0965212 0.05238004 0.07451814 0.11928972
000110 c1 d1 af 3c 55 1e 40 bc aa 46 ab 3d 52 c6 4f bd
       0.021462323 -0.011725982 0.083630875 -0.050726242
000120 5a d4 1b 3d 6d 21 14 be 7a f3 22 be 41 b9 96 bd
       0.03804431 -0.14465876 -0.15913191 -0.07359553
000130 e7 16 3b be 61 66 36 be cb fc 49 bd 7d 32 69 3d
       -0.18270455 -0.17812492 -0.049313348 0.056932915
000140 e5 66 ff bd 4e 4a d0 bc b3 44 8a bc 98 b1 a1 3d
       -0.124707974 -0.025426056 -0.016878461 0.078952014
000150 27 d8 a1 3d 54 07 87 3d 5a 96 a2 3d c3 06 b0 3d
       0.07902556 0.065931946 0.079388335 0.0859504
000160 c4 9d 32 3e ea 4b 8f 3d 45 b5 d1 3c 31 a6 19 3c
       0.17442995 0.06996901 0.025599131 0.009378002
000170 1c 0d d7 bd e6 1d f4 bd 1e 77 ad bd db 25 83 be
       -0.10500547 -0.11919765 -0.084699854 -0.2561482
000180 d8 c0 2a be e9 d7 4f bd 37 bd 2c bd 9b f4 91 bc
       -0.16675127 -0.050743017 -0.042172637 -0.017816832
000190 bf fb 0a bd 4f c5 b9 3d b1 a4 b0 bc 7d 6e 89 3d
       -0.03393149 0.09070837 -0.021562906 0.06710527
0001a0 9f 87 49 bd 5a 7e 65 bd b1 1a 78 bd 07 89 e6 bd
       -0.049201604 -0.0560287 -0.06057233 -0.11256605
0001b0 cf 2a 85 bd e1 e5 08 be 3e 21 43 bd 0b 60 98 3d
       -0.06502306 -0.13368942 -0.047639124 0.07440194
0001c0 af 9f db bd 9e aa ce bb fc 36 53 be 04 b2 8d bd
       -0.107238166 -0.0063069602 -0.20626444 -0.069187194
0001d0 a2 2a 01 be 41 83 d9 3d 86 c0 05 be e3 72 9b bc
       -0.1261392 0.10620738 -0.13061723 -0.01897568
0001e0 54 98 c8 bd ca 29 85 be 0b 78 82 bd 33 76 87 bd
       -0.09794679 -0.26008445 -0.06370553 -0.066143416
0001f0 ce e2 c0 bd ed 5a 15 bc c1 e7 74 bc 7f 31 31 3c
       -0.094182596 -0.009115917 -0.014947833 0.010815023
000200 29 5c 7c bd b3 3b 01 bc 5e 94 c4 bd ce 95 98 bd
       -0.06161133 -0.007887769 -0.09598611 -0.07450448
000210 fd 03 04 be 6e d4 8a bb 7a 78 11 be 28 bc 87 bd
       -0.12892146 -0.0042367494 -0.14206114 -0.06627685
000220 8e 0b 34 be c0 58 ae bc 81 bc e6 bd a0 45 81 3c
       -0.17582533 -0.021282554 -0.11266423 0.01578027
000230 9e 97 91 bc 98 8b 8d ba b2 ce 55 bd 55 f4 da 39
       -0.017772492 -0.0010799048 -0.052199073 0.00041762242
000240 54 0e c8 bc 13 eb e9 bd 0c 20 53 be 31 25 03 be
       -0.024420895 -0.1142179 -0.20617694 -0.12807156
000250 d3 9e 7d bc b7 63 d4 bc 2e 13 35 bc 0b ee 05 be
       -0.015479761 -0.025926454 -0.011051936 -0.13079087
000260 95 13 6d bb 1f f7 77 bd 8c 0e b8 bc c2 a6 ab bd
       -0.0036175002 -0.060538407 -0.022467874 -0.08381416
000270 55 2c 94 bd 8f 79 73 bd cd a2 4d be 92 31 35 be
       -0.07235018 -0.0594421 -0.20081635 -0.17694691
000280 f0 61 3d bd 97 fd 22 be 00 17 4e be a4 19 3d bd
       -0.04623598 -0.1591705 -0.20125961 -0.04616703
000290 eb d2 bb bd bb d4 1b bc 82 a1 1c bd f7 35 f8 bd
       -0.09171089 -0.009511168 -0.038239963 -0.12119668
0002a0 09 33 eb bc 1f 6e dd 3b dd 85 05 bd 52 71 48 bd
       -0.028710859 0.006757512 -0.032598365 -0.048936196
0002b0 91 00 93 3c b8 6f 17 bc 5b 04 83 3d b5 d8 95 bd
       0.017944606 -0.009242944 0.06397315 -0.07316724
0002c0 09 a9 16 3d 4d e1 9e bd 2c 29 92 bd 7b b3 9c bd
       0.0367823 -0.077578165 -0.07136759 -0.07651421
0002d0 ad 00 0c bc 49 d4 78 3c 3b 2d 90 3d 78 12 86 bd
       -0.008545083 0.0151873315 0.07039877 -0.065464914
0002e0 ec c9 0c 3e ef 2d ec bc d7 6d 85 3c 9d 5a cf bd
       0.13748902 -0.028830497 0.016287727 -0.10124705
0002f0 5d 27 8d bd 5d 76 96 bd cd 87 8a bc ec f6 a6 bc
       -0.068922736 -0.07346795 -0.016910458 -0.020381413
000300 26 47 18 3d cb b6 09 be 7c 3a d3 bc 82 9c ff bc
       0.037177227 -0.13448636 -0.025784723 -0.031202558
000310 11 ad 14 3e c4 f4 5b bd 7e 00 ed bd a4 29 7a bd
       0.14519145 -0.053700224 -0.115723595 -0.061074868
000320 9e 68 80 3d 92 04 cb bc e8 f9 11 3d 48 56 9e bb
       0.06269954 -0.024782453 0.03563872 -0.004832063
000330 46 a6 5c bd 7a 90 fc bc 08 20 66 bc 60 9e 96 bc
       -0.05386951 -0.03083061 -0.014045723 -0.018386066
000340 55 da 92 3d f6 2e 77 3d e6 03 a9 3d 49 4e 14 3e
       0.0717055 0.06034752 0.08252697 0.14482988
000350 ba 09 68 3d f2 f1 6d bc a7 f6 92 3a db b0 68 3d
       0.0566499 -0.014523016 0.0011212424 0.056809288
000360 6e ce 8a 3c c3 6e 99 3d 96 fb b4 bd 61 28 45 be
       0.016944136 0.07491829 -0.08837049 -0.19253685
000370 08 a3 5e 3d 8a 95 96 3d 1b 05 d4 bd 63 d6 43 be
       0.054354697 0.07352741 -0.10352536 -0.19124751
000380 39 72 1a be 19 8d f1 bd 2e bb 91 bd cf 20 16 be
       -0.15082635 -0.1179449 -0.0711578 -0.14660953
000390 dd ab 63 3d df a6 e7 ba 50 06 81 3d 82 3d 95 bd
       0.055583823 -0.0017673633 0.06300032 -0.07287122
0003a0 a8 63 cb 3c 3d eb 8d 3d fe 0f 09 bd ba 2d 04 3e
       0.024827793 0.06929634 -0.033462517 0.12908068
0003b0 84 46 70 ba 0b 12 ce 3d 0a 55 c9 bc eb a5 13 3c
       -0.0009165781 0.10062035 -0.024576683 0.009011726
0003c0 3a fe fc 3b 2e d2 4a bd f1 53 ec bd 12 d0 49 bd
       0.007720736 -0.04951685 -0.11539448 -0.049270697
0003d0 12 6c a5 bd 89 c8 2c be 09 08 c4 bd 3e 92 05 be
       -0.080772534 -0.16873373 -0.09571845 -0.13044068
0003e0 98 02 25 be d5 c3 10 be 9a 67 fe 3b 83 00 80 3c
       -0.1611427 -0.14137204 0.007763815 0.015625244
0003f0 f5 ab 19 3c bc db 7d bd 5e 18 72 3b b3 0a d6 3d
       0.009379377 -0.061977133 0.0036940794 0.104512595

weight f4 [64, 12, 7, 7]
000000 8e 48 fd bc 51 a1 f6 bd 4b 22 83 bd 6d ab 8d bc
       -0.030918386 -0.120424874 -0.06403025 -0.017293656
000010 62 9c e2 bd 6f 2b be bd 76 2b 34 be 3a 1e af 3c
       -0.11064984 -0.09285628 -0.17594704 0.021376718
000020 84 18 d5 bc 52 29 92 bc e4 e1 02 bd 8d ca 0e 3d
       -0.026012667 -0.017841969 -0.031953707 0.034861136
000030 e5 de 5f bd 8a b2 95 bc 57 f1 0f bb c0 04 c7 bd
       -0.05465593 -0.01827361 -0.0021963918 -0.09717703
000040 93 ee c8 bd 46 22 50 be 57 61 4f be 43 45 11 be
       -0.098111294 -0.20325574 -0.20251976 -0.14186577
000050 a6 3c 37 be c7 35 7c bb 6b 01 11 3d c2 77 55 bb
       -0.1789423 -0.0038484202 0.035401743 -0.0032572602
000060 88 96 f7 3d b2 64 c9 bc 53 2f ff bc 9d 58 2e be
       0.120892584 -0.024584148 -0.031150496 -0.17025991
000070 0f d4 98 3d 37 c0 05 3d 36 e5 c4 3d e9 db e3 bc
       0.07462322 0.032654013 0.09614031 -0.027814822
000080 42 42 c4 bb 6b 90 b4 3b 91 4c f7 bc ad ca 15 bd
       -0.005989344 0.00551038 -0.030187877 -0.03657024
000090 ff 85 09 be 21 57 c5 bc 49 7c d6 bd 0b 3b b7 bd
       -0.13430022 -0.024089398 -0.10472924 -0.089468084
0000a0 df 60 5c be 53 b0 07 be f5 5e e1 3d 59 1a b4 bd
       -0.21521328 -0.13250856 0.1100444 -0.08794088
0000b0 38 06 e9 bb 01 13 84 bd 16 0c 14 b9 e8 d6 1d be
       -0.007111337 -0.06448937 -0.00014118882 -0.15414011
0000c0 ce 76 2a be 84 c9 b4 3b b8 38 4d 3d 52 b0 f8 bd
       -0.16646883 0.0055171866 0.05010292 -0.121430054
0000d0 bf 5f e9 3c 27 87 6b 3c 33 6b bb bc bd e0 89 3c
       0.028488038 0.014375485 -0.022878265 0.016830796
0000e0 41 61 23 bd 40 40 8f 3d 42 5a 8e 3d b2 05 92 bd
       -0.03988767 0.069946766 0.06950809 -0.071299925
0000f0 8b e6 32 3d 7a af 17 be 6e d9 d9 bc bf 1e 2a bd
       0.043676894 -0.14813033 -0.026592936 -0.041533228
000100 05 4b ae 3c 44 26 83 bc 79 7e 86 3d b4 3b cf 3d
       0.021276006 -0.016009457 0.065670915 0.10118809
000110 4c 8e 2b bd 85 be f6 3c fa 6b a2 ba a9 53 27 3d
       -0.04188375 0.030120144 -0.0012391799 0.04085127
000120 e4 74 28 3d 58 99 5e be ae a9 22 3e 71 fa 7d 3d
       0.0411271 -0.21738183 0.1588504 0.062006418
000130 07 bd a2 3b b4 11 3b bb 0e 36 b2 bc c9 09 84 3a
       0.0049663815 -0.0028544487 -0.02175429 0.0010073717
000140 10 ba 84 bd 60 7e d8 bd 01 a3 87 be ab a6 1a be
       -0.06480801 -0.10570979 -0.2649155 -0.15102641
000150 73 f5 6c bd 3a 5c 83 3d 18 e6 35 ba 70 89 af bb
       -0.057851266 0.06414075 -0.00069388887 -0.00535696
000160 14 8c 9b 3d bf ef 73 be 29 b0 1b 3d e5 d0 5a 3b
       0.07595077 -0.23821925 0.038009796 0.003338867
000170 13 82 9a bc ee a6 f9 3d a4 f3 85 bd 7c 50 9d 3d
       -0.018860852 0.121900424 -0.065406114 0.07681367
000180 8e a2 d4 bd 86 0d 07 3e 11 64 c2 bb 1e 4d a5 3c
       -0.10382567 0.13188753 -0.005932339 0.020178374
000190 5b f7 63 3b 62 86 cc 3c 50 d9 8f bb 9e fc 91 3c
       0.0034784887 0.024966422 -0.0043899193 0.017820653
0001a0 56 16 06 bc 67 ac 16 3d e1 ff 92 bd eb 4a 40 be
       -0.008184036 0.03678551 -0.07177711 -0.18778579
0001b0 9f df 8b bd f9 61 92 ba 02 06 40 bd 3f 89 04 3d
       -0.06829762 -0.0011168114 -0.04688073 0.03235745
0001c0 c8 e0 25 3d f1 77 e6 bc 5e 88 54 bd 49 90 9c bd
       0.04049757 -0.028133364 -0.051887862 -0.07644708
0001d0 1e b5 af 3a ec 8e 00 be 06 5c 2d 3b 3e 63 97 bc
       0.0013405418 -0.1255452 0.0026452555 -0.01847994
0001e0 64 77 89 bd 5c f1 06 be ce 15 89 bc 14 5f 3f bd
       -0.06712225 -0.13178009 -0.01673403 -0.046721533
0001f0 7d 49 c1 bd fc 20 d7 bc f0 b8 ed bd a4 fd 98 bd
       -0.09437845 -0.026260845 -0.1160754 -0.07470253
000200 41 5e 13 bd 14 10 c2 3c 20 85 1b 3c 14 e5 52 3d
       -0.03597856 0.023689307 0.009492189 0.051487997
000210 af 18 cf 3d d8 fe a5 bd bf b2 bb bd 75 63 07 be
       0.1011213 -0.08105248 -0.091649525 -0.13221534
000220 63 b7 09 3d 05 f8 12 3d 52 b8 2f 3d 8f d7 69 bb
       0.033622157 0.03588106 0.04290039 -0.0035681461
000230 8d 62 08 be 38 88 16 bd b1 2a 82 be f7 58 ce 3d
       -0.13318844 -0.036751002 -0.25423196 0.100755624
000240 71 ae c4 3d 21 71 fe bb b6 0f eb bc 56 0b 9b bd
       0.096035846 -0.007764951 -0.028694015 -0.075705215
000250 0b 2e 42 3d 55 c7 09 3e 21 0c 0c bd ff 8c ea bc
       0.04740719 0.13454945 -0.034191255 -0.028631685
000260 a6 f1 d0 bd fa 6b 42 3d 62 ba 50 3c 9b d9 55 bb
       -0.10202341 0.047466256 0.01273975 -0.0032630924
000270 67 65 2e bd 30 7d 89 bc 13 14 70 bd f6 db 2d bd
       -0.042577174 -0.016783327 -0.058612894 -0.0424461
000280 8e 77 98 bd f2 dd 9c bd 60 79 b2 3c d5 1a 7f 3c
       -0.07444678 -0.0765952 0.021786392 0.015570362
000290 42 82 af 3c 72 30 b4 bc 24 df 37 ba 96 5a d1 3d
       0.021424416 -0.021995757 -0.00070141465 0.10222356
0002a0 08 a4 c5 3b 47 0b df 3d 85 ae 4a bd 32 c5 35 bd
       0.006031517 0.10890823 -0.04948284 -0.044377513
0002b0 cb 38 21 3d 52 10 81 bd 9b 5f cf bd 7f 41 9b 3c
       0.039360803 -0.06301941 -0.10125657 0.01895213
0002c0 cc 8a 70 3d 48 ca 06 bd 6f af 71 bc b7 e9 91 ba
       0.058726117 -0.032907754 -0.014751299 -0.0011132275
0002d0 35 07 98 bd 14 42 58 bd 58 19 1b be 6f ab 87 bd
       -0.0742325 -0.052797392 -0.15146387 -0.06624495
0002e0 a9 e0 c5 3d 5b ef 3c 3d 7d 57 dd bc b8 7e 8f bc
       0.09661991 0.046126705 -0.027019257 -0.017516479
0002f0 67 0f ea 3d 54 4e dc bd d6 4f a1 bb 9c 36 e1 bc
       0.11428719 -0.107571274 -0.0049228473 -0.02749186
000300 33 6f 5a 3d bf 74 51 be f6 cf 82 bd 28 2e 1a 3e
       0.053328704 -0.20454691 -0.06387322 0.1505667
000310 0a 4b 60 bd 66 65 56 3d 5f 15 76 3d e3 c6 e9 bc
       -0.054759063 0.052342795 0.060078975 -0.02853722
000320 5f 91 34 be b6 ff 64 be 53 aa 07 3e b8 6d 72 3d
       -0.1763358 -0.22363171 0.13248567 0.059186667
000330 75 6e 49 bd e3 f3 ef 3b 0e 5a 00 bc 2d b9 66 3d
       -0.049177606 0.0073227747 -0.007833971 0.05632894
000340 b6 92 92 be fb b3 82 3e d8 8a ae 3b e0 0e 26 ba
       -0.28627557 0.2552794 0.00532661 -0.0006334614
000350 b9 d1 88 bc 5a 49 23 bd 9a 0e 12 be 60 20 f1 be
       -0.016701566 -0.039864875 -0.14263383 -0.47095013
000360 e5 f2 70 be 66 91 da 3c 30 d7 1f 3c f4 db d7 bd
       -0.23530157 0.02668066 0.009755895 -0.105399996
000370 32 ad f8 3d 0f 3a 9d bd c0 d5 8a bf c4 26 76 be
       0.121424094 -0.076770894 -1.0846481 -0.24038225
000380 30 c4 99 3b 5d 0e 23 bd 9a 21 6c 3d 54 29 14 bd
       0.004692577 -0.03980862 0.057649232 -0.036172226
000390 15 ce 46 3d d0 29 28 be ae de 84 bd 5d 01 38 bc
       0.04853638 -0.164222 -0.06487785 -0.011230794
0003a0 f1 b7 9d bc 40 40 be 3d 83 55 be 3d 41 a9 3d bd
       -0.01925275 0.092895985 0.09293654 -0.04630399
0003b0 96 73 d0 3d 2d b7 09 be f7 21 cf bc 98 d8 0e 3d
       0.10178296 -0.13448782 -0.02528475 0.03487453
0003c0 80 ee 28 bd 62 05 35 3b 9d 1e 28 3d 89 85 09 3e
       -0.041243076 0.0027621617 0.04104482 0.13429846
0003d0 82 b0 73 bd 40 73 d7 3d 33 be 35 3c 22 e8 cc 3c
       -0.059494503 0.10520029 0.01109271 0.025013033
0003e0 7a 48 7b bd b6 c7 fe bc 53 00 af bd 73 9f 0d bd
       -0.061348416 -0.031101089 -0.08544984 -0.03457589
0003f0 90 a1 9b bc 93 a5 33 bd 42 53 da bd d0 a5 03 be
       -0.018997937 -0.043859076 -0.106604114 -0.12856221

weight f4 [64, 64, 3, 3]
000000 b6 15 a7 3c 75 2e 15 3d 0f 08 3e 3e ef 0e 61 be
       0.020396095 0.036421258 0.18557762 -0.21978353
000010 ce 96 2a 3d 4d 2b 16 3d 99 8e 13 3e 6f db b9 bd
       0.041647725 0.03666239 0.14409865 -0.09075057
000020 37 8f 9e 3e cb 0b 8a 3b 6f 7a 51 3c 2f d6 d4 3d
       0.3096864 0.0042128316 0.012785538 0.10392415
000030 81 47 b5 bc db 8e 63 3e 60 c5 dd 3c 3c 70 b6 3d
       -0.022128822 0.22222464 0.027071655 0.08908126
000040 c2 9d dd ba e9 1e a0 bd bd 48 df 3d cc 40 7d 3d
       -0.0016907977 -0.07818396 0.109025456 0.061829373
000050 5b 92 39 bd 1b b4 c5 bd 4c 59 85 3e 8f 4a 0d 3e
       -0.04530559 -0.09653493 0.2604469 0.13797973
000060 8a 7a f9 bd de 15 14 be f9 ec 44 3e 23 3a 99 3d
       -0.121815756 -0.14461467 0.19231023 0.07481792
000070 55 14 21 3d cc 4d a6 bd f1 4a ee bd 1a fe c6 bd
       0.03932603 -0.08120307 -0.11635388 -0.09716435
000080 b9 93 0e 3d d6 c6 2d bc 60 a0 1d bd 01 ad 1c 3d
       0.034808848 -0.010606488 -0.038483024 0.038250927
000090 51 b3 8c bd 67 75 03 39 ff 48 93 bd aa 96 b5 3d
       -0.068701394 0.0001253687 -0.07191657 0.088666275
0000a0 0c 5d b1 bc d7 88 37 bd f6 95 8d bc b7 11 5c bd
       -0.021650814 -0.044808235 -0.017283421 -0.05372783
0000b0 5d 26 3e bd 4b f8 14 be ad 6c 33 bd 17 98 a3 3b
       -0.046423305 -0.14547841 -0.043804813 0.0049924958
0000c0 e1 78 0c 3e 72 b9 0f 3d 8c 7d fe bb f8 bb cd bc
       0.13717987 0.035088964 -0.007766431 -0.025114045
0000d0 7d 65 c0 bd 67 06 64 bd 3f 53 7c 3d 49 4b ab 3d
       -0.09394357 -0.05567017 0.061602827 0.08363969
0000e0 79 22 87 bd 2d b3 34 ba 80 46 6d 3d 8e 12 02 bd
       -0.06598372 -0.00068931544 0.057928562 -0.031755976
0000f0 ef 97 dd 3d 86 7f 1d 3d f4 2a dd bd 86 06 f1 bc
       0.10819995 0.038451694 -0.10799208 -0.029422056
000100 1b 9b 5a 3d fe d2 2e 3d de 55 2e bd f4 58 8d 3c
       0.053370576 0.042681687 -0.042562358 0.01725433
000110 06 3a 3f 3d 40 43 9d bd 1f f9 10 3d 2c 0c f3 bc
       0.046686195 -0.076788425 0.03539383 -0.02966889
000120 d4 dc 55 bd 80 d6 b7 bc c5 72 b5 bd 9b 81 a4 3d
       -0.05221255 -0.022441149 -0.08859781 0.08032533
000130 f8 f0 1e 3e ed db c5 3c bd c2 33 3d fe 3a 80 3d
       0.1552161 0.02415272 0.04388689 0.06261252
000140 d7 45 47 bd 2d 59 83 3b ff fc fb bc 27 1a 2d be
       -0.04865059 0.0040084333 -0.030760286 -0.16904508
000150 31 d1 22 bd 1f 82 8a bd 6a 66 32 be bb 0f bb bd
       -0.03975028 -0.067631 -0.1742188 -0.0913386
000160 25 93 88 bb 1d 36 f0 bd dd 04 bb bd 5b b7 a5 3c
       -0.0041679316 -0.11729071 -0.09131787 0.020229032
000170 f2 37 df 3d 5e d1 06 be 47 5b 92 3d 49 3f 76 bd
       0.108993426 -0.13165805 0.07146316 -0.060118947
000180 5e c1 2f bc 13 da 77 3b 39 82 34 3d bf 2a ad 3c
       -0.010727255 0.0037819191 0.044069503 0.021138547
000190 b9 16 23 bc e8 e7 3a bd f8 39 76 bd d1 96 a6 bc
       -0.009954148 -0.04563132 -0.060113877 -0.020335587
0001a0 56 6a c3 bb 8c ad 9c 3d a4 4c 24 bd 4d 60 13 bd
       -0.005963604 0.07650289 -0.040112153 -0.03598051
0001b0 04 c5 f9 bc ba 76 fc 3c d5 73 07 3c d7 9c a5 bb
       -0.030489452 0.030818332 0.008267363 -0.005054097
0001c0 49 7e 04 3d c5 78 15 be 3e a8 4b 3c 98 d4 d0 bc
       0.032346997 -0.14596851 0.012430249 -0.025491998
0001d0 3f e6 48 3d f5 19 04 be f2 6a d6 bd 98 7c 12 be
       0.049047705 -0.12900527 -0.10469617 -0.14305341
0001e0 37 ba f4 3b 15 2d 1f be 89 b7 72 be 69 a3 c7 3c
       0.0074684876 -0.15544541 -0.23702826 0.024369912
0001f0 68 9b 29 3d 13 c6 43 be 97 8a 87 3d 71 87 52 be
       0.041407973 -0.19118528 0.06618231 -0.2055948
000200 4f 8e 56 bd bd e6 ed bc eb 1c bf be c2 43 ff bd
       -0.05238181 -0.029040689 -0.3732675 -0.12464096
000210 ac eb 5c be c7 51 85 bc 6c 96 d8 bc cd 59 90 bd
       -0.21574277 -0.016274346 -0.026438914 -0.07048378
000220 0f ff f8 3c 89 f5 b4 3d 92 71 63 3a 2a 0d 8b bd
       0.030395059 0.088358946 0.0008676286 -0.0678962
000230 23 9e a3 bc d6 6b 0c 3d 10 5d ba bd 32 ad 8e 3c
       -0.019972866 0.034282528 -0.090997815 0.01741657
000240 09 82 60 bd 61 ab 57 be 6b 79 67 bb cd d3 8a bd
       -0.05481151 -0.2106147 -0.0035320173 -0.06778679
000250 13 8b 44 be 57 97 8b 3c 05 dc 45 bd 74 c9 d7 bd
       -0.19193678 0.017039938 -0.04830553 -0.10536471
000260 4c 54 11 be a0 a4 5c bd d7 60 14 be c8 b6 b4 bc
       -0.14192313 -0.053867936 -0.14490066 -0.022059813
000270 19 e8 d8 bb d5 40 c6 3d ef 9e 40 bc 04 a3 de bd
       -0.006619465 0.096803345 -0.011756643 -0.108709365
000280 f8 5c 85 bd f6 52 a3 bd 48 2e c2 bd d8 f4 5f bd
       -0.06511873 -0.07974808 -0.09481484 -0.05467686
000290 60 20 a3 bd 55 1e ce bb 2a f3 ff bc ba 8c 39 bd
       -0.079651594 -0.006290237 -0.03124388 -0.045300223
0002a0 ea 1f b5 bd 51 a1 0e bd 07 e6 18 3d b9 9f e4 bd
       -0.08843978 -0.034821812 0.037328746 -0.11163277
0002b0 0f 1f 7f bd 7b 38 28 bd eb 27 4b bc 7a 05 2f 3d
       -0.06228548 -0.04106949 -0.012399654 0.042729832
0002c0 25 d2 c2 bd eb 26 10 3c b7 8d 7b 3c c4 bc c8 bc
       -0.09512738 0.008798341 0.015353612 -0.024504073
0002d0 48 47 a3 ba ee 4d a1 bb a9 96 06 bd 98 28 44 3d
       -0.0012457157 -0.00492262 -0.032858524 0.047890276
0002e0 0e 34 2d bd 66 a3 97 3c ab c8 77 bd a0 bb 34 3d
       -0.04228597 0.018510532 -0.060494106 0.044124246
0002f0 9f 23 e6 3c 33 84 64 bd 93 80 26 3e 91 98 cf 3d
       0.028093157 -0.055790137 0.16259985 0.101365216
000300 08 f2 c9 bc e8 1f df bd b8 15 a7 bc 4c 2c 34 be
       -0.024651542 -0.108947575 -0.020396098 -0.17595023
000310 8c 41 bd 3c e6 17 b0 3e 77 92 24 bd 75 93 26 bd
       0.023102544 0.34393233 -0.040178742 -0.04066797
000320 f0 d9 f8 bc e0 92 f7 3c bc 9c 11 3d 12 cd 3f 3d
       -0.030377358 0.030221403 0.035549864 0.04682643
000330 52 2e 6f bd 3e 53 c7 3b b5 54 c4 3d ba e2 8b 3d
       -0.058393784 0.0060829213 0.09586469 0.06830354
000340 8e 80 30 bd 63 51 15 3d 3d ac cd bd 71 6b 1d 3e
       -0.04309135 0.03645457 -0.100426175 0.15373017
000350 92 72 6a 3e cb 99 00 3d 3c 16 ff 3d ea af 78 3e
       0.22895268 0.03139667 0.12455413 0.24285856
000360 d7 7e bb 3d cf f9 ed bc 9c c7 32 bd 29 e4 06 be
       0.09155052 -0.029049782 -0.043647394 -0.13172974
000370 38 5c 14 be f2 ec 9e bd 49 94 3e 3c 26 f3 b7 bd
       -0.14488304 -0.077600375 0.011632034 -0.08981924
000380 79 10 f9 bc d4 19 65 bd 0c 45 34 3b f0 76 1b bd
       -0.030403363 -0.055932835 0.0027506975 -0.037955225
000390 39 23 83 bb ac f6 13 3e d8 89 cd 3c d5 47 00 3e
       -0.0040020016 0.14449567 0.025090143 0.12527402
0003a0 16 dc ca 3c dc ac 02 3e ee e1 c8 bd e5 a0 2b be
       0.024763148 0.12761253 -0.09808718 -0.16760595
0003b0 c5 b1 17 be 78 3c 15 be fe 24 10 3b a6 c2 55 3d
       -0.14813907 -0.14573848 0.0021994705 0.052187584
0003c0 94 bd 82 bd 30 30 70 be 3f 3c 55 3d 65 23 40 bd
       -0.063838154 -0.23455882 0.05205941 -0.046908755
0003d0 a4 d2 89 3c 0d a7 1a 3c 50 1f 8f 3c 82 e2 c8 3b
       0.016824074 0.009439242 0.017470986 0.0061305175
0003e0 16 65 8e 3d f9 0d 3f bd 9e c1 90 bc 2f 45 31 3e
       0.06952874 -0.046644185 -0.017670449 0.17311548
0003f0 bf ea 99 bd 93 70 dc bc f9 49 91 3c 36 c4 a2 bd
       -0.075154774 -0.026909148 0.017735468 -0.079475805

bias f4 [64]
000000 61 e5 54 bc a7 d7 11 3d c7 32 80 bb 47 d1 c6 bd
       -0.012994141 0.035606053 -0.003912303 -0.09707885
000010 d6 b6 5a bd 93 29 3d bd bb b8 5f bb 42 1d 5d 3d
       -0.053397022 -0.046182226 -0.0034137208 0.05398298
000020 6e b8 e0 3d d7 1f d8 3d 13 1b c7 3d 21 9f af 3e
       0.10972677 0.10552948 0.09721961 0.34301093
000030 41 c9 4c 3b ea a0 8d bb 78 5b 8e bc b1 e2 e5 bd
       0.0031247886 -0.004322161 -0.0173776 -0.112248786
000040 69 ec 55 3d c8 67 a1 bc 37 ad e6 bd a0 89 fa 3d
       0.05222741 -0.019702807 -0.11263507 0.12233281
000050 c1 df a4 3d 8f 31 82 3c 0a ef ba bb 38 94 39 bd
       0.0805049 0.015892772 -0.005704765 -0.045307368
000060 1e 8d 96 3d 26 40 85 3d 25 f7 ea bb a9 41 86 3d
       0.07351135 0.06506376 -0.007170575 0.065554924
000070 31 98 eb 3d 8a 60 c2 3c 8e 03 3b bc 13 e5 ec bc
       0.115036376 0.023727674 -0.011414422 -0.028917825
000080 0e bb 99 3d da 79 f9 3d ef 77 95 bc 6c 18 91 bc
       0.07506381 0.121814445 -0.018245665 -0.01771184
000090 49 05 5f 3d 2b c2 f0 bb 4b 4d 98 bb 12 f4 ae bd
       0.0544484 -0.0073473654 -0.004647886 -0.085426465
0000a0 ca b0 fb 3c b1 ad 62 3c e7 a5 40 3e f4 f0 35 3b
       0.030723948 0.013835357 0.18813287 0.0027762027
0000b0 b6 2c 7a 3d 92 f2 9c 3d 48 0b 3b bc 9d 09 54 bc
       0.061077796 0.07663454 -0.011416264 -0.012941745
0000c0 b3 d2 85 3b c6 46 e0 bb 9e b3 82 bc 62 35 24 bd
       0.004083955 -0.0068443744 -0.015954789 -0.040089972
0000d0 12 e0 ad 3c e1 81 18 bd eb 58 19 3d ca 3e 8a b9
       0.02122501 -0.037233237 0.037438314 -0.00026368193
0000e0 d7 ec d0 3c 1e 03 a3 bd f9 c8 b6 3a 26 ed 86 3d
       0.025503559 -0.07959579 0.0013945393 0.06588201
0000f0 fb b5 02 3d 5b 83 ed bc d9 89 46 bb e2 6e 85 bc
       0.03191183 -0.0289933 -0.0030294566 -0.016288225

weight f4 [64, 64, 3, 3]
000000 75 fa 4d 3c 3d c8 78 3d 69 2a 42 bd 58 e2 cb bd
       0.012571921 0.060737837 -0.047403727 -0.09955281
000010 08 0d 20 be 46 64 7c 3d 30 b0 ab bc 3e 9b ec bd
       -0.15629971 0.061619066 -0.020958036 -0.115530476
000020 04 b6 a2 bb 44 7f 06 3b b6 89 fc bc 5a e7 43 3b
       -0.0049655456 0.0020522634 -0.030827384 0.0029892535
000030 5e 2e f8 bb 5f db 8e bd 09 2f c3 bd b6 91 98 3c
       -0.007573887 -0.069754355 -0.095304556 0.018624168
000040 ea 95 57 bd 33 0f c7 bb eb 24 3d 3d 04 c6 68 3c
       -0.052633204 -0.00607481 0.046177786 0.014207367
000050 65 cd 03 3e 43 c8 f5 bc 4d 8d be 3c 69 db bb bd
       0.1287132 -0.030002719 0.023260737 -0.091727085
000060 5e f3 8b bd 59 8e a4 bd d2 83 f1 bc f3 97 9e 3d
       -0.06833528 -0.08034963 -0.029481802 0.07743826
000070 60 f1 cf 3a ea 74 f0 3c 43 6b 34 bc ca 7c e1 bc
       0.0015864782 0.029352624 -0.011011901 -0.027525324
000080 94 48 42 3d a0 3f 9d bd fa f1 cd bc 3e 09 4b bd
       0.047432497 -0.07678151 -0.025139797 -0.04956936
000090 4a 25 69 bc 6f ae b8 3c d5 1b da 3a ce c7 a8 bd
       -0.014230082 0.022544114 0.0016640375 -0.08241235
0000a0 10 13 a3 bd 22 f5 5c bd cc 41 d8 bc a0 4d 9d bc
       -0.0796262 -0.053944714 -0.026398562 -0.019202054
0000b0 65 97 87 bc 84 d6 d6 bd b1 7b bb 3d 2d 36 31 3d
       -0.016551683 -0.10490134 0.09154452 0.043264557
0000c0 61 c0 38 3d 2f d8 1c 3c 18 7e 55 3d 28 34 89 bd
       0.04510534 0.009573027 0.052122205 -0.06699401
0000d0 89 50 14 bd d3 7d 19 3d 6d e5 9b bd bb 43 51 3c
       -0.036209617 0.03747351 -0.07612119 0.012772496
0000e0 71 12 9e 3c 1b 4b 4d 3c d4 65 d3 3c ad 08 7b bc
       0.019295903 0.012530114 0.025805391 -0.015321893
0000f0 a7 15 ce 3c 39 23 3c bd 87 76 0f 3c dd 77 92 3d
       0.025156809 -0.04593203 0.008756286 0.07151768
000100 2d a4 75 3b cb 31 39 bc 01 f1 01 3d e0 d8 54 bc
       0.003748189 -0.0113033755 0.03172398 -0.01299116
000110 1c 45 83 3d b1 7c 46 3d 72 af 7b bd 04 da 07 be
       0.06409666 0.04845876 -0.061446615 -0.1326676
000120 7d 31 83 bd bc a1 aa 3c 7f 93 70 3d 6c 53 58 3c
       -0.064059235 0.020829074 0.058734413 0.013203483
000130 0c 3f 88 bd 0b f4 3e 3d 75 f2 8c 3c 05 2e 38 bd
       -0.0665265 0.046619456 0.017205456 -0.044965763
000140 ef c5 82 bc 70 bc fd bd 97 f0 86 bd d8 ae 06 be
       -0.015963523 -0.12389457 -0.065888576 -0.13152635
000150 af 08 03 3e 8d b7 30 bd b8 ec e0 bc d9 6c 3c bc
       0.12796281 -0.043143798 -0.027456626 -0.011500561
000160 d4 97 4a 3d 1c b8 94 bd d4 11 79 bd ef c6 02 be
       0.0494612 -0.072616786 -0.060808018 -0.127712
000170 af 68 94 bd 82 6f 84 3a 42 76 a2 3d 91 98 86 bb
       -0.07246529 0.0010104033 0.07932712 -0.004107543
000180 43 87 0f bd a2 fb 87 bd 11 11 9e bc 03 99 a7 3c
       -0.035041105 -0.06639792 -0.019295247 0.020458704
000190 33 88 b9 bd da 22 dc 3c 86 13 71 3d 18 75 40 bc
       -0.09059181 0.026872087 0.05885651 -0.011746667
0001a0 b5 87 ef bc 82 25 0d bd 99 52 14 3d 86 5a 86 bd
       -0.029239515 -0.0344596 0.036211584 -0.06560235
0001b0 7a 68 b6 bd 3a 4b c0 bc e2 be 80 bd 64 33 07 be
       -0.08906646 -0.02347337 -0.06286408 -0.13203198
0001c0 f6 57 c8 bd ee dc 6a bd 12 fd 25 bd b3 fb 04 be
       -0.09782402 -0.0573396 -0.04052455 -0.1298664
0001d0 b7 da ce bd 14 1c 15 bd 62 c9 82 3d 93 07 9b 3d
       -0.1010031 -0.03640373 0.06386067 0.07569804
0001e0 0a 42 80 bd 63 33 d1 bd ef 37 e3 bc c0 fa 02 3d
       -0.06262596 -0.10214879 -0.027736632 0.031977415
0001f0 97 bc 1d 3b cd 8b 00 bd e6 ac bb 3c ad 95 43 bd
       0.0024068707 -0.031383324 0.022909593 -0.047750164
000200 26 26 86 bc d7 31 10 be b6 38 c7 3c 2f 7d 14 3c
       -0.016375612 -0.14081512 0.024319034 0.009063049
000210 8e 74 b8 bd 69 72 99 3c e8 77 aa 3d 81 83 8f bc
       -0.09006606 0.018731313 0.083236516 -0.01751876
000220 45 bd c4 bd 97 eb 3e bd 46 66 a1 3c b0 22 61 bd
       -0.09606413 -0.046611395 0.019702088 -0.05496472
000230 2a 61 90 bc 95 1c 0e bd fe 84 b7 bd 97 51 90 3d
       -0.017624456 -0.034695227 -0.08960913 0.07046812
000240 b7 c5 14 3d aa a5 cf bd 1d 6f a3 bc 46 bb 3f bd
       0.036321368 -0.1013902 -0.019950444 -0.046809457
000250 7a c8 9e bc ff b6 95 bd 49 a5 de bc 97 1b 07 bc
       -0.019382704 -0.07310294 -0.027178423 -0.008246324
000260 3b b7 44 3c 3d 95 a7 bb d5 4a 17 bb fd 1c 9d 3d
       0.012006576 -0.005114226 -0.0023085375 0.07671545
000270 16 93 f7 3c d6 10 85 bc f6 ea 34 bd 25 8e ba 3d
       0.030221503 -0.01624338 -0.04416939 0.09109143
000280 ba 52 74 3c b0 2a 37 bd 82 b6 8b 3a 54 bf 47 3b
       0.014912302 -0.044718444 0.001065925 0.003047903
000290 6d b9 0c be 4c b8 57 b9 48 c2 8b bc 42 2c aa bd
       -0.1374261 -0.00020572654 -0.017060414 -0.08309223
0002a0 9f af 78 3d 93 55 41 bb 7b 7c a6 ba d7 89 8d 3d
       0.06071436 -0.002950047 -0.0012701893 0.069110565
0002b0 64 0f 5f 3c a8 49 23 3c c3 e0 75 3d 03 35 ce 3d
       0.013614509 0.0099662915 0.060028803 0.10068705
0002c0 3a c3 00 3c 35 fe 08 3d dd b9 fa bd f7 48 73 bc
       0.007859046 0.033445556 -0.12242482 -0.014848939
0002d0 3d 67 58 3c e9 37 3d 3d 2e 5a 9c bd dc 9f 29 3d
       0.013208208 0.0461959 -0.07634388 0.04141222
0002e0 94 0f 1a be d4 c3 e5 bb ce fa 91 3d bf a6 d2 bc
       -0.15045005 -0.00701187 0.07127915 -0.025714276
0002f0 5b 49 c3 bd 79 77 27 3c 29 f7 a9 bb b2 32 81 bd
       -0.09535476 0.010221356 -0.0051869345 -0.063084975
000300 94 b0 29 bc 02 f8 aa 3c 03 d1 85 bc ab dc ba 3d
       -0.010357041 0.020870212 -0.016335016 0.0912412
000310 86 b8 a0 bd 73 d5 ba bc 84 23 75 3d 2c 92 d9 3b
       -0.07847695 -0.022806859 0.059848323 0.0066397395
000320 85 46 f8 bc e9 15 f3 3c d2 cb 2f 3b a2 cd 56 bb
       -0.030307064 0.029673534 0.0026824367 -0.0032776375
000330 6c ce ba bc 09 d8 bd bc 6e de b8 3c 60 01 81 bd
       -0.022803508 -0.023174303 0.022567 -0.062990904
000340 26 89 a0 3d c3 74 be 3d 38 57 03 bd d2 32 a9 bc
       0.07838659 0.09299614 -0.0320656 -0.020654116
000350 71 64 f9 3c ab 04 82 bd 92 6a 87 bd 96 bd ed bc
       0.030443402 -0.063485466 -0.066121235 -0.029021066
000360 78 ef 87 bd ef b4 d3 bd 67 38 f8 3a 4d 83 4f bc
       -0.06637472 -0.10337245 0.0018937708 -0.012665582
000370 35 c5 82 bd c6 3a ff bd fa 58 4a bd 4d 19 fa bc
       -0.063852705 -0.12462382 -0.04940126 -0.030529642
000380 61 ca 65 bd 46 29 b6 bd 32 46 8b 3d c3 53 53 bd
       -0.056101207 -0.08894591 0.06800498 -0.051593553
000390 01 1c 2a 3c bc 45 ed 3c b2 fd 9a bd 51 79 a8 bc
       0.010382653 0.028963916 -0.0756792 -0.02056566
0003a0 4e e8 d4 bc 0d 05 41 bd b9 22 11 bd 79 71 67 bd
       -0.025989678 -0.047123957 -0.035433505 -0.0565047
0003b0 c6 85 8c bd 5d 14 84 bc cd 7e ce bd c6 e7 c9 bd
       -0.06861453 -0.016122991 -0.10082779 -0.098586604
0003c0 69 dc 60 bd 25 98 a7 bd 1e 07 80 bd 28 db 60 bd
       -0.0548977 -0.08183316 -0.062513575 -0.054896504
0003d0 2b 36 f4 bd 5f a2 4c bd d9 85 b9 bd 7a bd 60 be
       -0.11924394 -0.049959537 -0.090587325 -0.2194728
0003e0 62 d9 d2 bd 77 c9 16 3d 20 cf 08 be 8c ea 27 be
       -0.10295369 0.036813226 -0.13360262 -0.16398066
0003f0 b3 54 03 bd b2 52 54 bc e1 18 4f be 75 53 8f bd
       -0.032063197 -0.012959169 -0.20224334 -0.0699834

bias f4 [64]
000000 dd e0 c9 bc 08 e1 e2 3d 9b 79 87 bd f2 83 f9 bc
       -0.024643356 0.110780776 -0.06614991 -0.030458424
000010 c6 af 90 3d d5 3b 25 bd 43 43 84 bc c0 01 5e be
       0.07064776 -0.040340263 -0.016145354 -0.21680355
000020 a6 34 7c bb 76 58 df bc 31 88 42 3d 9d 70 76 3b
       -0.003848353 -0.027263861 0.047493163 0.0037603744
000030 b1 33 4a bd 8d 41 6c bd 76 3f 00 3d 03 e1 03 be
       -0.049365703 -0.0576797 0.03131052 -0.12878804
000040 7d 20 fe bc 57 17 f1 3c 7d 1d a3 3d 43 78 1c 3e
       -0.031021351 0.029430075 0.07964609 0.15280251
000050 8d 11 67 3d ab e7 73 bd eb 4f b7 3c 61 ea 2a 3c
       0.056413222 -0.059547108 0.022376975 0.010431857
000060 10 41 bb bc eb 77 82 3d d7 d2 d0 3b 31 76 63 3d
       -0.022858173 0.06370529 0.0063727903 0.055532638
000070 88 2b 7e bd c5 db 48 3c de ac 7c bc 6a 67 95 3c
       -0.062053233 0.012259428 -0.015422074 0.018237788
000080 07 65 45 3d 56 d1 92 bd 2f ed bc bc a0 2f b7 3a
       0.04819205 -0.07168834 -0.023062317 0.0013975985
000090 39 92 44 bd e4 7f a1 3d 84 50 12 bd 96 b7 aa 3b
       -0.04799101 0.07885721 -0.035721317 0.0052098734
0000a0 09 e2 84 bd ca 31 94 bc 21 9c 3e 3e d4 c7 75 3d
       -0.06488425 -0.018090148 0.18614246 0.060005024
0000b0 ee df 4f bc 52 55 6d bd 20 6b 4d bd ac 79 88 3d
       -0.012687666 -0.057942696 -0.05015099 0.06663832
0000c0 70 d5 9f bc be e5 9f bc 72 c1 51 bb 6c 07 62 bd
       -0.019510955 -0.01951873 -0.0032006172 -0.05518286
0000d0 fa d8 72 bd 36 86 ae 3e e8 9b ce 3c 01 82 00 bd
       -0.059288956 0.3408677 0.025220826 -0.03137398
0000e0 46 64 98 3c bc 92 90 bd c1 38 48 bd 01 d0 0c be
       0.018602502 -0.07059237 -0.04888225 -0.13751222
0000f0 1b 79 3a bd 9e 16 6c 3d 28 0e ad bd 80 94 7f 3d
       -0.04552565 0.057638757 -0.08449966 0.06239748

weight f4 [64, 64, 3, 3]
000000 d7 84 c1 bc 3d a0 09 3c 65 5a 5d bd 73 49 6e 3d
       -0.023622913 0.00840002 -0.054041285 0.058175515
000010 a3 1a b8 bd 9e 10 82 bd 5b 1a ec bd 1a ad b5 3c
       -0.089894556 -0.06350826 -0.115284644 0.022177268
000020 96 49 c7 3c ec 07 73 3d 82 db 94 bc 00 ff 42 3d
       0.02432708 0.059333727 -0.018171076 0.04760647
000030 11 86 2a 3c 50 98 3f bc b2 3e 35 bd 89 28 3d bc
       0.0104079405 -0.011694029 -0.044249244 -0.011545309
000040 c5 ba 34 3d 85 fb b1 bd 02 53 e0 bd b7 7d 42 3c
       0.04412343 -0.08690552 -0.109533325 0.011870793
000050 a9 d6 aa 3d 87 b0 b8 bc f3 8e 9f bb b5 8d 82 b9
       0.083417244 -0.022545112 -0.004869336 -0.00024901112
000060 9b 9e d6 bc 50 c2 a2 3c b0 50 84 bd 32 7b 18 3c
       -0.026198676 0.019868046 -0.064607024 0.009306716
000070 ec 72 40 bd 84 29 92 3c 30 40 6f bd a7 b4 9a bc
       -0.046984598 0.017842062 -0.058410823 -0.01888497
000080 93 ad 63 3d b7 a7 76 3d fe 59 81 bd 2c ac 15 bd
       0.055585455 0.06021854 -0.06315993 -0.03654115
000090 2e d9 3f 3c db b2 1a 3c 80 76 00 3d aa f2 ac bb
       0.0117094945 0.0094420565 0.03136301 -0.0052779512
0000a0 b9 f9 e3 3c 5c 90 68 bc 62 8f b8 3c 6e 09 0b 3d
       0.027829038 -0.014194574 0.022529308 0.03394454
0000b0 5c ab 05 3c fb f7 da 3c 4f 09 76 3c 3f 46 3e bd
       0.008158531 0.026729574 0.015016868 -0.04645371
0000c0 7b 7b 96 bb 5d 74 cb 3a dc 88 7b bb 14 20 83 bd
       -0.0045923567 0.001552235 -0.0038381135 -0.06402603
0000d0 6b f4 23 bd a1 c4 bf bd 82 1c e8 bc e1 ee ff 3c
       -0.040028017 -0.09363676 -0.028333906 0.031241836
0000e0 77 6f e4 bc ca e8 db bd 69 6a 83 bd 59 2a c0 3d
       -0.027885182 -0.1073776 -0.064167805 0.09383077
0000f0 f3 98 88 3d 3e 9f a3 bb 06 bc 02 bd b1 06 ef 3c
       0.06669798 -0.0049933484 -0.031917594 0.029177995
000100 e1 71 ae bd a4 ff 6f 3d de 14 29 3d 9d 40 a0 3c
       -0.085178144 0.058593407 0.041279666 0.01956206
000110 3f 1f 79 bc a4 52 6b bc 03 4e 82 3c c9 7e 51 bd
       -0.015205204 -0.014362965 0.01590634 -0.051146302
000120 d2 6b a1 bc 5e 4e e1 bd ef 8a 21 be 47 81 e6 bd
       -0.019704733 -0.110012755 -0.15775655 -0.112551264
000130 83 7e 04 bd 3e ab cc bd 87 84 ec bc 28 3b b6 3b
       -0.032347213 -0.09993599 -0.028871788 0.005561251
000140 04 68 7a 3a ed 94 58 3d 47 e8 14 3d c6 da d5 bc
       0.00095522427 0.0528764 0.03635433 -0.026105296
000150 99 e0 ba bc c3 5f c1 bc 67 e0 7d bc 8e f5 af bd
       -0.022812175 -0.023605233 -0.015495396 -0.08591758
000160 ed 1a 28 3d 6a b9 90 bd 9f de 12 3d ae ce b1 bc
       0.041041303 -0.07066615 0.03585684 -0.021704998
000170 eb 4f 97 bd fc 46 0a 3d 3c 03 23 be 59 e8 b4 bd
       -0.0738829 0.033759102 -0.15919203 -0.08833379
000180 9d 3a 91 bd ba 42 96 3c 53 a6 9c 3b 15 98 e0 3b
       -0.07091258 0.018342365 0.0047805696 0.006854067
000190 bd f7 34 ba a9 60 dc bd ec 72 ec bc 02 6f ad 3a
       -0.0006903371 -0.10760624 -0.028863393 0.0013231935
0001a0 67 ca 72 bd e6 0d 82 bb 6c e2 9a 3c b4 88 87 bc
       -0.059275057 -0.003968942 0.018906794 -0.016544677
0001b0 28 12 48 bd 78 5f b2 bb 80 ef 90 3d 7c ac 7e bd
       -0.04884544 -0.0054435097 0.07076931 -0.062176213
0001c0 f0 70 ad bd 26 fc 5c bd 51 63 25 3c 70 07 ac bc
       -0.08468807 -0.053951405 0.01009448 -0.02099964
0001d0 06 18 60 bc f8 06 0e 3c 33 26 8a 3d 17 e6 a5 bc
       -0.013677603 0.008668654 0.06745567 -0.020251317
0001e0 35 3a 24 bd 7e 55 54 3d b1 b4 01 bd 9f fc 8c 3c
       -0.040094573 0.051839344 -0.03166646 0.017210303
0001f0 34 82 89 bc ca 81 29 bd 43 f1 cb bd 77 74 3c bc
       -0.016785719 -0.041383542 -0.099581264 -0.011502377
000200 fc df 9e 3d 9c 11 81 3d 9e 8d ae bd 1b 07 2b 3d
       0.077575654 0.06302187 -0.08523105 0.041754823
000210 86 73 65 bd 67 4a 2b bd 32 3a 4f bd af 74 11 bd
       -0.056018375 -0.041819002 -0.05059261 -0.03551167
000220 5f f5 26 3d 69 cf 8f 3d 68 dd 33 bc 28 a5 e8 3b
       0.040761348 0.07021982 -0.01097808 0.0070997663
000230 21 3e c6 bc 1e 32 a5 bd 46 c4 05 3e 36 1e 05 be
       -0.024199547 -0.080662 0.13063154 -0.12999806
000240 1d 66 56 3d 7a 0e b8 bd e9 87 86 3d a4 cb e0 3c
       0.052343477 -0.08987136 0.065688916 0.027440853
000250 83 4f 45 bd cf 68 8e bc 04 ef 25 bd 25 be bd bc
       -0.04817153 -0.017383961 -0.040511146 -0.023161957
000260 56 0a d2 bc 31 f5 02 bd af bc b1 bd ae a2 9c bd
       -0.025639694 -0.031972114 -0.08678567 -0.07648216
000270 70 4d f5 bd 4a 83 a1 bd b1 fc a5 3c 44 96 79 3d
       -0.11977661 -0.078863695 0.020262094 0.06093432
000280 40 ed c9 3d 64 93 0d 3c 39 2c b0 bc c4 ce 29 3d
       0.09859705 0.008641098 -0.021505462 0.041456953
000290 db 2b 8b bd c9 fc cb 3d 28 10 91 3c cf 5a 21 3d
       -0.06795474 0.09960324 0.0177079 0.039393242
0002a0 e3 33 fa 3d d5 a5 8f bb 6e 5e 84 3d fb b3 b0 bc
       0.12216928 -0.0043837824 0.064633235 -0.021570196
0002b0 b6 a9 68 3d 16 ce 2e be 4a 1d 07 bd 28 ef ac bd
       0.056802474 -0.17070803 -0.032986917 -0.08444053
0002c0 f7 b2 8f 3c c2 48 bc 3d 9a ab 2b bc d1 06 e2 3c
       0.017541392 0.09193565 -0.010477925 0.027591141
0002d0 6b 6d d3 bc 27 18 53 bc 94 df 43 bc 73 c7 fa bc
       -0.02580901 -0.012884176 -0.011955161 -0.030612683
0002e0 6d 58 4c 3c 2f 35 33 bd 9c 56 cb 3d 56 ee 26 bd
       0.012472254 -0.04375189 0.09928629 -0.04075464
0002f0 ea cb f1 3c a6 9a 55 3d 24 6b 7e bc e2 39 21 bd
       0.02951618 0.052149437 -0.015528474 -0.039361842
000300 e4 04 2f bd f4 3b 69 3c 49 e4 c3 3d 4f a8 75 bd
       -0.042729273 0.014235485 0.09565026 -0.059974965
000310 bd eb 88 3d 4c c7 07 3e 33 aa e8 3c 70 ba 3c 3c
       0.066855885 0.1325962 0.02840147 0.01151906
000320 ca 52 02 3d 3b 3a 12 bd 2c 73 03 bd 15 40 73 bd
       0.031817235 -0.035700064 -0.03209226 -0.059387285
000330 a0 be 97 3d c3 86 25 3d 97 05 da 3c 9b 93 d7 bd
       0.07409406 0.040411722 0.026613994 -0.105262004
000340 d2 83 3e 3d a7 92 13 be 2a fb 11 3e 55 1a 90 bc
       0.046512432 -0.14411412 0.14255968 -0.017590681
000350 4f 51 a1 bc 30 6d ba 3d ca 48 14 3e 16 e0 22 3d
       -0.019692091 0.09102857 0.14480892 0.039764486
000360 03 e2 76 3c 1b d1 79 3b 77 ae 85 bd 7f d8 4c 3d
       0.015068534 0.0038119021 -0.06527417 0.050011154
000370 fb 17 5b bd 0c b2 24 bd 8d f0 11 3d 22 4f 20 3d
       -0.053489666 -0.04020886 0.035629798 0.039137967
000380 7b 25 aa bd 1a 5f 1b bd 4c 3c cd bd 1d 76 87 3d
       -0.0830793 -0.037932493 -0.10021266 0.06614325
000390 88 f2 17 3c 56 0d ba bc ab fb 21 bc 65 65 9e 3d
       0.009274133 -0.022711437 -0.0098866625 0.07734183
0003a0 73 d2 94 3d 2c 68 33 bd be 48 0b bd 60 f9 d1 3c
       0.072667025 -0.043800518 -0.03400492 0.025631607
0003b0 7f db 3a bd 6f 00 1a bd e6 ae 08 bd 44 bf a6 3b
       -0.045619484 -0.03759807 -0.03336992 0.0050887186
0003c0 23 bf b2 3c 9d 68 60 bd 1c 0b 8e 3d f9 0a cb bc
       0.021819657 -0.054787267 0.06935713 -0.024785506
0003d0 58 03 ec 3c 78 d2 63 bc a2 ef c5 bc 3c 5e d3 bb
       0.028810188 -0.01390516 -0.024162117 -0.0064504426
0003e0 f2 de 56 bd 1b a3 5f 3d 4d 96 27 be 02 be 93 bd
       -0.05245871 0.05459891 -0.16365929 -0.072139755
0003f0 0d 56 31 3d 40 32 51 bd 35 14 1f bd c2 4d b2 bd
       0.043294955 -0.051073313 -0.03883763 -0.087062374

bias f4 [64]
000000 8e 21 2d bd a7 69 3c bd ff 2b 7f bd 09 1e 2c be
       -0.04226833 -0.045999195 -0.062297817 -0.16808333
000010 cc b8 77 bd 52 73 05 bd 9e d0 48 3b ce e3 27 3c
       -0.06047897 -0.03258068 0.0030641924 0.010247184
000020 3f 9e a9 bd c4 25 77 bc 7a f4 a8 bc 61 38 59 3e
       -0.08282136 -0.015084688 -0.020624388 0.21212913
000030 38 b4 17 bd a3 e9 b2 bc bc 94 fe 3b 6e 9b 16 3d
       -0.037037104 -0.021839922 0.0077691954 0.036769323
000040 09 2d 74 bd 11 1d 8f 3a d4 de 5a 3c b4 5c 09 bd
       -0.05961326 0.0010918697 0.01335879 -0.033535674
000050 bf 1f b2 3c 96 b1 0b 3d 43 d0 e7 bb 56 04 76 bd
       0.021743653 0.034104906 -0.0070743873 -0.06006273
000060 e4 d9 34 bc ca bc 6e bc b3 b9 9a bd 78 b7 10 bd
       -0.011038277 -0.014571378 -0.075549506 -0.03533122
000070 2c 7b 4d bd b2 7e 86 3c ad 64 1f bd 4e f6 52 3d
       -0.050166294 0.016417835 -0.03891437 0.051504426
000080 81 18 87 3d fa 51 c9 bc ec 28 4a bd b4 5c 92 bd
       0.065964706 -0.024575222 -0.049355432 -0.07146588
000090 46 5c 5a bd 85 82 9a 3a b9 29 c8 3d 09 6c 8a bc
       -0.053310655 0.0011788165 0.09773583 -0.016897218
0000a0 6a bc 48 bb c5 29 46 3d 01 d2 5a bd dd 05 de bb
       -0.0030629882 0.04837968 -0.05342293 -0.0067756013
0000b0 55 38 0c bc 2e a3 f6 3c 26 22 6d bd 40 a0 8d bc
       -0.0085583525 0.030107107 -0.057893895 -0.017288327
0000c0 a4 be ab bd ea d1 88 3d 7d 0c 8a bd 02 03 02 bc
       -0.08385971 0.06680663 -0.06740663 -0.007935287
0000d0 08 94 b7 bc fe 65 88 bd 1b 19 59 be 9f 5d 7a bc
       -0.022409454 -0.066600785 -0.21200983 -0.01528111
0000e0 2b ff f8 3c e0 05 45 bc 35 a7 42 bd 58 bf 8e bd
       0.030395111 -0.0120253265 -0.047522742 -0.0697009
0000f0 d3 2c 4d bd 4e 3a e5 bc 34 03 27 bd 43 94 1b bc
       -0.050091576 -0.027981903 -0.04077454 -0.009495798

weight f4 [12, 64, 3, 3]
000000 19 62 0b 3d 84 9a 71 bd 5b e5 75 bc a9 b0 9e b9
       0.0340291 -0.05898525 -0.015008296 -0.0003026773
000010 90 f8 75 3d 82 36 2e 3d ee 7d 83 ba eb 15 96 3c
       0.0600515 0.04253245 -0.0010032037 0.018320998
000020 b4 f3 13 3d 1a 12 6c bc 52 40 55 bc 14 20 1c 3b
       0.036121085 -0.014408613 -0.013015823 0.002382283
000030 bb af 00 bc ef bc 8c bd 02 39 e9 ba d8 ae 81 ba
       -0.007854397 -0.06871974 -0.0017793479 -0.0009894026
000040 c8 90 31 3d a1 4f 27 3c 05 43 49 3c 36 90 c5 bc
       0.043350965 0.010211856 0.012284045 -0.024116617
000050 47 88 77 ba 9b 42 c9 bc c9 dc e9 3c 98 a7 6e 3c
       -0.0009442609 -0.024567893 0.028547661 0.014566325
000060 0f 9f 06 ba a5 9e 37 3d ad 98 0f bc 17 e2 22 bd
       -0.0005135396 0.04482903 -0.008764428 -0.039766397
000070 df e8 dd 3d ed 1a 8d bb 4a 01 e9 bb e9 cc d2 bd
       0.10835432 -0.0043061883 -0.0071107494 -0.1029299
000080 4c 2a e1 3a 1a 56 e0 3b 64 bd fb 3c 25 13 91 bb
       0.0017178743 0.0068462016 0.030729957 -0.004427331
000090 c4 17 3b 3d 14 1e 7c 3d 34 b7 19 bc 50 65 18 3d
       0.04567696 0.061552122 -0.009382058 0.037205994
0000a0 c1 5c f7 3b e5 42 56 bd a1 4b 88 ba d2 bc 3e ba
       0.007548899 -0.05230989 -0.0010398516 -0.0007276061
0000b0 ce 0f 16 bd a1 d9 27 3b c4 4b f9 bc 56 d6 06 3d
       -0.036636166 0.0025611895 -0.030431636 0.03291925
0000c0 59 47 ce bb fe 1d ee 3d 74 12 8f bb 89 51 cd 3b
       -0.0062951264 0.11626814 -0.0043662135 0.0062658233
0000d0 c2 06 4d bc 01 55 aa bc ab 82 e1 bd 13 fd e3 bd
       -0.012513818 -0.020792486 -0.11011251 -0.111322545
0000e0 50 dc ed 3d 92 c7 68 3c 61 96 88 be 16 74 dc 3d
       0.11614287 0.0142077375 -0.2667723 0.10764329
0000f0 37 d1 a0 bd c7 4c 41 bd 27 81 a1 3b 07 b4 51 3c
       -0.078524046 -0.04719236 0.0049287262 0.0127992695
000100 be d4 44 3d 9e 68 34 3c 14 5f 47 bc 3f b1 08 bd
       0.04805445 0.011011271 -0.0121686645 -0.03337216
000110 db 17 51 bc df e7 0d bd f7 df 03 bd 66 ce d8 3a
       -0.012762035 -0.034644958 -0.03219601 0.0016541004
000120 38 3c 29 bd 0a 50 fb 3b 09 64 dd bc f2 ae a0 3d
       -0.041317195 0.0076694535 -0.02702524 0.07845868
000130 26 73 e8 bb f7 2a 72 bd 1c 8f df 3d e7 85 69 bd
       -0.007093805 -0.059123006 0.10915968 -0.057012465
000140 04 ec 38 bb 19 f5 76 3d d9 67 dd bd e5 30 a4 3b
       -0.0028216848 0.060292337 -0.10810823 0.0050107115
000150 22 56 84 bd ef aa 9a 3d 59 7c 46 bd c8 27 cc 3c
       -0.06461741 0.07552134 -0.04845843 0.024921313
000160 73 2c 9a 3b 45 5f 90 3d e6 dc be 3d 25 41 46 3d
       0.004705006 0.07049421 0.09319477 0.04840197
000170 66 b0 62 bd d0 b9 34 bc 01 06 65 bc 44 ad 19 bd
       -0.055344008 -0.011030629 -0.013978482 -0.037518755
000180 0d f5 73 3c 72 dc ad bc f3 bc 70 bd 04 14 39 b8
       0.014889968 -0.02122328 -0.058773946 -4.4126078e-05
000190 30 f2 10 bb cb a2 ed ba b3 da e9 bc cf c2 e1 3c
       -0.0022117011 -0.0018130181 -0.028546667 0.027558712
0001a0 11 4d c1 3c 6a d0 0d ba 30 67 a6 bb 73 5c aa 3b
       0.023596318 -0.0005409779 -0.005078219 0.005199009
0001b0 76 d5 80 bb fc b7 33 bd 53 2a 0e bd 5e cd d3 3c
       -0.0039316965 -0.043876633 -0.034708332 0.025854763
0001c0 f0 ce ed 3b 85 9f e8 3c 21 b0 73 3c 84 20 51 3d
       0.007257335 0.028396377 0.014873535 0.0510564
0001d0 f3 08 2c bd d4 ea 12 3d e2 47 d3 bb 4f d3 71 bc
       -0.042000722 0.03586848 -0.006447778 -0.014759853
0001e0 e5 ce 37 3d 8b b7 a7 3d 72 fc c8 bc 67 6f 89 3c
       0.044875044 0.08189305 -0.024534438 0.016776754
0001f0 f3 b0 a1 bc 18 6a c4 bd 6e 53 93 bd 9a 30 d2 3c
       -0.019737696 -0.09590548 -0.07193647 0.02565794
000200 8e 34 4f 3d 0d 80 70 bd 76 bf 02 bc 53 d6 9e 3d
       0.05058723 -0.05871587 -0.007980218 0.07755723
000210 fe ad 0c bd 85 fb ba ba 88 7b db 3c e1 4f d3 bc
       -0.03434562 -0.0014265632 0.026792303 -0.025794925
000220 8b 04 88 bc 8b ee 02 bd 18 75 8c 3d db 4e 04 3c
       -0.016603729 -0.031965774 0.06858271 0.008075441
000230 54 97 21 bd 0a 92 a7 3a 78 65 2b 3c e1 a5 a8 39
       -0.03945096 0.0012784612 0.010461204 0.00032167046
000240 57 b4 84 3b 20 7b 75 3c 71 62 bf 3c ed 7e 23 bd
       0.0040498185 0.014982969 0.02336237 -0.039915968
000250 a6 f4 9a 3d 1b fd 54 bc 6e b9 7f 3c 8a ac 63 bd
       0.07566194 -0.012999798 0.015608175 -0.055584468
000260 d4 39 0a bd 2a c5 b1 bb 65 72 bf 3a 8c dd 31 bd
       -0.033746555 -0.005425115 0.0014606236 -0.043424174
000270 d0 27 76 bb 0c 27 b3 bc 78 e5 47 bd 0e 44 07 3c
       -0.0037560351 -0.021869205 -0.048802823 0.008255972
000280 bc a8 ad 3c c8 27 d3 bc 2f 52 e4 3c 02 40 ce 3a
       0.021198623 -0.025775805 0.02787122 0.0015735629
000290 8a 53 45 3c 95 ef 45 bc f4 f3 a9 3c 14 fc 7e bb
       0.012043843 -0.012081047 0.020746209 -0.0038907574
0002a0 5b c8 43 bd 38 3a d8 3c c2 9a 07 bd 1b 4f 07 bd
       -0.047798496 0.026394948 -0.033106573 -0.033034425
0002b0 be 22 38 3c 41 9e b8 3b c1 80 70 3d c7 be 8a bd
       0.011238752 0.0056340997 0.05871654 -0.06774669
0002c0 92 19 ff 3c 9d bf 1c 3c 5c 2e 8a bc 41 40 01 39
       0.031140123 0.009567169 -0.016867809 0.00012326335
0002d0 7d b0 e8 bc c7 43 4f 3d e8 6a 5a 3c b3 8e ee bc
       -0.028404469 0.050601747 0.0133311525 -0.029120779
0002e0 75 8c 22 bd 0b fa c0 bb 38 23 a5 bb 10 3e a2 3c
       -0.03968473 -0.0058891824 -0.005039599 0.019804984
0002f0 e3 1f f8 3c 4a 82 00 3d ec 44 c5 3c d3 43 40 bc
       0.030288642 0.031374253 0.024080716 -0.011734921
000300 5d fe 86 3d 17 f5 6a bd 11 d0 57 bd e7 4b ec bb
       0.06591485 -0.057362642 -0.052688662 -0.0072111967
000310 73 43 91 bc dd 88 98 3b cc 17 d0 3c c0 3e d1 3d
       -0.017732358 0.0046549872 0.025401972 0.10217047
000320 2b 2c 97 bd 39 9d ef bb ee 6f 4d 3e 78 1b 4f be
       -0.07381471 -0.0073124436 0.20062229 -0.20225322
000330 23 16 31 bd ec 7e 46 3e 17 62 05 be 96 9d f6 bd
       -0.043234 0.19384354 -0.130257 -0.12041776
000340 fc 02 ae 3d 2d 50 4e 3c a3 54 0c bc 91 92 b9 3c
       0.08496663 0.012592358 -0.008565101 0.022652896
000350 ed ae d3 3b 9a 2e 26 bd 43 0f ba 3c 0f 84 c1 3c
       0.0064600618 -0.040571786 0.022712355 0.02362254
000360 41 b7 1e 3d 9a 0b a4 3b 14 a4 39 bd a3 1a b0 3d
       0.038748983 0.005006266 -0.045322493 0.085988306
000370 aa 14 42 3d d5 07 c2 bd 80 09 c8 bc 4a ea f9 3b
       0.047382988 -0.0947415 -0.024418592 0.0076268064
000380 50 11 70 bd 0a 54 18 3d d8 d6 3d bd 3b 37 0d bd
       -0.05861026 0.03718952 -0.04634747 -0.0344765
000390 a0 b6 62 3d 6f d8 ae 39 ff 88 fc 3d bb ca 16 3c
       0.055349946 0.00033349122 0.123308174 0.009203608
0003a0 94 38 94 bd 3e e8 f2 bc 9d c7 4d 3b 2b ad 1c bd
       -0.07237354 -0.029651757 0.0031399496 -0.038251083
0003b0 41 b3 0d 3c 2b 65 43 bb 17 44 b3 3c 5c c3 7f bd
       0.0086486945 -0.002981494 0.021883054 -0.06244217
0003c0 56 42 39 3d 86 3c 7e 3b 57 f0 f3 3c 33 df 98 bd
       0.04522928 0.00387934 0.029777689 -0.07464447
0003d0 76 47 78 3d cc 83 dc bc 81 0c f1 bc 11 97 14 3e
       0.060615025 -0.026918314 -0.029424908 0.14510752
0003e0 6f de d8 3c ac 40 57 bd a9 70 21 3b bb 59 7d bd
       0.026473252 -0.05255191 0.00246338 -0.06185315
0003f0 ec 40 ce 3c 4b dc 9b 3c 31 2a 24 3d e2 58 99 bc
       0.025177442 0.019025942 0.0400793 -0.01871914

bias f4 [12]
000000 8a ba e2 bb bc 81 63 bb 2a 03 ed 3b df de 9c bb
       -0.00691921 -0.003471478 0.007233043 -0.0047873105
000010 86 3e 22 bc 34 b3 88 bb 89 d9 f2 3b 4e bd 2f 3c
       -0.009902602 -0.0041717533 0.007411186 0.010726286
000020 b7 de 2f bb 98 ad 89 3a b9 f2 93 3a e6 2e 47 ba
       -0.002683563 0.0010504005 0.0011287547 -0.0007598236
